ISAAC_NOGIT/logs/rsl_rl/traquad_flat/2025-09-16_12-53-26/exported/policy.onnx (onnx, 153859 bytes, 8 tensors)

actor.0.weight f4 [128, 31]
00000000: 8ad6 1dbf 19cc b1be 8fb4 5abe 9ec2 903e
00000010: 519b 243e 1f32 103e 901d 853f 636a 71be
00000020: 82ea f5bd 28b0 e33d d917 1a3d 2a03 57bf
00000030: 12d2 6abf 99ec ab3f d21b 043f 1f56 333e
00000040: c71e 75bb cd6f 183c c63b 743e e23b 193d
00000050: 01fb b53d 541d c8bd 0faf 48bd 50e1 f5bd
00000060: 3efd c23e 12f4 ebbe ce71 d43e 4501 3bbd
00000070: 7524 553e 9693 bbbd cbae dabc d30b b1bd
00000080: f7cc 85be 52cd 253e efcd cb3e 4066 b6be
00000090: 537b 8a3e f711 4c3e 9da5 77bf dfe2 d13e
000000a0: e97a e5be 20d0 0c3f 1c59 3cbe 452d 98bf
000000b0: 04c8 2fbf 1b2f fdbd be31 bebd 6022 93bd
000000c0: b754 a3be 0a0c 12be 0603 4abd 46e3 933c
000000d0: 18da eabc 5e57 0a3e ff11 373e 352d 003f
000000e0: 938c 11be f1d4 613e 4d7e ecbd c5aa 4bbe
000000f0: 0bc4 df3d 7617 17be 8d7c c6be 765f 35bf
00000100: 7cbe 1d3e b409 f73e 6110 a9bd 32b9 58be
00000110: cd0a 2b3f 7f57 f1be 7f80 02be b295 123f
00000120: 743f 36bf 3fff 8abf 83c6 27bf 51cd e63f
00000130: 62cc 823e 9c6d e2bd 60c7 a03d c5f4 cd3e
00000140: 8f51 46be 163b 92bb 3c33 cf3d 44a0 a0bc
00000150: bd8e bebc 2e3f 9a3e 001f 783e 572e a53e
00000160: cfb5 30bf 603a aa3d 23f2 6dbd 27bf 9dbe
00000170: 3dd6 933e f615 7c3f 3d49 e2be 3a10 57be
00000180: 0a95 323d 9cb5 bcbe 9798 7b3e 4946 59bf
00000190: 7fa8 f3be 4d75 983e 5b36 2abe 9cbb 923e
000001a0: 60af 823f 3c7e 2e3d 3e6a 8abe a80c 11bf
000001b0: 1b31 4c3e 71b3 9d3e 5d42 06be 84fa 40be
000001c0: dcfd dfbb 421f 92bc 664d 45bd 473b 043e
000001d0: 1c47 48be 73cf 9e3d 0ee4 6bbe 38e2 76bd
000001e0: fbe0 4e3c d676 2abe ae5f 843e b701 b9bd
000001f0: 8c0f 6b3f 7251 4e3f 1bfe 5cbf de33 d6be
00000200: a2e7 983d 7a60 023f c00f bbbf aa10 e33f
00000210: e9d6 1ebd 0791 8e3f d3e7 33bf 91db 3ebf
00000220: 2941 5440 1d47 06c0 f941 a0bf 4bf8 963d
00000230: fc9a 173e 2819 58be fc9c 56be f90d ee3b
00000240: e664 02bc e382 bc3a c750 b9bc 7789 a93e
00000250: 521f b2be fde2 043f 8bf6 26be 654f ff3d
00000260: a1fe 733c 4a1e d1bd 2614 363e 7572 163d
00000270: 8d3a 913e 8f66 d8bc 66dc c9be aa7d 183e
00000280: aa5f 773e 99f2 ca3e db2e 803f cd36 d7bc
00000290: 7f70 033f e0c0 733e 1f65 0cbf d07d c23e
000002a0: b887 7dbf b347 a93f 8b57 dbbd 2ecb be3b
000002b0: d929 e53d 41d2 ca3e a4a9 7c3d 3dad 463e
000002c0: 34ea d8bd 91ca ad3c 0f6c 3cbe 02f3 d23c
000002d0: d145 583e 9c5f 9a3d fc73 8abe f5d5 8c3d
000002e0: e412 353e 6032 85bd 43ef 1ebf 55c5 453f
000002f0: 1636 553f 687f 1abf 294a 823e e3b8 37be
00000300: 090d a03f 2e23 0f40 7aa0 fb3b 53c9 853f
00000310: 0fdf 363e 5696 ecbf 406b 12be 22d9 53be
00000320: d3a1 8140 1abc fd3d f2f1 2d3e e2f9 623d
00000330: 16ec cb3e bda4 b0bb 09db 62bc d88e aa3b
00000340: 2c4a c2bb dd1f a63c 44c1 5e3e b686 1d3e
00000350: fa4f 3fbe f109 20be fb25 ca3a 290a 013e
00000360: abf9 4ebe 316d 013e e7b4 8b3d a4b3 893e
00000370: c171 63bc 1671 c8be 8309 1cbe cd4b 183f
00000380: 1ce9 643f 2179 0f3e a4e4 b23f 4940 14bf
00000390: 7cce 8dbf 91f3 4d3f c815 3abf a1db 7a3f
000003a0: 1fb8 6d3e ca42 433e cf4c aa3e b45d be3d
000003b0: b565 f9bc 6fef 493a 97f2 cebc 680d 5ebd
000003c0: 8951 c23e 128a c53d 87ae 903e cdbb 1f3e
000003d0: cd1f 0c3e 42f1 633c 4190 a6bd 9a6b 8c3e
000003e0: 42a8 223f 6af2 023f 9620 0b3e 47d0 62bd
000003f0: 7068 463e a4a7 2f3e 1b99 a9bf 9ad7 a33f
-0.61655486 -0.34726027 -0.2135794 0.2827348 0.16074874 0.1408162 1.0399647 -0.2357574
-0.120076194 0.111175835 0.0376204 -0.839892 -0.9172679 1.3431579 0.5160495 0.17513321
-0.0037402378 0.009303999 0.23850927 0.037410624 0.08885766 -0.09771219 -0.048995074 -0.120058656
0.38083833 -0.46084648 0.41493076 -0.045655508 0.20814689 -0.09159009 -0.026694676 -0.086448334
-0.26132938 0.16191605 0.39805552 -0.35624886 0.27047214 0.19928728 -0.9673708 0.409934
-0.44820336 0.55005074 -0.18393368 -1.1888815 -0.68664575 -0.123625 -0.09286831 -0.07184291
-0.3190057 -0.14262405 -0.04931929 0.018052708 -0.028668448 0.1350989 0.17877959 0.5006898
-0.14213781 0.22053887 -0.115475275 -0.19889362 0.10926064 -0.14755043 -0.387669 -0.70848787
0.15404695 0.4824959 -0.08255077 -0.21164396 0.66813356 -0.47137067 -0.1274433 0.57259667
-0.7119057 -1.0859145 -0.6553728 1.8031408 0.25546557 -0.110560626 0.07850528 0.40225807
-0.1936705 -0.00446261 0.10117194 -0.01960767 -0.023261422 0.30126327 0.24230576 0.32261917
-0.6902742 0.083119154 -0.058092248 -0.308099 0.28874388 0.9847101 -0.441965 -0.21002284
0.043599166 -0.36857307 0.24569927 -0.8487287 -0.4758949 0.29776993 -0.16622297 0.2865876
1.020977 0.042600855 -0.2703418 -0.56659937 0.19940607 0.30800965 -0.13111253 -0.18845564
-0.0068356823 -0.01783717 -0.048169516 0.12913238 -0.19558376 0.077544115 -0.23036215 -0.060274333
0.012626882 -0.16646895 0.25854248 -0.0903353 0.918206 0.80593026 -0.86325234 -0.41836447
0.074660555 0.5092846 -1.4614182 1.773946 -0.038779173 1.1138009 -0.7027561 -0.7455378
3.316477 -2.0980904 -1.2520133 0.07371577 0.14805216 -0.21103346 -0.20958322 0.0072648493
-0.007958626 0.0014382269 -0.022621525 0.3311269 -0.3478952 0.51908857 -0.16304986 0.12466315
0.014892251 -0.10210855 0.17781124 0.03673025 0.28364983 -0.026416091 -0.39425963 0.14891687
0.24157587 0.39638212 1.0014299 -0.026271248 0.5134353 0.23804045 -0.548418 0.37986612
-0.99035215 1.3225006 -0.10710057 0.0058225607 0.111896224 0.39613536 0.06168522 0.19402023
-0.10591546 0.021214755 -0.18400596 0.02575064 0.21120383 0.07537767 -0.27041614 0.068767466
0.17682987 -0.06503749 -0.62083834 0.7725423 0.83285654 -0.60350657 0.25447205 -0.17941622
1.2503978 2.2365222 0.0076790424 1.0452064 0.17858528 -1.8483379 -0.14298725 -0.20688298
4.051004 0.12389393 0.16986826 0.055414088 0.39828557 -0.005390732 -0.013846167 0.0052050166
-0.005929252 0.020278865 0.21753412 0.1538342 -0.18682852 -0.15628792 0.0015422696 0.12601532
-0.20212428 0.1263931 0.06821614 0.26894867 -0.0138821015 -0.39148778 -0.15238003 0.5949066
0.89418197 0.14011051 1.3976026 -0.5791059 -1.1078639 0.8044978 -0.72689486 0.9799138
0.23214768 0.19068447 0.33261725 0.09295216 -0.030444006 0.000770322 -0.02526216 -0.054212004
0.3795283 0.096454754 0.28258154 0.15598984 0.13684006 0.013912501 -0.08132983 0.27425843
0.6353799 0.51151145 0.1358665 -0.05537441 0.19375777 0.17153794 -1.3249849 1.2800171

actor.0.bias f4 [128]
00000000: fb60 013e 8237 b8be d127 fe39 baf3 8cbe
00000010: 4bb3 49bc e1ad a7bd 0549 8e3d 40ef 72be
00000020: 56ff 5dbe 8f6d 363d 68d7 fbbd d7cd 83bd
00000030: 4837 8abe d802 c53d af4f 8dbe cb67 1a3e
00000040: d16d f93c 1de5 0fbe 0bed 20be c895 14bd
00000050: db68 153e 045a debc 710c b73d 872b 5f3d
00000060: 636a fc3d 8fba 173d e0ff 9cbd f61c aa3c
00000070: 0c9a 41be fcba d7bd 68f0 683d 0e0c 40be
00000080: bca0 4fbe 1538 d0bb 6ede 4fbe 3624 ce3d
00000090: 2cb6 463e 6a13 8bbd bcd6 d13d c6f7 2a3e
000000a0: 1ddc d93c 251f 66be 938f 95be a644 77be
000000b0: 36f8 3c3c 3592 173e e757 b3bd 7385 d33d
000000c0: 303c 4fbb b5a9 debd 1a49 3ebe c5ab 02bd
000000d0: 6e75 2cbe bc79 b23d 8e38 2cbd 1bc2 613e
000000e0: 220b a83b 1264 0b3d efee 2dbe de0c a93d
000000f0: 1112 e8bd b62b 22be 0ada 1abd 39b4 9dbb
00000100: ca19 9cbe 5e18 9ebe 6a85 62bd 33a1 35be
00000110: 167b c0bd c8ea 27be 5182 11bd d0ba 54be
00000120: d3ad 273e 441e c8bd 0e45 aabe cee7 0bbd
00000130: 83bb e43d 460a 4ebe cca9 39be 501b 423c
00000140: 479d 023d 57df 95be cf7f 7cbe 4f37 883e
00000150: 6dd6 febd bf48 35be e0f3 92bc e13f abbd
00000160: f228 07be 7908 5a3d 6395 dfbc d1b3 2cbe
00000170: 4a83 8f3e 19b6 4abe a2bd 4fbd d274 38bd
00000180: 314d 80bd 5db1 4d3e 7831 a83d e919 f5bd
00000190: eb77 453e 07b3 253e c6d6 c5ba 500f 97be
000001a0: 47a2 133e 329b 0dbe 665b 57be a75d 993c
000001b0: 34b3 0abe 3d7c 9c3d 2f22 83be f785 a73e
000001c0: 6b13 a7bd d555 2cbd 3a2b 9bbd ccb4 3e3d
000001d0: e17a 6fbd 76dd a73d 8d48 8dbe 3373 2fbd
000001e0: 546d 833e 78ea d4bd d4e1 debd 7304 4b3c
000001f0: eb84 233d b6eb 6d3d a3a4 adbd ae31 833c
0.12634651 -0.3597985 0.0004847632 -0.275297 -0.012310813 -0.08187462 0.06947521 -0.23724079
-0.21679434 0.044538077 -0.12296945 -0.06435745 -0.269953 0.09619683 -0.27599856 0.15078656
0.030447872 -0.14052244 -0.15715425 -0.036275655 0.1459078 -0.027142532 0.0893792 0.05448487
0.12324979 0.03704315 -0.07665992 0.020765763 -0.1890642 -0.10533711 0.056869894 -0.18754598
-0.20276159 -0.0063543417 -0.20299694 0.100655004 0.1940543 -0.06790812 0.102460355 0.1669608
0.026594216 -0.22472818 -0.292111 -0.24147281 0.0115337875 0.14801867 -0.087570004 0.10328188
-0.0031621568 -0.10872213 -0.18582574 -0.031902093 -0.16841671 0.08714625 -0.042046122 0.22046702
0.0051282803 0.03403098 -0.16985677 0.08254407 -0.11331571 -0.15836987 -0.037805595 -0.004812744
-0.30488425 -0.30877966 -0.055303015 -0.17737274 -0.09398477 -0.16398156 -0.03552467 -0.20774388
0.16374902 -0.09771398 -0.3325581 -0.034156613 0.111685775 -0.20121107 -0.18131179 0.011847332
0.031888273 -0.29271957 -0.2465813 0.26604697 -0.12443242 -0.17703532 -0.017938554 -0.08361793
-0.13199213 0.053230736 -0.027292913 -0.1686547 0.28029853 -0.19796027 -0.050717957 -0.045033284
-0.06264723 0.2008719 0.082125604 -0.119678326 0.19284026 0.16181575 -0.0015093915 -0.2950387
0.14417373 -0.13828734 -0.2103096 0.018721415 -0.13544923 0.07640884 -0.25612018 0.32719395
-0.081580006 -0.042074043 -0.07576604 0.04655914 -0.058466796 0.08196537 -0.27594414 -0.042834472
0.25669348 -0.10396284 -0.10882917 0.0123911975 0.039921682 0.05808612 -0.084786676 0.0160149

actor.2.weight f4 [128, 128]
00000000: ad16 acbd d3de 90bd fd7a 573d 7a71 4abd
00000010: 3d03 a93d 4fd8 b3bd 13be 38be 1dc0 bd3c
00000020: f7fb 0d3c 50a1 253d 70ab 06bd 21e9 8cbc
00000030: 0ddf 003d cd83 f43c 722d d13d 983e e0bb
00000040: d507 8e3d 3508 c7bc 2301 5f3d 2c1c 783d
00000050: 2dc8 2bbd 9c1f 20bd 8e7e 8b3d faaf 783d
00000060: b894 fc3c 8c0c b4bb 42c1 233d 07d6 db3d
00000070: c327 59bd 5650 463d 7fba f33c a41f 633d
00000080: b2bf f2bd cb9a 0abe 9733 933d dae3 cd3c
00000090: 8ce5 d73c 65de 48be a0be dfbd 4d62 92bd
000000a0: 2061 dd3d 2ce2 7bbd ec05 a43d 23cd 7f3d
000000b0: 0450 d23d 417b ac3d 6ef9 80bd 9580 653d
000000c0: 86ae 3bbd 1f4e b8bb d238 06be ac79 58bb
000000d0: dc4a 873d e1f2 84bd 26ba 2fbc 343a 00bc
000000e0: 625d 363c ff96 a23c af5a b03d 339c b9bd
000000f0: a46d f23c cb23 0d3e 0097 a4bc ae0b 353b
00000100: 3c6d fcbd f9a4 863d 7b89 dbbc 4459 f4bd
00000110: 7da8 833c b43c 01bd 547b c4bd b6a3 2ebd
00000120: b697 5fbd 0b8f 26bc 7cf4 cabb dc86 e1bc
00000130: d2a8 fdbd d109 27bd 4308 74bc ae95 113e
00000140: 13ef 4bbe 1de3 c63c 4e35 9c3b e6d7 093e
00000150: 6170 8c3d e909 1e3e a5ca f0bd 492c 293d
00000160: 3d0f 373d ec61 59bd 8854 adbd 9c6a 5f3d
00000170: 67ea afbd 6992 923d 4a5a 33bd 4e28 3b3d
00000180: 7980 eb3b 42db cb3c ff0a 59bd b69c 6cbc
00000190: 26ce 7a3b 8642 98bd ed4c 603d 7234 e33c
000001a0: 42b9 58be 0da8 b63b 88c3 30bd 8a29 833d
000001b0: 801b d2bc a576 273c 2447 8c3d c9c1 babd
000001c0: fc50 a03d df25 da3d 1767 2ebd 9e99 ea3b
000001d0: 1b1d a1bc 7090 b1bd 335e 3abd dbd2 9e3d
000001e0: 9335 603e e441 3ebd 2db9 a3bd a09c 9d3d
000001f0: 7947 25bd 7c5b 93bd 8654 b5bd 5580 2ebd
00000200: 248f 22be 2450 96bd 8a18 0f3e 1e90 9cbc
00000210: 2e30 323e a666 d3bd ba8a 78be 4a02 1c3d
00000220: 7325 d23d 324c 013e d40e 8bbc a145 0dbe
00000230: a13c eebd 7775 f53c 4e43 babd bab1 123d
00000240: da55 a7bd d928 acbd 5879 a1bd 1042 013d
00000250: 4ef6 393c c2ce 913c ac61 22bd d77a 8a3d
00000260: e7d1 b1bd 03ec 56be c251 5a3d 4b42 7c3d
00000270: 6a5b 1ebc a8a7 82bd 42de 26be ebeb 143c
00000280: 5f2f 133d b632 33be 874c 903d c8a2 573d
00000290: cd01 7bbd ec68 8abe 1e2a 273d c37a 1d3d
000002a0: 007c 4abc c24c 61be 6183 05bc 4935 153e
000002b0: 31c3 6d3d d0cd 92bd c030 4f3d 74f3 72bd
000002c0: c0e8 9c3b 44f1 bf3d e574 11bd e725 a6bd
000002d0: ab3e 28bd dd2e fdbd b37d 98bd f37e 60bd
000002e0: e902 c8bd 1620 b83d 4932 2fbe 1198 acbc
000002f0: 2e8b 03bd 73ad 0c3d 90c4 6cbd b608 eebd
00000300: 0c6a 47bd d91a 23bb c8a3 bc3d d822 5f3d
00000310: 54b5 a2bd c927 aabc 77c0 0ebe cde1 b6bb
00000320: 5f72 0d3d 4ce8 5abd 5608 c8bd 299e e2bc
00000330: 7122 42bc c532 71bd 66cd 2f3d 3fbe 47be
00000340: 02c1 90bb e59d 0bbe 5de6 9b3b 5fa1 b03d
00000350: 6d0b 523c 3b65 4f3d 352f f43c bdfe c5bc
00000360: 0392 cabc 96d2 00be 0b57 0ebd 44c7 bd3c
00000370: 3df3 d1bb 8628 4ebd 2038 03bd cf39 203c
00000380: 8daf 96bc 7800 8ebc 4015 493d 63fc bf3d
00000390: 42d6 bfbd ead9 12be 2ee0 4fbd dfb1 75bc
000003a0: ed07 98bc 3e79 bbbc 28cb a5bd 7706 6f3d
000003b0: c2dc 3e3c acf3 103e 3a6f e3bd 9d97 bfbd
000003c0: 27c2 9a3d 181c 07bd a120 e33c 0c0c 0ebd
000003d0: 3eef 4b3d 70bd b73c da41 083d c849 913d
000003e0: 81eb a13d b348 cebd 05f0 043b 7607 8ebd
000003f0: bba0 31be 807c c33c 5f1d fcbd 5da3 893c
-0.084027626 -0.0707375 0.052607525 -0.049424626 0.08252571 -0.08781492 -0.18041258 0.023162896
0.00866603 0.040437043 -0.03287834 -0.017201008 0.031462718 0.029848004 0.10213746 -0.0068433993
0.069350876 -0.024295906 0.054444443 0.06057374 -0.04193895 -0.039092645 0.06811248 0.0607147
0.030832633 -0.0054946598 0.039979227 0.10734182 -0.053016435 0.048416458 0.029752014 0.055450097
-0.11852969 -0.13535611 0.07187574 0.025133062 0.026354574 -0.19616087 -0.10925031 -0.07147656
0.10809541 -0.06149499 0.08008942 0.062451493 0.10269168 0.08421946 -0.06297575 0.05603083
-0.045820735 -0.005624547 -0.13107613 -0.0033031506 0.06606075 -0.06491638 -0.010725534 -0.007826377
0.011130663 0.019847391 0.086110465 -0.09062996 0.029593296 0.13783185 -0.020091534 0.002762537
-0.12325522 0.06574435 -0.026798954 -0.119310886 0.016071552 -0.03155203 -0.095938355 -0.042636596
-0.054588042 -0.01016594 -0.0061936956 -0.027530126 -0.123857155 -0.040780846 -0.014894548 0.14217255
-0.19915418 0.024278218 0.0047670966 0.13461265 0.06857372 0.15433468 -0.117574014 0.041302
0.044692267 -0.0530719 -0.08463389 0.05454503 -0.085896306 0.07156832 -0.04378728 0.045692734
0.007186946 0.024884824 -0.052989002 -0.01444166 0.0038269847 -0.07434563 0.054760862 0.027734969
-0.2116442 0.0055742324 -0.043155223 0.06404407 -0.025647879 0.010221158 0.068495065 -0.09118993
0.078279465 0.106517546 -0.042578783 0.007159426 -0.019667199 -0.086701274 -0.04549999 0.07755061
0.21895437 -0.046449557 -0.07994304 0.076958895 -0.040351365 -0.07195184 -0.08854012 -0.042602856
-0.15874916 -0.07339504 0.13974205 -0.01911169 0.17401192 -0.10322313 -0.2427167 0.03808812
0.10261049 0.12626722 -0.016974844 -0.13796093 -0.11632658 0.029963238 -0.090948686 0.035814025
-0.08170672 -0.084062286 -0.078844726 0.031557143 0.0113502275 0.017798785 -0.03964393 0.06761711
-0.08682614 -0.20988469 0.053300627 0.06158666 -0.0096653495 -0.06379634 -0.16295722 0.00908945
0.03593385 -0.17499813 0.070458464 0.052645475 -0.061281014 -0.27033174 0.04081165 0.038447153
-0.0123586655 -0.22001937 -0.008148999 0.14571108 0.058047477 -0.07168162 0.0505836 -0.059314206
0.004788488 0.0937219 -0.03551187 -0.08112698 -0.04107539 -0.12362454 -0.0744585 -0.05480857
-0.0976618 0.08990495 -0.17109026 -0.021068605 -0.032115154 0.0343451 -0.057804644 -0.11622755
-0.04868512 -0.0024887829 0.09210926 0.05447659 -0.07944742 -0.020770924 -0.13940607 -0.005581117
0.0345329 -0.05344419 -0.09767215 -0.027663307 -0.011849032 -0.05888631 0.042920493 -0.19506167
-0.0044175396 -0.1363445 0.004757686 0.08624529 0.012820107 0.05063365 0.029807666 -0.02416932
-0.024727827 -0.12580332 -0.03475098 0.023166306 -0.00640717 -0.050331615 -0.032035947 0.009779408
-0.018394256 -0.017334208 0.04909253 0.09374311 -0.09367038 -0.1434094 -0.050750904 -0.014996021
-0.018558467 -0.022884961 -0.080953896 0.058355775 0.011649312 0.14155453 -0.11105199 -0.0935509
0.07556563 -0.032985777 0.02772552 -0.034679458 0.049788706 0.022429198 0.033265926 0.07094151
0.07906247 -0.1007246 0.0020284664 -0.06935017 -0.1734647 0.023863077 -0.123102896 0.01680153

actor.2.bias f4 [128]
00000000: fe51 653c b5d7 79be 0b01 d0bd c012 77bd
00000010: c8f0 91bb af4c 0dbd e8bf ff3b 456c 163d
00000020: ede9 18be 69ac 67bd c7fc 5bbe bfee c7bc
00000030: 0867 9f3c fdaf 31bc f018 afbd f249 5fbd
00000040: 5c0b 973c 2282 d3bd f786 b23d 89b2 08bd
00000050: 03b9 c0bd 89cf 66be f663 d0bd deff 83bc
00000060: e5d5 0bbe ace8 d2bd 516c 41be 17f2 eabd
00000070: d2d0 323d 5967 aabd 0920 c13c 83d5 253e
00000080: d373 b7bd b8e9 8bbc 0891 09be 4b5b b0bd
00000090: 6621 e0bd c86e 02be 1204 1cbe 5a65 acbd
000000a0: af16 89bd 47af c1bd c0cf 1d3b cfb7 b43d
000000b0: 49bb d53d a64c 42be 2dab 80bd 4239 9abd
000000c0: cc40 82be 3b6c c9bd b821 863c e8b9 d9bd
000000d0: f1c5 cebd 364b 8d3b 1447 ff3c 687c c9bd
000000e0: 4c2c 41bd 8fb2 e83c 2bde 19bd 4942 7fbe
000000f0: f928 d6bd 4b60 8e3d 0285 d4bb c85b 713c
00000100: 4f97 c1bd 9d93 cdbd 0639 4b3c 9d1c fdbd
00000110: 207f 303d e5f8 16be 6305 10bd 1770 18bd
00000120: 4cba 5bbb eb18 24be f8c5 613d e3ec 75bd
00000130: cfbe e3bd a435 5fbe caaf 8cbd df37 08bc
00000140: e039 0bbe 2281 44bc a37d 84bc 29a7 d7bb
00000150: 0675 1bbc 5733 083b 2958 98be 97e3 13be
00000160: a3a7 03be cd15 74be 43bc df3c 10c9 bcbc
00000170: 8612 81bd cb47 25be 60e3 b1bd 5fb5 633c
00000180: d30d d5bc f726 02be f296 063e ec78 7f3d
00000190: 0f52 23bb 655b 29be c0be 1dbd 2f12 60bd
000001a0: 5f70 0bbe b7a2 1abe 23e5 18be 9c22 9f3d
000001b0: f5a4 2fbe 08b5 81bd faad 31bd 82f3 b6bd
000001c0: c4cb 04be 204c e83c bbbc cabd a110 57be
000001d0: 5b4e bbbd 7606 483d 28ed 17be 9e9a 02be
000001e0: 0df6 53bd b6aa 4c3d cd51 f7bd 9f96 563d
000001f0: cf6f c5bd c193 5fbe 8613 d4bd 7e7e e3bd
0.013996599 -0.24398692 -0.10156449 -0.060320616 -0.004453752 -0.03449696 0.0078048594 0.036724348
-0.14932986 -0.056560908 -0.21483146 -0.024405835 0.019458309 -0.0108451815 -0.08549678 -0.05451388
0.018438034 -0.10327555 0.08717149 -0.03337339 -0.09410288 -0.22540106 -0.10175316 -0.016113218
-0.13655813 -0.10298285 -0.18888976 -0.11471956 0.043656178 -0.08320493 0.023574846 0.1619473
-0.089576386 -0.01707922 -0.13434231 -0.08611163 -0.1094387 -0.12737572 -0.15235928 -0.08417769
-0.0669378 -0.094572596 0.0024080127 0.08824121 0.104361124 -0.18974552 -0.06282649 -0.07530452
-0.2544006 -0.098350964 0.0163735 -0.10631162 -0.10096348 0.0043119444 0.031161822 -0.09838182
-0.047161385 0.028405456 -0.03756539 -0.2492763 -0.10457034 0.0695196 -0.0064855823 0.014731355
-0.09452688 -0.100379206 0.012403732 -0.12358973 0.043089986 -0.14743383 -0.035161387 -0.037216272
-0.003352779 -0.1602513 0.05512044 -0.060040366 -0.11120378 -0.21797806 -0.068694666 -0.008314102
-0.13596296 -0.011993678 -0.01617319 -0.0065812063 -0.00948835 0.0020782554 -0.2975476 -0.14442287
-0.12856917 -0.23836441 0.02731145 -0.023045093 -0.06302361 -0.16140668 -0.086859465 0.013898223
-0.026007568 -0.12710176 0.13143519 0.06237118 -0.0024920737 -0.1653877 -0.03851199 -0.05470484
-0.13617085 -0.15101133 -0.14931159 0.07770273 -0.1715277 -0.06333357 -0.043378808 -0.08933164
-0.12968355 0.028356612 -0.09899279 -0.21002437 -0.091458045 0.048834287 -0.14836562 -0.12754294
-0.051748324 0.04996749 -0.12076149 0.052389737 -0.096404664 -0.21833707 -0.10355286 -0.11108111

actor.4.weight f4 [128, 128]
00000000: 5816 8cbd 44fe 3dbb 1b35 d13c cca2 7e3d
00000010: e9fe b23b 71a1 ea3a 4e65 8dbc baba 323d
00000020: 34da 98bc d309 90bd 0ed9 653d 3ea5 25bd
00000030: ee14 983c 1f8c 37bc 68a0 d3bc 2d94 f6bc
00000040: 70d9 58bd e559 86bd 0eea 3cbd db7a 99bc
00000050: ab1a 6a3c 329e 993d 2aae a0bd 98d7 82bd
00000060: 0c83 11bc 66f6 383d 15cd c43c 04d0 c7bd
00000070: 21cc 9fbd 578c df3c 684a d8bc 64cd 1cbd
00000080: 884b fdbc ff31 89bc c1ae 9d3d 2f9e 153d
00000090: 6993 063d 9308 63bd a222 a43b f258 dc3d
000000a0: 7600 c83d e6c1 a0bd 37b5 c03d 81e3 c43c
000000b0: 8cdf 8fbd a4e1 8fbc e9a7 85bd d329 65b9
000000c0: 350e 25bc 4b44 bcbd 69d8 5cbd 225f 2b3d
000000d0: 9515 f0bc 4cbc 743c 50ee a3bd b2d2 473d
000000e0: 8dd1 993d fd2b 86bd b4b2 d33d 4783 32bd
000000f0: b616 e2bc 9b75 6b3d 758a b63c a887 8b3b
00000100: d36f f2bd 1d41 1f3d 40ef a83c 9834 37bc
00000110: 2a84 c0bb 4be3 ab3d 090f 2abd aee5 163c
00000120: 4962 07bd e7da 7fbd e0c9 923d 610c 6c3d
00000130: 3b11 3e3d 8783 233d cfd1 98bd f4ac 903d
00000140: 535b 423b 2973 54bd b44e 4f3c 9a41 76bb
00000150: 1ad9 1cbc b553 64bd 8b69 993c 539d 973d
00000160: 26a9 3a3d 4c1f 643d 73cc 7a3d d9ee 08be
00000170: 613c 43bb fe60 9e3d 6729 f03c bac1 8fbd
00000180: 1dd9 98bd 16db 823d 788d 95bd 556a 85bc
00000190: cde8 dfbd 2e6a 6dbc 3890 783b 3ec5 743d
000001a0: f217 63bb 7f51 073b 67bc 773d 6905 b93c
000001b0: 30b6 36bc f6e5 1dbd f414 993d 4298 e63b
000001c0: 8dbf 07bd 40e6 a0bc 64c9 a3bd 53aa bd3d
000001d0: 04d7 953d 83ff 643c ad7d 8f3c 686e 6dbc
000001e0: cdf1 01bc a183 c5bd dcf7 903a 271f 233c
000001f0: a923 e93c eca0 edba 5a00 043d 87a9 19bc
00000200: 67fb 6bbd faa3 da3d 913e 813d df70 8bbd
00000210: 4462 963d ea1a dc3c 25d6 f4bc 185d 12bc
00000220: 4901 4ebc e9b2 67bd e434 a0bd 1b45 1dbd
00000230: 2070 b03c 2ce1 a83d d625 0a3e eeb2 6dbd
00000240: 3e71 37bd 28e9 9f3d 2d40 88bb 0a93 ca3c
00000250: 21b9 5bbc b1a0 d53c 7a0c d4bb aaec 393b
00000260: 7446 123b f071 7bbd 1c56 cdbd 1c4b 55bd
00000270: 1431 0a3c f3a6 3fbd 4845 9d3d 11f8 0bbd
00000280: cc04 663d 9540 0fbd 9ba1 d83d ffab 133e
00000290: edcf c63d 173a 1b3e d29c ac3c ae18 0d3e
000002a0: 4c02 6ebc e013 bebd e1b9 a2bd 1593 d1bc
000002b0: 4ce1 f4bd ed13 803c 9373 06be ffe9 d3bc
000002c0: 9ca1 013e e2d4 70bd 5cf6 ea3d 6d36 9b3d
000002d0: d402 20bd e4fc a9bd 54ec 00bd 117a 20bd
000002e0: ce1d d83d c92c fabd 8917 fcbc f109 9a3d
000002f0: 7c29 d03c 42e2 49be 53bc 73bc 41bd aa3d
00000300: c289 84bd 124e 40bd 92ff 05be 57eb 543d
00000310: 5542 cabd 2bb2 ffbb c1ef ecbd 5498 683d
00000320: 23be dc3c 0aed fcbb b4fb 4a3c 9e90 c83d
00000330: f4d1 403d 8537 84bd 706a 54be 5312 24bd
00000340: a75d 193d cd28 02bb eebe 3e3d 9e4a 0dbc
00000350: dedd 1abd 5337 2f3e 2793 83bc 1930 3c3c
00000360: 2308 2538 1afe ccbc aa16 0ebd af73 0f3d
00000370: 6d93 95bd 572f e2bb 0bb6 8e3d 8ea2 afbd
00000380: b9d6 c43d e14a bd3a f3a0 0bbd 95ac 323d
00000390: 7b6e 97bd db7c a13d ea43 6f3d b659 0cbd
000003a0: 28fb 15bd f3dc 223d 0818 583d 30f1 693c
000003b0: aeca 92bb 9517 473c 99b2 2fbd 67ac 05be
000003c0: fd93 07bb 33fd e53c db12 2e3d c2b2 93bd
000003d0: b366 19bc fcc8 e6bb 4e28 55bd 3eaa cd3c
000003e0: 96af 60bd b436 d5bc 0064 4bbc 546a 96bc
000003f0: 4193 a2bd 3541 a63d 4fb2 31bb 7e7c 10bc
-0.06840199 -0.0028990665 0.025538018 0.062166974 0.0054625166 0.0017900896 -0.01726022 0.043635108
-0.018658735 -0.07033124 0.056115203 -0.04044079 0.018564668 -0.011202841 -0.025833324 -0.030099953
-0.05294174 -0.06560115 -0.04612165 -0.01873534 0.014288585 0.075008765 -0.07845719 -0.063887775
-0.008881342 0.04515686 0.024023572 -0.09756473 -0.078026064 0.027288599 -0.026402667 -0.038281813
-0.030919805 -0.016747473 0.07699347 0.03652781 0.032855425 -0.0554281 0.0050090114 0.107591525
0.09765713 -0.07849483 0.09409564 0.024034264 -0.0702506 -0.017563649 -0.06526167 -0.00021854723
-0.010074188 -0.09192713 -0.053917322 0.041838773 -0.029307166 0.014937472 -0.08004439 0.04878492
0.07510672 -0.06551359 0.10336819 -0.043582227 -0.02759872 0.057485204 0.022282818 0.004258115
-0.11837735 0.038880456 0.020621896 -0.011181973 -0.00587513 0.08392962 -0.041518245 0.009210033
-0.033052716 -0.06246462 0.07167411 0.057628993 0.04640315 0.039920356 -0.07461893 0.07064238
0.0029656484 -0.051867638 0.012653042 -0.0037575723 -0.009573245 -0.05574389 0.018727085 0.07403054
0.04557147 0.05569391 0.061230134 -0.13372363 -0.0029790627 0.077333435 0.029316617 -0.07019372
-0.07463286 0.063894436 -0.07302374 -0.016286055 -0.10933075 -0.014490647 0.0037927758 0.059758417
-0.0034651724 0.002064794 0.06048241 0.022585588 -0.011151835 -0.038549386 0.074746996 0.0070371935
-0.03314166 -0.019641042 -0.079973966 0.092610024 0.073164016 0.013976934 0.017515982 -0.014491655
-0.007931185 -0.09644247 0.0011060196 0.009956158 0.028459387 -0.0018129623 0.032226898 -0.009378797
-0.057612803 0.10675807 0.06310762 -0.06808638 0.073429614 0.026868302 -0.029887268 -0.008933328
-0.012573549 -0.056567106 -0.07822588 -0.038395982 0.02153784 0.08246073 0.13490996 -0.05803197
-0.04478573 0.07808143 -0.004158041 0.024728317 -0.013410837 0.0260776 -0.006471214 0.0028369823
0.0022319825 -0.061387956 -0.1002619 -0.052073583 0.008434553 -0.046790075 0.0767923 -0.03417212
0.05615692 -0.0349737 0.10577699 0.1442108 0.097076274 0.15158878 0.021070872 0.13778946
-0.014526915 -0.092811346 -0.0794561 -0.02558283 -0.119570345 0.015634501 -0.13130026 -0.025868414
0.12659305 -0.05879677 0.114727706 0.0757874 -0.039065197 -0.08300188 -0.03147538 -0.03917891
0.1055256 -0.12215573 -0.030772941 0.075214274 0.025410406 -0.19715217 -0.014876443 0.083368786
-0.06471588 -0.046949454 -0.13085774 0.05198225 -0.09875933 -0.0078032217 -0.11569167 0.056785896
0.026946133 -0.007718687 0.012389112 0.097932085 0.047075227 -0.06455902 -0.20743728 -0.040056538
0.03744283 -0.0019860745 0.046568803 -0.008623747 -0.037809245 0.17110948 -0.016061379 0.011486077
3.9346643e-05 -0.025023509 -0.034689583 0.035022434 -0.0730351 -0.006902616 0.06968316 -0.08575927
0.096112676 0.0014441871 -0.03408904 0.04362162 -0.07394119 0.078851424 0.058414377 -0.034265243
-0.036616474 0.039761495 0.052757293 0.014278695 -0.0044797277 0.0121516185 -0.042894933 -0.13054048
-0.0020687573 0.028074836 0.04249845 -0.0721183 -0.009362864 -0.007043002 -0.05204039 0.025105592
-0.05485495 -0.026027061 -0.012413979 -0.018361248 -0.07938243 0.08117906 -0.0027114337 -0.008818744

actor.4.bias f4 [128]
00000000: 6134 07bd f6dd 22bd 18d2 b43c 9e8b debd
00000010: 559d 69bd f2ae 713d ae42 79bd 6370 2abd
00000020: e81c 213d 03f0 43bd d4ec a7bd 452e 6cbd
00000030: 3329 cabd 4bfb 37bd 4ef0 043d 1063 9dbc
00000040: abbc 303d f044 2cbc 96f9 aebd 1b7d 15be
00000050: 91ed 25bd 5094 12bc 456f 0ebd ee21 163d
00000060: 212b 493c 1f5f 80bd eb29 92bc cc95 c6bc
00000070: 1208 a6bd a789 ab3d f6cf 2cbd d611 653c
00000080: eb58 3fbd 57ab 503c 7a63 21bd d745 81bb
00000090: f36c 283d b983 95ba d9da e6bd ce44 643b
000000a0: 9f74 01be 2331 b8bd 836a 12bd c51e 05be
000000b0: 8b1a 95bd e492 dbbd 41e2 f23c c819 f7bd
000000c0: c244 85bc d75a 2d3d 3b61 a1bd c52f 913d
000000d0: 6f8f 943c df6d 83bd 767b ccbc 382f 2dbb
000000e0: 947c 77bd 2753 cebd 023f f9b9 177c 7fbd
000000f0: d72c 88bc fbe3 843c 479a 96bd b2f0 98bd
00000100: f74f 74bd 225a cdbb 3c8f 7bbd 80fd 763d
00000110: 8671 af3d c374 3c3d 26bf e9bd 5f44 f7bc
00000120: b1ed e2bc 6a18 8c3d 8d1e a5bc 2693 07be
00000130: f806 19bd dfb1 10be f242 733d a2d8 c9bd
00000140: 6aab e2bd 66c9 87bd 9c9e be3c 9b26 d03c
00000150: afca 30bd a269 ca3b df23 7dbc ee33 043d
00000160: 4dc6 88bc 0c71 bfbd 04fe 853d a532 153d
00000170: 9386 22bc 5abe 05be 3c56 dbbd 0210 2abd
00000180: 607f b7bd 0d97 97bd 91da 0ebd 2916 833d
00000190: f7b7 2ebd 2c11 cebd 7bc4 58be 7f1e 5abc
000001a0: 2d46 d4bd 1aa3 a5bc 69f9 abbd 4369 313d
000001b0: edb4 753d 81a4 98bd 74ce 093d 91c1 1fbe
000001c0: 9e72 82bd 478e 1dbe f3d4 053d 43c6 8e3d
000001d0: 029f e4bd dc33 24be 4d80 96bd 6dfd e5bb
000001e0: dbdf 203d a5e0 a03d 1bef c23d 75ed db3c
000001f0: 273d 473d 93f3 43bd f2f6 1abe 6740 70bc
-0.033008937 -0.03976246 0.022072837 -0.108664736 -0.05703481 0.05900473 -0.060854606 -0.041611087
0.039334208 -0.047836315 -0.08199468 -0.057661314 -0.098711394 -0.044917386 0.032455735 -0.019212276
0.043148678 -0.010514483 -0.085436985 -0.14598505 -0.040509764 -0.008946493 -0.034774084 0.03665345
0.012278349 -0.06268143 -0.017842254 -0.02424135 -0.08107008 0.083758645 -0.042190515 0.013981303
-0.04671566 0.012736163 -0.03940151 -0.003945093 0.041119527 -0.0011407054 -0.11272211 0.003483105
-0.12642144 -0.08993747 -0.03574611 -0.13000019 -0.07280453 -0.107213765 0.029648902 -0.12065464
-0.016268138 0.04232296 -0.07879873 0.070891894 0.0181348 -0.064174406 -0.024961215 -0.002642585
-0.06042154 -0.10074454 -0.00047539925 -0.0623742 -0.016622944 0.01622199 -0.07353645 -0.07467784
-0.059646573 -0.006266848 -0.061415896 0.06030035 0.08566575 0.04600979 -0.11413412 -0.030183969
-0.02770123 0.06840594 -0.02015617 -0.13239726 -0.03736016 -0.14130352 0.059390016 -0.098557726
-0.11067851 -0.066302106 0.02326899 0.025409034 -0.043162044 0.006177143 -0.015450447 0.032276087
-0.01669612 -0.09347734 0.0654259 0.03642525 -0.00991978 -0.13060895 -0.10709807 -0.041519172
-0.08959842 -0.074018575 -0.03487641 0.06400711 -0.04265591 -0.10061869 -0.21168701 -0.013312935
-0.103649475 -0.020219374 -0.083971806 0.043313276 0.059986997 -0.07453252 0.033644155 -0.15601183
-0.06369518 -0.15386306 0.032673787 0.06971409 -0.11163141 -0.16035408 -0.0734869 -0.007018736
0.039275985 0.078553475 0.09518262 0.026846627 0.048642304 -0.047839712 -0.15133265 -0.014663792

actor.6.weight f4 [8, 128]
00000000: 8986 bebb cb39 95bc d5ad e9bb ae98 5d3d
00000010: 89da 2a3d 8390 053c c795 903b 9df8 bcbb
00000020: 8075 0cbd 42fd b5bc e7eb 833a bfdf cf3c
00000030: 5f34 82bc 2c10 0fbc 95e0 23bb c20c 3ebd
00000040: 5d6a 343c 0927 f43a fef4 253c e6f7 a33b
00000050: 58ce 84bc f0d9 663c 3cce 69bb 53a2 223c
00000060: be6f 9bbb a0e4 88bd 964b d33b defd bfbb
00000070: a9f4 8bbd 2b4e aa3b c123 31bb bc71 b9bb
00000080: d99c a83b 52b3 173c b976 da3c 3a1c d53c
00000090: 6208 c93c e896 2cba 79fa 07bb 7bd3 abbc
000000a0: 34d7 483c e0e0 853a 7087 f23b 2913 02bd
000000b0: c522 c7bc fcd6 87bb 3881 663b a98f 4b3c
000000c0: 33aa 963c 38fb 40bc e609 c83b 8f34 433c
000000d0: d9ab 353c b4ed 983c b2e9 573c 18dc 4abc
000000e0: 401d 9d3c a2d3 53bd 7824 b73a 84e6 043d
000000f0: 7ea3 7abd 08ca 583b fa4a 1b3d ab8f 563c
00000100: ff84 0dbc 330f 363d e4c3 c8bb f2a8 86bd
00000110: 45ea 32bc 9451 6b3c 87b1 a1bb bd9b 9d3c
00000120: ff85 313b 8d92 b33c cea1 24ba 3f4e abbc
00000130: a070 1a3d a051 22bc 733c b3bc 7e74 98bd
00000140: a510 403b 4ed6 a4bc 7cb0 60bc d938 b93c
00000150: bf9a 313d e057 6dbc dcc9 0dbc ccbf 5c3c
00000160: bbbe e4bc 0373 6e3c daa7 8c3c 0573 82bc
00000170: f775 3cbc 885b 06bd d044 14bb a7fc 6dbc
00000180: af00 033b 9aed fc38 1afa 90bb 4570 0cbd
00000190: 342c 2dbd 15fd 3e3c 866c a33d b29d 26bd
000001a0: 6891 433d 042c f8ba 387d 5cbc 30c8 e8bc
000001b0: fc14 4d3c 4203 13bc e880 e3bc d42b c5ba
000001c0: a202 263c f82b 4c3d a4e3 013c 1c4c 15bc
000001d0: 0634 033c dc06 d63b 4cf2 80bc 8e8b f03c
000001e0: 261b 98bc 8032 1a3c 2750 33bd 4c38 a53c
000001f0: 8eb4 b83b 431c 18bc 950d 2f3d 6178 cabb
00000200: 3223 85bb 2c3b 023c f4ed 8f3b 6f41 263d
00000210: 6c38 adbc be6f 89bc 89ec 823c 0aac f8bb
00000220: 77ff fe3c b65b 9a3b ad9b 503a 6b13 05bd
00000230: 4d44 f9bc 7f23 aebc 60f7 bebb 552a ddbb
00000240: 6e9d 203b 92ef 06bd 4a9e 6dba 5fd6 67bd
00000250: 0d8c c53c 8353 1dbd cd23 90bc 75db f7bb
00000260: 801b 53bc 85ae 0fbd 38cf 403d 6a95 813b
00000270: 3f83 553b a7f0 4abc f0af 2b3a 5b40 ac3c
00000280: c07f d2b8 aae1 813a 1f00 0abc e97f 473d
00000290: 2e30 62bb 3da1 49bd fb7a 39bd 5b44 efbb
000002a0: 41a3 5dbb b044 edbc 8871 46ba eab1 8f3c
000002b0: 45f0 8a3c ae5c 85bd 4bbe de38 fe7a f2bc
000002c0: c53b 123c 4d58 e2bb d65c b13c 637c 9f3b
000002d0: 4944 c639 41e8 5ebc 60f4 4a3d ed31 28bc
000002e0: 77b4 0a3c a712 d8bb 3e4a 57bb ea49 d9b8
000002f0: 97bd da3d 5885 ec3c dd98 f93c ccfd 1cbc
00000300: ac00 873b 878c cf3c fe51 b1bc 3c2a 3bbd
00000310: a668 79bc 5938 873c d250 893c 8769 d93a
00000320: d05a 8d3b 81e7 8a3c 4332 37bc 8db0 6ebc
00000330: ed9a c93c ee77 423d f413 02bd b2d7 903b
00000340: 10bb 41ba dccd 5a3b ef05 183b 94b7 db3b
00000350: 9c99 a2bb 36db 393c e401 763a 0320 4fbc
00000360: cb8d 053c 1485 133b 37e8 813c 0f7a 283c
00000370: 5a70 af3b 9888 193d d269 9fbb b62b 8abc
00000380: beb9 7cbc 44da 04bc 97db 123d d936 a13d
00000390: a3ce 99bc 2471 953c 572d 01bd 4466 9dbb
000003a0: 293d 663c 33b0 91bd ff65 aa3c de4b ac3c
000003b0: f53e 68ba 87ef 983c a4d4 483c 3362 5cbb
000003c0: 1e1e 473c 39eb 443c 20b7 07ba 2dd4 af3b
000003d0: ad70 183c 23fc 06bd 65e7 843c 49db 84bb
000003e0: 6746 a0bc bc62 4fbc aa24 4c3d d8d2 2abd
000003f0: 399a 89bb 902e 463c 47df b43c 7f75 debb
-0.0058143777 -0.018216034 -0.007131318 0.054100685 0.041712318 0.00815213 0.004412386 -0.0057669417
-0.034291744 -0.02221549 0.0010064811 0.025375245 -0.015894113 -0.008731883 -0.0025005687 -0.046398886
0.011011687 0.0018627356 0.0101292115 0.005003917 -0.016211674 0.014090046 -0.0035675904 0.009926396
-0.0047435453 -0.06684232 0.0064482195 -0.0058591207 -0.068337746 0.0051973066 -0.0027029368 -0.00565931
0.005145651 0.009259062 0.02666794 0.026014436 0.02454013 -0.0006583766 -0.0020748659 -0.020974865
0.01225834 0.0010214113 0.0074013993 -0.031756554 -0.024308572 -0.004145501 0.0035172235 0.012424388
0.018391704 -0.011778645 0.0061046956 0.011914386 0.011088335 0.018668033 0.013178276 -0.012381576
0.019178987 -0.0517155 0.001397266 0.0324464 -0.061191075 0.0033079404 0.0379133 0.013095777
-0.008637666 0.04444809 -0.0061268676 -0.065751925 -0.010920112 0.014362711 -0.004934493 0.0192393
0.0027087925 0.021920467 -0.00062802143 -0.020911334 0.037705064 -0.009907156 -0.02187941 -0.07444094
0.0029306796 -0.02012172 -0.013713952 0.022610115 0.043360468 -0.014486283 -0.008654084 0.013473462
-0.027922979 0.014553788 0.017169882 -0.015923986 -0.011502734 -0.032802135 -0.0022624023 -0.014525569
0.001998942 0.00012060553 -0.0044243457 -0.034286756 -0.042278484 0.011657019 0.079796836 -0.040677734
0.047746092 -0.0018934016 -0.013457589 -0.02841577 0.01251721 -0.008972945 -0.027771428 -0.0015042969
0.010132464 0.04984662 0.007927809 -0.009112384 0.008008009 0.0065315794 -0.015740536 0.02936342
-0.018567633 0.009411454 -0.04377761 0.020168446 0.005636758 -0.009284082 0.042737562 -0.006178901
-0.0040630335 0.007948678 0.00439238 0.040589746 -0.021145068 -0.016776916 0.01598193 -0.007588868
0.031127675 0.00471064 0.0007957768 -0.03248922 -0.030428076 -0.02125716 -0.0058278292 -0.006749431
0.0024507898 -0.032943316 -0.00090644194 -0.056600925 0.024114633 -0.03840972 -0.017595196 -0.007564003
-0.0128849745 -0.035078544 0.04707262 0.003954579 0.003257945 -0.012386478 0.0006549349 0.02102678
-0.000100373756 0.0009909172 -0.00842288 0.04870597 -0.003451358 -0.049226034 -0.0452833 -0.00730185
-0.003381923 -0.028963417 -0.0007570018 0.01754089 0.016960273 -0.06511818 0.0001062123 -0.029599663
0.008925383 -0.006907499 0.021650713 0.004867123 0.0003781638 -0.013605178 0.04954946 -0.0102658095
0.008465878 -0.0065940204 -0.0032850648 -0.00010361134 0.10680693 0.028872177 0.030468399 -0.009581994
0.004119953 0.025335563 -0.021645542 -0.045694575 -0.015222704 0.01650636 0.016762171 0.0016587236
0.004313804 0.016956093 -0.011181417 -0.01456846 0.024610007 0.047477655 -0.03175731 0.004420244
-0.000739024 0.0033386862 0.0023196896 0.006705234 -0.0049621593 0.011343768 0.0009384437 -0.0126419095
0.008151482 0.002250974 0.015857799 0.010283007 0.0053539695 0.03748378 -0.0048649097 -0.016866546
-0.015425144 -0.008108679 0.03585395 0.078717895 -0.01877529 0.018242426 -0.03153738 -0.004803451
0.014052668 -0.071136855 0.020800589 0.02103227 -0.0008859479 0.018668903 0.012257729 -0.0033627867
0.012153177 0.012018972 -0.0005177129 0.0053658695 0.009304208 -0.0329553 0.016223619 -0.004054461
-0.01956482 -0.012657817 0.049839653 -0.041704983 -0.004199293 0.012096062 0.022079123 -0.006788909

actor.6.bias f4 [8]
00000000: e030 5b3d cbfb 87bc b687 3fbb 66fc 273d
00000010: 35ee 1d3d 0f53 86bd 7f42 6b3d 486d e8bd
0.053513408 -0.016599556 -0.0029225177 0.04101219 0.03855725 -0.06558811 0.057436462 -0.11348969
