ISAAC_NOGIT/logs/rsl_rl/traquad_flat/2025-09-16_14-54-02/model_0.pt (torch, 924887 bytes, 48 tensors)

std f4 [8]
00000000: 7c58 803f 57af 7f3f 1edc 7f3f 5a7c 803f
00000010: efd7 7f3f 6214 803f 3720 803f f562 803f
1.0027003 0.9987692 0.9994525 1.0037949 0.99938864 1.000622 1.0009831 1.0030199

actor.0.weight f4 [128, 31]
00000000: 374c f4bb 4bf1 d23d 53d9 843d 7505 233e
00000010: bf7d d03d 4f1d 59bd 5354 15bd 7f24 153c
00000020: b83c 7ebd 34da f83d 7836 f93d 4979 13be
00000030: e256 983b 08e8 913d 23bc 14bd 7910 953d
00000040: 4dd5 973d 6971 d73d 7c23 f93d fa74 f73d
00000050: 587d f23c b2be 20be f1c2 2fbe 4220 22bd
00000060: 1120 173e 5840 23bd dd4f 1b3e ee28 5d3d
00000070: d864 053e 803c 03be fc0b 25be e320 d6bd
00000080: 9b9e 29bd 6e07 40bd dd32 88bd 5e01 d9bd
00000090: c3b3 743d 9557 10bd 6f0d 89bd 20d0 fb3d
000000a0: f9e0 643d bf92 b43d 7e25 d43b 8f9d 78bd
000000b0: 2b6a 073e 9198 6d3d 0139 25bd d5e1 fb3c
000000c0: 2385 12bd 7d86 4cbd 4c44 6cbd 9ed5 493d
000000d0: d004 b0bc 0bb9 353e 0a75 ab3d 7d1e b73b
000000e0: 74ea ec3d c8a0 bcbc b754 12be 37a0 25be
000000f0: a4e6 b73d 209b d7bd 2d7d 363e e90a f13d
00000100: f44d 04bc bada a0bc fc3f 28bc cd47 31be
00000110: 0dd6 353e 961c 3abd 83be 29be 5268 bc3d
00000120: 8e03 23be a35f 033e ff2e a53b c096 38be
00000130: 3b75 043c ab5d 72bc 2615 3fbb 8411 f63d
00000140: c6d2 28bd 5d23 1a3d c7c4 0d3e c0c1 143e
00000150: 4a09 14be e8c6 57bd a201 9dbd 2b85 1fbe
00000160: d2be 98bd c437 f53d 02f3 ebbb 4794 01be
00000170: 32c5 2b3e b565 61bd 925c ffbc caa6 253e
00000180: 4d1e ad3d 200c 10be 31e9 5e3b da17 b4bc
00000190: b193 ed3d ebdd bb3d 0e4d d43b aaab 753c
000001a0: 9b4d 02be ce91 ae3b e57b 0d3e eeb8 833d
000001b0: 9b7b 273e c32e ca3d a871 8b3d 2042 c23d
000001c0: 82f7 b43d 1897 0b3e 71f3 12be feab da3d
000001d0: 61bb 063e 54c1 abbd 8f38 103d 4eb8 213d
000001e0: 0c3d f43d ff9c c9bc c797 333e b043 fcbd
000001f0: 70cb 453d cd0f 74bd e652 18be d06d 01be
00000200: ab61 e43d a925 26be 1af0 cebd 6215 313e
00000210: 4aa4 f1bd d309 983d ab1a 0dbe 236a d33d
00000220: 67aa 153e 7912 bfbd 5461 0a3b 1fd8 003e
00000230: aca8 2d3e fba9 14be d7e9 53bd 0dca 803d
00000240: d5c4 e23d dccd 99bc 3a85 36bd be72 80bd
00000250: fcdf 71bc ee84 073e d2b0 8cbc e36d 313e
00000260: 4bdb 153e d75b 06be ad9f 123e 6d65 bcbb
00000270: 1840 56bc 026f f8b9 e430 5bbd baad c13c
00000280: 0edd cd3d 382f 5b3d 41a1 1fbe 80a4 eabd
00000290: 5459 bfbd 0b26 26bd 7cf4 bd3d 40ea 0f3e
000002a0: 5025 453d 02c5 9c3d 3058 6dbd 0759 76bd
000002b0: a8ed d73d fb17 4e3d 8160 153e d4ba 123e
000002c0: 3d25 1fbe d3c8 633c 424c 09bd b249 24be
000002d0: 152d fcbb cc76 cd3c d6e1 31be 7a63 5f3c
000002e0: 9587 e33d d764 cdbd b585 8ebd 4fb7 96bd
000002f0: 0857 14bd 6e15 fc3d fc67 223e 3aa2 30be
00000300: 9f5a c53d 6c10 8bbb 18d7 f03d f52e 353a
00000310: 5dd6 113e 6d8a b7bd 5685 03be 1d2c 063e
00000320: 8bd3 e2bd 77ca 273d 6a86 38bc 16db 8ebd
00000330: 2754 5f3d 2c21 ec3c fd2a 3abc 0368 4dbd
00000340: 9a81 ff3c 8146 f7bd 8f74 f1bb 3359 86bd
00000350: 175b fa3c 4770 fdbd 8650 303c a29d a43d
00000360: 6797 22be 1b0d 343e 8324 f2bd 1d38 fd3c
00000370: 5544 493c 514b 02be 32db c6bd 6de8 9d3d
00000380: 703f ca3d b19b bdbd c0e6 d1bd 10c6 763d
00000390: 9ae4 09bd 7f19 5a3d 22be 10be 6d73 f73b
000003a0: dc8b 613d 4c8c d2bc a06b 233e ff90 093e
000003b0: 64ca a7bc d024 e4bc 5b7a d5bd c84b 1cbe
000003c0: d08f 6cbd 7b33 0abe 583b cd3d 9ddf f93d
000003d0: f50b 2c3e 2b2c b53b 002e 14be 73aa 2c3e
000003e0: ed5d 01be 2548 6b3c 94e3 133e 5e39 81bd
000003f0: 5c3a 573d 0b73 59bd e2bb 8bbd ad4f 803d
-0.0074553746 0.10299929 0.06486764 0.1592005 0.10180234 -0.053006466 -0.03645737 0.00910294
-0.062069625 0.12150994 0.12168592 -0.14401735 0.004649029 0.071243346 -0.036312234 0.072785325
0.07413731 0.10519678 0.12164971 0.120828584 0.029600784 -0.15697744 -0.17164208 -0.039581545
0.14758326 -0.039856285 0.15167184 0.05399411 0.1302675 -0.12816048 -0.16117853 -0.104554914
-0.041411024 -0.046882086 -0.066503264 -0.10595964 0.059741747 -0.035239775 -0.066920154 0.12295556
0.055878613 0.08817052 0.006474196 -0.060697135 0.13224094 0.058006827 -0.040337566 0.030747334
-0.0357715 -0.049932946 -0.05768232 0.049275987 -0.02148667 0.1774637 0.08371933 0.0055883513
0.11568156 -0.023025885 -0.14290129 -0.16174398 0.08979538 -0.105276346 0.17821188 0.11769659
-0.008075226 -0.019635547 -0.010269161 -0.17312546 0.17757435 -0.045437418 -0.1657658 0.09199585
-0.15919325 0.12829451 0.0050410028 -0.18026257 0.008084591 -0.01479284 -0.0029156893 0.120150596
-0.041216634 0.03763138 0.13844596 0.14527035 -0.14456668 -0.052679926 -0.07666327 -0.15578143
-0.07458271 0.11973527 -0.0072005996 -0.1265422 0.16774443 -0.055028636 -0.03117207 0.16176906
0.08453045 -0.14067125 0.0034013505 -0.02198403 0.116004355 0.09173187 0.006478912 0.014994541
-0.12724917 0.00532744 0.13816793 0.06431757 0.16355745 0.098722 0.068087876 0.094852686
0.08836271 0.13631856 -0.14350678 0.10677336 0.13157417 -0.08386484 0.03521019 0.039482407
0.11925706 -0.024610994 0.17538367 -0.12317598 0.048289716 -0.05958538 -0.14875373 -0.12639546
0.11151441 -0.16225304 -0.101043895 0.17293313 -0.11798914 0.07423749 -0.13779704 0.10322978
0.14615785 -0.09329695 0.002111514 0.12582444 0.16958874 -0.14517967 -0.05173668 0.06288538
0.11072699 -0.01877492 -0.04456065 -0.06271885 -0.014762875 0.13234302 -0.017174158 0.17327075
0.14634435 -0.13120972 0.14318724 -0.0057493956 -0.013076805 -0.00047384953 -0.053513423 0.02364241
0.100519285 0.05351183 -0.15588857 -0.11457157 -0.0934321 -0.040563624 0.09275147 0.14054203
0.048131287 0.07654764 -0.05794543 -0.060143497 0.10543376 0.05031584 0.14587595 0.14329082
-0.15541549 0.013902861 -0.03351999 -0.16043738 -0.007695804 0.02508106 -0.17371306 0.013634557
0.111098446 -0.10028999 -0.06959096 -0.07359182 -0.036215812 0.12308775 0.1585998 -0.17249385
0.09636425 -0.004243901 0.11759776 0.0006911599 0.1424193 -0.089619495 -0.12843832 0.13102765
-0.11075505 0.04096457 -0.011262516 -0.06975381 0.054523613 0.028824411 -0.011362788 -0.05014802
0.031189729 -0.120739944 -0.007368631 -0.06559982 0.030561013 -0.12374931 0.010761386 0.080378786
-0.15878068 0.17583124 -0.1182337 0.030910546 0.012284358 -0.12724043 -0.09709777 0.07710347
0.09875381 -0.092582114 -0.1024909 0.06024748 -0.033665277 0.05324697 -0.1413503 0.0075516016
0.05506502 -0.025701664 0.15959024 0.13434218 -0.02048225 -0.027849585 -0.10423728 -0.15263283
-0.057754338 -0.134962 0.100210845 0.12200854 0.16801436 0.005528947 -0.14470673 0.16861896
-0.12633486 0.014360462 0.14442283 -0.0630977 0.05254589 -0.05308823 -0.06822945 0.06265197

actor.0.bias f4 [128]
00000000: 1d65 983d b94b a5bd 4684 323d ab1d 91bd
00000010: 711f 923d 94d9 113b a19e 27bd 3c8f 07ba
00000020: cdaa 09be 4169 2a3e bce5 34be c808 6c3c
00000030: e8ff 06be 45bb 0f3e b6c9 ddbd d860 033e
00000040: 603e b43d 7528 ddbd d83e 82bd f963 0f3d
00000050: 331a 283e 25cc 593d 7f68 983c 16c2 c33d
00000060: ebc5 353e 8229 83bd 7262 9d3b 60aa a53c
00000070: 34c1 b2bd 0cd7 313d 6ffa 98bc 6942 a4bd
00000080: f505 26be 3d6d 8b3d 9672 80bd 14f7 083e
00000090: 6117 c73d 6b1a 9dbd 222f 0d3e 347a 163e
000000a0: 7190 2a3e bf17 34be 8f9f f2bd 9fc7 18bd
000000b0: 30ca 543d 2000 ac3d 5b43 b73d 112a 8d3d
000000c0: 904e f4bb 8736 ccbd 3e40 c93c 24bb a4bd
000000d0: 33b4 9b3c 8aa2 ba3d 7b62 21bd e508 113d
000000e0: 1aed 223d d7a1 a23d 0353 a8bd ec22 313d
000000f0: 9b8e 63bd e480 bbbd 8b41 81bd 423b e13d
00000100: feaf 30be e672 0ebe 9250 5abd 7a2d 39bd
00000110: f97e 103e 881f 3d3d 33a2 37be 1827 c43d
00000120: e6d3 073e 5233 a1bd 46a8 0ebe bd02 e5bc
00000130: 823b 193d 6cc9 f8bd 349e 99bd 124c d53d
00000140: b80f 9bbd f780 35be 6669 2bbe 72ab f53d
00000150: 584f 96bb 55a3 dabd cd30 743d a145 91bd
00000160: ea7d 473d 1e43 00be 18d4 29bd 352e aabd
00000170: 8807 203e e09d 35be 40ae 24bd 2f39 ae3c
00000180: f160 383c f698 133e 2143 2a3e 71f5 53bd
00000190: 2190 1a3e 70c8 f33d 1959 3a3e 0cde 30be
000001a0: 8c00 da3d ceda ccbc c526 34be 74a5 d43d
000001b0: ecb0 13be 83e0 183e 1aba 19be 29dc ae3c
000001c0: cce1 45bc 5fce ec3c 11b1 0ebd c325 2e3e
000001d0: d6f4 72bd 1dfa f53d 6d22 07be eeb0 7fbc
000001e0: 7444 263e 0838 853c 35d7 44bd 731e 463b
000001f0: f8a8 433d c1ab 903d 0800 943d 95ad 223d
0.07441161 -0.080710836 0.043583177 -0.07085737 0.07134903 0.002225493 -0.040922765 -0.0005171185
-0.13444062 0.16641714 -0.17665762 0.0144063905 -0.13183558 0.14036281 -0.10829489 0.12829912
0.088009596 -0.10798732 -0.06359643 0.03500745 0.16416244 0.053173203 0.018604515 0.09558503
0.17751281 -0.06404401 0.0048029954 0.020222843 -0.08728257 0.043417975 -0.018674104 -0.08020479
-0.1621321 0.06807945 -0.062718555 0.13375503 0.09721256 -0.076710545 0.13787511 0.14695054
0.16656663 -0.17587183 -0.1184684 -0.03729975 0.051950634 0.08398461 0.08948394 0.06892789
-0.0074556544 -0.09971338 0.024566766 -0.08043507 0.019006824 0.09113033 -0.03940056 0.035408873
0.0397769 0.07941025 -0.08218958 0.043246195 -0.05555592 -0.09155443 -0.063113295 0.10997631
-0.17254636 -0.13911018 -0.053299494 -0.045209385 0.14110936 0.04617265 -0.17932968 0.09577769
0.13264427 -0.07871117 -0.13931379 -0.027955407 0.037410267 -0.12147793 -0.07500878 0.104149
-0.075713575 -0.17724977 -0.16739425 0.11995591 -0.004587095 -0.10675684 0.059616853 -0.07093359
0.048704065 -0.12525603 -0.041462034 -0.083095945 0.15627873 -0.17736006 -0.04020524 0.021267502
0.011253581 0.14413819 0.1662717 -0.051747743 0.15094043 0.11903465 0.1819805 -0.17272204
0.106446356 -0.025006678 -0.17592914 0.1038312 -0.14422959 0.14929394 -0.15012398 0.021345215
-0.01207776 0.028907 -0.034836832 0.17006592 -0.059315525 0.12010596 -0.13196726 -0.015606148
0.1623705 0.01626207 -0.0480568 0.0030230551 0.047768563 0.070640095 0.072265685 0.039716322

actor.2.weight f4 [128, 128]
00000000: ce83 85bd c42f b1bd 3a6a d13c 7fec acbc
00000010: 0705 423d ff33 afbd eb0b 4ebd c979 513d
00000020: 070f da3c e050 903d 30b6 38bd f2bc f63b
00000030: c47c 123d 28a2 0d3d 3407 a43d 8b75 5abd
00000040: ce17 b43d 4271 9dbd 53ef bb3c 76bf 7f3d
00000050: 0345 243d 236c 0dbc 5dc2 3a3d da87 b63c
00000060: 53b7 1b3d de12 8ebb 5264 fa3c c146 d33a
00000070: 30ec 1cbd fa9b 673d 28fa 103c 3ae5 c53c
00000080: 77b8 4bbd 8fe1 323c a24a a73d d443 2dbd
00000090: 262e 2a3d 57f1 8fbd 1ba8 68bd 6892 46bd
000000a0: c57a 9b3d 66bf ebbb c476 6e3d e365 853d
000000b0: 5a4b 8f3d 2d98 a43d d90c 54bb 3822 a93d
000000c0: 2448 883b 0d65 4d3c a1f1 86bd 4365 00bc
000000d0: f8fa 9a3d 7d1a e6bc 58e9 303c d19f 313d
000000e0: de4c 963d a4ac 76bc 91cb 2b3d 8887 dbbc
000000f0: 0853 58bd b768 aa3d 6860 ca3c c09c 2fbc
00000100: d675 97bd a936 863d 9acf 63bb 7df4 1bbd
00000110: b541 0abb d2b7 72bd 8ecb 50bd f487 72bd
00000120: 6574 06bd c2d6 663c 3743 273b 177f 97bc
00000130: 5e58 5fbd 9496 04bc b342 a3bd 7748 763d
00000140: dab1 44bd 64a8 313d 9392 a7bb 2030 a83d
00000150: 3d02 ab3d e7b9 833d 96df 2abc 266e c3bb
00000160: 818c 283c 8b24 aabc 313b 6bbd 4aaa 463d
00000170: 190b 913c c7bf 7d3d 8b31 f83c 54c2 4a3d
00000180: 7448 3fbc f44d c7bc d2c6 80bd c781 b6bb
00000190: 5992 01bd c2f7 8ebc 0cf3 853d 49f2 993c
000001a0: a6ff a9bd 2da7 8c3d b11b 9dbc 0d9d 093d
000001b0: 5e9d d7bc 347a 58bd 50a0 903d 1f12 b2bd
000001c0: 6b1e 9b3d 9960 6b3d 6fc9 0dbd f530 183d
000001d0: ebb5 943c 066a 99bd 8fae bdbc 99a4 3f3d
000001e0: 7035 403d 0cd3 20bd 8239 b6bc d3b7 8e3d
000001f0: b776 a3bd e6e9 39bd e53a b8bd 56cc abbd
00000200: 4021 b0bd e24a 02bd c63b 993d 61b0 9f3d
00000210: abb8 a83d ae0f bf3c 6e45 ff39 56a7 963c
00000220: cc0d ab3d c682 5a3d d96b 2d3d 7620 5dbd
00000230: e429 68bd 7d61 043c aa45 a8bd 0bee d73c
00000240: 2b82 b6bd c39d 55bc 183e bbbd 0655 893d
00000250: 7713 ae3d e131 5abc 0445 b93c 1c8c 5a3c
00000260: 75c3 95bc ceae 91bd d6a1 533d 41cf c6bb
00000270: 1c3e 813d 627b 97bd 52f7 9bbd e08d cdbc
00000280: 880a b93c 9c1d 58bd 6796 ac3d f337 3fbb
00000290: 5810 143a 9b0a acbd 49ea 013d 0a73 843d
000002a0: ba89 113c fde6 95bd 780d de3b 30ca a23d
000002b0: 5dc0 1c3d 89f1 5fbd dabb a83d 4271 94bd
000002c0: 7f67 1cbc 09d0 8a3d 5418 253d 5e56 b3bd
000002d0: 387b f3bc 1690 90bd 529d 89bd e230 8dbc
000002e0: 7404 e6bc 1f89 1c3d c0e4 23bd a013 70bd
000002f0: c290 8abc 43c7 283d b2be 9b3d 703a a0bd
00000300: 214b f1bc 1546 b7bc 8136 ad3d 7fe7 853d
00000310: bc1f 7bbd a0e2 0dbd 3888 e7bc 4b47 a5bc
00000320: a242 113d 1471 4abc f157 8ebd 5edf 85bc
00000330: 7a59 053d 116a 59bb 171c 243d d94e 73bd
00000340: e032 18bd be3b 39bd 7806 bf3b 5ae0 573d
00000350: ed1f 193c 39bf 193d a1ef c5bc 8be0 1abc
00000360: cbfc e63b a1c4 3b3a 3eb5 d23c a7b2 243d
00000370: c875 e73c ad7c 7fbd 4ed6 6c3d ec15 8e3d
00000380: de27 a0bd 0f11 29bd 149c 353d 8bd4 8d3d
00000390: 6adb 84bd 1eb8 13bd 11c7 acbd bc46 c4bb
000003a0: 38b6 cf3b a615 203d 5b81 d5bc 6d74 2f3d
000003b0: 200b 67bd e66b 953d 7f45 afbd 716c b8bd
000003c0: 23ce 9f3d 23e7 553d d385 6b3d c0c8 8fbd
000003d0: b59a 433d 4cfb 4f3d ac2c c63c 5119 483d
000003e0: c401 713d ffa3 83bd 2628 413d dd2d 08bd
000003f0: ab73 adbd 3d37 a73d 3df7 64bd 2c36 2ebd
-0.065192804 -0.08651689 0.025563348 -0.021108864 0.047368076 -0.08554839 -0.050304335 0.051141534
0.026618494 0.07046676 -0.045095623 0.0075298483 0.035763517 0.034578472 0.080091864 -0.053334754
0.08793603 -0.07687618 0.022941267 0.06243845 0.040104877 -0.008631739 0.045595516 0.022281576
0.03801663 -0.0043357452 0.030565415 0.0016119109 -0.038311183 0.056545235 0.008848704 0.024157155
-0.049736466 0.010918035 0.08168532 -0.042301014 0.041547917 -0.07028454 -0.056800943 -0.048479468
0.07591776 -0.0071944473 0.058218732 0.06513574 0.06996794 0.08036838 -0.003235629 0.0825848
0.0041589905 0.012536299 -0.06589056 -0.007836643 0.075674 -0.028088802 0.010797821 0.043365303
0.0733888 -0.015055809 0.041942183 -0.026798025 -0.05281356 0.08320754 0.024704173 -0.010718524
-0.07395522 0.06553394 -0.0034761191 -0.03807496 -0.0021096293 -0.059257336 -0.050975375 -0.059211686
-0.032825846 0.014089288 0.002552224 -0.018493218 -0.054527633 -0.008092541 -0.07971706 0.0601277
-0.048021175 0.04337348 -0.0051139086 0.08212304 0.08350036 0.064319424 -0.010429284 -0.0059640585
0.010287405 -0.020769378 -0.057429496 0.048502244 0.017705487 0.06195047 0.030297061 0.049501732
-0.011674989 -0.024329163 -0.06287922 -0.00556967 -0.03163371 -0.017452125 0.06540498 0.018792288
-0.08300714 0.06867824 -0.019178243 0.03359704 -0.026320156 -0.052850917 0.07061827 -0.086948626
0.07574161 0.05746517 -0.03461593 0.037156064 0.018153151 -0.074909255 -0.023154525 0.046787832
0.046925962 -0.03926377 -0.022244219 0.069686554 -0.079816274 -0.04538908 -0.08995608 -0.08388583
-0.08600092 -0.031809695 0.07482104 0.077973135 0.082383476 0.023322906 0.0004868912 0.018390339
0.08352241 0.05334737 0.04233918 -0.053986035 -0.056680575 0.008079884 -0.08216412 0.026358625
-0.08911546 -0.013038102 -0.09142703 0.0670567 0.084998064 -0.013317556 0.022615917 0.013339069
-0.018281678 -0.071134195 0.05166801 -0.006067187 0.063106745 -0.0739658 -0.07615532 -0.025092065
0.02258803 -0.052762613 0.084271245 -0.0029177635 0.00056481874 -0.0840046 0.031717572 0.064672545
0.008882934 -0.07319448 0.006776508 0.079487205 0.03826939 -0.054673705 0.08238955 -0.07248165
-0.00954616 0.06777961 0.040306404 -0.087567076 -0.029721841 -0.07058732 -0.067194596 -0.017235223
-0.028078295 0.038216706 -0.040013075 -0.058612466 -0.016914729 0.041205656 0.076047316 -0.07823646
-0.02945477 -0.022372285 0.084576614 0.06538295 -0.06130956 -0.034639955 -0.028263196 -0.020175597
0.035463937 -0.0123560615 -0.06950367 -0.016341861 0.032556035 -0.0033174793 0.04006585 -0.059401367
-0.037157893 -0.04522299 0.0058296286 0.052704193 0.009345991 0.03753588 -0.024162116 -0.009452949
0.0070491782 0.0007162784 0.025721189 0.04020944 0.028254405 -0.06237476 0.057821564 0.06937775
-0.07820104 -0.041276034 0.0443383 0.06925305 -0.064871624 -0.03606426 -0.084364064 -0.0059898775
0.006338861 0.039083146 -0.026062658 0.04283564 -0.056407094 0.072959706 -0.08558177 -0.090050586
0.07802989 0.052222382 0.05750067 -0.07020712 0.047754962 0.050776765 0.024191223 0.04885227
0.058839574 -0.06427764 0.04715743 -0.033246864 -0.084693275 0.08164833 -0.055899847 -0.04253213

actor.2.bias f4 [128]
00000000: 7145 7a3d 65f7 96bd 70e1 46bd f5b6 0dbd
00000010: be4c 853c 1759 52bd 8385 8cbb ee97 ac3c
00000020: cabd 5fbd dfbf 253d afe4 0cbd 9af4 a4b9
00000030: db5e 853d 3b04 5e3d 12ee 52bd 1e0e 823c
00000040: 9258 0cbb 0c1f 0bbc c6ab 0e3d 2c13 4e3d
00000050: 66ae a8bc aaa4 b6bd 111c aabd 8a20 e8bb
00000060: 54c3 8f3c ad69 74bd c6f7 cebc fccc 87bd
00000070: ba16 993d 86dc 3cbc 9191 89bb 9de0 ad3d
00000080: db2e 31bd d3c8 113c a17d 713d ff81 bd3c
00000090: c3af 033d 79d2 8b3c 3469 e6bc 466b 20bd
000000a0: e7aa a53c a69b 3cbd ffc8 943d 0cfa 463d
000000b0: fd5c 863d e321 98bd c9eb ca3b 6b5d 57bd
000000c0: 74fc 8ebd d8f3 34bd d28c b03d 657c 27bd
000000d0: da2c aabd 435a a33d 08d6 6c3d 44f2 4abd
000000e0: bb8f 7e3d 1a7f a43c 09bd ab3b c417 73bd
000000f0: b77d adbd d9c3 b23d 010f 523d 7f72 623d
00000100: 8684 a6bd 06e8 98bd 22c1 8d3d cae1 a7bd
00000110: 4d8d 5e3d 8d12 46bd a651 17bd d9c7 b13d
00000120: 06e1 903d 2584 55bd 6167 a83d 3744 b53c
00000130: 41b5 123b 2c97 5f3b 9af7 0bbd 81fc 193b
00000140: 828a 253d 72a0 583c 48d6 c6bc 2bbf a83c
00000150: 3751 453d e137 47bb e389 8cbd 6ed8 27bc
00000160: c9fd 92bd e316 123d 34d1 133d b20e 223d
00000170: 0ab9 9bbd b370 9cbd 36be 81bc 1b85 bd3c
00000180: e2ce e3bb ee36 13bd cfed 9a3d ad38 963d
00000190: 6149 563d afa2 0bbd ab3f 293d 69fe 7fbd
000001a0: a2a4 843c 5b9b a83b cb5a 40bd ed0a 9a3d
000001b0: 9f8c 9dbd 7e1a 8c3c 5833 0bbd 1532 273c
000001c0: 79e2 31bd 6bca a23d 3200 f43c 9a97 b3bd
000001d0: b858 843d 42fd 433d 45ef 5dbd dab7 e0bc
000001e0: 1c37 123d 79d1 aa3d a125 1abd edda a23d
000001f0: e49a 5fbd e1fb 033d ce1d 8bbd 8240 e2b9
0.06110138 -0.073714055 -0.048554838 -0.03459831 0.016271945 -0.051354494 -0.004288377 0.02106854
-0.054624356 0.040466186 -0.034397777 -0.0003146276 0.06512233 0.054203253 -0.051496573 0.015875872
-0.0021415097 -0.008491289 0.034831785 0.050311252 -0.020590972 -0.08918126 -0.083061345 -0.007083957
0.017549194 -0.059671093 -0.025264632 -0.066308945 0.07475038 -0.011527186 -0.004198261 0.08490107
-0.043257575 0.008897978 0.0589577 0.023133276 0.03215004 0.017068135 -0.028126337 -0.039164804
0.020223094 -0.046046875 0.072648995 0.048578307 0.06560705 -0.074283384 0.0061926586 -0.052579325
-0.06981745 -0.04417786 0.08620609 -0.040890116 -0.08309336 0.079762004 0.057821304 -0.04954745
0.06214879 0.020080138 0.0052410406 -0.059348837 -0.08471244 0.08728761 0.05128384 0.055284973
-0.081307456 -0.0746613 0.06921603 -0.08197363 0.054333974 -0.048357535 -0.0369431 0.08680696
0.0707417 -0.052127976 0.08222843 0.022127254 0.0022385868 0.0034117205 -0.034171678 0.0023496451
0.040415294 0.013221847 -0.0242721 0.020598968 0.048173156 -0.0030398297 -0.06862237 -0.010244472
-0.07177312 0.035666358 0.036088184 0.039564796 -0.07603653 -0.07638683 -0.01583777 0.023134759
-0.0069521526 -0.035941057 0.0756489 0.07335029 0.052316073 -0.034090694 0.041320484 -0.062498484
0.016191784 0.005145473 -0.046961587 0.07521615 -0.07692837 0.017102476 -0.033984512 0.010204812
-0.04342887 0.079487644 0.02978525 -0.0876915 0.06462234 0.047848947 -0.054183263 -0.027431417
0.035697088 0.08340735 -0.037633542 0.07951913 -0.054591075 0.032222632 -0.06792794 -0.0004315414

actor.4.weight f4 [128, 128]
00000000: ac70 f5bc f6b9 7cbc 2d0a 493c 30df 603d
00000010: d9f5 483d 826d 10bc d3aa 48bc 43a5 b03d
00000020: 06ff 85bd 36ff b3bd 8007 903c 1690 c3bc
00000030: 404e a93d bc84 58bc 0a52 a6bd fa72 9bbc
00000040: 0945 9fbb 4606 67bd a006 12bd 2af4 a7bd
00000050: d672 25bd 3191 833d f9d6 98bd 2d5e 44bd
00000060: d453 75bd 3a3d 283d 5a12 06bd 8418 9dbd
00000070: 76d2 cbbc 27a4 813d 6d9d bcbc 7cdc 62bd
00000080: f940 24bc 3cf6 8ebd 01e6 683d ca64 9fbc
00000090: 4593 1ebc 6c18 5abd c3f4 d33c 5809 8d3c
000000a0: 56ea a53d f2ba 86bd 8e97 263d 004e f9bb
000000b0: 6f82 95bc ee41 093d 0867 b8bc bc93 d83b
000000c0: 77d5 8abc ce62 9fbd f4c8 e8bc 13d8 633d
000000d0: 3396 d7bc 1b40 c53c 7675 08bd 2136 35bb
000000e0: b6ff 8a3d 80e2 a6bd deec 5c3d 3198 35bd
000000f0: 241c 9a3b 363e b23d c1d2 073d b590 eabc
00000100: ab4c a6bd 4ca6 853d 05b4 103d 4aa6 29bd
00000110: 3826 403c 76fb a43d 4769 67bd f176 bdbc
00000120: 7f8c 9abb 8cbb 6abd 7721 993d e1bb 2e3d
00000130: 8a3f 6d3d 9412 f23c 8838 cabc d733 bd3c
00000140: 3a39 2dbd 040b adbd 136a 10bd 88c1 0a3d
00000150: 42c5 2fbd b4b5 05bd 17ab 3bbb 26cc 6f3d
00000160: 0080 713d e8c2 e8bb 579f 273d ab07 4bbd
00000170: d39e e63c 5150 2f3d 0a80 dc3c e837 7ebd
00000180: 592b 79bd b905 883d aef9 34bd f4d6 2e3d
00000190: 60ca 87bd 0734 fc3a d4f4 a9bc c6ac fabc
000001a0: c2e4 bcbc f193 b63c 3a26 a93d 8a2f bfbb
000001b0: d675 6abd a650 dfbb 7335 583d 80c7 613c
000001c0: 5f83 1abd 3792 67ba 56f0 b2bd 3cc0 283d
000001d0: bed2 523d f825 193d 2a4d f73c 757e 4ebd
000001e0: e5c3 f6b9 e44a afbd a69d 51bb afdf a7bb
000001f0: a917 bf3c 8b33 513c 7a11 903c f507 a3bc
00000200: a7ab 7bbd 5613 a13d be83 043d b71f 3dbd
00000210: debf 943d c998 663d 2fca 1d3d aa43 f5bc
00000220: a96c 40bd 1e46 fd3c e2cc 7abd 26b5 08bd
00000230: f199 6a3d 5e25 2a3d ee16 b43d af41 44bc
00000240: b848 233c de88 0a3d 896a ee3c b3f9 86bc
00000250: 21ea 98bd ecd1 583d d20c 16bd 972e 58bd
00000260: ecb6 65bd 62fc 243c 15d3 0dbd 504c 90bc
00000270: 0817 af3d eac3 74bc 3bcf 443d b965 9dbd
00000280: 4d06 6e3d 166f 81bc e7b8 793d 49d8 153d
00000290: 8fa3 703d ab95 a43d 3762 53bb 337f 163d
000002a0: 3faf 0dbd 2262 bebc 7dcd 52bd d1f2 1d3c
000002b0: a667 8e3c 2f49 173d e9d5 39bd b2b6 fa3b
000002c0: e033 813d 29b7 5bbd 77ba a43d d953 313d
000002d0: 816d 86bd f0de acbd 9023 903c 31ec 68bd
000002e0: 7aaf b23d 15a9 6abd a3d6 c73c fe3d ab3d
000002f0: 0b50 7c3d 6778 86bd fd24 853c 0a89 8a3d
00000300: 63cb 87bc 2cbe 3cbd e452 2dbd e656 313d
00000310: d990 9fbd 87b8 66bc 922e b3bd ad6e 203d
00000320: 82b6 f63c e003 16bd 7697 db3a efda 873d
00000330: ff68 9f3d 604a 9ebd 7c30 87bd 14c9 63bc
00000340: d7bb 143c 4368 4dbd 74b8 5c3c 5fc7 ad3c
00000350: 243e cdbc 96a1 913d c728 87bc 9f25 01bd
00000360: 04fd 993d 15d8 e6bc 0c9f 2f3b 3516 b73d
00000370: 25a7 6dbd 2529 903c c823 ad3d e9de a9bd
00000380: 2fdb 8c3d 281a 123d 7b54 c93c fa92 b23d
00000390: 5631 59bd 02d1 8e3d 3e40 a53d a49f 83bc
000003a0: f40a 00bb eb2c b03d d6e7 923d 8dc4 343d
000003b0: 9d41 583c 326c 153d d6c9 873c b5aa b5bd
000003c0: cfca 96bd 6d95 c0bc 824d f63c 6e83 8ebd
000003d0: b00c 82bd 0d8b 0cbc 3eb6 85bd e331 3abd
000003e0: 0714 173b 8db7 28bd a57e fc3c a52f c5bb
000003f0: 6ab5 34bd 32ba a73d abff 99bc b159 913c
-0.029960953 -0.015425196 0.0122704925 0.05490035 0.049062584 -0.008815171 -0.012247759 0.08625271
-0.065427825 -0.08788912 0.017581701 -0.023872416 0.08266878 -0.01321524 -0.081211165 -0.018975724
-0.0048605246 -0.056402467 -0.03565085 -0.082008675 -0.04039272 0.064241774 -0.07462878 -0.047941376
-0.059894398 0.041074015 -0.032732345 -0.076706916 -0.024880629 0.06330138 -0.023024285 -0.05538605
-0.010025256 -0.06980559 0.056859974 -0.01945724 -0.0096786665 -0.053245947 0.025873547 0.01721637
0.08101337 -0.06578626 0.040671878 -0.0076081753 -0.018250672 0.03351014 -0.022510067 0.006609408
-0.016947491 -0.077825174 -0.028416134 0.055625986 -0.026316738 0.02407842 -0.033315144 -0.0027650672
0.06787054 -0.0814867 0.05393683 -0.044334594 0.0047030617 0.08703272 0.033159975 -0.028633455
-0.08120092 0.06525859 0.03532793 -0.04141835 0.011727862 0.08055775 -0.056496885 -0.023128005
-0.0047164555 -0.057307765 0.07477086 0.042659644 0.057921924 0.029549874 -0.02468516 0.023096008
-0.042290904 -0.08449367 -0.03525741 0.033875972 -0.04291273 -0.03264399 -0.0028635913 0.0585443
0.05895996 -0.0071033128 0.040923443 -0.04956786 0.028151905 0.042801205 0.026916523 -0.062065035
-0.060832355 0.066417165 -0.044183426 0.042685464 -0.06630397 0.001924158 -0.020746626 -0.030599963
-0.023058299 0.02228734 0.08259244 -0.0058345245 -0.057241283 -0.006815034 0.05278535 0.013780475
-0.03772294 -0.00088337384 -0.08737247 0.041198954 0.05147051 0.037389725 0.030188162 -0.050413568
-0.0004706673 -0.08559206 -0.0031984835 -0.0051231007 0.023326712 0.012768636 0.017586458 -0.019901255
-0.061442997 0.07865016 0.0323522 -0.046172824 0.07263158 0.05629805 0.038522895 -0.029939491
-0.046978626 0.030917224 -0.061230548 -0.03337588 0.057275716 0.041539542 0.08793436 -0.011978551
0.009966068 0.033821933 0.029103534 -0.016476488 -0.074665315 0.052934572 -0.03663332 -0.052778807
-0.05608265 0.010069938 -0.03462513 -0.017614514 0.08549315 -0.014939288 0.048049193 -0.07685418
0.058111478 -0.01580004 0.060967352 0.03658322 0.05874973 0.080363594 -0.0032254586 0.0367424
-0.034590956 -0.023240153 -0.0514655 0.0096404115 0.017383408 0.036935028 -0.045370016 0.0076511735
0.063087225 -0.053641472 0.08043378 0.043292854 -0.06563855 -0.084409595 0.017595083 -0.056865875
0.08724876 -0.057290155 0.024394339 0.083614334 0.061599772 -0.06565934 0.016252989 0.067644194
-0.016576475 -0.0460798 -0.04231538 0.043295763 -0.077912994 -0.014082081 -0.08749117 0.03916805
0.030116323 -0.03662479 0.0016753513 0.06633555 0.07783698 -0.0772903 -0.066010445 -0.013902921
0.009077988 -0.05014826 0.013471711 0.021213232 -0.025054045 0.07110898 -0.016498936 -0.03153002
0.07518962 -0.028179208 0.002679768 0.089397825 -0.05802073 0.017597744 0.0845409 -0.0829447
0.068777435 0.035669476 0.024576416 0.0871944 -0.053025566 0.06973459 0.08068894 -0.016067334
-0.0019537779 0.086023174 0.071731254 0.044132758 0.013199237 0.036480136 0.016575735 -0.088704504
-0.073629014 -0.023508752 0.030066255 -0.06958662 -0.06350076 -0.008578074 -0.065289006 -0.045457732
0.0023052709 -0.041190673 0.030822108 -0.0060176426 -0.044118322 0.08189811 -0.01879867 0.017742964

actor.4.bias f4 [128]
00000000: c74f ca3c 72f6 66b8 58f4 233d 7de9 be3c
00000010: 4a84 2ebc 79cb 843d 27da 2fbb d508 08ba
00000020: a8f3 b73c 9b00 90bd 12e7 8ebd d10f ea3a
00000030: 2c31 88bd 31f3 62bd 179f 9d3d e5a5 34bc
00000040: f261 633d 4f59 253d 997c 82bd 6c70 f33c
00000050: 82ca 94bd 16c8 673d e5df 0abc 7899 543d
00000060: 2957 1d3d 2707 c43b 5ac3 313d 53ad 2fbc
00000070: fe1b 03bd ffa2 ad3d b5e9 46bc 5c1d c63c
00000080: 5123 043c 5913 b13d eb7a 093d eec7 0f3d
00000090: 099d b13d f24d b13c f508 f7bc 2b43 1339
000000a0: ac5e 58bd 13fe 3fbd b916 94bd f33a a3bd
000000b0: c2b2 09bd 9927 8bbd 8fa0 b23c 22b2 8ebd
000000c0: 3489 1e3c 54e3 853d a73d 0ebd 470a 7b3d
000000d0: 306c f33b 72ad f3bc 4314 2c3d be5d 063c
000000e0: d581 54bd e917 7bbd 254b d0bb 60cd 4fbb
000000f0: 04e1 613d 41fe 403a dced 83bc 81dc 5bbd
00000100: 107f 2fbd 9ad6 ba3c de35 a83c 7c3f 8f3d
00000110: 3bbf aa3d 29b0 8d3d f942 1cbd c617 0fbd
00000120: e6ae 393c 26a8 803d 0e38 2d3c 6c74 12bd
00000130: 9ed3 dbbc 3860 d9bc ca56 9a3d 6c0e acbc
00000140: d2dd 8ebd e7fc 21bd ca6c ac3d 87b4 90bc
00000150: 3c72 70b9 59ce 6cbc 159a 243d 1b08 413d
00000160: e583 ad3d 029b 75bd 5e18 8c3d 941b 413d
00000170: c0fe 05bd 69e4 8bbd ab14 93bd a5e4 3eba
00000180: 9525 13bd a382 5ebd b8cc 78bc f6c8 573d
00000190: 9812 4dbd b413 9ebd cff4 aebd 3b4a c43c
000001a0: 29fc 77bd 05fe ec3c 4a5c 7fbd dec5 b03d
000001b0: a60b 693d 39d4 29bd 0286 283d 779e 82bd
000001c0: f6eb 2dbd d1be 81bd 9a23 a83d 47ac ac3d
000001d0: a5e1 84bd 1865 9ebd 19f9 6bbd fabe 633d
000001e0: 5371 713d 05aa 4a3d cb04 a43d 4ee5 4c3d
000001f0: 7b12 9d3d 05aa e4ba 4832 90bd 6538 083d
0.024696244 -5.5065793e-05 0.040027946 0.023304695 -0.010651657 0.06484122 -0.002683291 -0.00051893044
0.022455052 -0.070313655 -0.06977667 0.0017857497 -0.06650004 -0.055407707 0.076963596 -0.01102588
0.05551333 0.040368374 -0.06371421 0.029716693 -0.07265188 0.0565873 -0.008476232 0.05190417
0.0384132 0.005982298 0.043399192 -0.010722476 -0.032009117 0.08478355 -0.012140681 0.024183922
0.008065061 0.086462684 0.03356449 0.035102777 0.0867253 0.021643613 -0.030155638 0.00014044034
-0.05282466 -0.046873163 -0.072308965 -0.07970228 -0.033617742 -0.06794662 0.021805076 -0.0696757
0.009676266 0.065375 -0.034726765 0.061289098 0.0074286684 -0.029745791 0.04201151 0.008201061
-0.05188163 -0.0613021 -0.006356614 -0.0031708106 0.055146232 0.00073621055 -0.016104631 -0.053677086
-0.042845786 0.022807408 0.020533498 0.069945306 0.083372556 0.069183655 -0.038149808 -0.03493478
0.011333203 0.06282072 0.0105724465 -0.03575556 -0.026834305 -0.026535138 0.07536085 -0.02100297
-0.069759026 -0.039547827 0.08419187 -0.017664207 -0.00022930739 -0.014453494 0.040186007 0.04712687
0.084724225 -0.05996228 0.06840585 0.04714544 -0.03271365 -0.06830675 -0.071816765 -0.00072819955
-0.035924513 -0.054323804 -0.0151855275 0.052681886 -0.05006656 -0.07718602 -0.08542787 0.023961177
-0.060543213 0.02892972 -0.062343873 0.0863149 0.056895874 -0.041462157 0.041143425 -0.06377881
-0.042461358 -0.063352235 0.082099155 0.08431297 -0.06488351 -0.07734126 -0.057610605 0.05560205
0.058945965 0.04947855 0.08008727 0.05002337 0.076695405 -0.0017445689 -0.070408404 0.033256907

actor.6.weight f4 [8, 128]
00000000: 24cd 8b3d 975e 683d e74e 2db8 27c0 a63d
00000010: 51a9 f9bb fe1c 94bd 5bc7 9e3d ca3d 08bc
00000020: 742a a8bd 8899 afbd cbec 57bd 652f 3c3d
00000030: 4a21 fcbc 6b7b a7bd 28b3 21bd 7e85 62bd
00000040: 554a 61bd 1cc7 94bd b91c 8abd 0e97 3bbd
00000050: 666d 383d 38bc 0d3d 2321 8abd 1fc5 873c
00000060: 4de6 553d 707b a9bd d1b0 2cbc 4146 903c
00000070: ee16 aabd 2cbb 803c 950b 93bd 45ee b73c
00000080: 4eff e53c 3467 b23d ba2b a23d 2393 1bbd
00000090: 373e 54bd 78c3 2d3d 7be1 71bd 31f8 feba
000000a0: 02ae dd3c fffc 29b9 ac99 81bd 2e63 73bb
000000b0: d55f 29bd f826 d8bc 5842 153d f35b 82bd
000000c0: bb5c 11bc 6b60 f7bb 142b f4bb 1871 bb3d
000000d0: 77fd 36bd 88cf 05bd 7e71 753d 83bc 8bbd
000000e0: 9759 a138 09fb a0bd 11f1 463d 6d8e e83c
000000f0: b066 e33b 50fb ba3c 0c39 b63d a079 f63c
00000100: fc77 76bd 41a1 9d3d 7699 06bd 3611 60bd
00000110: ae52 92bd e661 4bbc 632e a53d c856 80bd
00000120: bb1f 123a 4f01 913d edf3 9bbc 43a6 48bd
00000130: 3715 b83b 47c7 823c ccba 1bbd a0c3 bcbc
00000140: be1c 67bb 9bc1 5e3c 06d6 7f3d 6125 943b
00000150: fb57 abbd b993 63bd 6bdb 633d 303c 393d
00000160: 5564 7bbd 0901 753d c9a3 543d a168 47bd
00000170: 4c6d 91bd de76 0f3d 9d6e 523c 821d 9d3c
00000180: 3608 db3b 4c01 123d 7587 9fbd 11ca bc3c
00000190: 3e17 8d3c 5bbf cd3b b886 c23c 4af8 acbd
000001a0: 1a2c 603d 49e3 c8bb 6f28 b2bb 8f75 5cbd
000001b0: 588c 21ba 2cc7 d9bb 3d3f a6bd 6fe9 493d
000001c0: cb49 c33c 6e45 a73d 0434 b73c a6a5 693d
000001d0: 40f2 923d 55a8 5c3d c513 023a d7b0 7f3d
000001e0: deca b3bd 40d9 e13c 360f 60bd 2a68 4abc
000001f0: deb2 b83d 3988 a0bd ca7b 833d 4789 a5bd
00000200: 76e8 24bd 39ce a0bd 1466 af3d 1fd3 903d
00000210: 349c acbd 02db 6fbd a9b6 9e3d b429 aebc
00000220: d7be 963d 6e3c 063c cb55 99bd 1a2e 4abd
00000230: ea49 7fbd 862d 7f3d 3a3c d2bc d02c 033d
00000240: f49a 4b3d 282e aabc e816 b9bc 470a a7bd
00000250: b256 8dbc ba37 91bd 33cb e8bc 4fd1 ae3c
00000260: ce01 60bd 9cf9 a3bd e07e 77bd 4ef9 61bc
00000270: e573 0b3b 85ca 94bd 88cd 6d3d a6d8 bb3d
00000280: 1e25 8fbd 9c59 29bd 801b aebd 139f a23d
00000290: 28f0 00bc f94d 6abd 1659 8dbd 8cb4 e63a
000002a0: 40d1 3e3c 35e7 86bd 224d ab3d b05c 373d
000002b0: d06f 5f3b a5ac 90bd d126 843d 8233 3cbd
000002c0: 5414 2f3d 87ff c33c c11e c2bc 185f 6b3d
000002d0: 659e 593d 6a2f cabc a7b7 b63d 1dda 6abd
000002e0: a83c 923c 8121 a9bd 45cb 3d3c b424 f1bc
000002f0: d052 af3d 65d6 5b3d 7c63 843d 75d9 a9bd
00000300: 62c9 963d 4a71 0a3d 2fa5 67bc 4604 c43c
00000310: fe69 113d 17d7 12bd 674d 7f3d c899 9ebd
00000320: 2c6a c53b d517 a03d 6b0f dcbc 1d10 4bbd
00000330: 1f14 413d c77d 3c3d 20f2 a6bd 69bb 8fbc
00000340: da9b 773d d4e0 923d e57a 0f3c 0af4 053d
00000350: 659c 2bbd b41a 833d ea2a 9ebd 146f 86bd
00000360: fb77 51bd 3d9c fa3c d71c e1bc 19d6 3f3d
00000370: 7775 923d ea16 1e3d 5b36 2abd c9af a33d
00000380: 9a31 3dbc 3fc5 363d de1b a53d c978 8d3d
00000390: 206e b33c 2f2a b4bc 9f24 d5bc 54fc 82bd
000003a0: bd4d 77bd 7f74 a5bd 0609 263d 1a00 3f3d
000003b0: 5de6 7a3c b1e2 7abd 81ec 0b3c 2bbd 8dbd
000003c0: 3831 9a3d bf01 0cbd 245e 4bbc 5c33 033d
000003d0: bb87 22bd be8e 05bd 9acc 7d3d 0b03 84bc
000003e0: 2bcd 043d 863f 663d 674e 353d ba72 12bd
000003f0: d97e 0cbd e3bd 9b3d 5fc6 aa3d 4c8e 86bd
0.06826237 0.056730833 -4.1319898e-05 0.08142119 -0.007619061 -0.07232092 0.07752868 -0.008315513
-0.08211222 -0.08574206 -0.052716058 0.045943636 -0.030777592 -0.08177837 -0.039477497 -0.05530309
-0.05500253 -0.072645396 -0.0674376 -0.045798354 0.045026205 0.034603328 -0.067446016 0.016573487
0.052221585 -0.08275497 -0.010540203 0.017611625 -0.08305155 0.01571425 -0.071799435 0.022452483
0.02807584 0.08711091 0.079184964 -0.037982117 -0.051817145 0.04242274 -0.059052926 -0.0019452629
0.027060512 -0.00016211344 -0.06328139 -0.0037137973 -0.04135116 -0.02638577 0.036440223 -0.06365194
-0.008872206 -0.0075493357 -0.0074514244 0.0915243 -0.044675317 -0.03266862 0.059922688 -0.06823065
7.693766e-05 -0.07860381 0.048569743 0.028388226 0.0069397315 0.022824913 0.088975996 0.030087292
-0.06017302 0.07696772 -0.032861196 -0.054703914 -0.07144676 -0.0124134775 0.08065488 -0.06266552
0.0005574186 0.07080328 -0.019037211 -0.048986685 0.0056177634 0.015964163 -0.03801994 -0.0230425
-0.0035264934 0.013595964 0.062459968 0.0045210575 -0.0836639 -0.0555608 0.055629175 0.045223415
-0.06137498 0.05981544 0.05191401 -0.048683766 -0.07100925 0.03502547 0.012843755 0.01917911
0.0066843284 0.035645768 -0.07789508 0.023045572 0.017222997 0.006278915 0.02374588 -0.08445795
0.05472956 -0.00613061 -0.005436949 -0.05382305 -0.00061625754 -0.0066460576 -0.081175305 0.049294885
0.023838898 0.081675395 0.02236367 0.05704274 0.07175112 0.05387147 0.00049620523 0.062424507
-0.08778928 0.027569413 -0.054702006 -0.012353936 0.09018491 -0.078384824 0.06420095 -0.08082824
-0.040260755 -0.07851834 0.08564392 0.07071518 -0.08428231 -0.05855847 0.077496834 -0.02126012
0.073606186 0.0081931185 -0.07487067 -0.049360372 -0.06232635 0.062299274 -0.025663484 0.03202516
0.04970832 -0.020773962 -0.02259393 -0.08156257 -0.017253254 -0.07090707 -0.028417205 0.02134004
-0.05468922 -0.080065936 -0.06042373 -0.013792349 0.0021278795 -0.0726519 0.058057338 0.09172182
-0.069895014 -0.041345224 -0.08501339 0.07940497 -0.007869758 -0.057203267 -0.069017574 0.0017601415
0.011646569 -0.06587068 0.08364321 0.044766128 0.0034093745 -0.07064179 0.06452716 -0.04594756
0.042743996 0.023925556 -0.023696305 0.057463735 0.053129572 -0.024680812 0.08921748 -0.057336915
0.017851189 -0.082583435 0.011584108 -0.029436447 0.08560717 0.05367126 0.06464288 -0.0829343
0.073626295 0.033799447 -0.014138504 0.023927819 0.035501473 -0.035849657 0.062329676 -0.07744175
0.0060246196 0.078170456 -0.02686282 -0.049575914 0.04713833 0.046018388 -0.081516504 -0.017545419
0.060451366 0.07171789 0.008757328 0.032703437 -0.041897196 0.064015776 -0.07723029 -0.06564155
-0.051139813 0.030592078 -0.027479572 0.04683504 0.07151311 0.03859607 -0.041555744 0.07992513
-0.01154747 0.044621702 0.08061956 0.069078036 0.021903098 -0.021992771 -0.026018439 -0.06395784
-0.06037687 -0.080788605 0.04053595 0.046630956 0.015313712 -0.061251346 0.008540274 -0.069208466
0.07528919 -0.034181353 -0.012412582 0.032031402 -0.039680224 -0.032606833 0.0619627 -0.016114732
0.032422226 0.056212924 0.044264223 -0.035753943 -0.03430066 0.076045774 0.083386175 -0.0657011

actor.6.bias f4 [8]
00000000: 0d8d ac3d b1df 53bd 2b20 3b3c f18a 1a3d
00000010: 6a4d 7b3d 1d88 2a3d 7672 61bd c17c 43bd
0.08425341 -0.051727 0.011421244 0.03773016 0.061353125 0.041633714 -0.0550408 -0.047726396

critic.0.weight f4 [128, 31]
00000000: 4741 113e ed48 203e a616 16be f1e3 4bbc
00000010: 926d c4bc 0aa8 c33c 8ad6 fa3d 9710 9e3d
00000020: a2d5 213d 6188 5c3d de0b 0f3e f687 383e
00000030: d620 05be 9347 d03d 9037 ef3d b8c9 103c
00000040: d648 c93d 0faa 06be 3249 093d a853 29be
00000050: 279b c83d 8cc3 c93d c5a8 f23d 9ac4 c23d
00000060: aa33 253e cce4 813d bf2b a83d 86c8 973d
00000070: 7b00 1ebd 40c0 d9bd 9ac9 b4bd 1087 b73d
00000080: 4a15 173e b385 073e 28fd 42bc bad2 af3d
00000090: 4c97 8b3d b195 b13d 22fa bb3b 120e 863d
000000a0: 6dd6 2fbc 48d3 3abe 0557 1b3d fbff 233e
000000b0: fd19 fcbd 104f 42bd 2530 09be 9d47 5e3d
000000c0: 0e95 35be 38e5 22be 06eb 02be 4629 c1bd
000000d0: 44cc db3d 9096 6b3d 8e56 e73d dfc7 08bd
000000e0: 03ed f93d 58d7 313e 8b32 e0bd 30a7 4d3d
000000f0: 9ae2 9dbd 842b a83d 1fbc 26bd 7d39 ecbb
00000100: 088a ab3c d116 253e 1028 0d3e d578 a03d
00000110: bcad 2e3e 1a92 10be 257b 693d 8569 35be
00000120: 06e3 b5bd 84e3 1bbe 6c62 123e c9de f73d
00000130: 31ff 643d 559f 5dbc db43 8a3c 3624 c93d
00000140: ce1d b33d cc94 de3d 77a9 d5bd e88f 1d3e
00000150: 6161 2d3e 85df 7b3d 0396 2b3e 9648 613d
00000160: 33ad 1fbd 6a44 833d d2c9 b73d 6114 34be
00000170: 125f 14bd ed18 d23d 6e19 0e3d d70b 523d
00000180: 1e29 c23d af2e fabd f861 dabd 071a ee3d
00000190: f3ce e3bc 2834 db3d 41ac f3bb 8211 debd
000001a0: 6da4 5bbd 8e47 21be 9230 4d3d e0b0 023e
000001b0: 281b f13c 296b 9c3d 992e d53d b60a 09be
000001c0: a52c 073e 31bb df3d f80d 67bd 75f0 233e
000001d0: 84ef 323e 9b0c 29bd 56f1 d6bd edd8 ffbd
000001e0: 3e36 0e3b fb02 803d be6d 0abc 25ac 54bd
000001f0: 2a2c 113d 28b1 b43d ab56 223e e4eb 123c
00000200: 6937 d03d d48c 013e c0e6 fb3d 0bdf 65bd
00000210: 2dd6 cf3d d36c 87bd 7cf4 123e 42e8 463d
00000220: a1e2 3ebc f720 cdbd 256c 073e 8d12 153e
00000230: 0c29 7f3d 7cc9 10be 69ff 02bd 5c74 ba3d
00000240: e3d3 0e3e 001d f3bd d68d c8bd 1316 f53d
00000250: 7c8d 2fbd 5c6e 00bc 2303 333e fe60 d33d
00000260: 5dd6 8cbd 3752 6cbb 70f0 553c 711f c1bd
00000270: 0d3b cebd 7f7f dabd 8bf9 b1bd 4a06 1bbe
00000280: 7bae 7dbd 554e ee3d 4a39 79bd a4a9 7a3b
00000290: 98a1 233e a5aa 0f3e 719d 233e d180 b23d
000002a0: 2c01 8d3d a13b 35bd efd1 b93d ea3e 16bd
000002b0: 5fdb f13d 74b3 98bc 7a08 923d ef73 253d
000002c0: 7463 9dbd d6ec 733c aa4d 9ebd 9cda acbd
000002d0: d4a8 92bd eb50 32be a3fd 373e 5c16 96bd
000002e0: 6062 06be 37ab b23d 345a 103c 2575 a73b
000002f0: f5c7 10be a1b7 27bd 4592 a4bd ce37 51bd
00000300: f77f bb3c bfe0 e23d 38b4 c13d cc2b ce3d
00000310: 8aca 1b3e 132c 223e 1b19 e2bd db53 0cbe
00000320: 673c 0a3e 6a91 bf3d 4d49 9fbd 608c 16bc
00000330: 2031 303e 674e ecbd 4192 71bd 1df7 a73c
00000340: 1432 1fbe c44a 873d 58b3 1fbe 98a4 f8bd
00000350: ff30 0ebe f1cd 39bc 7224 ccbd aa85 07be
00000360: c8ab ab3d c394 afbd ee5f 28be 27ea adbd
00000370: 801f 663d 1084 11be 0b28 753d 72e4 b63d
00000380: 480d 333e 47c0 eebd 2269 4dbc 750c 2b3e
00000390: 68b3 0f3e 0676 793d 239f 17be 5316 29bd
000003a0: 3848 a13d a02e 003e b03a c83d 405f 9fbd
000003b0: 42a8 433d f8aa 2cbe a14d abbc 91a8 08bd
000003c0: 00a0 2fbd 4ac1 ef3d 98ab cfbc 8f3f 31be
000003d0: bd9f d43d 486f 213e 4663 023e d94b bdbd
000003e0: cb80 13be c597 013d 77f5 0abe 1f37 95bd
000003f0: 3979 443a b92a 023e 3200 2a3e 3a1a 303e
0.14185058 0.15652819 -0.14657077 -0.012444482 -0.023978028 0.023883838 0.12247951 0.07718008
0.039510377 0.053841 0.1396937 0.18020615 -0.13000807 0.10169902 0.116805196 0.008837156
0.098283455 -0.1315081 0.03351707 -0.16535819 0.09795218 0.09851751 0.118485965 0.09510155
0.1613299 0.06342468 0.08211469 0.07411294 -0.038574677 -0.10632372 -0.08827515 0.08961308
0.14754215 0.13234596 -0.0119011775 0.08585115 0.06815967 0.086711295 0.0057366053 0.065456524
-0.010732275 -0.1824466 0.037924785 0.16015618 -0.12309644 -0.04743868 -0.13397272 0.054267514
-0.17732641 -0.15907753 -0.12784967 -0.094317004 0.1073232 0.057516634 0.11295806 -0.033393737
0.122034095 0.17367303 -0.1094714 0.05020827 -0.077092364 0.08211425 -0.04070675 -0.0072090016
0.020939842 0.16121985 0.13784814 0.07835547 0.17058462 -0.14118233 0.057002205 -0.17716034
-0.08881192 -0.15223509 0.14295357 0.1210304 0.055907432 -0.013526757 0.01687806 0.0982136
0.08745919 0.108682245 -0.104327135 0.15386927 0.16931678 0.06149246 0.16756444 0.055000864
-0.038983535 0.06409533 0.08974041 -0.17585899 -0.03622348 0.102586605 0.03469222 0.051280823
0.09480499 -0.122159354 -0.10663217 0.11626058 -0.027808642 0.107033074 -0.0074363058 -0.10843183
-0.053623606 -0.15749952 0.05009515 0.12762785 0.029431894 0.07637627 0.104092784 -0.13382992
0.13200624 0.10924376 -0.056409806 0.16009696 0.1747418 -0.041271787 -0.1049525 -0.12492547
0.0021699811 0.062505685 -0.008449016 -0.051921982 0.03544251 0.088228524 0.15853374 0.0089673735
0.10166819 0.12651378 0.122998714 -0.056120913 0.10148273 -0.066125534 0.14351076 0.048561342
-0.011650712 -0.10016053 0.13224848 0.14557858 0.062295005 -0.1413936 -0.03198186 0.09104225
0.13948016 -0.11870766 -0.09792678 0.11967101 -0.04285954 -0.007838812 0.17481665 0.10321234
-0.06876824 -0.0036059746 0.013057813 -0.09429825 -0.10069857 -0.10668849 -0.08690175 -0.15139118
-0.061933976 0.116360344 -0.06084565 0.0038248086 0.15979612 0.1402994 0.15978028 0.08715976
0.06884989 -0.04424632 0.09073245 -0.036681093 0.1180942 -0.018640257 0.07130523 0.040393766
-0.07684985 0.014888009 -0.07729657 -0.08440134 -0.07161108 -0.1741368 0.17967848 -0.073284835
-0.13123465 0.08724063 0.008810569 0.0051104003 -0.14138778 -0.040946607 -0.08035711 -0.05107861
0.022888167 0.11078023 0.09458202 0.10066947 0.15213981 0.15837125 -0.11039945 -0.13703863
0.13499604 0.093539074 -0.07777653 -0.009188741 0.1720624 -0.115383916 -0.05897737 0.020503575
-0.15546447 0.06606057 -0.15595758 -0.12140769 -0.13885878 -0.011340604 -0.09967889 -0.13234583
0.08382374 -0.08573296 -0.16442844 -0.08491927 0.056182384 -0.14210534 0.05985264 0.08930291
0.17485535 -0.11657768 -0.012537273 0.1670397 0.14033282 0.06090357 -0.148068 -0.041281056
0.07875103 0.12517786 0.09776819 -0.07781839 0.047767885 -0.16862094 -0.02091104 -0.033363882
-0.042877197 0.11706789 -0.025350377 -0.17309402 0.1038203 0.15765107 0.12733182 -0.092429824
-0.144046 0.03163888 -0.135702 -0.07285904 0.000749487 0.1271161 0.16601637 0.17197505

critic.0.bias f4 [128]
00000000: 2af5 f8bd 7631 30bd ca39 333e 5919 e83d
00000010: 988a e7ba 1bac dfbd ca71 f33d 2f32 fc3c
00000020: e751 933d 83bc bdbd 631d 343d 1976 3bbe
00000030: 13ca b3bd bb79 85bd ee3e 9b3d 036c 95bd
00000040: 3f54 2fbe ed17 21be ab39 e83d 1362 373d
00000050: 50f0 1f3e c714 babc 8eca ebbd a36c f7bd
00000060: f6eb 713c 4710 80bd 3125 fd3c 7172 efbd
00000070: 8b8d 2dbe 8fc2 033c d8a6 273e caa0 29bd
00000080: a072 0c3c 6f5c 013e 74d8 1e3e c9f4 24be
00000090: abfa 31be e436 ce3c 7bee bcbd 94fb eabd
000000a0: 9372 45bd 0c6b 9d3d 9170 24bd f2cf c4bd
000000b0: 70f6 103e 2ba4 863d c5b4 913d ce77 96bd
000000c0: 64f2 30be e6c9 9c3d 6fa3 fcbc bd75 30be
000000d0: dfe9 0bbe c0db d3bd 75e4 07be e42b d3bd
000000e0: c010 413d 5203 b3bd 2634 3fbd 0b07 a2bc
000000f0: 1009 ee3c 721e 12bd 1409 72bd a75c f5bc
00000100: 8a24 20bd 3700 fdbd 3726 453d 021f 64bc
00000110: eca5 07be 1318 083e ac38 a9bd 5fdf 053e
00000120: 1453 943c 6f45 ce3d a6fb a43d 151b b0bd
00000130: 741e 1e3e 4f2c d0bc 52f9 5a3d 1a2d 8f3d
00000140: f9ba 4a3d ff6d 43bd a7d4 633c a81b af3d
00000150: 03f2 08be 3227 253c 1767 4a3d b544 1f3d
00000160: 04a3 de3d 1f03 173e f0d6 b4bd 9628 af3d
00000170: d204 bcbd f85f dcbb 3812 edbd 5ec5 133e
00000180: 29ed 2fbd 4f6f e8bd 01fc 113e 5832 0b3e
00000190: 288c 213e 3ac2 3ebd 6a80 223d d934 65bc
000001a0: ca75 d93c 9438 10be ed85 173e 8ce8 afbd
000001b0: 6ea8 bd3d cb55 25be c2b6 09be 50ae cc3d
000001c0: 4476 a93b 2a65 e73d e5ec 0f3d d188 dc3d
000001d0: 8ab7 ec3b 608e 273e 8577 ebbd 2587 993d
000001e0: 5fb1 be3d eecd 7a3d 58fd f73d ed37 93bd
000001f0: 6f48 003e afde 28be 6712 c33d 40d5 ce3c
-0.12156136 -0.04301592 0.17502514 0.1133296 -0.0017665206 -0.109214984 0.11886938 0.030785648
0.07193356 -0.092644714 0.043973338 -0.1830677 -0.08778777 -0.06517359 0.07580362 -0.07295992
-0.17121981 -0.15731783 0.11339124 0.044771265 0.15619016 -0.022714986 -0.115132436 -0.12081268
0.01476573 -0.06253105 0.030901523 -0.1169175 -0.16948526 0.008041992 0.1637224 -0.041413106
0.008572251 0.12632917 0.15512258 -0.16109003 -0.17380778 0.025172658 -0.09225174 -0.11473766
-0.04820497 0.07686433 -0.040146414 -0.09609975 0.14156508 0.06574281 0.07114557 -0.0734707
-0.17279965 0.076556966 -0.03083965 -0.17232414 -0.13663433 -0.10344648 -0.13270743 -0.10311106
0.047135115 -0.08740868 -0.046680592 -0.019778749 0.029057056 -0.035673566 -0.05909069 -0.029951407
-0.039097346 -0.123535566 0.048132148 -0.013923408 -0.13246888 0.13290434 -0.082627624 0.1307349
0.018106021 0.10071837 0.08055811 -0.085989155 0.15441304 -0.025411753 0.053460427 0.06991024
0.049494717 -0.047712322 0.013905681 0.08550197 -0.1337357 0.010080146 0.04941472 0.038883884
0.108709365 0.14747284 -0.088300586 0.08552663 -0.09180607 -0.0067253076 -0.115757406 0.14430758
-0.042950783 -0.113493554 0.14256288 0.13593423 0.15776122 -0.046571948 0.039673246 -0.013989651
0.026545424 -0.14084083 0.14797182 -0.08589277 0.09260641 -0.16146009 -0.13448623 0.09994185
0.005171569 0.112985924 0.03513803 0.10768283 0.007224028 0.16362906 -0.11497406 0.0749648
0.093111746 0.061231546 0.12108868 -0.07188401 0.12527631 -0.16491197 0.09524994 0.02524817
