ISAAC_NOGIT/logs/rsl_rl/traquad_flat/2025-09-16_12-23-00/exported/policy.onnx (onnx, 153859 bytes, 8 tensors)

actor.0.weight f4 [128, 31]
000000 cf 52 90 bc 92 cf d3 3d 62 4c 80 3d 6d 75 28 3e
       -0.017617611 0.10342325 0.06264569 0.16451044
000010 b6 b2 ec 3d 89 61 04 bd 40 69 f1 bc 89 9e 84 3b
       0.11557524 -0.03231958 -0.029469132 0.004047219
000020 a3 90 5c bd 71 24 07 3e e0 f4 e3 3d 09 2f 11 be
       -0.053848874 0.13197495 0.111306906 -0.14178099
000030 39 72 9d bc 9a 8e 95 3d 82 3f 22 bd bc d0 83 3d
       -0.019219505 0.0730259 -0.039611347 0.06436297
000040 13 7e 1e 3d 83 96 d8 3d c0 3d fc 3d d2 14 f9 3d
       0.038694452 0.10575583 0.123164654 0.12162174
000050 4a 45 08 3d 7a 4e 20 be b8 68 2f be 6d 13 23 bd
       0.033269204 -0.15654936 -0.17129791 -0.039813448
000060 c4 37 0c 3e d5 9c 2d bd c8 b4 1a 3e 9d 6e 5e 3d
       0.13693148 -0.042385895 0.15108025 0.054304708
000070 27 43 09 3e c6 a5 03 be 32 78 25 be a2 b8 d9 bd
       0.13404523 -0.12856206 -0.16159132 -0.10630919
000080 e1 41 38 bd 40 c1 3a bd 2c 80 7a bd 68 21 bb bd
       -0.044984702 -0.045594454 -0.06115739 -0.09137231
000090 6b da 89 3d a2 5b ec bc fb 3e 87 bd 2e 07 f6 3d
       0.06731113 -0.028852288 -0.066038094 0.12013088
0000a0 d3 79 52 3d d9 bd ac 3d 8e 19 58 3a ae 45 79 bd
       0.051385712 0.08434648 0.0008243554 -0.060857467
0000b0 fe df 09 3e e6 1c 75 3d cf 14 36 bd 18 69 85 3c
       0.13464352 0.059842013 -0.04445344 0.016285464
0000c0 b6 70 d1 bc 99 cf 35 bd dd c5 7a bd b1 28 44 3d
       -0.02556644 -0.044387434 -0.061223853 0.04789037
0000d0 76 32 8d bc dc a5 32 3e 8f 5d ac 3d a7 ff 61 b9
       -0.017235976 0.17446083 0.084162824 -0.0002155291
0000e0 8b 82 e9 3d 5e 9f aa bc 2f 89 15 be 2d b8 26 be
       0.11401852 -0.020827945 -0.14603113 -0.16281195
0000f0 d4 77 c0 3d 5b 2e dc bd 0d 25 37 3e fa 3f 0d 3e
       0.093978554 -0.10751029 0.17885228 0.13793936
000100 97 81 75 bc c5 e7 23 bc 2d a7 b7 bc 00 83 32 be
       -0.01498451 -0.010003989 -0.022418583 -0.17432785
000110 fa 2c 25 3e 50 4f 2d bd f9 01 6c be 5a 50 a2 3d
       0.16130438 -0.042311966 -0.23047628 0.07925482
000120 e7 91 1c be b9 b6 eb 3d 8d 7a 3f 3c a6 23 43 be
       -0.15290032 0.11509461 0.011686933 -0.19056568
000130 94 75 76 38 a9 b9 f8 39 b2 9b 75 b9 7e 07 f1 3d
       5.8760474e-05 0.00047440574 -0.00023423022 0.11769007
000140 98 6a 4d bd 58 03 16 3d 43 e5 07 3e 25 d9 1b 3e
       -0.050150484 0.036624283 0.1327105 0.15219553
000150 f2 31 12 be c8 83 81 bd ad f6 9b bd 0a 3f 30 be
       -0.14276865 -0.063239634 -0.07615409 -0.17211547
000160 00 b4 8f bd b9 38 fc 3d 08 a0 75 bc 3a ea de bd
       -0.07016754 0.123155065 -0.014991768 -0.10884519
000170 12 5d 20 3e b0 ea 22 bd 37 e6 ee bc 2b d0 26 3e
       0.15660504 -0.039774597 -0.02916251 0.16290347
000180 66 3a a7 3d 48 3c 26 be 3d cb d9 bc 77 bc 0b bd
       0.081654355 -0.16233933 -0.02658617 -0.03411528
000190 d2 31 f7 3d 9a 99 bc 3d 53 34 d5 3b 6e 04 4b 3c
       0.12070049 0.09208985 0.0065064817 0.012391193
0001a0 fa 95 04 be 06 94 bb 3c d8 d9 08 3e c5 4a 85 3d
       -0.12947837 0.022897732 0.13364351 0.06508402
0001b0 09 03 38 3e 84 2b 07 3e bf ff 72 3d c8 18 be 3d
       0.17969908 0.13200194 0.05932593 0.092820704
0001c0 07 cb b9 3d b1 f5 0b 3e 9a fd 10 be 15 32 dc 3d
       0.090719275 0.13667943 -0.14159241 0.1075174
0001d0 57 a7 00 3e e8 7d 93 bd 10 85 0e 3d 32 2a 23 3d
       0.12563835 -0.07201749 0.034794867 0.039835162
0001e0 f2 9d f8 3d 84 55 c7 bc af 75 35 3e 9b 50 fa bd
       0.12139501 -0.02433277 0.17720674 -0.122224055
0001f0 5d 49 04 3d 65 5e 64 bd 98 53 2a be 29 82 f9 bd
       0.032296527 -0.055754084 -0.16633451 -0.12183029
000200 fb 5b 08 3e 63 1f 1f be 4d 79 c7 bd fc 99 36 3e
       0.13316338 -0.15539317 -0.09739933 0.17832178
000210 31 72 f2 bd cd d1 94 3d d9 cc 15 be 02 ec c0 3d
       -0.118381865 0.07266579 -0.14628924 0.09420015
000220 f1 78 fd 3d 4f 06 c5 bd 2f 27 d5 3b 7e b7 e8 3d
       0.12376583 -0.09620344 0.006504915 0.11363123
000230 17 6e 07 3e 55 ab 08 be 14 6b 16 bd 26 e5 84 3d
       0.1322559 -0.13346608 -0.03672321 0.06489019
000240 1a f8 e1 3d 39 a0 b2 bc 3f 41 2e bd 12 b0 85 bd
       0.1103365 -0.021804916 -0.042542692 -0.06527723
000250 49 b8 a7 bc 8f d6 05 3e a5 1a e8 bb 7f 52 32 3e
       -0.020473616 0.13070129 -0.0070832544 0.17414282
000260 ca c3 15 3e 8c 40 09 be 3a 99 10 3e 00 94 6f bc
       0.14625469 -0.13403529 0.14120951 -0.014622688
000270 a3 be a9 bc e5 d3 07 bc 01 7d 53 bd 8a 16 1a 3d
       -0.020720785 -0.008290266 -0.051632885 0.03761915
000280 82 67 d1 3d 4a ee 8c 3d 81 31 25 be 97 69 a8 bd
       0.10224821 0.068813875 -0.16132165 -0.08223265
000290 b0 f8 ad bd bc ad 13 bd 39 7e c1 3d 71 a6 f7 3d
       -0.08494699 -0.036054358 0.09447903 0.12092293
0002a0 db 1a 5e 3d bd 06 be 3d a1 3c 89 bd 0b 3a 95 bd
       0.05422483 0.09278629 -0.06701017 -0.072864614
0002b0 c8 86 df 3d e1 72 82 3d 64 24 11 3e 32 d7 12 3e
       0.10914379 0.06369568 0.14174038 0.14339903
0002c0 fa 35 22 be 40 37 85 3c d4 14 10 bd e9 0f 2d be
       -0.15840903 0.016261697 -0.035176113 -0.169006
0002d0 4e cb ca bb f5 e1 ec 3c c7 a5 32 be 5e b3 68 3c
       -0.0061887866 0.028916338 -0.17446052 0.014202921
0002e0 ea 5f dd 3d 29 a8 c4 bd 12 8b 8a bd a7 65 96 bd
       0.1080931 -0.096023865 -0.06764807 -0.073436074
0002f0 15 21 f2 bc 1b c0 f9 3d a5 63 16 3e 41 0e 29 be
       -0.02955679 0.12194844 0.14686449 -0.16509344
000300 1a b9 c0 3d 05 39 c3 bb b7 d2 27 3e 2a ba 2e 3c
       0.09410305 -0.005957725 0.16388975 0.010664502
000310 aa 7e 0b 3e 35 a6 ac bd c8 da 0a be 12 18 05 3e
       0.13622537 -0.08430139 -0.13560021 0.12997463
000320 d4 d0 d7 bd 24 92 2a 3d e9 16 9f bb 10 f4 a5 bd
       -0.10537878 0.041643277 -0.004855026 -0.08103192
000330 63 d7 41 3d 7f 59 c5 3c fb 27 2e bc e4 8a 4f bd
       0.04732455 0.024090527 -0.010629649 -0.050669566
000340 f7 ee 06 3d 0f d8 ff bd d0 b5 cd bb 34 e2 87 bd
       0.03294274 -0.12492382 -0.0062777773 -0.06634942
000350 7c d6 ac 3c cb d0 ff bd 20 89 45 3c 02 77 a5 3d
       0.021098368 -0.12490996 0.012056619 0.080793396
000360 90 b8 1d be 39 2a 35 3e 66 2d fa bd 04 1d dc 3c
       -0.15402436 0.17691888 -0.1221569 0.026869304
000370 ec 64 77 3c a9 21 e8 bd 06 18 d0 bd c1 c0 b7 3d
       0.015099745 -0.11334545 -0.10160832 0.08972312
000380 e5 1c bc 3d a6 50 7c bd ef 62 d0 bd 4a 6d 72 3d
       0.09185199 -0.06160035 -0.1017512 0.059186257
000390 de 0a dd bc 56 5a 33 3d bc 9a 0b be e9 b7 70 3c
       -0.026982721 0.043787323 -0.13633245 0.014692285
0003a0 da a5 53 3d b4 d9 9b bc c7 d5 28 3e e3 c3 0d 3e
       0.05167184 -0.019024707 0.164878 0.13844256
0003b0 f7 0b a0 bc c4 c8 bd bc 2d 93 d3 bd eb 0f 1c be
       -0.019536955 -0.023167022 -0.10330806 -0.15240447
0003c0 43 70 71 bd 5e d5 0a be f7 7c cf 3d 9e bf ff 3d
       -0.05894495 -0.13557956 0.10131257 0.1248772
0003d0 c2 af 2c 3e bf dd 21 3c 85 45 13 be d9 47 2c 3e
       0.16863921 0.009879529 -0.14381988 0.16824283
0003e0 31 fc f2 bd 48 c0 ec bb 39 5e 0f 3e dc f2 8f bd
       -0.11864508 -0.00722507 0.14000787 -0.070287436
0003f0 97 98 52 3d a9 8b 6c bd df 95 8b bd ce 06 7e 3d
       0.051415052 -0.057750378 -0.06815695 0.06201821

actor.0.bias f4 [128]
000000 16 02 88 3d d1 92 9f bd f6 a3 dd 3d 3c 31 92 bd
       0.06641023 -0.07791675 0.10822289 -0.07138297
000010 d1 d5 92 3d ea fd f1 bc 2f ff b0 bd bd eb fb bc
       0.071696885 -0.029540021 -0.086424224 -0.030752057
000020 b4 c3 f2 bd 93 22 14 3e e1 0c 38 be e0 a3 17 3c
       -0.11853734 0.14466314 -0.17973663 0.009255379
000030 02 f4 30 be 96 42 0b 3e 62 77 d3 bd 0b 3b 1d 3e
       -0.17280582 0.1359962 -0.10325505 0.15354554
000040 e4 7f 8d 3d 4e 43 a3 bd b3 c5 0d bd 8c cb 2a 3d
       0.06909159 -0.07971822 -0.03461237 0.041698024
000050 09 8b 66 3e 27 8e de 3c 4b 25 f0 3c a8 eb 97 3d
       0.22513975 0.027167393 0.029314658 0.07417995
000060 3d 33 32 3e 5e bf f3 bc 45 17 12 3d c5 74 04 3d
       0.17402358 -0.029754337 0.035666723 0.032337923
000070 ee 36 a9 bd 4e 81 85 3d 2c a0 ba 3b a6 36 f4 bd
       -0.0826243 0.065188035 0.0056953635 -0.11924486
000080 d5 c4 0f be 4c 2a ee 3d 78 eb 8a 3b 39 39 e1 3d
       -0.14039929 0.11629161 0.004239496 0.109972425
000090 08 e1 0b 3e e8 3f f1 bd ca 95 f3 3d 8a dd 2e 3e
       0.13660061 -0.11779767 0.11893804 0.17076698
0000a0 39 57 17 3e db a2 12 be ce d3 be bd d5 31 3f bd
       0.14779367 -0.14319937 -0.09317742 -0.046678383
0000b0 ad 44 12 3d 92 56 17 3e df 72 81 3d 10 cb c7 3c
       0.035710026 0.14779118 0.06320738 0.02438882
0000c0 69 89 3d 3d 52 d1 ca bd 5e e6 5b 3d 66 39 97 bd
       0.046273623 -0.09903206 0.053686492 -0.07383995
0000d0 63 53 72 bc 5b 34 bd 3d f3 70 2e bd ca f8 af 3d
       -0.014790389 0.09238502 -0.042588186 0.085923746
0000e0 fa 2c b7 3d f2 57 eb 3d 1f 53 c9 bd 7c 8d fe bb
       0.089441255 0.114913836 -0.09830307 -0.007768331
0000f0 7d 17 7a 3c 20 11 c2 bd bf 11 83 bd 5e fa bb 3d
       0.015264389 -0.094759226 -0.06399869 0.09178613
000100 5e 41 04 be c1 23 e8 bd 2c 3c 00 bd ba 13 8b bd
       -0.1291556 -0.113349445 -0.031307384 -0.06790872
000110 53 09 fd 3d 2d 5b 3a 3d 03 7e 37 be af 75 89 3d
       0.12355294 0.04549711 -0.17919163 0.067118995
000120 10 64 3a 3e 90 e2 dd bc 52 8a 1c be ad a4 5b bd
       0.18202233 -0.027085572 -0.1528714 -0.053623844
000130 52 e4 92 3d c8 eb f3 bd 8b 01 eb bd 34 98 20 3e
       0.07172455 -0.11910206 -0.11474904 0.15683061
000140 81 fe 2d bd c4 c3 13 be 57 48 03 be af fd ff 3d
       -0.042479042 -0.14430147 -0.12820564 0.12499558
000150 29 47 a0 bc 49 0e 2f be db 26 e3 3d fc 4a 40 bd
       -0.019565182 -0.17095293 0.110913955 -0.04694651
000160 43 38 80 3d 13 30 ea bd 47 e3 7d 3c b7 e0 8a bd
       0.06260731 -0.11434951 0.015496082 -0.06781142
000170 7b bd 54 3e 25 7f 1a be 3a c6 0a 3c 36 9c 4c 3d
       0.20775406 -0.15087564 0.008470112 0.04995366
000180 d5 86 0e 3d 62 b0 26 3e 1e 0c 59 3e 7f 15 12 3b
       0.034796555 0.16278222 0.21196029 0.0022290645
000190 e6 fb 1b 3e 70 ca ad 3d 32 2e 47 3e ed f0 1b be
       0.1523281 0.084858775 0.19451216 -0.15228625
0001a0 25 45 bc 3d 90 21 09 3d 80 7e 61 be 7b b1 25 3e
       0.09192876 0.033479273 -0.22020912 0.16180985
0001b0 39 e4 47 be e3 27 0b 3e 0d 09 12 be 30 2b ac 3d
       -0.19520654 0.13589434 -0.14261265 0.08406675
0001c0 4a 06 22 3d e8 b6 99 3d 2f 4f 66 bc b5 76 30 3e
       0.03955678 0.0750559 -0.014056965 0.17232783
0001d0 ba 4c be bd 81 62 27 3e f6 1e bc bd ec 55 1d bc
       -0.09291978 0.1634617 -0.09185593 -0.009603005
0001e0 66 51 2b 3e 83 32 0a 3d f0 9e a2 bd 8b 3b 38 bc
       0.1673027 0.033739578 -0.07940471 -0.011244665
0001f0 48 cd f1 3b 14 6a ba 3d 2d f4 8c 3d da bc 0c 3d
       0.0073792078 0.09102264 0.0688251 0.03435979

actor.2.weight f4 [128, 128]
000000 22 9c 84 bd 27 9b b5 bd d0 81 e2 3c 96 3e b2 bc
       -0.064750925 -0.088674836 0.02764979 -0.021758359
000010 33 bf 45 3d f2 9f b0 bd 52 0a 54 bd eb cc 52 3d
       0.048278045 -0.08624257 -0.051767655 0.051464956
000020 87 85 cc 3c c3 73 8d 3d c0 57 2e bd 4d a0 8d 3c
       0.024966015 0.069068454 -0.042564154 0.017288351
000030 95 7f 13 3d 78 2b 10 3d da 23 9f 3d 34 9f 3a bd
       0.036010344 0.035197705 0.0777051 -0.045561984
000040 7e 02 b0 3d ee 20 a3 bd 57 4e fb 3c 24 d2 82 3d
       0.08594225 -0.07965265 0.030677004 0.063877374
000050 be 61 23 3d 95 52 1c bc b3 12 3a 3d e2 55 b8 3c
       0.039888136 -0.009541173 0.04542799 0.02250189
000060 fe ae 15 3d f0 89 db bb 75 bd 06 3d 82 15 5b b6
       0.03654384 -0.006699793 0.032895524 -3.2646062e-06
000070 2f 45 17 bd 7a 1e 6b 3d 56 b2 0b 3c 33 27 bd 3c
       -0.036931213 0.05740211 0.008526405 0.02308998
000080 ae 12 3e bd 5c 7c 28 3c e4 34 b3 3d a6 1c 33 bd
       -0.046404533 0.010283556 0.087503225 -0.043728493
000090 f6 a0 27 3d 38 c7 87 bd b2 e7 6c bd 6b ae 46 bd
       0.04092499 -0.06629795 -0.05783815 -0.04850618
0000a0 4c fb 9d 3d f7 d6 03 bc 69 45 63 3d d0 7f 84 3d
       0.07713947 -0.008046857 0.055486117 0.06469691
0000b0 06 1d 8e 3d 03 59 a4 3d e5 7d 8a bb 7f e3 a5 3d
       0.069391295 0.0802479 -0.0042264336 0.08100032
0000c0 36 f9 df 3b e4 56 4d 3c 3b 20 86 bd 12 22 00 bc
       0.006835128 0.012532923 -0.06549116 -0.007820623
0000d0 ab 6b 9a 3d 9d 60 e9 bc a9 bb 56 3c f8 b6 3f 3d
       0.07540067 -0.028488452 0.013106265 0.046805352
0000e0 cf 00 98 3d f3 5a 8c bc ac c4 2d 3d b3 4c c5 bc
       0.07422029 -0.017133212 0.04242389 -0.024084425
0000f0 03 ec 3d bd 9e 5b ad 3d f3 32 c9 3c ab 6f 5b bc
       -0.046367656 0.0846474 0.024560427 -0.013393323
000100 1c ee 89 bd 16 8e 92 3d 60 63 98 bb 91 f4 04 bd
       -0.06734869 0.07156007 -0.0046505183 -0.0324598
000110 82 14 b3 3a a7 ea 65 bd 0f ef 52 bd 7d 8a 70 bd
       0.0013662728 -0.056131985 -0.051497515 -0.058725823
000120 d6 71 09 bd e4 e7 80 3c f1 60 d6 3a 86 ac 83 bc
       -0.033555828 0.015735574 0.0016355795 -0.016073477
000130 20 06 61 bd 5b e2 e2 bb f7 12 a6 bd 09 b6 80 3d
       -0.054937482 -0.0069239563 -0.08109086 0.062847205
000140 1a 6b 30 bd fc af 25 3d c5 eb 7c bb 3f 86 a2 3d
       -0.04307089 0.040451035 -0.0038592678 0.07935762
000150 b5 35 ab 3d 07 d1 8f 3d ce 85 ef bb 0a 5c 34 bb
       0.08359853 0.07022291 -0.007309652 -0.002752068
000160 dc aa 8a 3c 52 16 a6 bc 5e 9e 6e bd a0 d9 64 3d
       0.016927175 -0.020274315 -0.0582565 0.055871606
000170 91 78 b6 3c 66 b4 8a 3d 84 5e f6 3c 7b eb 4e 3d
       0.022274287 0.067726895 0.030074365 0.05051754
000180 ce 96 e7 bb a9 16 ba bc ab 74 84 bd b1 fe 2f 3a
       -0.007067538 -0.022715883 -0.06467565 0.0006713672
000190 7a b7 02 bd 2a a3 5e bc bf b8 83 3d c3 b2 84 3c
       -0.031913258 -0.013588706 0.06431722 0.016198521
0001a0 03 72 9f bd c5 c2 93 3d 48 a6 42 bc c8 cc 23 3d
       -0.07785418 0.07214884 -0.011880465 0.039990216
0001b0 3f 9c a6 bc b0 c1 63 bd 08 58 8f 3d 18 e6 ae bd
       -0.020338176 -0.055604637 0.069992125 -0.08539981
0001c0 fc 4d a7 3d 6c a5 64 3d 23 2f 12 bd 24 8d 12 3d
       0.08169171 0.05582182 -0.035689484 0.035779133
0001d0 81 b8 90 3c d4 69 91 bd 2a 6f 8f bc 66 3f 3e 3d
       0.017666103 -0.07100263 -0.017509062 0.04644718
0001e0 d7 e2 58 3d 20 7c 2b bd 78 37 bf bc 9c df 8d 3d
       0.052950706 -0.04186642 -0.02334188 0.06927416
0001f0 5b dd a7 bd fd 4b 3b bd a8 82 b9 bd 9d de ae bd
       -0.08196517 -0.045726765 -0.09058124 -0.08538554
000200 ae 3f a8 bd a9 75 de bc 2d 86 a5 3d de 19 ad 3d
       -0.08215271 -0.027155714 0.080822326 0.084521994
000210 a6 72 b9 3d a5 ce d1 3c 60 ef 62 3b 60 ac bc 3c
       0.090550706 0.025611231 0.0034627542 0.023031414
000220 7b 74 a2 3d b4 25 74 3d 37 80 2a 3d 21 ad 64 bd
       0.07932373 0.05960627 0.04162618 -0.05582917
000230 d6 9a 74 bd 41 d6 44 3c 9a ec 91 bd 1d 1a 04 3d
       -0.059717976 0.012013973 -0.07125206 0.032251466
000240 e4 96 a3 bd 50 b3 3b bb 04 c8 b2 bd f4 d2 86 3d
       -0.079877645 -0.0028640814 -0.08729556 0.06583205
000250 e6 92 a8 3d 2d 8a 0a bc 4f 0b db 3c b9 02 91 3c
       0.08231144 -0.008455795 0.02673879 0.017701494
000260 83 07 5c bb a4 64 95 bd 5e 6e 61 3d 6f 1a d8 bb
       -0.0033573813 -0.07294586 0.055036895 -0.006594948
000270 2e 62 7e 3d 87 22 96 bd 55 16 91 bd 4f 67 8f bc
       0.06210535 -0.07330804 -0.070843376 -0.017505316
000280 9e ee de 3c f4 31 55 bd 15 a2 a9 3d 74 35 05 3a
       0.02721339 -0.052049592 0.08282868 0.00050815125
000290 bd 60 71 bb 59 f7 ad bd f9 9e 24 3d 2d 6e 92 3d
       -0.0036831342 -0.084944434 0.04019067 0.071499206
0002a0 be e9 51 3c e2 ba 87 bd 9f 1d 0a 3c c9 48 ad 3d
       0.012812076 -0.06627442 0.008429914 0.08461148
0002b0 1a ba 23 3d d7 97 5c bd 67 77 a2 3d ee a1 83 bd
       0.039972402 -0.053855743 0.079329304 -0.0642737
0002c0 a7 6d 20 bc d7 8e 9a 3d e9 21 2b 3d 97 13 b4 bd
       -0.009791768 0.07546776 0.041780386 -0.08792799
0002d0 0b cf c3 bc c2 17 8a bd f0 03 8a bd 58 a4 4a bc
       -0.023902437 -0.06742813 -0.06739032 -0.012368284
0002e0 44 b4 04 bd 07 16 28 3d 18 3e 1d bd bf d2 68 bd
       -0.032398477 0.041036632 -0.038389295 -0.056841608
0002f0 40 fe 91 bc 14 1c 24 3d ff 06 a4 3d 65 36 9d bd
       -0.017821431 0.04006584 0.08009147 -0.076763906
000300 bf 8f f4 bc 34 a8 c5 bc a1 e0 c9 3d 55 05 85 3d
       -0.0298537 -0.024128057 0.09857298 0.06495158
000310 9f 0e 79 bd a5 1c 1a bd 39 9c b4 bc e9 af 99 bc
       -0.06080496 -0.037624974 -0.022047149 -0.018760638
000320 6f 27 0f 3d 68 ed 42 bc 3d 2d 84 bd f8 27 a8 bc
       0.034949716 -0.011897422 -0.06453941 -0.020526871
000330 1b 07 21 3d 3d a4 8b b9 97 90 37 3d 9c e2 82 bd
       0.039313417 -0.00026634513 0.044815626 -0.063908786
000340 1a 80 05 bd aa 7e 48 bd b5 1b 98 3a 2f bd 59 3d
       -0.03259287 -0.04894892 0.0011604937 0.053158935
000350 49 03 5e 3c 83 32 16 3d d8 2f e0 bc 07 28 0e bc
       0.013550588 0.036669265 -0.027366564 -0.008676535
000360 a6 58 d4 3b 44 94 f6 3b 87 e8 dc 3c 0f 83 1d 3d
       0.0064802943 0.007524999 0.026966346 0.038455065
000370 b0 32 d1 3c f0 b4 79 bd ac f3 6c 3d 9c b9 94 3d
       0.025536865 -0.06096357 0.05784957 0.07261965
000380 e3 31 9e bd 5d b0 33 bd 18 32 35 3d 6b 6a 93 3d
       -0.07724359 -0.043869365 0.044237226 0.07198032
000390 7f 87 79 bd 0b c2 1b bd 80 72 a6 bd 6a 2a 60 bb
       -0.060920235 -0.03802685 -0.08127308 -0.0034204968
0003a0 4b cf be 3b 2c 02 23 3d 6e 2d c7 bc a1 01 37 3d
       0.005823051 0.039796993 -0.024313655 0.044679288
0003b0 41 b3 6b bd 07 64 94 3d 85 5a a9 bd b1 94 b5 bd
       -0.057543997 0.07245641 -0.08269218 -0.08866251
0003c0 4d ae a4 3d f3 bf 78 3d 1a 74 5c 3d 5c 75 76 bd
       0.08041058 0.060729932 0.05382166 -0.060170516
0003d0 a8 cd 42 3d a9 ee 40 3d 6b e0 fc 3c db f9 4c 3d
       0.04755941 0.047102604 0.03086873 0.05004297
0003e0 4b a8 7b 3d b9 57 78 bd 5f 21 64 3d 62 bf 10 bd
       0.061439794 -0.060630534 0.055695888 -0.035338767
0003f0 7d 8a a0 bd 77 fa b5 3d 5d 31 69 bd 46 75 da bc
       -0.078389145 0.08885663 -0.056931842 -0.026667248

actor.2.bias f4 [128]
000000 f0 8d 79 3d b8 ed 5c bd 61 15 1b bd 18 35 03 bc
       0.060926378 -0.053937644 -0.037862185 -0.008008264
000010 d7 30 97 3c 27 3b 35 bd 66 43 39 bc 45 55 ae bb
       0.018455906 -0.044245865 -0.011307573 -0.0053202235
000020 3d c9 6d bd f2 65 d6 bc 8f ee 6f bc 49 35 c3 bc
       -0.058053244 -0.026171658 -0.014644279 -0.02382912
000030 54 45 1e 3d 17 40 2e 3d 28 64 93 bd 4b 06 f3 3c
       0.038640335 0.04254159 -0.07196838 0.029666087
000040 5f 29 2e bb a6 52 53 bd a9 97 10 3d c8 87 29 3d
       -0.0026574952 -0.05159249 0.035300884 0.041389257
000050 cd cf 0c 3c aa ba e8 bd 3f 44 a2 bd bd 92 c5 3c
       0.008594465 -0.11363728 -0.07923173 0.024117822
000060 bc 52 50 3d 3f b6 f7 bd f2 99 9c bd 4f 44 92 bd
       0.05086015 -0.120953076 -0.0764655 -0.07141935
000070 7b e7 01 3d 48 02 d3 bb 56 eb 9f bc 16 4e e4 3d
       0.031714898 -0.006439481 -0.019521397 0.11147706
000080 19 88 bc bc 1d 32 08 3d 5c 22 94 b7 6d f4 6f 3c
       -0.023014115 0.033250917 -1.7658975e-05 0.014645678
000090 f8 81 19 bd 61 88 9a 3c c0 4a 66 bd 4e 59 aa 3b
       -0.037477463 0.018863859 -0.05622363 0.005198634
0000a0 1e 6a 41 3d 04 a9 92 bc b6 22 ba 3d dd 37 5a 3d
       0.04722034 -0.017902859 0.09088652 0.05327593
0000b0 5a c5 36 3d 64 e7 dd bd 24 82 4f bc dd 7e b1 bd
       0.044621803 -0.1083515 -0.012665305 -0.086667754
0000c0 17 31 59 bd 56 b2 ac bc 44 60 f1 3d 26 75 37 bd
       -0.05302533 -0.021081131 0.11785939 -0.044789456
0000d0 c7 d1 44 bd 3b 80 4e 3d 61 21 f1 3c e5 54 3b bd
       -0.04805162 0.05041526 0.029434862 -0.04573526
0000e0 8c bf e3 3c ea 42 d2 3b 25 8f 70 3d 5f 0d 3b bd
       0.027801298 0.006416668 0.058730263 -0.04566705
0000f0 54 7b f4 bd b1 3f 76 3d 34 c8 de 3d 1d e2 b5 3d
       -0.119375855 0.060119335 0.108780295 0.08881018
000100 cd c8 dd bd d0 82 d5 bd e9 d0 77 3d 18 ef dd bd
       -0.10829315 -0.10425341 0.060501967 -0.10836619
000110 6e 6e 9d 3d db 42 09 bd 76 b9 34 bc 68 a4 8b 3c
       0.076870784 -0.033511024 -0.011030545 0.017046168
000120 99 37 ab 3d ac 1b 45 3b ed ea 8b 3d 8d af f3 3c
       0.08360214 0.0030076308 0.06831918 0.029746795
000130 23 f6 a5 3c 9a 87 07 bc 77 2a 49 bd 83 23 e3 3c
       0.020258969 -0.008272076 -0.049112763 0.027726894
000140 03 65 a6 3d 06 29 1a 3d bf f7 17 3d 1d 1c 28 3b
       0.08124735 0.03763678 0.037101503 0.0025651522
000150 6e e7 b5 3d 8b 42 f0 3c 20 54 e3 bd 2b c8 e9 bc
       0.08882032 0.029328605 -0.1110003 -0.02853783
000160 f6 98 b7 bd 9e e4 23 3d be 58 13 3d 53 ff 17 3d
       -0.08964722 0.04001295 0.035973303 0.03710873
000170 56 e4 c3 bc 32 d1 8d bd 2f 5e 8f 3b 09 ef 57 3d
       -0.02391259 -0.069246665 0.004375241 0.052718196
000180 05 8d 15 3c f1 a1 c3 bd a0 6b 4b 3d 22 d5 b0 3c
       0.00912786 -0.09552372 0.049663186 0.021586005
000190 3c 0d 03 3d 04 d5 3c bd b5 ce ba 3c 35 6a f4 bc
       0.031995043 -0.046101585 0.022803644 -0.0298358
0001a0 27 41 8b 3d c3 04 f5 bb eb 1b bc bc 33 5b b4 3d
       0.06799536 -0.0074773743 -0.022962531 0.08806457
0001b0 00 a7 5b bd 30 bd 9b bb f2 7b 00 bd 88 dc 85 3d
       -0.05362606 -0.0047527775 -0.031368203 0.065362036
0001c0 09 ec 1b bd 25 07 d7 3d 96 db c7 bb 73 82 c3 bd
       -0.038066898 0.104994096 -0.0060991747 -0.095463656
0001d0 2e 3c 05 3e 37 78 61 3c ff 17 2d bd 4f 63 34 bd
       0.13011238 0.013761572 -0.042259213 -0.04404002
0001e0 b2 95 48 3c fd d1 bc 3d 23 fb 0b 3c da 47 3b 3d
       0.012242721 0.092197396 0.008543762 0.04572282
0001f0 b4 ec 6e bd 86 d3 f3 3c 17 72 2b bd 42 3d d6 3c
       -0.058331206 0.029763948 -0.04185685 0.026152257

actor.4.weight f4 [128, 128]
000000 ae 07 13 bd fe 51 b8 bc e3 76 78 3c ec 61 44 3d
       -0.035895996 -0.022500034 0.015165064 0.047944948
000010 25 9f 3c 3d c2 92 fc bb a3 1a 46 bb e6 d2 b2 3d
       0.04605021 -0.0077079246 -0.003022828 0.08731632
000020 34 60 87 bd 5a 0a 98 bd fd 27 a1 3c 34 7a e1 bc
       -0.06610146 -0.074238494 0.019672388 -0.027524091
000030 99 38 9e 3d 21 1c 86 bc 12 bf b7 bd 4e 32 cd bc
       0.07725639 -0.016370835 -0.08971991 -0.025048401
000040 16 57 3d 3c bf 7e 2b bd d3 41 31 bd 09 2a b2 bd
       0.011556407 -0.04186892 -0.043275665 -0.08699424
000050 6b ca 43 bd 38 4c 88 3d 94 44 9f bd 9d 0c 27 bd
       -0.047800463 0.066551626 -0.07776752 -0.040783513
000060 b9 c3 5d bd 2f 68 3a 3d e8 19 78 bc 4f 0a b2 bd
       -0.054141734 0.045509513 -0.015142895 -0.086933725
000070 1c 67 95 bc a3 81 68 3d 3d 79 96 bc 5c 7a 83 bd
       -0.018237643 0.056764256 -0.018368358 -0.064198226
000080 66 83 93 bc 77 a9 92 bd 1b 4c 8b 3d 06 f1 ce bc
       -0.018006992 -0.07161229 0.06801625 -0.025261413
000090 0e d6 62 3c 3a 69 5a bd 0c 43 99 3c 66 10 ef 3c
       0.01384498 -0.053323008 0.018708728 0.029182624
0000a0 45 41 ac 3d a4 5d 93 bd 17 c8 25 3d 37 31 b0 bb
       0.08410887 -0.07195595 0.040474024 -0.0053769606
0000b0 db 29 a3 bc e8 4a fb 3c 19 8b 04 bb b4 76 8c 3c
       -0.01991742 0.030675367 -0.002022451 0.017146446
0000c0 28 5e 93 ba 2c e6 9c bd 18 38 aa bc da ee 4f 3d
       -0.0011243271 -0.07661089 -0.0207787 0.050764896
0000d0 c3 db de bc 42 1c b9 3c 7c 95 a3 bc 0c 04 18 3b
       -0.0272044 0.022596482 -0.01996874 0.0023195772
0000e0 fd a2 8c 3d bc 48 98 bd 3b b8 3d 3d 88 b3 51 bd
       0.06867025 -0.07435748 0.046318274 -0.051196605
0000f0 90 c5 81 3a 0d aa a0 3d 47 eb fe 3c 79 5d ee bc
       0.0009900797 0.078449346 0.031118048 -0.029097306
000100 20 ba 9d bd 56 9e 84 3d 00 53 f8 3c aa 4b 0a bd
       -0.07701516 0.06475513 0.030313015 -0.033763565
000110 9f 85 2a 3c 39 b4 9f 3d d5 1d 3b bd 12 68 bd bb
       0.010407834 0.077980466 -0.045682747 -0.0057802284
000120 01 0c 55 bc 06 54 88 bd 12 15 83 3d c9 66 15 3d
       -0.01300335 -0.06656651 0.06400503 0.036474977
000130 0e a8 48 3d 4b ac 10 3d d6 a4 0b bd 87 d2 05 3d
       0.048988394 0.03532056 -0.034092747 0.032671478
000140 3e 31 ba bc fa 98 87 bd 38 d1 10 bd d0 f5 10 3d
       -0.022728559 -0.06620975 -0.035355777 0.035390675
000150 24 47 44 bd 9d 11 14 bd ee b6 9e 3b 46 1c 66 3d
       -0.047919407 -0.03614961 0.0048435843 0.056179307
000160 95 95 91 3d 78 89 3d bb b7 38 18 3d 48 69 6f bd
       0.07108609 -0.002892105 0.037163462 -0.058450013
000170 52 89 d4 3c 9a e8 84 3d 2a 38 cb 3c 21 b1 7f bd
       0.025944386 0.06489678 0.024807055 -0.062424783
000180 c1 d5 7a bd b0 39 a9 3d f8 7d 31 bd 3a a6 34 3d
       -0.061239008 0.08262956 -0.043333024 0.04410384
000190 bd 66 94 bd 22 49 c5 bb 89 45 c9 bc aa 5a de bc
       -0.07246158 -0.006020681 -0.02456929 -0.027142841
0001a0 0c b5 f9 bc 9f cf c9 3c 68 38 a4 3d 2b c5 9e bb
       -0.030481838 0.024635134 0.08018571 -0.0048452816
0001b0 4a fe 44 bd bb 43 4c bc 9e 6b 3f 3d 26 97 48 3c
       -0.04809407 -0.01246732 0.04673349 0.012243068
0001c0 06 88 35 bd b5 ff c9 bb 77 0b a4 bd bb ec 1e 3d
       -0.044319175 -0.006164516 -0.08009999 0.038799983
0001d0 a8 d1 51 3d 5b dc 10 3d ae 69 d3 3c 40 fc 53 bd
       0.051225334 0.035366397 0.025807228 -0.051754236
0001e0 82 15 10 bc 36 1a bf bd 38 9d 2a 3c 73 94 84 bc
       -0.00879419 -0.09331171 0.01041346 -0.016184067
0001f0 52 ca 82 3c ae 78 e4 3b 5e cb 2e 3c 2e 80 d9 bc
       0.015965614 0.006972394 0.010668604 -0.026550379
000200 21 fc 82 bd f2 8c 93 3d b9 e9 00 3d b5 03 3c bd
       -0.06395746 0.072046176 0.031472895 -0.045901973
000210 06 32 97 3d 58 02 66 3d 38 7c 21 3d 3d 7c ed bc
       0.07382588 0.05615458 0.039425105 -0.028989905
000220 e5 23 3a bd 70 a7 0e 3d 9c 30 7c bd 63 41 f3 bc
       -0.045444388 0.03482765 -0.061569795 -0.029694265
000230 69 f7 6a 3d 5e f0 36 3d e8 f2 ad 3d 8b f1 42 bc
       0.057364855 0.044662826 0.08493596 -0.011898409
000240 74 d7 6c 3c c7 d2 19 3d 9f 0a f2 3c 91 f9 71 bc
       0.014455665 0.03755453 0.02954608 -0.014768974
000250 5d ee ab bd 3b 98 67 3d 4d 5a 12 bd 60 c3 43 bd
       -0.083950736 0.056541663 -0.03573065 -0.047793746
000260 d3 04 59 bd 92 2b 60 3c dc 5f f9 bc b9 8b a7 bc
       -0.052983116 0.013682263 -0.030441217 -0.020452367
000270 31 16 ba 3d 1b 8a 5c bc 98 a5 4b 3d c8 02 9f bd
       0.09086264 -0.013460661 0.04971847 -0.07764202
000280 90 bd 70 3d 7f 2a 85 bc a0 47 85 3d fe 70 1e 3d
       0.05877453 -0.016255615 0.06507802 0.038681976
000290 ca b9 8a 3d 52 8c ad 3d 3d 45 a9 ba 2f 19 0a 3d
       0.06773718 0.084740296 -0.0012914311 0.033715423
0002a0 73 f0 f8 bc 19 9c c3 bc fc a9 56 bd aa ec 12 3c
       -0.030388093 -0.023878144 -0.052408203 0.008967558
0002b0 46 a6 82 3c 21 d2 22 3d 9d 7e 27 bd 54 0b 6c 3c
       0.015948426 0.039751176 -0.040892232 0.014406998
0002c0 01 85 8d 3d c1 7d 57 bd 59 bd a7 3d 41 46 35 3d
       0.06910134 -0.052610163 0.08190412 0.044256452
0002d0 fb ec 87 bd 89 12 aa bd d4 e9 ad 3c b8 5c 69 bd
       -0.06636997 -0.083043166 0.021229662 -0.05697319
0002e0 9c d8 ae 3d db c0 75 bd 5a d9 b7 3c d9 31 ac 3d
       0.08537409 -0.059998374 0.022442508 0.08407945
0002f0 da 7e 7f 3d 9b 0a 97 bd 7b cf 50 3c c2 d5 85 3d
       0.062376834 -0.0737507 0.01274478 0.06534912
000300 af 7d 5a bc 88 a1 2a bd 19 12 2a bd 0d 63 47 3d
       -0.013335629 -0.041657954 -0.041521166 0.048678447
000310 2b 90 9c bd 74 22 5a bc ae ee ac bd d9 ad 34 3d
       -0.07644685 -0.013313878 -0.08443962 0.044111107
000320 d4 13 f0 3c 9f 20 2f bd 77 55 f7 3a 88 80 88 3d
       0.02930633 -0.04275572 0.0018870075 0.066651404
000330 73 a9 9d 3d 3c 60 9d bd 78 ad 86 bd a0 2b 38 bc
       0.076983355 -0.07684371 -0.06576055 -0.01124087
000340 c6 70 5e 3c 4d 50 28 bd 35 e0 42 3c 50 84 b3 3c
       0.013576692 -0.041092206 0.011894275 0.021913677
000350 f8 dd ec bc 55 9c 92 3d 10 64 01 bc c0 a5 01 bd
       -0.028914437 0.07158724 -0.007897392 -0.031652212
000360 36 23 97 3d 8b 82 a6 bc 07 f9 0d 3b d9 9b b6 3d
       0.07379763 -0.02032592 0.0021663324 0.08916444
000370 c8 c2 76 bd 31 c2 ac 3c cb 4e ae 3d 3a 63 a0 bd
       -0.06024435 0.021088691 0.08511122 -0.07831426
000380 36 0a 8b 3d 0b 27 20 3d 62 3f 9f 3c e8 92 ae 3d
       0.06789057 0.039099734 0.019439403 0.08524114
000390 74 98 52 bd 2b 5f 92 3d d3 2f a1 3d 17 38 bb bc
       -0.051414922 0.07147058 0.0787045 -0.022853894
0003a0 8b 12 d1 bb ab e7 b1 3d 1e 90 92 3d 96 54 32 3d
       -0.0063803843 0.08686765 0.071563944 0.0435377
0003b0 83 1d d5 3c 14 59 16 3d 1b 22 89 3c df 1a ba bd
       0.026015049 0.036706045 0.016739896 -0.090871565
0003c0 d4 c5 95 bd 84 7b c0 bc 68 9c 02 3d 83 9f 8d bd
       -0.07313123 -0.023496397 0.031887442 -0.0691519
0003d0 22 d3 84 bd 50 c4 f0 bb eb 25 97 bd 6e dc 37 bd
       -0.06485583 -0.007347621 -0.07380279 -0.044887953
0003e0 03 cf db 3b ab da 27 bd ca ff 06 3d cb 8f ad bb
       0.0067080273 -0.040980022 0.032958783 -0.0052966825
0003f0 db d7 2f bd 4b 2e a7 3d a1 00 b0 bc 19 79 93 3c
       -0.042930465 0.081631266 -0.021484675 0.01800208

actor.4.bias f4 [128]
000000 26 7d 4e bc 79 f3 ae bc 0f cd b1 3c ee 7c bf 3c
       -0.01260308 -0.021356331 0.021704225 0.023375
000010 bb e6 19 bd 3e 3f a1 3d dc d1 a0 bc 4a 8f 0b bc
       -0.037573557 0.078733906 -0.019631319 -0.0085180495
000020 e1 2a b9 3d 06 ca 3b bd ce e9 a6 bd 35 78 ae 3c
       0.090413816 -0.04584696 -0.081500635 0.021297554
000030 fe 06 a1 bd 30 2c 2e bd 13 8c eb 3d 51 5b c5 3c
       -0.07862662 -0.04252261 0.115013264 0.024091395
000040 5d a2 66 3d 60 25 aa 3d 46 c6 2a bd 65 de 38 3d
       0.056307185 0.0830791 -0.041692995 0.045133967
000050 39 3e bc bd d2 e9 79 3d 7c 75 05 3d f4 1d 81 3d
       -0.091915555 0.061014004 0.032582745 0.06304541
000060 ed a4 c5 3c 0d 14 43 3d 9d 54 4c 3d fa 21 41 bd
       0.024126494 0.047626544 0.04988538 -0.047151543
000070 2d 5c f3 bc 91 b5 71 3d a6 c3 82 3c d4 29 15 3d
       -0.029707039 0.059011046 0.015962433 0.036416844
000080 be bf e3 bb dd bf bb 3d e2 3c 24 3d 68 08 80 3d
       -0.0069503477 0.091674544 0.040097125 0.06251603
000090 13 f3 b4 3d 81 f5 3d 3d 6a d5 a2 bc 80 f8 03 bb
       0.08835425 0.04637671 -0.019877154 -0.0020137131
0000a0 ab c7 43 bd 0d 4e 9d bc 31 cf a2 bd ba 46 49 bd
       -0.04779784 -0.019202257 -0.07949675 -0.049139716
0000b0 f5 f0 3b bd 01 40 a7 bd 24 3a a1 bc 31 1b 23 bd
       -0.04588409 -0.08166505 -0.019681044 -0.039820854
0000c0 7e c8 b5 bc 21 70 a9 3d 00 7f 44 bd d0 5d 31 3d
       -0.022190329 0.0827334 -0.04797268 0.043302357
0000d0 0e 4c 59 3d 7c fb 30 bc be 05 8c 3c 39 56 86 3c
       0.053051047 -0.010802146 0.017092582 0.016398536
0000e0 b9 d8 ed bc 9f 98 7b bd b9 0b f4 bc 1d 1e 2a bb
       -0.029034005 -0.061424848 -0.029790746 -0.002595789
0000f0 a8 bc c4 3c 8a 20 fb bc 8c 06 31 bd 88 50 3d bd
       0.02401574 -0.030655164 -0.043219134 -0.04621938
000100 d6 a7 01 bd 54 67 3d bc 5d d2 15 3d 6e 7f ca 3d
       -0.0316542 -0.01156028 0.03657757 0.098875865
000110 eb 7e ba 3d af 37 c5 3d 18 35 2a bd 9f 44 26 3c
       0.09106239 0.096297614 -0.04155454 0.0101481965
000120 7e 4a f1 3c 87 fd ff 3c 41 bc 66 3b 8a 7b c6 bb
       0.029454466 0.031248821 0.0035207423 -0.0060572075
000130 4a cf b0 bc 9a 89 05 bd 8a 15 ac 3d 66 53 a3 ba
       -0.021583218 -0.03260193 0.08402546 -0.0012460768
000140 ab f5 50 bd 61 fb 5e bd 4d bc 63 3d 88 2b 6b bd
       -0.051015537 -0.054438952 0.0555995 -0.05741456
000150 b1 48 99 3c 3a 49 bd bc 2c 30 3c 3d bb 00 95 3c
       0.01871142 -0.023106206 0.045944378 0.018188825
000160 b2 23 0a 3e c4 d3 83 bd 65 14 63 3d a8 66 52 3d
       0.13490179 -0.064368755 0.05543937 0.051367432
000170 f2 da 12 3d 99 65 db bc 99 bd a9 bd ba 0a 1e 3c
       0.035853334 -0.026781844 -0.08288116 0.009646112
000180 ee 45 4b bd bd 0f 89 bd b6 37 4f 3b 78 66 e5 3c
       -0.049627237 -0.06692455 0.00316189 0.028002962
000190 71 4f 0a bd 0e 32 05 bd 14 44 b4 bd 38 eb 8f 3d
       -0.033767167 -0.03251844 -0.08802047 0.07027286
0001a0 45 33 92 bd 91 3b e5 3c 5d a4 ad bd 0f 34 dc 3d
       -0.07138685 0.027982505 -0.084786154 0.10752117
0001b0 9a 71 33 3d b2 68 33 bb b2 00 13 3d ac 18 52 bd
       0.04380951 -0.0027375636 0.035889335 -0.05129306
0001c0 a3 84 44 bd 80 f6 b2 bd 97 7f e6 3d bb bb 81 3d
       -0.047978055 -0.087384224 0.112548046 0.06334635
0001d0 2c 70 64 bd 3b 11 c0 bd dd 73 a7 bd 5e 25 5b 3d
       -0.055771038 -0.093782865 -0.08176396 0.053502433
0001e0 d6 bb 8c 3d db 54 fc 3c 36 f5 a0 3d a9 ec 92 3d
       0.06871764 0.030802181 0.0785927 0.071740456
0001f0 88 30 6c 3d 08 24 87 3c 29 bb a9 bd 1a 52 79 3d
       0.05766347 0.016496673 -0.08287651 0.060869314

actor.6.weight f4 [8, 128]
000000 4a 41 95 3d 3f 7d 69 3d 62 7e 8a ba b8 44 a6 3d
       0.072878435 0.05700421 -0.001056623 0.08118576
000010 68 e2 5c 3b 70 b2 93 bd f8 28 9d 3d 3f 41 0b bc
       0.0033704285 -0.072117686 0.0767383 -0.008499443
000020 cd e2 b5 bd af bf bf bd 33 15 3a bd ab 4c 5c 3d
       -0.088811494 -0.093627326 -0.045430373 0.053784054
000030 1f fc fb bc 8f 7c a1 bd 0c cf 67 bd 3c 61 55 bd
       -0.03075987 -0.07885086 -0.05659394 -0.052094683
000040 09 ab 63 bd ce 44 a7 bd 33 92 71 bd 07 11 0d bd
       -0.055583034 -0.0816742 -0.058977317 -0.034440067
000050 32 4e 66 3d c8 58 0b 3d 7b 5c 8c bd 94 70 83 3c
       0.056226917 0.034020215 -0.06853577 0.016044892
000060 8f fc 54 3d d8 31 a8 bd 8b 61 29 bc 6e 20 9b 3c
       0.05199867 -0.08212632 -0.010338197 0.018936362
000070 89 e2 b5 bd cb f2 c6 3c ed 4c 94 bd 72 c7 d0 3c
       -0.08881099 0.024285695 -0.07241235 0.025485728
000080 65 47 ee 3c 8a d7 b2 3d f7 85 9d 3d cc fc 19 bd
       0.029086778 0.08732517 0.076915674 -0.0375946
000090 b1 25 65 bd 00 6b 30 3d 76 90 72 bd 01 6b 9c bb
       -0.05594415 0.043070793 -0.0592198 -0.004773498
0000a0 f2 24 da 3c 69 55 0d bc 3c 9d 6e bd eb 58 25 bc
       0.026628945 -0.00862632 -0.05825542 -0.0100920005
0000b0 fd 63 34 bd 62 99 d2 bc 50 f7 37 3d 92 ce 65 bd
       -0.04404067 -0.025707904 0.04491359 -0.056105204
0000c0 97 87 d2 ba ac a8 a2 3b 98 67 eb bb 6e f8 b6 3d
       -0.0016062137 0.004963955 -0.00718398 0.08934103
0000d0 84 38 26 bd 1e 83 36 bd 2b 41 72 3d 2a a9 8c bd
       -0.04058124 -0.044558637 0.05914418 -0.06868203
0000e0 39 33 25 3c 0c 2e a4 bd 64 37 47 3d f5 15 f0 3c
       0.010083013 -0.08016595 0.04863681 0.029307345
0000f0 b8 74 58 3c e4 07 02 3d 44 e7 b3 3d 10 2c d6 3c
       0.013211422 0.031745806 0.08784345 0.026144058
000100 23 6c 6f bd da 3b 9f 3d 94 a2 0b bd 27 cf 3f bd
       -0.058452737 0.07775088 -0.034090593 -0.046828415
000110 c6 30 71 bd e5 44 2d bc b6 ba a6 3d 7c 55 6f bd
       -0.058884405 -0.010575508 0.08141081 -0.058431134
000120 68 58 b1 39 81 57 ad 3d bf 3b b8 bc 10 36 52 bd
       0.0003382594 0.08463956 -0.022489427 -0.05132109
000130 5a cf 90 3b 3c ac b5 3c 35 c4 1a bd 21 e8 da bc
       0.0044192495 0.022176854 -0.037784774 -0.026722016
000140 de cd 48 bb 12 48 1b 3c 4a 72 6e 3d 1e 6e 40 3c
       -0.0030640285 0.009477632 0.058214463 0.011745004
000150 4d be ac bd b7 8f 48 bd 53 dc 65 3d 0b 58 46 3d
       -0.084347345 -0.048965182 0.05611832 0.048423808
000160 e5 8b 92 bd aa e0 72 3d 42 b7 56 3d 34 f3 41 bd
       -0.07155589 0.059296288 0.052420862 -0.047351077
000170 b2 c9 7f bd 15 19 f1 3c 9b fd 4d 3c 0f 75 df 3c
       -0.06244821 0.029430905 0.012572671 0.027277498
000180 72 2a c6 3b c2 26 13 3d 8c db 9e bd 90 d0 c2 3c
       0.0060475403 0.035925634 -0.07756719 0.023781091
000190 76 20 da 3c a6 dc 2b b7 78 0b 09 3d d8 1e b8 bd
       0.026626807 -1.0243768e-05 0.033458203 -0.08990258
0001a0 db e8 5f 3d f4 c9 bc bb 44 3d 91 bb 10 db 5d bd
       0.054665428 -0.0057613794 -0.0044323523 -0.054163992
0001b0 37 57 79 bb 19 cd 8b 37 06 a9 a3 bd 60 ff 48 3d
       -0.003804637 1.6665597e-05 -0.07991223 0.04907167
0001c0 16 fe c5 3c 67 e6 a6 3d d0 19 7c 3c 36 78 69 3d
       0.02416901 0.081494145 0.015387014 0.056999408
0001d0 ba 65 8b 3d a1 29 88 3d 83 b6 0e 3c 03 99 7b 3d
       0.06806512 0.06648565 0.008710506 0.06142522
0001e0 93 ff ae bd d8 6b e3 3c 79 1f 64 bd 4a a2 45 bc
       -0.08544841 0.027761385 -0.055694077 -0.0120626185
0001f0 11 cc b6 3d 1f 2d a3 bd 67 0a 84 3d 6c 41 a4 bd
       0.08925641 -0.079675905 0.064472966 -0.08020291
000200 63 02 10 bd fc be a3 bd c4 fb ad 3d 38 64 92 3d
       -0.035158526 -0.07995412 0.08495286 0.071480215
000210 f9 e9 a0 bd 1a 9d 64 bd 00 19 9e 3d 6f b1 b2 bc
       -0.07857127 -0.055813886 0.07719612 -0.021813123
000220 9f 1f 95 3d 72 20 17 3c f8 c5 90 bd 78 17 35 bd
       0.07281422 0.009224044 -0.070690095 -0.044211835
000230 b3 72 82 bd 7f 00 80 3d 91 a9 02 bd d0 49 15 3d
       -0.063695334 0.062500946 -0.031899992 0.036447346
000240 d4 6b 4d 3d 0b 50 a2 bc bd 33 b0 bc 65 e6 91 bd
       0.05015166 -0.019813558 -0.021509046 -0.071240224
000250 e4 27 4c bc 32 74 93 bd 63 62 ba bc 64 2b a7 3c
       -0.012460683 -0.07199897 -0.022751993 0.020406432
000260 6c 06 5d bd 95 1d a2 bd e1 f3 79 bd 75 5b 1b bc
       -0.053961203 -0.079157986 -0.061023597 -0.009482254
000270 dd d0 9c 3a ab 92 86 bd 32 8f 6e 3d 14 ea b9 3d
       0.0011964102 -0.065709434 0.05824203 0.0907785
000280 50 4d 91 bd 14 08 2a bd e5 50 ab bd a0 b3 a1 3d
       -0.07094824 -0.04151161 -0.08365039 0.07895589
000290 33 fa 42 bc 71 b9 59 bd 60 1b 8f bd c7 45 d9 39
       -0.011900472 -0.053155366 -0.06987643 0.00041441454
0002a0 69 0c 2a 3c 9a e7 8e bd 20 e0 a3 3d 0c c8 37 3d
       0.010378935 -0.06977768 0.08001733 0.044868514
0002b0 07 a5 7b 3b c2 eb 90 bd ff 65 8f 3d 62 c8 2d bd
       0.0038397925 -0.07076217 0.07001876 -0.042427428
0002c0 d7 54 46 3d 31 5c f0 3c 3b 9e c1 bc 7b ac 6b 3d
       0.048420753 0.029340835 -0.02363502 0.057537537
0002d0 fe 0d 6f 3d f2 af e7 bc 8a e0 b4 3d 7b 09 70 bd
       0.058362953 -0.02828214 0.0883189 -0.05860279
0002e0 0f 67 a6 3c 8f cb a0 bd 61 62 3c 3c 8a c9 ed bc
       0.020312814 -0.07851326 0.011498065 -0.029026765
0002f0 a6 60 ba 3d 13 38 64 3d 49 1a 82 3d 50 53 9b bd
       0.091004655 0.05571754 0.0635267 -0.0758425
000300 f6 4d 9c 3d e6 fc d9 3c 26 99 64 bc 3a a7 ed 3c
       0.07632057 0.02660985 -0.013952529 0.029010404
000310 6a 20 2a 3d a0 3c 1e bd af 34 6e 3d 92 82 97 bd
       0.04153482 -0.038632035 0.05815571 -0.07397951
000320 e3 ed 0e 3c 1f 9d a2 3d c5 af e3 bc f0 7b 3f bd
       0.008723709 0.07940125 -0.027793774 -0.046749055
000330 31 c0 3e 3d 8c ad 50 3d 83 28 97 bd 64 fb 9d bc
       0.046570007 0.050946757 -0.07380774 -0.019284911
000340 c7 d9 79 3d 9f 13 8f 3d 7b 9f 12 3c 9b 09 1f 3d
       0.060998704 0.06986164 0.008949156 0.03882752
000350 df 6d 27 bd cd 36 91 3d 36 46 a0 bd ea 40 80 bd
       -0.040876266 0.070905305 -0.07825892 -0.062623814
000360 29 dd 4f bd 30 50 f3 3c e0 54 e4 bc d7 be 40 3d
       -0.050748024 0.029701322 -0.027872503 0.047057
000370 45 c5 9d 3d 2a d3 23 3d 63 d7 2a bd 32 a0 aa 3d
       0.07703642 0.039996304 -0.041709315 0.08331336
000380 c7 d9 4c bc 6e 17 35 3d 50 1c a5 3d d7 dc 86 3d
       -0.012503094 0.044211797 0.08062041 0.065850906
000390 53 38 f6 3c 45 ef 94 bc 97 16 b9 bc 26 a3 7e bd
       0.030056154 -0.018180499 -0.02259378 -0.06216731
0003a0 9d 95 7d bd 8e 51 a1 bd 9f 8e 23 3d 1a bc 35 3d
       -0.06191026 -0.078768834 0.039930936 0.04436884
0003b0 4b 31 63 3c d0 87 68 bd 6c 4f 5a 3b 29 1b 90 bd
       0.013866733 -0.056770146 0.00333115 -0.070364304
0003c0 d3 71 9c 3d ce df 0c bd 12 21 31 bc 23 62 f0 3c
       0.07638898 -0.034393124 -0.010811107 0.02934367
0003d0 88 e3 1f bd dd 65 fc bc dd 58 83 3d 61 bb 8c bc
       -0.03903535 -0.030810291 0.06413434 -0.017179193
0003e0 8b f5 f8 3c 40 ce 61 3d 35 80 37 3d 56 9a 09 bd
       0.030390522 0.055128336 0.044800002 -0.03359445
0003f0 c2 4f 0c bd 57 49 98 3d 0a 31 ad 3d 19 e4 86 bd
       -0.03425575 0.074358635 0.08456619 -0.06586475

actor.6.bias f4 [8]
000000 b0 6a 72 3d a4 f3 5b bd da c7 05 3c f4 ae 77 3d
       0.059183776 -0.05369915 0.008165324 0.060469583
000010 ab b7 b1 3d f2 1e 40 3d a8 db 88 bd 37 00 20 bd
       0.0867761 0.04690451 -0.06682521 -0.039062705
