ISAAC_NOGIT/logs/rsl_rl/traquad_flat/2025-09-15_18-02-12/model_100.pt (torch, 925483 bytes, 48 tensors)

std f4 [8]
0.49048972 0.5942375 0.5723133 0.4777169 0.77903664 0.735596 0.75388414 0.7209776
00000000: 7821 fb3e f31f 183f 2083 123f 4f97 f43e
00000010: f26e 473f 0550 3c3f 8dfe 403f fd91 383f

actor.0.weight f4 [128, 31]
-0.58305335 -0.27988642 0.21495126 0.6760545 -0.22297384 0.2578549 -0.6887254 0.30985245
0.0192947 1.209656 0.28916115 -0.73359686 0.30609286 -0.14577416 -0.025416154 0.21819176
0.08556987 -0.030565348 0.2250329 0.006854802 0.058935527 -0.087597884 -0.029892748 -0.13589871
0.10465032 -0.44719586 0.36674246 -0.30563828 0.26621485 -0.27265698 -0.06437208 0.1434682
0.14092778 0.13583201 -0.25507113 -0.094234645 0.018047756 0.07599504 0.026605194 0.30630937
0.0037834155 -0.06125141 0.021493804 0.5871866 0.13553971 0.10513086 -0.19561744 -0.085437246
-0.09955053 0.024702182 0.030326428 0.10785893 0.02355423 0.016310629 0.06552602 -0.24678642
0.55649143 -0.3422707 -0.0826022 -0.23181304 0.23609829 -0.52757365 -0.25230566 -0.22658274
0.60178685 0.61744833 0.2469318 0.22932544 0.07422555 -0.64493585 -0.009821835 0.18830372
-0.85865587 0.01795387 0.6383428 -0.026618788 -0.6115623 -0.0940903 -0.06258311 0.31514692
0.02399745 -0.055180795 0.07023238 0.103714414 -0.026579138 -0.252769 0.672687 0.05838405
-0.11210742 -0.34622785 -0.030721981 -0.12809314 0.537047 0.6095982 0.49798188 -0.3109257
-0.0688218 -0.0849778 0.31744447 0.7998626 0.73713017 0.27938247 -0.14218141 -0.5784445
0.14280888 -0.4068945 0.50833684 -0.26783103 0.24685563 -0.06075822 -0.047264468 -0.26139572
0.03398928 0.04659366 -0.042137206 0.025114605 -0.07934581 0.24801436 0.53236055 -0.398296
0.22720382 -0.06519349 0.38787776 -0.26812315 0.243598 -0.15713325 -0.31976953 -0.08459009
0.3593388 -0.6134273 0.6370717 0.41290838 0.08321776 0.76500905 -0.7888286 -0.30002695
0.88997006 -0.44605705 -0.002153346 0.15483642 -0.016494121 0.012440089 0.114812076 -0.010037157
0.015369703 0.02325986 -0.058151692 0.0742205 -0.27912536 -0.121319234 0.060726263 -0.09596793
0.03543289 -0.16502362 0.23396793 -0.14510675 0.3460332 -0.21314922 -0.20175435 -0.20490788
-0.24432881 -0.44185877 0.06788547 -0.0053503597 -0.06925768 0.15928632 -0.0042181313 -0.16277383
-0.23489653 0.4745006 -0.055566724 -0.04825673 -0.0199552 0.0495484 -0.019499201 0.020522004
-0.04810408 0.03917585 0.10810574 -0.21978574 0.25344262 -0.22430322 -0.5041067 -0.19332376
0.26642653 -0.28019333 -0.38334972 0.038980898 -0.4773868 0.4766321 0.27354094 -0.88648885
0.3281856 0.1484218 0.2795829 1.2930096 0.055044975 -0.13619412 -0.1936505 0.13024358
0.3216239 0.11265599 0.03324033 -0.12842128 0.11630992 -0.00083776953 -0.005901382 -0.045062054
0.031546257 -0.2557197 0.16739054 -0.11220999 -0.13697413 -0.41834354 0.13840625 0.0903465
-0.21211693 0.20886733 0.23958644 0.20748226 -0.2132 -0.1967153 0.0124898525 0.14052258
1.0467006 0.13476954 0.3070066 0.46864557 -0.012191953 0.22072355 -0.712777 0.09336306
0.09218878 0.009953132 0.071013026 0.014917438 -0.00024022564 -0.0010279118 0.01992788 -0.00392636
-0.21654363 -0.3622971 -0.19330601 0.22663714 0.31043097 -0.1114291 -0.033966627 0.47832918
-0.00644162 0.3739822 -0.53523916 -0.37621528 0.0914634 -0.37733132 -0.22048965 -0.09938657
00000000: fc42 15bf 464d 8fbe 2f1c 5c3e e811 2d3f
00000010: 4153 64be 8f05 843e 4f50 30bf fba4 9e3e
00000020: eb0f 9e3c 02d6 9a3f ee0c 943e 01cd 3bbf
00000030: 34b8 9c3e d245 15be 8a35 d0bc a96d 5f3e
00000040: 423f af3d 2e64 fabc 066f 663e 3f9e e03b
00000050: 6166 713d 8566 b3bd a3e1 f4bc 0829 0bbe
00000060: e852 d63d dbf6 e4be abc5 bb3e 9f7c 9cbe
00000070: 504d 883e b299 8bbe 82d5 83bd 54e9 123e
00000080: 5f4f 103e 8c17 0b3e af98 82be 18fe c0bd
00000090: e3d8 933c 4aa3 9b3d 23f3 d93c 95d4 9c3e
000000a0: 2ef3 773b c2e2 7abd c613 b03c dc51 163f
000000b0: ecca 0a3e d94e d73d f04f 48be b9f9 aebd
000000c0: 26e1 cbbd 3b5c ca3c 216f f83c 25e5 dc3d
000000d0: cdf4 c03c de9d 853c 8232 863d 94b5 7cbe
000000e0: 3976 0e3f 1b3e afbe 582b a9bd 6660 6dbe
000000f0: c0c3 713e 110f 07bf 352e 81be 4e05 68be
00000100: b40e 1a3f 1811 1e3f b1db 7c3e 4ad4 6a3e
00000110: 9103 983d 841a 25bf c3eb 20bc b1d2 403e
00000120: dfd0 5bbf ff13 933c 6f6a 233f a50f dabc
00000130: 598f 1cbf 6ab2 c0bd 932b 80bd f05a a13e
00000140: 4d96 c43c 4205 62bd fed5 8f3d 3968 d43d
00000150: 7ebc d9bc f06a 81be 3735 2c3f 1d24 6f3d
00000160: 9398 e5bd c744 b1be aaac fbbc d92a 03be
00000170: ea7b 093f a10e 1c3f 7bf7 fe3e a731 9fbe
00000180: 72f2 8cbd d708 aebd 1588 a23e ccc3 4c3f
00000190: 90b4 3c3f 380b 8f3e 0198 11be f014 14bf
000001a0: 7e3c 123e 7a54 d0be 5d22 023f 2621 89be
000001b0: b9c7 7c3e 9cdd 78bd 6398 41bd a9d5 85be
000001c0: 5838 0b3d fed8 3e3d 1098 2cbd 25bd cd3c
000001d0: 0e80 a2bd 7af7 7d3e c848 083f 74ed cbbe
000001e0: 1ea8 683e 2a84 85bd ea97 c63e 7047 89be
000001f0: c171 793e 8ae7 20be d5b8 a3be 923d adbd
00000200: 41fb b73e 9209 1dbf 2217 233f ba68 d33e
00000210: 136e aa3d a2d7 433f acf0 49bf 229d 99be
00000220: 14d5 633f 9761 e4be 271f 0dbb 708d 1e3e
00000230: ae1e 87bc 84d1 4b3c 9822 eb3d e372 24bc
00000240: 35d1 7b3c 768b be3c 7830 6ebd eb00 983d
00000250: 85e9 8ebe 3876 f8bd 1abc 783d d68a c4bd
00000260: 1422 113d f4fb 28be 4a95 6f3e dd96 14be
00000270: 432b b13e ca43 5abe b198 4ebe 5fd3 51be
00000280: 5531 7abe 503b e2be 8a07 8b3d 1252 afbb
00000290: f8d6 8dbd f41b 233e 4038 8abb 2fae 26be
000002a0: b788 70be bef1 f23e ef99 63bd d9a8 45bd
000002b0: 1679 a3bc 43f3 4a3d cabc 9fbc c31d a83c
000002c0: c908 45bd db76 203d 8b66 dd3d 830f 61be
000002d0: 3bc3 813e beaf 65be 230d 01bf aaf6 45be
000002e0: 0f69 883e 8075 8fbe 6a46 c4be 6faa 1f3d
000002f0: 0b6c f4be 1f09 f43e 8f0d 8c3e eff0 62bf
00000300: f107 a83e e2fb 173e 7d25 8f3e 5781 a53f
00000310: d776 613d 7976 0bbe 514c 46be 935e 053e
00000320: e3ab a43e 2fb8 e63d 0327 083d de80 03be
00000330: e533 ee3d c39d 5bba 6160 c1bb fd92 38bd
00000340: a636 013d b1ed 82be 6d68 2b3e 5ace e5bd
00000350: f242 0cbe 2031 d6be 5eba 0d3e 9607 b93d
00000360: 2e35 59be 51e1 553e 2656 753e 3b76 543e
00000370: 1a51 5abe bc6f 49be 3da2 4c3c 27e5 0f3e
00000380: 49fa 853f 0701 0a3e f82f 9d3e 50f2 ef3e
00000390: c2c0 47bc 5b05 623e 8e78 36bf 2235 bf3d
000003a0: 79cd bc3d 7612 233c 476f 913d 4568 743c
000003b0: 14e5 7bb9 ffba 86ba cb3f a33c b2a8 80bb
000003c0: 9dbd 5dbe 017f b9be 03f2 45be 9113 683e
000003d0: cff0 9e3e f134 e4bd 9720 0bbd 90e7 f43e
000003e0: 3a14 d3bb 987a bf3e 6f05 09bf 4a9f c0be
000003f0: 2a51 bb3d 9231 c1be 0ac8 61be 308b cbbd

actor.0.bias f4 [128]
-0.0035510235 -0.26740947 -0.09600782 -0.24801372 -0.12281617 -0.12107492 -0.20749548 -0.22659506
-0.27542862 0.18152122 -0.4785724 -0.0997232 -0.14765187 0.11916199 -0.20210104 0.1149992
0.21712722 -0.17567389 -0.16166225 -0.21350369 0.34249294 -0.11451219 -0.06496317 0.010384852
-0.11274524 0.011624488 -0.14947216 0.06371566 -0.12303392 -0.04891677 -0.13471478 -0.122956954
-0.3552922 -0.1725539 -0.01487503 0.11969957 0.14503214 -0.10450221 0.04249309 0.22803019
0.16424443 -0.3883377 -0.16097783 -0.05015507 -0.06726126 -0.19307002 -0.022687523 -0.030146888
0.011997156 -0.08180215 -0.15250988 -0.0043019177 -0.087680794 -0.047725517 -0.32614416 -0.22978508
0.06478443 0.049963515 -0.16325648 -0.15428999 -0.036905903 -0.03813101 -0.13652904 0.14093272
-0.29325244 -0.36386046 -0.056565836 -0.22407697 0.2320569 -0.028071687 -0.22529644 0.025798317
0.27801263 -0.13638763 -0.26417175 -0.28480288 0.061147157 -0.29933405 -0.048393562 0.045087006
-0.24021846 -0.38855553 -0.11879764 0.2378201 -0.21204191 -0.1510306 -0.18120478 -0.115080856
0.11952281 -0.1692494 -0.026200226 0.008638501 -0.10433661 -0.31922084 -0.21757533 0.049989477
-0.063200034 -0.071274035 0.17730416 -0.16123699 0.12834433 -0.039554976 0.23947813 -0.33766568
-0.21193339 -0.025853334 -0.2472982 0.12669183 -0.112680614 0.034909427 -0.08368909 -0.034992438
0.09300143 -0.17465243 -0.22002885 -0.010671796 -0.16856557 -0.088836744 -0.10774676 -0.025916234
0.26865754 -0.09413741 -0.33109793 -0.13285926 0.063239396 0.0991572 7.49636e-05 -0.21021824
00000000: 4ab8 68bb e5e9 88be bf9f c4bd 4ff7 7dbe
00000010: 0b87 fbbd 21f6 f7bd b279 54be 8908 68be
00000020: fb04 8dbe b3e0 393e 7107 f5be ad3b ccbd
00000030: 0d32 17be 340b f43d 93f3 4ebe b384 eb3d
00000040: 9956 5e3e dbe3 33be ca8a 25be b6a0 5abe
00000050: 3c5b af3e 5e85 eabd 690b 85bd 3a25 2a3c
00000060: fae6 e6bd a374 3e3c 3b0f 19be 5b7d 823d
00000070: 35f9 fbbd f35c 48bd acf2 09be dbd0 fbbd
00000080: dce8 b5be f8b1 30be 66b6 73bc 0c25 f53d
00000090: 4e83 143e 4105 d6bd 3c0d 2e3d bf80 693e
000000a0: b12f 283e 33d4 c6be 5fd7 24be 676f 4dbd
000000b0: 45c0 89bd 26b4 45be 2fdb b9bc 9bf6 f6bc
000000c0: b88f 443c e387 a7bd 8d2b 1cbe 1af7 8cbb
000000d0: fd91 b3bd d57b 43bd 5efc a6be c84c 6bbe
000000e0: b3ad 843d 8ba6 4c3d b52c 27be 32fe 1dbe
000000f0: a52a 17bd 432f 1cbd 45ce 0bbe ab50 103e
00000100: 2f25 96be eb4b babe 94b1 67bd 6f74 65be
00000110: 53a0 6d3e 98f6 e5bc 1cb4 66be fe56 d33c
00000120: ac57 8e3e 33a9 0bbe 8541 87be afd1 91be
00000130: 7175 7a3d 5042 99be 5438 46bd 27ad 383d
00000140: d4fb 75be c0f0 c6be 2d4c f3bd 1d87 733e
00000150: 8421 59be c4a7 1abe bf8d 39be 83af ebbd
00000160: 60c8 f43d b74f 2dbe dba1 d6bc 8088 0d3c
00000170: 6fae d5bd ea70 a3be 11cc 5ebe c4c1 4c3d
00000180: 056f 81bd 1ff8 91bd 398f 353e 4f1b 25be
00000190: b26c 033e 6604 22bd c139 753e 84e2 acbe
000001a0: 1105 59be 5fca d3bc bd3b 7dbe 81bb 013e
000001b0: 18c5 e6bd 30fd 0e3d 3065 abbd 3b54 0fbd
000001c0: 8977 be3d 16d8 32be 3e4f 61be c2d8 2ebc
000001d0: 749c 2cbe 0af0 b5bd 55aa dcbd 484e d4bc
000001e0: 7b8d 893e 1dcb c0bd ab85 a9be 420c 08be
000001f0: a883 813d ee12 cb3d c735 9d38 7343 57be

actor.2.weight f4 [128, 128]
-0.10814895 0.008989538 0.018431187 -0.015986921 -0.025733784 -0.086972 -0.19776759 -0.03884576
0.023000853 0.13258092 -0.09295046 0.0027427366 0.014090483 0.099979065 0.13388525 -0.046597596
0.18432368 0.007009036 0.037655767 0.0037287602 0.15154512 -0.07350381 -0.08839298 -0.007955603
0.038494065 0.14963123 0.025357166 0.08094999 -0.053486478 -0.033086196 -0.011482186 0.03878905
-0.18192013 -0.062320594 0.08659835 -0.2526036 -0.022975672 -0.16662486 0.009443651 -0.06996555
0.033425435 -0.22877276 0.0984025 0.09625151 0.082132496 0.0542478 -0.08931962 0.074597575
-0.083506286 0.008861812 -0.16870715 0.003991558 0.04651364 -0.017459715 -0.07048527 -0.043369975
0.11393877 -0.06982439 -0.00032210955 -0.1642998 -0.0138428835 0.026201032 0.03493561 0.06760308
-0.055851966 0.013951361 0.057242822 -0.053175554 -0.03182362 -0.08372141 -0.10080292 -0.08842633
-0.11696882 -0.009461931 -0.14055794 -0.11659793 -0.13577212 0.015342235 -0.04665618 0.050029103
-0.12856644 -0.04510376 0.04375087 0.037245624 0.09436546 0.11114089 -0.15347573 0.0010362262
0.022392562 -0.0201709 -0.101899385 -0.06992501 -0.06551329 0.05310798 0.0064754533 0.078611456
-0.05168897 -0.035311345 -0.09884932 0.051404353 0.024201524 -0.12358272 0.09386537 0.00034474296
-0.106757335 0.0378005 0.0529286 -0.016292553 0.056374285 0.0021266225 0.07926233 -0.11512605
0.09662745 -0.08282637 0.0034275781 0.0071289423 -0.23519257 -0.19160241 -0.032448024 0.09615046
0.07682256 -0.051736627 -0.19116776 0.044489685 -0.03834147 0.0054619783 -0.053507153 -0.094387084
-0.06994844 0.029571485 0.11852571 -0.030165445 0.09658059 0.028374627 0.03665428 -0.04897423
-0.055115096 0.19126807 -0.11195266 -0.20143658 -0.11141287 0.018389378 -0.10706791 -0.07133764
-0.31615457 0.02269118 -0.22586387 0.017877724 0.07407257 0.0018683675 -0.039666414 0.016222151
-0.057440195 -0.2109189 0.13082175 -0.21479863 0.056757852 -0.099744685 -0.06938751 0.038771357
-0.060750946 0.025413055 0.07849587 -0.040240552 -0.096433595 -0.17312402 -0.0062524974 0.07141753
0.076490335 0.14245494 -0.06765144 0.22793603 -0.03471673 -0.09268184 0.081884645 -0.14470044
-0.110173345 0.010728294 0.062483545 -0.040155992 0.040769402 -0.00559061 -0.055092838 -0.1105021
-0.10370225 0.056597233 0.030903276 -0.15973505 -0.12299812 -0.014710807 0.087310955 -0.23203452
-0.13249229 -0.09748018 0.0649085 0.11474804 -0.018589895 0.094901696 -0.04004898 -0.0050201714
-0.06057028 -0.11585704 -0.04821783 0.22323607 0.08245692 0.083885506 0.13243988 0.022380365
0.07113017 0.04079968 -0.07602527 -0.00054095476 0.057426594 0.021879083 0.028098026 0.17263697
-0.15910992 -0.050936364 -0.002703736 -0.12823026 -0.10715681 -0.19809343 -0.00014197985 -0.09061403
-0.105625205 -0.099741615 -0.060217846 0.11170993 -0.08855602 -0.09138273 -0.25618607 -0.063938595
0.11794256 -0.0031382022 0.022882191 -0.052734893 -0.030087104 0.00071978173 -0.0059147454 -0.13262495
-0.025665058 -0.013135321 0.20649207 -0.13923556 -0.058292773 -0.019538904 0.010653614 0.020386225
-0.09447664 0.008112816 0.1207617 -0.011422842 -0.12156376 0.060140405 0.0469454 -0.1285592
00000000: 327d ddbd db48 133c 00fd 963c 01f7 82bc
00000010: a8cf d2bc 601e b2bd 9683 4abe bb1c 1fbd
00000020: 496c bc3c 4bc3 073e d05c bebd 7cbf 333b
00000030: c5db 663c d3c1 cc3d 3719 093e 1fdd 3ebd
00000040: 59bf 3c3e 0eac e53b ef3c 1a3d 375e 743b
00000050: a52e 1b3e 2a89 96bd 6107 b5bd 3858 02bc
00000060: f4ab 1d3d ee38 193e d5b9 cf3c 1cc9 a53d
00000070: a314 5bbd 6485 07bd c71f 3cbc 44e1 1e3d
00000080: 4549 3abe e143 7fbd 7a5a b13d 4255 81be
00000090: 7a37 bcbc b59f 2abe 8bb9 1a3c 194a 8fbd
000000a0: 1ce9 083d 6843 6abe 4087 c93d 831f c53d
000000b0: 1535 a83d f132 5e3d 34ed b6bd 9dc6 983d
000000c0: 5805 abbd 2231 113c 91c1 2cbe 9ecb 823b
000000d0: 1685 3e3d ad07 8fbc 955a 90bd b7a4 31bd
000000e0: bb58 e93d 1700 8fbd d0e0 a8b9 353e 28be
000000f0: 43cd 62bc 8ca3 d63c a418 0f3d 7c73 8a3d
00000100: 08c5 64bd 4094 643c 7377 6a3d 9cce 59bd
00000110: 7c59 02bd 2176 abbd c371 cebd dd18 b5bd
00000120: 598d efbd 3706 1bbc 6cee 0fbe e5ca eebd
00000130: d907 0bbe ff5d 7b3c 8d1a 3fbd 51eb 4c3d
00000140: eca6 03be b8be 38bd 1d34 333d de8e 183d
00000150: ae42 c13d d69d e33d be28 1dbe fbd1 873a
00000160: 9b70 b73c 713d a5bc a0b0 d0bd d834 8fbd
00000170: d52b 86bd c187 593d 0a30 d43b 0bff a03d
00000180: d0b7 53bd a1a2 10bd 8371 cabd 5f8d 523d
00000190: 4642 c63c f018 fdbd 7d3c c03d 9ebe b439
000001a0: 97a3 dabd b2d4 1a3d a9cb 583d f677 85bc
000001b0: b9e8 663d ce5e 0b3b 4a54 a23d 35c7 ebbd
000001c0: 9de4 c53d dfa0 a9bd 38a1 603b e799 e93b
000001d0: 52d6 70be 6c33 44be 38e8 04bd 88ea c43d
000001e0: 2555 9d3d c9e9 53bd 7bc1 43be d13a 363d
000001f0: f20b 1dbd 65fa b23b 512a 5bbd 044e c1bd
00000200: 2141 8fbd e63f f23c 9cbd f23d 861d f7bc
00000210: 0bcc c53d e871 e83c cc22 163d 3499 48bd
00000220: 5ec0 61bd c7db 433e 7047 e5bd 6445 4ebe
00000230: 6e2c e4bd 52a5 963c 6c46 dbbd 7819 92bd
00000240: 03df a1be dbe2 b93c dc48 67be 4e74 923c
00000250: 5cb3 973d 03e4 f43a 4079 22bd 51e4 843c
00000260: 6946 6bbd 20fb 57be 23f6 053e 2cf4 5bbe
00000270: ec7a 683d f146 ccbd 0a1b 8ebd b7ce 1e3d
00000280: fcd5 78bd 0a2f d03c 71c2 a03d 47d3 24bd
00000290: fa7e c5bd 6c47 31be c0e1 ccbb 5b43 923d
000002a0: f7a6 9c3d b5df 113e d78c 8abd 1068 693e
000002b0: 2133 0ebd facf bdbd 23b3 a73d 5a2c 14be
000002c0: 90a2 e1bd bac5 2f3c bfee 7f3d 9c7a 24bd
000002d0: d1fd 263d 7031 b7bb 07a9 61bd ed4e e2bd
000002e0: d861 d4bd 80d2 673d de28 fd3c 9691 23be
000002f0: 70e6 fbbd 9905 71bc 16d0 b23d 759a 6dbe
00000300: 0fac 07be b0a3 c7bd bfee 843d 0501 eb3d
00000310: d649 98bc d25b c23d 660a 24bd 4080 a4bb
00000320: 8b18 78bd 7546 edbd 0f80 45bd ff97 643e
00000330: 2cdf a83d 2acc ab3d 529e 073e 0757 b73c
00000340: b2ac 913d 911d 273d 23b3 9bbd dcce 0dba
00000350: 2638 6b3d c33b b33c d52d e63c bfc7 303e
00000360: b6ed 22be a6a2 50bd 2a31 31bb cb4e 03be
00000370: 0875 dbbd 01d9 4abe 6de0 14b9 d993 b9bd
00000380: 0752 d8bd 5545 ccbd fda6 76bd 2dc8 e43d
00000390: dc5c b5bd de26 bbbd d22a 83be 3df2 82bd
000003a0: de8b f13d 4caa 4dbb 6f73 bb3c 8b00 58bd
000003b0: 3b79 f6bc bcaf 3c3a 7bd0 c1bb d6ce 07be
000003c0: 873f d2bc 8835 57bc a872 533e c493 0ebe
000003d0: 67c4 6ebd 0d10 a0bc 7f8c 2e3c 0301 a73c
000003e0: f87c c1bd 9eeb 043c e951 f73d df26 3bbc
000003f0: 6cf6 f8bd c955 763d d249 403d 06a5 03be

actor.2.bias f4 [128]
0.13567719 -0.18858832 -0.28487575 -0.2660089 0.052578207 -0.39593068 -0.04171706 0.009383037
-0.06945543 -0.022984972 -0.14035253 -0.09981217 -0.06267362 -0.13837793 -0.20511921 -0.04252272
0.040926494 -0.13980491 0.0007904998 0.06969348 -0.23890853 -0.12536474 -0.22068515 -0.13235773
0.0141617125 -0.08562479 0.067276776 -0.15879676 -0.008528651 -0.021039603 -0.20023905 0.11389488
-0.06589872 -0.014942263 0.064852886 -0.21885984 -0.12337128 -0.015685093 0.026528869 -0.24661615
-0.17512794 0.010459498 0.027104378 -0.025230726 -0.13757141 -0.105473995 -0.21475941 -0.15719585
-0.048942592 -0.26817355 0.04868141 -0.0214912 -0.22159785 0.2235036 -0.01036135 -0.18500397
-0.09669049 -0.28585148 -0.031702567 -0.17582786 -0.1363649 -0.009622166 -0.17775503 -0.11480782
-0.1834102 -0.1652451 0.05321333 -0.20890154 -0.00013636984 -0.114980035 -0.17468981 -0.054280363
0.16373342 -0.44468817 0.07931412 -0.02047187 -0.046968345 -0.1506402 -0.049584914 -0.11675861
-0.40303725 -0.1662821 -0.079748616 0.048334736 -0.0042037955 -0.01866615 -0.33405182 0.024231311
-0.2678479 0.07197317 -0.15556656 -0.033402797 -0.2468418 -0.2655988 -0.0052326354 0.091363415
-0.08306365 -0.14301825 0.07919864 0.20314808 0.0333165 -0.08594624 -0.16169453 -0.2508427
-0.07976573 0.08796604 -0.23085482 -0.19989446 -0.22493902 0.06286622 -0.325974 -0.15753096
-0.12701863 -0.14827567 -0.067361414 -0.18416263 -0.014867916 -0.10439496 -0.12516227 -0.21945465
-0.028376173 0.12757155 -0.16212556 -0.016694985 -0.15965545 -0.14028074 -0.1621166 -0.17131887
00000000: f6ee 0a3e 4c1d 41be 3cdb 91be 5232 88be
00000010: 3f5c 573d 6db7 cabe 82df 2abd 4fbb 193c
00000020: a63e 8ebd fb4a bcbc 93b8 0fbe 536a ccbd
00000030: 075b 80bd f2b2 0dbe c50a 52be 4e2c 2ebd
00000040: 8aa2 273d 0529 0fbe 8b39 4f3a 75bb 8e3d
00000050: 70a4 74be 9d5f 00be 4afb 61be c988 07be
00000060: 8706 683c 0d5c afbd 68c8 893d 9e9b 22be
00000070: c1bb 0bbc 3f5b acbc 770b 4dbe b841 e93d
00000080: e8f5 86bd 65d0 74bc 97d1 843d cb1c 60be
00000090: 15aa fcbd 067e 80bc 1253 d93c f288 7cbe
000000a0: bd54 33be 505e 2b3c 000a de3c abb0 cebc
000000b0: 85df 0cbe c002 d8bd e4e9 5bbe f3f7 20be
000000c0: 0778 48bd 0b4e 89be 2866 473d 500e b0bc
000000d0: 8cea 62be 21de 643e a7c2 29bc ae71 3dbe
000000e0: aa05 c6bd 205b 92be 8dda 01bd 380c 34be
000000f0: 3ea3 0bbe 4aa6 1dbc 6a05 36be 5d20 ebbd
00000100: e2cf 3bbe 0336 29be 39f6 593d 49ea 55be
00000110: 80fe 0eb9 a77a ebbd e3e1 32be 1655 5ebd
00000120: bca9 273e 2bae e3be 716f a23d a0b4 a7bc
00000130: e161 40bd 6d41 1abe 8d19 4bbd 231f efbd
00000140: e65a cebe db45 2abe 3e53 a3bd a5fa 453d
00000150: febf 89bb c1e9 98bc d708 abbe be80 c63c
00000160: 5c23 89be ab66 933d d74c 1fbe 5fd1 08bd
00000170: 19c4 7cbe 91fc 87be 8776 abbb be1c bb3d
00000180: 461d aabd 6073 12be e632 a23d 0d06 503e
00000190: e276 083d 9504 b0bd 4093 25be 746e 80be
000001a0: 375c a3bd 8a27 b43d 3565 6cbe 22b1 4cbe
000001b0: 6a56 66be 01c0 803d 10e6 a6be cc4f 21be
000001c0: 2c11 02be 94d5 17be c8f4 89bd 2195 3cbe
000001d0: 8f98 73bc 06cd d5bd 8a2a 00be b8b8 60be
000001e0: 2675 e8bc 1ea2 023e 3e04 26be ecc3 88bc
000001f0: b87c 23be c1a5 0fbe e501 26be 376e 2fbe

actor.4.weight f4 [128, 128]
0.0036648607 -0.027893435 0.045131728 0.023570498 0.081784785 0.04724854 0.02375799 0.12496078
0.06476196 -0.033793632 0.04959413 0.08424783 0.18213537 -0.030181432 -0.18743514 0.0521645
-0.14691497 -0.0915705 -0.08624869 -0.06963041 -0.06420219 0.07808412 -0.09069683 -0.06583509
-0.36383435 -0.016545452 -0.10379411 -0.17194638 -0.15827866 0.06472519 0.08104842 -0.24645595
0.06476468 0.03211468 -0.07003103 0.045827933 0.028160933 0.015506247 0.008209537 0.09084499
0.07344243 -0.17802621 -0.055440076 0.0014311306 0.010986308 0.040456817 0.05995016 -0.009267164
0.096694976 -0.22667812 0.0666901 0.04423724 -0.012478108 -0.06687106 0.019582521 -0.0048106927
0.09538556 -0.05307211 -0.026694791 -0.04826009 0.010725052 0.047644276 -0.11184268 0.16567211
-0.21579538 0.009389179 -0.010372213 -0.02432754 0.08560111 0.10647275 -0.050049566 -0.02242608
-0.006897262 -0.08237281 0.12457355 0.15064418 0.07625356 0.10492091 -0.032044 0.109443456
0.064899236 -0.069923215 -0.03064465 0.0069209323 -0.04696834 0.028943215 0.101905935 0.14617504
0.12915602 0.0046680085 0.022301195 -0.24708751 0.07651282 0.008369935 -0.0017476275 0.037526917
-0.092846274 0.06608219 -0.03853937 0.052639976 0.01834121 -0.050605733 0.058992945 -0.05452585
0.026274957 0.053606346 0.08753197 0.0021669234 0.10801915 0.019499836 0.03296436 0.06488174
-0.07192687 -0.0027725785 -0.14401627 0.037103806 0.079539225 0.064795464 -0.015839549 -0.053058583
0.0070862784 -0.11898145 -0.14411485 0.040974572 0.009503535 0.051744882 -0.018495213 -0.09725255
-0.0943416 0.055807453 0.03138781 -0.068183966 0.051720325 0.054253034 -0.01463259 -0.047725152
-0.07225389 0.07582202 0.013661681 0.025374247 0.019246887 0.043055672 0.095591456 0.032614116
-0.034689225 -0.04334954 0.02310303 0.014216957 -0.1105962 0.07039491 -0.056661587 -0.048655543
-0.036565796 0.0036005417 0.0113751665 -0.012652342 0.00059242087 0.021866117 0.03611198 -0.016220605
0.11424663 0.028682185 0.008646102 0.061132193 0.043763306 0.017764656 -0.026425088 -0.01597694
-0.008758813 0.025632845 -0.016924324 -0.047452576 0.030973585 -0.010737887 -0.04524538 0.06513441
0.016135842 -0.07151126 0.05918961 0.043203205 -0.036399264 -0.064333186 0.00922538 -0.010626068
0.05162889 -0.042246837 0.00709273 0.06481332 0.036454674 -0.09402103 0.043778557 0.018736478
0.01636702 -0.049892213 -0.10241539 -0.018100003 -0.119596764 -0.07364424 -0.11090906 0.09957361
-0.027102051 -0.03200398 0.009802215 0.02114573 0.053475436 -0.049963206 -0.12350984 0.06434987
0.05517857 -0.030377058 -0.007753495 -0.033711806 0.0046833553 0.041669495 -0.026705123 0.008124079
0.01657993 -0.02694105 -0.037169423 0.029487247 -0.060139414 0.0061626635 0.09363536 -0.015089467
0.029503807 -0.0041472316 -0.012712883 0.09912492 -0.06886561 0.060341302 0.025430549 -0.030307459
0.02250576 0.011955717 0.06433362 0.028398514 -0.05369755 0.009830284 0.02326063 -0.048388287
-0.020702198 0.026863879 0.040020145 -0.0745579 -0.028809378 0.014428508 -0.065498754 0.008934659
0.031087765 -0.03240611 0.028524956 0.005181612 -0.053482156 0.068953715 0.033219244 0.019895127
00000000: 292e 703b c680 e4bc 0cdc 383d eb16 c13c
00000010: c87e a73d af87 413d 1ea0 c23c 70eb ff3d
00000020: eba1 843d 316b 0abd 3723 4b3d 208a ac3d
00000030: b281 3a3e 0d3f f7bc ffee 3fbe 71aa 553d
00000040: e170 16be 5089 bbbd 27a3 b0bd 639a 8ebd
00000050: 707c 83bd 91ea 9f3d 42bf b9bd 8cd4 86bd
00000060: 7f48 babe 548a 87bc 0292 d4bd b612 30be
00000070: cd13 22be a48e 843d b7fc a53d f35e 7cbe
00000080: 58a3 843d af8a 033d 6e6c 8fbd 12b6 3b3d
00000090: c2b1 e63c ea0d 7e3c 4b81 063c f00c ba3d
000000a0: fc68 963d 814c 36be 2215 63bd c694 bb3a
000000b0: eaff 333c 0cb6 253d 4d8e 753d 4ed5 17bc
000000c0: 0408 c63d 4f1e 68be d294 883d 1c32 353d
000000d0: fa70 4cbc b2f3 88bd 866b a03c 04a3 9dbb
000000e0: 8159 c33d 2462 59bd 09af dabc 5fac 45bd
000000f0: 21b8 2f3c a526 433d c60d e5bd f3a5 293e
00000100: 77f9 5cbe 12d5 193c 37f0 29bc 8d4a c7bc
00000110: a24f af3d 630e da3d c600 4dbd e6b6 b7bc
00000120: 6d02 e2bb 13b3 a8bd 6b20 ff3d 7842 1a3e
00000130: d42a 9c3d c6e0 d63d 9240 03bd e423 e03d
00000140: e4e9 843d e733 8fbd 7d0a fbbc fdc8 e23b
00000150: e061 40bd 521a ed3c 0fb4 d03d e9ae 153e
00000160: 7a41 043e 18f6 983b ffb0 b63c 8204 7dbe
00000170: c1b2 9c3d 0d22 093c a610 e5ba d3b5 193d
00000180: 3026 bebd 1956 873d 75db 1dbd 049d 573d
00000190: 4e40 963c f547 4fbd 96a2 713d 7f56 5fbd
000001a0: 943e d73c 5492 5b3d f643 b33d f102 0e3b
000001b0: 2539 dd3d 1fbe 9f3c a305 073d b8e0 843d
000001c0: 654e 93bd 26b4 35bb 0079 13be 29fa 173d
000001d0: 76e5 a23d 7cb3 843d f1c1 81bc f553 59bd
000001e0: 0334 e83b 8cac f3bd d892 13be f4d4 273d
000001f0: b7b4 1b3c 71f2 533d 4683 97bc 582c c7bd
00000200: 2b36 c1bd 5b96 643d 8190 003d 09a4 8bbd
00000210: b1d8 533d 6e38 5e3d 88bd 6fbc 737b 43bd
00000220: d9f9 93bd 9348 9b3d 3ed5 5f3c a7dd cf3c
00000230: a6ab 9d3c 255b 303d 74c5 c33d 6196 053d
00000240: 4a16 0ebd 4a8f 31bd 9142 bd3c 3dee 683c
00000250: 4380 e2bd 352b 903d fb15 68bd 094b 47bd
00000260: 04c6 15bd 11f7 6b3b e85e 3a3c c54b 4fbc
00000270: b14c 1b3a 9220 b33c 28ea 133d 13e1 84bc
00000280: 23fa e93d e7f6 ea3c 61a8 0d3c c065 7a3d
00000290: 2741 333d 2f87 913c 6d79 d8bc 12e2 82bc
000002a0: 2081 0fbc f9fb d13c e1a4 8abc a25d 42bd
000002b0: 51bc fd3c f6ed 2fbc 3853 39bd 3165 853d
000002c0: 502f 843c 7f74 92bd ce70 723d d8f5 303d
000002d0: 6517 15bd 1ec1 83bd 0c26 173c f618 2ebc
000002e0: d178 533d 050b 2dbd 226a e83b d9bc 843d
000002f0: 7f51 153d 198e c0bd 2551 333d 3e7d 993c
00000300: 2114 863c c75b 4cbd 29bf d1bd 7546 94bc
00000310: 26ef f4bd cbd2 96bd 4a24 e3bd 40ed cb3d
00000320: 1f05 debc 9b16 03bd 7899 203c cf39 ad3c
00000330: 0f09 5b3d 38a6 4cbd baf2 fcbd ddc9 833d
00000340: ed02 623d 4fd9 f8bc 0811 febb 6415 0abd
00000350: d576 993b a2ad 2a3d b4c4 dabc db1a 053c
00000360: a2d2 873c 7ab3 dcbc f73e 18bd 3d8f f13c
00000370: bf54 76bd 2bf0 c93b e5c3 bf3d d039 77bc
00000380: f8b1 f13c 80e5 87bb b249 50bc 0202 cb3d
00000390: 6a09 8dbd 7128 773d ba53 d03c 5947 f8bc
000003a0: 005e b83c e9e1 433c 58c1 833d 00a4 e83c
000003b0: f6f1 5bbd 330f 213c 148d be3c cc32 46bd
000003c0: a897 a9bc a311 dc3c 2aec 233d d0b1 98bd
000003d0: a501 ecbc 8c65 6c3c 3624 86bd ad62 123c
000003e0: c5ab fe3c 45bc 04bd 2bad e93c 83ca a93b
000003f0: 1b10 5bbd 9b37 8d3d e710 083d 1bfb a23c

actor.4.bias f4 [128]
-0.01614307 0.04245496 -0.15246013 0.082969934 -0.030145708 0.062114477 -0.03322037 -0.018282855
-0.12214023 -0.2574504 -0.20931935 -0.01947248 -0.17899016 -0.16118191 0.12906079 -0.2235096
0.06943404 0.038650796 -0.26591945 0.068116955 -0.13794272 0.11574585 -0.09182207 0.041953318
0.07549667 -0.09923015 -0.04404461 -0.07574467 -0.35269597 0.06864625 -0.06926265 -0.00018353206
0.017737817 0.24911974 0.16099752 0.0141713945 -0.015521465 0.1039311 -0.030992951 0.01326293
-0.024680441 -0.027837362 -0.44682127 -0.10972743 -0.049153898 -0.25258806 -0.005926062 -0.55828726
-0.039585352 0.00015412096 -0.19435127 0.06316714 -0.034453798 -0.0513527 -0.016380534 -0.03356486
-0.09302872 -0.13459133 -0.013544348 -0.04347366 -0.06309043 -0.07800195 -0.03248766 -0.020987298
-0.11782788 0.049361814 0.041931175 0.058464237 0.030046817 0.035235476 0.006594974 -0.40225762
0.03259855 0.04555638 -0.07152197 -0.15315086 -0.024401598 0.005863465 0.037006073 -0.0038864913
-0.13312916 -0.08238772 0.17947339 -0.074804775 -0.06630234 -0.15094364 0.11319153 0.13453272
0.13320625 -0.09561151 0.08123503 0.008872795 -0.55957866 -0.058848243 -0.2553446 -0.0813808
-0.05313964 -0.041298218 -0.12794033 -0.027274244 -0.06540743 -0.04628144 -0.28712952 0.0016295885
-0.095901325 0.09680786 -0.14662434 0.100867085 0.008504461 -0.015397008 -0.132662 -0.06410739
-0.059155945 -0.0898774 0.11808577 0.10488454 -0.016145956 -0.13805985 -0.062916905 0.16521055
0.030501494 0.024762608 0.00023346003 0.04578498 0.17857721 -0.15560783 -0.106759496 0.07892301
00000000: 793e 84bc 41e5 2d3d 821e 1cbe 24ec a93d
00000010: 22f4 f6bc c06b 7e3d 1512 08bd edc5 95bc
00000020: a824 fabd 8ad0 83be d057 56be c084 9fbc
00000030: 3249 37be df0c 25be 8328 043e b3df 64be
00000040: 6f33 8e3d 4c50 1e3d 9826 88be e780 8b3d
00000050: db40 0dbe 290c ed3d 360d bcbd 3ed7 2b3d
00000060: 009e 9a3d 2d39 cbbd 1f68 34bd 0620 9bbd
00000070: 9194 b4be 6896 8c3d 94d9 8dbd 8372 40b9
00000080: e64e 913c 3f19 7f3e 89dc 243e 232f 683c
00000090: be4d 7ebc d4d9 d43d eee4 fdbc c34c 593c
000000a0: a32e cabc 2e0b e4bc c2c5 e4be c6b8 e0bd
000000b0: 9955 49bd 3953 81be 692f c2bb eaeb 0ebf
000000c0: 4024 22bd 889b 2139 0504 47be c65d 813d
000000d0: 6d1f 0dbd 3557 52bd 7830 86bc 4e7b 09bd
000000e0: d785 bebd 4fd2 09be 1de9 5dbc 7011 32bd
000000f0: 8e35 81bd 7dbf 9fbd c811 05bd 8eed abbc
00000100: be4f f1bd 9d2f 4a3d 06c0 2b3d 3278 6f3d
00000110: be24 f63c 1353 103d a71a d83b b6f4 cdbe
00000120: 0f86 053d 5499 3a3d 1c7a 92bd 94d3 1cbe
00000130: dce5 c7bc 4f22 c03b ae93 173d 81b4 7ebb
00000140: 0353 08be e5ba a8bd dfc7 373e 3f33 99bd
00000150: 85c9 87bd f890 1abe f6d0 e73d f2c2 093e
00000160: 3867 083e f8cf c3bd 8d5e a63d 335f 113c
00000170: 8c40 0fbf db0a 71bd 87bc 82be faaa a6bd
00000180: f3a8 59bd 5228 29bd ca02 03be 3c6e dfbc
00000190: 55f4 85bd 9b91 3dbd a402 93be eb97 d53a
000001a0: ea67 c4bd 3343 c63d b124 16be 6793 ce3d
000001b0: 4b56 0b3c bb43 7cbc 8cd8 07be bc4a 83bd
000001c0: 814d 72bd a411 b8bd f4d6 f13d b5cd d63d
000001d0: 8644 84bc 905f 0dbe 94da 80bd f42c 293e
000001e0: 45de f93c f4da ca3c f3cc 7439 0889 3b3d
000001f0: f2dc 363e a957 1fbe b9a4 dabd 63a2 a13d

actor.6.weight f4 [8, 128]
0.13706629 0.008027636 0.066138655 0.013845356 -0.0030953921 0.026404008 -0.03030754 0.02083218
-0.010763031 -0.071459636 0.0065372386 0.000623372 -0.0027778887 -0.019421527 0.0036535412 0.012949555
-0.0018780229 0.033975273 -0.024619896 0.012343815 -0.0009687688 0.030965185 -0.024678538 0.0028959713
-0.001530413 -0.0554728 0.055776007 -0.0050707 -0.10591344 0.0031551637 0.0036094522 0.022752477
-0.016597694 0.098036855 -0.008666748 -0.00010979966 -0.00047694525 0.017849714 -0.026538303 0.019347277
-0.0153096495 0.08432286 -0.18161501 0.0011519964 -0.0021730142 -0.095703125 0.0021179141 -0.17577769
-0.013803165 0.0013692285 -0.0054943003 -0.009864058 0.0014016223 0.00056141557 0.060228117 0.016211499
-0.011875391 -0.01728067 0.026129654 0.021848451 -0.010461401 0.0032910903 0.048529916 0.008967698
-0.01025919 0.024359463 -0.009971584 -0.00047973212 0.0010801489 0.0065227035 -0.011861134 -0.119450085
0.0039202366 -0.0035534129 0.009861722 -0.028495818 0.00019120885 -0.005634398 0.009723261 0.025250198
0.005885179 -0.00419627 0.023082152 0.007173637 -0.03599698 0.055817977 -0.008733066 -0.0065032043
-0.015859624 0.013625108 0.0006689157 -4.5436274e-05 -0.14306995 -0.03387887 -0.0057453834 -0.008275955
0.012920843 0.0015020679 -0.0008737241 0.015926214 0.011251183 -0.0066550975 -0.08495358 -0.012036295
-0.019186351 -0.025460958 -0.005614357 -0.032560654 0.00018932855 0.010479369 -0.0052843294 -0.01837531
-0.018524079 -0.01964487 0.019638808 -0.0068859933 -0.007209695 -0.0009392238 0.0059454055 0.00979343
-0.0034740686 -0.0040677586 -0.01848371 0.0019186945 0.055858128 0.007063282 0.080014504 0.00781853
0.030986382 0.02007335 0.09240955 -0.010093014 0.02099321 -0.11901823 -0.026295086 -0.01563351
0.025547393 -0.010487066 -0.0062047048 -0.01596404 0.0026785943 0.016357804 -0.02264748 0.053998653
0.0021409153 0.070388526 0.008111063 -0.023218295 -0.0058979345 -0.043263033 0.0123132365 0.0034610003
0.0074315956 0.016249925 -0.07718542 -0.002397528 0.04149426 -0.0016884791 0.015542038 0.02916225
-0.03329774 -0.088232554 -0.0044279452 5.6374727e-05 -0.0038097894 0.017341854 -0.0203508 0.004018499
0.008716652 0.041385967 0.11247867 -0.009854597 0.0041848375 -0.049569163 -0.02443479 0.052476414
0.008116641 0.03402105 0.023961678 0.0014326831 -0.00012462157 0.0026208363 0.005844634 -0.011071667
0.000105293475 -0.018680252 -0.055967357 -0.034376357 0.040531766 0.010078566 0.112059996 -0.009608737
-0.011501284 0.0031003887 0.025227549 -0.0024928094 0.015031931 0.022314847 -0.011644502 0.08242978
-0.00456053 -0.0036204266 0.015982753 0.008156605 0.022342915 0.037694663 -0.021237347 -0.008114031
-0.0006614823 -0.011062463 -0.009333503 0.007914154 0.08747575 0.060456563 -0.034098163 -0.015384011
0.0012115099 0.008871545 -0.0018680635 0.0051234947 0.16933316 0.024194993 0.044401754 0.037888315
0.0043652346 0.0067089596 0.050389983 0.0006419206 0.004837199 -0.013719088 -0.0693971 0.016284505
0.011616075 -0.03621919 0.0018199575 0.025225157 -0.011289523 0.009278168 0.043874964 -0.05435273
0.019084807 -0.015279158 -0.055339646 -0.025282897 -0.02225648 0.0055953795 0.034863785 -0.034126204
-0.02871978 -0.012950049 0.016364532 0.012620206 -0.005060246 0.1306228 0.13260391 -0.015983026
00000000: 1b5b 0c3e 5986 033c b473 873d a2d7 623c
00000010: 10dc 4abb 384d d83c 8547 f8bc 3fa8 aa3c
00000020: 6d57 30bc 6e59 92bd 5536 d63b c969 233a
00000030: 3d0d 36bb e519 9fbc 4070 6f3b 5f2a 543c
00000040: fe27 f6ba a829 0b3d aaaf c9bc b63d 4a3c
00000050: f9f4 7dba b3aa fd3c a52a cabc 56ca 3d3b
00000060: 2498 c8ba 7237 63bd 6275 643d 1d28 a6bb
00000070: 25e9 d8bd ddc6 4e3b 8f8c 6c3b 6763 ba3c
00000080: e3f7 87bc 8cc7 c83d fafe 0dbc 3e44 e6b8
00000090: 820e fab9 9039 923c db66 d9bc 2e7e 9e3c
000000a0: 53d5 7abc 77b1 ac3d 49f9 39be 96fe 963a
000000b0: 2169 0ebb 0000 c4bd b4cc 0a3b 11ff 33be
000000c0: ac26 62bc af77 b33a 8809 b4bb dc9c 21bc
000000d0: a4b6 b73a f62b 133a c2b1 763d facd 843c
000000e0: 0091 42bc 3190 8dbc db0d d63c 86fb b23c
000000f0: 4c66 2bbc 55af 573b 4ec7 463d 40ed 123c
00000100: 2916 28bc 7f8d c73c db5f 23bc 8e84 fbb9
00000110: c893 8d3a 67bc d53b 3455 42bc 3fa2 f4bd
00000120: 5475 803b 60e0 68bb 0f93 213c 1070 e9bc
00000130: 3c7f 4839 c2a0 b8bb 504e 1f3c 81d9 ce3c
00000140: 76d8 c03b dd80 89bb c816 bd3c d410 eb3b
00000150: 9271 13bd 64a1 643d 2215 0fbc d518 d5bb
00000160: 0bec 81bc d83b 5f3c 2c5a 2f3a d492 3eb8
00000170: ee80 12be 92c4 0abd c543 bcbb df97 07bc
00000180: f2b1 533c 09e1 c43a a20a 65ba b177 823c
00000190: e256 383c 0113 dabb 24fc adbd e133 45bc
000001a0: b22c 9dbc 8093 d0bc a4f8 b7bb 525e 05bd
000001b0: 7f86 4639 a9b1 2b3c 2b28 adbb d187 96bc
000001c0: cfbf 97bc 47ee a0bc 91e1 a03c e6a3 e1bb
000001d0: 4e3f ecbb 3e36 76ba add1 c23b 9f74 203c
000001e0: 33ad 63bb d54a 85bb 266b 97bc b47c fb3a
000001f0: 7ecb 643d 1b73 e73b a5de a33d 4b19 003c
00000200: 27d7 fd3c de70 a43c 3841 bd3d 2b5d 25bc
00000210: f4f9 ab3c d4bf f3bd cb68 d7bc d911 80bc
00000220: c448 d13c f1d1 2bbc d650 cbbb 05c7 82bc
00000230: 5b8b 2f3b cd00 863c 3587 b9bc b12d 5d3d
00000240: 994e 0c3b dc27 903d 44e4 043c 4b34 bebc
00000250: 7643 c1bb 9434 31bd 75bd 493c f3d1 623b
00000260: be84 f33b 901e 853c 6413 9ebd d81f 1dbb
00000270: e3f5 293d f54f ddba 08a4 7e3c ace5 ee3c
00000280: 3663 08bd 45b3 b4bd 4c18 91bb e773 6c38
00000290: a9ad 79bb 8110 8e3c b9b6 a6bc 9dad 833b
000002a0: 4ad0 0e3c 5584 293d 385b e63d 2d75 21bc
000002b0: f620 893b 0909 4bbd 782b c8bc 82f1 563d
000002c0: a9fb 043c a859 0b3d 484b c43c dec8 bb3a
000002d0: d9ac 02b9 56c2 2b3b 5884 bf3b f065 35bc
000002e0: 01d1 dc38 5407 99bc 073e 65bd 39ce 0cbd
000002f0: a304 263d 9220 253c b67f e53d f76d 1dbc
00000300: e26f 3cbc e42f 4b3b 01aa ce3c 675e 23bb
00000310: 7d48 763c a0cd b63c 95c8 3ebc f2d0 a83d
00000320: 8070 95bb ae44 6dbb 43ee 823c 48a3 053c
00000330: 7d08 b73c b865 1a3d f2f9 adbc b6f0 04bc
00000340: 5367 2dba 553f 35bc 8deb 18bc 5eaa 013c
00000350: 7c26 b33d 4da1 773d 84aa 0bbd 380d 7cbc
00000360: 87cb 9e3a f559 113c cfd9 f4ba fde2 a73b
00000370: ac65 2d3e 9434 c63c 9dde 353d c730 1b3d
00000380: 3e0a 8f3b d5d6 db3b ba65 4e3d 9046 283a
00000390: 5e81 9e3b 07c6 60bc 1120 8ebd 1567 853c
000003a0: 5a51 3e3c 935a 14bd a48b ee3a fda4 ce3c
000003b0: b1f7 38bc 7503 183c 3cb6 333d f8a0 5ebd
000003c0: be57 9c3c 6f55 7abc d3ab 62bd 141e cfbc
000003d0: 3953 b6bc 7259 b73b 54cd 0e3d ebc7 0bbd
000003e0: be45 ebbc 712c 54bc e90e 863c fbc4 4e3c
000003f0: 6cd0 a5bb fcc1 053e 52c9 073e d6ee 82bc

actor.6.bias f4 [8]
0.4034431 -0.24602686 -0.091404624 0.36508358 0.07264136 0.040471468 -0.09785135 -0.05275514
00000000: 1890 ce3e 77ee 7bbe 5932 bbbd 3cec ba3e
00000010: fec4 943d 69c5 253d 4a66 c8bd c615 58bd

critic.0.weight f4 [128, 31]
0.16250269 -0.009621719 -0.44584715 -0.053051464 0.044013616 0.0260076 -0.06331467 -0.07231986
0.35727 0.34040377 0.2517715 0.7510655 -0.6239436 -0.09980657 0.9767378 0.04135094
-0.025007032 -0.034946978 0.08744364 -0.009023587 0.012332211 0.0085299 0.016793096 0.02675332
0.057956684 -0.0063447575 -0.0016569147 0.17232944 -0.14311409 -0.14037171 -0.1902792 0.17329225
-0.0999334 0.104878865 -0.022811646 0.16936891 -0.1369696 -0.06746673 0.018814024 0.2105984
0.09402591 -0.6030527 0.08348024 0.10813661 -0.06964751 0.039477315 -0.14572228 0.037878394
-0.08003995 -0.14338815 -0.01420158 -0.0037478518 0.05269011 -0.011640373 0.17770822 -0.035062574
0.16336887 0.25064427 -0.044253454 0.068399504 -0.09253945 0.06130348 -0.13555536 0.039932057
0.4876295 0.2143625 0.05575817 0.25728852 -0.09148662 0.055402525 0.06195137 -1.0244926
0.4749211 0.14597414 -0.106827684 -0.2076806 0.4361182 -0.077813454 0.044302728 0.020446943
0.043502916 -0.0045647477 -0.017455714 0.009734424 0.019788856 0.07451717 0.17326674 -0.10752967
-0.08484332 0.035615604 0.11093713 -0.2313329 -0.12108318 0.022903131 0.028440902 0.008195357
0.05219831 -0.13042817 0.0446734 0.10191456 -0.026646324 0.0852216 0.28731847 0.47778895
0.045041364 -0.09256294 0.056648463 0.15055817 -0.027089575 0.023193056 0.053693824 -0.03588405
0.052511618 0.06323428 -0.03824679 0.07065155 0.055542562 0.04823522 -0.14951667 -0.17057177
-0.09731191 0.015239668 0.015716901 -0.105359174 -0.03248866 0.15348807 -0.0020053568 -0.23507597
0.293615 0.009021044 -0.1677593 -0.09296315 0.091700904 0.17428516 0.73847175 0.63065463
-0.020720094 -0.3449839 0.4042715 0.13005254 -0.098425984 -0.05943995 0.16440305 0.008434038
0.016739327 -0.033713035 -0.0073264823 0.024119398 0.11290908 -0.049487684 0.09810544 0.048066378
-0.16490155 0.17160691 0.15254515 -0.23138441 -0.0984895 -0.040411722 -0.056567296 0.017129453
-0.014942037 0.14734201 -0.23749869 0.12413568 0.6587734 0.6820765 0.17694636 0.2811412
0.17069212 -0.3804102 0.015225724 -0.021513276 0.061069727 -0.013273381 0.015342587 0.0069049965
-0.053209323 0.0039617396 -0.0024617962 -0.012439031 -0.14919855 -0.114625216 0.11053925 -0.04890514
-0.090348125 -0.04423068 -0.1506699 -0.06344223 0.048547488 -0.114352636 -0.038622424 -0.039183423
-0.014376912 0.14725526 0.3103752 1.2150707 0.46226767 0.14042279 0.17683262 -0.06285928
-0.16064684 -0.0351181 -0.0006976705 -0.019606069 0.07066216 -0.000208394 -0.0020536056 -0.0026796784
-0.0022897457 0.021570435 -0.048175078 0.0034864494 -0.07264668 -0.026917068 0.04959035 -0.05036487
0.11009456 -0.14338237 -0.2263233 -0.16812447 0.25243983 -0.056071267 0.031402573 0.12321613
0.121226236 -0.10274139 0.8858592 0.25736302 0.26751855 -0.10046089 -0.41300222 0.057955857
0.039739486 0.016985869 0.028424067 -0.0150128305 -0.0020448521 -0.029925128 0.0007226856 0.0024714207
-0.05713618 -0.037318654 -0.014635292 -0.08245424 -0.05332821 0.1970689 0.1542666 -0.10095847
-0.08930446 -0.24528629 0.10522401 -0.08360219 7.634394e-05 0.05142182 0.10730352 0.098255046
00000000: 1b67 263e 6aa4 1dbc 1446 e4be 7e4c 59bd
00000010: 9f47 343d e40d d53c 1fab 81bd 6f1c 94bd
00000020: 18ec b63e 6749 ae3e 32e8 803e d445 403f
00000030: c5ba 1fbf 6367 ccbd 7d0b 7a3f 9a5f 293d
00000040: 8cdb ccbc 9024 0fbd a715 b33d abd7 13bc
00000050: 0b0d 4a3c fec0 0b3c ad91 893c c729 db3c
00000060: fd63 6d3d afe7 cfbb d52c d9ba 2177 303e
00000070: 808c 12be 9abd 0fbe 8dd8 42be 8673 313e
00000080: e2a9 ccbd bbca d63d 7ddf babc 0b6f 2d3e
00000090: c241 0cbe ff2b 8abd de1f 9a3c 1ba7 573e
000000a0: a890 c03d a961 1abf b0f7 aa3d ba76 dd3d
000000b0: 5ba3 8ebd f7b2 213d 3938 15be 6026 1b3d
000000c0: fceb a3bd 58d4 12be bead 68bc 859e 75bb
000000d0: 96d1 573d 43b7 3ebc 25f9 353e c69d 0fbd
000000e0: 2b4a 273e 7254 803e 1c43 35bd 0a15 8c3d
000000f0: 5385 bdbd 5c19 7b3d 06cf 0abe cc8f 233d
00000100: 93aa f93e d881 5b3e ae62 643d 52bb 833e
00000110: 565d bbbd c2ed 623d b8c0 7d3d 9322 83bf
00000120: dc28 f33e 3f7a 153e 79c8 dabd 39aa 54be
00000130: e24a df3e a95c 9fbd c776 353d 5980 a73c
00000140: 1d30 323d e193 95bb 49ff 8ebc 227d 1f3c
00000150: 3d1c a23c 759c 983d d66c 313e 8438 dcbd
00000160: 56c2 adbd abe1 113d 0233 e33d 88e2 6cbe
00000170: 75fa f7bd 599f bb3c e5fc e83c d245 063c
00000180: e5cd 553d f68e 05be 75fb 363d 95b8 d03d
00000190: 6449 dabc aa88 ae3d 681b 933e c1a0 f43e
000001a0: 4b7d 383d a491 bdbd 3808 683d ec2b 1a3e
000001b0: f5ea ddbc 5dff bd3c 0eee 5b3d 27fb 12bd
000001c0: 6c16 573d f980 813d aba8 1cbd c3b1 903d
000001d0: 9980 633d 4b92 453d e61a 19be 5eaa 2ebe
000001e0: 774b c7bd cdaf 793c bbc0 803c 8dc6 d7bd
000001f0: d412 05bd fa2b 1d3e 4e6c 03bb c1b7 70be
00000200: b554 963e 00cd 133c 18c9 2bbe 7763 bebd
00000210: afcd bb3d cf77 323e 7c0c 3d3f 9572 213f
00000220: 30bd a9bc bba1 b0be adfc ce3e 7e2c 053e
00000230: 9093 c9bd 4e77 73bd 4659 283e eb2e 0a3c
00000240: ea20 893c ae16 0abd fd12 f0bb 0b96 c53c
00000250: e03c e73d 99b3 4abd 81eb c83d 40e1 443d
00000260: f4db 28be b9b9 2f3e cc34 1c3e 09f0 6cbe
00000270: ddb4 c9bd c386 25bd 1cb3 67bd 1153 8c3c
00000280: 72cf 74bc d3e0 163e db32 73be d93a fe3d
00000290: 60a5 283f 919c 2e3f 6d31 353e bdf1 8f3e
000002a0: eac9 2e3e 20c5 c2be 5175 793c 9c3c b0bc
000002b0: 4024 7a3d 9878 59bc 795f 7b3c 4f43 e23b
000002c0: 05f2 59bd 7bd1 813b 1656 21bb 14cd 4bbc
000002d0: 81c7 18be a0c0 eabd 6762 e23d c250 48bd
000002e0: 7008 b9bd 3b2b 35bd 3649 1abe 00ee 81bd
000002f0: bbd9 463d b731 eabd 8c32 1ebd cc7e 20bd
00000300: 248d 6bbc 15ca 163e 80e9 9e3e 7087 9b3f
00000310: 59ae ec3e feca 0f3e 9c13 353e 5ebc 80bd
00000320: 9b80 24be ffd7 0fbd e0e3 36ba e89c a0bc
00000330: 53b7 903d 5784 5ab9 c995 06bb 8b9d 2fbb
00000340: 8f0f 16bb 7bb4 b03c 3b53 45bd ea7c 643b
00000350: c8c7 94bd 2f81 dcbc 401f 4b3d 654b 4ebd
00000360: 4279 e13d d4d2 12be 4cc1 67be d228 2cbe
00000370: cb3f 813e fcaa 65bd fc9f 003d bd58 fc3d
00000380: 7645 f83d 146a d2bd abc7 623f 16c5 833e
00000390: 31f8 883e 70be cdbd 0775 d3be 1f63 6d3d
000003a0: dfc5 223d f325 8b3c 97d9 e83c 60f8 75bc
000003b0: ed02 06bb 8b25 f5bc 9c72 3d3a 8ff7 213b
000003c0: a107 6abd 72db 18bd ddc8 6fbc c5dd a8bd
000003d0: ae6e 5abd 6ecc 493e 10f8 1d3e 50c3 cebd
000003e0: 42e5 b6bd 542c 7bbe b07f d73d a037 abbd
000003f0: d71a a038 b09f 523d f3c1 db3d f139 c93d

critic.0.bias f4 [128]
-0.48692584 -0.21114491 0.18754305 0.14360227 0.015370006 -0.25325072 -0.14966626 0.0076253964
-0.16945404 -0.28272712 -0.07950623 -0.24229735 -0.20787883 -0.23136173 -0.07375146 -0.12348831
-0.24587648 -0.30359814 0.12361784 0.039824974 0.11126513 -0.1928556 -0.13528477 -0.37400874
-0.2112153 -0.12614585 -0.034870226 -0.29093546 -0.29773593 -0.046647586 0.077341154 -0.07984781
-0.009598211 0.2575358 0.30565068 -0.22810872 -0.34279191 -0.09274712 -0.049954873 -0.23415418
-0.016683122 0.18065187 -0.22189784 -0.22345674 0.14132556 0.035744168 0.26920104 -0.23893219
-0.21015379 0.06661755 -0.1313438 -0.32448474 -0.26679114 0.051819824 -0.16743775 -0.2382375
0.019076487 -0.19649403 -0.10258242 -0.25935227 -0.10455077 -0.30173567 -0.09852206 -0.26342005
-0.089885525 -0.21321714 -0.024294123 -0.1312199 -0.03515519 0.2150737 -0.30885246 0.18573217
-0.14675578 0.21363477 0.13046391 -0.07363911 0.2530268 -0.13472527 0.10555675 0.07219441
-0.10412271 -0.3049081 -0.09937851 0.19738546 -0.41476107 -0.1498067 0.04406922 0.07682596
0.0914026 0.077604525 -0.18444844 -0.010628894 -0.14484075 -0.02786822 -0.24405648 0.11930807
-0.3165929 -0.17532974 -0.04919673 0.049789507 0.14726028 0.031436324 -0.04555544 -0.010351793
0.002547115 -0.29255846 0.19292025 -0.18447109 -0.0152850915 -0.21472262 -0.39552054 0.078832515
-0.051295478 0.2602692 0.055554878 -0.072492994 -0.049456004 0.29222155 -0.2570055 0.03379152
-0.03531644 0.066752374 0.042993374 -0.06540659 0.13334002 -0.18503681 -0.06828034 -0.09928905
00000000: 584e f9be 5f36 58be 490b 403e 790c 133e
00000010: 7ad2 7b3c 14aa 81be 1d42 19be 76de f93b
00000020: 5c85 2dbe 9cc1 90be 2ad4 a2bd cc1c 78be
00000030: 30de 54be 17ea 6cbe 010b 97bd 70e7 fcbd
00000040: 0bc7 7bbe 3771 9bbe 5a2b fd3d 831f 233d
00000050: f9de e33d f07b 45be 1788 0abe 137e bfbe
00000060: d348 58be 612c 01be 15d4 0ebd 7ef5 94be
00000070: d870 98be 8a11 3fbd 0a65 9e3d 4087 a3bd
00000080: d141 1dbc bbdb 833e 3f7e 9c3e 5595 69be
00000090: 6c82 afbe 34f2 bdbd 7b9d 4cbd 1dc6 6fbe
000000a0: 0bab 88bc cefc 383e 3039 63be d8d1 64be
000000b0: a6b7 103e 7a68 123d b8d4 893e a4aa 74be
000000c0: 8e32 57be c86e 883d fd7e 06be dd22 a6be
000000d0: d998 88be 0641 543d cd74 2bbe 88f4 73be
000000e0: 4b46 9c3c bb35 49be bb16 d2bd d2c9 84be
000000f0: b71e d6bd 197d 9abe efc5 c9bd fede 86be
00000100: e715 b8bd 9855 5abe 7804 c7bc 825e 06be
00000110: e3fe 0fbd 483c 5c3e e921 9ebe 9330 3e3e
00000120: 2647 16be 13c3 5a3e 5598 053e 1ad0 96bd
00000130: bb8c 813e 6cf5 09be 232e d83d aada 933d
00000140: 4a3e d5bd ea1c 9cbe f686 cbbd 6a1f 4a3e
00000150: 905b d4be ed66 19be ed81 343d ee56 9d3d
00000160: 4931 bb3d 1fef 9e3d 0de0 3cbe d024 2ebc
00000170: 2251 14be e54b e4bc f1e9 79be ca57 f43d
00000180: 7718 a2be a489 33be 8382 49bd 15f0 4b3d
00000190: 66cb 163e 60c3 003d 5798 3abd 919a 29bc
000001a0: 80ed 263b 39ca 95be e38c 453e fde5 3cbe
000001b0: 526e 7abc 3fe0 5bbe ab81 cabe f172 a13d
000001c0: 351b 52bd 0142 853e 838d 633d 3577 94bd
000001d0: 6192 4abd 109e 953e 3a96 83be fa68 0a3d
000001e0: f9a7 10bd 78b5 883d d219 303d e4f3 85bd
000001f0: 498a 083e 4a7a 3dbe 90d6 8bbd 0f58 cbbd
