ISAAC_NOGIT/logs/rsl_rl/traquad_flat/2025-09-16_12-53-26/model_100.pt (torch, 925483 bytes, 48 tensors)

std f4 [8]
00000000: a33b 0a3f 0ba6 043f 60dd 0c3f d4e1 0e3f
00000010: 4b3b 4a3f b49b 363f cc26 3f3f 284b 3e3f
0.5399725 0.5181586 0.5502529 0.55813336 0.78996724 0.71331334 0.74668574 0.7433343

actor.0.weight f4 [128, 31]
00000000: 8cbe 03bf a1a1 2abe 4561 84be 3e34 3f3e
00000010: 6e92 923d 9e0c 26be 5926 6b3f 6712 48be
00000020: 36e3 13be f406 213e d97a 693d 98c7 39bf
00000030: deea 44bf 1753 a13f 96ea 5e3e f9c2 533e
00000040: 70c1 debd 2163 a93d 794a 463e 29cb a53d
00000050: a267 1e3e 3213 88bd 8b79 83bd 0ced d5bd
00000060: 91a0 873e 2b44 d4be 8649 953e 4816 8cbb
00000070: 7322 893e 7155 78bd 44ba 2fbd e19f 31be
00000080: 75e4 92be 95bc 5d3e f239 5b3e ff51 94be
00000090: a1cb 3d3e 0979 8a3d cfa9 6cbf 5aa4 993e
000000a0: 1076 f6be 59e5 fd3e a444 bb3c 87b2 80bf
000000b0: 0072 a2be 338f b4bb c143 c7bd f767 00be
000000c0: 7e36 9bbe 6e55 55be 5048 dbbc b541 4a3d
000000d0: d5ea aebc 0309 0b3e 1f79 bf3e 7254 073f
000000e0: 6457 983d 761d 973e 910a babd 63cb 24be
000000f0: 27ca e63d 9c3b 13be 5978 bbbe 9974 34bf
00000100: 1ad6 233d 0029 033f 1863 aabd 1947 73be
00000110: 20f5 603f e90a 0fbf 5a83 58bd 5a7a e43e
00000120: 7b1d 38bf 80d7 81bf fc3c 09bf b912 b03f
00000130: 84d4 63bb 6527 76bd 906d a8bb 4671 c53e
00000140: 0b64 33be 8230 103d 2cd9 f53d 5fec 2f3d
00000150: bc47 3e3c b891 7d3e dd17 2f3e 4e62 703e
00000160: 9f29 29bf ca63 013e af27 3dbd bb53 7ebe
00000170: b7b6 a33e 2ad8 5b3f 6a41 84be 2d81 2e3d
00000180: f8c7 013d 439d 9cbe cf89 cd3e 1e76 06bf
00000190: 6af0 1abf bd15 7d3e 0da7 4cbe 68ae 063d
000001a0: b331 723f bed6 02be 54cb a5be 3ae6 b1be
000001b0: 9ac4 ab3d 87bd 8c3e a4bc dfbc 08ac d0bd
000001c0: 2877 443d 419b b53d 2e2f e7bd 6776 013e
000001d0: 3701 e5bd 817f 0ebd c5a0 583d e163 44be
000001e0: b82a 9f3d 52e7 79bd 7a65 493e bfbc bdbd
000001f0: 63f9 3c3f 4cf3 673f 27fa d6be a588 f3be
00000200: 9a58 913d a287 f63e fe10 abbf 2611 b53f
00000210: a625 0dbc 096a 543f 8f33 18bf f0b6 85be
00000220: ca1a 1340 5ad9 b1bf 20e4 6dbf 0478 053d
00000230: 1faa 933e 7979 7bbe 0e46 83be 117f 8dbc
00000240: d61e 173d ac64 6dbc 9fa3 23bd 9f95 5a3e
00000250: ff56 7abe 7ad0 a53e 9484 6fbe c07b b43d
00000260: 4b3f 6e3d c130 f8bd 743e 263e 22be 8d3d
00000270: a747 b23e 9734 62be 413f b0be c522 933d
00000280: fc4f 623e c749 9d3e 29b3 483f d45c bcbc
00000290: b468 0e3f da78 c03d f5f7 a9be b79a 533e
000002a0: 25ce 4dbf 6df9 703f e3e2 abbc c74c 33bd
000002b0: a652 193d 10a0 a53e a551 f33d daad 4c3e
000002c0: 87d9 f3bd ba12 5e3c 55fe dabd ad3f f2bc
000002d0: bb6b e83d 80cb 49be d9bf 5bbe 71e7 873d
000002e0: 6b11 203e 5e70 96bd f230 17bf 3810 603f
000002f0: 2f1a d03e 81ec 68bf 27c1 6b3e dd0d f7be
00000300: a62e ad3f a7c4 0340 8a49 013d 4dcc 383f
00000310: 2a9b 963e bbd7 b1bf 5da7 7bbe 4ef6 20be
00000320: f2ed 1b40 5dfc ad3d 4d45 613e 2590 07bc
00000330: 1b44 f53e fec6 12bc dbf2 34bc 64b5 cebb
00000340: f13b 5eb8 003e 91bd 6512 983e 05f7 5cbd
00000350: 9e08 fabd c38a 1bbe ac0b 053b 7969 ef3d
00000360: 2c5a 48be 4978 fc3d 5d12 873c fc35 de3c
00000370: 7214 8abe ae26 c2be 2382 e7be aecd 183f
00000380: 1ddf 7e3f 9c8b a03d a403 6d3f 7156 f2be
00000390: 0beb 5abf 2c29 cc3e 478c 27be 5d59 da3e
000003a0: 9c54 fb3d 1a3f 543e b030 6e3e 6bd0 813e
000003b0: ee70 11bd bb16 613b 8268 5abd 49b7 d4bd
000003c0: 4804 2f3e b7f9 e63d 4281 4a3d 8098 1c3e
000003d0: 6cd0 013e 283a 853c bf65 dfbd 0c12 693e
000003e0: cb84 0a3f f9bc 1a3f 89ac 793e 9bf3 4fbe
000003f0: 16ed 2e3e 318e 913e 97f4 cebf 44d8 7d3f
-0.51462626 -0.16663219 -0.2585546 0.18672273 0.071568355 -0.1621575 0.9185539 -0.1953827
-0.14442143 0.15725309 0.057001922 -0.7257018 -0.7692088 1.2603482 0.21769175 0.20679845
-0.10876739 0.082708605 0.19364347 0.0809539 0.1546922 -0.06644286 -0.06419667 -0.10445604
0.2648969 -0.41458258 0.29157656 -0.004275117 0.26784095 -0.06062836 -0.042902246 -0.17346145
-0.28689924 0.2165397 0.21408823 -0.28968808 0.1853471 0.06761367 -0.9244661 0.30008203
-0.4813695 0.4958904 0.022859879 -1.0054482 -0.317276 -0.0055102347 -0.0972972 -0.1253966
-0.30315012 -0.2083337 -0.02676788 0.04937907 -0.021352211 0.13577656 0.37397096 0.5286323
0.074385434 0.29514664 -0.09084047 -0.16093211 0.11269026 -0.14378208 -0.36615255 -0.70490414
0.039999105 0.51234436 -0.08319682 -0.2375759 0.8787403 -0.5587602 -0.05285964 0.44624597
-0.71919984 -1.014389 -0.5360868 1.3755714 -0.003476412 -0.060096163 -0.005140014 0.38562983
-0.17518632 0.03520251 0.12004313 0.04295003 0.0116137825 0.24762619 0.17098947 0.23475
-0.66079134 0.12635723 -0.046180423 -0.24836628 0.31975338 0.85876715 -0.25831157 0.04260366
0.031684846 -0.3058873 0.40144202 -0.5252398 -0.6052309 0.24715324 -0.199856 0.03288117
0.94607085 -0.1277723 -0.3238169 -0.3474596 0.08387108 0.27488348 -0.02731163 -0.10189062
0.0479652 0.08867503 -0.11288296 0.12642823 -0.11181872 -0.034789566 0.052887697 -0.19178726
0.0777182 -0.06101162 0.19667616 -0.09264516 0.73818034 0.90605617 -0.41987726 -0.4756519
0.070969775 0.48150355 -1.3364561 1.4145858 -0.008614933 0.82974297 -0.5945367 -0.26116133
2.29851 -1.3894455 -0.92926216 0.03258516 0.2884073 -0.24558057 -0.25639385 -0.017272504
0.03689464 -0.014489334 -0.039950963 0.21346138 -0.24447249 0.32385617 -0.23390418 0.08812666
0.05816583 -0.12118674 0.16234761 0.069210306 0.3482029 -0.22090374 -0.3442326 0.07184366
0.22100824 0.3072035 0.78398377 -0.022993483 0.55628514 0.093980506 -0.3319699 0.20664488
-0.80392677 0.94130594 -0.020982211 -0.043774392 0.037432335 0.3234868 0.11880807 0.19988194
-0.119067244 0.013554269 -0.10693041 -0.029571379 0.11348673 -0.19706535 -0.21459903 0.06635941
0.15631644 -0.07345651 -0.5905906 0.8752475 0.40644976 -0.90985876 0.230229 -0.48252764
1.3529861 2.0588777 0.031564273 0.7218674 0.29415256 -1.3893961 -0.24575563 -0.15718958
2.436398 0.084954 0.21999092 -0.008274113 0.47903523 -0.008958576 -0.011044229 -0.0063082445
-5.298475e-05 -0.07091904 0.29701534 -0.053946514 -0.12208675 -0.15189652 0.0020301146 0.11690039
-0.19565648 0.1232763 0.016488248 0.027125351 -0.26968724 -0.37920135 -0.45216474 0.5968884
0.99559194 0.078391284 0.9258368 -0.47331575 -0.855149 0.39875162 -0.16362105 0.42646304
0.12271997 0.20727196 0.2326076 0.25354323 -0.03550809 0.0034345824 -0.053322323 -0.10386521
0.17091477 0.11278098 0.049439676 0.15292549 0.12677163 0.016263083 -0.109080784 0.2276079
0.54108876 0.604446 0.24382223 -0.20307772 0.17082629 0.28428796 -1.6168393 0.9915812

actor.0.bias f4 [128]
00000000: ea70 1b3e 4345 80be 8cb4 99bd 6a1b 65be
00000010: c392 25bd 9b8a adbd aae2 4a3d acfd 2fbe
00000020: 7f18 81be 28f2 b63d d578 28be 01cc d4bd
00000030: 8aa1 80be f5ad 8e3d a1ba 8abe f205 233e
00000040: 8c0d fcbc 232e 09be d209 16be 14ad 00bd
00000050: 4cf1 ba3d e512 4dbc c26d af3d f6bb 013c
00000060: 65bb 2d3e e0a7 97bc de3f 78bd a644 24bc
00000070: 1f5e 5abe d239 febd 145f 0abc 6ec7 51be
00000080: d6bf 59be 6762 bebb 8f63 64be 0464 9e3d
00000090: f31f 203e 8250 ccbd b0e3 e03d daf1 053e
000000a0: 0367 3e3c 3523 3bbe cead 9cbe 23d7 5abe
000000b0: 8c5f 8fbc cc01 d93d 70b5 b3bd 2859 8f3d
000000c0: 2726 bdbc 1089 dabd 567c 07be 11d1 34bd
000000d0: ca6c 32be 37bf a93b f7d7 66bd aab0 323e
000000e0: 8125 a1bc 1617 8d3c b4e0 1bbe 840b b43d
000000f0: e61b fabd fe67 32be 6a27 00bd 9cbd 49bb
00000100: 8bb5 85be 288b 9ebe b478 02bd 67f3 11be
00000110: aa7f 56bd ded3 88bd 52e0 72bd ca80 f6bd
00000120: 0c54 0d3e 7887 d0bd 1bba abbe 6348 0cbd
00000130: 1728 1a3e 5a88 39be e8d8 09be 72a7 6b3c
00000140: 6e57 923c eebe 95be 72c5 7fbe 6783 3c3e
00000150: 00a5 02be 05cd 3ebe ef86 f23a 4744 c9bd
00000160: dc4c 0fbe 1793 07bd 0466 7abd 45e9 4cbe
00000170: 9ca9 873e 7ce5 6cbe ff08 8bbd 3d3b 49bd
00000180: f520 63bd af56 2d3e 7d7c 403d fb37 a7bd
00000190: ea91 413e e11d 193e 718c 05bc 9515 8bbe
000001a0: 4117 2a3e 55bf 0abe 852e 81be 4701 863c
000001b0: 50d5 1fbe 30f1 d33d 1265 7dbe 6faa 7d3e
000001c0: 7ff2 c4bd 2d47 5ebd 2cb0 d7bd 1058 b53d
000001d0: 0d3c 01bd 5914 b43d e730 7abe 845f b1bd
000001e0: af50 5a3e 9af2 aebd 6c33 fbbd 144e e4bc
000001f0: 5054 8c3c 6537 ba3c 6262 13be 2aae 063c
0.15179792 -0.25052842 -0.0750514 -0.22373739 -0.040423166 -0.084737025 0.04953257 -0.17186612
-0.25214002 0.089329064 -0.16452344 -0.10390473 -0.25123245 0.069667734 -0.27095512 0.15920237
-0.030768178 -0.13396506 -0.14652184 -0.03141506 0.09128055 -0.012516712 0.085658565 0.007918349
0.16966017 -0.018512666 -0.060607783 -0.010026133 -0.21324967 -0.12413372 -0.00844552 -0.20486233
-0.21264586 -0.0058100703 -0.22303604 0.0773392 0.15637188 -0.09976293 0.10980928 0.1308054
0.01162124 -0.18275149 -0.30601352 -0.2137113 -0.017501615 0.10596046 -0.08774841 0.06999427
-0.023089482 -0.10670674 -0.13231024 -0.044144694 -0.17424312 0.0051802653 -0.056358304 0.17450204
-0.019671204 0.017222922 -0.15222436 0.08791259 -0.122123525 -0.17422482 -0.03128759 -0.0030783182
-0.2611507 -0.30965543 -0.031853393 -0.14253007 -0.052367844 -0.066810355 -0.05929596 -0.12036283
0.13801593 -0.101820886 -0.33540425 -0.03424872 0.15054356 -0.1811842 -0.1346165 0.014383184
0.017863955 -0.2924723 -0.24977663 0.18409501 -0.12758255 -0.18632896 0.0018503348 -0.09827476
-0.13994163 -0.03309926 -0.061132446 -0.2001086 0.2649659 -0.23134416 -0.06788825 -0.04912876
-0.055451352 0.16927598 0.04699372 -0.08164974 0.18903318 0.14952804 -0.00815116 -0.27164903
0.16610433 -0.1354955 -0.25230804 0.016358031 -0.15608716 0.10348737 -0.24745587 0.24772047
-0.09616565 -0.054267097 -0.10531649 0.08854687 -0.03155141 0.087929435 -0.24432717 -0.08660796
0.21319841 -0.08542366 -0.12265667 -0.027869262 0.017130047 0.022731492 -0.14392999 0.008220235

actor.2.weight f4 [128, 128]
00000000: 331f b0bd 15ca aebd b6de c13c 9a64 52bd
00000010: df8e 563d 8796 efbd 8730 febd 61e1 753c
00000020: a071 023d f0f3 5c3d eaa6 03bd ba34 e5bb
00000030: 6c9e 643c 88a3 cf3c b4c9 ac3d 8b98 1abd
00000040: 80f6 8d3d 47c8 acbd 0a28 213d 63ed 693d
00000050: 0420 7d3b 9893 4fbd a876 6e3d 0486 083c
00000060: 725c d43c ade1 163b 4032 233d 27d6 643c
00000070: 453d 52bd c4af 6c3d 90f1 82bc 42d3 363d
00000080: 21b0 87bd a603 7cbd 4dd3 9e3d 8550 06bd
00000090: 59b1 a93c 934e 22be 1de0 b0bd b253 84bd
000000a0: 803e 933d e96f a0bd 2a97 a23d bb9a 6d3d
000000b0: 90c3 8b3d 1e49 b23d 9887 d5bc b43d 853d
000000c0: c3d2 81bc 50f1 7ebb e9d2 b3bd 1115 abbb
000000d0: 51df 883d 643a 73bd f5d6 0bbc de02 ac3c
000000e0: 91cb 363d d773 2b3c 624a de3c b97b 71bd
000000f0: e9ee 44bc ac3a e53d 6e82 a3bc fc94 2a3c
00000100: 421e fabd b454 7e3d c851 19bc 4376 dbbd
00000110: 10de 80bc 6222 15bd 164a d5bd 28ea 8cbd
00000120: f842 37bd 3d61 c1bc 2fb9 81bb 1f22 23bd
00000130: 3ed3 b0bd ea80 25bd 8aef b6bd 41f1 de3d
00000140: 0e09 05be 5049 4e3d c481 163c 7367 c53d
00000150: 168d 5f3d 750e cd3d 500a 6fbd 5da9 ed3b
00000160: 4fa5 403d d1b0 21bd 0283 e7bd e251 373d
00000170: d1d6 f2bc 14aa 863d 73a7 46bd 5c6e c73c
00000180: 30d3 a5bc 20ca b7bb 11fc 29bd 7206 1ebc
00000190: ba26 d5bc 91b3 78bd 824e 893d 7c3e 5fba
000001a0: 1c1f 2abe c840 213d 8a63 0abd f7c5 423d
000001b0: a70a 8ebc 3400 3abd 8d17 813d 75be aebd
000001c0: 24dc bf3d 7aca c33d 9b1f edbc 809b c63b
000001d0: be20 3dbd 7dba a7bd b061 62bc e6c3 2a3d
000001e0: d87e 173e 944a 98bd bf04 63bd 7788 953d
000001f0: fff7 96bd e685 c2bd 2336 a9bd c878 cdbd
00000200: e727 e5bd 33bd 99bd 367e 8d3d 651c 943a
00000210: ce42 023e d516 aebc 4562 56be e524 1d3d
00000220: 2441 ce3d 7dc2 003e 6777 4d3c 458b 95bd
00000230: baad b6bd e4e5 153d 0908 0ebe b427 063d
00000240: 18b0 e2bd 52ff b5bd 069c 8ebd 4b88 573d
00000250: ca22 a03d 6e76 883b 608d 2a3d 928c dc3b
00000260: aee3 b9bd 283a 9cbd c35b 793d c611 063e
00000270: 32dc 193d 62f5 adbd 3da2 eebd beab a3bc
00000280: 4031 8cbc d009 a2bd 1e6e cc3d 2bee fe3c
00000290: e02c 3abd cbfb 07be 382b af3d 2f7e de3c
000002a0: 4c68 30bd 8771 1cbe 2aa9 af3c 1d67 133e
000002b0: 446f 253d b81b 6abd 324b 923d 38ee 0ebd
000002c0: fefd 7cbc 1d73 9f3d dc9c 203d 1b1b bfbd
000002d0: 75bc 26bd d6ce 91bd 767a a7bd a15d 57bd
000002e0: b58d 50bd bffd 1f3d 3985 94bd 98c3 94bc
000002f0: c02c 46bc fafe 2c3d b4c3 9f3d fd6d c5bd
00000300: f7a3 c8bc e327 a5bc fb32 bf3d d03f 083d
00000310: 35f3 a3bd f8a3 65bd 6782 63bd e09a 77bc
00000320: cea1 8f3a 549c 7abd 69cf 9fbd b1ce 7abd
00000330: bbb8 ff3c e1dc 4c39 0857 873d db8a 1cbe
00000340: af30 17bc c643 54bd d3fa 27bc 2845 663d
00000350: 5417 093d 1bec 903d 8809 c83b 02a2 0cbc
00000360: ac27 e83c 9355 f7bd 4694 94bc 7ad2 a43c
00000370: da6d 3fbc f88e 88bd 80b8 913c 5ccb 113d
00000380: ff09 b4bd 7ebc e6bc 8c9d 043d 88b3 ba3d
00000390: 4dfc eabd 0719 c7bd 9012 12be 74b1 f13c
000003a0: a379 5fbc 3b70 0f3d 4120 85bd 5181 4d3d
000003b0: ef24 46bd e94d bd3d 45ad 96bd 0682 babd
000003c0: 79fd c63d 3f3f 643d 2eeb 993d 5c2b 0dbd
000003d0: 6164 d13c 650c e13c f746 213d 0d8a f23c
000003e0: 27dd b53d 97d7 9dbd 3615 403d 6003 75bd
000003f0: e671 18be af4c 9a3d 99ba 81bd cf82 52bd
-0.08599701 -0.08534638 0.023665767 -0.051365472 0.052382346 -0.11698633 -0.124115996 0.015007348
0.031846642 0.053943574 -0.032141604 -0.006994811 0.013953786 0.025346532 0.08436909 -0.037743133
0.06931782 -0.08436637 0.039344825 0.057111155 0.003862382 -0.050677866 0.05821863 0.008332733
0.025922988 0.0023022697 0.039842844 0.0139670735 -0.051327962 0.05778481 -0.015984327 0.044635065
-0.06625391 -0.061526917 0.07755146 -0.032791633 0.020714449 -0.15850286 -0.08636496 -0.06461276
0.07189655 -0.07833845 0.079389885 0.05800889 0.0682441 0.08705352 -0.026065633 0.065059096
-0.01584757 -0.0038901158 -0.08780462 -0.005221017 0.06683219 -0.059381858 -0.0085351365 0.020997461
0.04462773 0.01046463 0.027135078 -0.05895588 -0.012019851 0.111928314 -0.019959655 0.010411497
-0.122128025 0.062092498 -0.009357877 -0.10715916 -0.015730888 -0.036409743 -0.104145214 -0.06880599
-0.0447416 -0.023605937 -0.003958843 -0.039827462 -0.08634041 -0.040406145 -0.08932407 0.10885859
-0.12991735 0.050362885 0.009186212 0.09638872 0.05457791 0.10012523 -0.058359444 0.0072528557
0.04703265 -0.039475266 -0.11304285 0.044755824 -0.029643448 0.065754086 -0.048499536 0.024344616
-0.020242304 -0.005608812 -0.041500155 -0.009645091 -0.026019443 -0.060718123 0.06704427 -0.0008516086
-0.1661343 0.03936842 -0.033786334 0.047552075 -0.017339064 -0.04541035 0.0630332 -0.085324205
0.0936816 0.09560104 -0.028945735 0.0060610175 -0.046173804 -0.08189867 -0.013817236 0.04169073
0.14794481 -0.074361 -0.055424448 0.07301419 -0.0737152 -0.09498195 -0.08262279 -0.10032803
-0.111892514 -0.0750679 0.069088385 0.0011299966 0.12720796 -0.021251122 -0.20935924 0.038365263
0.10071018 0.12574191 0.012540675 -0.07301954 -0.089198545 0.036596194 -0.13870253 0.032752708
-0.110687435 -0.08886589 -0.06963353 0.052620213 0.078191355 0.0041645085 0.041638732 0.0067306245
-0.090766296 -0.0762828 0.060878526 0.13092718 0.03756351 -0.08494069 -0.11652038 -0.019979354
-0.017113328 -0.07912028 0.09981941 0.031119427 -0.045452952 -0.13279645 0.08553165 0.027159778
-0.043068215 -0.15277682 0.021442968 0.14394803 0.040389314 -0.05715534 0.071432486 -0.03489515
-0.015441416 0.07785628 0.039212093 -0.09331342 -0.04070707 -0.07119529 -0.081776544 -0.052579526
-0.050916392 0.03906035 -0.07251973 -0.018159673 -0.01209563 0.042235352 0.07800999 -0.09640119
-0.024492247 -0.020160621 0.09335896 0.03326398 -0.080053724 -0.056064576 -0.055544283 -0.015112609
0.0010958256 -0.061184242 -0.07803232 -0.061232273 0.031216016 0.0001953724 0.06608397 -0.15287344
-0.009227916 -0.051822446 -0.010252672 0.056218296 0.033469513 0.070762835 0.006104652 -0.008583548
0.02833923 -0.12076869 -0.018137109 0.020119894 -0.0116839055 -0.06667894 0.017788172 0.03559433
-0.08790969 -0.028166052 0.03237681 0.09116274 -0.11473904 -0.097215705 -0.14264894 0.029503562
-0.01363984 0.03501914 -0.065002926 0.050172154 -0.048375066 0.09243376 -0.07357267 -0.09106831
0.09716315 0.05572438 0.0751556 -0.03446518 0.02556056 0.02747173 0.039374318 0.029606843
0.08880072 -0.07707136 0.04689523 -0.05981767 -0.14887199 0.075341575 -0.06334419 -0.05139428

actor.2.bias f4 [128]
00000000: e67f c9bc f626 42be 399b 5dbd f3f1 21bd
00000010: cf99 e4bc e84f 92bc cb8f b03c af32 5c3d
00000020: 93b0 07be 438a 6bbb aeb9 bdbd 48a2 4dbd
00000030: bc72 173d 39db bebc 25d6 64bd a312 1cbd
00000040: 7a87 1b3d a7c2 6abd 864e 9f3d 85ee ebbc
00000050: 3051 87bd a880 50be 0a87 e1bd fb66 6b3c
00000060: 718c bebd add3 d3bd db1d 14be 0639 ddbd
00000070: 2135 943d 8e93 b3bd e807 be3c c850 f63d
00000080: 8118 cdbd 7aca 27bc 6add ebbd 99c6 7bbd
00000090: 1cc2 0abe 930c 6abd ab65 15be 4b57 55bd
000000a0: 91f6 bf3b 578e d5bd e75f e63c 33f4 d43d
000000b0: 2886 b53d 0c6f 3bbe a0b0 1dbd 78f3 77bd
000000c0: 8e30 67be 64fd febd 0aab 143d 2274 f4bd
000000d0: b314 cebd fafe 95bc 3bb9 083d 7ca0 b1bc
000000e0: f2c4 553d 20cb a63d 92b4 22bd 6c9a 2abe
000000f0: 55dd c3bd 4f2e 8c3d 06e9 2d3d 27a7 6b3d
00000100: 8c3f a0bd 16d5 b1bd 55f8 6f3d 381a 8cbd
00000110: bb5e 323d 9908 00be bb71 49bc edd6 2abb
00000120: 97f1 0abc 43f4 28be a549 6c3d 82bd 45bd
00000130: 0e5a ecbc 2e8a 77bd e39c 13bd ecd4 cf3b
00000140: 52dd 05bd e033 3cbc 73c8 ca3c b8f5 a8bb
00000150: 9605 143b e754 7f3c 9003 46be 9a6f 7cbd
00000160: aa0e e2bd f707 76be 958d 6bbc 37e9 fdbc
00000170: c242 8cbd 20ca ccbd 281a 89bd 5b51 683b
00000180: 3ac9 b5bc 0457 bbbd 0791 053e f081 a03d
00000190: 42a8 3bbc 6af6 10be 7d01 0b3c 3e32 2bbd
000001a0: 32f2 c0bd a1f4 bdbd 7daf 8cbd e966 293e
000001b0: 5a2b 31be 3893 8abd 48b0 31bd b0bf b0bd
000001c0: f1ce eebd 06ca ad3c af1f 46bb 30e7 1ebe
000001d0: 4386 d03b 91d1 a33d 9c1f 05be 4c70 65bd
000001e0: 6059 6cbc 7852 7b3d 00cc 90bd 8731 673d
000001f0: 88aa c3bd e8dd acbd 507a 92bd 403e 8cbd
-0.02459712 -0.18960175 -0.05410311 -0.03953738 -0.027905373 -0.017860368 0.02155294 0.053759273
-0.13250951 -0.0035940565 -0.09263931 -0.05020359 0.036974654 -0.023297893 -0.055868287 -0.03810371
0.037970997 -0.05731454 0.07778649 -0.028800258 -0.06607282 -0.20361578 -0.11012085 0.014367814
-0.09304131 -0.10343108 -0.14464514 -0.10801892 0.07236696 -0.08768378 0.02319713 0.120271266
-0.100144394 -0.010241145 -0.11516841 -0.061468694 -0.1355061 -0.057140898 -0.14589565 -0.052085202
0.0058582504 -0.1042754 0.028121902 0.1039814 0.08863479 -0.1830408 -0.03849852 -0.060534924
-0.22577116 -0.12450674 0.036295928 -0.11936213 -0.10062542 -0.018310059 0.033379775 -0.02168297
0.052189775 0.08144212 -0.039722987 -0.1666047 -0.095637 0.0684477 0.042458557 0.057532456
-0.078246206 -0.08683221 0.058586437 -0.06840938 0.043547373 -0.1250328 -0.012295182 -0.0026068047
-0.008480451 -0.16499428 0.05768742 -0.04827643 -0.028851535 -0.060434513 -0.03603829 0.006342521
-0.03268177 -0.011486977 0.024753785 -0.005156245 0.0022586337 0.015584207 -0.19337296 -0.06162987
-0.11037953 -0.24026476 -0.0143770175 -0.030994995 -0.068486705 -0.0999949 -0.06694442 0.0035448882
-0.022190679 -0.09147456 0.13043605 0.078372836 -0.01145369 -0.141565 0.008484242 -0.04179596
-0.09421195 -0.09275175 -0.06869409 0.16543163 -0.17301694 -0.06766361 -0.043381006 -0.086303115
-0.11660565 0.021214496 -0.0030231287 -0.15517879 0.0063636615 0.07998956 -0.1300034 -0.056015298
-0.014425606 0.061357945 -0.0707016 0.056443717 -0.09554011 -0.08440763 -0.071522355 -0.06847811

actor.4.weight f4 [128, 128]
00000000: 09f4 53bd 807b f4bc a52f 163d 3dda 833d
00000010: ed74 143d d399 40ba 86e5 8bbb f338 353d
00000020: 38b4 0cbd 0e15 53bd 716d 3f3d d9b3 70bc
00000030: e8ff c33d f9be 23bc e283 8fbd 7f96 3bbd
00000040: 13aa 0ebc cc98 6dbd b1a4 85bd 393e 90bd
00000050: a89b 2bbd ae44 343d 4535 60bd da3e 03bd
00000060: 5a9b 07bd 923f 263d 0adb 91bc 3da8 8abd
00000070: b4a3 c0bc 2efc 843d 7f7b 4fbd 1118 59bd
00000080: 9840 e4bc da6f e3bc d1d4 973d dcda 08bc
00000090: 6f42 5f3c 7bd6 3abd 27db 643c a7bd da3c
000000a0: 3683 c53d 10c9 9dbd 0e79 ef3d 0bb9 043d
000000b0: bfa9 bcbc 0cec c3bc fc5b 2ebd b7c8 1d3c
000000c0: e382 7f3a 9698 edbd 2fa2 47bd 8497 373d
000000d0: 4d49 91bc e29c 2a3b 456c 44bd 1550 833c
000000e0: c4f0 aa3d e87e 4bbd 4fa8 a13d f475 28bd
000000f0: e051 15bc 9da2 a33d 54cc 8f3c 76ff d33c
00000100: 1bad d3bd 27f1 7c3d 68b6 873d 2e21 dabc
00000110: 7c7e d7bc 3f0c 9b3d 85f7 47bd 3a51 ae3c
00000120: 2fe6 87bc 256c 6bbd ee40 ae3d 6dd8 183d
00000130: b9b4 423d ff7b 163d 7b14 90bd f76b 313d
00000140: 7afc 6ebc e38a baba 2fe5 78bc 17bd bd3c
00000150: 9f9b 61bd 0443 bfbc 20b4 ec3b 70d2 693d
00000160: 43b3 7f3d d8ed 4b3c d676 5a3d 6250 fdbd
00000170: dc95 113c 97d2 533d ead3 6b3c 03bd 8dbd
00000180: b467 49bd 5386 493d 05b5 3dbb caac 343d
00000190: 0488 8dbd b9a8 643b ae9d 5ebc af0c 1e3d
000001a0: a464 52bd c794 df3c 4f77 7a3d 00b6 ab3c
000001b0: de12 21bb 29eb 49bd 28bc 863d f563 22bc
000001c0: d07c 26bd 195a bfbc a90a adbd d8fa 5d3d
000001d0: a155 c53c 16b1 c83b d33a dc3c 4465 14bd
000001e0: f315 013a a4da d4bd 9659 05bd bc0b a0bc
000001f0: ba4e d13b 0b81 65bb 9beb 7f3c 8c58 e4bc
00000200: 9283 6abd 283a 8a3d cec3 b03d f49f 59bd
00000210: e7fa 873d a300 8c3c a8af 1d3d f8cd 72bd
00000220: fceb 10bd 0bb1 3cbc 3c5f a2bd ecd3 52bc
00000230: a083 5b3d 509c 983d a697 0f3e 8a0f 30bd
00000240: ee41 093c 9b43 273d d9ba 1ebc 5c1d a0bc
00000250: 6a6c 92bd d014 383d e34b 8ebc 7ee2 a1bc
00000260: 594a 1dbd c9aa 203d 58fb 2ebd 0ebf c7bb
00000270: 334e 7f3c 4dae 283c 5754 713d b950 96bc
00000280: 3c50 313d 9c33 d0bb b648 9a3d ad58 3a3d
00000290: 3de6 893d ac7b d93d b1fb 02ba f68c 8e3c
000002a0: c846 7aba 6cae 3dbd 3683 c6bc a527 c8bc
000002b0: a0a6 05bd 0bea 3a3d e569 e2bd 5c79 1dbd
000002c0: 274a 1d3e e264 43bd d8d5 ad3d 2208 573d
000002d0: 3608 83bd 243d b9bd eeaf a63b e02b 5ebd
000002e0: 8136 ae3d 1f4f b3bd 4f2e 303c c364 c83d
000002f0: 1063 8b3d e499 8bbd d6a0 21bd 84fc cb3d
00000300: 1e41 4abd add5 233c a48a 87bc 753f 0c3d
00000310: 9fa3 f7bd a955 aebb dc3e 09bd de21 683d
00000320: 0a45 243d f110 97bd c85a 223c 25f2 b83d
00000330: 1059 503d 98df adbd 442f 2dbe e7b4 093c
00000340: 31c6 7f3c f772 293d 8b8d a5bc e4cf 8f3c
00000350: b5cf 6fbd 6762 ce3d 17af 1bbd e606 d2bc
00000360: a15f d63d 2736 97bc 822c 49b8 e390 c33c
00000370: c7d5 87bd d8fb 9e3c 7d23 983d 7f69 81bd
00000380: aa70 b03d cb4f 613d aca0 3f3d fc77 b93d
00000390: 9f24 5ebd f457 9c3d 404d 6e3d ebdd 88bc
000003a0: 7437 2cbd 5d71 773d ac98 253d e443 013c
000003b0: 3fc1 0a3d f672 883c a5af d63c ffc1 d9bd
000003c0: 4199 29bd b601 10bc c511 063d be89 a9bd
000003d0: c007 30bd f809 a0bc 6e7d 8dbd 9aef dfbc
000003e0: 8378 2b3c 556c 49bd f8c7 cf3c 87cf 7f3b
000003f0: 6fc1 54bd 6e11 443d 8e19 74bc 6095 a83b
-0.051746402 -0.029844046 0.03666653 0.0643811 0.03624432 -0.00073471403 -0.0042693047 0.044243764
-0.034351557 -0.05153375 0.04673523 -0.0146913165 0.095702946 -0.009994262 -0.070075765 -0.04579782
-0.008707541 -0.058007047 -0.06525553 -0.07043118 -0.041896492 0.04401081 -0.0547383 -0.03204236
-0.03310714 0.04058797 -0.017804641 -0.0677037 -0.02351556 0.06493412 -0.050654884 -0.053001467
-0.027862832 -0.027763296 0.074136384 -0.008352961 0.013626679 -0.0456147 0.013968266 0.026701761
0.09644167 -0.07704365 0.11693011 0.032403033 -0.02303016 -0.023916267 -0.042568192 0.009630374
0.00097469817 -0.11601369 -0.048738655 0.04482223 -0.017735148 0.002603345 -0.047954816 0.016029397
0.08346704 -0.049681574 0.078934304 -0.041128114 -0.009113759 0.079900004 0.017553486 0.02587865
-0.103357516 0.06175342 0.06626588 -0.02662715 -0.02630543 0.07570695 -0.048820037 0.021278966
-0.016589252 -0.05747618 0.08508478 0.037315775 0.04753563 0.036739346 -0.07035156 0.043315854
-0.014586562 -0.0014232065 -0.01519136 0.023161454 -0.055080052 -0.023347385 0.007223621 0.057085454
0.062426817 0.012446843 0.053335987 -0.123688474 0.008885827 0.051714506 0.014393786 -0.06920817
-0.049171165 0.049200367 -0.0028947007 0.044110097 -0.069107085 0.0034890606 -0.013587398 0.038586315
-0.05136551 0.027292622 0.061148938 0.020960808 -0.0024577896 -0.04929653 0.06578857 -0.009911527
-0.040646374 -0.023358392 -0.08449299 0.0541943 0.024088683 0.006124626 0.026883518 -0.036229387
0.000492423 -0.10393265 -0.03255614 -0.019536845 0.0063875588 -0.0035019543 0.015620138 -0.027874254
-0.05725438 0.06749374 0.08631097 -0.05313106 0.06639653 0.017090147 0.038497597 -0.05927846
-0.035381302 -0.01151682 -0.07928321 -0.012867909 0.053592324 0.07451689 0.14022693 -0.04298357
0.008377535 0.040835958 -0.009688103 -0.01954525 -0.071495846 0.044941723 -0.01737017 -0.01976132
-0.03840098 0.039225373 -0.04272017 -0.0060957735 0.015582609 0.010295463 0.058918323 -0.018349038
0.043289408 -0.0063538086 0.075334 0.045494724 0.067333676 0.10619292 -0.00049966114 0.0174012
-0.00095472904 -0.04630892 -0.024232488 -0.024432966 -0.03262961 0.045633357 -0.11055354 -0.038445815
0.15360318 -0.04770363 0.08488053 0.05249799 -0.063980505 -0.09044865 0.0050868904 -0.05424106
0.085064895 -0.087553255 0.010753228 0.09784844 0.06806004 -0.06816462 -0.039460026 0.09960273
-0.049378507 0.009999675 -0.016545601 0.034240205 -0.12091755 -0.00532027 -0.033507213 0.056672923
0.040104903 -0.07376278 0.009909339 0.090305604 0.050866187 -0.08489913 -0.16912562 0.008404947
0.015611217 0.041369405 -0.020209095 0.017555185 -0.058547694 0.100773625 -0.038008776 -0.025638055
0.104674585 -0.018458439 -4.7963586e-05 0.023872798 -0.06632572 0.019407198 0.07428644 -0.0631895
0.08615239 0.055007737 0.046784088 0.09056088 -0.054234143 0.07633963 0.05817914 -0.016707381
-0.04204507 0.060410846 0.040428802 0.007889722 0.0338757 0.01665638 0.0262068 -0.10632705
-0.04140592 -0.00878947 0.03273179 -0.08278225 -0.04297614 -0.019536003 -0.069086894 -0.02733593
0.010465744 -0.04917558 0.025363907 0.0039033608 -0.051942285 0.047868185 -0.014898671 0.00514476

actor.4.bias f4 [128]
00000000: 7023 3cbc b0cc d8bc 2455 423d f625 8ebd
00000010: 9962 0cbd 2663 963d a749 00bd c9a0 86bc
00000020: d735 103d 8107 44bd f3c1 8abd 31ff 73bd
00000030: 2c44 b1bd bd58 bebc 57a2 383d 537e 8cbc
00000040: 5ffb 6e3d acab af3c b060 a1bd 1c7e 8cbd
00000050: c47c 1cbd 8719 d9bb 900e b8bc 5c40 3d3d
00000060: 140e 8c3c 4ebf 4bbd f848 35bc d214 053c
00000070: 67a0 7dbd 27d2 ce3d f5f3 c2bc 6c1d e03c
00000080: 5793 53bd ec0e 213d e500 ddbc e044 1cbc
00000090: d1e3 7f3d c06b 85bc cd18 acbd f7ca 313c
000000a0: 0bb1 e7bd 7ef0 a3bd d5a1 0dbd 7351 c5bd
000000b0: adb5 aebd afb0 9abd 0943 413d d998 babd
000000c0: e1de 92bc 62a6 833d 3b95 71bd 8f28 6d3d
000000d0: 3b7a 853c a0ea 51bd 1ab0 1d3c 093a 263c
000000e0: dc8a 15bd 8114 99bd f0b0 edba 9784 31bd
000000f0: 5a83 ed3c e305 803c 1930 31bd 7244 c0bd
00000100: b76e c5bc e5c8 87bc 86f4 0ebd 1df4 c93d
00000110: 0964 be3d 4d1e 763c 80f2 95bd 68ea f0bc
00000120: efe5 4dba 3a04 ac3d 42fa e4ba 6150 b5bd
00000130: 9ce2 1fbd 5980 e2bd 624f 9c3d 45f2 a0bd
00000140: 9441 c5bd 6078 09bd f466 373d b54a 323c
00000150: 17a6 dcbc 697d 7e3c 9ee5 ab3b d876 7e3d
00000160: 8cb2 20bc f919 b6bd d810 813d 7665 5a3d
00000170: e9db 28bc d2ee dabd 54a0 bbbd 4786 54bc
00000180: 09ec 74bd 9897 77bd 4b44 a8bc d1a9 a73d
00000190: be7f e1bc 5d77 d6bd 9ded 4bbe 0b26 13bc
000001a0: b38e aabd 7879 95bb 9103 abbd 7779 483d
000001b0: d1e0 893d 1167 99bd 9327 343d 78c1 09be
000001c0: f142 f6bc 7f85 06be c1b9 103d d356 9d3d
000001d0: e045 e3bd a781 00be 475f a0bd 90a0 9bba
000001e0: 5fb2 8a3d 48ee 9d3d cb10 bf3d 65cc 0a3d
000001f0: 7ce2 373d 946d 16bd c6d7 f1bd 7b45 93b9
-0.011483058 -0.02646479 0.047444478 -0.06940834 -0.034273718 0.0734313 -0.03132024 -0.01643409
0.035207596 -0.04785872 -0.06775274 -0.05956954 -0.08655581 -0.023235673 0.045076694 -0.01715008
0.058345195 0.021444164 -0.0787977 -0.06859991 -0.038204923 -0.0066253575 -0.022467881 0.046203956
0.017096557 -0.04974299 -0.01106476 0.00812264 -0.06192055 0.10098677 -0.023797968 0.02735778
-0.051654186 0.03932087 -0.026977966 -0.009537905 0.062473122 -0.01628673 -0.08403168 0.010851613
-0.11313065 -0.080048546 -0.034578163 -0.09634676 -0.08530746 -0.07553231 0.04718307 -0.091111846
-0.017928543 0.064282194 -0.058980208 0.057900008 0.016293636 -0.051249146 0.009624505 0.010145673
-0.03650938 -0.07474614 -0.0018134397 -0.04333934 0.028993297 0.015627807 -0.04325876 -0.09388055
-0.024100645 -0.016575286 -0.034901164 0.09861014 0.09296424 0.015021873 -0.07321644 -0.029408649
-0.0007854392 0.08399244 -0.0017469602 -0.08853222 -0.03903447 -0.110596366 0.076323286 -0.07858709
-0.09631649 -0.033562064 0.044775918 0.010882069 -0.026934667 0.01553283 0.0052458784 0.062125057
-0.009808194 -0.08891673 0.06302041 0.053319417 -0.010306337 -0.106900826 -0.091614395 -0.012971467
-0.059795413 -0.060447305 -0.020540377 0.08186687 -0.027526733 -0.104719855 -0.19914861 -0.008981238
-0.08327999 -0.0045615993 -0.083502896 0.048943963 0.067323335 -0.074903615 0.043983053 -0.13452709
-0.030061217 -0.13136862 0.0353334 0.07682576 -0.11097312 -0.12549458 -0.07830673 -0.0011873413
0.06772303 0.07711464 0.09329375 0.033886332 0.044893727 -0.036725596 -0.11808734 -0.00028089792

actor.6.weight f4 [8, 128]
00000000: 349d 0a3d 6fee 393b 0dd2 b03c f851 473d
00000010: 5c01 073d 5b39 8c3c a7f5 e33c ba7c 373c
00000020: 6cb0 30bd c403 4d3c 7f9a 8dbc 9d57 073d
00000030: 2243 8238 6311 9cbc 9271 e83a 8fe3 4cbd
00000040: acbe 4b3a 36dc 263c 6480 62bc 4720 89bb
00000050: d2ca 00bb 0ee7 dd3c 7247 99bc 3481 78bb
00000060: 8e00 a8bc cb89 94bd 3c80 9b3b be63 f7bb
00000070: 442f 07bd a8f8 26bc 5fb4 edbc 4bfa 0ebc
00000080: 8ede 323c b388 523c bbb5 2d3d 174b 2dbc
00000090: 7532 afbb 5de9 afba f390 65b9 c1ff 1ebc
000000a0: 0643 7f3c 0e45 0ebc 7186 6cbc 111d 66bc
000000b0: 4a1d c3bc 2357 f93a 4c3a 0d3c e94c c5bb
000000c0: 15cb 813c 3bc1 09bc 8016 f53b fbd1 8c3c
000000d0: 85e9 84bc 1bbe 47bb 63b3 453d 2eb5 d0bc
000000e0: 426b 18bc 44b1 66bd 6f1d 703b 20b4 4a3c
000000f0: f9c7 bfba f87e ea3b 10d7 593d 5452 1dbb
00000100: b8a6 d8bb 6bb5 023d 98bc abbc 953c 11bd
00000110: b677 3cbb 652e cb3b e049 c7bb d9d3 37bc
00000120: 3c51 11bc dc5f 7a3c 311c 383c 8d99 a43b
00000130: b985 273d b7d9 94bc b2a5 cabc ce19 d5bc
00000140: ac9a b43b 9f8f 73bc c8c2 4b3b 74e6 423a
00000150: f367 203c e606 c9bc d4a5 8b3c 3767 073c
00000160: e956 38bd c4fb 5a3c c5c3 7e3c 6a0b 613b
00000170: 74bb 1dbc 8bc5 6fbc 9344 08bc 4605 ccbb
00000180: 6791 343a 443b 863c 049e 2cbc 474c efbc
00000190: 2e9f aebc 01ec be3c ef6c 4d3d fefd 09bd
000001a0: 47b2 053d 645c 9abb 625b b13b 1175 1ebd
000001b0: 2a4c db3a d06d bd3c 0637 f9bc 44f2 993c
000001c0: 0937 c53c ae33 383d f138 cb3b 1566 7bba
000001d0: e281 1d3d 258b 483c e044 cb3a f848 103d
000001e0: 7241 bfbc a922 933c 68c0 8abd c74a 04bd
000001f0: 6b56 0f3c a458 50bd 3c61 533d 3647 bebc
00000200: 9a68 d0bb a838 87bc c194 b23c 357e d43c
00000210: a153 21bd 7367 4eb9 9f3e 453d e7e2 723b
00000220: 06bc 223d 0db5 c4ba ef06 17bc 407e 903b
00000230: 0bc3 b1bc 5bbe b53c 170b 79bc 5ba1 193c
00000240: 7cf8 603c 7e05 36bc 922e 55bc 30fb 61bd
00000250: c44f c6bb 50fe 33bd d890 1dbc 89b0 883b
00000260: b9fc debc 14a6 23bd 4bee d6bb 33ef 8dbb
00000270: 7b2b 3e3b 6af5 3a3c 86a9 ff3c 06c5 1e3d
00000280: b089 aabc e9e4 ae39 6a97 2bbb 6e2b c73c
00000290: b35b 873c 7558 46bd eade 12bd f971 bd3b
000002a0: d394 d03c c2b6 bbbc 04f0 a93c 03e5 ea3b
000002b0: 3a72 b2bb 8bb7 59bd 4c28 c73a 2aa5 06bd
000002c0: b496 9d3c 2c80 733b da50 9ebc 7ca3 9c3b
000002d0: 1a3e c53c c042 1bbc 9a81 463d 4530 0bbc
000002e0: 22c5 efbb ad06 46bd 8791 123c 701c f3bb
000002f0: b348 5e3d e65c 343d 2ab0 923c 570d 6ebc
00000300: 8233 1d3c c4c9 413c 08c0 a5bc 3ff3 8bbc
00000310: aeb4 0fba 6f2e 783c 7dfd 8f3c 1147 0e3c
00000320: d36b 9f3b 4fe1 393c 82cf 113a c933 1dbc
00000330: 4dbf d13c dc54 b43c 9422 b0bb 2f7a afbb
00000340: 66fe 1d3a 0314 283c 5c7e f2bb e878 903b
00000350: 699f 29bd ca35 f03a 8636 7abc c239 80ba
00000360: df4b 993a 69d8 a9bb ef9c 783b 0206 833c
00000370: 6cda a43c 7fc6 6b3c ecba d3bc 8d94 3cbc
00000380: ed82 17bc 4a51 e5bb 6d06 003d b8d7 613d
00000390: dcbc bf3c 1020 e43c 8e0c 38bd 2268 d4bc
000003a0: b9a0 ce3b 6e0f 49bd 8444 bfbb 262d 1b3d
000003b0: 07a4 133c 1e02 0f3c 5f44 ab3c b4bd c3bb
000003c0: 687d 8a3c af2f 8e3b 9e58 b2bb 4110 e33b
000003d0: f393 303b a7c2 35bc 4455 a5bc 1cb1 4abb
000003e0: f44d 633c a854 28bb d9f3 4d3d f293 04bd
000003f0: 9784 babb a4b9 b23b 37a1 193d 184b 1cbc
0.033841327 0.0028370877 0.021584535 0.048662156 0.03296028 0.017117193 0.027827097 0.011199171
-0.043137 0.012513105 -0.017285584 0.03304254 6.2113875e-05 -0.01905126 0.0017734042 -0.050021704
0.0007772248 0.010184338 -0.013824556 -0.004184756 -0.001965214 0.027087715 -0.018710826 -0.0037918808
-0.020508077 -0.072528444 0.0047455113 -0.007549732 -0.03300406 -0.01019112 -0.029016672 -0.008726667
0.010917319 0.012849974 0.04240964 -0.010576985 -0.005346591 -0.0013420988 -0.0002189314 -0.009704531
0.0155799445 -0.008683456 -0.01443635 -0.014045016 -0.023817677 0.0019023161 0.008619856 -0.0060211313
0.015843907 -0.008407886 0.007479489 0.01718997 -0.016224632 -0.0030478302 0.04826678 -0.025477018
-0.009302916 -0.056321397 0.0036638638 0.012372047 -0.001463174 0.007156249 0.053183615 -0.002400537
-0.0066116713 0.031911295 -0.020963952 -0.035458166 -0.0028757877 0.006200599 -0.0060818046 -0.011219942
-0.008869465 0.015281644 0.01123719 0.0050231875 0.040899012 -0.01817022 -0.024737213 -0.026013281
0.0055116024 -0.014865785 0.003109144 0.0007434853 0.009790408 -0.024539422 0.017046846 0.008264354
-0.04500476 0.01336569 0.015549605 0.0034339079 -0.009627212 -0.0146345 -0.008317131 -0.0062262146
0.0006888122 0.016385682 -0.010535721 -0.029211177 -0.021316137 0.023305895 0.050152715 -0.03368949
0.03264072 -0.004710721 0.005412505 -0.038685862 0.0016731073 0.023123652 -0.030421745 0.018792279
0.024074094 0.04497116 0.0062018563 -0.00095901015 0.038453944 0.012240206 0.0015508197 0.03522584
-0.023346636 0.017960863 -0.0677498 -0.032297876 0.008748631 -0.050865784 0.0516064 -0.023227315
-0.0063601257 -0.016506508 0.021799447 0.025939086 -0.039386395 -0.00019684229 0.048155423 0.0037061514
0.039730094 -0.0015007571 -0.009217962 0.0044095814 -0.021699449 0.022185495 -0.015200398 0.009376849
0.013731118 -0.011109708 -0.0130115915 -0.05517119 -0.0060519893 -0.043943703 -0.009617053 0.0041714353
-0.027220117 -0.039953306 -0.0065591685 -0.0043314933 0.0029017616 0.01141105 0.031208765 0.038762115
-0.020817608 0.00033358418 -0.002618278 0.024312701 0.016523218 -0.048424203 -0.03585712 0.005781409
0.02546159 -0.022914294 0.020744331 0.0071684136 -0.005445746 -0.053153556 0.0015194505 -0.032872356
0.0192369 0.0037155254 -0.019325662 0.004780231 0.024077464 -0.009476364 0.04846344 -0.008495395
-0.0073172012 -0.04834621 0.008945829 -0.0074191615 0.05426855 0.044033907 0.017906267 -0.014529548
0.0095948 0.01182789 -0.02023317 -0.017083762 -0.00054819405 0.015147789 0.017576927 0.008683936
0.0048651486 0.011345222 0.0005562232 -0.009594866 0.025603915 0.02201312 -0.005375216 -0.0053551416
0.0006026983 0.010258677 -0.007400317 0.0044089444 -0.04141179 0.0018326577 -0.015271788 -0.0009782838
0.0011695585 -0.005183269 0.0037935337 0.015994076 0.020123683 0.014390587 -0.025845967 -0.011510027
-0.009247524 -0.006998216 0.031256128 0.055137366 0.023405485 0.02784732 -0.044933848 -0.02592856
0.0063057807 -0.04908698 -0.005837025 0.037884854 0.009011275 0.008728532 0.020906625 -0.005973542
0.016905501 0.0043391804 -0.005442693 0.006929428 0.0026943653 -0.011093772 -0.02018226 -0.003092832
0.013873566 -0.0025685225 0.05028138 -0.032367654 -0.0056920755 0.005454259 0.037507262 -0.009539388

actor.6.bias f4 [8]
00000000: 9965 593d a791 b0bc 1de3 ffbb 2918 e53c
00000010: 9bb5 e93c 1839 bcbb 7216 fe3c 8e62 9cbd
0.053075407 -0.021553827 -0.0078090564 0.027965622 0.028528979 -0.005744111 0.031016562 -0.07635985

critic.0.weight f4 [128, 31]
00000000: b094 1a3e 8dd0 2b3e 699d 493c 7875 bf3d
00000010: 747f bdbd e5cb e13c bacc 043e 4d7d 2f3d
00000020: dc67 7e3d 5697 823f e6d7 14bf 0b97 af3d
00000030: 3b1c b8bd b572 253e fc28 4a3d 8115 6d3d
00000040: fc73 b63d 6cf8 123b b61a babc 9b13 babd
00000050: 68af bc3d 56f8 743d 3c42 983d dedd 9f3d
00000060: 7b6e 0e3e 4a11 193e 249a 99bb 0c65 113e
00000070: a43a 42bd d87d 12be 3c20 17be a231 8e3d
00000080: 6c7a a43d 30bd 8cbf 0ee3 22bd 467c 133d
00000090: 27af 57bc eff5 603e dc0f 99bd a2de 443e
000000a0: 8c8f c53f 3e02 ecbf 4dd9 0b3e c4d2 bd3c
000000b0: a5b2 bbbd cb1f db3d b85d 0bbc 7a01 033d
000000c0: 1b4a a539 3e5a 0cbc 3624 33bc 5695 08bd
000000d0: a3c3 1a3d 6df8 de3c 0387 b83d 5fe2 3fbc
000000e0: 4407 e4bb 5b46 f73c 9a06 f23c 16e9 f13d
000000f0: 0f9b 1fbe 532d c13c 2775 343e ebbe 04bd
00000100: a3e4 e13e ab91 183e dc06 8d3d 6ec3 2d3e
00000110: 99c4 423e aac6 1dbe 5b5a cfbd 9123 c7bf
00000120: 6510 713f 10d7 45be 4927 2c3d 526a dd3d
00000130: 8712 12bd c06b 7b3c c801 bf3d 2879 d83c
00000140: c32d 1f3d b72d f83c de51 30bd 6843 7c3d
00000150: 4bac 8b3d 10cf 17bc df7c 053e 3e52 cd3c
00000160: 53ad 8dbd da79 36bc 2e4f 153e 5281 81be
00000170: 9bfb fbbd 446c 9b3d 047d 7f3d ddb5 31be
00000180: 1c1f 6bbb c07b 64bd fb76 12bd 0245 1c3e
00000190: 49c0 81bd f024 2b3e 4091 6cbf 74d7 033f
000001a0: 05fc 4abd 47a2 20be 9e84 a63d bd1d 173e
000001b0: f492 98bd cc0d 2e3d 9f84 6f3d e03a e7bd
000001c0: 800d f23d ab27 ac3d 69bb 14bd da9e f93d
000001d0: f34f f83d ec69 653c cdaf d8bd f622 f0bd
000001e0: da69 14bc 3592 153d 4645 fb3b f27c afbd
000001f0: bf7c 083d 1df5 27bd d6b0 e73e a2c9 adbd
00000200: 4d04 733e d717 ab3d 0db4 833e bd92 dfbd
00000210: 0ef6 873c e860 73bf a36e 583f ac38 d7bc
00000220: 6ac3 24bd 27c7 49bd 595f 403e bd1a ec3d
00000230: e4ae 04bc 6fc7 48bd b586 6d3d 133a 603d
00000240: 01a6 9e3d f33d b2bd bbea e3bc f6db ec3d
00000250: 987b d1bd f5f0 f4bc 8aba 2e3e d430 9b3d
00000260: 5f65 0cbe f221 f83c 0eef 9f3d d725 96bd
00000270: 15ba 913d 863d 253f f255 f7bd b2a3 09be
00000280: 7e35 0bbd dd70 293e fa22 18be 60a8 a53d
00000290: 95cb 56bf 941c 8b3f 68d6 813d 7c8a 473e
000002a0: 5634 953e d999 92ba 5c21 753d faf4 d9bc
000002b0: 8108 a4bb c8f7 383c 2152 993c cdf8 fc3c
000002c0: edaf 95bc 23f7 bc3b 0e1c ddbd c930 1bbd
000002d0: 4db4 133d c631 13be 6e98 163e f6d4 97bd
000002e0: 3d42 a9bd 0572 8e3d 4da8 e63d b6a2 ee3d
000002f0: 4c02 5dbe b8a2 a6bd 6ac0 f1bd 430e 98bd
00000300: 8092 bf3c 872f a03d 84c6 323e ff59 9b3f
00000310: cf86 31bf 46b5 eb3d d8f3 d7bd fab1 08be
00000320: bc8b 043e fec3 2b3d 2f15 e63c 7307 03bd
00000330: 3972 a23d 0e42 95bd bfa9 23bd 7aae 25bb
00000340: 7b7b a2bd 9b3e 8e3c da94 c7bd f551 a0bd
00000350: 5268 ebbd 7b74 123d 98c8 a4bd 0aa8 1dbe
00000360: d152 223e 1649 d9bd 2d68 84bd fc51 dcbd
00000370: b7b0 013d 7033 3abd 4dc0 88bc c6ec 3c3e
00000380: 6f66 163e 5f23 2abe e361 cd3f 8c49 473f
00000390: a8c3 d33d 1812 523c b2a6 31be 8407 54bc
000003a0: 20c1 9f3b d735 e93c f985 5c3d 3834 a4bc
000003b0: 7fb2 be39 a4e5 8cbd 3011 23bc 48be 18bc
000003c0: cec8 dabd 549d 4e3d 7513 6e3b 3f47 aabd
000003d0: 56bc 403d ad00 853e 4f68 113e 1a04 92bd
000003e0: efe9 f2bc be71 053e 9dde 2bbe 4e5a 20bd
000003f0: d463 333d 674d ca3d f0d6 063e 3654 b13d
0.15095782 0.16778775 0.012305596 0.09348577 -0.092528254 0.027563045 0.12968722 0.042844106
0.062110767 1.0202434 -0.58141935 0.08573731 -0.089897595 0.16157039 0.049355492 0.057881836
0.08908841 0.0022425903 -0.022717815 -0.09085771 0.092131436 0.059807144 0.07434508 0.0780599
0.13909332 0.14948002 -0.0046875644 0.14198703 -0.047419205 -0.14305818 -0.1475839 0.069430605
0.080311626 -1.0995235 -0.039767317 0.03600719 -0.013164318 0.21968816 -0.07473728 0.19225553
1.5434432 -1.8438184 0.13657112 0.02317179 -0.09164933 0.106994234 -0.008506231 0.03198383
0.00031526465 -0.008566437 -0.010933926 -0.033345543 0.03778423 0.027218068 0.090101264 -0.011711686
-0.006958874 0.030184915 0.029544163 0.11812036 -0.15586494 0.023581183 0.17622815 -0.032408636
0.44119748 0.14899318 0.06886074 0.16969082 0.19020309 -0.15407816 -0.10124656 -1.5557729
0.9416564 -0.19320321 0.042029653 0.108112946 -0.0356622 0.015345514 0.093265116 0.02642496
0.038862 0.030295236 -0.043046825 0.06158772 0.06819972 -0.009265676 0.13035916 0.02506363
-0.069178246 -0.01113745 0.14580986 -0.25293976 -0.12303849 0.075890094 0.062375084 -0.17354532
-0.0035876697 -0.05578208 -0.035758 0.152607 -0.063355036 0.1671331 -0.92409134 0.5150063
-0.04955675 -0.15686904 0.081307635 0.14757438 -0.07449904 0.042493626 0.058476087 -0.112905264
0.11818981 0.084060036 -0.03631154 0.12188502 0.12124624 0.0140023045 -0.10580406 -0.11725418
-0.00905844 0.036516387 0.00766817 -0.08568753 0.033322092 -0.041005243 0.45252103 -0.08485724
0.2373211 0.083541565 0.25723305 -0.1091666 0.01659682 -0.9506974 0.8454382 -0.02627214
-0.040225424 -0.049262192 0.18786372 0.115285374 -0.008098338 -0.04901832 0.057989795 0.054742884
0.077465065 -0.08703222 -0.02782189 0.11565392 -0.10228652 -0.029900054 0.17063347 0.075776726
-0.13710545 0.030289624 0.07809268 -0.07331436 0.071155705 0.64547 -0.1207694 -0.13441351
-0.03398656 0.1654696 -0.14857092 0.080887556 -0.8390439 1.0868096 0.06339723 0.19486421
0.29141492 -0.0011184766 0.059846267 -0.026606072 -0.0050058966 0.011289544 0.01871592 0.030880356
-0.018272365 0.0057667657 -0.10796367 -0.037888322 0.03606062 -0.14374456 0.14706585 -0.07413666
-0.08264587 0.06955341 0.112625696 0.116521284 -0.21582907 -0.08136505 -0.11804278 -0.07424595
0.023385286 0.07821565 0.1745854 1.213684 -0.69346327 0.115091845 -0.105445564 -0.13349143
0.1294393 0.04193496 0.028086273 -0.031989526 0.079319425 -0.072879896 -0.039956804 -0.0025280998
-0.07933708 0.017363837 -0.09745188 -0.07828132 -0.11494507 0.035755616 -0.08046073 -0.15396133
0.15851904 -0.10609643 -0.064651825 -0.10757825 0.03166267 -0.04545921 -0.016693259 0.18449697
0.14687513 -0.16615056 1.6045498 0.778466 0.10340053 0.012821697 -0.17348745 -0.012941245
0.004875317 0.028468056 0.053838704 -0.020044431 0.00036372614 -0.06879738 -0.009952828 -0.00932271
-0.10682832 0.05044301 0.0036327515 -0.0831437 0.04705461 0.25977078 0.14199947 -0.071296886
-0.029652564 0.1303167 -0.16784139 -0.03914862 0.043796375 0.098780446 0.1316793 0.0865864

critic.0.bias f4 [128]
00000000: 245a 16be ac1f 38be be7f ad3e f114 4f3d
00000010: f83a b23d 1ff8 48be 8427 113d 03e3 9f3d
00000020: f1cf efbd 8f20 91bc 0be9 a4bb 6ac7 38be
00000030: 2a8c 13be f8aa 08be 8437 4a3d 2cf1 33be
00000040: a6cd fcbd 3501 95be 89fb c63d 2087 1d3c
00000050: bed0 473e 0a94 fdbd 376f c6bd 0ea1 54be
00000060: 6534 9ebc b2af dbbd b913 e73d 057a 87be
00000070: b9f6 52be 81b0 a63d d384 0d3c f76f 8b3e
00000080: 4908 a8bd d48b 683e 43e5 8b3e fd02 93be
00000090: 70a0 99be 2631 8d3c a8b9 61be 2096 63be
000000a0: 262b 0ebd 0d59 b83e f274 f9bd 231b 6dbe
000000b0: e333 343e ea59 013d 225c 643e c3cf 67be
000000c0: 8112 8fbe 8531 193c ca6f c3bd d9cb 07be
000000d0: 14af dbbd 1ece b73d cf60 65bd 3983 4cbe
000000e0: 69a4 35bd 27f5 e3bd 11ca 343e 2b7d cebc
000000f0: acf9 ffbb adf1 f6bd 214a 613b 3dd2 d6bd
00000100: 1448 91bd 4b77 5ebd d514 9abb 0871 e9bd
00000110: c06f 4cbe 08cf 423e c5b9 96be 3fbf 523e
00000120: 8306 e2bd 9a9d bb3e b078 d43c ec83 753d
00000130: 7a2d b83e ddb1 bfbc a302 bc3c f113 febc
00000140: 5299 f93c 426c 2ebe aabe 74bd 1799 0b3f
00000150: bdbd f1be db38 8d3e 470f d23d 5364 8bbd
00000160: d962 473e 6b8a 1b3e 0c1c 7cbe 7856 08bc
00000170: 10ca 75be 5de7 923d 79ed a7be d83a a83e
00000180: 7c56 3ebc 6308 bdbd 9dbc 703d a539 1d3e
00000190: 0c0e c73b ac86 8dbd 5201 a83d cd3d 82bd
000001a0: 421b a03e 5982 77be cb55 7f3e eea7 bfbd
000001b0: 4693 9e3b 4c16 7e3d 6857 85be 7169 bb3a
000001c0: f881 efba f6c9 b53d 5d86 95bc d8c8 263a
000001d0: 7cfc c9bc ad96 e43d d538 fbbd 57fa 653d
000001e0: fb63 2f3c 4a67 c23d 5b02 ac3d 2507 c4bd
000001f0: 9e27 0d3e 276b 4fbe be2e 4b3d cbd2 80bd
-0.14682823 -0.17980832 0.33886522 0.05055708 0.08702654 -0.196259 0.035438076 0.07806971
-0.117095836 -0.01771572 -0.0050326637 -0.1804482 -0.14408937 -0.1334647 0.04936935 -0.17572469
-0.12343912 -0.29102483 0.09715945 0.009614736 0.19513223 -0.12381752 -0.09689181 -0.20764562
-0.019312093 -0.107268706 0.11283059 -0.2646028 -0.2060193 0.08139134 0.008637625 0.2723386
-0.08204705 0.2270959 0.2732335 -0.28713217 -0.30005217 0.01723535 -0.22043478 -0.22225237
-0.03470912 0.3600544 -0.12180509 -0.23154883 0.17597918 0.03157989 0.22300771 -0.22637849
-0.27943805 0.009350185 -0.095428064 -0.13261355 -0.10726753 0.089748606 -0.056000527 -0.19971932
-0.044346247 -0.111307435 0.17655207 -0.02520617 -0.0078117456 -0.12057815 0.003437646 -0.104893185
-0.07093826 -0.054312985 -0.0047021904 -0.11398512 -0.19964504 0.19024289 -0.29438606 0.20580767
-0.11036398 0.36643678 0.025936455 0.059940264 0.35972196 -0.023400242 0.022950476 -0.031015368
0.030468617 -0.17033485 -0.059752144 0.5453047 -0.4721507 0.2758244 0.1025682 -0.06806245
0.19471301 0.15189521 -0.24620074 -0.008321397 -0.24002862 0.07173035 -0.32798365 0.32857394
-0.011617299 -0.09230115 0.058773626 0.15354021 0.0060746726 -0.06910452 0.08203377 -0.06359444
0.31270796 -0.24170817 0.24935071 -0.09358202 0.0048393337 0.062032983 -0.26043248 0.0014298392
-0.0018272987 0.088764116 -0.018252546 0.00063623255 -0.024656527 0.111615516 -0.12266699 0.056146946
0.01070499 0.09492357 0.08398887 -0.09571675 0.13784644 -0.20255719 0.049605124 -0.062902056
