ISAAC_NOGIT/logs/rsl_rl/traquad_flat/2025-09-12_15-41-20/model_299.pt (torch, 928555 bytes, 48 tensors)

std f4 [8]
0.3855028 0.33947676 0.30631578 0.3998014 0.73024935 0.72583187 0.75230247 0.7823705
00000000: 9f60 c53e e6cf ad3e 6cd5 9c3e c5b2 cc3e
00000010: 9ff1 3a3f 1ed0 393f e596 403f 6f49 483f

actor.0.weight f4 [128, 32]
-0.3707104 0.24574119 -0.24710338 0.4846216 0.040335182 -0.15955682 0.6315541 0.35774723
0.22223152 -0.33629894 0.12238549 0.5256425 -0.15956734 0.059072465 -0.32956007 0.8848289
0.15352188 0.04866121 0.08758696 0.109826185 0.07083554 0.02522451 0.0005182411 0.015486301
0.20501667 -0.05853679 0.24979147 0.107175305 0.046735503 0.09487424 -0.15619755 -0.20731038
-0.69191813 0.39803794 -0.16899899 -0.21460216 -0.090097636 -0.16416048 -0.2798541 1.4637687
0.19598149 0.07485828 0.0027776458 0.38765535 -0.07656371 0.31203082 0.119796924 0.26628265
0.027164085 -0.01893722 0.0074091763 0.12904873 -0.029274385 -0.018688774 -0.028110562 -0.000956909
0.19753447 -0.067829475 -0.15494213 -0.33357766 0.065512635 -0.43548256 0.26296872 0.22406995
-0.7604198 0.27363595 0.0022401244 -0.45506865 0.20233126 -0.06266349 -0.21353628 -0.32970828
-0.06442826 0.9528869 0.0037092597 -0.10494381 0.4763508 -0.53385925 -1.1837754 0.08903546
0.06032635 0.02331687 0.05184056 -0.008334885 -0.11799613 0.005663742 -0.0020245742 -0.026000962
0.10034238 0.116359636 -0.15728943 -0.25759745 0.18236245 0.12006591 0.05765697 0.11389812
-0.09960448 -0.45482305 0.45848468 0.1583489 0.19704603 0.30257514 -0.16958822 -0.34320745
0.039800912 -0.45077562 0.13947235 0.1648689 0.585582 -0.4801371 0.50666 0.35061872
0.008340213 -0.0018290872 -0.12432402 0.109344274 -0.0037053232 0.0056955637 0.008671735 0.09609917
0.09351544 -0.3053183 0.13023388 -0.058637124 -0.04281883 -0.21578738 -0.18113 -0.24566472
0.26509628 0.060213935 -0.70986354 -0.171553 -0.06938204 0.031969476 -0.7883829 0.15671708
0.44177628 -0.8314064 0.0040257615 -0.008347687 0.44201356 -0.7638331 -0.082196765 0.14781828
-0.053966798 -0.12538972 0.06885419 -0.00727639 0.0065969373 0.051189642 -0.02118421 -0.021140898
-0.03323739 -0.06224916 0.19864093 -0.008800829 0.14778027 -0.06419219 0.13042472 0.07584321
0.41470498 -0.10990235 -0.64528924 -0.024747865 -0.4838775 -0.36922434 0.31539252 0.97313166
0.087552615 0.47615644 -0.056268845 -0.28113294 -0.61321867 1.1297491 0.010044724 0.16668098
-0.029822314 0.03522122 -0.094371505 -0.07522106 0.08987182 -0.062741324 -0.050046958 -0.040337905
0.5949193 0.06848224 -0.030818569 -0.28453678 0.16951343 0.28650892 0.2812257 -0.3286071
0.16455863 -0.27122617 0.34466687 -0.14928347 0.33901548 -0.23886852 -0.19324182 -0.0713264
0.04643848 0.6745495 -0.011511189 0.008743765 1.0645014 0.09127821 -0.24540439 -1.2179625
0.07296282 -0.18281084 -0.032039817 -0.04805968 -0.0025426808 0.011333052 0.0176101 0.023262603
-0.3373595 0.3274116 -0.10848906 0.20994046 0.0540533 0.0021350123 0.13299912 0.27529234
0.32247463 0.11635711 -0.3069964 -0.23309864 -0.26554212 0.46345988 -0.16600378 0.3500514
0.3803371 -0.05830882 0.15767193 -0.28722763 0.03242743 -0.7007217 -0.8182095 -0.2608713
-0.06444768 -0.08455776 -0.018823395 0.16771816 0.04242492 0.11731765 -0.045249682 -0.046882138
-0.25468674 0.10138558 0.25248012 -0.08299615 0.16662797 -0.21625024 -0.05820743 0.075186655
00000000: c1cd bdbe 94a3 7b3e ab08 7dbe 5320 f83e
00000010: 8136 253d dd62 23be 88ad 213f a52a b73e
00000020: a990 633e 602f acbe 3ea5 fa3d 8290 063f
00000030: 9f65 23be f8f5 713d 19bc a8be 2684 623f
00000040: d734 1d3e fa50 473d cb60 b33d 8dec e03d
00000050: 3912 913d a2a3 ce3c 92da 073a 41ba 7d3c
00000060: e4ef 513e 46c4 6fbd 56c9 7f3e ba7e db3d
00000070: ba6d 3f3d 6d4d c23d 40f2 1fbe 2c49 54be
00000080: 8c21 31bf a1cb cb3e 120e 2dbe abc0 5bbe
00000090: 1c85 b8bd af19 28be 0949 8fbe c65c bb3f
000000a0: 5faf 483e 4c4f 993d 2a09 363b c37a c63e
000000b0: 6fcd 9cbd 81c2 9f3e 1758 f53d 3356 883e
000000c0: 3787 de3c 3b22 9bbc adc8 f23b 5a25 043e
000000d0: d6d0 efbc 3319 99bc 1f48 e6bc 13d9 7aba
000000e0: 7a46 4a3e 2eea 8abd 26a9 1ebe b1ca aabe
000000f0: 7d2b 863d 92f7 debe d6a3 863e 9872 653e
00000100: dfaa 42bf 031a 8c3e 0dcf 123b c2fe e8be
00000110: ed2f 4f3e b755 80bd 41a9 5abe 86cf a8be
00000120: f7f2 83bd 65f0 733f 0d17 733b c8ec d6bd
00000130: 41e4 f33e 00ab 08bf f485 97bf 3958 b63d
00000140: c318 773d 0503 bf3c c456 543d 0b8f 08bc
00000150: f4a7 f1bd e996 b93b b8ae 04bb f8ff d4bc
00000160: 4e80 cd3d f64d ee3d 7b10 21be d0e3 83be
00000170: 39bd 3a3e 1ee5 f53d b729 6c3d 6b43 e93d
00000180: 6ffd cbbd 91de e8be 81be ea3e 3726 223e
00000190: 6fc6 493e 21eb 9a3e 89a8 2dbe e3b8 afbe
000001a0: 4806 233d 10cc e6be d7d1 0e3e 65d3 283e
000001b0: b4e8 153f 88d4 f5be 78b4 013f 4c84 b33e
000001c0: 64a5 083c fbbd efba 989d febd e4ef df3d
000001d0: 02d5 72bb daa1 ba3b e513 0e3c a4cf c43d
000001e0: 0685 bf3d ae52 9cbe 085c 053e 7b2d 70bd
000001f0: cc62 2fbd 5ef7 5cbe 257a 39be 888f 7bbe
00000200: b3ba 873e e3a2 763d 9eb9 35bf 97ab 2fbe
00000210: 2c18 8ebd 6df2 023d 76d3 49bf 717a 203e
00000220: 8030 e23e 0dd7 54bf 89ea 833b bdc4 08bc
00000230: 9a4f e23e 918a 43bf c756 a8bd ad5d 173e
00000240: 4a0c 5dbd 2a66 00be 6d03 8d3d c96e eebb
00000250: 1f2b d83b 3bac 513d 828a adbc ad2f adbc
00000260: ee23 08bd faf8 7ebd 8768 4b3e 5a31 10bc
00000270: b653 173e 3277 83bd 0f8e 053e af53 9b3d
00000280: 3654 d43e 7c14 e1bd ad31 25bf 09bc cabc
00000290: cbbe f7be f90a bdbe 217b a13e 281f 793f
000002a0: c94e b33d c7ca f33e 297a 66bd a8f0 8fbe
000002b0: e6fb 1cbf 9e9b 903f a092 243c 6bae 2a3e
000002c0: ed4d f4bc 2044 103d d945 c1bd 800d 9abd
000002d0: b70e b83d 867e 80bd 0afe 4cbd 5c39 25bd
000002e0: a24c 183f 6b40 8c3d 3977 fcbc ceae 91be
000002f0: ee94 2d3e 4cb1 923e d1fc 8f3e 313f a8be
00000300: 0f82 283e 28de 8abe 2d78 b03e c4dd 18be
00000310: 7093 ad3e f399 74be 2fe1 45be 9313 92bd
00000320: 4736 3e3d 47af 2c3f 6d99 3cbc 0242 0f3c
00000330: 9541 883f 12f0 ba3d 4a4b 7bbe 32e6 9bbf
00000340: 886d 953d c432 3bbe 2f3c 03bd 3ada 44bd
00000350: 1ba3 26bb 44ae 393c 0e43 903c 3791 be3c
00000360: 62ba acbe 7ea2 a73e 832f debd a2fa 563e
00000370: fe66 5d3d 90eb 0b3b ec30 083e 1ef3 8c3e
00000380: 651b a53e a34c ee3d a22e 9dbe 69b1 6ebe
00000390: 23f5 87be 9d4a ed3e e5fc 29be f039 b33e
000003a0: 8bbb c23e 3bd5 6ebd c074 213e 800f 93be
000003b0: a0d2 043d 7f62 33bf 2e76 51bf ec90 85be
000003c0: 25fd 83bd 9e2c adbd 8533 9abc 4fbe 2b3e
000003d0: c1c5 2d3d 3c44 f03d bb57 39bd 7c07 40bd
000003e0: 4d66 82be 3ea3 cf3d 1345 813e e3f9 a9bd
000003f0: 86a0 2a3e b470 5dbe ea6a 6ebd 76fb 993d

actor.0.bias f4 [128]
-0.39882132 -0.3012454 -0.041824177 -0.19893232 -0.22661194 -0.20785998 -0.2546552 -0.21898933
-0.19594906 0.14844836 -0.33412993 0.09951054 0.05309484 -0.13980816 -0.09205945 -0.21209769
0.089695476 -0.2620411 0.13038084 0.25236252 0.1314719 -0.16546366 0.086593874 -0.05155889
-0.11802565 0.22052428 -0.047813848 -0.12134001 -0.15035114 0.18888105 0.07887644 -0.11690866
-0.21699572 0.11636907 -0.09162852 -0.25729445 -0.13181907 -0.21778032 -0.22710863 -0.16145273
0.05622521 -0.14768125 -0.03996924 -0.04761228 0.019430563 0.09569125 0.021185895 -0.0016854665
-0.097009785 -0.0023129035 -0.3887267 -0.017669583 -0.08473313 -0.20542754 -0.12989569 -0.019589027
0.19322588 -0.14748769 0.004743968 -0.22945003 -0.12678204 0.13225865 -0.15924041 0.07870195
-0.22408214 0.03681629 -0.06524823 -0.15485854 -0.10283202 -0.06137918 -0.10864962 -0.22892685
-0.09947732 -0.062226456 -0.09107333 -0.34304497 -0.24905644 -0.39017332 -0.3371039 -0.012739562
-0.19675712 -0.16696067 -0.29435378 0.17911327 -0.083401114 0.076276086 -0.22515583 -0.20238216
-0.25774723 -0.0047317115 -0.054089207 -0.07032245 -0.06779414 0.12661773 -0.22840564 0.027754726
-0.19708784 -0.20084406 -0.2487644 -0.030055106 -0.22310995 -0.07493897 0.101948574 -0.06124922
-0.3732749 0.005092276 -0.06723422 -0.04356929 -0.0056599835 -0.18802059 0.00402881 0.11191561
-0.09510774 -0.035973437 -0.04182298 0.029791046 0.057513498 -0.30937183 -0.10104672 0.12194452
-0.22281595 -0.13712439 -0.08242657 -0.13696016 -0.32233384 -0.037860215 -0.58591646 -0.053268418
00000000: 4f32 ccbe d63c 9abe d44f 2bbd eab4 4bbe
00000010: f60c 68be 3fd9 54be 2b62 82be bd3e 60be
00000020: dfa6 48be d902 183e 1413 abbe 2fcc cb3d
00000030: fa79 593d df29 0fbe aa89 bcbd 2330 59be
00000040: 43b2 b73d 402a 86be 8e82 053e a935 813e
00000050: 92a0 063e 4e6f 29be 2158 b13d 6a2f 53bd
00000060: 6fb7 f1bd 1ed1 613e 74d8 43bd 1c81 f8bd
00000070: a6f5 19be 096a 413e f989 a13d cf6d efbd
00000080: 2034 5ebe e852 ee3d bca7 bbbd 19bc 83be
00000090: 94fb 06be ce01 5fbe 2a8f 68be dd53 25be
000000a0: 684c 663d c139 17be c9b6 23bd 1805 43bd
000000b0: d82c 9f3c c6f9 c33d 0b8e ad3c dfea dcba
000000c0: 11ad c6bd 1594 17bb 3007 c7be cdbf 90bc
000000d0: 9088 adbd 995b 52be 6003 05be 2b79 a0bc
000000e0: 01dd 453e 0307 17be 4a73 9b3b f3f4 6abe
000000f0: 27d3 01be d06e 073e eb0f 23be 7d2e a13d
00000100: ca75 65be aecc 163d dda0 85bd 3d93 1ebe
00000110: 9899 d2bd bc68 7bbd b183 debd cd6b 6abe
00000120: c4ba cbbd 2be1 7ebd a784 babd 97a3 afbe
00000130: a708 7fbe ccc4 c7be e298 acbe 99b9 50bc
00000140: b37a 49be bdf7 2abe 8ab5 96be 7869 373e
00000150: 34ce aabd a336 9c3d 408f 66be 453d 4fbe
00000160: 72f7 83be 790c 9bbb a58c 5dbd 3705 90bd
00000170: a7d7 8abd 14a8 013e 2be3 69be e15d e33c
00000180: 65d1 49be 11aa 4dbe 18bc 7ebe 2036 f6bc
00000190: ef76 64be 9a79 99bd 6aca d03d 76e0 7abd
000001a0: e31d bfbe 1bdd a63b 18b2 89bd b675 32bd
000001b0: 6277 b9bb 7888 40be 1c04 843b 0334 e53d
000001c0: d9c7 c2bd e258 13bd 934e 2bbd 5a0c f43c
000001d0: 4693 6b3d fc65 9ebe 95f1 cebd 0cbe f93d
000001e0: dd29 64be 566a 0cbe 43cf a8bd 493f 0cbe
000001f0: f108 a5be 5013 1bbd 9ffe 15bf fc2f 5abd

actor.2.weight f4 [128, 128]
-0.07203297 -0.047606487 -0.041071124 0.04844322 -0.030791907 -0.22421217 0.041604478 -0.053162456
-0.20364977 0.071486354 -0.07357853 -0.22346997 -0.040556587 -0.06192067 -0.05943127 0.124031894
-0.19715199 0.0067619383 -0.29145247 0.0005094981 -0.059605952 -0.16947691 -0.07009593 -0.021064688
-0.15261288 -0.15691237 0.19208309 -0.16449891 -0.17656745 -0.04929617 -0.091987796 0.035489146
-0.21295816 0.06939315 0.046784632 0.04798222 0.020770103 -0.2656712 0.07854714 -0.16086927
-0.029189667 -0.13927877 0.058544777 0.11211291 -0.07645858 -0.037557617 -0.012410745 -0.1099765
-0.004800913 0.13889083 0.026372982 -0.18900785 -0.020103047 -0.2713136 -0.0292328 0.0656768
-0.10629189 -0.0671388 0.050995644 -0.036973737 0.07543067 0.0433521 0.14311461 -0.15346046
-0.066193886 -0.025552077 0.099177256 -0.016224982 -0.06967169 -0.1463673 -0.19432148 -0.12888774
-0.13384423 -0.071176834 -0.15494604 -0.057851363 -0.13766325 0.024145205 0.092581384 -0.0800215
-0.21846345 -0.21262453 -0.14833353 0.09996467 -0.0019304767 -0.21080574 -0.034164198 0.069023855
-0.06258316 -0.05613788 -0.04555577 -0.010013091 -0.04767317 -0.031067364 -0.057383254 0.071611576
-0.035932746 0.038066983 0.06229485 0.04335524 -0.16608657 -0.14021744 -0.166415 -0.0045684236
-0.0013640757 -0.13089307 0.10111372 0.07585977 -0.009632688 0.13814978 -0.30059147 -0.12781864
-0.029213192 -0.09516683 0.188298 -0.08389462 -0.010736161 0.03762688 0.09350192 -0.07628187
0.0695268 -0.075495005 -0.025058866 -0.061637912 -0.19921848 -0.096911445 -0.029324703 -0.06513966
-0.032322455 0.03427029 -0.14649782 -0.12099074 0.037648134 0.21652365 0.00042439872 -0.08762063
-0.040530276 0.08285592 -0.03463552 0.033057224 0.067807876 0.013590414 -0.10072719 0.23477943
-0.22170259 -0.0006611693 -0.12704028 -0.10694353 -0.022340532 0.025839243 -0.0031927004 0.031804394
-0.039782673 -0.032412097 0.07669437 0.004000118 -0.024824915 0.0020247505 -0.011386212 -0.069707744
0.10497584 0.08195447 -0.08441154 0.008120327 -0.023334056 -0.13404469 0.023592943 -0.17836179
-0.025284119 0.06757046 -0.18492708 -0.07083876 0.014399373 -0.08995065 0.059235685 0.12344092
0.19116269 0.038419906 0.20487282 -0.050811406 -0.036125813 0.054334786 -0.033512987 -0.023466896
-0.10328581 0.022906275 0.054588955 -0.06805196 0.013794747 -0.0842254 0.03666161 0.019671656
-0.07662035 0.0013891048 0.0064619156 0.020688344 -0.03046565 -0.16625236 -0.09195853 -0.08263966
-0.18692581 -0.039918557 -0.1148913 -0.12420247 -0.054686364 0.14624634 -0.02099754 -0.16168283
-0.14273453 0.008706174 -0.008968745 0.14306979 -0.0028050405 0.06555432 -0.023091769 -0.15175997
-0.07212392 -0.038021952 -0.19875477 -0.14077072 -0.06918737 0.035814486 0.01514094 -0.07199453
-0.03414863 0.10606978 0.031092359 0.043599647 0.098340005 -0.09895175 0.14895065 0.07164986
-0.19985197 -0.024040656 0.006446725 -0.14376944 0.067103185 0.18249713 0.013992232 0.071106344
-0.2353352 -0.035025235 0.04982391 -0.14657016 0.016414043 -0.048730202 0.0097149275 -0.11020359
-0.022531345 -0.055247664 -0.036595494 0.014037204 0.044519868 -0.19758995 -0.034539465 -0.35960993
00000000: 0686 93bd 05ff 42bd 323a 28bd 666c 463d
00000010: 4f3f fcbc e097 65be 7569 2a3d e0c0 59bd
00000020: 9189 50be 7067 923d 57b0 96bd 50d5 64be
00000030: aa1e 26bd 87a0 7dbd 346e 73bd 6f04 fe3d
00000040: 36e2 49be 4093 dd3b 4239 95be d78f 053a
00000050: 5f25 74bd 5b8b 2dbe 748e 8fbd da8f acbc
00000060: 8d46 1cbe a3ad 20be 6eb1 443e 6772 28be
00000070: 19ce 34be c8ea 49bd 1964 bcbd 115d 113d
00000080: b411 5abe ff1d 8e3d 3ea1 3f3d 0189 443d
00000090: 1026 aa3c 0e06 88be 53dd a03d eaba 24be
000000a0: 2b1f efbc 189f 0ebe a6cc 6f3d 749b e53d
000000b0: 5196 9cbd 04d6 19bd 7056 4bbc 5c3b e1bd
000000c0: fa50 9dbb 6639 0e3e 270c d83c 468b 41be
000000d0: 25af a4bc 9ee9 8abe a079 efbc 8f81 863d
000000e0: 90af d9bd 1180 89bd cfe0 503d c671 17bd
000000f0: 657b 9a3d f991 313d a38c 123e bd24 1dbe
00000100: a990 87bd 9752 d1bc 721d cb3d 41ea 84bc
00000110: 08b0 8ebd 4fe1 15be 36fc 46be 26fb 03be
00000120: 760e 09be 29c5 91bd 2daa 1ebe 8df5 6cbd
00000130: 98f7 0cbe 2acc c53c 4f9b bd3d 50e2 a3bd
00000140: e2b4 5fbe 3fba 59be bfe4 17be 47ba cc3d
00000150: 0d08 fdba 76dd 57be c2ef 0bbd 615c 8d3d
00000160: 9a2b 80bd d5f0 65bd b098 3abd f30d 24bc
00000170: f144 43bd fc80 febc b40a 6bbd 17a9 923d
00000180: 372e 13bd 20ec 1b3d e228 7f3d 4495 313d
00000190: 9912 2abe 2995 0fbe b268 2abe b7b2 95bb
000001a0: c9ca b2ba d508 06be b614 cf3d 5e5c 9b3d
000001b0: 6cd2 1dbc 2377 0d3e 20e7 99be e4e2 02be
000001c0: 8150 efbc d4e6 c2bd 31d1 403e f1d0 abbd
000001d0: b9e6 2fbc a51e 1a3d ef7d bf3d ab39 9cbd
000001e0: 1164 8e3d 209d 9abd 4048 cdbc 0978 7cbd
000001f0: eeff 4bbe 8279 c6bd 5c3a f0bc f167 85bd
00000200: 8d64 04bd 015f 0c3d 8603 16be fec9 f7bd
00000210: ee34 1a3d 60b8 5d3e d581 de39 7272 b3bd
00000220: 1303 26bd 5db0 a93d fadd 0dbd 0367 073d
00000230: dbde 8a3d 54aa 5e3c 0f4a cebd 056a 703e
00000240: 0106 63be 5252 2dba d916 02be 3605 dbbd
00000250: 7e03 b7bc d2ac d33c a03c 51bb 5345 023d
00000260: 28f3 22bd 8cc2 04bd f011 9d3d 6c13 833b
00000270: 9f5d cbbc adb1 043b 3c8d 3abc efc2 8ebd
00000280: 93fd d63d bfd7 a73d f5df acbd 1f0b 053c
00000290: 1027 bfbc 0343 09be fd45 c13c 79a4 36be
000002a0: a420 cfbc 6262 8a3d 865d 3dbe e913 91bd
000002b0: 59eb 6b3c 0c38 b8bd 1ea1 723d 98ce fc3d
000002c0: 27c0 433e 315e 1d3d 2eca 513e 9f1f 50bd
000002d0: a9f8 13bd 278e 5e3d ea44 09bd a63d c0bc
000002e0: 8387 d3bd f1a5 bb3c ab98 5f3d d35e 8bbd
000002f0: 5d03 623c 5e7e acbd 7c2a 163d 7426 a13c
00000300: 21eb 9cbd 9f12 b63a 7abe d33b 9a7a a93c
00000310: 1993 f9bc 0f3e 2abe c154 bcbd fb3e a9bd
00000320: 7b69 3fbe a481 23bd 214c ebbd dd5d febd
00000330: cffe 5fbd 9ac1 153e 0803 acbc 2f90 25be
00000340: 0029 12be 57a4 0e3c a5f1 12bc e380 123e
00000350: c5d4 37bb 5841 863d f32a bdbc f766 1bbe
00000360: b5b5 93bd e8bc 1bbd 5f86 4bbe 3326 10be
00000370: 1cb2 8dbd 36b2 123d b511 783c de71 93bd
00000380: 6fdf 0bbd 1d3b d93d 67b5 fe3c 8b95 323d
00000390: 7c66 c93d 37a7 cabd 8586 183e 29bd 923d
000003a0: ffa5 4cbe e9f0 c4bc 0d3f d33b 4c38 13be
000003b0: 656d 893d 87e0 3a3e ad3f 653c 34a0 913d
000003c0: b6fb 70be 9f76 0fbd 2814 4c3d 7d16 16be
000003d0: be76 863c 5299 47bd 5c2b 1f3c 6bb2 e1bd
000003e0: a893 b8bc 604b 62bd 28e5 15bd 4dfc 653c
000003f0: 775a 363d 0555 4abe 4179 0dbd cb1e b8be

actor.2.bias f4 [128]
-0.10519735 -0.10457876 -0.13031332 0.012154973 -0.061226793 -0.04603787 -0.1477994 0.0356742
-0.080011055 -0.19595128 -0.034197267 -0.34030005 0.116943605 0.026532495 -0.26689202 -0.25875142
0.17408524 -0.2738073 -0.20170306 -0.22276148 -0.18854544 -0.117375344 -0.23852146 -0.042855106
-0.29539174 -0.16910976 -0.15073578 -0.34817222 -0.06974126 0.09151612 -0.1265234 -0.07429219
-0.1364217 -0.21019584 -0.26857972 -0.12778065 0.0709664 -0.36651435 0.03144498 -0.20984615
0.17565653 -0.10654331 -0.055350225 -0.090702415 -0.12238984 -0.26019287 -0.2513532 -0.19835553
-0.13586214 -0.13929924 -0.2519965 -0.11255721 -0.25812313 0.009351842 -0.25884426 -3.541527e-05
-0.06680863 -0.11522946 0.17107786 -0.26939538 -0.06838992 0.049996343 -0.08516096 -0.107465096
-0.14218226 0.019132178 -0.13864863 -0.16290224 -0.09532391 -0.036609348 -0.18724243 -0.067632586
-0.058628272 0.07670872 0.18993084 -0.06853106 -0.14277437 0.07287129 -0.09235697 -0.0946363
-0.09872949 0.0267384 -0.06281425 0.0146473395 -0.2416352 -0.24178307 0.012430496 0.08755222
-0.16706544 -0.059686594 0.040594522 -0.12628905 -0.11341813 0.033745497 -0.03188688 0.07709267
-0.14030817 -0.09625838 -0.15033406 -0.115134895 -0.15350167 -0.1886838 -0.125605 -0.2549719
-0.07044825 -0.2568411 0.07896174 -0.09848276 -0.033547807 -0.37976167 -0.019830618 -0.18237044
-0.097798504 -0.23731656 -0.37210894 -0.051643725 -0.007749188 -0.20815164 -0.024870688 -0.16247098
-0.04512334 -0.15429972 -0.0016937203 -0.01791406 -0.1356494 -0.0029711921 -0.04994004 -0.011525517
00000000: b571 d7bd 642d d6bd db70 05be a725 473c
00000010: f2c8 7abd 3592 3cbd ba58 17be 1c1f 123d
00000020: d6dc a3bd 74a7 48be 6f12 0cbd cf3b aebe
00000030: 2180 ef3d ad5a d93c 12a6 88be 117b 84be
00000040: 6743 323e 7830 8cbe 3f8b 4ebe 961b 64be
00000050: 0e12 41be 7c62 f0bd f83e 74be d688 2fbd
00000060: 963d 97be 1c2b 2dbe 7b5a 1abe a143 b2be
00000070: 81d4 8ebd ce6c bb3d 5a8f 01be 8126 98bd
00000080: 21b2 0bbe 943d 57be 4883 89be eed8 02be
00000090: d556 913d c5a7 bbbe 74cc 003d e9e1 56be
000000a0: 4edf 333e 6133 dabd ebb6 62bd 30c2 b9bd
000000b0: 86a7 fabd 0038 85be 5eb1 80be b61d 4bbe
000000c0: 721f 0bbe 76a4 0ebe af05 81be 6584 e6bd
000000d0: b728 84be 7838 193c 3c87 84be db8a 14b8
000000e0: f7d2 88bd 6cfd ebbd 092f 2f3e 31ee 89be
000000f0: 0410 8cbd f7c8 4c3d df68 aebd a916 dcbd
00000100: 3a98 11be 16bb 9c3c e8f9 0dbe d8cf 26be
00000110: 2f39 c3bd aff3 15bd 7bbc 3fbe f482 8abd
00000120: 3324 70bd 7619 9d3d 3b7d 423e 035a 8cbd
00000130: 7233 12be 8b3d 953d a725 bdbd add0 c1bd
00000140: b032 cabd 7d0a db3c c2a4 80bd 65fb 6f3c
00000150: 386f 77be fb95 77be 47a9 4b3c 944e b33d
00000160: 3413 2bbe ee79 74bd 7146 263d eb51 01be
00000170: c447 e8bd b838 0a3d d19b 02bd c3e2 9d3d
00000180: f2ac 0fbe 1d23 c5bd 2cf1 19be d8cb ebbd
00000190: 8b2f 1dbe 5336 41be 999e 00be ad8b 82be
000001a0: 2c47 90bd ad80 83be b1b6 a13d 54b1 c9bd
000001b0: 6d69 09bd 1f70 c2be d273 a2bc 51bf 3abe
000001c0: 954a c8bd 1d03 73be 1085 bebe 5f88 53bd
000001d0: e7ec fdbb b425 55be 9dbd cbbc cb5e 26be
000001e0: 40d3 38bd bf00 1ebe d3ff ddba 82c0 92bc
000001f0: ade7 0abe 55b8 42bb ed8d 4cbd 86d5 3cbc

actor.4.weight f4 [128, 128]
-0.041340005 -0.025771437 -0.038448226 -0.022348061 0.08976926 -0.025037657 0.15452671 -0.03206441
-0.04578994 0.004811775 -0.08999319 -0.03489072 0.09699349 0.02244529 0.037045054 0.019384475
0.15673509 0.057094987 0.08021096 -0.021108193 -0.028804293 0.06273144 0.03691034 -0.03157519
-0.009977424 -0.0020234948 0.0471871 -0.034478754 0.08523549 -0.0075933174 0.07998749 -0.091699846
0.06707383 0.14441231 0.065153375 0.02159082 0.053853218 0.07552959 -0.00619036 -0.05644116
-0.009878701 -0.095329195 0.08821214 -0.005236723 -0.024938058 0.062543295 -0.10497551 0.06125302
0.059089467 -0.07754201 0.052894793 0.040384106 -0.051025376 -0.08877416 0.15730223 0.039641287
0.051326156 -0.05940656 -0.015761377 0.14326888 0.09925078 0.1266587 -0.0045651747 0.011258624
0.032757264 0.0019120651 -0.08500563 0.14179154 -0.1618848 0.05491945 -0.04452556 0.039774187
0.024582267 0.056738388 -0.08758706 0.033020705 0.017603999 -0.09077391 -0.06530976 0.031140326
-0.07309362 -0.059578676 -0.07753824 0.033308934 -0.028919145 0.03090344 -0.018327065 0.0029075663
0.13585137 -0.012972831 -0.023863344 0.22870775 -0.066930495 -0.06482783 0.025368884 -0.01172762
-0.0787356 -0.009887257 -0.012625848 0.09742966 -0.11274424 0.1079794 0.067137346 -0.016154448
0.0040380037 0.08295857 0.12086686 0.08515076 -0.027229281 0.013367272 0.05821148 -0.027925132
-0.1313813 -0.082449146 0.033933446 -0.016022217 -0.032385215 0.026725896 -0.13935566 -0.102369
-0.032163195 0.03207392 0.015860906 -0.03805204 -0.01785412 0.07080137 -0.019815072 -0.07656811
0.1539642 -0.045171373 0.044177786 -0.0142808715 -0.016567223 0.014046778 0.048588317 -0.050132513
0.016263135 0.11110278 0.0058436263 0.25109783 -0.27687863 -0.025353786 0.06582247 0.009975789
-0.0434364 0.09482632 -0.018906396 -0.022253228 0.17175078 -0.03998826 -0.0632029 0.11377682
0.12871215 0.07619099 0.025693921 -0.070209585 0.002153601 0.023868943 0.08669569 0.12016966
0.052355297 0.11564847 0.012797317 0.046916217 -0.011068364 -0.017512612 -0.011868073 0.14180975
-0.05253197 0.17418256 0.036454078 -0.1078478 0.1050266 0.2579219 0.0771342 0.11832766
-0.09603033 0.04239651 0.09713595 -0.23650226 0.0045698914 0.1100071 0.22990623 -0.042992517
0.06600667 -0.012755901 -0.09868064 0.030760815 0.09131046 0.13217689 0.27740917 0.04698749
-0.10354071 0.043980934 0.11600332 -0.06435924 0.018022297 -0.047083374 0.06195296 -0.19846484
0.15768147 -0.065149456 -0.052109092 0.09876446 -0.19578287 -0.1285717 0.117759906 -0.08767523
-0.020057183 -0.17582054 0.1818368 0.06692154 0.019958103 0.22763346 -0.015973467 -0.031909928
-0.0030330305 0.06602219 -0.04574496 0.16657363 -0.13906361 0.011769426 -0.14851508 -0.10027531
-0.03818818 0.15039937 0.17673759 -0.017348839 0.043409865 0.19595343 -0.11201261 0.1563593
-0.10151928 -0.051681627 0.0649471 0.16738813 -0.104980215 0.19337209 0.008067592 0.007761931
0.05122488 0.2651806 0.035702 -0.028487097 0.08086912 0.116048284 -0.12226162 -0.013489043
-0.08658415 0.013589306 0.026178388 0.0155436415 0.038407296 0.13523458 -0.009697713 -0.024182558
00000000: 2354 29bd 9f1e d3bc e37b 1dbd 4813 b7bc
00000010: f2d8 b73d c61b cdbc 403c 1e3e f955 03bd
00000020: 3b8e 3bbd 18ac 9d3b 594e b8bd 92e9 0ebd
00000030: 86a4 c63d 2fdf b73c 8ebc 173d 31cc 9e3c
00000040: 2a7f 203e 6fdc 693d a545 a43d 17eb acbc
00000050: fbf6 ebbc 5779 803d 4c2f 173d fd54 01bd
00000060: 5978 23bc 9c9c 04bb 4347 413d 9839 0dbd
00000070: f28f ae3d 5dd1 f8bb 7bd0 a33d 21cd bbbd
00000080: 015e 893d d2e0 133e 226f 853d 3bdf b03c
00000090: 3195 5c3d 42af 9a3d 81d8 cabb d92e 67bd
000000a0: 46da 21bc f43b c3bd 91a8 b43d d198 abbb
000000b0: e64a ccbc b316 803d 66fd d6bd 72e4 7a3d
000000c0: cc07 723d 58ce 9ebd 36a8 583d ce69 253d
000000d0: fcff 50bd 3acf b5bd d613 213e e75e 223d
000000e0: 603b 523d 4b54 73bd 011e 81bc 14b5 123e
000000f0: fe43 cb3d d1b2 013e 7697 95bb 1776 383c
00000100: 7b2c 063d 429e fa3a 6f17 aebd cd31 113e
00000110: 21c5 25be 38f3 603d 6f60 36bd 42ea 223d
00000120: c060 c93c 8366 683d d860 b3bd b840 073d
00000130: 4336 903c ace7 b9bd 20c1 85bd ff19 ff3c
00000140: 1cb2 95bd c508 74bd 5ecc 9ebd f36e 083d
00000150: d8e7 ecbc 3629 fd3c a422 96bc de8c 3e3b
00000160: 9f1c 0b3e ff8b 54bc 0f7d c3bc 5d32 6a3e
00000170: db12 89bd 74c4 84bd 68d2 cf3c 3425 40bc
00000180: 2140 a1bd 29fe 21bc a5dc 4ebc 3489 c73d
00000190: 74e6 e6bd 4e24 dd3d 4e7f 893d 5556 84bc
000001a0: 3b51 843b 2fe6 a93d 0b89 f73d 8663 ae3d
000001b0: f10f dfbc 6702 5b3c 296f 6e3d 3fc3 e4bc
000001c0: d288 06be 19db a8bd ccfd 0a3d 0641 83bc
000001d0: 5ca6 04bd 44f0 da3c 40b3 0ebe d7a6 d1bd
000001e0: 8ebd 03bd f15f 033d bbee 813c 75dc 1bbd
000001f0: ce42 92bc 4f00 913d 3853 a2bc becf 9cbd
00000200: cba8 1d3e 9e05 39bd c4f3 343d 51fa 69bc
00000210: fcb7 87bc 7524 663c 8b04 473d c057 4dbd
00000220: 443a 853c db89 e33d e47b bf3b e58f 803e
00000230: 09c3 8dbe beb2 cfbc eecd 863d 7e71 233c
00000240: 5eea 31bd 4d34 c23d 96e1 9abc 674c b6bc
00000250: 70df 2f3e bbca 23bd 8670 81bd d203 e93d
00000260: 1ecd 033e 060a 9c3d 0f7c d23c 0bca 8fbd
00000270: 6e23 0d3b cd88 c33c 838d b13d 831b f63d
00000280: 8272 563d 1bd9 ec3d d6ab 513c 382b 403d
00000290: 1558 35bc 9c76 8fbc 4e72 42bc 9336 113e
000002a0: c32b 57bd ea5c 323e df50 153d 4fdf dcbd
000002b0: 3018 d73d 570e 843e 89f8 9d3d c655 f23d
000002c0: 8dab c4bd f6a7 2d3d 37ef c63d a62d 72be
000002d0: 07bf 953b 674b e13d 8a6c 6b3e ec18 30bd
000002e0: 812e 873d 20fe 50bc 1319 cabd 1bfe fb3c
000002f0: fa00 bb3d 6159 073e 9308 8e3e f475 403d
00000300: 270d d4bd 5a25 343d 2693 ed3d c7ce 83bd
00000310: 7fa3 933c 7fda 40bd 63c2 7d3d 5e3a 4bbe
00000320: 4077 213e 146d 85bd 5870 55bd 0545 ca3d
00000330: 4e7b 48be 4da8 03be 1b2c f13d 128f b3bd
00000340: f64e a4bc 4d0a 34be 6d33 3a3e 290e 893d
00000350: 2d7f a33c bf18 693e cada 82bc fcb3 02bd
00000360: cfc5 46bb a436 873d 115f 3bbd 4792 2a3e
00000370: b166 0ebe 8dd4 403c 5614 18be 245d cdbd
00000380: 366b 1cbd 4b02 1a3e b3fa 343e 271f 8ebc
00000390: 8bce 313d 04a8 483e de66 e5bd a71c 203e
000003a0: 57e9 cfbd 1db0 53bd fc02 853d cb67 2b3e
000003b0: deff d6bd 5503 463e ef2d 043c cc57 fe3b
000003c0: 2ed1 513d c0c5 873e 433c 123d c65d e9bc
000003d0: b69e a53d b9aa ed3d 4d64 fabd 2601 5dbc
000003e0: 0853 b1bd aea5 5e3c 0f74 d63c c2aa 7e3c
000003f0: f850 1d3d ef7a 0a3e 28e3 1ebc 801a c6bc

actor.4.bias f4 [128]
0.008630553 -0.17529674 -0.029578064 -0.010866456 -0.28575525 -0.26297826 0.11042409 -0.13494983
-0.05797308 -0.028116658 -0.2598945 -0.024870832 -0.07702595 -0.24792458 -0.14954896 -0.052307654
-0.11562406 -0.1420368 -0.11273392 -0.21425468 0.07907203 -0.046413433 -0.23118773 0.009887207
0.07706697 -0.59856725 -0.047393493 0.028714698 -0.13345367 0.059854027 -0.039987743 -0.09076915
-0.05291226 0.06296157 0.046194017 -0.12511516 -0.18040548 0.015603482 -0.20175593 -0.094362356
-0.056288645 0.06060861 -0.0039285556 -0.026999962 -0.09300037 -0.010238878 0.09662067 -0.13194242
-0.095283866 -0.040672455 -0.0070464564 0.1489423 -0.17542247 -0.0480498 0.04405122 -0.30348647
-0.020942677 -0.08800366 0.04396702 0.017703895 -0.11579921 0.021240512 0.009308464 -0.024007253
-0.077078626 0.003045359 -0.10158085 -0.06148432 -0.14459723 -0.07705825 0.0399837 0.041674122
0.026579756 0.06314448 -0.11518176 -0.12377498 -0.016023163 -0.020321464 -0.071288876 -0.33293378
0.013536313 -0.045407213 -0.016112138 0.03467053 -0.14429227 0.036967896 0.017728139 -0.0005611159
-0.3481183 0.05983515 0.06843018 -0.14007594 -0.04344613 0.035786994 -0.081485696 -0.0828506
0.0005042791 0.07214695 -0.13339981 -0.016814813 0.11034715 0.08582349 -0.08300979 -0.28898877
0.176654 -0.43564534 -0.070086315 -0.08473512 0.040971566 -0.03669512 -0.244591 -0.50682396
0.014340386 0.043461096 -0.0332732 0.2531426 -0.1562236 0.08455847 0.0008734857 -0.051069535
-0.055128753 0.12774199 -0.33526814 -0.0024847449 0.03890539 -0.31450748 0.06224436 -0.11562645
00000000: 2a67 0d3c fd80 33be b24d f2bc 3809 32bc
00000010: 834e 92be 16a5 86be 0626 e23d 4a30 0abe
00000020: 2e75 6dbd e854 e6bc e410 85be eabd cbbc
00000030: c8bf 9dbd f1df 7dbe 5d23 19be 8d40 56bd
00000040: 4fcc ecbd 1872 11be 0be1 e6bd 9465 5bbe
00000050: 84f0 a13d 031c 3ebd 7abc 6cbe f4fd 213c
00000060: 4ad5 9d3d b43b 19bf ae1f 42bd 163b eb3c
00000070: 14a8 08be 7f29 753d 30ca 23bd 2de5 b9bd
00000080: 87ba 58bd fff1 803d f035 3d3d 301e 00be
00000090: 37bc 38be bfa5 7f3c 1b99 4ebe 0d41 c1bd
000000a0: ec8e 66bd bc40 783d 1dbb 80bb 062f ddbc
000000b0: fa76 bebd f8c0 27bc 0fe1 c53d ea1b 07be
000000c0: 3024 c3bd 2998 26bd f6e5 e6bb 5584 183e
000000d0: f3a1 33be decf 44bd 0d6f 343d 9462 9bbe
000000e0: fa8f abbc 433b b4bd c316 343d c207 913c
000000f0: 2328 edbd 9500 ae3c 8782 183c dcaa c4bc
00000100: 66db 9dbd a594 473b 9f09 d0bd fbd6 7bbd
00000110: 4c11 14be b7d0 9dbd f3c5 233d 7cb2 2a3d
00000120: cabd d93c e551 813d 6ae4 ebbd bd7d fdbd
00000130: 0243 83bc 3379 a6bc e7ff 91bd 4c76 aabe
00000140: 69c7 5d3c eafc 39bd 9afd 83bc b002 0e3d
00000150: 5ac1 13be a66b 173d 9a3a 913c da17 13ba
00000160: 903c b2be b415 753d 1f25 8c3d 1170 0fbe
00000170: 92f4 31bd 6295 123d f9e1 a6bd 93ad a9bd
00000180: 9931 043a c8c1 933d f699 08be 38bf 89bc
00000190: b0fd e13d 3ac4 af3d 0901 aabd 56f6 93be
000001a0: c9e4 343e e80c dfbe 6a89 8fbd 9b89 adbd
000001b0: cdd1 273d 9f4d 16bd 1076 7abe 37bf 01bf
000001c0: f0f3 6a3c 4304 323d 7b49 08bd e89b 813e
000001d0: 14f9 1fbe fe2c ad3d a2fa 643a 4a2e 51bd
000001e0: b0ce 61bd ccce 023e 44a8 abbe 1ad7 22bb
000001f0: 425b 1f3d 2007 a1be f1f3 7e3d 8fcd ecbd

actor.6.weight f4 [8, 128]
-0.0064727156 -0.038337708 -0.0008436078 0.0017598838 -0.118218854 0.014687742 0.0053818487 0.054148775
0.008823482 -0.0056968154 -0.06096271 -0.01761136 0.00988554 0.11722375 -0.041339282 -0.00778799
-0.009975587 -0.032611683 0.02736049 -0.014715552 -0.022949336 0.017349413 -0.019302567 0.014242185
0.00781598 -0.17114648 -0.0023074534 -0.006658296 0.02702433 -0.0050771 0.011910797 0.122529484
-0.04480259 -0.019954896 -0.006942589 -0.029264834 -0.03179373 -0.030024277 -0.02929336 -0.0036807521
0.017138556 -0.010076662 0.0037760804 0.006639865 0.00070422294 0.03192185 0.01689154 -0.011237092
-0.011370992 0.02293333 -0.037452128 0.0010245641 -0.018886693 0.011266692 0.009829556 -0.07703702
0.0021616952 0.009406557 0.0016988406 -0.006016132 0.05846908 0.00011379786 -0.02548044 -0.018347915
0.010556871 -0.019043036 -0.004034001 -0.026753454 0.0011006048 0.0040146625 0.047493994 0.0020218885
0.0069776652 0.022061957 -0.0064151227 0.0047063967 0.11508309 -0.004727321 0.008541303 -0.026311519
0.0054733558 -0.0068352125 -0.020921253 0.01959282 -0.011112088 0.16263299 -0.050769314 0.016653623
-0.14155263 -0.009288758 -0.0006993199 -0.017799627 0.01254392 -0.01552803 0.008116063 0.014704291
0.0067496067 0.016050812 -0.023373956 0.0053839553 0.026287194 -0.008319177 -0.019651752 0.0084677525
0.019162169 -0.07827475 -0.006995842 0.014115159 0.025701048 -0.029483004 0.06388838 -0.08832975
-0.0012011894 0.015921826 -4.9103353e-05 0.057224143 -0.044355903 -0.0052619968 0.011990855 -0.021058753
0.00706504 0.118809745 0.08538811 0.0044729887 -0.0124984 0.17162037 -0.013916895 -0.00072847283
-0.0024032004 -0.01911321 -0.011188986 -0.03713684 0.12522295 0.00782662 0.08213136 -0.04706682
0.00024053917 0.0013609342 0.10389201 -0.027348038 -0.003951006 -0.07305472 -0.019494612 0.0027287258
-0.0052393614 0.013472509 0.045019515 0.0163395 -0.01671451 0.01266495 -0.037546955 -0.016133681
-0.015985724 0.2052094 -0.02915632 -0.020055225 -0.045752876 -0.0068001845 0.0035128966 0.03151652
-0.0037043977 0.0027885588 -0.035709478 -0.037793074 0.096857525 0.0443332 -0.04473911 -0.024375342
0.023583608 -0.009757433 -0.0020134104 0.038977005 0.027125318 -0.0051471572 0.048778716 0.00076098
0.0046040537 0.056499302 -0.057176672 -0.010899699 -0.052634068 -0.010659613 -0.010277625 0.015832314
-0.001674631 0.0006110004 0.006059291 0.0016915773 -0.025931953 -0.13749062 -0.00659022 -0.105599344
-0.01877585 0.011986829 0.00670897 -0.02326856 0.0034330108 -0.02514718 0.009905826 0.01766958
0.012987303 -0.015929982 0.011488478 -0.009055961 -0.11061074 0.0021107849 -0.004561566 0.032700136
-0.02197612 0.0056057596 -0.01385663 -0.029815037 -0.0039855395 0.039986115 -0.07063272 -0.04135163
0.0062728543 -0.0019542663 -0.00027885614 -0.022006283 -0.013455104 -0.009375752 -0.019844875 0.13175976
-0.00061356527 -0.01333236 0.015776336 0.008820229 -0.0792774 -0.0819658 -0.00869896 -0.03190068
-0.004033702 0.14662938 0.008633498 -0.0110576255 0.0051221927 0.0006092398 -0.039628394 0.12586862
0.0049658483 0.03232105 -0.022714267 -0.13873848 0.039054707 -0.004568036 0.0053293775 -0.00067625166
-0.0016679076 0.033215392 0.08919438 0.018917184 -0.0021501107 0.054249905 -0.023936247 -0.014601766
00000000: 1319 d4bb 0008 1dbd 9025 5dba e7ab e63a
00000010: ba1c f2bd dba4 703c 385a b03b 1bcb 5d3d
00000020: 5e90 103c 5aac babb 09b4 79bd b345 90bc
00000030: f6f6 213c 0113 f03d 6153 29bd 6532 ffbb
00000040: a570 23bc d493 05bd 1b23 e03c 8019 71bc
00000050: 3f00 bcbc 5b20 8e3c 6b20 9ebc 0e58 693c
00000060: 990e 003c 0641 2fbe a538 17bb d62d dabb
00000070: 2162 dd3c cd5d a6bb 8125 433c bdf0 fa3d
00000080: ec82 37bd 7378 a3bc a87e e3bb cebc efbc
00000090: 243a 02bd 79f5 f5bc a1f8 efbc c638 71bb
000000a0: 2866 8c3c 9518 25bc 1e78 773b 3a93 d93b
000000b0: 9a9b 383a 7cc0 023d 2060 8a3c c81b 38bc
000000c0: 664d 3abc aede bb3c 6767 19bd ab4a 863a
000000d0: 44b8 9abc ee97 383c 250c 213c 96c5 9dbd
000000e0: 3aab 0d3b f61d 1a3c a2ab de3a f922 c5bb
000000f0: 467d 6f3d c3a6 ee38 5bbc d0bc 5e4e 96bc
00000100: baf6 2c3c 2400 9cbc a72f 84bb 0f2a dbbc
00000110: 2b42 903a 6e8d 833b 1089 423d a981 043b
00000120: e6a4 e43b 47bb b43c f335 d2bb 1e38 9a3b
00000130: afb0 eb3d a5e7 9abb d2f0 0b3c 418b d7bc
00000140: d659 b33b ebf9 dfbb 0c63 abbc 1f81 a03c
00000150: 7a0f 36bc 4389 263e 7cf3 4fbd 2e6d 883c
00000160: 2cf3 10be e02f 18bc 9052 37ba 86d0 91bc
00000170: 0485 4d3c 4769 7ebc 3cf9 043c 44ea 703c
00000180: ce2b dd3b fe7c 833c bd7a bfbc e46b b03b
00000190: 3e58 d73c 284d 08bc b6fc a0bc 54bc 0a3c
000001a0: fbf9 9c3c 834e a0bd 603d e5bb 4543 673c
000001b0: 018b d23c 5786 f1bc e9d7 823d 3ae6 b4bd
000001c0: 3a71 9dba 7d6e 823c 53f4 4db8 dd63 6a3d
000001d0: 89ae 35bd d46c acbb 4b75 443c 6883 acbc
000001e0: da81 e73b 8652 f33d f6df ae3d 2692 923b
000001f0: 17c6 4cbc 40bd 2f3e b003 64bc fcf6 3eba
00000200: 037f 1dbb 4e93 9cbc 0252 37bc cd1c 18bd
00000210: 723a 003e 393b 003c 7d34 a83d 23c9 40bd
00000220: 3e39 7c39 6061 b23a 56c5 d43d fe08 e0bc
00000230: 7177 81bb b79d 95bd 2ab3 9fbc 6cd4 323b
00000240: f3ae abbb ccbb 5c3c 6266 383d 6ada 853c
00000250: deec 88bc a780 4f3c d6ca 19bd c82a 84bc
00000260: 7ef4 82bc 6a22 523e 3cd9 eebc db4a a4bc
00000270: 5e67 3bbd 15d4 debb a038 663b 7717 013d
00000280: 7bc5 72bb 41c0 363b 1a44 12bd e9cc 1abd
00000290: 3d5d c63d bb96 353d 5b40 37bd ccae c7bc
000002a0: 6932 c13c a4dd 1fbc 6cf3 03bb 5aa6 1f3d
000002b0: ea35 de3c 7ca9 a8bb 31cc 473d 817c 473a
000002c0: 9add 963b d06b 673d 1632 6abd a794 32bc
000002d0: d296 57bd a8a5 2ebc 7c63 28bc c5b2 813c
000002e0: 4b7f dbba 8b2b 203a 048d c63b eab7 dd3a
000002f0: 3f6f d4bc 57ca 0cbe c6f2 d7bb 7844 d8bd
00000300: d0cf 99bc 6864 443c ebd6 db3b b59d bebc
00000310: 5dfc 603b 7501 cebc 0c4c 223c ccbf 903c
00000320: b2c8 543c 987f 82bc 2b3a 3c3c 745f 14bc
00000330: e287 e2bd 1855 0a3b 3079 95bb 94f0 053d
00000340: 4407 b4bc 85b0 b73b eb06 63bc aa3e f4bc
00000350: 2199 82bb 7bc8 233d e3a7 90bd 5460 29bd
00000360: 848c cd3b 2613 00bb 7033 92b9 8546 b4bc
00000370: cc72 5cbc c19c 19bc b891 a2bc 08ec 063e
00000380: abd7 20ba f96f 5abc 603d 813c b982 103c
00000390: 315c a2bd afdd a7bd 1586 0ebc 4aaa 02bd
000003a0: 252d 84bb 0326 163e 8473 0d3c 0b2b 35bc
000003b0: 11d8 a73b 64b5 1f3a 6251 22bd b4e3 003e
000003c0: 8eb8 a23b 1463 043d 4513 babc 7611 0ebe
000003d0: d4f7 1f3d 77af 95bb 0fa2 ae3b 7b46 31ba
000003e0: b19d daba dd0c 083d 8bab b63d 36f8 9a3c
000003f0: dfe8 0cbb 2635 5e3d f315 c4bc 3f3c 6fbc

actor.6.bias f4 [8]
0.18734716 -0.32082507 -0.33259314 0.2695302 -0.07314769 0.03804946 0.048133437 0.09530988
00000000: efd7 3f3e 2f43 a4be a649 aabe ddff 893e
00000010: 75ce 95bd c0d9 1b3d 9127 453d d431 c33d

critic.0.weight f4 [128, 32]
0.09017207 -0.03233129 0.31191075 0.10031701 0.07990061 0.085182846 0.05695702 0.23783067
0.031743154 -0.7739219 0.1310781 0.03540789 0.0715863 -0.18048513 -0.03685475 0.2596783
0.06846869 -0.067472875 -0.056161553 0.034035373 0.005748951 -0.0016817746 0.006510047 0.0027155923
-0.07033261 0.05916089 0.061660416 -0.10251279 -0.06465255 -0.025172822 -0.02628187 -0.039872237
-0.34513515 -0.21570717 0.08293607 -0.048982944 0.07569519 0.17498745 0.21909106 -0.010023746
0.29031008 0.79021585 0.08661344 -0.9886779 0.0060346616 0.20410094 0.20896298 -0.12846228
0.007160887 -0.0012326619 -0.02796726 -0.010374975 -0.0010327775 0.0014968722 -0.00043317187 -0.0021921906
0.009597655 0.0638118 0.10066022 -0.048306663 0.0118259005 -0.007072417 -0.028546993 -0.02714629
0.2870849 0.023343995 0.34077466 0.36642864 0.24059689 -0.19915685 -0.08664206 0.59709597
0.17107937 0.8728096 -0.08074291 -0.7434461 0.09229266 0.22253127 -0.40620813 0.2841507
-0.048338123 0.022748377 0.027643157 -0.053440157 -0.0010044407 0.003356156 -0.0021585806 -0.0048528095
0.06621865 -0.06298821 -0.024589665 -0.041919053 -0.026947597 -0.0086143045 -0.020270651 0.06523628
0.25016794 -0.060286302 -0.24404454 0.10228574 0.196544 0.021695772 0.041788436 0.45195594
0.15598053 1.0396124 0.09654625 -0.087593 0.04434646 -0.09878443 -0.15054554 0.18196575
-0.05199877 0.08885841 0.015464066 -0.027863057 -0.0046836664 0.005521626 -0.0031811555 -0.0032614733
-0.14666705 -0.060951408 -0.11645136 0.13110758 0.029299414 -0.010142981 0.033490594 0.026501544
0.056907162 -0.05528339 0.19225322 -0.07679518 0.11180169 -0.3398941 -0.05302686 -0.089880474
0.14011872 -0.2184963 -0.102928735 0.018254302 0.14542049 0.2124942 -0.31748903 0.18414013
-0.086225934 0.005933938 -0.024063695 -0.08099224 -0.030193137 -0.030249171 -0.0026675828 -0.025907997
0.07664665 -0.0982097 0.016349968 0.07181792 0.021505311 -0.06655674 0.064736314 -0.05354728
0.05657767 -0.17694926 -0.14319241 0.20552012 0.040927365 -0.060747694 -0.12808947 -0.023633903
0.21544327 -0.21897578 0.15836594 -0.84755486 -0.19204071 0.07781385 -0.039343223 0.097088575
-0.043068334 0.06862849 -0.011544936 0.016848972 0.00538555 -0.0058996333 -0.0010465647 -0.0057752654
0.06271253 -0.12652831 -0.021125628 0.07099796 0.0007632294 -0.04963158 0.0068286113 0.037215564
-0.23169929 0.3485597 0.09903911 -0.0012820285 -0.053532764 0.081089415 0.22238754 0.15502146
0.230122 0.32702047 -0.10748125 -0.3791403 -0.32885736 -0.2960978 0.10542913 -0.18032154
0.010711993 -0.038148817 -0.023242652 -0.036714498 0.004338016 -0.0013864655 -0.001685181 0.02658521
-0.016117442 -0.038381074 0.10491513 -0.077210724 0.04792992 0.05557517 0.120793425 0.06493419
-0.19702892 -0.11971369 0.25653216 -0.0104152 -0.08795784 -0.050136894 -0.08733529 -0.3981317
0.10273407 1.0381988 -0.17153725 -0.47142932 -0.10934797 0.17123793 0.36614808 -0.14646809
0.030135626 0.020090912 -0.062620066 0.037531924 0.0028144254 0.006209001 -0.004672487 0.0066697444
-0.040108163 0.09147259 0.14632024 -0.14335088 -0.02825064 -0.020200135 0.09040602 0.006515323
00000000: 22ac b83d d16d 04bd c4b2 9f3e 0173 cd3d
00000010: eea2 a33d 5874 ae3d c44b 693d e289 733e
00000020: 1c05 023d bf1f 46bf 5639 063e dd07 113d
00000030: d79b 923d 18d1 38be 02f5 16bd 8ef4 843e
00000040: 5039 8c3d 382f 8abd a809 66bd ad68 0b3d
00000050: b261 bc3b fe6e dcba 3b52 d53b 14f8 313b
00000060: 8b0a 90bd b052 723d a28f 7c3d 3af2 d1bd
00000070: 8e68 84bd 3c37 cebc 144d d7bc 1251 23bd
00000080: 8eb5 b0be 57e2 5cbe 63da a93d 57a2 48bd
00000090: 1406 9b3d e92f 333e 6859 603e a33a 24bc
000000a0: 86a3 943e 964b 4a3f 6362 b13d ff19 7dbf
000000b0: 69be c53b d6ff 503e 64fa 553e 9e8b 03be
000000c0: e0a5 ea3b 4591 a1ba 981b e5bc cdfb 29bc
000000d0: 435e 87ba b232 c43a 581b e3b9 dbaa 0fbb
000000e0: 7c3f 1d3c c3af 823d f226 ce3d 35dd 45bd
000000f0: 6cc1 413c bcbf e7bb 62db e9bc e561 debc
00000100: cbfc 923e e83b bf3c 047a ae3e 899c bb3e
00000110: 085f 763e c6ef 4bbe 6471 b1bd 48db 183f
00000120: 6e2f 2f3e 7370 5f3f 8a5c a5bd 7c52 3ebf
00000130: ef03 bd3d 3ddf 633e 83fa cfbe 337c 913e
00000140: 32fe 45bd ce5a ba3c e773 e23c 11e4 5abd
00000150: 70a7 83ba f4f2 5b3b f976 0dbb 5104 9fbb
00000160: a59d 873d f6ff 80bd 4470 c9bc 50b3 2bbd
00000170: 35c1 dcbc 0323 0dbc a30e a6bc 999a 853d
00000180: 0316 803e c5ee 76bd d0e6 79be 307b d13d
00000190: d542 493e 55bb b13c 5a2a 2b3d c566 e73e
000001a0: 5cb9 1f3e 0512 853f 0aba c53d f563 b3bd
000001b0: a2a4 353d 7e4f cabd 9c28 1abe 3b55 3a3e
000001c0: aafc 54bd 66fb b53d fe5c 7d3c 1141 e4bc
000001d0: 7179 99bb c2ee b43b ef7a 50bb 71be 55bb
000001e0: e32f 16be 2fa8 79bd 0d7e eebd 1141 063e
000001f0: 5305 f03c bf2e 26bc 6f2d 093d c419 d93c
00000200: 7c17 693d d670 62bd 07de 443e cb46 9dbd
00000210: 49f8 e43d 9906 aebe b132 59bd 4113 b8bd
00000220: 487b 0f3e 7ebd 5fbe 4dcc d2bd 0c8a 953c
00000230: 1ce9 143e 1498 593e ec8d a2be 3b8f 3c3e
00000240: 3997 b0bd 7b71 c23b 3a21 c5bc 42df a5bd
00000250: 9957 f7bc 1ccd f7bc 9dd2 2ebb 023d d4bc
00000260: ebf8 9c3d 2b22 c9bd 5ef0 853c 4615 933d
00000270: e82b b03c e64e 88bd 7994 843d 6554 5bbd
00000280: fdbd 673d 3032 35be 08a1 12be de73 523e
00000290: 74a3 273d 93d2 78bd e329 03be e39b c1bc
000002a0: 299d 5c3e 303b 60be ae2a 223e 5bf9 58bf
000002b0: 52a6 44be de5c 9f3d 5c26 21bd 60d6 c63d
000002c0: 6c68 30bd 188d 8c3d f926 3dbc db06 8a3c
000002d0: 4579 b03b b651 c1bb e22c 89ba 703e bdbb
000002e0: 6d6f 803d a390 01be a70f adbc 6167 913d
000002f0: 7513 483a 7c4a 4bbd 8bc2 df3b 596f 183d
00000300: 9442 6dbe 6b76 b23e 04d5 ca3d bd09 a8ba
00000310: 2c45 5bbd 3512 a63d 8fb9 633e f2bd 1e3e
00000320: 1aa5 6b3e 3a6f a73e 211f dcbd ad1e c2be
00000330: fe5f a8be 219a 97be 3aeb d73d 36a6 38be
00000340: 5b81 2f3c ef41 1cbd 6067 bebc f161 16bd
00000350: ea25 8e3b 10ba b5ba 4be1 dcba 3ac9 d93c
00000360: ba08 84bc 7935 1dbd bedd d63d a820 9ebd
00000370: 2a52 443d caa2 633d 8b62 f73d 37fc 843d
00000380: f3c1 49be 732c f5bd 2f58 833e 84a4 2abc
00000390: 3d23 b4bd 585c 4dbd d8dc b2bd ebd7 cbbe
000003a0: 3d66 d23d b3e3 843f 76a7 2fbe 2f5f f1be
000003b0: d4f1 dfbd ff58 2f3e c377 bb3e bbfb 15be
000003c0: fdde f63c b295 a43c f33e 80bd 13bb 193d
000003d0: 3972 383b e074 cb3b a91b 99bb df8d da3b
000003e0: 7548 24bd fb55 bb3d f9d4 153e 93ca 12be
000003f0: e36d e7bc c17a a5bc cb26 b93d 7e7e d53b

critic.0.bias f4 [128]
-0.117242105 -0.45514888 -0.14139464 -0.31803346 -0.24610151 -0.12931788 -0.37150443 -0.1411746
-0.5340311 0.027286045 -0.21527147 -0.29166284 -0.07270648 0.18837973 -0.06292128 -0.10102473
-0.32220784 0.14241682 0.056720164 -0.15598696 -0.09568021 0.11292386 0.43033478 -0.06872711
-0.3059071 -0.15528616 0.20011097 -0.32583877 0.10790368 -0.20923194 0.00012536875 -0.20350783
-0.19035171 -0.015300262 0.09377324 0.065902576 0.004675053 -0.1675432 0.24113399 0.21095237
-0.1286183 -0.22126979 -0.243573 0.0013820059 0.07490738 -0.30797762 0.058900565 -0.21974303
-0.15707566 -0.04941284 -0.1670436 -0.24121122 0.3670931 0.19632557 0.1949473 0.05766455
0.12828603 0.20177858 -0.108428665 0.13307185 -0.23677048 -0.018464252 -0.2894076 -0.21011339
-0.21381757 0.06752907 0.15124218 0.027850816 0.20753896 0.28217447 -0.28605682 -0.3419679
-0.36801252 0.12243772 0.31707996 -0.4101841 -0.23680063 0.18651187 0.29763925 -0.41185707
-0.3014665 0.29408467 -0.14149855 0.23317891 -0.23609944 0.10091005 -0.14369246 -0.39804247
-0.17889762 -0.32780063 -0.10677315 -0.16739014 0.2978049 -0.4104037 0.36980316 -0.1583307
0.124781564 -0.14339639 -0.14417076 -0.18130045 0.015912319 0.33003518 -0.42102775 -0.26299065
0.02761735 0.005999632 0.22681333 0.16099617 -0.35896045 -0.31363225 -0.2622915 -0.25058007
-0.007686437 0.031643495 -0.39405847 0.013108034 0.23499227 -0.18734713 -0.27812254 0.07276704
-0.34724823 0.37567782 0.13027893 -0.008541727 -0.22787243 -0.3128637 -0.33636773 0.24740417
00000000: a11c f0bd 4609 e9be c2c9 10be 48d5 a2be
00000010: 0902 7cbe e86b 04be d435 bebe 1390 10be
00000020: 43b6 08bf fc86 df3c 2070 5cbe d554 95be
00000030: 23e7 94bd 9ee6 403e dfdc 80bd 0ee6 cebd
00000040: 6df8 a4be b7d5 113e 6753 683d 0cbb 1fbe
00000050: fcf3 c3bd a044 e73d d754 dc3e cdc0 8cbd
00000060: db9f 9cbe 5603 1fbe e4e9 4c3e 57d4 a6be
00000070: 9bfc dc3d e640 56be 6b75 0339 5b64 50be
00000080: 8feb 42be f3ad 7abc 2f0c c03d eef7 863d
00000090: 3031 993b 7290 2bbe d4eb 763e e603 583e
000000a0: 84b4 03be 8c94 62be 336b 79be 6c24 b53a
000000b0: 0a69 993d 3eaf 9dbe b841 713d 5104 61be
000000c0: 71d8 20be 1e65 4abd 7a0d 2bbe 1300 77be
000000d0: a0f3 bb3e 9209 493e 44a0 473e aa31 6c3d
000000e0: 6a5d 033e 0b9f 4e3e d90f debd fd43 083e
000000f0: f673 72be 5842 97bc 3c2d 94be f727 57be
00000100: fef2 5abe ae4c 8a3d 3bdf 1a3e 6527 e43c
00000110: 1885 543e 2c79 903e 0a76 92be 6b16 afbe
00000120: 236c bcbe a1c0 fa3d 4e58 a23e a603 d2be
00000130: dd7b 72be f8fc 3e3e 2c64 983e eede d2be
00000140: d159 9abe 4492 963e ffe4 10be 74c6 6e3e
00000150: 0dc4 71be eea9 ce3d 1e24 13be 39cc cbbe
00000160: f030 37be 7cd5 a7be e2ab dabd 5268 2bbe
00000170: e279 983e 6f20 d2be d756 bd3e 7121 22be
00000180: 7a8d ff3d 81d6 12be 80a1 13be d3a6 39be
00000190: 8d5a 823c 5ffa a83e f390 d7be b6a6 86be
000001a0: c83d e23c 9098 c43b c141 683e 2edc 243e
000001b0: aac9 b7be 6894 a0be 124b 86be 084c 80be
000001c0: 82de fbbb 9c9c 013d 08c2 c9be 14c3 563c
000001d0: d0a1 703e edd7 3fbe 1466 8ebe e306 953d
000001e0: 85ca b1be d858 c03e d767 053e 9af2 0bbc
000001f0: 6457 69be ac2f a0be 6438 acbe 8557 7d3e
