ISAAC_NOGIT/logs/rsl_rl/traquad_flat/2025-09-16_14-56-06/exported/policy.onnx (onnx, 153859 bytes, 8 tensors)

actor.0.weight f4 [128, 31]
000000 4e 1a 17 be 5a cc d4 be 33 b4 cf be cf 44 df 3e
       -0.14756128 -0.41562158 -0.4056717 0.43607184
000010 b1 b8 9a 3e 6c 74 3a be 41 c8 45 3f a7 34 1c bf
       0.30219033 -0.18208474 0.7725869 -0.6101784
000020 69 60 17 3e b3 91 c9 3f 34 9f 14 3f 47 bb 7f bf
       0.14782871 1.5747589 0.58055425 -0.9989514
000030 48 cd 1f bf d4 d2 5a 3f 6f 19 85 bf c4 c0 6f 3d
       -0.6242261 0.8547795 -1.0398387 0.058533445
000040 a2 db de 3d 3b 78 0c 3e 7e 48 34 3d 7b 04 85 3c
       0.108817354 0.1371774 0.044014446 0.016237488
000050 da 9a 98 3d a9 55 91 bd 25 3b 97 bd 30 18 75 be
       0.074514106 -0.070964165 -0.07384328 -0.23935008
000060 67 37 71 3e 46 98 9b be e1 42 4a 3c f6 6a 84 bd
       0.2355629 -0.30389613 0.012345047 -0.06465714
000070 38 a1 25 3e 9c 6e 30 be 4a ba 93 bd 63 55 d3 3e
       0.16174781 -0.17229694 -0.07213266 0.41276082
000080 15 f5 e7 3e 7f f7 5b 3e 8a 81 a0 be 83 a2 e7 be
       0.4530417 0.21481131 -0.3134883 -0.45241174
000090 43 cb 06 be eb b1 e9 be 56 b4 18 3f 06 25 bc 3e
       -0.13163476 -0.45643553 0.5965017 0.36746997
0000a0 ac 46 5e 3f b6 c6 c1 3e f7 77 e3 3d 95 26 06 3e
       0.86826587 0.37846917 0.11106866 0.13100655
0000b0 c3 72 5a bf 80 2f 51 be 5b b5 07 3e 23 c8 9d 3e
       -0.8533136 -0.20428276 0.13252775 0.30816755
0000c0 28 01 86 be a7 63 30 be 8e ac a1 bc 10 95 cb 3c
       -0.26172757 -0.17225514 -0.0197356 0.024851352
0000d0 a5 80 20 bd 89 13 7b 3d c1 b6 14 3e 06 51 21 3e
       -0.039185185 0.061297927 0.1452284 0.15753564
0000e0 df b5 62 3e c1 76 8b bd 69 64 11 be 6e 04 e4 be
       0.22139691 -0.0680976 -0.1419846 -0.4453463
0000f0 4a 54 3e 3e 4c 05 69 be db 44 58 3e c5 71 99 be
       0.18586841 -0.22755927 0.21120016 -0.29969612
000100 7a 0f 81 3e 44 74 c2 3d df 22 80 bd 8d 9c 37 be
       0.2520712 0.09494832 -0.06256651 -0.17930813
000110 8e ea 99 3f 96 d3 c2 bf 95 cc bf bd 16 1d d2 3f
       1.2024705 -1.5220821 -0.09365193 1.6415126
000120 31 61 2d 3d e0 36 42 be 6f 0a 02 c0 50 a9 ae 3f
       0.042329017 -0.18966246 -2.0318868 1.364542
000130 f9 39 d6 3c cf af 08 3d 81 28 40 be a7 21 96 bd
       0.02615069 0.03337079 -0.18765451 -0.073306374
000140 12 80 82 be 88 3d c0 bc d0 34 c8 3c 66 fc 42 3d
       -0.25488335 -0.02346684 0.024439245 0.047603987
000150 df b6 7e bd 95 eb db be c3 66 0d be 5d 42 c8 be
       -0.06218612 -0.42953172 -0.13808732 -0.3911313
000160 1b 2b 6d 3d 78 49 79 bc 3d 5d b2 be 1c b0 08 be
       0.057902437 -0.01521527 -0.3483676 -0.1334843
000170 ee 88 fa 3e 40 ec 6c 3e 05 be bf 3e 6b 29 8e bd
       0.48932594 0.23136997 0.3744966 -0.069414936
000180 3e 74 26 be be 88 ae be 6c 7e 17 bd d6 56 13 bf
       -0.1625528 -0.340887 -0.0369858 -0.57554376
000190 75 8b 41 be 15 5c a3 3e c4 e9 71 bf 95 a8 35 be
       -0.18900855 0.3190619 -0.94497323 -0.1774009
0001a0 b8 22 92 3f c6 f8 56 3e 7c d2 3a be 3a ae c2 bf
       1.1416845 0.20993337 -0.18244356 -1.520942
0001b0 93 e3 99 3e d4 7f 9b 3e 7b 43 00 be cb 10 1c 3e
       0.30056438 0.30370963 -0.12525742 0.15240781
0001c0 3b f4 59 3b ac b1 d1 3b 9f cd 60 bd c4 a4 d1 3d
       0.0033257145 0.006399354 -0.054883596 0.10236505
0001d0 4c 65 16 3e 91 27 51 3e 38 ff eb bc 6b 3d 3c 3d
       0.14687079 0.2042525 -0.028808221 0.04595701
0001e0 3d 8e dd bc bc dc 9d 3c 15 2c ae 3d 92 46 df bd
       -0.027045364 0.019270293 0.08504502 -0.10902132
0001f0 85 85 47 3f f0 65 2d 3e 24 2a c0 be d6 22 51 be
       0.7793811 0.16933417 -0.3753215 -0.20423445
000200 ec c2 3b 3d c6 77 3a 3e fa ae 87 bf 0b 26 df 3f
       0.04584019 0.18209752 -1.0600274 1.7433485
000210 f1 06 23 bd b2 9f b0 3f 0e 12 d8 bd 1d 17 26 bf
       -0.03980154 1.3798735 -0.10550319 -0.6487902
000220 08 54 46 40 78 a4 be bf 19 50 76 bf db 7a bd bd
       3.0988789 -1.4893942 -0.9621597 -0.092519484
000230 63 b2 0f 3e a9 d4 85 be cb 5e e1 bd ab a4 b2 3b
       0.14032893 -0.2613881 -0.110044084 0.005451759
000240 c8 98 fc bb eb 3d 63 3c 43 66 67 bc f2 8b d6 3d
       -0.0077086426 0.013869743 -0.014123502 0.10475911
000250 14 43 dc be 4d 6b ac 3d 84 65 ba bc 56 b9 d9 3d
       -0.43019927 0.084189035 -0.022753485 0.10631053
000260 84 1c b7 bb 70 7e 39 be c7 e1 1d 3e e5 b7 b9 be
       -0.005588116 -0.18114638 0.15418158 -0.36273113
000270 25 2a df be b9 cf 2f 3e cc a3 cb 3e b6 71 35 3e
       -0.4358684 0.17169084 0.39773405 0.17719159
000280 bd fd ab be c4 61 67 be 1f 5b 4b 3f ef 42 13 3d
       -0.33592024 -0.22595888 0.79435915 0.035952505
000290 2a 04 a8 3f d2 d5 44 bf 7b 49 17 3e dc 2f 73 3f
       1.3126271 -0.76888764 0.14774124 0.949949
0002a0 8e de 93 bf 90 69 49 3f cb 28 dd bd 32 04 c8 3c
       -1.1552293 0.786767 -0.10798796 0.024416063
0002b0 9c 90 0a 3d 7e 09 7f 3e 19 41 88 3d 7b e0 88 3d
       0.033829316 0.24905965 0.066530414 0.06683441
0002c0 09 11 1a bd e6 cf 37 3d 21 55 56 3d 69 68 84 bd
       -0.037613902 0.044876 0.05232728 -0.06465227
0002d0 47 8d d8 3e fa 6e 96 be 44 73 b3 be d7 62 0a bd
       0.42295286 -0.29381543 -0.35048878 -0.033785667
0002e0 ee a0 e3 bd 3c 90 87 3c 84 b1 8e bf 5f 11 c7 3d
       -0.11114679 0.016548268 -1.1147923 0.0972011
0002f0 80 93 0b 3f 9b ac 98 be 22 d2 c3 3e 37 42 5a 3d
       0.5452194 -0.29819188 0.38246256 0.053285804
000300 40 7a a4 3f 83 6d 01 40 e1 26 b4 3d 86 e9 8e 3e
       1.2849808 2.022309 0.08796478 0.2791254
000310 8d af 37 3e db 99 af bf 2e 9a ec be 02 69 76 bf
       0.17938061 -1.3718828 -0.4621138 -0.9625398
000320 e2 7d 6b 40 95 4a 2f bd 64 1c 43 3c d7 16 1a be
       3.6795583 -0.042795736 0.011908624 -0.15047775
000330 a7 86 84 3e e5 d8 02 3c b3 10 38 bc 1c 33 a3 3b
       0.25883982 0.007986282 -0.01123445 0.004980458
000340 e4 ca ef bb 8f eb 4b 3d aa c7 1d be d1 03 5e 3d
       -0.0073178876 0.049785193 -0.15408197 0.05420286
000350 4d 0e 19 be 08 52 51 be 05 75 84 3d 95 28 19 3c
       -0.14946862 -0.20441449 0.06467632 0.009348054
000360 9f 54 18 3d fa 7c 01 3f 3c 29 f0 be f4 4d 0e 3f
       0.037190076 0.50581324 -0.4690646 0.555877
000370 b6 d0 8b be 24 de 83 be 4a 75 fb be 92 3c 05 3d
       -0.2730767 -0.25755417 -0.49112922 0.032528467
000380 3d c4 03 3f df 15 d2 3c fe 4c e0 3f 2d a3 9c 3d
       0.5147131 0.025645195 1.7523496 0.07648311
000390 05 51 0a 3e 7e af a0 3f 2c 57 46 bf 02 12 b3 3c
       0.13507469 1.2553556 -0.77476764 0.021859173
0003a0 8c 94 ae 3d db 4d c4 bd 35 2d 99 3d b7 18 72 3e
       0.08524427 -0.09585162 0.07479326 0.2364224
0003b0 73 5a 2a bd b4 00 75 bc 60 5d 52 bd d6 bd 43 bd
       -0.041590165 -0.014953781 -0.05135858 -0.047788464
0003c0 c3 6d e7 bd 3c 8e 0d be 9d da 44 3e 32 5c 85 3c
       -0.11300232 -0.1382379 0.1922402 0.016279314
0003d0 ec e3 6b bc 49 d7 01 bc 79 5f c7 bd 32 cb e4 3e
       -0.0143976025 -0.007924863 -0.09735007 0.44686276
0003e0 82 4b af bc 2d ef bb 3e dc 98 cb 3e 61 33 33 bf
       -0.02139831 0.36705914 0.3976506 -0.70000273
0003f0 99 cd 19 be ab 94 2c 3e 0d 04 bc bf 8a 4b e9 3f
       -0.15019836 0.16853587 -1.4688736 1.8226178

actor.0.bias f4 [128]
000000 60 fe 08 be 56 09 a8 be 4b 32 11 bd b3 13 9b be
       -0.13378286 -0.32819623 -0.035448354 -0.30288467
000010 38 f1 ff bb d4 31 16 be e1 7e 21 bc 1a f2 fe bd
       -0.007810738 -0.14667445 -0.00985691 -0.12448521
000020 28 3f 20 be d9 9a 8b 3d ea df d3 be 39 fb 20 be
       -0.15649092 0.06816644 -0.4138177 -0.15720834
000030 38 4a 53 be a3 f2 ae 3d 87 fb 84 be bb 41 11 3e
       -0.20633781 0.08542373 -0.2597315 0.1418523
000040 66 c1 57 3c 17 55 99 be 4b 92 ee bd 4d b5 13 be
       0.013168668 -0.2994773 -0.11648997 -0.1442463
000050 cf d9 55 3e 0e 63 f3 bd 3a 8e 31 3d b7 06 2a be
       0.20883869 -0.118841276 0.04334853 -0.16604124
000060 06 be 2e 3e a2 54 6b 3d c2 69 ac bd 84 c5 29 3c
       0.17064676 0.05745376 -0.08418609 0.010362033
000070 f4 e8 94 be 56 23 04 be 12 7d 2c be 91 fd 4e be
       -0.2908398 -0.12904105 -0.16844586 -0.20213915
000080 66 0e 02 be b5 4b a7 bd 2c 39 c0 bd 80 6c 83 bd
       -0.12700805 -0.08168737 -0.09385905 -0.06417179
000090 2c f1 42 3e 93 c3 37 be 6a 20 20 be ed e1 2b 3e
       0.19037312 -0.179457 -0.15637365 0.16785403
0000a0 fc ae 82 bd 9a b4 52 be 5a 2c 47 be 3e f5 07 be
       -0.06381032 -0.20576707 -0.19450513 -0.13277146
0000b0 e4 24 99 bd 5f fe 95 bb 89 28 d9 bd e7 31 2a 3d
       -0.074777395 -0.0045774425 -0.106034346 0.041551497
0000c0 ba 3c 93 3d 27 d1 5d be f3 1b e2 bd 83 70 d6 bc
       0.07189317 -0.21661817 -0.11040487 -0.026176697
0000d0 55 cb ef bd 06 3a 46 bb 3a 5b 15 be 95 c4 be bb
       -0.117087044 -0.0030246987 -0.14585581 -0.0058217742
0000e0 fa 1b ef bd 50 15 06 bd 67 95 85 bd f3 2d b9 3d
       -0.11675258 -0.03273517 -0.06522637 0.09041967
0000f0 17 3c ee bd c4 42 24 bd 26 0e 8d bd 59 9f b6 3d
       -0.11632555 -0.040102735 -0.06887464 0.08917112
000100 4f 82 b4 be 60 49 7d be ec 3f 96 bd df a0 58 be
       -0.35255668 -0.24735022 -0.07336411 -0.21155117
000110 eb d9 8a bd 47 f2 e1 bd e2 67 9b be 56 6d 77 bd
       -0.06779846 -0.11032539 -0.30352694 -0.060407005
000120 6f cc 0e 3e a2 af 8c be b0 19 89 be c9 15 0d be
       0.13945173 -0.27477747 -0.2677741 -0.13777842
000130 4b 12 88 bd 14 87 b1 be 55 bf af be 9b f3 b5 3d
       -0.06644114 -0.3467337 -0.34325662 0.08884355
000140 5b 92 86 3c b7 61 8d be 46 2b 81 be 09 d1 fb 3d
       0.01642721 -0.27613613 -0.25228328 0.1229573
000150 0a 46 9c bd 6e f4 a1 bd 7d aa bc 3d cc b4 1b be
       -0.076305464 -0.079079494 0.092122056 -0.15205687
000160 37 0a d6 bd cb 7f 07 be 1b 99 85 be 08 2e 31 be
       -0.10451167 -0.13232343 -0.26093373 -0.17302716
000170 31 dc 20 3e f7 df 97 be 6c 07 22 be 27 73 cd 3c
       0.15708996 -0.2966306 -0.15823144 0.025079323
000180 1e 36 d9 bd 4f d9 90 3d b1 66 8a 3e 40 3e b6 bd
       -0.10606025 0.07072698 0.27031472 -0.08898592
000190 98 a4 01 3e 45 7d 1a 3e 44 c5 f8 3d 96 d0 99 be
       0.12660444 0.15086849 0.121470004 -0.3004195
0001a0 e1 10 09 3d c2 de c3 bd c6 c9 a1 be 7a ba 20 bd
       0.033463363 -0.09563972 -0.31599253 -0.039240338
0001b0 56 98 23 be 2d 2e 19 3d 88 bc ef be 28 02 00 bd
       -0.1597608 0.037397552 -0.46823525 -0.031252056
0001c0 cd e2 d3 bc 2b 75 35 bd c5 7b 59 be ec a0 ff bc
       -0.025864983 -0.044301193 -0.2123862 -0.031204663
0001d0 51 f1 36 be d3 67 16 3c 75 6f 49 be bc cd 99 bb
       -0.17865492 0.009180027 -0.19671424 -0.004693715
0001e0 7b 86 9d 3e c2 f5 a6 bd 7d 92 12 be 8b d7 12 bc
       0.30766663 -0.08152343 -0.14313693 -0.008962522
0001f0 8a c6 84 bd a3 cf ff bd 27 ef a5 bd f3 14 fe bc
       -0.06483181 -0.124907754 -0.08102255 -0.031015849

actor.2.weight f4 [128, 128]
000000 24 dd 8d bd 33 fc 2b be 3f 75 96 bb 48 61 61 ba
       -0.06926945 -0.16795425 -0.0045916135 -0.0008597565
000010 ea b7 b2 3d 08 73 fa bd 74 bd 15 bd 94 61 ee ba
       0.08726485 -0.12228972 -0.03655763 -0.001818704
000020 a9 00 9c 3d 71 2f 42 3d d8 cd 25 bd ab 73 b9 3c
       0.076173134 0.047408525 -0.04047951 0.022638163
000030 b7 b0 51 3d a0 85 33 3d b5 b8 e1 3d 9a ba 8e 3d
       0.05119392 0.043828607 0.11021558 0.06969185
000040 b2 2a 0d 3e 04 6f 7c bd 1e fa e9 bc 8d 50 7d 3d
       0.13785818 -0.06162931 -0.028561648 0.061844397
000050 28 dd 20 3d 82 c0 19 bd 35 dd c2 bc b4 57 15 3d
       0.03927341 -0.037537105 -0.02378712 0.036460593
000060 cd 49 5f 3d 6d f9 45 bd ad ab 0b 3d fb a6 c5 3d
       0.05451374 -0.048333574 0.03409927 0.096509896
000070 81 b3 0d 3d b5 21 30 3d 62 bd b1 3b 64 d1 95 3b
       0.034595016 0.043000896 0.0054241875 0.0045720804
000080 82 c8 d3 bc 1d b1 01 bc 62 26 de 3d a5 94 2b bd
       -0.025852446 -0.007915762 0.10847165 -0.041889805
000090 4f fe 8a 3d 1e 11 84 bd 72 78 90 bd 0f aa 93 bd
       0.06786787 -0.06448577 -0.07054223 -0.072101705
0000a0 21 8f a9 3d 97 9f 74 bd a6 6a c7 3d 89 6c b4 3d
       0.08279253 -0.05972251 0.097371385 0.08809764
0000b0 49 91 9e 3d c3 95 5d 3d ad ed b4 3c bc 82 87 3d
       0.07742555 0.054097902 0.022085989 0.066167325
0000c0 40 fe 9a bc 77 2c ba 3c 28 1b 84 bd b2 f6 29 bc
       -0.018920064 0.02272628 -0.06450492 -0.010373758
0000d0 94 d2 94 3d 48 67 88 bc ac 35 af 3d 2f f0 54 bd
       0.07266727 -0.01665081 0.08555159 -0.05198687
0000e0 b6 30 94 3d e3 d7 22 bc a9 a2 16 3d 5e 95 ad bc
       0.072358534 -0.009939167 0.03677622 -0.021189388
0000f0 0d a5 6e bd eb 8c 9c 3d a2 24 27 bc 63 d2 be bc
       -0.058262873 0.076440655 -0.010201605 -0.02329368
000100 00 d7 bb bd d3 f1 d5 3d 6d 68 44 3d 77 00 dc bd
       -0.09171867 0.10446515 0.04795115 -0.10742276
000110 1f 39 46 3b e2 93 5e be 13 93 d0 bd 69 88 cf bd
       0.003024645 -0.217361 -0.10184302 -0.1013344
000120 a1 02 10 bd dd 06 99 bd 59 be 5f bc 3e c0 be bc
       -0.035158757 -0.07472012 -0.013656222 -0.023285028
000130 54 a4 5c bd 6f bc 6c 3c 57 8c 07 be 67 ef 3e bc
       -0.053867653 0.014449223 -0.13237129 -0.011653758
000140 33 db 72 be 86 38 9b 3d a2 e5 52 bc b6 8b 77 3d
       -0.2371643 0.0757914 -0.012872132 0.060435973
000150 f0 d8 9b 3d 9f ad 3c 3e 0b de 25 be a7 37 11 bd
       0.07609737 0.18425606 -0.16197984 -0.035453465
000160 8d 58 8f 3d 59 df a3 bd 43 ef c1 bd 0a d7 8a 3d
       0.069993116 -0.080015846 -0.09469464 0.06779297
000170 88 67 50 bd 46 20 52 3d db c2 1c bd 2b b4 95 3c
       -0.050879985 0.05130031 -0.038271766 0.018274387
000180 33 b9 6d bc d3 d8 61 bb be e0 64 bd 09 4d 44 bd
       -0.014509487 -0.0034461513 -0.055878393 -0.04792503
000190 f2 6b b6 bc 70 5c 6d bd 78 24 a2 3d f1 67 1a bb
       -0.02226827 -0.057949483 0.07917112 -0.002356049
0001a0 a1 32 18 be 7c d8 9a 3c cc 4b f6 3c 4b 5b bb 3c
       -0.14863063 0.018902056 0.03006544 0.02287068
0001b0 c9 f9 a7 bb aa 2d bc bc 39 26 ee 3c b4 fe b7 bd
       -0.0051262123 -0.022970993 0.02907096 -0.08984128
0001c0 de 31 b6 3d 02 f9 a9 3d 2d c9 66 3d c0 15 90 3d
       0.0889623 0.082994476 0.0563442 0.070353985
0001d0 4e e9 a1 bd 7f ed ce bd 0c 72 35 bd 21 ae 8e 3d
       -0.079058275 -0.101038925 -0.044298217 0.06966806
0001e0 41 c2 6d 3e e0 16 64 bd b8 9f 6a bd d1 98 ca 3d
       0.23218633 -0.055685878 -0.057281226 0.09892429
0001f0 18 0a 77 bd 1e 41 40 bd 1b d8 84 bd ec 4b c9 bd
       -0.06031236 -0.0469371 -0.06486531 -0.09828934
000200 4b de c8 bd 7d 42 6d 3d 6e a2 90 3d 17 17 e7 3d
       -0.09808024 0.057924736 0.07062231 0.11283701
000210 e1 9c 0d 3e 7e 47 8d 3d b7 4b 5d 3d 99 e9 46 3d
       0.13829376 0.06898402 0.054027285 0.04856262
000220 08 f6 49 3d 6c 79 0a 3e 1c 3e fd 3a 04 70 06 be
       0.0493069 0.13522881 0.0019320878 -0.13128668
000230 85 35 00 be 07 60 c7 bb 1d ba 3b bc d5 6d 09 be
       -0.12520416 -0.0060844454 -0.011457947 -0.13420804
000240 ec 41 90 be 58 67 77 3d 7c 5c 06 be 4d 86 e0 3d
       -0.28175294 0.06040129 -0.13121217 0.10963116
000250 20 76 8f bc 6a a3 cb 3c 31 73 b8 bd 9a fd c4 bc
       -0.017512381 0.024858195 -0.09006346 -0.024046708
000260 6d 7b 34 bd ea 32 85 bc 20 dc 16 3d 4c d1 ac 3c
       -0.04406302 -0.01625963 0.03683102 0.021095894
000270 f5 5d 39 3b 12 c7 75 bc 34 42 ea bd 51 40 b2 bc
       0.0028284763 -0.015001075 -0.114384085 -0.021759184
000280 b6 d2 d0 bd 85 66 49 be 4d 14 59 bd d7 73 44 3e
       -0.1019644 -0.19668014 -0.052997876 0.19184814
000290 05 f1 07 be 06 fc 1a be e7 36 8c 3d 21 dc df 3d
       -0.13275535 -0.15135202 0.06846409 0.10930658
0002a0 a6 03 d4 bb 7f cc db bd 59 91 b5 bd ed 7d a9 3d
       -0.0064701615 -0.10732364 -0.088656135 0.082759716
0002b0 37 91 b2 3b 0b ce 03 bd cc d6 01 3c 6a b3 ad bd
       0.00544944 -0.03217892 0.007924747 -0.08481486
0002c0 27 73 a1 bd c4 97 51 3d 5e 61 d6 bc 6d 90 54 be
       -0.07883292 0.051170126 -0.026169475 -0.20758219
0002d0 68 61 15 be f3 6e 0a be 31 39 b3 be 83 77 47 bd
       -0.14587939 -0.13518886 -0.3500457 -0.04869796
0002e0 16 49 00 bd e7 6b 94 39 85 e6 0c be 92 68 89 3d
       -0.0313197 0.00028309153 -0.13759811 0.06709398
0002f0 2e cf 6c bd 28 90 8f bc 75 0c 6f 3d 72 ed 07 bd
       -0.05781477 -0.017524794 0.05836149 -0.03318543
000300 77 cf 9c bd dd 10 1b be 24 28 de 3d 96 06 86 3d
       -0.07656758 -0.15143152 0.108475 0.06544225
000310 f4 72 f6 bd e4 44 9e bd d0 72 8f bc 97 1a 14 3c
       -0.12033644 -0.077279836 -0.017510802 0.009039543
000320 f6 bc 76 3d 58 7d 04 bc 11 58 27 bd 55 de 69 bc
       0.0602388 -0.008086525 -0.04085547 -0.0142741995
000330 c8 f1 13 bd 82 42 e8 bc e3 cf 58 3d 45 5e 4c ba
       -0.036119252 -0.028352026 0.05293263 -0.00077960297
000340 fb e3 e9 bb ac 36 51 be f4 84 e4 3c 67 4e ff 3d
       -0.007137773 -0.20431012 0.027895428 0.12466126
000350 21 c5 a2 bb 59 ac 35 3d ee 21 89 bd ff 8e 58 3c
       -0.0049673473 0.044353817 -0.06695925 0.013217687
000360 21 91 95 bd f4 ed ff 3b 95 f7 f4 3d 82 75 5d 3d
       -0.07303072 0.0078103486 0.11961285 0.054067142
000370 95 49 79 3d 76 74 2f be b4 4c 1b bc 70 a7 09 be
       0.06086119 -0.1713427 -0.009478737 -0.13442779
000380 77 41 1a be 1e 06 b7 bd e5 f7 4f bd a2 a6 8f 3e
       -0.15064035 -0.08936714 -0.05077352 0.28056818
000390 8e 90 43 be b9 cc a5 bd a5 a3 1c be 11 dc 5c 3d
       -0.19098112 -0.080956884 -0.152968 0.05392081
0003a0 c3 65 70 3c db b3 68 bb 84 83 fc 3d 9f 56 35 3e
       0.014672699 -0.0035507593 0.12329772 0.17708825
0003b0 69 71 3d be d4 9f 0c 3e a6 2c ee bd 06 b4 04 be
       -0.18500294 0.13732845 -0.1162961 -0.12959298
0003c0 be 14 11 3d ec 42 05 be 24 39 68 3b 9e f3 02 bd
       0.035420172 -0.1301381 0.003543445 -0.031970613
0003d0 8e b4 ae 3d 1f 63 ca 3c be ff c5 bb 34 8f 85 bd
       0.08530532 0.024705468 -0.0060424497 -0.065214545
0003e0 70 be c2 bd da 4a 07 bd 9b 19 12 3e 47 43 0e be
       -0.09508979 -0.03303037 0.1426758 -0.13892852
0003f0 b6 81 9c bc 2b e6 d9 3d 01 c2 b6 be b0 b8 34 3d
       -0.01910482 0.10639604 -0.35694888 0.044121444

actor.2.bias f4 [128]
000000 7d 93 a8 3d d5 aa 15 be a5 9d 49 be d0 e0 d7 bd
       0.08231256 -0.14615948 -0.19689043 -0.105409265
000010 be 8b ce bd 8e 4e 7c bd 77 e2 65 bb 1a 22 a2 bd
       -0.100852475 -0.061598353 -0.003507761 -0.079166606
000020 5b 1f 12 be 2b 5f 37 bd 84 a8 70 bd 60 0a 10 bd
       -0.14269774 -0.044768494 -0.05875446 -0.035166144
000030 e4 2b f4 3b 35 27 a1 3b f4 ea cb bd 9c 0b 46 bc
       0.007451521 0.004918004 -0.09956923 -0.012087729
000040 01 15 25 bc 96 25 ea 3c 2a 92 91 3d f1 37 86 bc
       -0.0100758085 0.028582375 0.07107957 -0.016384097
000050 fd d5 fd bd ae b5 01 be 3e f4 00 be 01 89 52 bc
       -0.12394331 -0.12666962 -0.12593171 -0.012850047
000060 5e 83 3a ba ce b9 3e be 20 8a 19 be 76 43 55 be
       -0.0007114912 -0.18625566 -0.14994097 -0.20826516
000070 db 89 82 3d b4 8e a5 bd d3 7e dc bc 85 0e b9 3d
       0.0637395 -0.08083859 -0.026915943 0.090359725
000080 ad 5d 55 3c 30 62 64 bc b2 f1 96 3c b1 69 05 be
       0.013022822 -0.013939425 0.018425796 -0.130286
000090 75 83 38 3b 3c 12 0c bd 7e 6c bf bd 73 8f 03 bd
       0.0028154526 -0.034197077 -0.09346865 -0.032119226
0000a0 97 40 29 bd c0 1c c8 bd 09 ef 84 bd 4f e1 c5 3d
       -0.041321363 -0.097711086 -0.06490905 0.09662115
0000b0 39 50 54 bd e7 b3 3e be 1c a1 a0 bc 38 45 1b be
       -0.05183432 -0.18623315 -0.019608073 -0.15163124
0000c0 6b 66 22 be 50 f7 46 be d6 fb c4 3d a0 f0 03 be
       -0.15859382 -0.1943028 0.096183464 -0.1288476
0000d0 05 dc d6 bd 07 c8 e1 3d 59 9e a2 bb 6c 16 69 be
       -0.10491184 0.1102448 -0.004962724 -0.2276246
0000e0 55 2a 18 be e7 fa 32 be 79 b5 cf bc 42 38 57 be
       -0.14859898 -0.17478524 -0.025355088 -0.21017554
0000f0 60 9d 18 be 25 81 11 3e 59 5e 91 bc e6 62 4c bd
       -0.14903784 0.14209421 -0.017745184 -0.049899004
000100 2f 6b 0a be 86 d8 c2 bd 19 80 4b bc ff 75 cd bd
       -0.1351745 -0.09513955 -0.012420678 -0.100322716
000110 ac 68 55 3d 39 41 00 be ca 89 ac bd e1 70 25 be
       0.052101776 -0.1252488 -0.08424719 -0.16156341
000120 e7 00 a5 bc 1a 08 15 be 9a 5c 87 3d 4b 17 2b be
       -0.020142032 -0.14553872 0.06609459 -0.16708104
000130 01 a2 c3 3c aa b1 e0 3d 6d 0d 2b bd 4e 96 95 3c
       0.02388096 0.10971387 -0.04176085 0.018260147
000140 2f 94 12 be a7 50 19 be 37 04 53 3d f5 83 1c 3d
       -0.1431434 -0.14972173 0.05151769 0.03821178
000150 2f 33 5f 3c 3c 90 43 bc 1d cc 95 be a7 61 d4 bd
       0.013623043 -0.011936244 -0.2925729 -0.10370188
000160 57 5b dc bd d7 ad f8 3c 2b 43 99 3b a9 95 23 bd
       -0.10759609 0.03035633 0.0046771965 -0.03993765
000170 11 74 96 bd ea 57 72 be fb 33 fc bd 2f e5 e7 3c
       -0.07346357 -0.23666349 -0.12314602 0.028307525
000180 bd 17 ac bd 02 91 20 bd 4e fa d1 3d 90 da 90 bd
       -0.08402965 -0.03920079 0.1025282 -0.070729375
000190 1b 21 4e 3d 3c 1c ac bd 9a 7e e5 bd 54 eb 25 be
       0.05032454 -0.08403823 -0.11205788 -0.16203052
0001a0 42 10 67 bd d1 1b 3d bd 63 8b e6 bd 3b 12 b3 3d
       -0.05641199 -0.046169106 -0.11257055 0.087437116
0001b0 4d 75 3f be 55 16 c1 bd b4 f1 91 bd 2e 84 d5 bc
       -0.1869709 -0.094280876 -0.07126179 -0.026064005
0001c0 f2 4a 5f bd 59 93 25 3c f5 eb 1a be 9b c8 f6 bd
       -0.054514833 0.010105931 -0.15129073 -0.12049981
0001d0 a0 85 a6 3c 9d 08 a9 3d b4 fe c9 bd 2f ee 37 bd
       0.02032739 0.08253596 -0.09863034 -0.044904884
0001e0 c9 2e 5f 3c 43 25 03 3d e3 83 b2 bd f5 74 a0 ba
       0.013621994 0.032017957 -0.08716562 -0.0012241887
0001f0 11 c9 20 be fa f8 4e 3d c2 af fc bd fb 76 d9 bd
       -0.15701701 0.05053041 -0.12338211 -0.10618397

actor.4.weight f4 [128, 128]
000000 fc 85 b5 bd cd c7 83 bd 59 f3 99 bc 1f 34 c8 3c
       -0.08863446 -0.06434593 -0.018792795 0.024438916
000010 68 a7 89 3c 28 be 13 3d d2 f6 3e bd b1 43 ae 3d
       0.016803458 0.03607002 -0.046622105 0.08509005
000020 13 30 f3 bb d4 47 1b bd d5 86 8e bd c5 43 b6 bd
       -0.0074215024 -0.037910298 -0.06959311 -0.08899645
000030 fe 8d 02 3e 1a 3c 32 bd 5a 18 19 bd 53 a1 06 be
       0.12749478 -0.04351435 -0.03737674 -0.13147478
000040 d8 56 e6 3c 40 25 9a 3a d3 e0 69 bd 32 94 ef bd
       0.028117582 0.0011760369 -0.057099175 -0.11698188
000050 77 9f 7e bd d4 18 29 3d b4 32 af bd 49 27 90 bd
       -0.062163796 0.041283444 -0.08554593 -0.07038743
000060 28 6b bd bd 38 eb fe bb d5 90 9a 3c 08 83 b7 bd
       -0.09248954 -0.007779505 0.01886789 -0.08960539
000070 ec 72 ab bc 82 37 09 3d 96 e0 39 be 4b e0 02 be
       -0.020928822 0.033500202 -0.18152079 -0.12780873
000080 4d 3f 14 bd d4 96 46 bd 30 e0 1e bd 73 e0 3d bc
       -0.03619318 -0.048483685 -0.03878802 -0.011589157
000090 8c 44 86 3d 6e 71 14 bd f5 1f 5d bc f6 7a 70 3c
       0.06556043 -0.036240987 -0.013496389 0.014677754
0000a0 a6 cd 09 3e cc 4e 3b bd 07 39 0c 3d b7 b8 52 3d
       0.13457355 -0.045729443 0.034234073 0.05144569
0000b0 4b de 03 bd 13 aa 23 3d b8 2f 84 bd c3 5c 37 3c
       -0.032194417 0.039957117 -0.06454414 0.01119155
0000c0 8c 7d a6 3c 0c bb e6 bd d6 2d 05 be 6e c1 96 3d
       0.020323537 -0.11266145 -0.13005766 0.073611125
0000d0 d5 18 ed bc 42 35 bb 3c 16 ef 84 3c e3 0f 4e 3c
       -0.028942505 0.022852544 0.016227286 0.01257703
0000e0 ea e0 fb 3d ee e4 00 bd 1b 24 9f bd eb b3 80 bd
       0.12298758 -0.031468324 -0.077705584 -0.06284317
0000f0 87 15 69 3c 15 48 ed 3d 4a b8 15 bd 96 b8 9e bc
       0.014226324 0.11586014 -0.036552705 -0.019375127
000100 54 b5 d1 bd bb ca a7 3d 6d f5 ee 3a c1 31 39 3d
       -0.10239664 0.08192965 0.0018231102 0.045213465
000110 10 39 f3 bc ba 94 79 3d 99 56 e2 bb cc 1e 3c bb
       -0.029690295 0.060932852 -0.006907296 -0.002870488
000120 49 d2 f5 3c ff be d6 bd 9c f3 c7 3d c4 b2 78 3d
       0.030007498 -0.10485648 0.09763262 0.06071736
000130 9d cd 3b 3d 9d b8 a2 39 d5 a5 82 bd 9d 63 9e bc
       0.045850385 0.00031036595 -0.06379286 -0.019334609
000140 f0 60 41 bc 4e bf be bd e6 a3 01 be df bf cc 3d
       -0.011802897 -0.09313832 -0.12660179 0.09997534
000150 e5 de 9d bd 42 97 e2 bd 1d 9a c0 3c 8a 92 ae 3d
       -0.077085294 -0.110640064 0.023510987 0.08524044
000160 a7 b8 35 3d ec 6b 06 bd d0 0c 3b 3d cf 03 96 bc
       0.04436555 -0.032817766 0.045666516 -0.018312363
000170 08 68 0f 3c 59 0f 57 3d af 78 48 3d ca 96 7d bd
       0.00875283 0.05250487 0.048943218 -0.06191138
000180 09 78 a8 bd 0f 33 8c 3d 75 de ce bc ce 20 55 3d
       -0.0822602 0.06845676 -0.02525256 0.052033238
000190 2a 43 17 be 23 3c 29 bb af 4a d6 3c b2 59 ac 3b
       -0.14771715 -0.0025823198 0.026158659 0.005259716
0001a0 fa ba be bc b5 65 83 bd 13 4e fc 3c 27 86 a0 bd
       -0.023282517 -0.064158835 0.030798947 -0.078380875
0001b0 4f 14 4b be be 45 81 bd 88 73 33 3d 8d 26 a1 3c
       -0.19831966 -0.063121304 0.04381135 0.019671703
0001c0 68 e8 05 be 32 bf c2 bc 7b 83 b7 bd c0 70 a9 3d
       -0.13076937 -0.02377281 -0.08960625 0.082734585
0001d0 7c 6b 97 3d 14 70 7a 3c b0 2a 28 3d ad ca b5 bc
       0.07393548 0.015285511 0.041056335 -0.02219137
0001e0 09 18 9e bd 41 66 a5 bd dc b0 54 3d 4d b4 00 3d
       -0.07719428 -0.08076144 0.05192648 0.03142195
0001f0 61 77 2a bd 5e 64 29 bd 6c fd 53 bc e7 99 47 bd
       -0.041617755 -0.041355483 -0.012938838 -0.048730757
000200 10 46 0b be 24 c9 27 3d 4c 4c 88 3d 42 85 9b bc
       -0.13600945 0.040963307 0.066551775 -0.01898444
000210 2d 12 79 3d 95 ba ed 3d 09 ae 9a 3d be 7d 33 bd
       0.06080835 0.11607853 0.07552726 -0.04382109
000220 82 3b 8c bc 7f bc 19 3d b6 7c e6 bc aa 33 df bc
       -0.01711822 0.03753328 -0.028135639 -0.027246315
000230 28 35 b7 3d 0a cd 48 3d 65 ed ed 3d 46 7b 7d bc
       0.089456856 0.049023665 0.11617545 -0.015471285
000240 ea dc 31 3d da a7 1c be 03 60 1c 3d c7 40 00 bd
       0.04342357 -0.15298405 0.0381775 -0.031311776
000250 10 21 ae bd 97 a9 ca bc da 59 f4 bc 81 62 96 bd
       -0.085024 -0.02473907 -0.029828 -0.07343007
000260 d1 81 f3 bd 87 39 51 bd 70 72 5c 3c 81 7a 68 bc
       -0.11889995 -0.051080253 0.013455018 -0.014189363
000270 c6 66 98 3d 7b 1d 85 bd bc e0 79 3d a1 6f d2 bd
       0.074414775 -0.064997636 0.06100534 -0.10275198
000280 1d 05 04 3d 65 6f 41 3d 05 b1 2b 3d 30 26 10 3d
       0.03223144 0.047225375 0.041916866 0.03519267
000290 df 27 04 3e bb eb 63 3d 83 10 06 3b 1f 72 fb 3c
       0.12905835 0.055644732 0.002045662 0.030694066
0002a0 f9 e3 ed 3b ff b5 ce bd e2 51 7b bd 23 66 3a 3d
       0.0072598425 -0.10093307 -0.061357386 0.04550756
0002b0 f8 5f eb bc d9 37 e8 bc a8 6d 97 bd b9 f9 44 3c
       -0.028732285 -0.028346943 -0.07393962 0.012022429
0002c0 09 41 c8 3d 2e ba 87 bd eb 66 ef bc ac a7 57 3d
       0.097780295 -0.06627308 -0.02922388 0.05265014
0002d0 24 df e4 bd d6 bd de bd e3 b4 66 3d 5a f4 44 bd
       -0.11175373 -0.10876052 0.05632485 -0.048084594
0002e0 7c 72 e7 3d 2a b6 68 bd eb 13 f5 ba 99 a8 be 3d
       0.11301133 -0.05681435 -0.0018697953 0.09309501
0002f0 c7 3c 89 3d 88 80 f5 bc 90 02 9b 3d 13 48 63 3d
       0.067010455 -0.029968515 0.07568848 0.055488657
000300 ae 00 f8 bc ab db 7b bd 6b e9 89 bc 40 47 2e 3c
       -0.030273762 -0.06148879 -0.016834935 0.0106371045
000310 a9 0b b6 bd 9e 34 11 bc 44 6d 74 bd 92 99 4f 3d
       -0.08888943 -0.008862643 -0.059674516 0.050683565
000320 30 3f 26 bc 53 37 9d bd 86 9a d3 bb dd 6a dc 3d
       -0.010146901 -0.07676568 -0.0064576296 0.1076257
000330 7f 19 64 3d e0 3c fd bd 54 7e d2 bd 4f d7 15 bd
       0.055688377 -0.123651266 -0.102780014 -0.036582287
000340 98 b8 c6 3c 9f aa 90 bd 9b 96 a6 3c 35 28 21 3c
       0.024257943 -0.070637934 0.020335486 0.009836246
000350 a5 3e 1b bd f3 5f c4 3d 40 82 8d bc b7 53 00 3d
       -0.03790154 0.09588613 -0.017274022 0.031329837
000360 3f 05 e5 3d e0 06 49 bc 87 4b f1 3c 98 2f 5c 3c
       0.11182641 -0.0122697055 0.02945496 0.013439082
000370 44 ab b8 bd cf 6c f4 bb 99 3c 3e 3d e3 a0 2a bd
       -0.09017041 -0.00745926 0.04644451 -0.04165734
000380 86 62 85 3d 43 d9 40 3d 15 df 0e 3d df 62 76 3d
       0.065129325 0.047082197 0.034880716 0.060152885
000390 62 59 4d bd 06 ff 97 3d 4b 24 a8 3d 29 50 0b 3d
       -0.05013407 0.07421689 0.08210047 0.034011994
0003a0 fd f8 80 3c da d1 39 3d 63 38 e8 3d dc 4f 86 3b
       0.015743727 0.045366146 0.1133888 0.0040988754
0003b0 f3 7c 81 bc 23 63 f8 3c e8 1d 8c 3c be 32 c2 bd
       -0.01580665 0.03032071 0.017104104 -0.094823346
0003c0 9a 47 1c be f3 d1 42 3c b3 cc a1 3b 40 7e 49 bd
       -0.15261689 0.011890876 0.004937732 -0.049192667
0003d0 9c 5b 85 bd f0 fc 33 bd 3c b6 60 bd 5d 1f 00 bb
       -0.06511614 -0.043942392 -0.054861292 -0.0019549944
0003e0 cb 3c 1b bb 0d 78 66 bd ab 91 78 bb d6 97 0d 3d
       -0.0023687358 -0.056266833 -0.0037928622 0.03456863
0003f0 5b 36 e2 bd b2 d1 4e 3d 6c db 4c bd 4d 35 7a 3d
       -0.11045524 0.05049295 -0.050013945 0.061085988

actor.4.bias f4 [128]
000000 8f 49 e2 bc 76 77 3b bd cb 75 24 bd 9e 2f 4f bd
       -0.027622966 -0.045768224 -0.0401514 -0.05058252
000010 13 f4 fb bc 55 83 91 3d b5 8d 30 bd 34 64 cf bc
       -0.030756032 0.07105128 -0.043103892 -0.025316335
000020 fe 0b 13 3c 61 e6 ec bd b3 6c 08 be d6 77 a5 bc
       0.008975027 -0.11567379 -0.13322715 -0.020198744
000030 5c b0 07 be 2b 2c 89 bd 4b 59 89 3d 45 9a bd bc
       -0.1325087 -0.066978775 0.067064844 -0.02314485
000040 40 ae fc 3c b1 18 df 3c 98 a2 d4 bd f2 b4 82 bd
       0.030844808 0.027233453 -0.10382575 -0.06382169
000050 43 6b 59 bd fb dc e7 3c 84 de 6c bd ab bf 24 3d
       -0.05308081 0.028303614 -0.057829395 0.04022185
000060 5a 45 be ba 06 b7 1f bd 9c b5 4a bd 07 98 6c bd
       -0.0014516518 -0.038992904 -0.049489602 -0.057762172
000070 ff d5 07 be 9d 80 d3 3d 4f 87 4d bd 5a 60 9e 3c
       -0.13265227 0.103272654 -0.05017787 0.019333053
000080 4c e2 2e bd ad c5 b3 3d a8 3d b0 3c 0d 90 39 bd
       -0.042696282 0.08777938 0.021513775 -0.045303393
000090 f9 1a a5 bc 99 4f f9 3c 8e 53 ab bd ad 68 86 bc
       -0.020154463 0.030433463 -0.08365546 -0.016407335
0000a0 5c 02 e7 bd 48 f1 73 bd df e9 cd bd a1 ee 97 bd
       -0.11279747 -0.059556276 -0.10054373 -0.07418562
0000b0 b3 17 06 be d6 f2 e7 bd c3 81 4a bd d4 00 2e be
       -0.13094978 -0.11325614 -0.049440157 -0.16992503
0000c0 35 7d af bc ca 01 3b 3d 1c c0 01 be 09 0e ed 3c
       -0.021422008 0.045656003 -0.1267094 0.028937357
0000d0 aa 2e 44 3d 46 4f a9 bd ce 86 cc bb 05 c8 8e 3b
       0.047896065 -0.08267073 -0.006241656 0.0043573403
0000e0 fb b5 87 bd e9 f9 ab bd 1d ea f4 bc 55 83 67 bd
       -0.06626507 -0.08397276 -0.02989679 -0.056521732
0000f0 ce b4 df bc f8 55 da bc 06 91 9e bd d1 fe da bd
       -0.027307894 -0.026652321 -0.07742505 -0.106931336
000100 e2 b3 41 bd 86 72 52 bc c4 af 7a bc 27 32 95 3d
       -0.04729069 -0.012844687 -0.015300695 0.072849564
000110 4a fa 8e 3d 34 53 b4 bb 8d fc 85 bd 50 ea 93 bd
       0.069813326 -0.0055030826 -0.06542311 -0.07222426
000120 6a d9 26 bc c0 db 9f 3d 89 60 a3 bc 73 2f ca bd
       -0.0101836715 0.07805586 -0.019943492 -0.098723315
000130 e0 e7 9b bc ff 30 bd bd dc 77 2b 3d 22 b4 d3 bd
       -0.019031465 -0.09237861 0.041862354 -0.10337092
000140 44 0e ea bd 3e b9 a1 bd 0e dc 3f 3d 36 96 07 bd
       -0.11428502 -0.0789666 0.04684072 -0.033102237
000150 ed 83 86 bc 97 07 b0 bc d5 91 c2 bc eb ef 81 3d
       -0.016420329 -0.021487994 -0.023751179 0.06344589
000160 3c 37 ae 3c 28 26 0f be c7 98 17 3d bd 6e 00 3d
       0.021266572 -0.13979399 0.037010934 0.03135561
000170 ea 63 54 bd 13 c1 ba bd 74 da ab bd 19 3b 50 bd
       -0.051853098 -0.09118857 -0.08391276 -0.05083761
000180 18 01 fd bd a4 18 e0 bd d7 d6 91 bd d3 19 22 3d
       -0.12353724 -0.109422 -0.071210556 0.03957541
000190 08 26 e7 bc bb 9f 8f bd b3 39 34 be b7 ea 8b bc
       -0.028216377 -0.07012888 -0.17600136 -0.017079694
0001a0 a6 97 1e be 6f 56 a0 3c f2 a7 c6 bd ae 37 c0 3c
       -0.15487537 0.019572465 -0.09700002 0.02346405
0001b0 de b9 32 3d 46 04 1b bc a0 d4 4f bc 5a 80 1f be
       0.043634288 -0.009461468 -0.012684971 -0.15576306
0001c0 a5 c6 51 bd 3e 90 c4 bd 75 f2 81 3d db 30 a6 3b
       -0.051214833 -0.095978245 0.06345073 0.005071742
0001d0 ae b8 e4 bd 64 e9 0b be fd 19 d5 bd 89 d4 9a 3b
       -0.11168037 -0.1366325 -0.104053475 0.004725043
0001e0 d6 24 0d 3d 6b 04 72 3b 3c 66 26 3d c5 79 73 3d
       0.034458958 0.0036928903 0.040624842 0.0594423
0001f0 23 55 8b 3d 38 7a 90 bd dc 5a e9 bd a0 d6 1f 3d
       0.06803348 -0.070545614 -0.11394283 0.03902304

actor.6.weight f4 [8, 128]
000000 79 2c 5f 3d eb 5f 7f ba 50 a0 15 3d 9f d5 1d 3b
       0.05448577 -0.0009741771 0.03652984 0.0024083627
000010 17 51 77 bc cc 60 08 bc 43 4a af 3c 1e 7d 6a 3c
       -0.015095017 -0.008323859 0.021397715 0.014312057
000020 8b d2 06 bc 45 1d a3 bd de 50 8d bc 60 c6 63 3c
       -0.008228908 -0.07964567 -0.017250475 0.013902277
000030 48 47 12 bd 98 55 f9 bc 0e 1a 55 bc 2b 7b 32 bd
       -0.03571251 -0.030436322 -0.0130067 -0.043574493
000040 09 05 8a 3c 2e 31 f3 bc 2f cc 97 bc 6f e6 9e 3b
       0.016848104 -0.029686537 -0.01852998 0.004849247
000050 36 fb a4 bb cf 00 37 3c 83 f3 67 3c 55 f1 a9 3b
       -0.0050348295 0.011169626 0.014157179 0.0051862397
000060 56 bc b4 3c 46 e8 49 bd 6e 34 aa bb d0 77 32 3c
       0.022062462 -0.04929378 -0.0051942384 0.010892823
000070 23 34 95 bd c7 f4 71 bc 93 d3 87 bd 32 73 2b 3b
       -0.07285335 -0.014767832 -0.066321515 0.002616119
000080 2f 17 a5 3c 5d 6a 99 3b 66 ee 9b 3c d5 6b 8a bd
       0.020152656 0.004681869 0.019034576 -0.067588486
000090 83 51 c7 bc dd 1a b6 3c 40 0b 48 bd ff ca e0 ba
       -0.02433086 0.022229606 -0.048838854 -0.0017150341
0000a0 71 d7 b7 3c cc 39 4d 3c f4 39 b0 bd f0 20 a7 ba
       0.022441598 0.012525987 -0.08604804 -0.0012750905
0000b0 83 8c a9 bc 4c cb 15 bd 1f 6d 10 bd 72 14 79 bd
       -0.020696884 -0.036570832 -0.035260316 -0.060810514
0000c0 a9 cd 8d 3c 70 16 f0 ba 46 c2 63 bc 03 71 a5 3b
       0.01730998 -0.0018317234 -0.013901299 0.0050488724
0000d0 de 3b b8 3a 6b a2 80 3b 4a ac 41 bb e0 a5 b2 bc
       0.0014055928 0.0039256117 -0.0029552155 -0.021807611
0000e0 89 c1 b3 3c a9 b2 58 3c 90 c4 93 bc 01 5f 90 bc
       0.02194287 0.01322619 -0.018038064 -0.017623426
0000f0 6b d1 29 bc c8 ae 95 bc e2 1f 40 3d ec 3d 14 ba
       -0.010364871 -0.018271819 0.046905406 -0.0005654979
000100 11 bf 18 bd a7 b8 d9 3b 63 f0 38 3b b6 c7 10 3b
       -0.03729159 0.0066443267 0.0028219454 0.0022091693
000110 ab 14 3f 3b 45 09 e3 3a 64 90 29 3d 9b af 9d bc
       0.0029156606 0.0017321488 0.041397467 -0.019248774
000120 81 58 9f 3b 15 bf 26 3c 7c f5 40 3c 1e 78 37 3c
       0.0048628454 0.010177393 0.011777278 0.011198072
000130 e5 8c 61 bc bc 8e d9 3c c7 ea d5 3c e1 2d 2d bc
       -0.013766502 0.026557319 0.026112927 -0.01057002
000140 7a 24 e6 bc 82 fc c9 bc 2f e6 0b bc 48 d4 83 3b
       -0.028093565 -0.024656538 -0.008538767 0.0040231086
000150 f2 01 39 bc ba f7 cd 3b 03 b7 2f 3d 05 c5 30 3c
       -0.011291968 0.006285635 0.042899143 0.010789161
000160 9e 73 19 bc 84 a4 fe 3c 5d 25 d6 3b 2a 04 43 bb
       -0.009365944 0.031084307 0.006535216 -0.002975712
000170 ce 41 66 3c 06 99 2b ba 1d d6 c4 3c e2 50 99 3c
       0.014053775 -0.00065459346 0.024027878 0.018715326
000180 a2 5a 64 b9 4d 99 0a 3b 6d 8d 8e bc 29 58 20 bd
       -0.00021777538 0.0021148503 -0.017401421 -0.039146576
000190 bf 20 0d 3c c6 8f 07 3c cc 60 9b 3c ec b3 27 bd
       0.008613764 0.008274024 0.018967055 -0.04094307
0001a0 fd de b3 bc 15 b0 fe 3c 35 bf 62 bc b7 3a ab bb
       -0.021956915 0.031089822 -0.013839533 -0.005225505
0001b0 c4 d6 97 3c 7e cf 64 bb b0 c8 d7 bc 8a e8 00 bc
       0.018535025 -0.0034913714 -0.026340812 -0.007867942
0001c0 e2 2f 14 3d e3 ae 88 3d d4 55 89 3b b2 08 0f 3c
       0.036178477 0.06673982 0.0041911397 0.0087301005
0001d0 7b f4 3e 3c 4b 1b 46 bc a2 bb dd bc cb e9 61 3b
       0.011654968 -0.012091468 -0.02706701 0.0034471627
0001e0 fc 21 f9 bc aa 95 5c 3b bd 2c af bc 21 db 83 bd
       -0.030411713 0.0033658543 -0.021383638 -0.0643828
0001f0 48 3a 34 3b b2 75 b3 bc 5e 5c 40 3d 93 c6 6d bc
       0.0027500559 -0.021906707 0.04696309 -0.014512676
000200 94 5e 6c bc 3e 7e fe bc ec 10 59 3c 39 98 e4 3c
       -0.014426846 -0.031066056 0.013248663 0.027904617
000210 7d ab 8f bc 31 f1 63 bc 85 39 69 3d b8 98 e0 ba
       -0.017537827 -0.013912485 0.05693962 -0.0017135357
000220 32 27 e2 3c 7e 3f ac 3c 3e 98 aa b9 cf a6 9a bc
       0.02760658 0.02102637 -0.00032538356 -0.018878369
000230 50 9d 61 3b 52 70 4e 3d 08 27 e8 b9 7b 4d 4f 3d
       0.003442604 0.050400086 -0.0004427957 0.050611
000240 76 0e bd 3b 49 a4 a2 3b f9 4a d4 bb be 34 8f bc
       0.005769546 0.004963432 -0.006478664 -0.017481204
000250 50 76 95 3a 20 1d 12 bd 8e 6b 12 bc 7b 4a 68 3c
       0.0011403058 -0.035672307 -0.008936776 0.014177914
000260 70 85 f6 3b 46 b1 a0 3c 9e dc d6 bc d2 f6 a1 bc
       0.007523231 0.01961578 -0.026228245 -0.019771013
000270 37 57 3e bd 40 c1 a6 3b e7 70 96 bb 76 b3 dc bb
       -0.046469893 0.005088955 -0.0045910957 -0.0067352606
000280 84 8c 43 bd 69 ec d9 bb c3 75 f3 bc 46 03 91 3c
       -0.047741428 -0.0066504967 -0.02971924 0.017701756
000290 ee c8 68 bc 99 66 c5 bc ed 55 9c bc 53 d5 9b bc
       -0.014208062 -0.024096774 -0.019083941 -0.01902262
0002a0 2e ff 27 3c 02 07 11 bc e9 94 ae 3c 1d 3b 37 3c
       0.010253711 -0.008851768 0.02131124 0.011183527
0002b0 6a 7a 08 bd ed 7f a0 bc 19 5e 98 3c 84 07 a6 bc
       -0.03331987 -0.01959225 0.018599557 -0.020267256
0002c0 4b e3 a3 bc 7c 07 01 3c 4a 16 34 bd e6 9f 96 3c
       -0.020005843 0.00787532 -0.04396657 0.018386792
0002d0 53 20 61 3b fd 6c 2c 3b e9 02 95 3c d3 36 03 bc
       0.0034351542 0.002631008 0.018189864 -0.008008677
0002e0 d8 2f 01 3d 73 28 65 bc 54 30 03 ba 82 f7 5e bc
       0.031539768 -0.013986695 -0.0005004455 -0.013608815
0002f0 8f cb 8b 3d 62 61 39 3d 1f 27 8b 3c 7e a9 be bc
       0.06825935 0.045258887 0.016986428 -0.02327418
000300 0a 0f a2 3a 11 fa c6 3c f9 cb 0d 3b 3f 7e af 3a
       0.0012364101 0.024289163 0.002163647 0.0013389065
000310 c2 a1 e0 bb 74 52 6a bb 5d f5 0c 3a c7 e5 d0 3c
       -0.0068552205 -0.0035754712 0.0005377138 0.025500191
000320 b5 a8 5b 3c e1 32 08 3c 27 da eb 3a ed 88 2b 3b
       0.013406922 0.008312912 0.0017994092 0.0026174143
000330 9c a0 11 bc 04 3e 1c 3c 29 6e a4 bd cf fc 29 bb
       -0.00888839 0.00953627 -0.08028824 -0.002593804
000340 df 3c 62 bc 79 1a 68 bc 68 af 28 3c c5 ce bf bc
       -0.013808458 -0.014166468 0.010295726 -0.023414025
000350 52 7a df bc a1 7d 08 3c 7a 79 40 bc 95 89 d0 bc
       -0.027280007 0.0083307335 -0.011747712 -0.02545623
000360 2c 5b 34 3b bf 50 ae 3c d3 9c e1 3b bb a3 ce 3b
       0.0027520163 0.021278737 0.00688515 0.0063061393
000370 62 f0 89 bb d6 0b 9f 3b 01 c1 19 3c 47 42 f1 3c
       -0.004209564 0.004853706 0.009384395 0.029450549
000380 2f 53 14 bc 66 2d 7e 3c 91 ac 57 3d 63 48 04 3d
       -0.009053036 0.0155137535 0.052654807 0.032295596
000390 2c 59 4f 3c 3d 17 21 3c ec 25 3d bc fa e1 0a ba
       0.012655538 0.009832201 -0.011544686 -0.00052979554
0003a0 35 1c 34 bc 70 36 15 bd 7d e8 ca 3c 38 00 ff 3c
       -0.010993053 -0.03642887 0.024769062 0.031128034
0003b0 21 16 29 3c 94 45 27 bd ef 2d 1c 3d 9c 23 19 bd
       0.010320217 -0.04083784 0.038129743 -0.037387475
0003c0 93 de 30 3d 0c a4 0d bd 00 97 db 3b 33 ab 16 bd
       0.043181013 -0.034580275 0.00670135 -0.036784362
0003d0 44 83 d8 3b 16 40 b5 bb 92 9d fb 3c 35 a1 f2 3b
       0.006607445 -0.0055313213 0.030714784 0.0074044713
0003e0 13 09 b3 bc cd da 05 3b c1 8e d2 3c e1 13 92 bc
       -0.021854913 0.0020424605 0.025702836 -0.017831745
0003f0 3d 43 52 bc 7b 04 d2 3c dc 52 02 3d ac 68 e2 bb
       -0.012833414 0.025636902 0.031817302 -0.0069094505

actor.6.bias f4 [8]
000000 f5 94 0b 3e 15 ca 80 bd 88 62 c4 bc ad 34 ae 3d
       0.13631041 -0.06288544 -0.023972765 0.08506141
000010 1d df 22 3d b1 ac 0f 38 38 85 99 3d 5c 1c 8f bd
       0.03976356 3.425469e-05 0.074961126 -0.06987831
