ISAAC_NOGIT/logs/rsl_rl/traquad_flat/2025-09-16_11-57-54/model_50.pt (torch, 925409 bytes, 48 tensors)

std f4 [8]
00000000: 8578 253f 4f52 3d3f 75e5 423f 238a 2d3f
00000010: 77c6 3d3f 4e16 423f ccc8 4a3f 0361 483f
0.64637023 0.7395372 0.76131374 0.67788905 0.7413096 0.75815284 0.7921264 0.7827303

actor.0.weight f4 [128, 31]
00000000: f939 58be 7856 59bd 6b5b 54bc 9ba6 d53e
00000010: d3d2 693e 0ddd 1c3e 8af1 763d 437e 65bd
00000020: d215 00bd 099c 643f 4b6b c03d df32 39be
00000030: 50bb 5e3d 8a44 1e3e 7793 c1bc a4ee a63b
00000040: 16f7 44bc d9e0 773d ce7a 153e c564 d03d
00000050: acfe 853c 48c6 0dbe 42d8 07be f85e bbbc
00000060: cf48 da3d 9b8a 7abd cc18 e53c dae4 003d
00000070: 18ae d63d 556a cebd 742d 2ebe 6de1 a5bd
00000080: a833 123e b40a 2d3e 5409 bebe 6932 71be
00000090: 4d65 6d3e 5e83 71be 23f3 923e 7f1e 513e
000000a0: c110 5a3f 6706 55be 0817 40bd dd69 da3d
000000b0: c06d 9ebd 6989 c1bd e4f8 1f3e d1e4 7e3c
000000c0: f6aa cbbd f0dd ebbd 4701 f5ba a49f f93c
000000d0: d832 c3bc cc5d 9e3d 7161 373e 568a 0cbe
000000e0: f50d d53e 28b5 33be e0b1 37be 4030 74be
000000f0: 4962 153d 1afa fabd 3a95 663e 6d0e 5dbd
00000100: 8685 1a3d fe89 773d de61 7e3d 94c9 b7bd
00000110: efcc eb3e 2e87 afbe a90a c5bd 6f07 993e
00000120: 53a0 a73d 3e76 32bd 1988 ac3d cac7 40bd
00000130: 6eb0 41be 43ea 7abd 3757 6d3c f929 173e
00000140: c1cc 803d 5a18 963d 7ff0 c33d 623b 953d
00000150: 6b10 0ebe 96c3 1dbe 362e 8b3e a765 8dbe
00000160: a632 7fbe 95bc 2e3e e9c0 8abd c879 68be
00000170: 6df4 4b3e 3c8f 213e 1905 87be c3fe ba3e
00000180: ab86 4ebd 99cf 29be db03 afbd 93bf 5abe
00000190: adba 04be 4b11 4f3e 68e4 2ebf 7c15 173f
000001a0: f28a 6e3d d088 0fbe 5230 c93d 43e8 053d
000001b0: b1ff ae3e 3324 1d3e 8cf3 bf3d 6277 cc3c
000001c0: 453e a23d 7f35 b43d 951c b1bd 0fa0 b73d
000001d0: a81c 55bc 79f7 8abd 5209 1e3e 9076 903d
000001e0: 74d0 223e 1f69 d0bd b46a 553e 1cf6 2dbe
000001f0: a83b 143e d869 263e 71d8 ec3c 11fe d8be
00000200: 5e7e c73d 8593 0b3d 28a1 fabe 57ac f23e
00000210: 240f 9dbd 9bbd 933f a7cb c8be 7a9b 1cbc
00000220: 9609 f43e 3c0f 62be b3db 3ebe 5342 fe3d
00000230: 1fca 9d3e c259 46be ecef ddbd 998b 6c3d
00000240: bbc5 203d 783e 313c a26c c3bc 056c c13c
00000250: c6b3 2ebe 4766 043e c26c 82bd f20c 983d
00000260: 047c 683d 496e e9bd 42cf bd3e b57b ffbe
00000270: 1fb4 a53e e314 84bd f9af 92be 8598 19bd
00000280: fda2 2f3c 9854 17be 06b8 2e3d 51ed 88bd
00000290: 9dd5 273f ee3e ff3d e7a6 0cbe 095b 9e3e
000002a0: c904 2fbe 3575 9f3e 3b27 abbd 09a5 60bd
000002b0: b981 b53d 0914 803e 317d 003e 0441 123e
000002c0: e6c1 d6bd 2eca 023c 0964 d8bc 88ac c4be
000002d0: b726 53bd 2681 f1bd b572 57be 9ee2 b03c
000002e0: a856 173e e978 a9bc 477f d5be 4d49 0a3e
000002f0: c559 15bd 7497 da3d 8d1f fe3d 9f7d fbbe
00000300: 2dc0 e23d c5d7 bf3e ad80 1b3e 5b3a 673f
00000310: 06e7 4d3f e983 4a3d 9a50 2fbd c371 c5bd
00000320: d86a 1f3e 0af0 a33d 5923 bcbc 8bae c3bd
00000330: 568a c03e 096d 2bba 8487 38bc 1410 77bc
00000340: b03f 113b bb3f 5bbe 98f7 cd3c 6e25 0dbe
00000350: 7e08 27bd a60e 06be 8a78 dd3b 48a6 b83d
00000360: ff3f f9bd 2b17 b03d 2aaf 13bd 2e3f a23c
00000370: ca52 ccbd 114c 8ebe 3f95 15bc de45 b1bc
00000380: 0270 913e d7a9 a8bc d0a8 813f dbd9 553e
00000390: b5f0 ac3d 25de 7f3e ca4a a7be c08c 973c
000003a0: 25cd 0e3e 7284 173e eef3 d73d 0086 7a3d
000003b0: 8b27 adbc 08dc f8bb d248 83bd 5ca6 bfbd
000003c0: 7c6e 34be a5fe 63be c1ed d43d 0323 79bd
000003d0: f13b 6e3d 5225 71bc 50dc bdbd 7585 8b3e
000003e0: 1318 2cbd f990 9e3e 26b2 a03e 18d1 22bf
000003f0: e258 edbd 6bc7 58be 1f8e cdbd d726 993c
-0.21115865 -0.05306098 -0.012961249 0.41728672 0.2283433 0.15318699 0.060288943 -0.056028616
-0.03127081 0.8930059 0.093954645 -0.18085812 0.054377854 0.15455833 -0.023629887 0.005094366
-0.0120218005 0.060517166 0.14597628 0.1017547 0.016356789 -0.1384517 -0.1326609 -0.022872433
0.106584184 -0.06116734 0.027965926 0.03146825 0.104824245 -0.10078875 -0.17009526 -0.08099637
0.14277518 0.16898614 -0.37116492 -0.23554386 0.23183174 -0.23585269 0.28701124 0.2042179
0.85181814 -0.20803224 -0.046896964 0.10664723 -0.07735777 -0.09450037 0.15622288 0.015557484
-0.099447176 -0.115169406 -0.0018692397 0.03047163 -0.023827955 0.07732734 0.17908265 -0.13724646
0.4161221 -0.17549574 -0.17938948 -0.23846531 0.036470685 -0.12254734 0.22517863 -0.053968836
0.037724994 0.060434334 0.062105052 -0.08973995 0.4605479 -0.3428282 -0.09621174 0.29888484
0.08184876 -0.043569796 0.08424396 -0.047065534 -0.18914959 -0.061258566 0.014486126 0.14762105
0.06289054 0.073288634 0.09567355 0.07286717 -0.1387345 -0.15406641 0.27183694 -0.27616617
-0.24921665 0.17064126 -0.06775076 -0.22702706 0.1991746 0.15777296 -0.26371077 0.36522493
-0.050421398 -0.16583098 -0.08545657 -0.21362142 -0.12961836 0.2022144 -0.6831727 0.5901716
0.058237977 -0.14017034 0.098236695 0.032692205 0.34179452 0.1534584 0.09372625 0.02495927
0.07922033 0.08799266 -0.0864803 0.08966076 -0.01300732 -0.06785483 0.15433243 0.07053864
0.15899831 -0.101763 0.20841485 -0.16988415 0.14475882 0.16251314 0.028911801 -0.42381337
0.097408995 0.034076232 -0.48951077 0.4739711 -0.076689035 1.1542238 -0.39217874 -0.009558553
0.47663563 -0.22076124 -0.18638496 0.12414994 0.3081827 -0.19370177 -0.10836777 0.05775032
0.03925107 0.010818116 -0.023855511 0.023611078 -0.17060766 0.1292964 -0.063684 0.07424344
0.056758896 -0.11397988 0.37072188 -0.49899068 0.32363984 -0.06449296 -0.2864988 -0.03749897
0.010720012 -0.14778364 0.042655967 -0.066858895 0.65560323 0.12463175 -0.13735543 0.3092883
-0.17091669 0.3114411 -0.08357092 -0.05484489 0.08862633 0.25015286 0.12547757 0.14282614
-0.10486202 0.007982774 -0.026414888 -0.3841288 -0.051550593 -0.11792211 -0.21039851 0.021592434
0.1477915 -0.020687537 -0.41698667 0.13504525 -0.036462564 0.10673419 0.124083616 -0.4911928
0.11071811 0.37469307 0.15185805 0.9032342 0.8043064 0.049442206 -0.042801477 -0.09640839
0.15568101 0.08004768 -0.022966074 -0.09554776 0.37605542 -0.000653938 -0.011262778 -0.015079517
0.0022163205 -0.2141103 0.025142476 -0.1378381 -0.040779583 -0.13091525 0.006758754 0.09016091
-0.121704094 0.08598169 -0.03605572 0.019805517 -0.09976728 -0.2779241 -0.009129821 -0.02163976
0.28405768 -0.020588798 1.0129642 0.20883887 0.08444349 0.24987085 -0.32674247 0.018499732
0.13945444 0.14796618 0.10544573 0.06116295 -0.02113702 -0.007594589 -0.06410374 -0.093579024
-0.17620271 -0.22265108 0.103969105 -0.060824405 0.058162633 -0.0147183705 -0.09270537 0.27250257
-0.042015146 0.3096998 0.31385916 -0.636003 -0.11589219 -0.21169822 -0.10036873 0.018695278

actor.0.bias f4 [128]
00000000: 817d 2e3d bbc4 28be a230 b5bc f434 39be
00000010: b221 e93c ac92 44bd 9d30 96bd 46e0 96bd
00000020: 66f2 65be f87e fe3d 2e9e 73be cdd1 d5bd
00000030: d34e febd d90a 223d 6d8a 25be 8524 e33d
00000040: e6e9 bd3d 88b5 01be 289c edbc c9b1 e6bc
00000050: 8f2f 383e dd7b 7fbc 6fd9 0e3d 0f45 2b3d
00000060: b710 0d3e 0170 9bbd a7f9 ae3c 31d0 ac3d
00000070: 1074 edbd cdb3 30bb c4f0 90bd 21be ecbd
00000080: c1ee 7abe a659 4d3d 3a76 75bd e985 813d
00000090: da1f 793d 5cce 13be 30c3 8e3d 83c4 e83d
000000a0: 6a42 0b3e 0e3f 75be af57 1cbe d22b b5bd
000000b0: 1898 b83d b99b 8f3d ac2b 023c 42e2 f4bc
000000c0: bc48 ab3c 60a1 a9bd 6506 47bd c775 19be
000000d0: d2e1 1abd fc02 b83d 8a87 99bd 5c50 11bd
000000e0: 53fa 72bd 17dd d23d f64b 87bd 5bb9 753d
000000f0: 49f6 86bd fc45 383c edb6 99bd 90d6 813d
00000100: b7f7 53be 2435 98be ac5f dabd a124 bbbd
00000110: c1c5 7e3d d98d 203d 8a91 57be 4bb5 de3c
00000120: 8840 653d 5ac5 73be 4868 6ebe 56ab ddbd
00000130: c78a a33d 66f1 0bbe 0d4a 18be ebe7 a53c
00000140: 1169 9bbd f4ed 89be 1dd7 3fbe b31a 153e
00000150: fad4 a7bd 46d2 b5bd 643c 3fbd ca01 08be
00000160: 9934 d03c bef1 28be 2969 80bd 9738 83bd
00000170: 491f 1b3d 981a 31be e1de 90bd f199 373d
00000180: 39f1 58bd de3c 333e 3c7c 0c3e 1250 d5bd
00000190: acd7 393d 39ad bc3d b8e3 173e c2f6 3bbe
000001a0: 85cd 063d e2db 47bd 7c14 17be a41f a13d
000001b0: 86de 12be aaff 113e 2bf9 46be 5cf7 d83c
000001c0: cb7f bc3c 25a2 1c3c abb8 12be d727 b43d
000001d0: 5cad 8abd b0ce 043c df4f 22be db6e 9dbd
000001e0: ab69 5f3e 3851 f5bc 544a e6bd 503c 19bb
000001f0: abd7 a43d f651 353d 9b22 2ebd 26bd 9f3b
0.04260016 -0.16481297 -0.022117916 -0.18086606 0.02845845 -0.04799144 -0.07333491 -0.073669955
-0.22455749 0.12426561 -0.2379081 -0.10440407 -0.12417378 0.039561126 -0.16166086 0.1109095
0.09273128 -0.12666905 -0.029005125 -0.028160946 0.17986892 -0.015593496 0.03487533 0.041813906
0.13775907 -0.075897224 0.021359278 0.08438147 -0.11594403 -0.0026962638 -0.070771724 -0.11559702
-0.2450514 0.050134324 -0.059927203 0.063243695 0.06082139 -0.14434189 0.06970823 0.11365607
0.13599554 -0.23949835 -0.15267824 -0.08846249 0.090133846 0.070121236 0.0079449825 -0.029893044
0.020908706 -0.08282733 -0.048590083 -0.14986335 -0.037813015 0.08984944 -0.07496555 -0.035477027
-0.05932076 0.10296076 -0.06606285 0.059991222 -0.06589944 0.011247154 -0.075055934 0.06339753
-0.20699964 -0.29728043 -0.10662779 -0.09137846 0.06220031 0.039197776 -0.21051612 0.027186057
0.055969745 -0.23805752 -0.23281968 -0.10823695 0.07985454 -0.13666305 -0.14871998 0.020252189
-0.07588399 -0.26939356 -0.18734403 0.14560966 -0.08194919 -0.08877997 -0.046688452 -0.13281932
0.025415706 -0.16498467 -0.06270058 -0.06407278 0.037871633 -0.17295301 -0.07073761 0.044824544
-0.052964423 0.17503688 0.13719267 -0.10415663 0.045371696 0.09212727 0.14832962 -0.1835585
0.032910842 -0.04879368 -0.14753908 0.07867363 -0.14342698 0.14257684 -0.19430988 0.026485138
0.023010155 0.009560143 -0.14328258 0.08796661 -0.06771347 0.008105919 -0.15850781 -0.0768716
0.21817653 -0.029945955 -0.11244646 -0.0023381896 0.08048948 0.044267617 -0.04251347 0.004874843

actor.2.weight f4 [128, 128]
00000000: 3d33 b2bd 9539 bcbd f33c c03c 1182 a0bc
00000010: 99d6 103d 4954 c1bd 65b1 dabd be13 ae3c
00000020: 4ebc 1c3d 00dd a43d 05ff 4fbd ee2b 87bb
00000030: 9f75 903c 390c 303d 18c2 cd3d 2f24 39bd
00000040: f7b5 d53d ad85 8bbd 5692 a73c 8887 533d
00000050: c244 383d 92fd 91bc db9a 643d dd5e d33c
00000060: 163d 2a3d 5ac8 1a3c 08a7 343d 0118 1f3d
00000070: f03f afbc 6d27 893d 6aa5 d53b 88d6 d33c
00000080: 1dc8 6cbd 25f9 87bc 5137 b13d 92e5 87bd
00000090: b9e3 eb3c 9b32 c5bd 52a0 54bd e1e5 7cbd
000000a0: 0aee 883d e614 56bd c8a7 823d c712 883d
000000b0: 3e6d 903d a33e af3d 5a25 80bc fc3f 843d
000000c0: caf9 7d3c 3c2b 2a3c e8d0 9dbd 2d23 1e3b
000000d0: ad43 9f3d 8333 e5bc c8f0 3c3c 5be6 f73c
000000e0: 921f 7b3d 1d0d 49bc 6590 c23b 0df0 8abd
000000f0: cde8 22bd d2f3 c03d 0488 41ba 7ff3 30bc
00000100: 93db cabd e98e 803d 48c7 f0bc 9ca9 11bd
00000110: 0a83 5cbc 7e8a e6bc 4b71 90bd 7738 33bd
00000120: c383 45bd d5aa 543c a0a3 12bb 37a3 a8bc
00000130: 9fb9 46bd 0da4 bdbc 8aa8 8ebd 9764 673d
00000140: b15d b3bd b6b3 313d 5f90 a63b 9eaf 953d
00000150: 40b6 983d 72c4 703d 7298 96bd 1cf9 053c
00000160: dcff dc3c ff8f 48bd 5a72 a2bd cc14 373d
00000170: 3864 a3bc 8364 8f3d a08c c73b f44b ec3c
00000180: 441d 32bd bd8c 53bc 1a94 7ebd 88fe 97bc
00000190: be5e 1fbd b7e0 54bd 3496 8b3d ccc0 573c
000001a0: 1059 f5bd fdce 733d ab56 58bd 87cf 493d
000001b0: 8a06 17bd 3da2 5cbd 1673 8f3d 11e8 a2bd
000001c0: 8ab4 ab3d a137 643d bb3f 87bc a962 f93c
000001d0: 403e 10bc 2b47 a1bd d0ff 4cbd 481e 793d
000001e0: 173e 713d b62e 49bd 3f7a 34bd ac3f 893d
000001f0: e24f 89bd a489 68bd ee48 c0bd 3af3 b5bd
00000200: a32c dfbd 036d 893c db36 843d 62a6 cd3c
00000210: ab15 d43d bf8f 53bd 8ace 3ebd 8238 0a3d
00000220: 1e6c 0e3e 060a 483d bb0a 2e3d 978a 2ebd
00000230: 1835 6dbd 3f87 233d 7bac b4bd 1e2c 803d
00000240: 29f1 d0bd 0043 1f3c 3869 dabd a5cb 9d3d
00000250: 6167 cb3d d4b6 8fbd 2c11 4c3d 93a7 583c
00000260: e48b 463d dac1 9bbd 924e 1c3d f7ac 793c
00000270: 60d3 533d 5de9 60bd bc6e 19be a03b a9bb
00000280: 710a 813d 7833 69bd c43c bf3d 4dd5 ebbc
00000290: 4738 f13c a866 d9bd 2f4d 163a f966 023d
000002a0: 466f 373c bb31 c4bd bd44 003c 5206 9d3d
000002b0: ba82 eebb 0477 4bbd 988f b73d a10b 88bd
000002c0: 76ec d9bc 045b 0d3d fc55 9d3c aa6c 77bd
000002d0: dfe5 01bd 1eb4 f2bd e572 febc a21e ce39
000002e0: bed3 babc 594f bb3b e3d3 95bd 61ef 53bd
000002f0: 32c4 45bd 8890 383d a522 c83d 38df 12be
00000300: c6ac 53bd ff8a bdb7 c1c7 f03d 7365 753d
00000310: 9b29 8fbd c739 193d bf00 2cbd 2269 2fbb
00000320: b56e a43c fbd1 1bbd 19cd edbd d972 9ebc
00000330: 45f0 2bbc 727c c8bb 87b8 5f3d d809 dabd
00000340: 45e5 06bd 779e 35bd e572 053d 295a 083d
00000350: e5a6 063d 6b09 7b3d 2b13 2ebd 0e28 623c
00000360: aa58 533c 7018 433c 75d6 223c 0582 2a3d
00000370: 1183 913c c749 a8bd 069b 033d dd60 843d
00000380: 1774 77bd 8689 1abd 00ef 263d 7734 8b3d
00000390: c0e4 9bbd 8633 2dbd 219e d3bd b79b d7bc
000003a0: 2d7a 91bc 42b0 1e3d a5f3 b7bc af87 87bc
000003b0: f7ff 69bd e64c 743d 97df 10be b956 99bd
000003c0: 31b3 d53d ea5f 223d a118 893d 1937 a6bd
000003d0: 60bb ad3c 8253 9a3d f84c 093d c79b 5d3c
000003e0: 397f 653d 6a22 8dbd 9b8a 843c 627e 15bd
000003f0: 7528 e8bd c506 cc3d 8ea7 3bbd a09f 94bd
-0.08701179 -0.091906704 0.023466563 -0.01959327 0.035360906 -0.09439904 -0.106783666 0.021249648
0.03826552 0.08049965 -0.050780315 -0.00412511 0.017634211 0.042980406 0.10046786 -0.045200523
0.10435098 -0.06812606 0.02045552 0.051642925 0.044987448 -0.017821107 0.055811744 0.02580207
0.041562162 0.009447182 0.044104606 0.03884125 -0.021392792 0.06696973 0.006519963 0.025859132
-0.05780803 -0.016598294 0.08653129 -0.06635584 0.02879511 -0.09628793 -0.051910706 -0.061742667
0.06686027 -0.052266024 0.06379658 0.066442065 0.07052086 0.08556869 -0.01564281 0.064575166
0.015501449 0.010386284 -0.07705861 0.0024129853 0.0777658 -0.027978664 0.011532016 0.03026121
0.061309405 -0.012271193 0.0059376233 -0.06784067 -0.039772797 0.09421505 -0.00073826336 -0.0108002415
-0.09905162 0.06277258 -0.0293919 -0.035562143 -0.0134589765 -0.02814221 -0.07052859 -0.04375502
-0.04822136 0.012980183 -0.002237536 -0.02058564 -0.048516866 -0.023149515 -0.0696574 0.056492414
-0.087581046 0.043384276 0.0050831283 0.07308887 0.074566364 0.058781095 -0.073532954 0.008177068
0.026977472 -0.04896545 -0.07931967 0.044697568 -0.019945249 0.07001593 0.006089762 0.028844811
-0.04348494 -0.012911973 -0.06215296 -0.018553987 -0.038908713 -0.051972117 0.06815758 0.013168525
-0.11979878 0.05952357 -0.052817028 0.04927018 -0.03687147 -0.05386566 0.07004373 -0.079544194
0.083840445 0.055717114 -0.016509881 0.030442553 -0.008803904 -0.07874902 -0.05004865 0.060819894
0.058897104 -0.049116813 -0.044061895 0.067015976 -0.067046896 -0.05677189 -0.0938891 -0.088842824
-0.10897186 0.016775614 0.06455775 0.025103752 0.10355695 -0.05165076 -0.04658369 0.033745296
0.13908431 0.048837684 0.042490702 -0.04261264 -0.057911962 0.039923903 -0.088219605 0.06258415
-0.10202248 0.009720564 -0.106646 0.07704858 0.09931827 -0.070172936 0.049821064 0.013223547
0.048473254 -0.076053336 0.038160868 0.015238992 0.051715255 -0.054910053 -0.14983648 -0.0051645786
0.0630082 -0.05693385 0.09337762 -0.028788233 0.02944578 -0.10615283 0.0005733547 0.031836484
0.011195963 -0.09579798 0.0078288885 0.07667221 -0.0072787674 -0.04967405 0.08962935 -0.06642843
-0.026602011 0.034510627 0.01920604 -0.060406365 -0.031713363 -0.11850761 -0.031060645 0.00039314205
-0.022806045 0.005716246 -0.07315805 -0.05174196 -0.04828281 0.04505971 0.09772233 -0.14342964
-0.05167844 -2.259528e-05 0.1175685 0.059911203 -0.069903575 0.037408616 -0.0419929 -0.0026765545
0.02007232 -0.03804205 -0.11611385 -0.019341873 -0.010494296 -0.0061183507 0.05461934 -0.10646409
-0.032933492 -0.044340577 0.032580275 0.03328911 0.032874007 0.06128828 -0.04249875 0.013803495
0.012899557 0.011907682 0.009938826 0.041627903 0.017762693 -0.08217197 0.032130264 0.06463788
-0.060413446 -0.03772881 0.040755272 0.06797116 -0.0761199 -0.042285465 -0.10332895 -0.026319368
-0.017758453 0.03874231 -0.022455046 -0.016544191 -0.057128873 0.05964365 -0.14147793 -0.07487244
0.10434569 0.039642252 0.06694151 -0.08115978 0.021207511 0.07535459 0.03352067 0.01352591
0.056029532 -0.068913296 0.016179373 -0.03649748 -0.113358416 0.09962229 -0.04581409 -0.072570086

actor.2.bias f4 [128]
00000000: eb64 963d 44ac 0ebe fbfe 52bd 61e1 a2bd
00000010: c392 813c b06f 19be 01b4 f93c 6268 073d
00000020: a9d6 51bd 30c4 f13c 7501 c1bd 7757 fabc
00000030: e536 d53c b1af 64ba ef32 f8bd 7d70 5d3c
00000040: a5a8 923d c4fe e63c 48e9 e13c fc59 203d
00000050: 2951 cd3b 7c03 55bd 9a19 15be 53ed 65bc
00000060: 7fda 1a3d 571c 6ebd 8e9d d53b 0fd0 d3bd
00000070: 542c 223d f785 6fbc 330e 01bc f2e1 a03d
00000080: 06d0 3cbc 76bc dfbb 1033 8f3d c0d9 9ebc
00000090: aac5 00bc 8fae 743d 4a77 53bd a4c1 2dbe
000000a0: 950e 69bc 5ff9 5cbd e848 f13d c437 d23c
000000b0: 811c aa3c 8a57 b7bd 1ad4 27bd 09f5 2ebd
000000c0: e594 debd 6c4c 9cbd a8e4 c53d bd0c 93bd
000000d0: bc7a 33bd e0e7 a03d 2a90 df3d 2bd9 31be
000000e0: ebf4 a33b ea12 aabc 45e4 e3bc 5f73 a9bd
000000f0: e26e ebbd bedd 703d b401 363c e8e0 38ba
00000100: 9785 96bd dd52 aebd 4681 233d 2832 03be
00000110: c38e 353d 2e64 8abd f2a5 abbd a794 b5bd
00000120: 99b4 903c b2a9 d5bd 2ce5 cd3c e385 49bc
00000130: c9fe 8cbc feaa 41bc 1450 a0bd a467 f03a
00000140: 734c acbc 3b86 ccbb 7b3d 07bc 0c41 453c
00000150: 544a 993d 9bac a33c b31e 3abe d2b4 9fbd
00000160: 999f d4bd 6f67 ac3d d62c 53bc c1e7 843a
00000170: 6faa a4bd 94a7 d0bd a253 4abd bf72 1dbc
00000180: da09 d7bc 1612 9cbd a6c1 473d 2126 fc3c
00000190: 7efc 703d 8c29 a8bd 9456 a4ba e12c f3bc
000001a0: 8563 e73b 4d59 25bc f11e 2ebd ad3e 94bc
000001b0: 3bbc ffbd 7ee7 fe3c ae5e 58bd 6442 6d3a
000001c0: 44f4 24bd c46e 9c3c 0318 5bbd 2897 01be
000001d0: 3000 b73d fe3e 723c 85ff 07bd ac7a 42bd
000001e0: d1cb c33c 54c9 4c3d 02d1 8fbd 8420 4f3d
000001f0: 2572 82bd 72f6 dc3d 5a7b efbd 84f0 80bd
0.07343467 -0.13932902 -0.0515127 -0.07953144 0.015817052 -0.14984012 0.03048134 0.03305853
-0.051230107 0.029512495 -0.09424106 -0.030559285 0.026027152 -0.000872369 -0.1211909 0.013515589
0.07161073 0.028197654 0.027577057 0.039148316 0.0062657786 -0.052005276 -0.14560547 -0.014033633
0.03780603 -0.058132496 0.006519026 -0.103424184 0.039593056 -0.014619342 -0.0078769205 0.07855596
-0.011524206 -0.006827886 0.06992161 -0.01939094 -0.007859627 0.059736785 -0.051627435 -0.169684
-0.014224668 -0.053948756 0.11781484 0.025661357 0.020765545 -0.089522436 -0.04097376 -0.042714152
-0.10868243 -0.07631764 0.09662753 -0.07180164 -0.04381822 0.07856727 0.10916169 -0.17368
0.0050035617 -0.020760972 -0.027818808 -0.082739584 -0.114957586 0.05880522 0.0111088045 -0.00070525566
-0.07349699 -0.08511899 0.039918207 -0.12812102 0.0443256 -0.06757389 -0.08381261 -0.08866244
0.01766424 -0.104327574 0.025133692 -0.0122999875 -0.017211335 -0.011820553 -0.07827774 0.0018341434
-0.021032548 -0.0062415875 -0.008254404 0.012039434 0.0748488 0.019979766 -0.18175773 -0.077981606
-0.10382003 0.08418166 -0.012889108 0.0010139869 -0.0804032 -0.10188213 -0.049396165 -0.009609877
-0.026249815 -0.07620637 0.048768662 0.0307799 0.058834545 -0.082110494 -0.0012538009 -0.029684486
0.007061424 -0.010092092 -0.042509977 -0.018096292 -0.12487074 0.031116243 -0.05282467 0.00090507255
-0.040272012 0.019095786 -0.053489696 -0.12655318 0.08935583 0.014785526 -0.033202667 -0.04748027
0.023900898 0.04999669 -0.07022287 0.05056812 -0.063694276 0.10789193 -0.11693449 -0.06295875

actor.4.weight f4 [128, 128]
00000000: 0b98 14bd fdee 48bc 3eed b53b 5dae 683d
00000010: 8f96 543d ae38 073c ffea b2bc 9955 763d
00000020: 72ea 86bd cec2 7ebd ce12 763d d67f f8bc
00000030: e99f a33d 0f42 bdbc 1e80 a1bd 4e62 7ebc
00000040: 70f8 b73b f6ee 64bd fe19 45bd 81de 96bd
00000050: 72e6 07bd be6c 943d e797 8ebd 805a a2bc
00000060: add2 98bc 4d6a 293c f551 abbc 8e52 8ebd
00000070: edb5 d7bc 7993 883d 37f4 99bc 7afd d0bc
00000080: 4c91 0cbc 0b6e f8bc 355b a03d 7e1f d9bc
00000090: e42d c63c d2a2 a1bd 143a f83b c3ce 343d
000000a0: 95a1 ad3d ffaa 69bd 6070 973d 0116 f4bb
000000b0: 3ebd dabc 98c7 6a3c 3ec2 2fbd ced9 563c
000000c0: a378 823c 7324 61bd 85c9 40bd 18db 223d
000000d0: 432a 97bc 941c 933c 2d53 b3bb 9be3 d13c
000000e0: 3ab5 503d b4ac a4bd 755c 623d f234 3cbd
000000f0: b750 12bd b54c c43d 45c9 d93c eb42 b0bc
00000100: dcd3 09be 0329 633d 7450 3b3d dc69 04bd
00000110: 0df4 ec3c eb6d 9a3d eb06 59bd c6b1 333c
00000120: 54de 7dbc 391d 54bd 78f2 8b3d 6303 9e3d
00000130: af17 6b3d 10b2 2e3d 039a bbbc 1ebb 063d
00000140: b895 a33a 7a5e 35bd 6083 04bd bde2 09bc
00000150: 8a8c f2bc a0fb e5bb 01aa ee3c d7aa 993d
00000160: 5699 493d b48c 123b c3a9 183d 5ee8 63bd
00000170: 2f86 8a3d caef b43d 5ff4 123c b6c9 6dbd
00000180: 2384 81bd 280b a13d f56e 6cbc ef35 e73c
00000190: 4073 a6bd 91a0 6c3b f49d 43bc e230 02bc
000001a0: 90a1 52bc cf04 063d d836 c73d 0210 b83c
000001b0: 2c38 6abd 50d1 dabb af2d 093d f9d2 753c
000001c0: 42c4 3fbd 2e49 1ebc 198e aabd b257 133d
000001d0: 985c 4d3d 89de da3c 7236 bb3c 786d 40bd
000001e0: 9903 94bc c7d5 c4bd 9254 0f3c 4e52 e93b
000001f0: f868 4d3c 7136 1f3b 88e5 7e3d 2722 0ebd
00000200: ef9f e1bd 6579 9e3d c6fe d13c 142a 80bd
00000210: be57 833d 0bc8 333d d503 213d 0071 41bd
00000220: badd dfbc 37da af3c edcd 0cbd fc92 bbbc
00000230: 1f23 443d 9b74 353d c5d6 8b3d 396e c1bc
00000240: 058c a63c 12bb 343d 56db de3c 6827 90bb
00000250: a3f4 d5bd 894b ab3d 2fcb dbbc 879b 49bd
00000260: 1a96 66bd 9100 97bc 674a 09bd f5d5 8dbc
00000270: 5490 ce3d 22df 38bc 6799 9d3c 92f0 80bd
00000280: f548 633d 77ac da3b 87a1 923d afb6 6e3d
00000290: e76b a83d fcac 853d 76c1 57bb a999 193d
000002a0: 2b97 e8bc c6e0 f9bc 8ade 20bd 5861 a93c
000002b0: 36f1 003c 6758 783c 8100 85bd 115e 1abb
000002c0: 31dc 533d 73c1 8dbd 203b b63d 2cea 413d
000002d0: 73af 8cbd 8221 98bd 439d 1d3d 6257 7ebd
000002e0: e383 c73d f0a2 82bd 92d9 953c 1d5d bf3d
000002f0: 157a 5f3d ec13 89bd b66a ea3c 3b41 ae3d
00000300: 74c1 23bd c319 88bd d928 fabc bcaa 4d3d
00000310: c351 9fbd f6f9 a9bc 1344 a4bd 959d 863d
00000320: f607 b03c 95f3 0cbd fcad a33b af8f df3d
00000330: 8b34 ac3d 0b30 93bd b3b5 d0bd 237d 5abc
00000340: 4e83 103d ce8e 0abd c36f da3b 426a 663c
00000350: 6506 4dbc 2e10 ae3d ef3a 093b ccb9 7bbd
00000360: 758d b53d 12a5 4abd 04a1 52bc 4af9 b83d
00000370: 4e9e 77bd f03f c73c 2f2d 9f3d 963f 20bd
00000380: c23e 133d 1246 2a3d fb8a 383d b541 b13d
00000390: 2a90 58bd 144e aa3d 7858 b53d 547f 203c
000003a0: 7d48 52bb 97a2 be3d e93c a83d 5d2b 813d
000003b0: b543 723d 31de 0d3c cb28 df3b 9d0e eabd
000003c0: 0d2a 34bd 17ea e4bc 93d0 773c 4547 22bd
000003d0: a8a8 85bd 52f9 c2bc 33f5 9fbd 618e 6cbd
000003e0: f02e a23b e7b8 11bd 394d e03c f918 2a3b
000003f0: cf19 43bd 82d5 953d 04c7 a2bb 3c3e c13c
-0.036277812 -0.0122640105 0.005551963 0.05680691 0.051901396 0.00825326 -0.02184057 0.060140226
-0.06587686 -0.0621975 0.060076527 -0.030334394 0.07989485 -0.023102788 -0.078857645 -0.015526367
0.005614333 -0.055891953 -0.04812049 -0.07366658 -0.033178754 0.072473034 -0.06962567 -0.019818544
-0.018655146 0.0103402855 -0.020913104 -0.0694934 -0.026331866 0.06668753 -0.018793209 -0.025511492
-0.008579563 -0.03032591 0.07829896 -0.026504274 0.024191804 -0.07892384 0.007575283 0.044142496
0.08478085 -0.05704784 0.07394481 -0.007448912 -0.026701566 0.014329813 -0.042909853 0.013113452
0.015926665 -0.0549664 -0.047067184 0.039759725 -0.01845277 0.017957963 -0.005472562 0.025621226
0.05095408 -0.08040753 0.055263955 -0.04594893 -0.035721507 0.09584943 0.02658523 -0.021516284
-0.13459724 0.055459034 0.045731023 -0.032327518 0.028924966 0.075404964 -0.052985113 0.010967677
-0.015494902 -0.05178568 0.068333566 0.0771549 0.057395633 0.042650282 -0.022900587 0.032893293
0.0012480533 -0.044279553 -0.03235185 -0.008415875 -0.02960803 -0.0070185214 0.029133799 0.07503288
0.0492185 0.0022361698 0.037271272 -0.055641524 0.06763875 0.08834799 0.008969395 -0.058053695
-0.06324031 0.07863456 -0.014430751 0.02822396 -0.08127451 0.0036106447 -0.011939514 -0.007946225
-0.012855902 0.03271943 0.097272575 0.02246857 -0.057182476 -0.006677784 0.033490833 0.015003913
-0.046818025 -0.009661002 -0.08327884 0.035972305 0.050137132 0.026717441 0.02285311 -0.046979398
-0.018068122 -0.09611087 0.0087481905 0.007120407 0.0125372335 0.0024293924 0.062230617 -0.03470054
-0.11016833 0.07737998 0.02563418 -0.06258026 0.0641322 0.043891948 0.039310295 -0.047226906
-0.027327407 0.021466358 -0.034376074 -0.022897236 0.047885057 0.044300657 0.068280734 -0.023612129
0.020330438 0.044123717 0.027204197 -0.004399229 -0.104470514 0.083640166 -0.026830284 -0.049220588
-0.05629549 -0.018432887 -0.03351822 -0.017313937 0.10086122 -0.011283668 0.019238187 -0.06295885
0.0554895 0.0066733914 0.07159715 0.05827969 0.08223706 0.06527135 -0.0032921708 0.037500057
-0.028392395 -0.030502688 -0.03927473 0.0206763 0.007870009 0.0151577955 -0.06494237 -0.0023554603
0.051723663 -0.06921663 0.08897996 0.047342464 -0.06869402 -0.07428266 0.038480055 -0.062095053
0.09741952 -0.06378734 0.018292222 0.09343932 0.054559786 -0.06693253 0.028615337 0.085085355
-0.039979413 -0.06645539 -0.030537056 0.050211653 -0.07779267 -0.020749073 -0.080207966 0.06573025
0.021488171 -0.034411985 0.004995106 0.10916077 0.08408459 -0.07186898 -0.101909064 -0.013335499
0.035281472 -0.033827595 0.006666155 0.01406342 -0.012513732 0.0849918 0.0020939668 -0.061456487
0.088648714 -0.04947383 -0.012855772 0.09031923 -0.060453705 0.02432248 0.0777229 -0.03912314
0.035948522 0.04157073 0.045054417 0.08655111 -0.05287186 0.083156735 0.08854765 0.009795982
-0.0032086663 0.09308355 0.08214743 0.06307099 0.0591466 0.008658932 0.006810283 -0.114285685
-0.043985415 -0.027943654 0.015125412 -0.03961875 -0.06526309 -0.023800526 -0.0781044 -0.05775297
0.004949443 -0.035576727 0.027380573 0.0025954826 -0.047632035 0.07316114 -0.004967572 0.023589246

actor.4.bias f4 [128]
00000000: 98ef cabb 130d a5bc bab1 9abc fd84 5c3d
00000010: 4162 64bd c353 333d f49e 27bd 0bed 0abd
00000020: fa17 e8bc 6e8a 45be 6b85 e9bd 8fb4 843c
00000030: cf38 eebd 30c1 81bd 41cb af3d b2a6 a5bd
00000040: 1ddb b13c 1e85 393d e052 06be cd78 82bc
00000050: f5ea 6abd c139 c33d ab75 36bd ce42 263d
00000060: 7d14 b53c 3557 123a 2c27 90bb d489 0abd
00000070: 8944 d0bd 8db2 1a3d 808f 7bbd c0bb 733d
00000080: f7a7 89bc 10d6 003e 1458 553d ea0f 833c
00000090: 6618 373d 139b 643d b8dd 4dbd fca0 853c
000000a0: 9e3f 5cbd 3392 35bd 95d6 f3bd 0c03 76bd
000000b0: 8607 b4bd 576d 01be af43 2b3b 5512 09be
000000c0: 260d 2f3c ca26 913d 9e32 8cbd 608a 9c3d
000000d0: 2cd7 473c 6a90 8ebd 0ace 343c bc18 ae3b
000000e0: 0817 cdbc 03aa 12be 2d49 08bd 9639 03bd
000000f0: 192a 213d 6ff2 17bd dc42 2bbc 3111 52bd
00000100: c4bf 79bd 51a4 573b 09e2 0dbb 158d 933d
00000110: 8d82 af3c ae6d 9e3d 31b5 8bbc 7103 e7bd
00000120: b6ad e43c 6080 5a3d 72bf 08bd 6f80 b4bd
00000130: c841 afbc c784 04bc 35d3 6f3d 1d1a f9bc
00000140: bffb a3bd deea 52bd 53fa bf3d e44d febc
00000150: 7b9f 34bc e936 4abd 4de7 553d 0b1e aa3d
00000160: f76a 653d 5313 6ebd e003 4d3d 73ce 573c
00000170: db18 27be c740 81bd d0ec ebbd 9bd7 6c3b
00000180: c792 9cbd 9cb6 a0bd fc63 d0bc 586e c73c
00000190: c31d a1bc fd53 7cbd cb26 dfbd 4ba0 8b3c
000001a0: 547e b8bd 1209 1c3d 60f8 ddbd f34d 853d
000001b0: 34c2 cc3c abe2 0dbd 9a9c 5fbd 702f 75bd
000001c0: 0904 e3bc 6e58 aebd b7d0 c13d 73d5 b13d
000001d0: 9d0a 84bd 63d9 bebd 03c1 dabd e313 623d
000001e0: 0682 36bc 7155 063d a9cc 943d 1c60 a13d
000001f0: 956f 963d 1770 3fbc 54fc 91bd 75b4 d63c
-0.0061931126 -0.020147836 -0.018883575 0.053837765 -0.055757765 0.043781053 -0.040923074 -0.033917468
-0.028331745 -0.19291088 -0.114024006 0.016199378 -0.11631929 -0.06335676 0.085836895 -0.08088435
0.021710927 0.045292966 -0.13117552 -0.015926743 -0.05735298 0.095325 -0.04454581 0.040591054
0.022104496 0.0005582453 -0.004399201 -0.03382285 -0.10169322 0.037767936 -0.06141615 0.059505224
-0.016803725 0.12581658 0.05208595 0.0159988 0.044701003 0.055811953 -0.050260276 0.016312115
-0.053771608 -0.04432888 -0.11906163 -0.0600615 -0.087904975 -0.12639366 0.0026132872 -0.133859
0.010684287 0.070874766 -0.06845592 0.076435804 0.012197297 -0.069611385 0.011035452 0.005313007
-0.025035396 -0.14322667 -0.03327291 -0.03203734 0.039346788 -0.037096437 -0.010452952 -0.051285926
-0.060973898 0.0032904337 -0.002164962 0.07204644 0.021424556 0.077357635 -0.017054172 -0.11279953
0.027914863 0.053345084 -0.0333857 -0.08813559 -0.021393672 -0.008088297 0.058551032 -0.03040796
-0.08007001 -0.051493518 0.093739174 -0.031043 -0.011024351 -0.049368773 0.05222254 0.083065115
0.056010213 -0.058123898 0.050052524 0.01317178 -0.16318075 -0.063111834 -0.11519778 0.0036139253
-0.07645183 -0.0784733 -0.025438301 0.024344608 -0.019667512 -0.061603535 -0.10896071 0.017044207
-0.0900847 0.038094588 -0.108383894 0.06509008 0.024994947 -0.034639996 -0.054592706 -0.059859693
-0.027711885 -0.085129604 0.09463637 0.0868329 -0.06447337 -0.09318807 -0.10681345 0.055194747
-0.011139398 0.032796327 0.07265598 0.078796595 0.07345501 -0.011684439 -0.07128206 0.026209095

actor.6.weight f4 [8, 128]
00000000: 37e2 cd3c 8d96 803c 6a26 05bc b31c ca3c
00000010: 54ac a6bc 4c31 f1bc 8564 133d a5aa 2ebc
00000020: e3cd 58bd 6c1a abbd a40b 9dbc 6373 ae3c
00000030: c1ae d5bc 2038 3bbd fc49 45bc 82df 37bd
00000040: 6598 42bc fc54 1dbd 30a8 c3bc 6c3b 11bd
00000050: 7703 073c b310 0e3d dec2 91bc 2c21 a63c
00000060: b516 0c3c dfde 4cbd 9be1 a5bc 9947 85bc
00000070: df7c 9cbd af66 1fb9 9ed4 3cbd 6a4b 903c
00000080: 8647 143b 06c5 323d 5594 2b3d e357 c9bc
00000090: 6bb1 22bd bd6e 003d c762 09bd 2f02 44ba
000000a0: 4ddb 543c aad2 b3bb 486d 86bd c3b7 4ebc
000000b0: add5 40bd 4f2d 04bd 0d3f 643c 7a40 a2bd
000000c0: 5960 043b ce46 39ba 8723 95bc 7fa0 0a3d
000000d0: da51 41bc f53b a5bc fee3 db3c 963a 20bd
000000e0: db67 a9bc 08bc 7ebd 440c 303c 292d 913c
000000f0: 983a e6ba db0f 6abc 1ebb 933d 01f8 2a3c
00000100: f539 05bd f5e1 f83c 20aa 4a3c e55f 8ebc
00000110: a37c 37bd d8f3 a7bc b42c 553d d4b0 89bd
00000120: 636c 59bb 36ad ab3c e94f 56bc 3ab6 2fbd
00000130: 8ce8 d5ba 111a 09bb 4a7f 75bc c3aa 1fbc
00000140: 7a46 d33a 1869 203c 4804 a63c e29d 233a
00000150: 8527 49bd ba6a 33bd 4539 d03c ceec 113b
00000160: 11f9 30bd 0e33 013d 14f1 f23c 2b0c 3fbb
00000170: 96e9 a8bd 43a9 ebbb 4c74 523b b5ad cb3b
00000180: 2bcf 003a dd2d 9e3b e674 34bd 9478 a7ba
00000190: f6ff 453c 4b04 6ebc 0573 a83a 35c3 4bbd
000001a0: 5d48 e03c a192 28bc 72a5 443b a184 07bd
000001b0: 84c3 5039 cf5c fb3b c77a 89bd fdae c33c
000001c0: df5e b33c cf02 5d3d fdb2 803c d3a1 043d
000001d0: dbab 073d 5d95 c33b 027b 6bbc 23ac 1f3d
000001e0: 365a 29bd ee90 633c ee58 8cbb 53bf 55bc
000001f0: 0afc ad3c a3d4 04bd d051 2b3d 53f2 2e3b
00000200: 1439 b9bc 50f4 4cbd d21f 2a3d 3c1b 203d
00000210: 1b52 c3bc c89a 0bbd 05bb 183d 2f95 38bc
00000220: 0a14 213d 31ec e03b 3539 63bc 91ef 5cbc
00000230: becf 0cbd d6a6 353d ac10 013c 6e93 843c
00000240: 9b9c 3a3c 7495 b4bc a8a9 f5bc c898 fbbc
00000250: 941e 92bb 7222 73bd ef59 1abd 641a 2b3c
00000260: d47b a7bc 91f8 ecbc 27f9 59bd 4a51 4dbc
00000270: 00fc 87bc f1c3 23bd 8764 1e3d c7af 263d
00000280: 14f4 00bd e58a 5dbc de44 a4bc 5be6 803d
00000290: 64ac d2ba 9400 0dbd c34a 06bd 49cd 81bc
000002a0: 0460 26bc a751 20bd 88bd 7e3d 39d1 353c
000002b0: ea69 87bc d382 6bbd ef51 e13c c852 0cbd
000002c0: 9ce1 f83c e9c7 01bc 1e00 f2bc 1468 f03c
000002d0: 7e20 863c 4d2c 92bc 9775 913d 800d 1fbd
000002e0: 2a7e 103c 3092 87bd 7868 1f3c ec57 9cbc
000002f0: 6b95 313d 9f20 1b3d 9f29 3d3d 1cb1 52bd
00000300: 6c22 173d 1f89 0f3d 4eee 44bb 7808 d13c
00000310: d49a f83c 606f 2e3b eb44 033d 88c6 2cbd
00000320: a7e1 343c 27d6 1f3d bef1 4e3a 5c38 b5bc
00000330: 0092 c73c eba6 fd3c 2613 32bd e9cc c93a
00000340: e4c6 153d ef55 bc3c 0e7d 2eb9 3628 c93c
00000350: c606 f2bc 3e4a db3c 8a38 0fbd 5972 a0bc
00000360: ca42 e6bc 2232 8f3c 6e25 343b 3836 aa3c
00000370: 5cff 913d 0ba2 d73c 8279 08bd 5766 383d
00000380: 73bd 08bc d828 923c 699c 493d 23e1 383d
00000390: 94ad 2d3c bc0c b4bc d6c8 dabb c9ca 8a3c
000003a0: bf4c a5bc e764 0abd f5ee 33bc f486 d23c
000003b0: 1ab3 813c c34b 96bc 1e4b 9e3a f5b3 2dbd
000003c0: a57d 303d 9b2c f3bc 7a36 13bb a0b4 133d
000003d0: ea01 aebc 72f0 a0bc c1ee 603d 679d 3bbc
000003e0: 4eb6 a13c f3cf 0a3d ee7e 293d 6a06 89ba
000003f0: 370e d8bc 6ecc 433d 6f41 703d 553f f6bc
0.025132282 0.015696788 -0.008126834 0.024671888 -0.020345844 -0.029442452 0.035984535 -0.010660802
-0.052930724 -0.08354649 -0.01917059 0.021295255 -0.026084306 -0.04570782 -0.012041565 -0.044890888
-0.011877154 -0.038411126 -0.023883909 -0.03545706 0.008240572 0.034683894 -0.017793115 0.02027949
0.008550336 -0.050017234 -0.020249179 -0.016269492 -0.07641005 -0.00015201674 -0.046101205 0.017614085
0.002262564 0.043644927 0.041889507 -0.02457804 -0.03971998 0.03135561 -0.033541467 -0.0007477132
0.0129917385 -0.0054877596 -0.065638125 -0.012617054 -0.047078777 -0.032269772 0.013931048 -0.07922454
0.002019903 -0.00070677407 -0.018205417 0.033844467 -0.0117993 -0.020170191 0.026842114 -0.039118372
-0.020679405 -0.06219104 0.010745112 0.01772173 -0.001756507 -0.014286007 0.07213424 0.010435105
-0.032525975 0.030381182 0.0123696625 -0.01737971 -0.044796597 -0.020502016 0.052044585 -0.067231804
-0.0033176176 0.020956617 -0.0130805755 -0.042898394 -0.0016319915 -0.0020920078 -0.014983961 -0.009745303
0.0016119026 0.009790681 0.020265713 0.0006241483 -0.049109954 -0.043802954 0.025417933 0.002226639
-0.04320628 0.03154283 0.02965597 -0.002915154 -0.08247678 -0.0071918084 0.0032112775 0.006215776
0.0004913683 0.0048272447 -0.044056796 -0.0012777024 0.012084952 -0.014527391 0.0012851661 -0.04974671
0.027378256 -0.010288865 0.003000584 -0.03308547 0.00019909261 0.0076709758 -0.06712871 0.023887152
0.021895824 0.053957757 0.015710348 0.03238089 0.03312288 0.005968733 -0.014372589 0.03898252
-0.041345797 0.013889534 -0.004283062 -0.0130461035 0.021238346 -0.03242935 0.04182607 0.002669473
-0.022610225 -0.050037682 0.041534252 0.039088473 -0.023842862 -0.034083158 0.03728773 -0.011266037
0.03932575 0.0068640937 -0.01386862 -0.013484851 -0.034377806 0.04434856 0.00787751 0.016183581
0.011389877 -0.022043921 -0.029988125 -0.0307125 -0.0044592116 -0.05935902 -0.037683424 0.010443304
-0.020444788 -0.02892712 -0.053216126 -0.012531588 -0.016599655 -0.039981786 0.03867009 0.040694978
-0.03148277 -0.013521885 -0.02005237 0.06293937 -0.0016073105 -0.03442438 -0.032786142 -0.015844958
-0.010154728 -0.03914037 0.06219247 0.011097246 -0.016529996 -0.05749781 0.02750489 -0.034258634
0.030381016 -0.007921197 -0.029541072 0.029346503 0.016372915 -0.01784339 0.071025066 -0.038831234
0.008819142 -0.0661968 0.009729497 -0.019084893 0.043355387 0.037872907 0.04618227 -0.051438436
0.03689806 0.03504288 -0.0030049267 0.025516734 0.030347265 0.0026616678 0.032048147 -0.04218152
0.011040128 0.03902259 0.0007894299 -0.0221216 0.02436161 0.030963382 -0.043475293 0.0015396151
0.03656663 0.022990195 -0.0001664052 0.024555307 -0.029544245 0.0267688 -0.03496603 -0.019585775
-0.02810802 0.01747996 0.002748813 0.020777807 0.07128784 0.026322385 -0.033319004 0.045019474
-0.008345949 0.017841741 0.04922143 0.045136582 0.010600466 -0.021978728 -0.0066767735 0.016942399
-0.020178197 -0.033787634 -0.010982265 0.025699116 0.015832473 -0.018346673 0.001207683 -0.04240795
0.043088574 -0.029684355 -0.002246289 0.03606093 -0.021241147 -0.019645903 0.054915193 -0.011451102
0.01974025 0.033889722 0.041380815 -0.0010454182 -0.026373966 0.04780238 0.058656152 -0.030059496

actor.6.bias f4 [8]
00000000: 510a 0c3e 2bdc 66bd baaa 483c 5543 bd3d
00000010: 935f 6d3d 2102 583c 92a7 42bd 4361 92ba
0.1367581 -0.056362312 0.012247736 0.09241358 0.057952475 0.013184101 -0.04752309 -0.0011167902

critic.0.weight f4 [128, 31]
00000000: 7155 183e 8082 b53d 0d1f 3b3e 7d3a af3d
00000010: 1761 13bc 5225 023e d6c2 9f3d 71ba a33d
00000020: ba95 013b 08b0 a63f add5 a13e 8a6c 863e
00000030: cf40 6fbe 606d 333a 4e68 513e a80f 88bd
00000040: 5e11 a43d 84fe 1a3c 4192 2bbd 93c3 eebd
00000050: 7ee1 ba3d 1f75 9d3d 69ee 8f3d 66f3 e23d
00000060: 9a27 ca3d 8c9e 7f3d 4af0 1d3d ff94 f83d
00000070: b6af 68bd 9a34 03be 74ad 2cbe de92 8f3b
00000080: 3893 c23c af82 d33d a666 823d f710 653d
00000090: 761c 793e 0f6c 723e d52b 47bd 22fa 113e
000000a0: 9a16 b93f 552e b3be 1507 f23d 5dcd 533e
000000b0: b205 e7bc c9e4 60be c944 97be 28f4 433d
000000c0: ea98 a2bd 8058 67be 7a01 56bd 3038 5fbd
000000d0: 0468 923d b554 7c3c 7a48 063e e65f 8dbd
000000e0: 76e2 9a3d 3272 523e 414f aabd 0b2f f43d
000000f0: ea69 f1bd 7f4c e43c 0450 5b3e 1ebc 3a3d
00000100: 11dd 273e fe9c cfbc 0dc9 373c 9f07 983e
00000110: ad65 1e3e e0e4 45be f58c 543d 8182 e1bf
00000120: 078c ca3c b66a 0abe 3dc4 503d b451 2f3e
00000130: 93a9 8a3e 0281 d8bc fb56 023e 11a3 62bd
00000140: b3f5 afbc c41a 4a3d c14b 56bd a9b0 5a3d
00000150: feef d33d 215d 9a3d 5b7b 263e 9085 bbbc
00000160: a969 5ebc 9a1f 6a3d 7dbe d83d 74b7 86be
00000170: b80e abbd 5055 873d 5bca a93b b86e 61be
00000180: c4da a73d 2329 83bd 641a 34be ddb7 f83d
00000190: 842f 6dbc 5b7f 273e 7d62 88bf a4ab 893e
000001a0: fa21 efbd 1b22 e3bd 3b12 7c3d 68e9 483d
000001b0: 63c7 dd3c 3a29 813c 5943 4c3e 7051 c5bd
000001c0: ff1e ec3d 8008 bf3d d6a9 07bd a46c e63d
000001d0: 1d70 d73d a07b 423c e8bf d0bd afb0 1cbe
000001e0: 9bcc 84bc fa57 2e3d 7144 343c 70a0 bbbd
000001f0: e0ed 82bb bfaa 46bd 332c ee3e 795d 0e3e
00000200: c243 0e3e 69b2 c43d c6c8 e23d 1e48 43bc
00000210: 50cf e93d 520e a5bf 796b 1e3f 49d4 ab3d
00000220: 1abb bbbd fe8d c4bd 0c83 843e 3676 983d
00000230: 6d36 69bd b9ba 873a 3e8a 8cbd 6e6a 753d
00000240: 6d92 b63d 3f83 c3bd aa5d 9dbd 8481 dc3d
00000250: e7ed f4bd 9df1 a3bc 5ede 623e a82f 693d
00000260: 1285 00be f7a9 533c 35ef 903d c70e efbd
00000270: 99cb 833a 6882 6c3b a047 eabd 396f 26be
00000280: f775 aabd 6ebd c53d cb43 19bd d668 c63d
00000290: 7d80 033f b3cb 763f e13e 93bc 33c9 c83d
000002a0: dfc9 4f3d 6fe3 25be ce7b ec3d c5eb 99bc
000002b0: 70e5 363c 7cd2 a43d fba1 2c3d 6ef0 033d
000002c0: ba58 38bd 4a12 9dbc 2f9d e6bd e2f9 75bd
000002d0: cc69 a1bd e43c 25be b045 283e a718 98bd
000002e0: 591b c0bd e98c a93c 0bd8 6bbc 4cbf 353c
000002f0: ff19 b0bd 3e69 8cbd ad32 08be ee52 ec3b
00000300: 03c6 473c 63d0 fa3d 2d97 123e 31fc ac3f
00000310: d279 4cbe d72f e43d b04d debd 518e 17be
00000320: acbb c13d f30c d63c 3eee fe3a 9090 41bd
00000330: 884a f33d 4eb3 afbd ee02 85bd 42b6 063d
00000340: 9e81 c8bd d27e f53c 5ef9 cdbd 4edb dfbd
00000350: 54ba f9bd f8cd e33b 3ee5 a3bd af25 e7bd
00000360: e527 053e 2ee4 4cbe c876 13be de60 debc
00000370: 31ff e83d 9801 e2bd 5ccc 983d 297d aa3d
00000380: d3c4 413e 4d45 a8bd 7117 8c3f 8f36 233f
00000390: bfa3 f03d 1a4c 0c3d 0677 1bbe 1e36 01bd
000003a0: 76cb 083b c491 a83c 71f8 bb3d 7adc 85bd
000003b0: e4a8 953c 0770 dcbd 37e1 a73b 624e e0bc
000003c0: 0991 7fbd 84a6 a43d da56 a03c 069e 1bbe
000003d0: a92d 8f3d 3bdf 713e 4916 203e dc5d 83bd
000003e0: a7ac 07be f169 ecbc 4b9a dabb 7d19 c0bc
000003f0: 39db 26bb cb83 103e 3477 063e 03e2 273e
0.14876343 0.088627815 0.18273564 0.08556078 -0.008995316 0.12709549 0.07800834 0.07994545
0.0019773082 1.302247 0.31608334 0.26254684 -0.23364566 0.0006844606 0.20449945 -0.06643611
0.08011125 0.009460095 -0.041887525 -0.116583966 0.091250405 0.07688355 0.07027895 0.11081581
0.09870835 0.06240706 0.038559236 0.12137794 -0.056808196 -0.12813035 -0.16863042 0.0043815216
0.02375184 0.1032766 0.06367235 0.055924382 0.24327263 0.23674034 -0.048625786 0.14255574
1.4460022 -0.34996286 0.11817757 0.20683809 -0.028200958 -0.21962275 -0.29544666 0.047840267
-0.07939322 -0.22592354 -0.052247502 -0.054496944 0.07148746 0.015401055 0.13113585 -0.06903057
0.07562725 0.20551375 -0.08315898 0.11923035 -0.1178778 0.027868507 0.21417242 0.04558956
0.16392924 -0.025343414 0.011217368 0.29693314 0.15468474 -0.1932559 0.05189224 -1.7617952
0.024724973 -0.1351727 0.050968397 0.17121011 0.270825 -0.026428703 0.12728493 -0.055331293
-0.021479463 0.049341932 -0.05231834 0.053391133 0.10348509 0.07537294 0.16257994 -0.022890836
-0.013574996 0.057159044 0.10583208 -0.2631184 -0.08352417 0.06608069 0.0051815934 -0.22014892
0.08196023 -0.064043306 -0.17588192 0.12144444 -0.014476661 0.16357176 -1.0655056 0.26888764
-0.116764024 -0.110904895 0.061540823 0.04905072 0.027072614 0.015766729 0.19947566 -0.096346736
0.115293495 0.09327793 -0.033120953 0.1125119 0.10519431 0.011870295 -0.10192853 -0.15301774
-0.016210845 0.04256437 0.011002646 -0.091614604 -0.003995642 -0.04850268 0.46518096 0.13902844
0.13893035 0.096043415 0.11073451 -0.01191905 0.11416495 -1.2894995 0.6188274 0.083900996
-0.09166546 -0.09597395 0.2588123 0.07444422 -0.05693667 0.001035533 -0.06862305 0.059915952
0.08914647 -0.095465176 -0.076838806 0.10766891 -0.11959439 -0.020012671 0.22155139 0.056930214
-0.12550762 0.012918941 0.07076875 -0.116727404 0.0010055184 0.003608847 -0.11439443 -0.16253366
-0.08323281 0.096552715 -0.037418168 0.096879646 0.5136793 0.9640457 -0.017974319 0.09804001
0.05072963 -0.1620004 0.11547051 -0.018789181 0.011163101 0.08047959 0.042146664 0.032211713
-0.04500649 -0.01917376 -0.11260449 -0.06005276 -0.07881507 -0.16136509 0.16432834 -0.07426577
-0.09380216 0.020697074 -0.01439477 0.011092972 -0.08598708 -0.06856011 -0.13300581 0.0072120344
0.012193206 0.12246778 0.14315481 1.3514463 -0.19968346 0.11141937 -0.108546615 -0.14800383
0.09459624 0.026129222 0.0019449664 -0.047257006 0.1187945 -0.085791215 -0.064946994 0.03288866
-0.097903475 0.0299677 -0.10057329 -0.10930501 -0.121937424 0.0069520436 -0.08002709 -0.112864845
0.130035 -0.20008919 -0.1440078 -0.0271458 0.11376799 -0.1103546 0.074608535 0.08324654
0.18922739 -0.08216343 1.0944654 0.63755125 0.11749982 0.034252264 -0.15182123 -0.03154575
0.0020873225 0.020577319 0.09178246 -0.06536193 0.01826901 -0.10763555 0.0051232832 -0.027381126
-0.062394176 0.08039573 0.019572664 -0.15197 0.06991131 0.23620312 0.15633501 -0.06414387
-0.13249455 -0.02885911 -0.006671225 -0.023449654 -0.0025460257 0.14112775 0.1313141 0.1639481

critic.0.bias f4 [128]
00000000: 1fcd acbd bbe3 f7bd 2dc2 383e 341e 693d
00000010: dea7 72bc ba26 4fbe 1676 8e3d dd55 8cbb
00000020: 3dfa d03b 47c1 b8bd d8cb a8bc 364b 53be
00000030: 7446 16be 19f0 edbd 23e6 0a3e c6d5 c7bd
00000040: 769e 31be 4cbd b7bc 2e9e b73d ef75 3c3d
00000050: 9d9e 213e a1b7 183d 971a 60bd 80ac 31be
00000060: e213 65bc 732c 18be 9f73 e03c 2365 43be
00000070: 0d35 4dbe efeb ccbc 3c46 973d 2397 a23d
00000080: 5c50 973c 3fdf 823c 48c7 953e 0532 51be
00000090: 0591 81be adf6 313e fb54 8abe 62a2 e2bd
000000a0: 23da f9bc 7a09 223e 074b 00be ab53 37be
000000b0: bd62 d73d 44e3 a53d aaed 3a3e 1002 06be
000000c0: 37b8 66be 5376 873d 7661 1bbe afa7 f4bd
000000d0: 7b5d f5bd 19e9 3b3d 11b5 dfbd bb43 1abe
000000e0: ebce 5eba 423f 37be adcc e53d b4a9 f0bd
000000f0: 1916 d63c a872 73bc c4ca 39bd 6305 79bd
00000100: 9ef5 f0bc 7171 babd 7b6e 0a3c c948 25bd
00000110: 359b 3cbe bf3b ee3d 38e4 5cbe ca6a 213e
00000120: b5c1 53bd c10c 5e3e 0914 2c3d db30 8b3d
00000130: 4e9d 8a3e 88fe 2d3d f4ec 5e3d 2a28 e7bc
00000140: 1612 aa3d 497c 04be a5b9 213d ec26 533e
00000150: 4b42 a4be 2061 843e bd62 143e 6e61 32bc
00000160: cc37 343e 409d 303e 3eee 3abe b56c 40bb
00000170: 523f 04be e82a bbbd a2ac 2cbe c852 333e
00000180: 7d8a 22bd a0bb 00be 214a bb3d 2b15 fd3d
00000190: b0bf 383d 51d5 c1bd 5ca1 27bc 3e07 62bd
000001a0: 9805 4b3e b6a4 36be 7e54 873e 3117 fabd
000001b0: 0ac1 ac3d 5287 323b 68db 4bbe 6142 a13d
000001c0: c1c9 e2bb 3af5 a33d 002c debc b7fb 703c
000001d0: e172 5a3d a872 cd3d 3dc4 4abe 101a 8a3d
000001e0: a777 c33c 54cf d93c af99 fc3d c621 3ebd
000001f0: 4540 c13d 78a0 30be 25de a13d fad5 62bb
-0.08437561 -0.12103983 0.18042822 0.05691357 -0.0148105305 -0.20229617 0.06956117 -0.0042826966
0.006377487 -0.0902124 -0.020605013 -0.2063416 -0.14675313 -0.116180606 0.13564353 -0.09757571
-0.17345604 -0.022429131 0.08965717 0.046010908 0.15783162 0.037284497 -0.054712858 -0.1735096
-0.013981791 -0.14860706 0.027398882 -0.1908155 -0.20039769 -0.025014846 0.07386443 0.07938983
0.018470936 0.015975593 0.29253602 -0.20429237 -0.25305954 0.17379256 -0.2701796 -0.11066128
-0.030499524 0.15823928 -0.1252862 -0.1790301 0.1051688 0.08099988 0.18254724 -0.13086724
-0.2253121 0.066143654 -0.15173897 -0.119460456 -0.119807206 0.045876596 -0.109232076 -0.150649
-0.0008499461 -0.17895225 0.112206794 -0.11751118 0.026133584 -0.014858879 -0.045359388 -0.060796153
-0.029413994 -0.091036685 0.008449192 -0.040352616 -0.18418582 0.116324894 -0.21571434 0.15763393
-0.051698405 0.21684553 0.042011295 0.06796428 0.2707314 0.042479068 0.054425195 -0.028217394
0.08304231 -0.12938036 0.039483685 0.20620316 -0.32081828 0.2585535 0.1449079 -0.010887487
0.1759941 0.17247486 -0.18254945 -0.002936167 -0.1291478 -0.09139043 -0.16862729 0.17512047
-0.039682854 -0.12571573 0.09144998 0.12357553 0.045104682 -0.09464515 -0.010231342 -0.055182688
0.19826353 -0.1783627 0.2643165 -0.12211455 0.08435257 0.0027241302 -0.19907916 0.07873989
-0.0069210236 0.08005758 -0.02712059 0.014708451 0.053332213 0.100316346 -0.19801421 0.06743252
0.023860766 0.02658812 0.12334 -0.046418928 0.094360866 -0.17248714 0.07903699 -0.0034612403
