ISAAC_NOGIT/logs/rsl_rl/traquad_flat/2025-09-16_11-57-54/model_299.pt (torch, 925483 bytes, 48 tensors)

std f4 [8]
0.1864674 0.18810542 0.22993912 0.17025658 0.4327331 0.5877393 0.55989546 0.4356789
00000000: 4ff1 3e3e b59e 403e 2975 6b3e be57 2e3e
00000010: 318f dd3e 1576 163f 4f55 0f3f 4e11 df3e

actor.0.weight f4 [128, 31]
-0.14874671 -0.32306683 0.26780564 0.6066335 0.18504839 -0.23634039 0.13799576 -0.29053366
-0.13711882 1.4211985 -0.07359219 0.052290235 0.4439787 -0.2840377 -0.058978252 0.2550075
0.01815911 0.15690416 0.27448493 0.059902057 0.0001601173 -0.034872506 -0.10296908 0.085620165
0.20965603 -0.041473746 0.09715327 -0.040999886 0.09439876 0.029039048 -0.3035428 0.30682057
0.5608894 0.25679293 -0.5593733 -0.068317614 -0.10427629 -0.4761564 0.5482582 0.2575754
1.3996114 -0.18057294 -0.029367076 -0.18173721 -0.91919196 -0.30469194 0.18075944 -0.1338876
-0.09812915 -0.090742156 -0.0045460225 0.025047654 -0.008420569 0.035960004 0.16037369 -0.26208794
0.8913791 -0.08607549 -0.22363041 -0.22008595 0.0007082533 -0.07540918 0.37558046 -0.31789175
-0.2370604 0.08063061 0.116125785 -0.07070402 0.6090035 -0.19611533 -0.07081458 0.4257081
0.25349793 -0.42032763 0.036173746 -0.16085891 -0.36162752 -0.033883866 0.031357724 0.13802785
0.09092376 0.024915775 0.049007963 -0.0008004523 -0.065119945 -0.26488733 0.36130252 -0.24914062
-0.32261384 0.015724616 -0.08057862 -0.31488818 0.12506522 0.384437 -0.13608982 0.56988823
-0.033644196 -0.12862928 0.09119343 0.005363355 -0.16214876 0.29585624 -0.9582162 0.7818812
0.16902918 -0.27485478 0.6831707 0.14920144 0.3591929 0.062035207 -0.16178356 0.17276637
0.033603698 0.06747526 -0.002324698 0.07319413 -0.13122514 -0.04947907 -0.052079197 0.11764935
0.10243123 -0.097847626 0.30828497 0.0756179 0.68094677 0.31745833 -0.059757218 -0.6336148
0.1446301 -0.28229186 -0.42415664 0.8462497 -0.016695986 1.7569664 -0.9121572 0.07492806
0.41338837 -0.044979494 -0.441909 0.1266406 0.32024416 -0.2552623 -0.001081775 0.02532672
-0.013147852 -0.0052950354 0.006481498 -0.011888872 -0.3153521 0.19497797 0.013579324 -0.015762007
0.029857175 -0.103112854 0.42268994 -0.25320533 0.37891343 0.06377233 -0.350086 -0.06985781
-0.3910388 -0.49714446 0.11769532 -0.012545983 1.0958711 -0.022302328 -0.13612531 0.7312305
-0.5868981 0.20037282 0.033029616 -0.05466699 0.03170357 0.2956949 0.08974159 0.07865629
-0.048083734 0.031815913 -0.071316645 -0.28150553 0.042825162 -0.1483239 -0.19528022 -0.060088083
0.19665967 0.0021091576 -0.58528286 0.21888289 0.23041968 0.0460327 0.13367161 -0.54927343
0.15283565 0.34518147 0.097461775 1.2608657 0.672467 0.4701496 0.5080435 0.0011683772
0.38275436 0.13588485 0.080014296 -0.18120351 0.523021 0.0059293257 -0.00805675 -0.007979796
-0.002059491 -0.22574694 0.22325872 -0.10009871 -0.012491962 -0.15547219 0.020937895 0.11543543
-0.08568013 0.46051916 0.069434434 0.111140944 -0.28818306 -0.37741736 -0.14791714 0.10528615
0.22670846 -0.10299015 1.71833 0.29939398 0.24804801 0.40651825 -0.38429448 -0.06613862
0.25407165 0.17571573 0.116457246 0.06846765 -0.012895954 -0.0058481093 -0.06273498 -0.045955002
-0.057850745 -0.2948155 0.1988663 0.083166726 0.08589815 0.005291464 -0.08439281 0.4832749
-0.19503927 0.1519475 0.18781014 -0.5556103 -0.12598892 -0.09205464 -0.26661974 -0.06331432
00000000: 0f51 18be 0469 a5be d21d 893e 554c 1b3f
00000010: 537d 3d3e 3703 72be c34e 0d3e d4c0 94be
00000020: e068 0cbe d5e9 b53f 81b7 96bd 492e 563d
00000030: 2d51 e33e 646d 91be 2e93 71bd 5890 823e
00000040: 6ac2 943c 7cab 203e 4a89 8c3e dc5b 753d
00000050: 29e5 2739 79d6 0ebd 74e1 d2bd a059 af3d
00000060: 12b0 563e 60e0 29bd 4bf8 c63d 7fef 27bd
00000070: 2354 c13d 4ce3 ed3c f669 9bbe 9617 9d3e
00000080: 7396 0f3f 5d7a 833e 1733 0fbf 1bea 8bbd
00000090: cf8e d5bd c6ca f3be a65a 0c3f ece0 833e
000000a0: 7726 b33f 1de8 38be 3993 f0bc 5219 3abe
000000b0: 2a50 6bbf 9500 9cbe 0119 393e d519 09be
000000c0: f0f7 c8bd 06d7 b9bd cdf6 94bb bd30 cd3c
000000d0: 6df6 09bc cc4a 133d 0039 243e 6430 86be
000000e0: 6c31 643f 5948 b0bd 5fff 64be 365e 61be
000000f0: 13aa 393a 2170 9abd 154c c03e b5c2 a2be
00000100: f6bf 72be a921 a53d 5bd3 ed3d 45cd 90bd
00000110: a7e7 1b3f 75d2 48be 3c07 91bd 69f6 d93e
00000120: 7bca 813e 2f35 d7be ec2a 143d 33b8 24be
00000130: 3e27 b9be cfc9 0abd f570 003d 2c57 0d3e
00000140: 3c36 ba3d 2b1c cc3c 93bc 483d 72d5 51ba
00000150: 9b5d 85bd 509f 87be a5fc b83e b81e 7fbe
00000160: a42d a5be e9d0 803c 6706 a5bd 0639 a1be
00000170: 1911 003e edd4 c43e 215b 0bbe 32e4 113f
00000180: 7fce 09bd 65b7 03be 9fc3 ba3d 15bf af3b
00000190: 530a 26be 787a 973e a84d 75bf 5e29 483f
000001a0: fc15 2d3e c4b9 8cbe 46e4 2e3f 43c8 183e
000001b0: 22e8 b73e a118 7e3d 97aa 25be abe9 303e
000001c0: 08a4 093d 7830 8a3d f659 18bb cee6 953d
000001d0: e25f 06be 91aa 4abd ff50 55bd 24f2 f03d
000001e0: 77c7 d13d 5664 c8bd 87d7 9d3e 8fdd 9a3d
000001f0: 8752 2e3f e689 a23e fcc3 74bd 9434 22bf
00000200: ea19 143e 8f88 90be 0f2b d9be d2a3 583f
00000210: 05c6 88bc 46e4 e03f 2283 69bf e273 993d
00000220: a4a7 d33e 6b3c 38bd e541 e2be 13ae 013e
00000230: 0bf7 a33e bdb1 82be 58ca 8dba fb79 cf3c
00000240: 176a 57bc fa81 adbb bf62 d43b 8bc9 42bc
00000250: d575 a1be 4ea8 473e d07b 5e3c 531f 81bc
00000260: 0997 f43c d52c d3bd d16a d83e 21a4 81be
00000270: f100 c23e 119b 823d 793e b3be 9d11 8fbd
00000280: 3d36 c8be b889 febe 3e0a f13d ab8d 4dbc
00000290: 8145 8c3f 5fb3 b6bc 6f64 0bbe ec31 3b3f
000002a0: f43e 16bf 882e 4d3e 104a 073d 7eea 5fbd
000002b0: 9adb 013d 5265 973e 70ca b73d 8d16 a13d
000002c0: 73f3 44bd 6751 023d 760e 92bd 7e21 90be
000002d0: 7069 2f3d 38e2 17be 8af7 47be ec1e 76bd
000002e0: 2761 493e cb39 0a3b 19d5 15bf d622 603e
000002f0: 23f3 6b3e c98c 3c3d 36e1 083e 2f9d 0cbf
00000300: f380 1c3e a0bb b03e 0a9a c73d 0c64 a13f
00000310: cc26 2c3f 73b7 f03e 240f 023f 3c24 993a
00000320: 61f8 c33e 6625 0b3e 89de a33d 6a8d 39be
00000330: b4e4 053f ca4a c23b 7500 04bc b1bd 02bc
00000340: 86f8 06bb 352a 67be ef9d 643e 8d00 cdbd
00000350: 16ab 4cbc 1a34 1fbe f385 ab3c 6969 ec3d
00000360: 1079 afbd 2bc9 eb3e a433 8e3d dd9d e33d
00000370: bb8c 93be d93c c1be 9777 17be 44a0 d73d
00000380: 4326 683e 80ec d2bd 3df2 db3f 2b4a 993e
00000390: 4c00 7e3e 2923 d03e 3fc2 c4be af73 87bd
000003a0: ae15 823e d3ee 333e 2381 ee3d c438 8c3d
000003b0: 8d49 53bc 7fa1 bfbb 327b 80bd 503b 3cbd
000003c0: e7f4 6cbd 0ff2 96be 9ba3 4b3e 5153 aa3d
000003d0: 5feb af3d 0464 ad3b 23d6 acbd cf6f f73e
000003e0: 60b8 47be 2098 1b3e 4d51 403e 7a3c 0ebf
000003f0: 3d03 01be 2587 bcbd 6282 88be f0aa 81bd

actor.0.bias f4 [128]
0.14706165 -0.21937741 -0.047422055 -0.27348652 -0.032122634 -0.10365276 -0.020779138 0.0043805856
-0.24270944 0.13015677 -0.23763005 -0.1709145 -0.15684038 0.039745096 -0.109218106 0.0642513
0.13300925 -0.1160586 -0.097428374 0.059305467 0.25131086 -0.0833867 0.19820003 0.050502732
0.006672704 -0.010303552 0.056535605 0.12499497 -0.13034853 -0.124669865 -0.11946691 -0.123042576
-0.3053513 0.050856844 -0.024616038 0.041025985 0.05884235 -0.18464196 0.049507495 0.171179
0.13589151 -0.2580775 -0.19687958 -0.12635301 0.08234008 0.020333676 -0.023931982 -0.076547764
-0.0124022905 -0.021325575 -0.01879732 -0.28130856 -0.026226014 0.059623063 -0.04140771 -0.053525973
0.037825722 0.12788501 -0.11094327 0.10815374 -0.035983875 -0.0041094003 -0.07832642 0.104867205
-0.24017589 -0.26560706 -0.14345556 -0.18148978 0.017730646 0.073419556 -0.31423602 -0.04368066
0.08985484 -0.26198745 -0.27315435 -0.14539613 0.07581575 -0.09621584 -0.18929788 -0.02903241
-0.021950997 -0.343676 -0.31897357 0.21263352 -0.097761735 -0.048232432 -0.10127291 -0.11920699
0.07059135 -0.18222633 0.012101559 -0.091503024 0.06063551 -0.20861875 -0.05469645 0.022357758
-0.10119078 0.1360751 0.18171178 -0.1453423 0.046089184 0.14652908 0.16420747 -0.21733949
-0.0065208455 -0.07745804 -0.02960307 -0.015827954 -0.1403243 0.11593385 -0.22594135 -0.012602036
0.033417005 0.062176947 -0.13385653 0.008385502 -0.080512926 -0.045899536 -0.23679104 -0.10321277
0.24823707 -0.05620153 -0.16432843 -0.0516149 0.17037283 0.026345259 -0.016841516 -0.038476687
00000000: 5497 163e 79a4 60be a13d 42bd 6d06 8cbe
00000010: 0693 03bd e647 d4bd 0339 aabc 048b 8f3b
00000020: d388 78be d147 053e 4b55 73be 3604 2fbe
00000030: c49a 20be c1cb 223d bead dfbd 3096 833d
00000040: 9433 083e 22b0 edbd 8788 c7bd 4aea 723d
00000050: d1ab 803e a5c6 aabd f3f4 4a3e f4db 4e3d
00000060: b3a6 da3b 3bd0 28bc e191 673d 5dfd ff3d
00000070: 167a 05be ea52 ffbd 11ab f4bd bffd fbbd
00000080: 0157 9cbe 444f 503d 93a7 c9bc dd0a 283d
00000090: ad04 713d c812 3dbe 5fc8 4a3d 8c49 2f3e
000000a0: 2527 0b3e bc22 84be cd9a 49be af62 01be
000000b0: eaa1 a83d cf92 a63c 010d c4bc 13c5 9cbd
000000c0: fa32 4bbc f9b2 aebc d6fc 99bc ad07 90be
000000d0: f0d7 d6bc 5037 743d 229b 29bd 0d3e 5bbd
000000e0: 25ef 1a3d 4af4 023e 3a36 e3bd b57f dd3d
000000f0: d463 13bd 26a8 86bb 9a69 a0bd 9ec4 d63d
00000100: abf0 75be a6fd 87be 04e6 12be 75d8 39be
00000110: dc3f 913c fe5c 963d 8be3 a0be 7eea 32bd
00000120: d005 b83d 3823 86be e3da 8bbe b9e2 14be
00000130: 4a45 9b3d cf0c c5bd 4ed7 41be 60d5 edbc
00000140: 94d2 b3bc 4df6 afbe 8150 a3be 9abc 593e
00000150: 4e37 c8bd 5f8f 45bd 2c68 cfbd cb22 f4bd
00000160: 3392 903d 8a99 3abe 9e45 463c f065 bbbd
00000170: f15c 783d 27a0 55be 6209 60bd 9e27 b73c
00000180: 1d3d cfbd 4557 0b3e a712 3a3e 9dd4 14be
00000190: 03c8 3c3d b80b 163e 0126 283e 3e8e 5ebe
000001a0: d1ac d5bb 52a2 9ebd 2382 f2bc a0a9 81bc
000001b0: 2cb1 0fbe ba6e ed3d 2b5d 67be c578 4ebc
000001c0: 45e0 083d 41ad 7e3d b011 09be 5863 093c
000001d0: f6e3 a4bd 2701 3cbd 5a79 72be 3761 d3bd
000001e0: dc31 7e3e 9333 66bd b645 28be 256a 53bd
000001f0: 3776 2e3e 03d2 d73c 38f7 89bc bb99 1dbd

actor.2.weight f4 [128, 128]
-0.08629277 -0.119885996 -0.0055742906 -0.045010738 0.03821805 -0.117798574 -0.19988564 -0.010090667
0.027351199 0.08513359 -0.014116577 0.0017178667 0.017593866 0.02064232 0.11894599 -0.04707289
0.12435813 -0.07995886 0.020466976 0.046290167 0.06848748 -0.019043015 0.08299684 0.027503127
0.020011626 0.060375765 0.032248434 0.0044950503 -0.039205063 0.040190518 0.006414987 0.0052716285
-0.07141862 -0.06752123 0.0784695 -0.09970744 0.016282605 -0.09855775 -0.036306847 -0.085126415
0.06453613 -0.10544598 0.060773704 0.07042264 0.066715494 0.10323559 -0.02384696 0.050491985
0.008692042 0.021531863 -0.09345682 -0.0035827365 0.08119382 -0.031741295 0.022245357 0.0037110783
0.042396344 0.017636161 0.010436403 -0.08083244 -0.0126077 0.08601948 -0.019532869 0.016229823
-0.053780004 0.05249154 -0.009394801 -0.061749518 -0.021902077 -0.06804214 -0.10950119 -0.046126474
-0.027092038 -0.039270096 -0.017794717 -0.026252909 -0.07107278 -0.03444932 -0.111996196 0.040526494
-0.1177761 0.053421423 -0.0008130264 0.08332048 0.075134836 0.05487513 -0.09110169 -0.019143073
0.07284538 -0.08687317 -0.10227996 0.047903527 -0.027552757 0.04224893 -0.007842675 0.029699078
-0.070254594 -0.0038262228 -0.053371295 -0.018777277 -0.0355887 -0.04146797 0.07702624 -0.010308443
-0.12882163 0.054606672 -0.012599507 0.030921327 -0.0028435932 -0.07493555 0.050997417 -0.102783285
0.1195374 0.08033777 -0.046878036 0.015991507 -0.03777664 -0.08565556 -0.041953586 0.05272709
0.07664118 -0.07387679 -0.096003965 0.0790692 -0.053000733 -0.086645596 -0.054831754 -0.10408576
-0.177661 0.030811436 0.07382224 0.033404108 -0.062181015 -0.041546356 0.028575627 0.035014883
0.11385056 -0.002034717 0.06895994 -0.02442745 -0.10611681 0.025064792 -0.042826116 0.10977901
-0.19956237 0.104205534 -0.06436695 0.0040133772 0.13364336 -0.08125588 -0.080058485 0.11699956
0.13424943 -0.24838205 -0.0142978635 -0.011052639 0.0051329057 -0.084406175 -0.09628431 -0.054766364
0.12436018 -0.01648191 0.10787053 0.06610062 0.050707545 -0.02614784 -0.07802086 0.16034618
-0.01657404 -0.0970412 0.0071119345 0.037989173 -0.02587894 -0.08536748 0.078368194 -0.11993686
-0.064983375 -0.026518473 0.011113873 -0.01198075 -0.05503471 -0.13505545 -0.016204493 0.010663387
-0.07404175 -0.04189978 -0.057509776 -0.06760256 0.018399995 -0.0040742164 0.08307105 -0.14474313
-0.029618485 -0.055531714 0.10768477 0.078829154 -0.09986963 0.117928326 -0.08481643 -0.0838933
0.022411847 -0.039658856 -0.17444183 -0.057612706 -0.04432115 -0.06720591 -0.055077493 -0.06704273
-0.046989735 -0.038979404 0.006022338 0.0009177857 0.037354544 -0.11306696 0.04273834 0.003494591
-0.027265519 0.07834436 0.01371595 0.0434941 0.024827529 -0.15426958 0.06523347 -0.018857932
-0.00799761 -0.07073084 0.022948174 -0.0041401144 -0.029939188 -0.05702637 -0.17862931 0.05135534
-0.0339327 -0.00097004167 -0.11075429 0.0080764005 -0.0652343 0.04059741 -0.16797583 -0.08931336
0.08301169 0.15587877 0.11158125 -0.072606 0.0480729 0.05969419 -0.013756301 0.012579657
0.028726846 -0.10688081 0.07700565 -0.117023334 -0.19596381 0.06946027 -0.07380968 0.024060374
00000000: 44ba b0bd ca86 f5bd 8aa8 b6bb 2e5d 38bd
00000010: 888a 1c3d 6140 f1bd d2ae 4cbe 5353 25bc
00000020: 9f0f e03c 855a ae3d 3749 67bc 0b2a e13a
00000030: 0321 903c 151a a93c f599 f33d 81cf 40bd
00000040: 7aaf fe3d 79c1 a3bd 5caa a73c c29a 3d3d
00000050: 2a43 8c3d 1900 9cbc 3ffa a93d 3d4e e13c
00000060: 6cef a33c 944c 773d ef16 043d 374b 933b
00000070: 7d95 20bd d09e 243d d034 d23b a0bd ac3b
00000080: ed43 92bd 9248 8abd 9eb4 a03d 6a33 ccbd
00000090: 1963 853c a5d8 c9bd 7db6 14bd c256 aebd
000000a0: 852b 843d 10f4 d7bd d9ed 783d bf39 903d
000000b0: 22a2 883d 2e6d d33d b35a c3bc afd0 4e3d
000000c0: 1169 0e3c 9763 b03c 4a66 bfbd 58cc 6abb
000000d0: f248 a63d 2903 02bd e53b b63c 9035 733b
000000e0: caa7 2d3d b679 903c 72fd 2a3c 7a8b a5bd
000000f0: 8790 4ebc fb2a b03d 6503 a0bc 68f4 843c
00000100: 6c48 5cbd 5e01 573d a7ec 19bc 10ed 7cbd
00000110: fc6b b3bc ad59 8bbd 2942 e0bd 1def 3cbd
00000120: 1ff0 ddbc aed9 20bd 3ac6 91bc 5710 d7bc
00000130: 9b8e 91bd bb1a 0dbd 435e e5bd 1cff 253d
00000140: 9934 f1bd 6cd0 5a3d 4721 55ba eea3 aa3d
00000150: 4be0 993d bfc4 603d 8693 babd efd1 9cbc
00000160: f52f 953d 90ea b1bd 2878 d1bd 7d36 443d
00000170: 52b6 e1bc 370d 2d3d 907e 00bc 7b4b f33c
00000180: a4e1 8fbd 5ec1 7abb dc9b 5abd ced2 99bc
00000190: 75c5 11bd 51da 29bd efbf 9d3d bee4 28bc
000001a0: d1e9 03be 3fab 5f3d 2a6e 4ebc b94e fd3c
000001b0: 945b 3abb cf77 99bd abe2 503d 0b80 d2bd
000001c0: 06d0 f43d 2188 a43d 2f03 40bd 9f00 833c
000001d0: aebb 1abd 2f6c afbd 86d7 2bbd 5cf8 573d
000001e0: 0df6 9c3d b74c 97bd ba9d c4bd 08ef a13d
000001f0: 4c17 59bd 3f73 b1bd 4397 60bd ea2a d5bd
00000200: c4ec 35be 4468 fc3c 1d30 973d bfd2 083d
00000210: 85b1 7ebd 832c 2abd 6f17 ea3c c46b 0f3d
00000220: 7b2a e93d e358 05bb de3a 8d3d 131c c8bc
00000230: c553 d9bd ae54 cd3c 706a 2fbd d1d3 e03d
00000240: 145a 4cbe b669 d53d d2d2 83bd a682 833b
00000250: ced9 083e 7c69 a6bd b4f5 a3bd 779d ef3d
00000260: af78 093e dd57 7ebe 9641 6abc 2116 35bc
00000270: ef31 a83b 25dd acbd b530 c5bd b252 60bd
00000280: 8db0 fe3d 1205 87bc 39eb dc3d c35f 873d
00000290: b7b2 4f3d ff33 d6bc 67c9 9fbd ca31 243e
000002a0: 48c6 87bc 89bd c6bd 3b0b e93b 899a 1b3d
000002b0: 1200 d4bc 25d5 aebd 817f a03d 75a1 f5bd
000002c0: 0116 85bd 453d d9bc f616 363c e84a 44bc
000002d0: 136c 61bd fa4b 0abe 49bf 84bc 7db5 2e3c
000002e0: 33a3 97bd 1b9f 2bbd 5f8f 6bbd 3673 8abd
000002f0: 96bb 963c 0181 85bb 2821 aa3d 8b37 14be
00000300: 77a2 f2bc 3975 63bd d589 dc3d 2e71 a13d
00000310: 7388 ccbd 6884 f13d 3db4 adbd 40d0 abbd
00000320: 0d99 b73c 5371 22bd e1a0 32be 4dfb 6bbd
00000330: 188a 35bd 41a3 89bd f098 61bd b34d 89bd
00000340: 4f78 40bd dea8 1fbd 0857 c53b 8e97 703a
00000350: 1401 193d a68f e7bd 660e 2f3d 8205 653b
00000360: f05b dfbc 0273 a03d ddb8 603c df26 323d
00000370: 1a63 cb3c d8f8 1dbe 2099 853d f37b 9abc
00000380: 6808 03bc 55db 90bd cffd bb3c cca9 87bb
00000390: 0743 f5bc 7c94 69bd 9aea 36be fa59 523d
000003a0: 04fd 0abd 654a 7eba 25d3 e2bd e152 043c
000003b0: 9099 85bd 7849 263d db01 2cbe ece9 b6bd
000003c0: 0802 aa3d af9e 1f3e b684 e43d 74b2 94bd
000003d0: 17e8 443d e581 743d 1c62 61bc e81a 4e3c
000003e0: 9054 eb3c 53e4 dabd 23b5 9d3d eea9 efbd
000003f0: bdaa 48be 3041 8e3d 8829 97bd 431a c53c

actor.2.bias f4 [128]
0.07471721 -0.18543698 -0.101781756 -0.079233326 -0.015595902 -0.22043875 0.007861144 0.01691891
-0.062562115 -0.035123374 -0.15347703 -0.03711815 0.008276842 -0.013375308 -0.20176199 0.018729089
0.006546909 -0.011689335 0.04400965 0.044739723 -0.033238318 -0.082010046 -0.09954976 0.015711157
0.04610988 -0.06749709 0.041504435 -0.12224442 -0.01774694 -0.028073998 0.003450271 0.017922768
-0.049230438 -0.02182303 -0.079149686 -0.07115892 -0.113866255 0.0811897 -0.018445805 -0.2699697
-0.0021473116 -0.06278552 0.083215125 0.008517532 -0.03608965 -0.1062438 -0.08022138 -0.024172548
-0.1816273 -0.04922369 0.083382815 -0.057780027 -0.04304782 0.10742979 0.16032536 -0.2386844
-0.042194575 -0.10956501 -0.04662987 -0.158814 -0.16139625 0.026659619 -0.046587482 -0.031312082
-0.01295345 -0.099198885 0.08554633 -0.1381872 0.007946442 -0.057634838 -0.09192357 -0.3207144
0.004858067 -0.19314523 0.057754833 -0.0005702511 -0.040022034 -0.04666422 -0.08495915 -0.031846125
-0.12417012 -0.0019273884 0.008003037 0.0025742003 0.019000132 0.025358995 -0.2876307 -0.15390062
-0.1147005 0.07506544 -0.025223559 -0.038467143 -0.081876226 -0.1708305 -0.096857645 -0.02178664
-0.028696604 -0.099252574 0.08995472 0.016439864 0.08205002 -0.09155321 -0.019874597 -0.07391936
-0.032537226 -0.026774481 -0.027276544 -0.15964715 -0.14839554 0.014993799 -0.0773349 -0.035464063
-0.0144835925 0.016077418 -0.19070974 -0.18377472 0.049643535 0.01757141 -0.053562663 -0.029628152
-0.007718349 0.04738035 -0.1020181 0.034655508 -0.113332935 0.14423642 -0.13374779 -0.10279353
00000000: 5605 993d 31e3 3dbe f472 d0bd 1545 a2bd
00000010: f485 7fbc b2ba 61be 07cc 003c 8799 8a3c
00000020: 9120 80bd 87dd 0fbd 1529 1dbe 3409 18bd
00000030: 979b 073c 1c24 5bbc b29a 4ebe bf6d 993c
00000040: 7487 d63b a084 3fbc 7643 343d 0041 373d
00000050: e724 08bd e2f4 a7bd bfe0 cbbd afb4 803c
00000060: b7dd 3c3d ea3b 8abd 8e00 2a3d 485b fabd
00000070: 0862 91bc 71fb e5bc f11d 623b c5d2 923c
00000080: dba5 49bd 36c6 b2bc 3b19 a2bd c5bb 91bd
00000090: b632 e9bd c946 a63d a81b 97bc 7839 8abe
000000a0: e9b9 0cbb b295 80bd b16c aa3d 1e8d 0b3c
000000b0: bed2 13bd 5996 d9bd 1b4b a4bd 8205 c6bc
000000c0: 82fc 39be c89e 49bd 9cc4 aa3d c0aa 6cbd
000000d0: e952 30bd 2604 dc3d 552c 243e af69 74be
000000e0: 38d4 2cbd 9f63 e0bd f6fe 3ebd 23a0 22be
000000f0: 0f45 25be 4665 da3c 84d2 3ebd 1941 00bd
00000100: b53a 54bc c928 cbbd ea32 af3d f280 0dbe
00000110: cb31 023c 8212 6cbd 6d42 bcbd ae34 a4be
00000120: 6b30 9f3b ddc7 45be 5590 6c3d e77c 15ba
00000130: 25ee 23bd fb22 3fbd 10ff adbd 1571 02bd
00000140: e74c febd 6ca0 fcba 2c1f 033c eab3 283b
00000150: 2aa6 9b3c abbd cf3c 5544 93be 2098 1dbe
00000160: 19e8 eabd e9bb 993d a3a1 cebc b98f 1dbd
00000170: b9ae a7bd 31ee 2ebe 4d5d c6bd e579 b2bc
00000180: 2415 ebbc ef44 cbbd 2e3a b83d e5ac 863c
00000190: d709 a83d 4080 bbbd 0dd0 a2bc 0963 97bd
000001a0: c145 05bd 2856 dbbc 0f73 dfbc 8b7a 23be
000001b0: 00f5 17be 8da8 753c c361 9ebd c442 11bd
000001c0: 974c 6dbc cab4 833c 6a49 43be 712f 3cbe
000001d0: 0557 4b3d ebf1 8f3c 8664 5bbd bdb6 f2bc
000001e0: 34ea fcbb e611 423d deee d0bd eff2 0d3d
000001f0: 191b e8bd b6b2 133e 2ef5 08be 6a85 d2bd

actor.4.weight f4 [128, 128]
-0.061216064 0.0033432676 0.018017089 0.019692598 0.067623116 0.023306932 -0.06761656 0.04779194
-0.064910725 -0.0703151 0.07235761 -0.0060175294 0.10530839 -0.014903009 -0.06669937 -0.009917111
-0.004822592 -0.033865917 -0.03482702 -0.07514555 -0.046653394 0.094656534 -0.107028015 0.024594683
-0.028364046 0.006403442 -0.00948095 -0.075995766 -0.03095827 0.061336115 -0.043842815 -0.03344228
-0.053434674 -0.045138005 0.11227369 -0.034264814 0.046123378 -0.08828992 -0.0019811734 0.03280088
0.10128692 -0.021385785 0.094221346 0.0048035444 -0.01376746 -0.022482313 -0.06912058 -0.009597326
0.04194082 -0.060991302 -0.03633877 0.036464684 -0.007657779 0.019059388 -0.0280682 0.021364316
0.042862993 -0.088811345 0.03164104 -0.054721665 -0.07747057 0.07806517 -0.010688047 -0.019262156
-0.10351502 0.04884975 0.06500209 -0.06696339 -0.006135322 0.09255943 -0.06327829 0.02761517
-0.015312624 -0.055105902 0.043206666 0.07746594 0.061172552 0.0903766 -0.03010583 0.0299624
0.011508976 -0.032452036 0.003319575 -0.02599579 -0.036136083 0.018597124 0.027707564 0.024050364
0.036005408 -0.0009977209 0.057150424 -0.050948482 0.041283622 0.09108409 0.0128790615 -0.05753727
-0.067114726 0.03261713 -0.021339322 0.018651424 -0.08336036 -0.01861585 -0.020203559 -0.04401934
-0.033896863 0.06978152 0.08863821 0.028056381 -0.06926909 -0.04028455 0.024340974 0.032349497
-0.036819622 -0.022395652 -0.07745838 0.041553255 0.070290506 0.017067242 0.0065196683 -0.062072553
-0.043178346 -0.09491526 -0.03113086 -0.021289213 -0.020785796 -0.025904518 0.034900308 -0.045424864
-0.11402944 0.08269724 0.08030265 -0.06400977 0.105395176 0.0454939 -0.0023952008 -0.03652305
-0.050993875 0.0056699566 -0.025685651 -0.018873138 0.06052108 0.03028358 0.075233914 -0.0013722897
8.589861e-05 0.048604324 0.013460319 0.002206319 -0.09993172 0.11515011 -0.058517862 -0.043339204
-0.051504225 -0.021185929 -0.024389166 -0.005977538 0.11454731 -0.0116306115 0.047460604 -0.062440217
0.024179593 -0.0056294133 0.110405974 0.06315214 0.08386143 0.047392856 0.0075626327 0.03393821
-0.076763205 0.03402788 -0.039434914 0.020979203 -0.03623981 -0.005389222 -0.11054988 0.024858303
0.024451002 -0.09811334 0.019992782 0.03716039 -0.061924834 -0.057211872 0.03688895 -0.054454956
0.0935584 -0.09266497 -0.010760186 0.0746603 0.002372233 -0.100230105 0.028388882 0.052592516
0.0039475323 -0.053542506 -0.006561961 0.012743469 -0.1390437 -0.054168098 -0.10826969 0.07604606
0.02319305 -0.0378109 0.007962584 0.092832915 0.09584728 -0.029081445 -0.08521198 -0.033722673
0.05149923 -0.00028162845 -0.012026793 0.0028857344 -0.011860974 0.12982534 0.030251717 -0.10912424
0.012275962 -0.04711118 0.03312221 0.072046295 -0.046479084 0.022468187 0.08943591 -0.03502607
0.006832132 -0.01433402 0.08013317 0.064036824 -0.052786246 0.080519184 0.062420577 -0.019412197
-0.017988464 0.096235886 0.10147863 0.07570852 0.049443472 -0.0052606333 0.019867199 -0.084338136
-0.028501729 -0.017194066 -0.010727586 -0.027224524 -0.040646154 -0.06439938 -0.11083107 -0.045568854
0.02089849 -0.034027036 0.01229955 -0.008911774 -0.09972278 0.12945765 -0.02298923 -0.0036794236
00000000: b2bd 7abd b91a 5b3b 9398 933c 5f52 a13c
00000010: fd7d 8a3d 2eee be3c 8d7a 8abd 7bc1 433d
00000020: eaef 84bd 5d01 90bd 3a30 943d b22e c5bb
00000030: edab d73d c02b 74bc ae99 88bd 617b 22bc
00000040: d506 9ebb fdb6 0abd c7a6 0ebd e9e5 99bd
00000050: a117 3fbd 49db c13d 8131 dbbd ca7a c93c
00000060: b75b e8bc f7d3 d13b fd55 1bbc aba3 9bbd
00000070: 339c fdbc 943b 7b3d 8694 33bd c6fa 08bd
00000080: 51de 5abd a1e2 38bd c0ef e53d 4359 0cbd
00000090: deeb 3c3d 58d1 b4bd 93d6 01bb 375a 063d
000000a0: 846f cf3d 3e31 afbc 1ff7 c03d 0d67 9d3b
000000b0: ea90 61bc d42c b8bc 178f 8dbd 1a3e 1dbc
000000c0: 23ca 2b3d 04d2 79bd f6d7 14bd fe5b 153d
000000d0: 1bee fabb 6f22 9c3c 48ef e5bc 3804 af3c
000000e0: 1b91 2f3d b9e2 b5bd 099a 013d d323 60bd
000000f0: e4a8 9ebd a2e0 9f3d eb1c 2fbc abcb 9dbc
00000100: afff d3bd ad16 483d d11f 853d 1a24 89bd
00000110: d00a c9bb cc8f bd3d 0c98 81bd 3639 e23c
00000120: cde1 7abc bab6 61bd 79f9 303d 76a6 9e3d
00000130: 1290 7a3d 5e17 b93d 80a0 f6bc b573 f53c
00000140: 2590 3c3c 6dec 04bd 3a8d 593b 1ff5 d4bc
00000150: 6e03 14bd ff58 983c f9fa e23c 4505 c53c
00000160: 687a 133d f5c5 82ba 9016 6a3d 5baf 50bd
00000170: 0419 293d 4c8a ba3d b302 533c 33ac 6bbd
00000180: 7273 89bd 8a99 053d cdcf aebc dfca 983c
00000190: d6b8 aabd 4480 98bc ef81 a5bc a04d 34bd
000001a0: 70d7 0abd 9de9 8e3d f387 b53d 7fd6 e53c
000001b0: f4dc 8dbd 6a01 25bd b966 c73c e880 043d
000001c0: 2cd0 16bd 1677 b7bc 80a2 9ebd bf33 2a3d
000001d0: 78f4 8f3d 9ad0 8b3c f1a2 d53b ca3f 7ebd
000001e0: c7db 30bd ef62 c2bd 2506 ffbc b766 aebc
000001f0: f946 aabc b635 d4bc a0f3 0e3d 6c0f 3abd
00000200: 4488 e9bd 2c5d a93d b775 a43d 8e17 83bd
00000210: 6dd9 d73d d057 3a3d cdf8 1cbb 3299 15bd
00000220: f4de 50bd 0bcb b93b b76a d2bc d79b 9abc
00000230: f4e4 773d 4515 f83c 3d14 9a3d 67de b3ba
00000240: 7724 b438 5415 473d ab88 5c3c e497 103b
00000250: 00a9 ccbd d2d3 eb3d 6db0 6fbd 7384 31bd
00000260: 18f6 52bd 1d8e adbc cacb c7bc 39df c3bb
00000270: c897 ea3d 528e 3ebc 0d66 423d 50c1 7fbd
00000280: 4814 c63c f176 b8bb 871c e23d e955 813d
00000290: 8bbf ab3d 031f 423d f6cf f73b cb02 0b3d
000002a0: 0736 9dbd d160 0b3d 8186 21bd 94dc ab3c
000002b0: 3270 14bd 1298 b0bb fa67 e2bd a4a3 cb3c
000002c0: 784d c83c a6ef c8bd e7c7 a33c 7e35 183d
000002d0: e5a4 7dbd ff56 6abd de18 173d 290c 5fbd
000002e0: 8c9b bf3d 22c7 bdbd 7e4b 30bc 80e7 983d
000002f0: 7777 1b3b 7145 cdbd cd8f e83c 406b 573d
00000300: 4d5a 813b 634f 5bbd b805 d7bb fcc9 503c
00000310: 7961 0ebe 5edf 5dbd 80bc ddbd 09be 9b3d
00000320: 5aff bd3c 9adf 1abd 7f75 023c 2f1f be3d
00000330: 944b c43d 363c eebc 9e83 aebd c920 0abd
00000340: dbf0 523d 88a7 93b9 070c 45bc 971e 3d3b
00000350: 8854 42bc eff0 043e 73d2 f73c 887c dfbd
00000360: 1e21 493c a7f7 40bd 28ab 073d 028d 933d
00000370: da60 3ebd 340f b83c 2d2a b73d 7f77 0fbd
00000380: 14e0 df3b 3dd9 6abc dc1c a43d bd25 833d
00000390: 6436 58bd 3ee7 a43d b8ac 7f3d 5406 9fbc
000003a0: 8b5c 93bc 5217 c53d 07d4 cf3d 120d 9b3d
000003b0: 3d85 4a3d 6461 acbb 89c0 a23c 79b9 acbd
000003c0: 757c e9bc 92da 8cbc c2c2 2fbc f705 dfbc
000003d0: 957c 26bd d2e3 83bd 66fb e2bd 68a6 3abd
000003e0: 4f33 ab3c ef5f 0bbd 0d84 493c b002 12bc
000003f0: 753b ccbd 8c90 043e e953 bcbc 7c22 71bb

actor.4.bias f4 [128]
-0.01644512 -0.02888256 -0.03373347 0.06087614 -0.056724757 0.027079022 -0.012761829 -0.041636985
-0.06497357 -0.24020335 -0.12765451 0.048258796 -0.12268873 -0.07567115 0.0760762 -0.10238926
0.012028186 0.032658234 -0.1554061 -0.030133503 -0.074964255 0.09295875 -0.070858516 0.05127312
0.014611965 -0.02474881 -0.03901587 -0.06137917 -0.15624301 0.0059970543 -0.0840029 0.06899783
-0.040240817 0.1257826 0.06526148 0.028561434 0.019741263 0.051996764 -0.073543645 0.03110741
-0.06449239 -0.067182064 -0.1619137 -0.076254755 -0.12793927 -0.1973923 -0.015229252 -0.21203281
0.0014773161 0.064864546 -0.10303155 0.08274244 -0.0021271184 -0.07238971 0.0082572 -0.0062434184
-0.06575898 -0.191674 -0.040562943 -0.06323842 0.0155506935 -0.0440743 -0.02024056 -0.061926693
-0.06695299 0.01583087 0.015000016 0.049379762 -0.0034435461 0.07363823 -0.013831723 -0.17815429
0.036599007 0.07474148 -0.045975238 -0.099559814 -0.011572287 0.0052328194 0.0060380194 -0.05194262
-0.065664716 -0.06419109 0.10393217 -0.04332009 -0.032980595 -0.08149577 0.05103994 0.04780303
0.04626789 -0.0780296 0.071143515 0.0024262927 -0.20422888 -0.049223185 -0.11909889 0.019261388
-0.11667607 -0.13255927 -0.028232437 -0.00031435434 -0.054039817 -0.067549005 -0.09288806 0.007786349
-0.10316471 0.021256942 -0.13083157 0.05956555 0.017568134 -0.02266969 -0.06794604 -0.0821835
-0.028006675 -0.09874661 0.08350388 0.09642694 -0.053405557 -0.10625451 -0.12166258 0.05387921
-0.025760233 0.016771695 0.084317185 0.083789386 0.07349083 -0.011070492 -0.07147534 0.0023530622
00000000: ebb7 86bc 1e9b ecbc 1b2c 0abd 4259 793d
00000010: 3858 68bd d3d4 dd3c fe16 51bc 8b8b 2abd
00000020: dd10 85bd def7 75be ddb7 02be 04ab 453d
00000030: 3b44 fbbd 7af9 9abd d7cd 9b3d 76b1 d1bd
00000040: de11 453c a4c4 053d c722 1fbe 89da f6bc
00000050: dc86 99bd 2861 be3d 451e 91bd c303 523d
00000060: 0667 6f3c 04be cabc 1bcf 1fbd b968 7bbd
00000070: 2bfe 1fbe f082 c43b b609 acbd bc4e 8d3d
00000080: 8ed3 24bd 27cd 003e d0a7 853d abf9 e93c
00000090: 6eb8 a13c 8ffa 543d 0d9e 96bd f8d4 fe3c
000000a0: 9614 84bd c096 89bd b4cc 25be 742b 9cbd
000000b0: 8302 03be 3521 4abe 1d84 79bc 211f 59be
000000c0: 81a2 c13a b4d7 843d 3502 d3bd de74 a93d
000000d0: 2067 0bbb 0e41 94bd 3549 073c 9795 ccbb
000000e0: a5ac 86bd 3046 44be 5425 26bd 2583 81bd
000000f0: 56c8 7e3c 4187 34bd 88cf a5bc d8a6 7dbd
00000100: a61e 89bd beaf 813c a1c2 753c 6f42 4a3d
00000110: 1ead 61bb a4cf 963d 739e 62bc 146e 36be
00000120: d7e8 153d 1012 993d 8850 3cbd 04e6 cbbd
00000130: b199 3dbc 1278 ab3b 94da c53b c9c1 54bd
00000140: 397b 86bd 9e76 83bd 64da d43d 6870 31bd
00000150: a916 07bd 41e7 a6bd 420f 513d 1ccd 433d
00000160: 6683 3d3d fccd 9fbd b1b3 913d 7002 1f3b
00000170: 6021 51be 409e 49bd 1eea f3bd 0fca 9d3c
00000180: ddf3 eebd 9ebd 07be b647 e7bc edcf a4b9
00000190: db58 5dbd 2257 8abd 183c bebd a124 ff3b
000001a0: 0548 d3bd 0a23 ae3c b6f8 05be 02fb 733d
000001b0: 0ceb 8f3c c9b5 b9bc 4b27 8bbd d34f a8bd
000001c0: 416e e5bc aa3b cabd 1504 ab3d 7d7b c53d
000001d0: c9bf 5abd f79b d9bd 3b2a f9bd 72b0 5c3d
000001e0: 2007 d3bc cb64 893c 7dae ac3d c599 ab3d
000001f0: 5c82 963d 0261 35bc aa61 92bd d535 1a3b

actor.6.weight f4 [8, 128]
0.023964776 0.0047347737 0.027036343 0.021276772 0.0093225865 -0.0366446 0.020300454 -0.01084836
-0.057680074 -0.10238097 -0.02554593 -0.0005538588 -0.01942838 -0.027259199 0.027389066 -0.013017001
0.014985479 -0.008469373 -0.015948389 -0.012627849 -0.0077005806 0.0311146 -0.017695673 0.024565103
-0.0015766129 -0.016306141 0.0042897747 -0.004954335 -0.079404995 0.0014288995 -0.025948662 0.007398146
0.010894271 0.009474084 0.035211172 -0.004116266 0.015018503 0.034184437 -0.01879291 0.022216395
-0.008806486 0.014113897 -0.0646221 -0.0025131933 -0.033328854 -0.010443467 0.0244689 -0.09954324
-0.0062729274 0.023145715 -0.014997014 0.05322484 -0.020883277 -0.0070145093 0.01374507 -0.014108675
0.022246594 -0.05788807 -0.010096619 0.02703489 0.016376799 0.00855665 0.05431139 -0.016742568
-0.018417947 0.011040777 0.009061187 -0.0034759233 -0.02647087 -0.0018690694 0.030356392 -0.07097327
0.0005728964 0.009347398 0.0054638395 -0.043804288 0.0066280286 -0.025952134 -0.012854939 -0.013576458
0.004063978 0.002914188 0.033747725 0.015723083 -0.030243924 -0.054154783 0.013555771 0.023642635
-0.043813583 0.026838273 0.037852008 0.0041757426 -0.099755734 0.035071835 -0.0069641797 0.027937386
0.0069113052 0.011432048 0.00812062 -0.031428043 0.0062152552 -0.009062827 -0.003761572 -0.028746564
-0.00012097811 0.011448935 0.0059623085 -0.028305825 0.01236277 -0.0034366809 -0.05777877 0.006842692
0.029666826 0.025965307 0.025836304 0.03574481 0.03809095 -0.024109567 -0.019820385 0.023141066
-0.011853051 0.031179877 0.0017889717 -0.022257201 0.00401828 -0.029353416 0.011972668 0.028480835
-0.024135366 -0.020363726 0.01862317 0.022213858 -0.01494784 -0.07080502 0.014495855 -0.01429946
0.014676415 -0.00939081 -0.015986532 0.030881774 -0.014190752 0.0027979463 0.011870935 0.003078148
-0.030122261 -0.006554283 -0.028985927 -0.04250378 -0.07588099 -0.034352038 -0.0058884644 0.044815455
-0.033058226 0.05897129 -0.045809466 0.0075705657 -0.047406472 -0.05884038 0.01687658 0.035288583
-0.010364618 0.0030348315 0.031479947 0.045632217 0.011475253 -0.011996956 -0.0076432573 -0.049983867
-0.012326397 0.012077145 0.05099604 -0.002409437 0.0022448823 -0.062415622 0.009269036 -0.039623257
0.0066732327 0.02721353 -0.03136824 0.014092982 -0.0019221051 0.0007006022 0.04254895 -0.004703857
0.017710228 -0.050735064 -0.012469605 -0.010141367 0.07179725 0.012357324 0.026372943 -0.049553815
0.024440922 0.027462661 -0.018073795 0.004553523 0.011660271 0.019599924 0.026134662 -0.057074513
0.011073305 0.0033626235 -0.0101733 -0.0031779022 0.012794119 0.013701051 -0.02602611 -0.012183556
-0.0064698597 -0.010087803 0.012605763 0.017396921 -0.022939783 0.0400166 -0.010094548 -0.040180907
0.004831085 0.043311093 -0.0045644436 0.00062196516 0.06154386 -0.011711858 -0.0009511299 0.008018484
0.0010165566 0.009857332 0.05355287 0.032361373 0.005453923 0.007314507 0.010024267 0.034065746
-0.008292425 0.007734557 0.007859778 0.013816358 0.01904793 0.0021073695 0.029915312 -0.0049599432
0.012505362 -0.0368877 0.01928955 0.01272998 -0.01773801 -0.02555323 0.05198502 -0.011597388
-0.019119276 -0.00043667926 -0.009259629 -0.032164346 -0.039922077 0.013343508 0.016861191 0.0033720823
00000000: c751 c43c 2926 9b3b 527b dd3c a04c ae3c
00000010: c3bd 183c a618 16bd 234d a63c 52bd 31bc
00000020: f141 6cbd 1dad d1bd b345 d1bc d630 11ba
00000030: 4428 9fbc af4e dfbc 095f e03c 4245 55bc
00000040: a885 753c 20c3 0abc 32a6 82bc 0ae5 4ebc
00000050: 2755 fcbb 0ce4 fe3c 84f6 90bc c13c c93c
00000060: 5aa6 ceba 7594 85bc 3d91 8c3b f957 a2bb
00000070: 169f a2bd e949 bb3a 4a92 d4bc 266c f23b
00000080: e27d 323c 3039 1b3c 9739 103d bee1 86bb
00000090: 2b10 763c fb04 0c3d 97f3 99bc 28ff b53c
000000a0: 1449 10bc fa3d 673c 9758 84bd 63b4 24bb
000000b0: d683 08bd 131b 2bbc 0173 c83c 54dd cbbd
000000c0: 218d cdbb 159c bd3c 09b6 75bc 4a02 5a3d
000000d0: 6813 abbc f8d9 e5bb 0133 613c 1228 67bc
000000e0: 7d3e b63c 0a1c 6dbd 4a6c 25bc 4678 dd3c
000000f0: a328 863c 3131 0c3c 9f75 5e3d b627 89bc
00000100: 3ce1 96bc 60e4 343c 5f75 143c 51cc 63bb
00000110: 70d9 d8bc 90fb f4ba f8ad f83c 6f5a 91bd
00000120: 6d2e 163a d425 193c 020a b33b 206c 33bd
00000130: ef2f d93b 9299 d4bc 869d 52bc cb6f 5ebc
00000140: 1e2b 853b f6fb 3e3b 0e3b 0a3d b2cd 803c
00000150: 1bc2 f7bc 68d1 5dbd 0619 5e3c 33ae c13c
00000160: df75 33bd f0db db3c b50a 1b3d abd4 883b
00000170: bc4c ccbd 7ca7 0f3d c633 e4bb f2dc e43c
00000180: 3b78 e23b 7c4d 3b3c 590c 053c b1ba 00bd
00000190: 57a9 cb3b 407c 14bc b584 76bb ea7d ebbc
000001a0: a1b5 fdb8 5094 3b3c 785f c33b 9ee1 e7bc
000001b0: 378d 4a3c f039 61bb 6ea9 6cbd a938 e03b
000001c0: d807 f33c 32b5 d43c a8a6 d33c 2669 123d
000001d0: 4205 1c3d 6d81 c5bc 5c5e a2bc 5592 bd3c
000001e0: 4d33 42bc f16c ff3c ee7b ea3a bc54 b6bc
000001f0: c7ab 833b 9376 f0bc 0229 443c a450 e93c
00000200: 88b7 c5bc d4d1 a6bc 9e8f 983c d6f9 b53c
00000210: c9e7 74bc 3902 91bd 0680 6d3c 4848 6abc
00000220: 5975 703c e9db 19bc 30f6 82bc c6fb fc3c
00000230: 5480 68bc c05d 373b 4f7e 423c c1ba 493b
00000240: f6c2 f6bc 50c5 d6bb e573 edbc 7218 2ebd
00000250: 7e67 9bbd b9b4 0cbd 05f4 c0bb 6990 373d
00000260: 1068 07bd e18b 713d b5a2 3bbd 8212 f83b
00000270: 4a2d 42bd 9c02 71bd c140 8a3c c38a 103d
00000280: 5cd0 29bc 06e4 463b 1ef1 003d d9e8 3a3d
00000290: b302 3c3c e18e 44bc 4a74 fabb e2bb 4cbd
000002a0: a8f4 49bc 38df 453c 39e1 503d a5e7 1dbb
000002b0: e01e 133b 86a7 7fbd 28dd 173c ff4b 22bd
000002c0: 22ab da3b e9ee de3c fc7b 00bd 40e6 663c
000002d0: 25ef fbba 9ea8 373a cf47 2e3d d022 9abb
000002e0: 0a15 913c 92cf 4fbd 504d 4cbc fa27 26bc
000002f0: 700a 933d 6076 4a3c 120c d83c f1f8 4abd
00000300: 5438 c83c 60f9 e03c 7f0f 94bc b835 953b
00000310: b90a 3f3c 0590 a03c 5c18 d63c f7c6 69bd
00000320: cf6c 353c 765f 5c3b eaad 26bc 5a44 50bb
00000330: 6d9e 513c 5f7a 603c b534 d5bc 8a9d 47bc
00000340: 1e01 d4bb 5047 25bc 6788 4e3c fd83 8e3c
00000350: 36ec bbbc 72e8 233d 9a63 25bc bc94 24bd
00000360: 144e 9e3b f966 313d 5491 95bb 600b 233a
00000370: 6a15 7c3d 18e3 3fbc 3f55 79ba f65f 033c
00000380: fb3d 853a a680 213c 415a 5b3d 5c8d 043d
00000390: d2b6 b23b 88ae ef3b d33c 243c 8688 0b3d
000003a0: f4dc 07bc 2b72 fd3b 4cc6 003c 015e 623c
000003b0: 680a 9c3c cb1b 0a3b f510 f53c 0587 a2bb
000003c0: 4ae3 4c3c 8f17 17bd 1e05 9e3c 6891 503c
000003d0: 4e4f 91bc 0255 d1bc 3fee 543d f902 3ebc
000003e0: 07a0 9cbc 19f2 e4b9 b3b5 17bc c3be 03bd
000003f0: 5585 23bd bb9e 5a3c 7b20 8a3c 27fe 5c3b

actor.6.bias f4 [8]
0.16895807 -0.043885127 0.01633147 0.12877432 0.059341114 0.0026304605 -0.044808272 -0.012727831
00000000: 5803 2d3e e4c0 33bd 93c9 853c 6add 033e
00000010: ab0f 733d ce63 2c3b e188 37bd 6488 50bc

critic.0.weight f4 [128, 31]
0.026708234 0.07644407 -0.21110179 0.08826168 -0.012511829 0.17901689 0.072650544 0.013231612
0.0264656 1.2785702 0.6407577 0.2968061 -0.2175221 -0.040790256 0.24089706 -0.073633984
0.055520546 0.037124686 -0.05974542 -0.08049284 0.0897206 0.082194425 0.052446608 0.093991846
0.020654682 0.060932223 0.041454572 0.16557772 -0.047063246 -0.12842488 -0.1984465 -0.06288213
-0.006654874 0.30190456 0.0688028 0.072380416 0.11729347 0.28518438 -0.08359941 0.17669737
1.5021114 -0.81221527 0.20153098 0.1846458 0.008014483 -0.12651354 -0.07654737 0.059471954
0.025203677 -0.06970227 -0.040681597 -0.047901295 0.04983833 0.00520038 0.18156636 -0.05822136
0.10563014 0.20790093 -0.05202718 0.12678821 -0.12141063 0.021741861 0.37232298 0.01593982
-0.07351993 0.054145113 0.05816671 0.17498222 0.14221443 -0.15039866 0.11104876 -1.8139995
0.24518935 -0.15188883 0.051956113 0.16000287 0.24280931 0.018980546 0.020783748 0.016302407
0.010594826 0.050542768 -0.039194256 0.048234683 0.07601032 0.054734547 0.13701709 -0.060221482
-0.059074093 0.030752024 0.113581456 -0.26214784 -0.084403634 0.24009277 0.055870745 -0.22365874
0.08418032 -0.10396108 -0.12924829 0.08551808 0.010649897 0.2507665 -1.1269453 0.47197333
-0.21384381 -0.071970455 0.036972117 -0.018685179 -0.034972277 -0.05012845 0.12088532 -0.088533364
0.10478546 0.09155529 -0.026604906 0.10960603 0.06363877 0.048155345 -0.08280578 -0.15537465
-0.03405803 0.051322334 0.01063734 -0.08367506 0.0054883673 0.06399964 0.561295 -0.09876307
0.22747144 0.30068943 0.010234348 0.21037704 0.252505 -1.3000137 1.3258841 -0.014862343
0.057044744 -0.24247587 0.23128502 -0.080851085 -0.046898108 -0.008276971 -0.08189744 0.030532587
0.07155979 -0.07390587 -0.056994848 0.07369933 -0.0963859 -0.08110389 0.10258938 -0.04866755
-0.11562439 0.033857252 0.06625925 -0.06428328 -0.13412523 1.7258172 0.090364195 -0.07634881
0.08359399 0.011116658 -0.05803225 -0.03641701 0.47464782 1.8764008 0.06142691 0.052283354
0.10565395 0.030797645 -0.05655369 0.016272455 0.005842355 -0.023429407 0.0011385533 -0.0017852997
-0.0011300826 -0.0012501207 0.047326725 0.020736543 -0.024086183 -0.005700937 0.038696148 0.008678075
-0.05065167 -0.012110229 -0.14632927 0.066954866 -0.033070613 -0.08669512 -0.111016534 0.07312687
-0.024282144 0.15184176 0.23407687 1.3849084 -0.63171136 0.09150685 -0.03392379 -0.21861485
0.06321653 0.032646555 0.028824542 -0.051534746 0.07383258 -0.07103494 -0.065319076 0.017937507
-0.07824462 -0.028088294 -0.08266282 -0.09187185 -0.17330195 0.055477917 -0.07315877 -0.11714521
0.124991335 -0.27018756 -0.06724178 0.16246122 0.09109488 -0.038212985 0.050061785 0.05288663
0.21091536 -0.14433396 1.154151 1.290997 0.10412228 0.07631722 -0.09386308 -0.03865603
0.0533066 -0.0024916655 -0.00013768995 0.027888136 0.008581316 -0.03571243 -0.012131048 -0.0061236294
-0.066102445 0.07571848 -0.013072897 -0.21492133 0.04897604 0.32428715 0.1325413 -0.033299863
-0.16662265 0.13757525 -0.23636504 -0.03389872 -0.039064888 0.120786086 0.047413863 0.12551668
00000000: 3acb da3c b58e 9c3d 112b 58be 8ac2 b43d
00000010: 6afe 4cbc 3450 373e cfc9 943d 67c9 583c
00000020: 63ce d83c 30a8 a33f b208 243f f8f6 973e
00000030: 1dbe 5ebe af13 27bd b8ad 763e 6acd 96bd
00000040: 8369 633d 0e10 183d 9db7 74bd 6ed9 a4bd
00000050: 6fbf b73d 8d55 a83d 41d2 563d cc7e c03d
00000060: 0234 a93c 1194 793d 45cc 293d 358d 293e
00000070: 64c5 40bd d081 03be 8f35 4bbe 59c8 80bd
00000080: 2111 dabb 3c93 9a3e 7be8 8c3d 2f3c 943d
00000090: 8f37 f03d b003 923e 2b36 abbd 28f0 343e
000000a0: 3045 c03f 57ed 4fbf 235e 4e3e ca13 3d3e
000000b0: 2e4f 033c c48c 01be dec4 9cbd dd98 733d
000000c0: f177 ce3c 10c0 8ebd bfa1 26bd 2634 44bd
000000d0: 4723 4c3d f367 aa3b 88ec 393e 8579 6ebd
000000e0: 9d54 d83d fbe3 543e 741a 55bd c5d4 013e
000000f0: 23a6 f8bd fd1b b23c 1ea1 be3e 3a94 823c
00000100: 9e91 96bd 44c7 5d3d 3740 6e3d 8a2e 333e
00000110: a9a0 113e 1b02 1abe 886d e33d 2331 e8bf
00000120: eb12 7b3e bf88 1bbe efcf 543d cbd7 233e
00000130: 01a3 783e 177d 9b3c ae42 aa3c a08c 853c
00000140: ec95 2d3c ef05 4f3d 288a 20bd bb91 453d
00000150: 4cab 9b3d 5531 603d 354e 0c3e cdaa 76bd
00000160: adf7 71bd abeb fb3c 659d e83d 3e38 86be
00000170: d0db acbd e1da 753e b9d8 643d cc06 65be
00000180: bb66 ac3d 8ce9 d4bd aa59 04be 1a24 af3d
00000190: e87c 2e3c 7764 803e be3f 90bf 7da6 f13e
000001a0: dff9 5abe 3f65 93bd 1370 173d a911 99bc
000001b0: 173f 0fbd 7d53 4dbd b992 f73d fb50 b5bd
000001c0: c299 d63d 5781 bb3d 88f2 d9bc 2079 e03d
000001d0: 0b55 823d 8a3e 453d 1496 a9bd 881a 1fbe
000001e0: 6f80 0bbd 5e37 523d 3d48 2e3c d45d abbd
000001f0: c3d7 b33b 3e12 833d 07b1 0f3f 4b44 cabd
00000200: 46ee 683e f7f3 993e f7ad 273c 146d 573e
00000210: 5648 813e d966 a6bf 92b6 a93f 2f81 73bc
00000220: c0a7 693d 984b 78be fbd5 6c3e 4195 a5bd
00000230: 3b18 40bd 229c 07bc d8b9 a7bd 7a1f fa3c
00000240: f08d 923d f65b 97bd 6e73 69bd adef 963d
00000250: f965 c5bd cc19 a6bd 621a d23d a057 47bd
00000260: 7bcc ecbd e7ad 0a3d eeb2 873d f4a6 83bd
00000270: 2058 09be 94e7 dc3f dd10 b93d c45c 9cbd
00000280: 5333 ab3d a522 363c 39b3 6dbd 012a 15bd
00000290: 0a05 f33e e72d f03f c99a 7b3d 1227 563d
000002a0: 1961 d83d 584b fc3c d8a4 67bd d04d 853c
000002b0: 3a71 bf3b 07ef bfbc 823b 953a b800 eaba
000002c0: 481f 94ba 17db a3ba abd9 413d afdf a93c
000002d0: 6350 c5bc edce babb da7f 1e3d 7c2e 0e3c
000002e0: 2078 4fbd fb69 46bc 57d7 15be a21f 893d
000002f0: 0d75 07bd 368d b1bd a35c e3bd 8ac3 953d
00000300: 59eb c6bc 687c 1b3e d9b1 6f3e ae44 b13f
00000310: d6b7 21bf f267 bb3d acf3 0abd 92dc 5fbe
00000320: ab77 813d 65b8 053d 7221 ec3c 1916 53bd
00000330: 8935 973d c47a 91bd 02c6 85bd aef1 923c
00000340: b73e a0bd 6c19 e6bc 204b a9bd 4f27 bcbd
00000350: 1176 31be d03c 633d 44d4 95bd d4e9 efbd
00000360: 75fb ff3d 0656 8abe 0fb6 89bd 3c5c 263e
00000370: f48f ba3d 3885 1cbd 960d 4d3d a79f 583d
00000380: 32fa 573e 48cc 13be 38bb 933f 643f a53f
00000390: 103e d53d 344c 9c3d 493b c0bd c955 1ebd
000003a0: 0558 5a3d 364b 23bb dd60 10b9 a975 e43c
000003b0: a698 0c3c 3247 12bd 4ec1 46bc baa8 c8bb
000003c0: b860 87bd 4a12 9b3d b42f 56bc 5614 5cbe
000003d0: 1a9b 483d f708 a63e e8b8 073e 7065 08bd
000003e0: 219f 2abe 87e0 0c3e ad09 72be 62d9 0abd
000003f0: 8102 20bd b25e f73d 0a35 423d 7287 003e

critic.0.bias f4 [128]
-0.10877347 -0.16337211 0.11776504 -0.03378966 -0.15301952 -0.07193616 -0.028582437 0.062173657
-0.15771973 -0.3315391 0.015809134 -0.41349715 -0.24395645 -0.18845493 -0.016756814 -0.047139
-0.2235989 0.034946755 0.055200476 0.058895733 0.13315837 -0.1074639 -0.09600739 -0.19505353
0.009873444 -0.2464184 0.029240193 -0.27182335 -0.2160028 0.14849293 0.013990223 0.05884866
0.04805168 -0.14594272 0.3356806 -0.2656491 -0.31570387 0.24273649 -0.32891908 -0.26033214
0.03983428 0.524812 -0.2340373 -0.21315043 0.018670471 0.13137265 0.1952725 -0.18071072
-0.3286538 0.08684761 -0.22759904 -0.13811138 -0.21757276 0.12753955 -0.14990713 -0.2617738
-0.026504314 -0.18681675 0.14883536 -0.19475888 0.049297843 -0.049469303 -0.1432361 -0.19226973
-0.022134954 -0.12412062 -0.07845185 -0.10190275 -0.2548913 0.074942425 -0.22097374 0.20186219
-0.11992718 0.39404193 0.03237239 0.04606062 0.33732277 0.053441633 0.058651432 -0.1623262
0.15956998 -0.07646104 0.002139949 0.6111422 -0.3720655 0.35018197 0.14386356 -0.061123602
0.15969484 0.17477351 -0.26522654 -0.023678144 -0.22606455 -0.16368517 -0.15654226 0.33241692
0.44965264 -0.11986368 0.025376337 0.08763507 -0.062794104 -0.103182085 -0.110340334 -0.10880281
0.20313327 -0.20771031 0.29593533 -0.16350864 -0.00074429304 0.117435455 -0.23701927 0.04532525
-0.14499049 0.053831577 -0.06971084 -0.07580667 -0.0011533821 0.070108846 -0.22226748 0.10244484
-0.023410102 0.014638003 0.08317673 -0.010281663 0.15457976 -0.23055576 0.05119008 -0.07911988
00000000: a0c4 debd 054b 27be cc2e f13d 0767 0abd
00000010: 26b1 1cbe 4453 93bd b725 eabc cea9 7e3d
00000020: 4881 21be 7ebf a9be 2882 813c e6b5 d3be
00000030: b8cf 79be 54fa 40be 9645 89bc d314 41bd
00000040: 1cf7 64be 5424 0f3d e519 623d a73c 713d
00000050: ab5a 083e 0916 dcbd 869f c4bd 1dbc 47be
00000060: 3ac4 213c 1b55 7cbe 2189 ef3c 6e2c 8bbe
00000070: d72f 5dbe 880e 183e 4037 653c 4b0b 713d
00000080: d7d1 443d 0272 15be 54de ab3e 2903 88be
00000090: f0a3 a1be ea8f 783e 1568 a8be 414a 85be
000000a0: 4529 233d 145a 063f 79a7 6fbe 1b44 5abe
000000b0: d1f2 983c 8d86 063e 84f5 473e 3b0c 39be
000000c0: 5045 a8be 29dd b13d b90f 69be 126d 0dbe
000000d0: 65cb 5ebe ba99 023e 4181 19be 3707 86be
000000e0: 931f d9bc e44c 3fbe 4c68 183e df6e 47be
000000f0: 89ec 493d 53a0 4abd 7cac 12be 5be2 44be
00000100: 5d54 b5bc f432 febd 5dab a0bd 64b2 d0bd
00000110: 1d81 82be 6a7b 993d f146 62be f6b4 4e3e
00000120: 629c f5bd ddbf c93e e998 043d 10aa 3c3d
00000130: 92b5 ac3e 9de5 5a3d 7c3c 703d d738 26be
00000140: 5066 233e 9b97 9cbd 633e 0c3b d173 1c3f
00000150: 5f7f bebe 0d4b b33e f850 133e be5c 7abd
00000160: 0b87 233e d4f7 323e c6cb 87be abf8 c1bc
00000170: 777d 67be 169d 27be 9d4c 20be 8d32 aa3e
00000180: df38 e63e 177b f5bd 09e2 cf3c 047a b33d
00000190: 329a 80bd 2151 d3bd 1dfa e1bd 02d4 debd
000001a0: 2b02 503e 03b2 54be d684 973e cf6e 27be
000001b0: a91c 43ba 0082 f03d 2eb5 72be f8a6 393d
000001c0: 6378 14be 807e 5c3d 8fc4 8ebd 8740 9bbd
000001d0: 152d 97ba 3a95 8f3d 169a 63be 9ace d13d
000001e0: 8bc6 bfbc 3cd4 6f3c 9058 aa3d 6c74 28bc
000001f0: 284a 1e3e cf16 6cbe b0ac 513d 9b09 a2bd
