ISAAC_NOGIT/logs/rsl_rl/traquad_flat/2025-09-16_12-39-05/exported/policy.onnx (onnx, 153859 bytes, 8 tensors)

actor.0.weight f4 [128, 31]
00000000: f6c8 f8be 8fae c2bd 5d9a c83c 4597 163f
00000010: 9f90 f33e dbb8 e7bc 6290 603f ba69 b0be
00000020: aee3 aabd c4aa 013f dfb6 50bd e9ee 8cbf
00000030: d023 83bf b161 a23f 9951 9f3e 712e aebd
00000040: c969 09be 12b9 ab3e 72a2 4e3e 5829 263d
00000050: 2e56 1dbd e27d 1cbd 04aa c7bd 9561 92bd
00000060: 0612 0c3e a3b1 0b3d 7326 3f3d b8c5 4ebd
00000070: 69f4 643d 987b 21be 07e7 d6bc 67fd 81be
00000080: 65c6 f33d 9273 df3e c49a 0b3e f7fc 6f3b
00000090: fae4 ae3b 19d8 02bd e1df 983e 57dc b33e
000000a0: 4ef8 0dbd fa41 0bbf 76a4 71bf 313f 883f
000000b0: 77b1 383f 9640 c6be ff84 55bd a778 333d
000000c0: 9c93 a53e d8df 85be a032 ce38 48eb fd3c
000000d0: 15c4 e7bc 780a aabb 3829 c93e ba93 a83e
000000e0: 5fa0 343f ba83 a3bd 8669 7dbe 5dc7 02be
000000f0: 0e45 1a3e a6c9 ffbe 7499 ff3d 6b56 f63c
00000100: aa65 fd3e 2a84 d53c c0d8 d23d e7ae 20bf
00000110: 5fa0 193f 8e32 963e 47f6 b93b 37a0 cc3f
00000120: 6626 4fbe fa7a 8fbe 2b49 093e 7564 61be
00000130: 691f f83e 1df3 763d bbd3 c4bd b0f7 923e
00000140: e62e 90bd b73f 0b3c 1581 9e39 3122 633d
00000150: debd 86bd bfa9 15be 0e5e 563e 34d4 e8bd
00000160: b6a9 d1be 0f30 28bd 1348 64be c93c 1bbe
00000170: 3b95 003f e6ac 493d 507d 79be 57f1 073f
00000180: d0e0 ab3c dd46 5cbe b06d a9bd 4994 b4be
00000190: 67e1 50be cdfd 213e e1cc bfbf 695f d8be
000001a0: faa6 833f 22ce b4bc c979 8abe 78ef 98bd
000001b0: 9091 153e 3a5d 203e e551 373e cacf 353e
000001c0: 7b85 cb3c 19e1 0b3d 8b35 b7bd 7c91 063d
000001d0: 55fa bf3d 82b2 763e 9a86 013c 67d2 a33e
000001e0: 78fd 273e a186 4abe 711b 203e 8f81 aebe
000001f0: a3b2 223f ceeb b83e be68 33bf b495 44bf
00000200: a70e c43c b46f dfbd 9462 6fbf 3456 893f
00000210: 6934 04bd 184a ad3f 5a90 35bf 5b16 f03e
00000220: 4b87 f43f a2f2 63bf 6b3c 7bbf 1122 403e
00000230: 44f7 263e d4d1 a1be c279 bd3c 48ba 143c
00000240: 0ccc b03a 01f2 3fbb 337d bbbc a4c1 95bd
00000250: 10e9 63be 6776 913e 0720 55bd db77 81be
00000260: 18eb 67bd 8078 b5bd 22ea 9f3e e4c3 053e
00000270: a741 ba3e d2b5 623f 8ff0 13bf ff54 24bd
00000280: cf46 0fbd 83f2 203f 504e 623f 5b2a 3abd
00000290: 4928 a73e f862 5ebe dffc 54bf 280d c13e
000002a0: 928c 22bf 0c50 763f 815b 94bd dcdc 403e
000002b0: d1b1 81bd 416b 5a3d d9e5 923d 2e13 cc3d
000002c0: 897a 5abd c39a 1a3d eee8 ebbd 6b9a ec3d
000002d0: d592 33bc 8404 8bbe 6515 8fbe cc9a 82bc
000002e0: b160 053e 0b9b 0a3d 9c9f 9dbe b898 b53e
000002f0: 3d0e 9f3f 150b 07bf d2ed 0c3e d91f 33be
00000300: 4087 fa3e 159f a73f 875b 393d 9f5e 0f3f
00000310: 657a d83e 31d0 873d 9c4e 71bf 6d44 84bf
00000320: 8a92 ed3f e4fb 373e c495 e9bc fe14 35be
00000330: 8412 b73e d6f6 033a be78 45bb 7d35 cabb
00000340: 2aab 573b 9bd8 883c 3aaf 4e3e 503f b33d
00000350: 70cd 123c 1131 32be 7e1e 2dbc fcf7 593d
00000360: d1eb 36bd 2977 533f bda4 94bd 6ccd 96bc
00000370: 7821 c3be 89fa 1ebe 2833 22bb 9a53 b3be
00000380: cff3 253f 5b82 8ebd aa19 0340 17c1 3e3e
00000390: 5a1c 443e c369 b63f 5318 48bf 6f3f c8be
000003a0: aad8 013d bf82 ee3d dbbd 3e3d 811f 563d
000003b0: 0b5a 51bc 8c20 7fba 91ba bebc f1aa 4dbd
000003c0: 42b4 84bd 45db 10be 6d1e 81bd b0d2 253e
000003d0: 5d27 e5bc 55e3 d5bd af36 c33c 1d6b ea3e
000003e0: bca9 2f3d d638 113f 22be 183d 7fad 68bf
000003f0: 5abd a3bc f57c 8fbe 8998 3cbf 51b3 563f
-0.4859082 -0.09505951 0.024487669 0.5882457 0.47571275 -0.028286388 0.8772031 -0.34455663
-0.08344208 0.5065119 -0.05095565 -1.101041 -1.0245304 1.2686063 0.31116942 -0.08504952
-0.1341926 0.33539635 0.20179155 0.040566772 -0.038412265 -0.03820599 -0.09749225 -0.071475185
0.1367875 0.034104954 0.046667527 -0.050481528 0.05589715 -0.15769804 -0.02623321 -0.25388643
0.11903075 0.4364286 0.13633257 0.0036619285 0.0053373547 -0.031944368 0.29858306 0.35129043
-0.03466063 -0.5439755 -0.9439157 1.0644284 0.7214579 -0.3872115 -0.052128788 0.043816235
0.3233918 -0.26147342 9.832275e-05 0.03099598 -0.028291741 -0.0051892363 0.3928926 0.32925206
0.70557207 -0.07984109 -0.24747285 -0.12771364 0.15065405 -0.49958533 0.12480441 0.030070504
0.49491626 0.026063997 0.10295248 -0.6276688 0.6001033 0.29335445 0.0056751105 1.5986394
-0.20229492 -0.2802351 0.13406818 -0.22010978 0.48461464 0.060290445 -0.09610697 0.28704596
-0.07040195 0.0084990775 0.00030232282 0.05545253 -0.06579183 -0.14615534 0.20934317 -0.113685995
-0.40949792 -0.041061457 -0.22293119 -0.15159906 0.5022771 0.049237154 -0.24364209 0.5310263
0.020981222 -0.21511407 -0.08272874 -0.35269383 -0.20398484 0.15819474 -1.4984399 -0.42260292
1.0285332 -0.022070948 -0.2704604 -0.0746755 0.14606309 0.15660563 0.17902334 0.17755046
0.024843922 0.034150217 -0.089457594 0.03285359 0.09373919 0.24091533 0.007905627 0.31996462
0.16405284 -0.1977792 0.15635468 -0.3408322 0.6355383 0.36117405 -0.700817 -0.7679093
0.023932768 -0.109099776 -0.93509793 1.0729432 -0.032276545 1.3538237 -0.7092339 0.46892056
1.9103788 -0.89042103 -0.98139066 0.18762995 0.16305262 -0.316054 0.023129348 0.009077616
0.0013488545 -0.0029288533 -0.022886848 -0.07312325 -0.22256875 0.28410646 -0.052032497 -0.25286755
-0.056620687 -0.08860874 0.31233317 0.13063008 0.36378214 0.88558686 -0.5778894 -0.04012012
-0.034979638 0.62870044 0.88400745 -0.04545055 0.32647923 -0.21717441 -0.8319835 0.3770535
-0.63495743 0.9621589 -0.072440155 0.18834251 -0.06332744 0.05332494 0.07172746 0.09964596
-0.053339515 0.03774525 -0.11519037 0.115528904 -0.0109603 -0.27151883 -0.2794601 -0.015942954
0.13025166 0.033839267 -0.30785835 0.35468078 1.242622 -0.52751285 0.13762596 -0.17492618
0.48931313 1.3095423 0.045253303 0.56003755 0.4228088 0.06631506 -0.94260573 -1.0333382
1.8560345 0.17967182 -0.028513797 -0.17683789 0.35756314 0.0005034035 -0.0030131782 -0.006170927
0.0032908418 0.016704848 0.20184031 0.0875231 0.008960113 -0.1740153 -0.010566352 0.053215012
-0.044658486 0.826037 -0.07257984 -0.0184085 -0.38111472 -0.15525259 -0.002474973 -0.3502472
0.6482515 -0.06958457 2.0484414 0.18628345 0.1915144 1.4251026 -0.78162116 -0.39110896
0.031700768 0.116460316 0.04656778 0.05227614 -0.012777816 -0.0009732328 -0.023282321 -0.05021185
-0.06479694 -0.14146145 -0.063046314 0.16193652 -0.027972871 -0.10443751 0.023829786 0.45784846
0.04288648 0.5672735 0.0372907 -0.90889734 -0.01998775 -0.28025022 -0.7367025 0.83867365

actor.0.bias f4 [128]
00000000: 2057 b63d e3ef 9cbe 39a0 0abe ef4f 09be
00000010: f031 73bc 4738 7cbd 9065 033d 53e1 c2bc
00000020: e4de 4ebe c0f4 373e e998 95be a1fd 8dbd
00000030: 525a 6dbd 030e df3c 45d3 f3bd 17c9 f63d
00000040: fde8 8bbd e887 f4bd 761f 13be 8719 103c
00000050: e3ab 533e 42da 1d3b d55a c33d 70ac c13c
00000060: 3f6f 893d 1d50 33bd b906 2bbd 9ba2 17bb
00000070: d95b 49be 36bb 9ebd 39b2 41bd 0c3c e1bd
00000080: 1443 debd 984a e23d ee19 41be cd80 943d
00000090: ce9b 133e d958 ddbd fd49 193e 5491 193e
000000a0: b7d1 e53d 4432 60be 6ac4 75be 3bc4 74bd
000000b0: ebee 1d3d 5018 1d3d b693 b0bc 9387 863c
000000c0: 5c37 103c 7e94 34bd 21fb 8cbd 6f97 d9bd
000000d0: 45dc aa3c c69a 923d 35d4 4bbd 595b c23d
000000e0: a9d2 80bc 414b ce3c d55a 04be 8558 293e
000000f0: e417 7bbd 741c b2bd 37b9 eebc 27b9 d23d
00000100: c4f0 70be 4383 27be 816b e3bd 7b55 0dbd
00000110: a5de f43c c157 193d 690f 5dbe 4e2d b8bd
00000120: f8a3 053e fe62 bfbd b4c2 21be 5568 0abe
00000130: eeb8 993d 34d8 12be 742d 51be 8bea 5ebc
00000140: 2ebe d7bd 5e4d 70be cc4a 9dbe 0d9c 4d3d
00000150: 3e5a 60bc 25a6 f2bd 2b5a 773c 8e5d 4ebe
00000160: e1f1 0cbc 383e 09be 1c74 4bbe 9cfb f2bd
00000170: c4a2 893e c7f9 54be 6332 c5bd 0ba4 39bd
00000180: eb27 59bd f592 3b3e f13a 933d 623b 25be
00000190: bb73 fa3d b1ff 003e 793c c43d 7066 8dbe
000001a0: 6f4b a4bb d11d bcbd 3d71 37be eb39 a13d
000001b0: 2229 0ebe 63d9 7b3d c11c 92be 5a13 213d
000001c0: b6ab bebd abd4 c9bd b263 3abe ee9f 02bb
000001d0: 7acc febd 5d8e 023c 1e1a 6ebe f50a febd
000001e0: 904c 8a3e 97a2 00be 2d11 edbd c688 b5bc
000001f0: 529c 95bc 7925 8e3d 5a2c 5ebd d8b0 b23d
0.089033365 -0.3065177 -0.13537683 -0.13409398 -0.014843449 -0.061577108 0.03207928 -0.023789084
-0.20202214 0.17964458 -0.29218224 -0.069331415 -0.057947464 0.027228361 -0.11905531 0.120500736
-0.06831548 -0.119399846 -0.1436747 0.008795149 0.20671038 0.002408639 0.09538809 0.023641795
0.06710672 -0.043777574 -0.041754458 -0.0023137692 -0.19663943 -0.077505514 -0.047289107 -0.10997781
-0.10852638 0.11049384 -0.18857548 0.07251129 0.14414904 -0.10807962 0.1496963 0.14996845
0.112216406 -0.21894175 -0.24000707 -0.059757452 0.038557928 0.038353264 -0.021554809 0.016422069
0.008802261 -0.044086926 -0.068838365 -0.10624587 0.020856986 0.07158427 -0.049762923 0.094900794
-0.01572545 0.025182368 -0.12925275 0.16537674 -0.06130208 -0.08696833 -0.029141052 0.10289221
-0.23529345 -0.16358666 -0.11104489 -0.03450535 0.029891321 0.037437204 -0.2158791 -0.08993016
0.1305083 -0.09345053 -0.1579693 -0.13516362 0.07505976 -0.14340287 -0.20427495 -0.013605724
-0.10534321 -0.23467013 -0.30721128 0.05019765 -0.01369339 -0.11848096 0.015097181 -0.20152876
-0.00860259 -0.13402641 -0.19868511 -0.11864397 0.26881993 -0.20798407 -0.09628751 -0.04532246
-0.053016584 0.18317778 0.071889766 -0.16135934 0.12229105 0.12597539 0.09581847 -0.27617216
-0.005013875 -0.091853745 -0.1791429 0.07872375 -0.13882878 0.061486613 -0.28537562 0.039325096
-0.09310095 -0.09855016 -0.18202093 -0.0019931751 -0.124413446 0.007968512 -0.2325215 -0.12404434
0.27011538 -0.12562023 -0.11575542 -0.022159945 -0.018263016 0.06940741 -0.054241516 0.087251365

actor.2.weight f4 [128, 128]
00000000: 047d 92bd e7e4 febd 0680 0d3c 7cbf 21bd
00000010: b4a4 7bbc 6c0c e9bd b3a0 0cbe 9856 1d3c
00000020: f846 5a3c 147c c63c 9969 7ebd 0d4f e33b
00000030: f807 c03a ff60 71bc 3a51 7d3c 495b c0bd
00000040: 1bbf 673d 6d8e 23be 3e0b 9e3d ebff 353d
00000050: 7852 4d3c d4ce 60bd 9de4 c33d 7e57 83bc
00000060: 6fe5 0b3d 92e3 a1bc 7298 213d 3573 8e3c
00000070: 1f6e 61bd 59b6 793d 9269 8bbc 8daf 953c
00000080: 9698 25be 8c79 613c 3599 8e3d 6f8e aabd
00000090: 2dfb d43c c47d 93bd 2940 e6bd a9eb a9bd
000000a0: 35cf 5c3d 624a f9bc ca65 ce3c e9ee a23c
000000b0: 50f4 883d 7311 693d e63b b6bc 7a67 833d
000000c0: b29f 50bc 52e9 873c c57b d8bd e4ce d0bc
000000d0: 3001 423d 6100 63bb 0987 73bd 8324 423d
000000e0: 4460 3c3d 7f38 3abd cb02 293c d1dd b1bc
000000f0: b753 07bd 8329 d83d 1d9f d83c 81d8 02bd
00000100: 72ca d5bd 1fbd 403d 606c 20bd 7862 96bd
00000110: af8c 09bd 0bff 0fbd a9b4 c4bd 624e 6ebd
00000120: 3237 00bc dc1b d03c a44f 82bd e551 51bd
00000130: b49f 9bbd bdc2 11bd d0b8 edbd 1b09 8d3d
00000140: 62eb c3bd d81d 493d 119b 4cbc b782 aa3d
00000150: 4ab5 b23d b8e4 c53d f1b6 a0bd 2a0d d53c
00000160: 37de 5ebb ba3d 91bc 0e98 aabd 0cb3 143d
00000170: 4d95 a1bc 5c0b 473c ff2e bb3c 7eb1 df3d
00000180: f570 75bd db8c 64bc cc9f b8bd 2b47 98bd
00000190: acce 82bd 247f 04bd ac68 443d 2231 f23b
000001a0: 9bd8 1bbe 43bd 3c3d cb17 b7bd 1d45 0cbd
000001b0: ecfb ba3c 5da1 8bbd 6925 823d c3c6 bcbd
000001c0: 0385 773d 1b1c 153d 6b1d 7cbc 58bf dbbb
000001d0: 0fd3 e83c 5b36 e4bd 10a7 1bbd ac7c 053a
000001e0: 60c1 f93d 445e a6bd 4de8 a7bd 9256 8d3d
000001f0: 8ca0 9dbd eca3 18bd 6aec dbbd 27d5 06be
00000200: 8d71 b5bd c3f6 fabd c0a3 013d e99f 0e3d
00000210: 7226 003c 6199 ebbc 64e3 c1bc d98b bdbc
00000220: a693 a33d 0720 903d 316b 933c d7c7 a3bd
00000230: d54d c4bd 0ccb 203d 591f 30bd 3332 973c
00000240: 17ab b2bd 3bd9 763c 51d5 d1bd 34ce 0a3d
00000250: b6d1 aa3c e448 6ebc 9b89 783b 1022 833a
00000260: c763 d6bd 80dd 10be 3b7b 033c 907d bdbc
00000270: 10f6 c2bb 5632 3ebd c9b1 cdbd 30e2 dabd
00000280: 27d3 0abc 5a37 e9bd b263 6b3d b631 1d3b
00000290: b434 1cbd 65df e1bd c17e 92bc 2ec8 1d3d
000002a0: a97e 8bbd 1781 1cbe f527 623c 496c 6a3d
000002b0: b5e2 103d 8444 80bd eeb6 583d e269 17bc
000002c0: 0e64 debc 9358 ae3c c695 173d c10e afbd
000002d0: 045b f0bd f825 b8bd e6b1 58be f2b5 ecbd
000002e0: f9c0 bbbd 7cb4 b3bc 5a01 76bc 4874 f6bd
000002f0: 20a8 2cbc b90c 77bb 471f 833c 960a 4cbe
00000300: e359 2cbd 16bd 81bd ec77 913d 2192 953d
00000310: eb35 4ebd ad50 b33d 1822 13bd d7f3 61bc
00000320: 3ea9 80bc ab03 b7bd ba8b d7bd 2313 683d
00000330: 4920 c43c 62ad b7bc 0790 9e3d e992 fdbd
00000340: 5076 0ebd 563f 0abe 7a06 febb 37be c33c
00000350: 65ec 72bc 4d07 0ebc a0bb bb3b 059b 1abb
00000360: 2698 54bc cfc4 e6bd f745 10bd 547c 103c
00000370: 74f6 29bd 291c 03be e085 d1bd fad4 d43d
00000380: 0a85 2ebd 98dc 08bd 45d2 4a3d 8215 a83d
00000390: 7e79 52be fb6b aabd 67b5 d1bd 92d0 073c
000003a0: 32d7 513a 81eb c63c 5ec9 f5bc 90d1 803d
000003b0: a7a2 acbd 4e80 983d 3e21 c3bd d42c 01be
000003c0: d04d a53d 686d 943d 5411 243e 91e9 b3bd
000003d0: f224 493d f152 dd3c 17a7 013c 0686 5e3d
000003e0: 38dc b9bc b214 b9bd b7ad a5bc 19e0 81bd
000003f0: 1072 c1bd b046 b93d 8afe 8dbd b51a 11be
-0.07152751 -0.124460034 0.00863648 -0.039489254 -0.0153590925 -0.113793224 -0.13733177 0.009603165
0.013322584 0.024229087 -0.062112425 0.006936914 0.0014650812 -0.014732598 0.01546126 -0.09392411
0.056578737 -0.159723 0.07716988 0.044433516 0.012531869 -0.054884747 0.09565089 -0.01603293
0.03415435 -0.019761834 0.039452024 0.01738892 -0.05503666 0.060964916 -0.017018113 0.018272186
-0.16171488 0.013761889 0.06962816 -0.08327948 0.025998676 -0.07201722 -0.11242706 -0.08296902
0.053908546 -0.030430976 0.025195021 0.019889312 0.06687224 0.056901406 -0.022245359 0.06416221
-0.012733387 0.016590748 -0.10570482 -0.025489278 0.047364414 -0.0034637677 -0.05945495 0.0473981
0.045990244 -0.045464035 0.010315607 -0.021712216 -0.03303882 0.10554793 0.026443059 -0.031944755
-0.10439004 0.04705536 -0.039165854 -0.07343 -0.033581432 -0.035155337 -0.09604771 -0.05818022
-0.00782566 0.02540391 -0.063628465 -0.05110349 -0.0759882 -0.035586108 -0.11607516 0.06886502
-0.0956638 0.049100727 -0.012488143 0.08325713 0.087259844 0.09662765 -0.07847393 0.026007254
-0.0034006962 -0.017729629 -0.083297834 0.036303565 -0.019724512 0.012148704 0.022849558 0.10922526
-0.059922177 -0.013949598 -0.09014854 -0.07435449 -0.06387076 -0.032347813 0.047951385 0.007391111
-0.15219347 0.04607893 -0.08940085 -0.0342456 0.022825204 -0.06817887 0.06354792 -0.09217598
0.060429584 0.036403757 -0.015387873 -0.0067061596 0.028420953 -0.1114318 -0.03800112 0.0005092125
0.121950865 -0.081234485 -0.08198605 0.069012776 -0.076966375 -0.037265703 -0.10738452 -0.13167249
-0.08859549 -0.12254097 0.031650305 0.03482047 0.007821666 -0.02875966 -0.023667999 -0.023137974
0.07987146 0.07037359 0.017995449 -0.07997101 -0.09585158 0.03925614 -0.042998645 0.018456554
-0.08724039 0.01506644 -0.10245765 0.033888057 0.020851951 -0.014543746 0.0037923816 0.0010004658
-0.1046825 -0.14146996 0.008024986 -0.023131162 -0.005949743 -0.046434723 -0.100436755 -0.10687673
-0.008473194 -0.113875106 0.057468124 0.002398593 -0.0381362 -0.11028937 -0.017882707 0.038520984
-0.06811268 -0.15283619 0.013803472 0.057232175 0.035372455 -0.06263068 0.05290883 -0.009241553
-0.02714732 0.02128247 0.03700807 -0.08547736 -0.1173611 -0.08991617 -0.21161613 -0.11558141
-0.09167666 -0.021936648 -0.015014971 -0.12033898 -0.010538131 -0.0037696792 0.016006125 -0.19925913
-0.04207791 -0.063348934 0.071029514 0.073032625 -0.05034439 0.08755622 -0.035921186 -0.013791046
-0.015705701 -0.089362465 -0.105246976 0.056658875 0.023941176 -0.022421543 0.07742315 -0.123815365
-0.0347808 -0.13500723 -0.007752237 0.023894412 -0.014826869 -0.008668733 0.0057291538 -0.0023590934
-0.012975728 -0.11268007 -0.035222974 0.008818705 -0.0414948 -0.12803711 -0.10230613 0.103921846
-0.042607345 -0.0334135 0.049516935 0.08207227 -0.20554158 -0.08321377 -0.10239678 0.008289473
0.0008004784 0.024282219 -0.030003246 0.06289971 -0.08429461 0.07446347 -0.09527825 -0.12614757
0.08071482 0.0724743 0.16022235 -0.08784784 0.0491075 0.027017089 0.0079133725 0.054327033
-0.022688016 -0.090371504 -0.020224435 -0.06341571 -0.09445584 0.09046686 -0.06933315 -0.14170344

actor.2.bias f4 [128]
00000000: ef95 283b a8a8 2abe 75ad 82bd 4dc6 a4bd
00000010: c1aa c7bc 943c c6bc 564e a1bd a933 383c
00000020: 2084 edbd 879c 4bbd 0c5d 40be 597f de3b
00000030: 429e 883d b910 cebd e098 26bd d69d d1bd
00000040: b8eb 2d3d 1ae3 adbc 9910 493d 41f4 f63d
00000050: 8018 1dbe 10d0 b2bd 2ac2 e1bd 7f75 acbc
00000060: cb8e 253d 726d 85bd 5a78 52be c007 b7bd
00000070: 3b40 ce3d 7b46 5ebd cd0c 67bd 0f71 a53d
00000080: bf0c ebbd 15ed 723d 6fa3 5dbc 9119 12be
00000090: f568 bfbd 9c7e 68bd ed53 9fbd 4e81 c7bc
000000a0: ec69 31bd 8e67 c4bd d7f4 5b3d 925f ef3c
000000b0: 9393 8cbd f6d2 31be 0a72 9fbd c7df 16bd
000000c0: 59da 40be 80ca 26be bb07 a43d 5e29 cdbd
000000d0: b875 d4bd 7ca7 843d 4563 523d 4024 07bc
000000e0: 5593 9b3c 33cb 00be e280 bcbb 25ab 55be
000000f0: d531 f8bd 9606 a83d d300 d2bc eff0 bdbc
00000100: c9c8 1cbe 3026 cfbd 88f5 a63d ad5d ffbd
00000110: f66f 05bd 4440 6dbd f631 a9bd d1ef 08bb
00000120: cb0c 3dba e27f 24be 90b8 943d 7580 0cbe
00000130: c1d1 92bd 2ec1 433c ea74 02be b153 343d
00000140: 6cfe fbbd 8019 4abd 9fa2 a3bd 34e1 973c
00000150: 891e 2bbd 22e6 d43c 93e3 6abe e1be 09be
00000160: 588e 2fbd d92b d8bc 5ffe e13b 0f86 173c
00000170: 7658 86bd 6e09 16be 8dc1 cbbd fd4d 243c
00000180: 1899 07bc 3030 6d3c 4799 ad3d 81f9 f13d
00000190: 3ae3 d9bb f116 fdbd 7d0f b43b 1a1b ebbd
000001a0: 6a89 c6bd 5a38 24bc 7130 47bd b66a b73d
000001b0: 6e60 bebd ab05 48bd 4069 9dbb 22ed f0ba
000001c0: 5d86 27be c6fb 0bbd 5262 f8bd 6461 60be
000001d0: 153b 9b3d f15f 343d 619c 22be 2047 8ebd
000001e0: 1d01 9dbd b470 9a3d 309d acbc efb8 733b
000001f0: 943b 9cbd aae0 a93c 33fb e5bd 562d 31bd
0.0025724133 -0.166659 -0.063807406 -0.08045635 -0.024373414 -0.024198808 -0.078762695 0.0112427855
-0.115974665 -0.049709823 -0.18785495 0.0067900834 0.0667081 -0.10061783 -0.040673137 -0.10235183
0.042461127 -0.021226455 0.049088094 0.120583065 -0.15341377 -0.08731091 -0.11023362 -0.02105212
0.04041938 -0.06515016 -0.20553723 -0.08937025 0.10070845 -0.054266434 -0.056408692 0.08078205
-0.114770405 0.05930813 -0.013527735 -0.14267565 -0.09346191 -0.05676137 -0.077796794 -0.02435365
-0.043313906 -0.09590064 0.053700294 0.029220376 -0.06864085 -0.17365631 -0.07785423 -0.036834504
-0.18833293 -0.16288185 0.08009287 -0.10017656 -0.103740156 0.064772576 0.051364202 -0.008248389
0.018991152 -0.12577514 -0.0057526687 -0.20866068 -0.1211888 0.08204381 -0.025635159 -0.023186175
-0.15310968 -0.101147056 0.081523 -0.12469039 -0.032577477 -0.057922617 -0.082614824 -0.0020894895
-0.0007211684 -0.16064408 0.07261765 -0.13720877 -0.07168914 0.011947913 -0.12739912 0.044025127
-0.123043865 -0.049340725 -0.07990002 0.018540002 -0.041777167 0.025988642 -0.22938375 -0.13451721
-0.04286036 -0.026388096 0.0068967785 0.009248271 -0.06559841 -0.14652035 -0.09949026 0.0100283595
-0.0082762465 0.014476821 0.08476501 0.11815167 -0.006649402 -0.12357891 0.0054950104 -0.114797786
-0.096941784 -0.010023201 -0.04863018 0.089559 -0.09295736 -0.04883353 -0.0048038065 -0.0018381218
-0.1635985 -0.034175657 -0.12128128 -0.21912152 0.075796284 0.04403681 -0.15879966 -0.0694716
-0.07666228 0.07541028 -0.021071047 0.0037189086 -0.07628551 0.020737011 -0.11229553 -0.043256126

actor.4.weight f4 [128, 128]
00000000: 0514 7bbd 3779 37bc faa4 3abc 0c14 0b3d
00000010: c476 3e3d 319d cebc 9409 72bd 6581 853d
00000020: 367d e9bc 039f e3bd 52d4 813d 56fa 6bbd
00000030: c5be ea3d d80c d7bc 7743 81bd 3a79 a0bc
00000040: 8c8b 263a f0ac aebd e41a 93bd e339 92bd
00000050: a7e9 edbc 5228 2f3d eeaf 37bd e804 36bd
00000060: a886 0bbd b0aa e43c 28a7 79bc 4087 a6bd
00000070: 2140 e0b9 084e b93c a108 573c 8cff a5bd
00000080: 5188 b1bd 1b82 8bbd a367 bc3d 0348 89bc
00000090: 158c 093d 5751 afbd 6184 663c 2063 a43d
000000a0: aa45 9f3d 332b 7ebd 2571 b83d 8bfb 7f3c
000000b0: 4017 cc3b 6631 e63c bc25 70bd 9664 71bc
000000c0: 1287 f13b f44d c6bd a1cb 36bd e6bd 7b3d
000000d0: 5a48 f0bc 31d0 b53a 5979 1dbd 83cf 3c3c
000000e0: c2e3 7b3d b30d 9dbd 0e76 b73c a55d 6cbd
000000f0: 01c7 9cbc ed58 bd3d 0a31 fe3a dad9 82bc
00000100: 977a e9bd c493 453d 9abe 5d3d 89e6 4bbd
00000110: 2ce3 14bd 5e58 b63d b49c 6bbc 344f 1d3d
00000120: 1001 8bbc efa5 d9bd dbde 793d de33 a13c
00000130: 7b8a 163d 2378 503d 3e62 7bbd 7259 db3c
00000140: fe10 60bc 3aa0 e9bc 99fb 57bd 9a20 113d
00000150: 1a7a 42bd f8a4 4a3c 9267 353d fe65 9c3d
00000160: 739e 4a3d 55e4 d639 54fb 7f3d 9d50 d9bd
00000170: 4447 113d 3c0d 4c3d 6079 a63c 09cd 94bd
00000180: 379c acbd f38b 9e3d 776e e6bc 98ce 893d
00000190: fc04 c6bd 67e1 9abc 6d6a b23c 8e98 97bc
000001a0: cf36 98bd 7d0a 513d 0337 3d3d da81 02bd
000001b0: 50ff 0cbc c28c 1cbd 82fc ad3d d712 8b3c
000001c0: daec babd 5074 963c 07ea d7bd 95e8 f3ba
000001d0: 06b5 f53b 201c 4d3c 0f99 bf3c a97d a9bd
000001e0: cece 30bd 05e8 f6bd 6687 54bd 3ed0 edbc
000001f0: 60ef 013d b07a 28bd 1843 563d ff82 fdbc
00000200: 6aa8 50bd 0881 a23d c144 5d3d 93d5 68bd
00000210: 6990 7f3d f30a cf3c 7e3c 953d f68c 0e3c
00000220: a7be 08bc 5087 1a3d bdfa 8dbd a63f 08bd
00000230: 9356 013e c62b 673c a6ab 3c3d f59d 1cbd
00000240: 108b d43c 5007 773d 6b3f 043d 66ef a0bc
00000250: 5679 ddbd c9e0 1a3d b2fb 18bd 40ae 8dbd
00000260: 943d 39bd a7ef c63b e63c 3dbc 4f21 6fbd
00000270: 1786 c13d 3fb2 12bc 814d 1a3d 611b 9fbd
00000280: b84d 9f3d 6e50 aebb 49e8 673d ede4 8d3d
00000290: ac26 7f3d e6be be3d e545 27bc e92c 623d
000002a0: db9a f2bb 1b14 2bbd ca7f 89bc 17ba 443d
000002b0: 0dcb 9b3d 5100 09bc a2c0 f9bd 528a 19bc
000002c0: 330f 913d 3397 85bd a6a7 af3d 78e5 283d
000002d0: 3060 40bd 2b63 a7bd 68cc 023d 7385 41bd
000002e0: deff 8f3d 75a0 acbd 977b b13c 614a 893d
000002f0: 4174 703d 56ca c0bd c61c 61bc 2f27 693d
00000300: 76d7 cbbb 8fe3 57bd 8c3a e0ba c007 253d
00000310: 1d34 87bd 2fdd f4bc 4f7c c7bd 1488 613d
00000320: f371 523c 5fb3 08bc 2676 203b 888d 233d
00000330: b03e 683d 6614 aabd 56cd 53bd f953 dd3c
00000340: 70ee 293d c84e a33b d51d e63a 82a4 b0bc
00000350: cd19 50bd f073 473d a752 03bd ee24 1abd
00000360: 197d b93d 6033 19bd f99c 2bbc 93d9 233d
00000370: 002d c5bd 49af eb3b c836 883d 066e eebd
00000380: b01f 8e3d 1a4b e73c da32 b53c 0d04 9c3d
00000390: 5071 2dbd 8c3b 4c3d 4cae c23d 9f12 2ebc
000003a0: 3075 e6bb 0afd d93d 5f7a 4a3d cfdd a63c
000003b0: e0fe 613d fe9c 1a3c 9862 593c de09 8abd
000003c0: 960f 5bbd 4258 50bc a0d8 263d 6f63 b6bd
000003d0: 8d42 86bd 92a5 14bd e9d3 92bd 3faa 66bd
000003e0: 5d46 c83a 8eff 86bd 6504 163c 8231 aa3b
000003f0: f209 a6bd 76e4 8b3d 2bef 1dbd 12ea c43c
-0.06129839 -0.011198333 -0.011391873 0.033954665 0.046499982 -0.02522144 -0.059091166 0.06518821
-0.028502088 -0.111143135 0.06339325 -0.057611786 0.11462168 -0.026251242 -0.06311696 -0.019589055
0.00063531916 -0.08529079 -0.07182863 -0.07139947 -0.029042078 0.04276306 -0.044845514 -0.044438273
-0.034063965 0.027913421 -0.015237607 -0.08131266 -0.0004277239 0.022620216 0.013124616 -0.08105382
-0.086685784 -0.06811925 0.09199455 -0.01675797 0.03358086 -0.08560436 0.0140696475 0.08026719
0.07776959 -0.062052917 0.090059556 0.015623937 0.0062283576 0.028099727 -0.058629736 -0.014733454
0.007370838 -0.09682837 -0.04462779 0.0614604 -0.029331375 0.001387125 -0.038445804 0.011524084
0.061496504 -0.076686285 0.02239516 -0.057706494 -0.019137861 0.09245477 0.0019393277 -0.01597302
-0.11400335 0.048236623 0.05413685 -0.049780402 -0.03634946 0.089035735 -0.014380623 0.038405612
-0.01696828 -0.106273524 0.061003547 0.019678053 0.03675316 0.05089582 -0.061372988 0.02677605
-0.013675926 -0.028518785 -0.052730177 0.035431482 -0.047479726 0.012368433 0.044288225 0.07636641
0.049467515 0.0004098738 0.062495545 -0.10611079 0.035468355 0.04981731 0.020321548 -0.0726567
-0.08428233 0.07741537 -0.028128846 0.06728858 -0.096689194 -0.018906308 0.021779263 -0.01850536
-0.07432329 0.051035393 0.04619504 -0.031862117 -0.008605793 -0.038220175 0.08495428 0.016976757
-0.09127207 0.018366009 -0.10542684 -0.0018608744 0.0074983863 0.012518913 0.023388414 -0.08275921
-0.043165974 -0.12055973 -0.05188694 -0.029029962 0.031722426 -0.04113263 0.05231008 -0.030946253
-0.050941862 0.07934767 0.054020647 -0.056844305 0.06239358 0.025273776 0.072869286 0.0087006
-0.008346236 0.0377267 -0.0693259 -0.033263825 0.12630682 0.0141095575 0.046062134 -0.038236577
0.025945216 0.060309708 0.032287043 -0.019645404 -0.108141586 0.037812028 -0.03734941 -0.06918001
-0.04522474 0.0060710493 -0.011550164 -0.058381375 0.09449404 -0.00895363 0.03767157 -0.07768894
0.077784956 -0.0053196466 0.05661801 0.0692843 0.06229274 0.09313755 -0.010209535 0.05521861
-0.007403714 -0.04176722 -0.016784567 0.04802903 0.07607088 -0.008361892 -0.12194945 -0.009371357
0.07082977 -0.065229796 0.08576898 0.041234463 -0.04696673 -0.08173212 0.03193322 -0.047246408
0.07031225 -0.08429042 0.021665378 0.0670364 0.05870462 -0.094135925 -0.01373977 0.056922134
-0.0062207533 -0.05270725 -0.0017107292 0.040290594 -0.06601737 -0.029890625 -0.09740507 0.055061415
0.01284455 -0.008343547 0.0024484484 0.039929897 0.05670041 -0.08304672 -0.051709495 0.02701758
0.041487157 0.0049837567 0.0017556498 -0.021562818 -0.050805856 0.04869455 -0.032061245 -0.037632875
0.090570636 -0.03740251 -0.010474437 0.040002417 -0.09627724 0.0071925265 0.06651074 -0.11642079
0.06939638 0.028234053 0.022118974 0.0761796 -0.04234439 0.049861476 0.09505901 -0.010624557
-0.007033013 0.106439665 0.04943311 0.020369438 0.05517471 0.009436844 0.0132681355 -0.06740163
-0.05348166 -0.012716355 0.040733933 -0.08905684 -0.06555662 -0.036290713 -0.07169325 -0.056314703
0.0015279759 -0.06591712 0.009156321 0.00519389 -0.08107366 0.06830685 -0.038558166 0.024037395

actor.4.bias f4 [128]
00000000: e279 023c 2d96 73bb faa8 26bc 3d32 83bc
00000010: 9489 2d3c b67a 8b3d 8ab2 fabc 682e 38bd
00000020: ac8e 173b 21d9 cbbd 60aa d9bd dcab 4ebc
00000030: e81e bcbd 9975 88bd e1d5 3e3d 8dd9 e8bc
00000040: ff91 263d c4f2 f43b a26c 73bd ca61 4bbc
00000050: 3555 32bd 1d04 dd3c f4f7 a7bc 27cd 5c3d
00000060: 370f 323d 06e0 b2bd 144f 5bbd 31ff 8a3b
00000070: 6cc0 1fbe 9e65 a53d f6cc 53bd e77d 8d3c
00000080: 6beb 15bd 1524 bf3d f487 f83c 13f9 07bd
00000090: 19e6 65bc 0758 b13c 4311 91bd f13e 5d3c
000000a0: 93cb adbd e6cd 9dbd b850 cfbd 9197 ebbd
000000b0: 6cd9 b3bd 290c 74bd 09e4 0dbc c748 43be
000000c0: 4e7e 1bbd 81d6 433d 7c83 b2bd 9d6d 603d
000000d0: 9c96 163c 85f9 58bd 5f49 cbbb 1555 40bb
000000e0: fd2c 45bd 045c 9dbd d205 813c 391b 98bd
000000f0: 172b b4bc bad7 16bc 4d4a ffbc 9acb 7bbd
00000100: 6bcf 20bd 25fc 74bb 77d6 663c 1d14 a13d
00000110: b225 9b3d 6617 193d 6230 36bd 361d 66bd
00000120: 63d3 1fbd 98c7 b83d b840 40bc 6cf1 babd
00000130: 7593 12bd c450 a6bd 681e 5d3c ba98 5dbd
00000140: 048f b0bd 9c57 39bd cbf7 b33d ea94 afbb
00000150: 44f5 a5bc 883b a2bc f5d2 e03c 5ec0 923d
00000160: 73c6 e23c f8c0 f0bd 870c b53d 6dd5 383c
00000170: 49d9 01be d9cf 95bd c877 9abd dc91 8abd
00000180: 6dd9 afbd 1127 aebd 323b 17bd 1b4e 5e3d
00000190: 54ee 13bd 921a 4fbd 0f64 17be f8b6 1abc
000001a0: b704 c4bd 7dd9 043d 7d44 90bd 46ec 2d3d
000001b0: 9bf3 c83c 3fa8 cdbc cd26 fd3c a426 0ebe
000001c0: 7491 9fbc 1560 acbd ad6f c13c 4d9a 6a3d
000001d0: 9864 c3bd 289d fcbd ed7a 34bd 44e9 523d
000001e0: df36 023d 7f90 723d 050a c13d 9d41 853d
000001f0: e8c2 883d eaa9 18bd d5e5 b6bd 5ab7 ab3c
0.007963629 -0.003716837 -0.010172123 -0.016015166 0.010591883 0.06810515 -0.030602712 -0.04496613
0.002312581 -0.099535234 -0.106281996 -0.012614217 -0.091855824 -0.06663055 0.04659069 -0.028424049
0.040666576 0.007475229 -0.059429772 -0.012413451 -0.04353829 0.0269795 -0.020503975 0.053906586
0.04347154 -0.08734135 -0.05354221 0.004241847 -0.15600747 0.080760226 -0.051709138 0.017271949
-0.036601465 0.09333054 0.030338265 -0.03319652 -0.01403191 0.02164842 -0.070833705 0.013503776
-0.08486094 -0.07705288 -0.10122818 -0.115035184 -0.08781704 -0.05958191 -0.008660325 -0.19070731
-0.03796225 0.04781199 -0.08716485 0.054792035 0.0091911815 -0.052972335 -0.006203815 -0.0029347588
-0.048138607 -0.07683566 0.015749846 -0.07427067 -0.021993203 -0.009206707 -0.031163359 -0.061473466
-0.03926031 -0.0037381735 0.014089218 0.078651644 0.07575549 0.03737583 -0.044479735 -0.0561802
-0.039019953 0.090224445 -0.01173418 -0.09128079 -0.035785157 -0.081208736 0.013496019 -0.05410073
-0.08621028 -0.045249566 0.08787497 -0.005358328 -0.020258553 -0.019803777 0.027444342 0.071655974
0.027682519 -0.11755556 0.0884028 0.011281353 -0.12680544 -0.073150344 -0.07542378 -0.06766102
-0.085863926 -0.08503545 -0.036921687 0.054273706 -0.03611596 -0.05056245 -0.14784263 -0.009443037
-0.09571212 0.032433975 -0.07044313 0.042461656 0.024530223 -0.02510464 0.03090229 -0.13881928
-0.019478537 -0.08416764 0.023612821 0.05727606 -0.09540671 -0.12334663 -0.044062544 0.05149199
0.03179061 0.059219833 0.09425739 0.06506655 0.066778004 -0.037271418 -0.08930556 0.020961452

actor.6.weight f4 [8, 128]
00000000: 8410 e23c 6765 183c 69a3 3a3c 61c6 713d
00000010: cf25 083d 3e90 6b3c 32c3 c23c 3122 b1bc
00000020: 97bb a9bb 281e 96bc 6694 55bc 8403 333d
00000030: 2b07 c6bc a7c1 9838 2bfd 06bc c414 28bd
00000040: 341b 343b 2dd4 97bc deac 393c 22a5 06bd
00000050: d3de 863c 3313 c43c 8e59 33bd d634 a9bb
00000060: 138a d33c d0c0 7abd b479 41bc 0f50 b83b
00000070: 9a4c 63bd 462b 4dbc 1767 29bc 5161 1ebc
00000080: 4a63 2dbc bd59 0b3c 474a f43c 9bcc 63bc
00000090: db4d 86bc 25fe 2b3d c0ce a1bb 1ae9 5fbc
000000a0: da4c 46bc f875 213a f3cd a8bc 3fd2 0fbc
000000b0: 521f c2bc 4bc3 edbb d806 0a3b df3b 3fbd
000000c0: 8072 963b 28bf e9bb c55b f4bb c958 633c
000000d0: a2fb 1fbc 63fe 3abc aee2 a73c d53f 4dbc
000000e0: 0b31 67bc ae52 00bb 3bb9 6bbc d593 273c
000000f0: 3543 90ba 6e08 273a 01ca a03d a8ad 063c
00000100: 00a2 2cbc 8f7a 973c c4b5 a63b 94b4 35bb
00000110: de03 99bc 7e4f a63a 722f 5d3c b6ce 9fbb
00000120: 8686 3cba f4ac e23b 5b94 2f3b 90bf 21bd
00000130: a0b2 2f3b 34ef 42bb 9138 edbc 11e5 05bc
00000140: 34fc 4f3b 5dbb 50bc db16 4bbc a7c9 0abc
00000150: 8661 bbbc 607f f9bb 611f 0b3c ca7e 53bb
00000160: 8411 92bc d23a b03c 1328 cd3c 7f9c 6c3a
00000170: 7040 54bd c93e d1bc b6a7 283d f7af 273c
00000180: 3280 1e3c df7b 323d 95e4 18bc 1eab aabc
00000190: 3c93 103c 8f64 7a39 e107 8a3c 7198 54bd
000001a0: d2a0 b33c dd28 283c e930 8abb f1eb b9bc
000001b0: 77cd 22bc 617b 3cbc 03d1 16bc 6705 67bb
000001c0: b30c 8a37 2d4c c33c 482e 523c c449 50ba
000001d0: a768 573d 06d0 883c 34c2 b63c 5fce 5d3c
000001e0: 0ee9 0a3b a596 803c 4150 60bc cac6 96bc
000001f0: 2bc2 ae3c 68d2 6dbd 3b59 733d 8858 47bb
00000200: 6d79 0ebd a658 063b 7741 153d 818a 4c3b
00000210: 86b6 bfbc b41d 29bc 1a41 aa3c 00cb 0ebd
00000220: 7c77 563c 07ec 0b3d 4fca cebb 3f57 75bc
00000230: dd36 24bb 02b0 f33c 11f8 2db9 f494 853c
00000240: 8250 6cb7 f509 a13b 668a 00bb 7f11 08bd
00000250: b6d4 a53b 9cb3 74bd b8ea b23c 7595 f23b
00000260: 00d2 a33b 7db1 cebc 2225 5cbc e08f bdba
00000270: 3248 5cba 2cb7 43bd b733 fd3b c291 2b3d
00000280: 27d0 5db9 d8fc 38bb c8c6 21bd b0f5 3b3d
00000290: 6dbe c2bb 2b3b 4dbc 87ca b0bc fe9d ffba
000002a0: d7c2 cb3b 33e1 b5bc 6058 683d f04e 8f3c
000002b0: 1e52 1e3a 2477 06bb e57a 993a 744f 84bd
000002c0: 1840 b4ba afed eabb fd5e d2bb b0bc ddbb
000002d0: 32ed 983c b4a4 e9bc 171a 933c 9ccd 49bc
000002e0: 669e 6bbb 216a e739 c320 e23b 8e40 49bc
000002f0: 0234 413c bf89 3a3c 72c7 973b b624 01bd
00000300: 3d79 b63c 3ffb debb 3200 7d3b db34 2ebb
00000310: 602a 3b3c 9c39 ba3c 951b 113c 3c04 a1bc
00000320: 8c81 9c3b dd81 693c 7ea3 773b fd8a f6bb
00000330: a599 4c3d 0f92 403c 2b8d 89bd b5dc 933a
00000340: f35e da3c 4710 343b 052d 413b ba24 51bc
00000350: db12 99bc 818b 1b3c e126 c3bc 1cbc 4cbc
00000360: c0c0 0bb9 a12f 913c 96db 313a 281c 383a
00000370: f48e 5f3c eb32 23bb a33c 963a da36 34bb
00000380: 2031 523c 72c5 9c3c c5f9 083d 64c4 be3b
00000390: 79c0 b53c f2fb aabc bd8e 50ba d38a 33bc
000003a0: f89e 97ba a1a8 81bb 15fa 553b 3a8f e93c
000003b0: f878 afbb 2c3c f1bc a824 053c 6af6 73bc
000003c0: 15ce d63c 2637 09bd 4f29 e2bb 5f05 823c
000003d0: c8e0 55bd 534c adba 02d9 713c 6235 103c
000003e0: 113a c2ba 2823 e13a 6f33 023d 1f0d 7cbb
000003f0: 1627 503b 6a99 b73c c066 533d a69c 70bc
0.027595766 0.00930152 0.011391499 0.05902708 0.033239182 0.014377652 0.023774717 -0.021622749
-0.005179833 -0.018324926 -0.013035869 0.043704525 -0.02417334 7.2839954e-05 -0.008239071 -0.04103543
0.0027482035 -0.01853379 0.011332719 -0.032872327 0.016463673 0.023934936 -0.043786578 -0.0051637692
0.025822675 -0.061219037 -0.011808801 0.005624778 -0.055492975 -0.012522524 -0.01033952 -0.009666757
-0.010582754 0.008505282 0.029820574 -0.013903762 -0.016394546 0.041990418 -0.0049379766 -0.013666416
-0.012103284 0.00061592413 -0.020606017 -0.008778154 -0.023696575 -0.0072559468 0.0021061208 -0.046687957
0.004591286 -0.0071333833 -0.007457229 0.0138761485 -0.009764584 -0.01141319 0.020493831 -0.012527426
-0.014110814 -0.001958053 -0.014387424 0.010228117 -0.0011006357 0.00063718006 0.07851029 0.008220114
-0.010536671 0.018491058 0.005087586 -0.002772604 -0.018678602 0.0012688485 0.013500081 -0.004876937
-0.00071916764 0.0069175903 0.0026791308 -0.03948933 0.002680935 -0.0029744627 -0.028957637 -0.0081722895
0.0031736018 -0.012739983 -0.012395586 -0.008470929 -0.022873651 -0.0076140612 0.008491368 -0.0032271617
-0.017830618 0.021512423 0.025043523 0.0009026005 -0.051819265 -0.025542634 0.041175567 0.010234824
0.009674119 0.043575164 -0.009331842 -0.020833548 0.008824166 0.00023879319 0.01684946 -0.051903192
0.021927271 0.010263649 -0.0042172563 -0.022695513 -0.009936682 -0.011504025 -0.009205106 -0.0035251023
1.6456795e-05 0.023840034 0.012828417 -0.0007945562 0.05259004 0.016700756 0.0223094 0.013537972
0.002119604 0.015696833 -0.013691009 -0.018405337 0.02133282 -0.058061987 0.05941127 -0.003041776
-0.03478377 0.0020499616 0.036439385 0.0031210484 -0.023402464 -0.010322023 0.020782996 -0.034861565
0.013090011 0.03416064 -0.006310738 -0.014974414 -0.0025057115 0.029747013 -0.00016590978 0.016306378
-1.4085441e-05 0.004914517 -0.0019613742 -0.03321981 0.0050607575 -0.0597416 0.021840438 0.0074030706
0.004999399 -0.025231117 -0.0134365875 -0.0014462434 -0.0008403092 -0.04778211 0.007727112 0.041887052
-0.00021153745 -0.0028226878 -0.039496213 0.045888603 -0.0059431107 -0.012526314 -0.021580948 -0.0019502041
0.006218295 -0.02220211 0.056724906 0.017493695 0.0006039458 -0.002051779 0.0011709599 -0.06460467
-0.0013752012 -0.0071694474 -0.006420015 -0.006766878 0.018667791 -0.02852092 0.017956777 -0.0123170875
-0.0035952567 0.00044138826 0.006900878 -0.012283457 0.011792185 0.01138538 0.00463193 -0.03152915
0.022274608 -0.006804853 0.0038604853 -0.0026581797 0.011423677 0.022732548 0.008856674 -0.01965534
0.0047761854 0.014252153 0.0037786658 -0.007523893 0.049951214 0.011753573 -0.06716379 0.0011280986
0.026656603 0.0027475522 0.0029476297 -0.012765104 -0.018685749 0.00949371 -0.02382225 -0.012496021
-0.00013327878 0.017722907 0.0006784735 0.00070232386 0.0136449225 -0.0024902176 0.0011462163 -0.0027498514
0.012829095 0.019137118 0.033441324 0.0058217514 0.022186505 -0.02087209 -0.000795584 -0.010958391
-0.0011567762 -0.0039568697 0.0032650281 0.028510679 -0.005354997 -0.029447637 0.008126415 -0.014890293
0.026221314 -0.03349986 -0.006901897 0.015871702 -0.05221632 -0.0013221599 0.014761211 0.00880179
-0.001481833 0.0017176615 0.031787332 -0.003845997 0.0031761578 0.02241202 0.051611662 -0.014685785

actor.6.bias f4 [8]
00000000: eca8 f83d a9cc 86bd 57c3 40bc f713 923d
00000010: 46e4 aaba bb78 823b fdc0 b83c 5107 7dbd
0.12141594 -0.065820046 -0.011765323 0.07132714 -0.0013038001 0.0039816773 0.022552961 -0.061774556
