ISAAC_NOGIT/logs/rsl_rl/traquad_flat/2025-09-16_16-04-41/model_250.pt (torch, 925483 bytes, 48 tensors)

std f4 [8]
0	0x3e85b14b	0.26111826
1	0x3e708309	0.23487486
2	0x3e7174d5	0.23579724
3	0x3e83d91d	0.25751582
4	0x3effee12	0.4998632
5	0x3f0570b7	0.52125114
6	0x3f0825b5	0.53182536
7	0x3f03ec89	0.515328

actor.0.weight f4 [128, 31]
0	0xbe11fd18	-0.14256704
1	0xbed8e80a	-0.42364532
2	0xbeb9322a	-0.36171085
3	0x3eec4f6f	0.46154353
4	0x3e955f62	0.29174334
5	0xbe0b3f0c	-0.13598269
6	0x3f434361	0.7627469
7	0xbf168ce6	-0.58808744
8	0x3e17972b	0.1480376
9	0x3fca6ca7	1.5814408
10	0x3f0fed88	0.5622182
11	0xbf7e41f3	-0.9931938
12	0xbf208995	-0.62709934
13	0x3f5c6805	0.8609622
14	0xbf826e6d	-1.0189949
15	0x3d6449dc	0.0557345
16	0x3dda9dd3	0.10674634
17	0x3e1fd103	0.15607075
18	0x3d530d56	0.05152639
19	0x3c5f025c	0.013611402
20	0x3d9522b8	0.07282013
21	0xbd8f8ae0	-0.0700891
22	0xbda29507	-0.07938581
23	0xbe7b50e6	-0.24542579
24	0x3e78337b	0.24238388
25	0xbea4a8b8	-0.32159972
26	0x3c7121bd	0.0147175165
27	0xbd860799	-0.06544418
28	0x3e1283bb	0.14308064
29	0xbe316f67	-0.17327653
30	0xbd83bf41	-0.06432963
31	0x3edcbe35	0.43113866
32	0x3ee6c152	0.45069367
33	0x3e66a077	0.2252215
34	0xbea549b4	-0.32282794
35	0xbee26209	-0.4421542
36	0xbe06d3dd	-0.13166757
37	0xbedf8891	-0.4365888
38	0x3f13d5ca	0.5774809
39	0x3ebbcbfa	0.3667906
40	0x3f5ddfce	0.86669624
41	0x3ec61210	0.38685656
42	0x3dec9762	0.115523115
43	0x3dc9e07a	0.09857269
44	0xbf56fc0e	-0.83978355
45	0xbe320ab6	-0.17386898
46	0x3de290f6	0.11062805
47	0x3ea0e60a	0.31425506
48	0xbe8dc38d	-0.27688256
49	0xbe0fc76c	-0.14040917
50	0xbc968631	-0.018374534
51	0x3cfd22e4	0.030900426
52	0xbd3f0489	-0.046635184
53	0x3d7b535b	0.06135879
54	0x3e195067	0.14972077
55	0x3e12d693	0.14339666
56	0x3e543452	0.20723084
57	0xbd86fdcc	-0.06591377
58	0xbe172e24	-0.14763695
59	0xbedf2db3	-0.43589553
60	0x3e39d9e9	0.18149532
61	0xbe60cc01	-0.21952821
62	0x3e57b1a5	0.2106386
63	0xbe96fbdc	-0.29489028
64	0x3e7e6b8a	0.2484571
65	0x3dd33e34	0.10314599
66	0xbd97a2a6	-0.074040696
67	0xbe2a5b1b	-0.16636316
68	0x3f9ef992	1.2419913
69	0xbfc28c0a	-1.5198987
70	0xbdb9be86	-0.090695426
71	0x3fd195b8	1.6373816
72	0x3cb2898e	0.021794107
73	0xbe5a93ae	-0.21345398
74	0xc00270f9	-2.0381453
75	0x3fb0f78c	1.3825545
76	0x3d85af09	0.06527526
77	0x3d0e05b9	0.034673426
78	0xbe3210b8	-0.1738919
79	0xbd9d7571	-0.07688416
80	0xbe82b5b2	-0.25529248
81	0xbcada0f5	-0.021194914
82	0x3ccb43f1	0.02481267
83	0x3d4c69bd	0.049905527
84	0xbd80e2ee	-0.062932834
85	0xbed3b142	-0.41346174
86	0xbe11c9db	-0.14237158
87	0xbecdb3a6	-0.40176123
88	0x3d678f96	0.05653342
89	0xbc2eaebc	-0.010661777
90	0xbeaf3e2d	-0.34227124
91	0xbe108cae	-0.14116165
92	0x3efb9444	0.49136555
93	0x3e7297d6	0.23690733
94	0x3ed52d6e	0.41636223
95	0xbd867bfe	-0.065666184
96	0xbe4e8bb6	-0.20170483
97	0xbea84cc8	-0.3287108
98	0xbb5d2831	-0.003374588
99	0xbf12ea62	-0.5738889
100	0xbe3f004e	-0.1865246
101	0x3ea04a25	0.31306568
102	0xbf728c4a	-0.94745314
103	0xbdf94fb9	-0.12173409
104	0x3f8c3a3b	1.095527
105	0x3e5aa607	0.21352397
106	0xbe6531a8	-0.22382224
107	0xbfc043e4	-1.5020719
108	0x3e9f343b	0.31094536
109	0x3ea87fd9	0.3291004
110	0xbdf889e7	-0.12135678
111	0x3e0263c9	0.12733378
112	0xbb970081	-0.0046082144
113	0x3c1dfb89	0.00964249
114	0xbd614636	-0.0549986
115	0x3dcdba58	0.10045308
116	0x3e1357ac	0.14388913
117	0x3e6c2ecc	0.23064727
118	0xbd442c19	-0.047893617
119	0x3d7c5807	0.061607387
120	0xbccdefeb	-0.025138816
121	0x3bf5a42b	0.007496377
122	0x3db195aa	0.08671124
123	0xbe01619a	-0.12634888
124	0x3f48a447	0.7837567
125	0x3e15e058	0.14636362
126	0xbeafc71b	-0.34331593
127	0xbe3fd20a	-0.18732467
128	0x3d5fb6c0	0.054617643
129	0x3e50d9fc	0.20395654
130	0xbf8a34c9	-1.0797359
131	0x3fe0f6eb	1.7575353
132	0xbd1d73cc	-0.03844051
133	0x3fb09887	1.3796548
134	0xbdfc22f9	-0.12311358
135	0xbf293362	-0.6609403
136	0x4044f80c	3.0776396
137	0xbfb90ced	-1.445707
138	0xbf7541f5	-0.9580377
139	0xbddeb3fb	-0.10874172
140	0x3e1109fe	0.14163968
141	0xbe8704a3	-0.26370725
142	0xbde6dcf5	-0.11272613
143	0x3bd88c64	0.0066085327
144	0xbbe8a776	-0.007100041
145	0x3c6d99b1	0.014501975
146	0xbc4eb366	-0.012616014
147	0x3dbf966e	0.09354864
148	0xbee027bc	-0.43780315
149	0x3db0185c	0.08598396
150	0xbccfe5d3	-0.025378143
151	0x3dd53b7e	0.10411738
152	0x3a5a26d9	0.0008321829
153	0xbe389eb1	-0.18029286
154	0x3e295665	0.16536863
155	0xbec056d3	-0.37566242
156	0xbeebe9b9	-0.46076754
157	0x3e3c0b4f	0.18363689
158	0x3ed4ceac	0.41563928
159	0x3e363eaa	0.17797342
160	0xbea302bb	-0.3183802
161	0xbe312969	-0.17300953
162	0x3f46b617	0.776216
163	0x3cd77414	0.026300468
164	0x3fa64abc	1.2991557
165	0xbf454a50	-0.77066517
166	0x3ded2460	0.115792036
167	0x3f755b48	0.9584241
168	0xbf8eee73	-1.1166519
169	0x3f48369b	0.7820832
170	0xbde79713	-0.11308112
171	0x3c359e10	0.011085048
172	0x3d3f74fe	0.04674243
173	0x3e7347a8	0.23757803
174	0x3d99eb61	0.07515598
175	0x3d7bcbb6	0.06147357
176	0xbd8348bf	-0.064103596
177	0x3ce2fc9c	0.027708344
178	0x3d60dcb4	0.05489798
179	0xbd924cf4	-0.07143584
180	0x3edc1392	0.4298368
181	0xbe961cd2	-0.29318863
182	0xbeaa31a9	-0.33241013
183	0xbbd2ae27	-0.006429452
184	0xbe0d2f97	-0.13787685
185	0xbacc5e81	-0.0015592129
186	0xbf8de536	-1.1085575
187	0x3d8245ae	0.063609466
188	0x3f05b0f3	0.5222313
189	0xbe950b36	-0.29110116
190	0x3ec15823	0.37762555
191	0x3d081cce	0.033230595
192	0x3fa2c9fc	1.2717891
193	0x400090b3	2.0088317
194	0x3db9d9a3	0.09074714
195	0x3e8ead72	0.27866703
196	0x3e2532c6	0.1613265
197	0xbfb36b08	-1.4017038
198	0xbefa2f72	-0.48864323
199	0xbf6bf828	-0.9217553
200	0x40688bec	3.6335402
201	0xbd3349b6	-0.043771468
202	0x3a78eebd	0.0009496024
203	0xbe19b3c5	-0.15009983
204	0x3e88f471	0.26748994
205	0x3c0a9747	0.008458919
206	0xbbf5fa5e	-0.0075066527
207	0x3a9349e4	0.0011237231
208	0xbba5ee4f	-0.005063809
209	0x3d1a49b3	0.03766794
210	0xbe1fdedf	-0.15612362
211	0x3d85d4ab	0.06534704
212	0xbe208935	-0.1567734
213	0xbe4e0b4f	-0.20121501
214	0x3d92ca39	0.07167477
215	0x3c24d70a	0.010061035
216	0x3d323556	0.043507896
217	0x3f061eca	0.5239073
218	0xbef7b8c3	-0.4838315
219	0x3f10e74d	0.56602937
220	0xbe84546c	-0.2584566
221	0xbe6c96c5	-0.23104389
222	0xbef356c8	-0.47527146
223	0x3cb098fc	0.021557324
224	0x3ee7a2e0	0.4524145
225	0x3ca08c98	0.01959829
226	0x3fe0236e	1.7510812
227	0x3d3a3460	0.045460105
228	0x3dd06fcb	0.10177573
229	0x3f9c66dd	1.2218891
230	0xbf4048c5	-0.7511104
231	0x3d2c31b8	0.042039603
232	0x3da03849	0.078232355
233	0xbde61c88	-0.11235911
234	0x3da79b88	0.08183962
235	0x3e7ec802	0.24880984
236	0xbd34e83d	-0.044166792
237	0xbcc6fa62	-0.024289314
238	0xbd2f2418	-0.04275903
239	0xbd543c78	-0.05181548
240	0xbdc4e83c	-0.09614608
241	0xbe2bfc81	-0.16795541
242	0x3e3306ad	0.17483015
243	0x3c81ff94	0.01586894
244	0xbc3cf919	-0.011533999
245	0xbc7f0772	-0.01556574
246	0xbda7f7b3	-0.08201542
247	0x3ee7078d	0.45122948
248	0xbd4207ac	-0.047370598
249	0x3eb39109	0.3507159
250	0x3eb771f8	0.3582914
251	0xbf2defb6	-0.67943895
252	0xbe2204b2	-0.15822104
253	0x3e180303	0.14844899
254	0xbfbea123	-1.4892925
255	0x3fe83a5f	1.8142813

actor.0.bias f4 [128]
0	0xbe0a1d4b	-0.13487737
1	0xbea798f9	-0.32733896
2	0xbd19b638	-0.037527293
3	0xbe9806f6	-0.2969281
4	0xbc18eae2	-0.009333344
5	0xbe0c27c7	-0.13687049
6	0xbc51ebd3	-0.0128125725
7	0xbdf26756	-0.11836116
8	0xbe228646	-0.15871534
9	0x3d7d6eb8	0.061873168
10	0xbed319fc	-0.41230762
11	0xbe17f919	-0.14841117
12	0xbe493c53	-0.19651918
13	0x3dbf982f	0.093551986
14	0xbe84a318	-0.2590568
15	0x3e0b7d39	0.13621987
16	0x3bcda5a1	0.006275848
17	0xbe8e0286	-0.277363
18	0xbe009c6c	-0.1255967
19	0xbe15a7a4	-0.14614731
20	0x3e5a644d	0.21327324
21	0xbdedff31	-0.116209395
22	0x3d46b849	0.04851559
23	0xbe2e752f	-0.1703689
24	0x3e2c6e3c	0.16838926
25	0x3d72629c	0.059176072
26	0xbda74034	-0.08166543
27	0x3a722060	0.00092363916
28	0xbe94486a	-0.28961498
29	0xbe04fc76	-0.12986931
30	0xbe2d7184	-0.16937834
31	0xbe47e948	-0.19522583
32	0xbe075ebe	-0.13219735
33	0xbd98b829	-0.07457001
34	0xbdc28d60	-0.094996214
35	0xbd69c621	-0.057073716
36	0x3e4268a6	0.18985233
37	0xbe387e57	-0.18016945
38	0xbe1fb2f0	-0.15595603
39	0x3e30c598	0.17262876
40	0xbd79fb00	-0.061030388
41	0xbe4e2f06	-0.20135126
42	0xbe3c9025	-0.18414362
43	0xbe15cf4f	-0.14629863
44	0xbd928a6d	-0.07155309
45	0xbbe421e6	-0.006962049
46	0xbde45136	-0.11148302
47	0x3d0c921f	0.03431904
48	0x3d8a8685	0.06763939
49	0xbe6c2f85	-0.23065002
50	0xbde6c980	-0.11268902
51	0xbcd34113	-0.025787866
52	0xbdf1ba8f	-0.11803161
53	0x3c5569d5	0.013025721
54	0xbe130309	-0.14356627
55	0xbbb24a63	-0.0054409965
56	0xbde4fa97	-0.11180609
57	0xbcde54cc	-0.027140044
58	0xbd9a87d5	-0.07545439
59	0x3db6ef5b	0.08932372
60	0xbdddb202	-0.10824968
61	0xbd134ba1	-0.035960797
62	0xbd84f4be	-0.06491993
63	0x3d9db075	0.07699672
64	0xbeb43ee7	-0.3520424
65	0xbe800aab	-0.2500814
66	0xbd9b598f	-0.07585441
67	0xbe5fae0c	-0.21843737
68	0xbd893d4c	-0.067011446
69	0xbdec514e	-0.11538945
70	0xbe94371d	-0.28948298
71	0xbda45819	-0.08024616
72	0x3e141c9d	0.1446404
73	0xbe8ba407	-0.2727358
74	0xbe8dd2ef	-0.27699992
75	0xbe0a295f	-0.13492344
76	0xbd8cc422	-0.06873347
77	0xbeb26b26	-0.34847373
78	0xbeaa9825	-0.33319202
79	0x3db0b3a0	0.08628011
80	0x3c94ddc1	0.018172147
81	0xbe892268	-0.26784062
82	0xbe836996	-0.25666493
83	0x3df6aef7	0.12045091
84	0xbda0f512	-0.078592435
85	0xbda6e0f0	-0.08148372
86	0x3dbb007d	0.091309525
87	0xbe25ab2a	-0.16178575
88	0xbde0a9a1	-0.10969854
89	0xbe04c221	-0.1296468
90	0xbe83110d	-0.25598946
91	0xbe3e1945	-0.18564327
92	0x3e22183f	0.15829562
93	0xbe9a1d90	-0.3010068
94	0xbe1fcfab	-0.15606563
95	0x3cba41b0	0.0227364
96	0xbdd232ff	-0.10263633
97	0x3d8f4e2c	0.06997332
98	0x3e8f12a7	0.27943918
99	0xbdb753f4	-0.0895156
100	0x3e139f33	0.14416198
101	0x3e1aca64	0.15116268
102	0x3ddd00b7	0.10791152
103	0xbe97cd24	-0.29648697
104	0x3d09f3aa	0.03367964
105	0xbdbeb3f0	-0.09311664
106	0xbea2c6df	-0.31792352
107	0xbd28a8b1	-0.0411765
108	0xbe25a012	-0.16174343
109	0x3ced9f8c	0.029006742
110	0xbeeb6ac4	-0.45979893
111	0xbceff834	-0.029293157
112	0xbd19fd91	-0.037595335
113	0xbd37319b	-0.04472504
114	0xbe5dc6eb	-0.21657912
115	0xbd0eedfd	-0.034894932
116	0xbe3625ff	-0.17787932
117	0x3bdd25ef	0.006748907
118	0xbe4b877f	-0.19875906
119	0xbc1b3048	-0.00947196
120	0x3e9d0517	0.30667946
121	0xbd99dba9	-0.075126
122	0xbe072b6a	-0.13200155
123	0xbc87dea2	-0.016585652
124	0xbd9c65e5	-0.07636622
125	0xbdef61e7	-0.11688595
126	0xbd9bbdd2	-0.07604565
127	0xbd098a0d	-0.03357892

actor.2.weight f4 [128, 128]
0	0xbd9ee15e	-0.07757829
1	0xbe3eed24	-0.1864515
2	0xbadc1791	-0.0016791691
3	0xbc29acdd	-0.010356155
4	0x3db31c09	0.08745582
5	0xbde68b60	-0.112570524
6	0xbd0f2dce	-0.034955792
7	0x3b8bc7ac	0.004265746
8	0x3d8b2218	0.06793612
9	0x3d267386	0.040637515
10	0xbd0fb71f	-0.035086747
11	0x3c78fefa	0.01519751
12	0x3d307e62	0.043089278
13	0x3d03ca99	0.032175634
14	0x3de7c834	0.113174826
15	0x3d96c80b	0.07362374
16	0x3e07b5c2	0.13252929
17	0xbd9eeebd	-0.077603795
18	0xbcc707be	-0.024295684
19	0x3d67a2da	0.05655179
20	0x3d2cae7c	0.04215859
21	0xbd37ff92	-0.044921465
22	0xbc9fa38b	-0.019487163
23	0x3ce0d612	0.027445827
24	0x3d652dfe	0.055952065
25	0xbd0acdfb	-0.033887845
26	0x3d1cccae	0.038281135
27	0x3dbe4bda	0.09291811
28	0x3d0d4bd6	0.03449615
29	0x3d0ed5c5	0.034871835
30	0x3c10207c	0.008796807
31	0x3c656d6b	0.014003138
32	0xbd0fdd2f	-0.035123046
33	0xbbb3ed17	-0.00549091
34	0x3dd546cd	0.10413895
35	0xbd445978	-0.047936887
36	0x3d90b912	0.07066549
37	0xbd8887f1	-0.06666554
38	0xbda19e86	-0.07891564
39	0xbd86c43b	-0.06580397
40	0x3d9d615a	0.07684584
41	0xbd423403	-0.047412883
42	0x3dbf073b	0.09327551
43	0x3da7e318	0.081976116
44	0x3da13cb8	0.07872909
45	0x3d795a8c	0.060877368
46	0x3c537784	0.012906913
47	0x3d7db55b	0.061940532
48	0xbbe91ba4	-0.0071138907
49	0x3c765476	0.0150347855
50	0xbd8dc2cd	-0.06921921
51	0xbc8668f5	-0.01640747
52	0x3d9490a8	0.072541535
53	0xbccafd4c	-0.024778984
54	0x3da85c61	0.08220745
55	0xbd4926ab	-0.049109142
56	0x3d87414d	0.06604252
57	0xbc4d36a1	-0.012525232
58	0x3d32b029	0.04362503
59	0xbcb4c8ce	-0.022068407
60	0xbd71b671	-0.05901188
61	0x3da0fd02	0.078607574
62	0xbc0d4ed3	-0.00862475
63	0xbcb6286f	-0.022236077
64	0xbdb30168	-0.087405026
65	0x3dceae5f	0.100918524
66	0x3d300c1b	0.042980295
67	0xbdd46c49	-0.10372216
68	0x3b21745a	0.0024636001
69	0xbe52f861	-0.20602562
70	0xbdedd213	-0.11612334
71	0xbdbf18eb	-0.093309246
72	0xbd19b96d	-0.03753035
73	0xbd8a8d4c	-0.067652315
74	0xbc9e7661	-0.019343557
75	0xbcfca9ab	-0.030842623
76	0xbd4eba23	-0.050470483
77	0x3b66de94	0.0035227882
78	0xbe09a815	-0.13443024
79	0xbc0c27f8	-0.008554451
80	0xbe6a22d1	-0.22864844
81	0x3d8a1e10	0.06744015
82	0xbc828d43	-0.0159365
83	0x3d784f0e	0.060622267
84	0x3d97abcd	0.07405815
85	0x3e386ed6	0.1801103
86	0xbe25ded6	-0.16198286
87	0xbd267998	-0.040643305
88	0x3d8d37ad	0.06895385
89	0xbd90315c	-0.070406646
90	0xbdea6fc5	-0.114470996
91	0x3d829f90	0.063780904
92	0xbd327887	-0.043571975
93	0x3d6108f0	0.054940164
94	0xbd1b18df	-0.037865516
95	0x3cd820d1	0.026382836
96	0xbc9608c6	-0.01831473
97	0xbb72b817	-0.0037035996
98	0xbd526110	-0.051362097
99	0xbd1da690	-0.038488925
100	0xbcf787d7	-0.03021614
101	0xbd54684a	-0.05185727
102	0x3dae817f	0.08520793
103	0xbbd5c60b	-0.0065238527
104	0xbe13242d	-0.14369269
105	0x3c91c688	0.017794862
106	0x3cd4c2e3	0.025971835
107	0x3cc07cc9	0.023497002
108	0xbb036940	-0.0020051748
109	0xbcb8d67f	-0.022563217
110	0x3d0377bd	0.032096613
111	0xbdb45142	-0.08804561
112	0x3db61498	0.08890647
113	0x3da3e2e0	0.08002257
114	0x3d4866aa	0.048926033
115	0x3d82050f	0.06348621
116	0xbd91ae22	-0.07113291
117	0xbdcff5b4	-0.10154286
118	0xbd2448be	-0.040108435
119	0x3d8bf79f	0.06834339
120	0x3e61db0f	0.2205622
121	0xbd8abec1	-0.06774665
122	0xbd849229	-0.0647319
123	0x3dc1f609	0.094707556
124	0xbd7cc2b2	-0.061709113
125	0xbd781f09	-0.060576472
126	0xbd726e21	-0.05918706
127	0xbde1c447	-0.11023765
128	0xbde7e8ca	-0.11323698
129	0x3d7dd187	0.0619674
130	0x3d88affe	0.06674193
131	0x3df57cc7	0.1198669
132	0x3e0bdac1	0.13657667
133	0x3d8ad688	0.067792
134	0x3d302980	0.043008327
135	0x3d0471c0	0.032335043
136	0x3d5c8460	0.05383718
137	0x3e0c1192	0.13678578
138	0x3c32dd57	0.010917029
139	0xbe0b63ea	-0.13612333
140	0xbe1586d3	-0.14602213
141	0xbca37609	-0.019953744
142	0xbbecb42a	-0.0072236257
143	0xbdf8a952	-0.1214167
144	0xbe8cf6e7	-0.27532122
145	0x3d89c213	0.0672647
146	0xbe0a8411	-0.13526942
147	0x3dd1eda2	0.10250403
148	0xbb7c3d5f	-0.0038488728
149	0x3bb0e718	0.0053986423
150	0xbdaa5fb3	-0.083190344
151	0xbd169b3a	-0.03676913
152	0xbd348bb0	-0.04407853
153	0x3c0b8375	0.0085152285
154	0x3d10760a	0.03526882
155	0x3cb9feb9	0.022704469
156	0x3c08a633	0.008340406
157	0xbb93bd22	-0.0045086304
158	0xbdf42391	-0.11920846
159	0xbcdb51df	-0.026772438
160	0xbdd5d8fc	-0.10441777
161	0xbe43313f	-0.19061755
162	0xbd5073e2	-0.050891764
163	0x3e4418ff	0.1915016
164	0xbe119423	-0.14216666
165	0xbe191625	-0.14949854
166	0x3d810b98	0.063010395
167	0x3dc80bb8	0.0976786
168	0xbc6a5dd8	-0.014304601
169	0xbdd04f46	-0.1017137
170	0xbdc018d7	-0.09379738
171	0x3d8974c7	0.06711727
172	0x38a33a65	7.7833225e-05
173	0xbce819f4	-0.028332688
174	0xbabedc57	-0.0014561516
175	0xbdc680b3	-0.09692516
176	0xbd636931	-0.05552024
177	0x3d0c1f60	0.03420961
178	0xbd10d758	-0.035361618
179	0xbe6f5545	-0.23372371
180	0xbe20c723	-0.15700965
181	0xbdf853a1	-0.12125326
182	0xbeb583e0	-0.35452175
183	0xbd680ee5	-0.05665483
184	0xbd4c8071	-0.04992718
185	0xbb1c047f	-0.002380639
186	0xbe0da0a2	-0.13830808
187	0x3d9959e6	0.0748785
188	0xbd4a205d	-0.04934727
189	0xbbc62b55	-0.006047646
190	0x3d616cbc	0.055035338
191	0xbce8a912	-0.028400932
192	0xbd8a3aef	-0.06749522
193	0xbe159fe1	-0.1461177
194	0x3de5d8b7	0.11222976
195	0x3d8a5ac3	0.06755593
196	0xbe06e3b2	-0.13172796
197	0xbd97cec7	-0.074124865
198	0xbd31d564	-0.043416396
199	0x3c894ca1	0.016760172
200	0x3d81fce4	0.06347063
201	0xbcb45efc	-0.022017948
202	0xbd0af7f1	-0.03392786
203	0xbcf6ab44	-0.030110963
204	0xbd20b89f	-0.03923857
205	0xbd2af675	-0.041738946
206	0x3d153af4	0.036433175
207	0x39c1d522	0.00036970625
208	0xbc027682	-0.007962825
209	0xbe4fc748	-0.20290864
210	0x3ce3598e	0.027752664
211	0x3e00fd8d	0.12596722
212	0xbca00f2d	-0.019538486
213	0x3d5add57	0.053433742
214	0xbd83ffaf	-0.06445252
215	0xbc95e411	-0.018297227
216	0xbd852c43	-0.06502583
217	0xbbd77518	-0.006575238
218	0x3db7de67	0.08977967
219	0x3d422811	0.04740149
220	0x3d72aefb	0.059248906
221	0xbe2f2d6b	-0.1710717
222	0xbcdf6bc1	-0.02727306
223	0xbe0421c7	-0.1290351
224	0xbe14ac92	-0.14518955
225	0xbdb99b7b	-0.09062859
226	0xbd8d276c	-0.06892285
227	0x3e8b94d9	0.27262
228	0xbe469279	-0.19391812
229	0xbd9e1375	-0.07718555
230	0xbe1cbb2e	-0.15305778
231	0x3d5af788	0.05345872
232	0x3c83c821	0.01608664
233	0xbc5bc3d1	-0.0134133855
234	0x3dee1b8b	0.11626347
235	0x3e36bdd9	0.17845859
236	0xbe32ad8e	-0.17449018
237	0x3e099054	0.13433963
238	0xbdf88872	-0.121354
239	0xbdf93170	-0.121676326
240	0x3d26ce0a	0.040723838
241	0xbdd15eba	-0.10223146
242	0xbc107d92	-0.008819001
243	0xbd02d077	-0.03193709
244	0x3dc5ef52	0.09664787
245	0x3d15866b	0.036505144
246	0xbb972cb8	-0.004613485
247	0xbd6781d2	-0.05652029
248	0xbda4cb86	-0.080466315
249	0xbd7cd859	-0.061729763
250	0x3dfa4b4f	0.12221395
251	0xbe17a2bd	-0.14808173
252	0xbc85608b	-0.016281387
253	0x3dae8eec	0.08523354
254	0xbeb66871	-0.35626557
255	0x3d437804	0.047721878

actor.2.bias f4 [128]
0	0x3da34537	0.07972186
1	0xbe1670e9	-0.1469151
2	0xbe46e98c	-0.19425029
3	0xbdd25518	-0.102701366
4	0xbdcaca6b	-0.099018894
5	0xbd64b5ae	-0.055837326
6	0x3bb1fbbb	0.00543162
7	0xbda1aad0	-0.07893908
8	0xbe129cbb	-0.143176
9	0xbd17352a	-0.036915936
10	0xbd5a5e8c	-0.053312823
11	0xbd1edada	-0.038782932
12	0x3c9480b5	0.018127779
13	0x3c9b2112	0.018936668
14	0xbdca862d	-0.09888873
15	0xbc2acc0c	-0.010424625
16	0xbbc26792	-0.0059327567
17	0x3cfcb95e	0.030850109
18	0x3d8e5a1d	0.069507815
19	0xbbe7058c	-0.007050222
20	0xbe0a3b58	-0.134992
21	0xbdf6f2d0	-0.120580316
22	0xbe03bfff	-0.1286621
23	0xbc42b069	-0.01188288
24	0x3c30ec05	0.010798459
25	0xbe46db19	-0.19419517
26	0xbe12ec7c	-0.14348024
27	0xbe55ae70	-0.20867324
28	0x3d81e16d	0.06341825
29	0xbdbcebb5	-0.09224645
30	0xbcbf8791	-0.023380073
31	0x3db38d5f	0.08767199
32	0x3c57befc	0.013168093
33	0xbbf9fca4	-0.007628994
34	0x3c6dc80c	0.014513027
35	0xbe099ffa	-0.13439932
36	0x3a3629a7	0.00069489557
37	0xbd5da3cd	-0.05411129
38	0xbdb76ba8	-0.08956081
39	0xbccf72b1	-0.025323244
40	0xbd3564d6	-0.044285618
41	0xbddbbf2a	-0.10729821
42	0xbd943f32	-0.07238616
43	0x3dc7013d	0.09717033
44	0xbd8b63dc	-0.06806156
45	0xbe3cd5d9	-0.18440951
46	0xbcbe67da	-0.02324288
47	0xbe1ebeaa	-0.1550242
48	0xbe295ca3	-0.16539244
49	0xbe3ff3e0	-0.18745375
50	0x3dc574f7	0.0964145
51	0xbe0322af	-0.128062
52	0xbddc7ec1	-0.10766364
53	0x3dcffa84	0.10155204
54	0xbba1f98c	-0.0049430784
55	0xbe7592cd	-0.23981781
56	0xbe1ca13f	-0.15295886
57	0xbe2add08	-0.16685879
58	0xbc9e0005	-0.019287119
59	0xbe523339	-0.20527352
60	0xbe170aa4	-0.14750153
61	0x3e0fae06	0.14031228
62	0xbc7c882f	-0.015413328
63	0xbd416df8	-0.047224015
64	0xbe0b9a75	-0.1363314
65	0xbdc62be7	-0.096763425
66	0xbc199c2e	-0.009375615
67	0xbdc1cc24	-0.09462765
68	0x3d2f0a82	0.04273463
69	0xbdfb3d72	-0.12267579
70	0xbda3dc61	-0.08001018
71	0xbe1bcaff	-0.15214156
72	0xbca9c9c6	-0.020726096
73	0xbe058912	-0.1304057
74	0x3d8a8874	0.067643076
75	0xbe25c531	-0.16188504
76	0x3ca70b94	0.020391263
77	0x3dd3eefb	0.10348316
78	0xbd10a777	-0.035315957
79	0x3c8c94d7	0.017160816
80	0xbe11a43e	-0.1422281
81	0xbe196d08	-0.14982998
82	0x3d708106	0.058716796
83	0x3d090dd8	0.033460468
84	0x3ca3278a	0.019916315
85	0xba344151	-0.0006876188
86	0xbe930c9f	-0.28720567
87	0xbdc4c895	-0.096085705
88	0xbdd6d3b7	-0.104896
89	0x3d4704d9	0.048588607
90	0x3b098fbb	0.002099021
91	0xbd2c786b	-0.042107027
92	0xbdae6d46	-0.08516936
93	0xbe711256	-0.23542151
94	0xbdf6d208	-0.12051779
95	0x3cce7323	0.025201386
96	0xbda9abc6	-0.08284716
97	0xbd264690	-0.040594637
98	0x3dd40d5c	0.103541106
99	0xbd926b5c	-0.071493834
100	0x3d5c3ad3	0.053767037
101	0xbd9c9361	-0.07645298
102	0xbdf7e599	-0.12104339
103	0xbe24953d	-0.16072555
104	0xbd587b5a	-0.052852012
105	0xbd327450	-0.043567955
106	0xbde41ac2	-0.11137916
107	0x3dbaf95b	0.09129592
108	0xbe3a8d2a	-0.18217912
109	0xbdbe62f6	-0.09296219
110	0xbd8fa210	-0.07013333
111	0xbcd7da59	-0.026349233
112	0xbd651d28	-0.05593601
113	0x3c32cf10	0.010913625
114	0xbe1c90f4	-0.1528967
115	0xbdf87d82	-0.12133314
116	0x3d109454	0.035297707
117	0x3d91a60a	0.071117476
118	0xbdc15ad7	-0.094411545
119	0xbd35c2a3	-0.044375073
120	0x3c08997a	0.008337373
121	0x3d0669f3	0.032815885
122	0xbdb089cb	-0.08620032
123	0x3c096053	0.008384782
124	0xbe1ab65e	-0.1510863
125	0x3d514c4c	0.051098153
126	0xbdfb9710	-0.12284672
127	0xbdc47e11	-0.09594358

actor.4.weight f4 [128, 128]
0	0xbdc121ac	-0.094302505
1	0xbd84d5e4	-0.06486109
2	0xbc98f746	-0.018672597
3	0x3cb336a0	0.021876633
4	0x3cc92172	0.02455208
5	0x3d140175	0.036134202
6	0xbd2db9e0	-0.042413592
7	0x3da40371	0.08008469
8	0xbb872e6a	-0.004125406
9	0xbd1b9638	-0.037985057
10	0xbd889da7	-0.06670695
11	0xbdb06050	-0.0861212
12	0x3df1eacb	0.11812361
13	0xbd073471	-0.033008996
14	0xbd2ca5bb	-0.04215024
15	0xbe10cf63	-0.14141612
16	0x3cc64e45	0.024207244
17	0xbba3782e	-0.004988692
18	0xbd6eb96d	-0.058282305
19	0xbdf870d8	-0.12130898
20	0xbd72aa3f	-0.05924439
21	0x3d398764	0.045295134
22	0xbdb8444b	-0.08997401
23	0xbd976065	-0.07391433
24	0xbdb92b92	-0.090415135
25	0xbbc5a129	-0.0060311747
26	0x3b9c269d	0.0047653452
27	0xbdaf6268	-0.085636914
28	0xbcc2e5a6	-0.023791146
29	0x3cf7911d	0.030220563
30	0xbe388f7a	-0.18023482
31	0xbe03d649	-0.12874712
32	0xbd2930df	-0.041306373
33	0xbd3e3d5c	-0.046445236
34	0xbd30007a	-0.042969204
35	0xbb5b4d35	-0.0033462767
36	0x3d85712c	0.065157264
37	0xbd07eafa	-0.033183075
38	0xbba1a035	-0.0049324282
39	0x3cb29a0b	0.021801969
40	0x3e0701dc	0.13184303
41	0xbd5e4c76	-0.054272138
42	0x3d0ec99a	0.03486023
43	0x3d832618	0.0640375
44	0xbceefa49	-0.02917208
45	0x3d128545	0.035771627
46	0xbd4d2766	-0.0500864
47	0xbc1d6a26	-0.009607827
48	0x3c4241c8	0.011856504
49	0xbdf24daa	-0.118312195
50	0xbe0ab2a3	-0.13544707
51	0x3d97c221	0.07410074
52	0xbd0580e2	-0.032593615
53	0x3cfda6a8	0.030963257
54	0x3c7f875b	0.015596236
55	0x3c500c36	0.012698224
56	0x3df987ac	0.121840805
57	0xbce4cb23	-0.027928894
58	0xbd9fa7e8	-0.077956975
59	0xbd8a2eac	-0.06747183
60	0x3b8e429b	0.004341436
61	0x3df282f8	0.118413866
62	0xbcfbf98f	-0.030758647
63	0xbc7c4447	-0.015397138
64	0xbdc94044	-0.09826711
65	0x3d9f1b05	0.077688254
66	0x3bdd215b	0.006748361
67	0x3d2f1ee7	0.04275408
68	0xbd0d2b72	-0.03446526
69	0x3d700e90	0.058607638
70	0xbc2a0cef	-0.01037906
71	0x3a4927a1	0.00076734467
72	0x3cdb8ff8	0.026802048
73	0xbdce9ec3	-0.10088875
74	0x3dd1e068	0.1024788
75	0x3d6c04e2	0.057621844
76	0x3d293692	0.041311808
77	0x3bef627c	0.0073054414
78	0xbd5fb789	-0.054618392
79	0xbc944539	-0.018099414
80	0xbc24030b	-0.010010491
81	0xbdc62025	-0.096741
82	0xbe03534c	-0.12824744
83	0x3db2add7	0.087245636
84	0xbd8e3a66	-0.06944732
85	0xbde1423e	-0.10998963
86	0x3ce89067	0.028389169
87	0x3da875a3	0.082255624
88	0x3d3b3cdb	0.045712333
89	0xbcff6455	-0.031175772
90	0x3d52cd9b	0.051465612
91	0xbcc43ab9	-0.023953782
92	0x3c23b71b	0.009992386
93	0x3d8596a6	0.065228745
94	0x3d4d1e1f	0.050077554
95	0xbd829a24	-0.06377056
96	0xbdaaf43d	-0.08347366
97	0x3d930fe6	0.07180767
98	0xbc641fb7	-0.013923577
99	0x3d3ffe43	0.046873342
100	0xbe188231	-0.14893414
101	0xbb97c672	-0.004631811
102	0x3cbfb6d7	0.023402615
103	0x3a74eb01	0.00093428796
104	0xbcfa9d1d	-0.030592496
105	0xbd82a56d	-0.06379209
106	0x3cac9107	0.021065248
107	0xbda26e6f	-0.0793122
108	0xbe532a31	-0.20621563
109	0xbd806f0e	-0.06271182
110	0x3d325bc5	0.04354455
111	0x3ca3a41d	0.019975716
112	0xbe02c295	-0.1276954
113	0xbd1379d7	-0.036004867
114	0xbdab5047	-0.08364921
115	0x3db5683d	0.088577725
116	0x3d96fc9a	0.07372399
117	0x3c9aff19	0.018920468
118	0x3d38e176	0.04513689
119	0xbd032ee7	-0.03202715
120	0xbd9e6b75	-0.077353396
121	0xbd9ec008	-0.07751471
122	0x3d4032ba	0.046923377
123	0x3d054455	0.03253587
124	0xbd0f3635	-0.034963805
125	0xbd2ca8b1	-0.042153064
126	0xbc866d75	-0.016409615
127	0xbd326076	-0.043549024
128	0xbdea8230	-0.114506125
129	0x3d4511ab	0.048112553
130	0x3d831715	0.06400887
131	0xbcb8d5c5	-0.02256287
132	0x3d65d66f	0.056112703
133	0x3de3db13	0.111257695
134	0x3d9459f2	0.07243718
135	0xbd1ad4ce	-0.037800603
136	0xbc4e5638	-0.012593798
137	0x3d087e5e	0.03332364
138	0xbcb9ebce	-0.022695448
139	0xbccfc070	-0.025360316
140	0x3da5f197	0.0810272
141	0x3d75c9ce	0.06000691
142	0x3dee459e	0.11634372
143	0xbca68b33	-0.020330047
144	0x3d247a8d	0.040155936
145	0xbe11b181	-0.14227869
146	0x3cb43fa4	0.022003002
147	0xbd144b4a	-0.036204614
148	0xbdd55fdd	-0.10418675
149	0xbcd29706	-0.02570678
150	0xbcf7414a	-0.0301825
151	0xbd8dcc9a	-0.0692379
152	0xbdf97ba9	-0.121817894
153	0xbd2f108a	-0.042740382
154	0x3c75db15	0.0150058465
155	0xbc1cdff3	-0.009574878
156	0x3da80bd9	0.08205385
157	0xbd45d5a6	-0.048299454
158	0x3d6d4dd7	0.057935562
159	0xbdb7490a	-0.08949478
160	0x3d1927d7	0.03739151
161	0x3d23e7ed	0.040016104
162	0x3d201946	0.039086603
163	0x3d303065	0.043014903
164	0x3dfb9efb	0.122861825
165	0x3d647f97	0.05578574
166	0x3b3babb0	0.002863627
167	0x3cd8bea8	0.0264581
168	0x3c99f8db	0.018795421
169	0xbdbc965e	-0.09208368
170	0xbd801df8	-0.06255716
171	0x3d4527b2	0.04813356
172	0xbcd31b26	-0.025769781
173	0xbcc2f92a	-0.023800451
174	0xbda4380a	-0.08018501
175	0x3c00dbdc	0.007864919
176	0x3dbcb350	0.09213889
177	0xbd84572c	-0.06461939
178	0xbce229ff	-0.027607916
179	0x3d6cfba1	0.05785716
180	0xbdd29d88	-0.10283953
181	0xbdc76b40	-0.09737253
182	0x3d7708fb	0.0603113
183	0xbd4c9488	-0.049946338
184	0x3de612da	0.112340644
185	0xbd715271	-0.058916513
186	0xbbb5d292	-0.0055487836
187	0x3dc37d8c	0.095454305
188	0x3d8ea782	0.06965543
189	0xbcbaf255	-0.022820631
190	0x3d96cae7	0.07362919
191	0x3d4447c7	0.047920015
192	0xbd326bbc	-0.043559775
193	0xbd6cd8d4	-0.05782397
194	0xbc6eebaf	-0.014582559
195	0x3b90ea26	0.004422444
196	0xbddf830f	-0.10913669
197	0xbc98e899	-0.018665599
198	0xbd665856	-0.056236587
199	0x3d416d94	0.047223642
200	0xbb265178	-0.002537815
201	0xbdb130bd	-0.08651874
202	0xbaec12b0	-0.001801094
203	0x3dd5d045	0.10440115
204	0x3d789918	0.060692877
205	0xbe019767	-0.12655412
206	0xbdd91335	-0.105993666
207	0xbd065aa9	-0.032801304
208	0x3c8cdc2a	0.017194826
209	0xbdac5ae7	-0.08415776
210	0x3c0c2d5f	0.008555739
211	0x3c85385c	0.016262226
212	0xbd319c3d	-0.04336189
213	0x3dc2ed56	0.095179245
214	0xbcb035e8	-0.02151008
215	0x3d3433c3	0.043994676
216	0x3de896d5	0.11356894
217	0xbc5da180	-0.013527274
218	0x3d019a76	0.031641446
219	0x3c51a98e	0.012796773
220	0xbdbca319	-0.09210796
221	0x3b284d3a	0.0025680796
222	0x3d50f99d	0.0510193
223	0xbd33410f	-0.043763217
224	0x3d8773eb	0.066139065
225	0x3d5d468d	0.05402236
226	0x3d40ca9c	0.047068223
227	0x3d847ed9	0.06469507
228	0xbd2db822	-0.04241193
229	0x3d996251	0.074894555
230	0x3da61c93	0.08110919
231	0x3cd6dd03	0.026228433
232	0x3c1a5902	0.009420635
233	0x3d194a86	0.037424587
234	0x3dcd90ad	0.1003736
235	0x3beaa59b	0.007160855
236	0xbc9e3b52	-0.019315396
237	0x3d0ce87b	0.0344014
238	0x3c4d604b	0.012535165
239	0xbdc93a35	-0.09825555
240	0xbe1b6ecb	-0.15178983
241	0x3c808505	0.015688429
242	0x3b979b5c	0.0046266746
243	0xbd56c507	-0.052433994
244	0xbd904766	-0.07044868
245	0xbd3f947b	-0.04677246
246	0xbd67e086	-0.056610607
247	0xbbe9aed6	-0.007131438
248	0x3b7e1297	0.0038768405
249	0xbd6aa736	-0.05728837
250	0xbc674818	-0.01411631
251	0x3d2e8695	0.042608816
252	0xbdd86202	-0.105655685
253	0x3d3d6a44	0.04624392
254	0xbd6d52d1	-0.057940308
255	0x3d7ecdb0	0.062207878

actor.4.bias f4 [128]
0	0xbcf2a11e	-0.029617842
1	0xbd2712a9	-0.04078928
2	0xbd0865f2	-0.033300348
3	0xbd63f022	-0.05564893
4	0xbcbaaa9d	-0.022786433
5	0x3d8feb8d	0.070273496
6	0xbd30ed21	-0.043194894
7	0xbcbdb02f	-0.0231553
8	0x3c4ff2f8	0.012692206
9	0xbde4c204	-0.11169818
10	0xbe040778	-0.12893474
11	0xbc9915b8	-0.018687114
12	0xbe018d45	-0.12651546
13	0xbd8f4b58	-0.069967926
14	0x3d8b52f9	0.06802935
15	0xbcc48d84	-0.023993261
16	0x3cea41b3	0.028595781
17	0x3cdd9175	0.027046898
18	0xbdd17e32	-0.10229148
19	0xbd6dd93a	-0.05806849
20	0xbd514186	-0.05108788
21	0x3d0ac557	0.033879604
22	0xbd6baf9d	-0.057540525
23	0x3d30eee0	0.04319656
24	0xb98ce621	-0.0002687434
25	0xbd19dbb3	-0.037563037
26	0xbd44e620	-0.048071027
27	0xbd724713	-0.059149813
28	0xbe070c97	-0.13188396
29	0x3dda1195	0.10647885
30	0xbd39ad7f	-0.045331474
31	0x3c937e8d	0.01800468
32	0xbd339c9a	-0.04385052
33	0x3db6a0e9	0.0891741
34	0x3ca3fb08	0.020017162
35	0xbd367734	-0.044547275
36	0xbc926b25	-0.017873356
37	0x3cfc4f95	0.030799666
38	0xbda22ede	-0.079190955
39	0xbc75023d	-0.014954147
40	0xbdea4c9d	-0.11440394
41	0xbd6e478d	-0.058173705
42	0xbdce7242	-0.10080387
43	0xbd9b0581	-0.07569409
44	0xbe05816f	-0.13037656
45	0xbde87fa3	-0.1135247
46	0xbd5568a4	-0.052101746
47	0xbe3208b9	-0.1738614
48	0xbcd52c07	-0.02602197
49	0x3d3deac4	0.046366468
50	0xbdf55807	-0.119796805
51	0x3cdbf8e1	0.026852073
52	0x3d4237f2	0.047416635
53	0xbdb26911	-0.08711446
54	0xbb9f55b9	-0.004862514
55	0x3b4efdbe	0.0031584348
56	0xbd83d009	-0.06436164
57	0xbdbc8fe8	-0.092071354
58	0xbd041f46	-0.032256387
59	0xbd63b6ee	-0.055594377
60	0xbce76ba1	-0.028249564
61	0xbce983e6	-0.028505277
62	0xbd99cfc0	-0.07510328
63	0xbdda9521	-0.10672975
64	0xbd3f80c2	-0.046753652
65	0xbc01897e	-0.007906316
66	0xbc9a9728	-0.018870905
67	0x3d9873ab	0.07443937
68	0x3d97589d	0.073899485
69	0x3982af29	0.00024926037
70	0xbd892891	-0.066971906
71	0xbd91771d	-0.07102797
72	0xbbb4e6b5	-0.0055206665
73	0x3da3150f	0.07963001
74	0xbc66fdf5	-0.014098634
75	0xbdc39901	-0.095506676
76	0xbc95ca42	-0.01828492
77	0xbdc05f36	-0.0939316
78	0x3d2d8d8f	0.04237133
79	0xbdd7ea08	-0.10542685
80	0xbde12c0b	-0.10994729
81	0xbd9666ba	-0.07343812
82	0x3d4cb673	0.049978685
83	0xbd12e14b	-0.035859387
84	0xbc5b5e53	-0.013389188
85	0xbcd229bb	-0.025654664
86	0xbcc8fe23	-0.024535244
87	0x3d83321f	0.06406044
88	0x3ce33300	0.02773428
89	0xbe09e95e	-0.13467929
90	0x3d1aacd1	0.037762467
91	0x3d1f0e78	0.038832158
92	0xbd559724	-0.052146092
93	0xbdb4cc28	-0.08828002
94	0xbda3d2d8	-0.079992
95	0xbd3b7595	-0.04576643
96	0xbdfe5773	-0.12419023
97	0xbddcd103	-0.10782053
98	0xbd8af3cd	-0.067847826
99	0x3d261fc4	0.040557638
100	0xbd08ddb5	-0.03341456
101	0xbd8ac08c	-0.06775007
102	0xbe3416f6	-0.17586884
103	0xbc7a34dd	-0.015271393
104	0xbe13e0b3	-0.14441185
105	0x3ca94096	0.02066068
106	0xbdbdb44e	-0.09262906
107	0x3ccfb32c	0.02535399
108	0x3d319b18	0.0433608
109	0xbc1f13b7	-0.00970929
110	0xbc3d2f58	-0.011546932
111	0xbe1de6c0	-0.15420055
112	0xbd4a3535	-0.04936715
113	0xbdbfbf29	-0.09362633
114	0x3d63c200	0.055604935
115	0x3c174f66	0.009235239
116	0xbde4643f	-0.11151933
117	0xbe09b93e	-0.1344957
118	0xbdcde2c4	-0.10053018
119	0x3c1092ad	0.008824033
120	0x3d0999e1	0.033594016
121	0x3b898d1a	0.004197729
122	0x3d3b81fa	0.045778252
123	0x3d783b08	0.06060317
124	0x3d88b55f	0.06675219
125	0xbd8d4313	-0.06897559
126	0xbde0bd7e	-0.10973643
127	0x3d1f1e58	0.038847297

actor.6.weight f4 [8, 128]
0	0x3d5b5543	0.05354811
1	0xbb6205a3	-0.0034488223
2	0x3d2a7b0b	0.04162125
3	0x3c1d4bc7	0.009600586
4	0xbc357a0a	-0.01107646
5	0xbbf4befe	-0.007469057
6	0x3cd12e1c	0.025534682
7	0x3c1dd644	0.009633604
8	0xbbbab1ed	-0.00569748
9	0xbdaa124a	-0.083042696
10	0xbc78816c	-0.015167575
11	0x3c7ea8eb	0.015543203
12	0xbd14626b	-0.03622667
13	0xbd010d05	-0.031506557
14	0xbc34907c	-0.011020776
15	0xbd42f844	-0.047600046
16	0x3cb1e7ee	0.021717038
17	0xbcf20ee5	-0.029548118
18	0xbca9da82	-0.020734075
19	0x3b853fa6	0.0040664254
20	0xbc0bdc9d	-0.008536485
21	0x3c8fc283	0.017548805
22	0xbaa176ab	-0.0012318691
23	0x3c19e6a5	0.009393369
24	0x3cb19bd6	0.021680754
25	0xbd5c2362	-0.05374468
26	0xbaf9294e	-0.0019009502
27	0x3c565baa	0.013083378
28	0xbd9a4227	-0.07532149
29	0xbc33893c	-0.010958012
30	0xbd867fed	-0.06567369
31	0xbb7c90fa	-0.0038538561
32	0x3caa93d2	0.02082244
33	0x3c374a15	0.011187096
34	0x3c8ec922	0.017429892
35	0xbd83e87c	-0.06440827
36	0xbcd43b5f	-0.025907217
37	0x3ca9f6ed	0.020747626
38	0xbd4972a8	-0.04918161
39	0xbb955e81	-0.004558385
40	0x3c97df73	0.018539166
41	0x3c6319a6	0.0138610955
42	0xbdb43499	-0.08799095
43	0xba61c82f	-0.00086128985
44	0xbcc27707	-0.023738397
45	0xbd183a47	-0.037164953
46	0xbcfff67d	-0.031245464
47	0xbd7b23e9	-0.061313543
48	0x3c8f982f	0.017528621
49	0xba42bce0	-0.0007428657
50	0xbc49c72d	-0.012315554
51	0x3bcf6abf	0.006329864
52	0xba730879	-0.0009270977
53	0xb9bed43d	-0.00036397754
54	0x3abe6017	0.0014524487
55	0xbccd46d4	-0.025058188
56	0x3cb23d2f	0.02175769
57	0x3c685b59	0.014181935
58	0xbc9eb927	-0.019375397
59	0xbc678637	-0.01413112
60	0xbbafda74	-0.005366618
61	0xbca95b21	-0.020673336
62	0x3d4ee332	0.05050964
63	0xbb83e761	-0.0040253852
64	0xbd19a07a	-0.037506558
65	0x3c2906f7	0.010316602
66	0x3a7614c7	0.00093872513
67	0x3afc9cdd	0.0019272823
68	0x3add2e5f	0.0016874782
69	0xb9c949fa	-0.00038392824
70	0x3d15300f	0.036422785
71	0xbc8cec71	-0.017202588
72	0xbb065667	-0.0020498277
73	0x3c26b982	0.010176064
74	0x3c181ccb	0.0092842085
75	0x3c4aa154	0.012367565
76	0xbc7afc04	-0.015318874
77	0x3cc8e189	0.024521606
78	0x3ca1b7a2	0.019740883
79	0xbc9c4e32	-0.019080255
80	0xbcdad49b	-0.026712706
81	0xbce39095	-0.027778903
82	0xbb2b729d	-0.0026160844
83	0x3c083247	0.008312768
84	0xbbfcdb80	-0.007716596
85	0x3c04e298	0.008110665
86	0x3d23f149	0.04002503
87	0x3bf6d7a3	0.00753303
88	0xbbcf484e	-0.006325758
89	0x3d096dbd	0.03355192
90	0x3bd2e434	0.0064358953
91	0xbc19695a	-0.009363497
92	0x3b34c5a2	0.0027583619
93	0xba3b3517	-0.0007141395
94	0x3cd62180	0.02613902
95	0x3cab30e4	0.020897336
96	0xbc14620f	-0.009056582
97	0x3a9a826d	0.0011788137
98	0xbc610396	-0.013733765
99	0xbd24adda	-0.04020486
100	0x3b4be8b1	0.0031114037
101	0x3b56700b	0.0032720591
102	0x3cef8a84	0.029240854
103	0xbd380342	-0.044924982
104	0xbcc3628c	-0.023850702
105	0x3ce2d039	0.027687179
106	0xbc5c7d88	-0.013457663
107	0xb9b07638	-0.00033657416
108	0x3c82e350	0.015977532
109	0x3b503bcb	0.003177392
110	0xbce6a231	-0.02815351
111	0xbbb800e2	-0.0056153396
112	0x3d201bd2	0.03908903
113	0x3d865e6b	0.065609775
114	0x3b9cb432	0.004782223
115	0x3c0f71cc	0.008755159
116	0x3ca127a1	0.019672217
117	0xbc57bc3f	-0.01316744
118	0xbccb882c	-0.024845205
119	0x3c09a3b3	0.008400845
120	0xbd165fba	-0.036712386
121	0xbb0d20d5	-0.0021534462
122	0xbcb52bed	-0.022115672
123	0xbd89138d	-0.06693182
124	0xba9afbf8	-0.001182436
125	0xbcb07def	-0.021544425
126	0x3d3ac57b	0.04559849
127	0x3ad5c83c	0.0016310285
128	0xbc6a6876	-0.014307132
129	0xbcee025a	-0.029053856
130	0x3c6209de	0.013796298
131	0x3cc63ea3	0.02419979
132	0xbc58dcb6	-0.013236215
133	0xbc167e30	-0.009185359
134	0x3d61169f	0.054953214
135	0xbc4590a9	-0.012058415
136	0x3cdc7c8b	0.026914855
137	0x3cf2fcca	0.029661555
138	0x3b64ccd8	0.0034912135
139	0xbcbe35cd	-0.023219014
140	0xbb2493fb	-0.0025112617
141	0x3d5a2572	0.053258367
142	0x39aadd65	0.00032589879
143	0x3d43642f	0.047702964
144	0x398c907f	0.0002681054
145	0x3c3c5c3e	0.011496602
146	0xbbf6cc3e	-0.007531672
147	0xbc90618c	-0.017624639
148	0x3a3b7680	0.0007151142
149	0xbd2e00bb	-0.042481165
150	0xbc1a1b0e	-0.009405864
151	0x3c89daf0	0.01682803
152	0xbaf48b1b	-0.0018657179
153	0x3c28bbac	0.010298651
154	0xbd00337f	-0.03129911
155	0xbc77aeaa	-0.015117327
156	0xbd32aaf5	-0.04362007
157	0x3a4f6cab	0.0007912616
158	0xbb01e930	-0.0019822828
159	0xbbeae232	-0.007168078
160	0xbd4627d7	-0.048377838
161	0xbbea2188	-0.0071451105
162	0xbd0fa493	-0.03506906
163	0x3c8ce6d5	0.017199913
164	0xbc53029a	-0.012879038
165	0xbcc6ece5	-0.024282882
166	0xbcab6202	-0.020920757
167	0xbc9f9e35	-0.019484619
168	0x3c2dff54	0.010619957
169	0xbc272858	-0.01020249
170	0x3cab1d0b	0.020887872
171	0x3bd94484	0.006630482
172	0xbd05e8da	-0.032692768
173	0xbcb0c2e7	-0.021577312
174	0x3cd818d4	0.026379026
175	0xbc97b952	-0.018520985
176	0xbcb92487	-0.022600425
177	0x3b000ece	0.0019540074
178	0xbd1101dd	-0.035402168
179	0x3cb32645	0.021868834
180	0x3c34d648	0.011037417
181	0xbb0f13fd	-0.0021831982
182	0x3c9d3fee	0.019195523
183	0xbb9abf18	-0.004722487
184	0x3d095fc6	0.033538602
185	0xbc518316	-0.012787601
186	0x3c0bc817	0.008531592
187	0xbc90b168	-0.017662719
188	0x3d95e72b	0.073194824
189	0x3d3057e6	0.043052576
190	0x3ca2d592	0.019877229
191	0xbcaccd23	-0.02109391
192	0x383c96b4	4.4963046e-05
193	0x3c981a47	0.018567218
194	0x3b323aa2	0.0027195592
195	0x3b7f041b	0.003891236
196	0x3b8465a7	0.004040438
197	0xbc43bacb	-0.01194639
198	0x3a580ea8	0.000824193
199	0x3caad079	0.02085136
200	0xb8929f75	-6.991524e-05
201	0x3b90b210	0.004415758
202	0xbb95e703	-0.004574658
203	0xba847a22	-0.0010107199
204	0xbbb847bd	-0.0056237862
205	0x3c65540e	0.013997091
206	0xbd9855fe	-0.07438277
207	0xb995a9e6	-0.0002854608
208	0xbc3e5971	-0.011618004
209	0xbc593afc	-0.013258692
210	0x3c333d25	0.010939871
211	0xbc844625	-0.016146729
212	0xbcc1a79f	-0.023639498
213	0x3c2b77df	0.010465591
214	0xbc4ca050	-0.012489393
215	0xbce59e66	-0.028029632
216	0x3bdcaedf	0.0067347134
217	0x3ca969fa	0.020680416
218	0x3bdcf181	0.0067426567
219	0x3b1c1012	0.002381329
220	0xbc3599c4	-0.011084024
221	0x3c835e19	0.01603608
222	0x3c6fefe4	0.014644597
223	0x3cdf3c8f	0.027250556
224	0xbc9e2d98	-0.01930885
225	0x3c5f7e76	0.0136409905
226	0x3d486d7f	0.04893255
227	0x3cd7cc26	0.026342463
228	0x3c37378c	0.011182677
229	0x3bd6684d	0.0065431953
230	0xbc5cf646	-0.013486451
231	0xbb902a95	-0.0043996074
232	0xbbecb3f7	-0.007223602
233	0xbd272efd	-0.040816296
234	0x3ccfca03	0.025364881
235	0x3d15ecd0	0.036602795
236	0x3c62cc7c	0.013842698
237	0xbd21ab00	-0.03946972
238	0x3d18b56a	0.037282385
239	0xbd225851	-0.039635006
240	0x3d2bfabc	0.041987166
241	0xbcea6e10	-0.028616935
242	0x3bf8f766	0.0075978516
243	0xbd0afb0d	-0.033930827
244	0x3c14efee	0.009090407
245	0xbbadc441	-0.0053029363
246	0x3cfca632	0.030840967
247	0x3c12c3cf	0.008957817
248	0xbcb4a5c2	-0.022051696
249	0x3bd2d5f9	0.006434199
250	0x3d09a3b1	0.033603374
251	0xbcb6ec84	-0.022329576
252	0xbbe2677f	-0.0069093104
253	0x3cf7968c	0.030223154
254	0x3d0bed12	0.034161635
255	0xba9d71ef	-0.0012012104

actor.6.bias f4 [8]
0	0x3e0b5c49	0.13609423
1	0xbd8341ec	-0.06409058
2	0xbcb52051	-0.022110136
3	0x3dab2217	0.083561115
4	0x3d32ae69	0.04362336
5	0x3b27e8e9	0.0025621003
6	0x3d8f523e	0.06998108
7	0xbd8eb292	-0.06967653

critic.0.weight f4 [128, 31]
0	0x3e55cdbe	0.20879266
1	0xbdbf06d6	-0.09327476
2	0xbe679b7a	-0.22617903
3	0x3e00c1aa	0.12573877
4	0xbe9aca64	-0.30232537
5	0x3d34da24	0.044153348
6	0x3b984da6	0.0046479283
7	0x3e1b3cef	0.15159963
8	0x3deaf93a	0.114733174
9	0x3f12420f	0.5713205
10	0xbf16940c	-0.5881965
11	0x3d85a717	0.065260105
12	0xbd811109	-0.06302077
13	0x3d987f94	0.074462086
14	0x3ce15d1a	0.027510215
15	0x3e0f56dc	0.13997978
16	0x3cf44dde	0.029822286
17	0xbe346136	-0.17615208
18	0xbe236fe1	-0.15960647
19	0xbd7c9f09	-0.061675105
20	0x3dc28e02	0.09499742
21	0x3c88ce21	0.016699852
22	0x3d795790	0.06087452
23	0x3e9820f1	0.29712632
24	0xbcfb183b	-0.030651202
25	0xbd99112b	-0.07473978
26	0x3e191830	0.14950633
27	0x3dc9b14c	0.0984827
28	0xbd1270fa	-0.035752274
29	0xbd2d600a	-0.042327918
30	0xbe3efff4	-0.18652326
31	0xbe98dd9f	-0.29856583
32	0x3ad960a2	0.0016584585
33	0xbeec2e28	-0.46128964
34	0x3d0814d1	0.033222977
35	0x3db9b798	0.09068221
36	0x3ebe55f9	0.37174967
37	0x3e1da55a	0.15395108
38	0x3d8bade1	0.06820274
39	0x3e77af54	0.24187976
40	0x3ff5b115	1.9194666
41	0x3f20950d	0.62727433
42	0x3d1e038f	0.038577612
43	0x3e42c74b	0.19021337
44	0xbe8ae61b	-0.27128682
45	0x3db1ce02	0.08681871
46	0xbd81d3cb	-0.063392244
47	0x3b96363d	0.0045841024
48	0xbd56107f	-0.052261826
49	0xbdc51a32	-0.09624137
50	0xbc822021	-0.01588446
51	0xbd24422b	-0.040102165
52	0x3d08459d	0.033269513
53	0x3d131cd1	0.035916153
54	0x3dbae50f	0.09125721
55	0x3ca86807	0.020557417
56	0x3df9117b	0.12161537
57	0x3ccb174d	0.024791384
58	0x3c023437	0.007947019
59	0x3dea925b	0.11453696
60	0xbde89e28	-0.11358291
61	0x3c58ae5a	0.013225162
62	0x3dec2b76	0.11531727
63	0xbd3df5e8	-0.046377093
64	0x4017d473	2.3723419
65	0x3e0eda22	0.13950399
66	0x3d96515a	0.07339735
67	0x3d81a53d	0.06330345
68	0x3dc10d57	0.094263725
69	0xbe9194e6	-0.28433913
70	0xbe1220ea	-0.14270368
71	0xbf9abe4f	-1.2089328
72	0x3fb5f87b	1.4216455
73	0x3e6d0355	0.23145802
74	0x3e79bec8	0.24389184
75	0x3c00cb42	0.00786096
76	0x3f23f5bb	0.6404683
77	0xbd893806	-0.06700139
78	0x3d1a96ef	0.037741598
79	0xbc5f5619	-0.013631367
80	0x3cc0bba0	0.023526967
81	0x3cbef25c	0.023308925
82	0xbc94e27f	-0.018174408
83	0x3c8269cb	0.015919587
84	0x3ce50494	0.027956285
85	0x3d60ba5f	0.054865237
86	0x3e7fce52	0.24981049
87	0x3dbb880d	0.09156809
88	0x3c26fb31	0.010191725
89	0xbcc522a7	-0.024064375
90	0x3dca57c5	0.09880022
91	0xbe38949f	-0.18025444
92	0xbdf4b9d4	-0.119495064
93	0x3ec5a4c3	0.38602266
94	0x3bf1e0e8	0.0073815472
95	0xbe662f57	-0.22478996
96	0x3c21af79	0.009868496
97	0xbe0150de	-0.12628505
98	0xbd9a4915	-0.075334705
99	0x3e2119bf	0.15732478
100	0xbcd13da5	-0.02554209
101	0x3e1820ed	0.1485631
102	0xbf91e723	-1.1398662
103	0xbe86e74f	-0.2634835
104	0xbd8df19c	-0.06930849
105	0xbe20a623	-0.15688376
106	0x3daceef4	0.08444014
107	0x3e194814	0.14968902
108	0x3ba35ff7	0.004985805
109	0xbcb896c1	-0.022532823
110	0x3cbe2280	0.02320981
111	0xbde83aeb	-0.11339363
112	0x3dd03484	0.101662666
113	0x3db93f5c	0.09045288
114	0xbd165f95	-0.036712248
115	0x3df59651	0.11991561
116	0x3e0b5daa	0.13609949
117	0x3d6dc2fa	0.058047272
118	0xbdecb05e	-0.11557077
119	0xbdf158a9	-0.11784489
120	0xbd842032	-0.06451453
121	0x3ca60be8	0.02026935
122	0x3d867521	0.06565309
123	0xbda95f46	-0.08270125
124	0xbe888bc3	-0.2666913
125	0x3d8d6f6d	0.069060184
126	0x3ee52384	0.4475366
127	0x3daf1c11	0.08550275
128	0x3def40a3	0.1168225
129	0xbdb0ffd9	-0.08642549
130	0x3d43dd4b	0.047818463
131	0xbda6d57e	-0.08146189
132	0x3d2442c3	0.04010273
133	0xbf48500d	-0.7824715
134	0x3f892e56	1.0717266
135	0x3dd59d85	0.10430435
136	0x3e310aff	0.17289351
137	0xbdd4deef	-0.10394084
138	0x3e4608bd	0.19339271
139	0x3e129150	0.14313245
140	0xbd1b44d1	-0.037907425
141	0xbd818861	-0.0632484
142	0x3cca1748	0.024669304
143	0x3d585768	0.052817732
144	0x3dbf2400	0.09333038
145	0xbdb22660	-0.08698726
146	0xbc3d95c2	-0.01157135
147	0x3e93880a	0.28814727
148	0xbdfed948	-0.12443787
149	0x3dfdfb0d	0.124014
150	0x3ea2bf33	0.31786498
151	0x3dbb2cb2	0.09139384
152	0xbdeb9452	-0.11502899
153	0x3d62b30e	0.05534654
154	0x3c93df15	0.01805071
155	0xbe439978	-0.19101512
156	0xbe056453	-0.13026552
157	0xbeca1434	-0.3946854
158	0xbe1f56e2	-0.15560487
159	0xbdb32980	-0.0874815
160	0x3e3eff36	0.18652043
161	0x3c17b219	0.00925877
162	0x3cf32b4f	0.029683737
163	0x3e23f59e	0.16011664
164	0x3f55aaa4	0.834635
165	0x4008bce9	2.1365302
166	0x3e2c098a	0.16800514
167	0xbd8bcb55	-0.06825892
168	0xbe6c0b9f	-0.23051308
169	0x3e71ff69	0.23632587
170	0xbc6baa14	-0.0143838115
171	0xbca2491d	-0.019810254
172	0xbba997ad	-0.005175552
173	0xbc74dd8d	-0.0149454
174	0x3a17eba4	0.0005795306
175	0x39a92c32	0.0003226712
176	0xb9745c56	-0.00023304051
177	0xba0c459b	-0.0005350948
178	0xbccf753a	-0.025324453
179	0xbc8f1e3a	-0.017470468
180	0xbc88139f	-0.016610919
181	0xbdd8b7d9	-0.10581941
182	0x3cbade8a	0.022811193
183	0xbd2ed2d1	-0.04268152
184	0x3b5136af	0.0031923463
185	0xbcfb1b29	-0.0306526
186	0xbce3e9c4	-0.02782143
187	0xbc5373d5	-0.0129060345
188	0xbe262e8e	-0.16228697
189	0x3cba4b7c	0.022741072
190	0xbd6a3cb2	-0.05718679
191	0x3bf910d4	0.007600883
192	0x3d589115	0.052872736
193	0x3e570279	0.20997037
194	0x3ec7a588	0.38993478
195	0x3ecbd46f	0.3981051
196	0xbeea9731	-0.45818475
197	0xbd4086d9	-0.0470036
198	0xbd907e76	-0.070553705
199	0xbe48d7de	-0.19613597
200	0xbcf6809b	-0.03009062
201	0xbdb20e99	-0.086941905
202	0xbd963385	-0.07334045
203	0xbd50e69a	-0.05100117
204	0x3d5cb06f	0.053879198
205	0xbd97c96e	-0.074114665
206	0xbce46211	-0.027878793
207	0xbc4da27c	-0.012550946
208	0xbda3fff5	-0.08007804
209	0xbc612c77	-0.013743511
210	0xbe467b2d	-0.19382925
211	0xbdb9756e	-0.09055601
212	0xbe58ecb5	-0.21184047
213	0x3ca31f1f	0.0199123
214	0xbcbfdf3a	-0.023421872
215	0xbd7e4b59	-0.062083576
216	0x3cf704f8	0.030153736
217	0xbf03df51	-0.5151263
218	0x3def037f	0.11670589
219	0xbea80f40	-0.32824135
220	0xbcae4f76	-0.021278124
221	0xbdeda25b	-0.116032325
222	0x3cf5115b	0.029915502
223	0x3d932abd	0.07185886
224	0x3e5a8047	0.21337996
225	0xbdf970ce	-0.12179719
226	0x3fc8cfdd	1.5688435
227	0x3f8bed81	1.0931855
228	0xbe04aa52	-0.12955597
229	0x3d6dfe40	0.0581038
230	0xbe02a559	-0.12758388
231	0xbeda5831	-0.4264541
232	0x3d6a609c	0.05722104
233	0x3cb5f85d	0.022213155
234	0x3d0b1d23	0.033963334
235	0xbc871687	-0.016490234
236	0x3ca0ddcf	0.019637017
237	0xbd1c240b	-0.03812031
238	0x3b888796	0.0041665537
239	0xb8b14edf	-8.4547086e-05
240	0xbc004b45	-0.007830446
241	0x3e0376bb	0.12838261
242	0xbd3d2399	-0.046176527
243	0xbe21c947	-0.15799437
244	0x3c9cac4e	0.01912513
245	0x3e698363	0.22804026
246	0x3da2c1d6	0.079471275
247	0xbd1cc0d1	-0.03826982
248	0xbe9198cd	-0.2843689
249	0xbcd23d8e	-0.025664117
250	0x3e70ccb6	0.23515591
251	0x3c34d4b2	0.011037039
252	0x3d709b30	0.05874175
253	0x3d4e9e4c	0.050443932
254	0x3e003fc9	0.12524332
255	0x3e395504	0.18098837

critic.0.bias f4 [128]
0	0xbe54185f	-0.20712422
1	0xbe70d4f3	-0.23518734
2	0x3ec35862	0.38153368
3	0x3d89db05	0.06731228
4	0x3d8af926	0.067858025
5	0xbe9482fd	-0.29006186
6	0xbe4dea5c	-0.20108932
7	0x3d10fb19	0.035395715
8	0xbe649464	-0.22322232
9	0xbde2d911	-0.110765584
10	0xbda5aacf	-0.0808922
11	0xbea279b2	-0.3173347
12	0xbe778410	-0.24171472
13	0xbdcef8eb	-0.10106071
14	0x3e0e8677	0.13918482
15	0xbe8ed5ba	-0.27897435
16	0xbe15b959	-0.14621486
17	0xbe95963c	-0.29216182
18	0x3d942207	0.07233053
19	0xbcdff347	-0.027337683
20	0x3e8fa3d9	0.28054693
21	0xbdd24758	-0.10267514
22	0xbdeeeb47	-0.11665969
23	0xbe80cd37	-0.25156567
24	0xbe4bfda8	-0.19920981
25	0xbe45c3f2	-0.19313028
26	0x3e020d92	0.12700489
27	0xbec07ef8	-0.3759687
28	0xbd4f1ab5	-0.05056258
29	0x3ca42614	0.020037688
30	0xbdd73d67	-0.105097584
31	0x3e774fe7	0.24151574
32	0xbd354b1d	-0.044261087
33	0x3e44d2d3	0.19221048
34	0x3e7a7428	0.24458373
35	0xbe970458	-0.29495502
36	0xbec891aa	-0.39173633
37	0xbe54a3ac	-0.20765561
38	0xbe4e3093	-0.20135717
39	0xbeacbc1a	-0.3373726
40	0xbda85c03	-0.08220675
41	0x3f1b8490	0.6074915
42	0xbe015b1f	-0.12632416
43	0xbe82353c	-0.2543124
44	0x3ecc0e3c	0.3985461
45	0x3dac321f	0.08407997
46	0x3ea1d142	0.31604964
47	0xbe9ab331	-0.30214837
48	0xbe6dce7b	-0.23223297
49	0xbd29d7f0	-0.0414657
50	0xbe30f484	-0.17280775
51	0xbe973fa7	-0.2954075
52	0xbcd574dd	-0.026056701
53	0x3ca6980b	0.020336172
54	0xbde1dd4a	-0.11028536
55	0xbe800fbc	-0.25012004
56	0xbe2765a9	-0.16347374
57	0xbe3d8668	-0.18508303
58	0x3da4f62b	0.08054765
59	0xbdf26874	-0.11836329
60	0x3dda18b2	0.106492415
61	0xbe805deb	-0.25071654
62	0x3e26d62e	0.1629264
63	0xbe7343aa	-0.2375628
64	0xbddd83c8	-0.10816151
65	0xbe974c66	-0.29550475
66	0x3ce590f7	0.028023226
67	0xbd94138f	-0.07230293
68	0xbe1c1a0f	-0.15244316
69	0x3dfea3a1	0.124335535
70	0xbe90e5f3	-0.28300437
71	0x3e82f302	0.25576025
72	0x3e53351c	0.20625728
73	0x3f03e69e	0.5152377
74	0x3eae6690	0.34062624
75	0x3d691e3b	0.056913596
76	0x3f1a0d62	0.6017667
77	0x3e26b294	0.1627906
78	0xbd91660a	-0.070995405
79	0xbeabf411	-0.33584645
80	0x3dd29b0c	0.10283479
81	0xbe734d3a	-0.23759928
82	0x3bd847bf	0.0066003497
83	0x3f1c029f	0.609415
84	0xbeea012c	-0.4570402
85	0x3eec7cd0	0.46188974
86	0x3e483599	0.19551696
87	0xbdfcadc9	-0.123378344
88	0x3e856016	0.2604987
89	0x3e8269a7	0.2547123
90	0xbee3772e	-0.44426864
91	0xbdacdaa4	-0.0844014
92	0xbdcf4da0	-0.10122228
93	0xbddd92a1	-0.10818983
94	0xbe796edb	-0.24358694
95	0x3ee5892c	0.44831216
96	0x3dee5813	0.116378926
97	0xbde54b2f	-0.11195981
98	0xbd49b837	-0.049247947
99	0x3df93759	0.1216876
100	0xbe2405b6	-0.16017804
101	0xbca91747	-0.020640982
102	0xbdbc33d7	-0.09189575
103	0xbd9d6215	-0.07684723
104	0x3eb5c8ad	0.35504666
105	0xbecb6853	-0.3972803
106	0x3eb89759	0.3605297
107	0xbda8d096	-0.082429096
108	0xbcc017bb	-0.023448816
109	0xbd0c38aa	-0.034233727
110	0xbe916a65	-0.28401485
111	0x3a8e1c0b	0.0010842098
112	0xbd0c361e	-0.034231298
113	0x3e1d593e	0.15366074
114	0xbccd5421	-0.02506453
115	0xbd9784a2	-0.073983446
116	0xbdc70fc0	-0.09719801
117	0x3e23b603	0.159874
118	0xbd54b7d4	-0.051933125
119	0xbdff9900	-0.12480354
120	0xbd03c413	-0.032169413
121	0x3d3f995c	0.046777114
122	0x3e3c8fb2	0.1841419
123	0xbd94647b	-0.07245728
124	0x3e172f78	0.14764202
125	0xbe00639b	-0.12537996
126	0xbd247ccd	-0.04015808
127	0xbe4bdbcb	-0.19908063
