ISAAC_NOGIT/logs/rsl_rl/traquad_flat/2025-09-16_12-27-53/model_150.pt (torch, 925483 bytes, 48 tensors)

std f4 [8]
0	0x3ed21a4e	0.41035694
1	0x3f01cbbe	0.5070151
2	0x3ee7c7e1	0.45269683
3	0x3eca7287	0.39540502
4	0x3f10c34f	0.5654802
5	0x3f25bc3c	0.6474035
6	0x3f3c2dfc	0.73507667
7	0x3f1960d0	0.5991335

actor.0.weight f4 [128, 31]
0	0xbd54f450	-0.051990807
1	0xbe1fc71a	-0.15603295
2	0x3d711cef	0.058865484
3	0x3e8e43b0	0.27786016
4	0x3e20edfa	0.15715781
5	0xbc5c8886	-0.013460284
6	0x3ea03375	0.3128926
7	0xbe88d3ce	-0.26724094
8	0xbd85015a	-0.064943984
9	0x3fa62615	1.2980372
10	0x3c3b890f	0.0114462515
11	0xbe703bcd	-0.23460312
12	0x3dcdcbf6	0.10048668
13	0x3dae8f0a	0.08523376
14	0xbe828775	-0.2549397
15	0xbc216454	-0.00985058
16	0xbccc9f51	-0.024978312
17	0x3e0d4be1	0.13798477
18	0x3e5bb4ef	0.2145574
19	0x3d7f2f9e	0.06230127
20	0x3d8b908c	0.068146795
21	0xbd8fea25	-0.070270814
22	0xbd879e75	-0.0662202
23	0xbe0b9fc3	-0.13635163
24	0x3e4b2140	0.19836903
25	0xbccbf309	-0.024896162
26	0xbcf766f4	-0.030200459
27	0xbd83e176	-0.06439488
28	0x3e3e20b9	0.1856717
29	0xbd8e46e7	-0.06947117
30	0x3da94269	0.0826462
31	0xbe1f6192	-0.15564564
32	0xbf20e339	-0.62846714
33	0xbf2b5197	-0.6692137
34	0x3e77abe3	0.24186663
35	0x3e12501e	0.14288375
36	0x3da42e4a	0.080166414
37	0x3d7fbd73	0.062436532
38	0x3ea64fdc	0.32482803
39	0x3eacbc17	0.3373725
40	0x3e07d3dc	0.13264412
41	0x3e1b20f1	0.15149285
42	0xbf5104f4	-0.8164818
43	0x3ed54635	0.41655126
44	0x3eae4a6b	0.3404115
45	0xbef2f012	-0.47448784
46	0xbe849bc8	-0.25900102
47	0xbe138abd	-0.14408393
48	0xbe0f4cef	-0.13994192
49	0x3d5c27c1	0.05374885
50	0xbd248235	-0.040163238
51	0x3d0da544	0.034581438
52	0xbc0bca60	-0.008532137
53	0x3cffd486	0.031229269
54	0xbe08df4c	-0.13366431
55	0x3d0f1bc1	0.034938578
56	0x3d2a4504	0.041569725
57	0xbe2c69f8	-0.16837299
58	0xbe4e23df	-0.20130871
59	0xbe039e2b	-0.12853305
60	0x3da6db02	0.08147241
61	0xbe64aac2	-0.22330764
62	0x3d9ec7aa	0.07752927
63	0xbe17f0e8	-0.14837992
64	0xbe0f6fca	-0.14007488
65	0x3eba25b2	0.36356884
66	0x3e15cb16	0.14628252
67	0xbe6a67fb	-0.22891228
68	0x3e3aaab1	0.18229176
69	0xbda5ae05	-0.08089832
70	0xbdb1c64f	-0.086804025
71	0x3f6c3c72	0.9227973
72	0xbeb04aca	-0.3443206
73	0xbe2b4b05	-0.16727836
74	0x3ee9adfc	0.45640552
75	0xbe693f41	-0.22778036
76	0xbeb1c536	-0.34720773
77	0x3ddb2d11	0.10701955
78	0xbea6f776	-0.32610673
79	0x3eb44144	0.35206044
80	0x3d61c0bc	0.055115446
81	0x3a77433d	0.00094323215
82	0x3dc915a9	0.098185845
83	0x3c2e42c5	0.010636036
84	0xbd2ead06	-0.042645477
85	0xbab4b1c3	-0.0013785887
86	0xbd61e361	-0.055148486
87	0xbe8f74db	-0.2801884
88	0xbe01ff76	-0.12695107
89	0x3d1a6094	0.03768976
90	0xbd87a9f2	-0.06624211
91	0xbe9250d3	-0.2857729
92	0x3ed5ad57	0.4173381
93	0x3edde770	0.43340635
94	0x3e416049	0.18884386
95	0x3e94501f	0.28967378
96	0xbee49d2e	-0.4465117
97	0xbb2d388f	-0.0026431417
98	0xbe6f25f1	-0.23354317
99	0x3e18f81e	0.14938399
100	0x3ccafb42	0.024778012
101	0x3d91b583	0.07114699
102	0xbf3bd217	-0.73367447
103	0xbee81393	-0.45327434
104	0x3e5968d0	0.21231389
105	0xbe3dc3f8	-0.18531787
106	0x3f12e13e	0.5737494
107	0x3d8ebea3	0.06969955
108	0x3f111298	0.56668997
109	0x3e6d7ab5	0.2319134
110	0x3da49a4b	0.080372415
111	0x3edad730	0.427423
112	0x3db2285a	0.08699103
113	0x3dcdbd91	0.100459225
114	0xbd994961	-0.07484699
115	0x3d3966fb	0.045264225
116	0xbd13316b	-0.0359358
117	0xbe9a8263	-0.30177602
118	0x3ec371dc	0.38172805
119	0xbd7ec96e	-0.062203817
120	0x3d144d50	0.036206543
121	0xbce765f7	-0.028246863
122	0x3e1fc41c	0.15602154
123	0xbe12ae74	-0.14324361
124	0x3f180a8c	0.59391093
125	0x3dc6b72c	0.09702906
126	0x3dcbc895	0.09950367
127	0xbf08c83e	-0.53430545
128	0x3e261f49	0.16222872
129	0xbe7e47da	-0.24832097
130	0x3e3bb671	0.18331315
131	0x3ebbf2b0	0.36708593
132	0xbe5a0d7c	-0.21294206
133	0x4001dede	2.0292277
134	0xbfa1d7e5	-1.2644011
135	0xbab27474	-0.0013615028
136	0x3f0060aa	0.501475
137	0xbc8ae0be	-0.016952869
138	0xbea6d775	-0.32586256
139	0xbc35abba	-0.011088306
140	0x3e8b143a	0.2716387
141	0xbda85687	-0.08219629
142	0xbca7b2b5	-0.020470956
143	0x3c9a7708	0.018855587
144	0xbb32565d	-0.002721212
145	0x39d5cd52	0.000407795
146	0xbc84e9ad	-0.016224707
147	0x3e3da07a	0.18518248
148	0xbeb5b5e7	-0.35490343
149	0x3e7d8176	0.24756417
150	0x3d8989bf	0.06715726
151	0xbdcfb736	-0.101423666
152	0xbc48e6d3	-0.012262064
153	0xbe2a411d	-0.16626401
154	0x3ed5a9c0	0.4173107
155	0xbec16bf7	-0.37777683
156	0x3d3bb7ba	0.045829512
157	0x3dcbe369	0.099554844
158	0xbe9144b0	-0.28372717
159	0xbe0c432f	-0.13697504
160	0x3ea03d68	0.3129685
161	0x3e2f3901	0.17111589
162	0x3cd83564	0.026392646
163	0xbe1b33a3	-0.15156417
164	0x3f2b1cd0	0.6684084
165	0xbd60740f	-0.054798182
166	0x3c8092a5	0.015694926
167	0x3f10a5c2	0.56502926
168	0xbe9ecd69	-0.3101609
169	0x3e789a05	0.24277504
170	0x3d627569	0.055287752
171	0x3d24b34c	0.040210053
172	0x3a98b0c6	0.0011649362
173	0x3e8c9773	0.27459297
174	0x3e0cee5c	0.13762802
175	0x3daae82b	0.08345064
176	0xbd952f0d	-0.07284365
177	0x3d12d775	0.035850007
178	0xbd033390	-0.032031596
179	0xbd359805	-0.04433443
180	0xbddd6310	-0.1080991
181	0xbe06f189	-0.13178076
182	0xbe712fcd	-0.23553391
183	0x3bd6b30c	0.006552106
184	0x3e2266b5	0.15859492
185	0xbcd60cac	-0.02612909
186	0xbeb23a8a	-0.34810287
187	0xbed7b396	-0.421292
188	0xbeaac8bf	-0.33356282
189	0x3eb22702	0.34795386
190	0xbbbd8446	-0.0057835905
191	0xbf171b55	-0.5902608
192	0xbe87b7ad	-0.2650732
193	0xbe90350c	-0.28165472
194	0x3d717e73	0.058958482
195	0x3f8efc83	1.117081
196	0x3f9819f2	1.1882918
197	0x3eb72a7a	0.35774595
198	0xbe1860e4	-0.14880711
199	0xbe51bbc7	-0.20481788
200	0x3ea85d19	0.32883528
201	0x3e5c69b2	0.21524695
202	0xbbbbd677	-0.0057323533
203	0xbe6f9cd3	-0.23399667
204	0x3ef34460	0.47513103
205	0xbb1dc514	-0.0024073767
206	0xbc99cfd2	-0.018775854
207	0xbca51474	-0.020151354
208	0xbcaf5092	-0.021400724
209	0xbe809459	-0.2511318
210	0xbe83804b	-0.25683817
211	0xbe7b7879	-0.24557675
212	0xbc35b75a	-0.011091078
213	0xbd603d5a	-0.05474601
214	0x3c91e90f	0.017811326
215	0x3e255e3c	0.16149229
216	0x3c357404	0.011075024
217	0x3f4e9f08	0.8071141
218	0xbd93e419	-0.072212406
219	0x3eb27ffc	0.3486327
220	0xbead183e	-0.33807558
221	0xbe829f29	-0.25512055
222	0xbed9b51f	-0.42520997
223	0x3f2917d5	0.6605199
224	0xbe0a1a9a	-0.1348671
225	0xbd70b3bf	-0.05876517
226	0x3fd89666	1.6920898
227	0xbdcd4887	-0.10023599
228	0x3e8105fb	0.25199875
229	0xbd39eac0	-0.04538989
230	0x3f24df38	0.64403105
231	0xbe2694c0	-0.16267681
232	0x3e4b70d1	0.19867255
233	0x3dbaaf63	0.091154836
234	0x3db019a2	0.08598639
235	0x3ebcd78b	0.36883196
236	0xbbf80c3e	-0.0075698188
237	0xbce4dfdc	-0.027938776
238	0xbc7195c2	-0.014745178
239	0xbbdc39e6	-0.006720769
240	0xbcee73fb	-0.029108038
241	0xbed667cb	-0.41876063
242	0x3e6841c5	0.22681339
243	0xbba52379	-0.005039629
244	0xbe296b0f	-0.16544746
245	0x3d16e851	0.036842648
246	0xbe01cdce	-0.12676165
247	0x3f2352ce	0.63798225
248	0x3e9be17f	0.30445477
249	0x3f6126e0	0.87949944
250	0x3f501963	0.8128874
251	0xbf7a6c1b	-0.97821206
252	0x3de89cfa	0.11358066
253	0x3d7bab98	0.06144294
254	0xbe0c2082	-0.13684276
255	0xbd993bb2	-0.07482089

actor.0.bias f4 [128]
0	0x3d9f0fe6	0.07766704
1	0xbe9a6283	-0.30153283
2	0xbd1ee653	-0.038793873
3	0xbd624531	-0.055241767
4	0x3e28c4a7	0.16481267
5	0x3d1d3651	0.03838188
6	0x3c81f0d1	0.0158619
7	0xbd14d477	-0.036335435
8	0xbe715469	-0.23567356
9	0x3e5116cf	0.20418857
10	0xbe0d807c	-0.13818544
11	0xbdca07b9	-0.09864754
12	0xbdcfd727	-0.10148459
13	0x3c9dffcc	0.019287013
14	0xbcd4c3b5	-0.025972227
15	0x3e3a44bb	0.18190281
16	0x3d4a5ace	0.049403004
17	0xbe1a3b97	-0.15061794
18	0xbd085e53	-0.03329308
19	0xbd4bbeeb	-0.04974262
20	0x3e211afa	0.15732947
21	0x3cc6584a	0.024212021
22	0x3dcc5208	0.09976584
23	0x3dbbe4c2	0.091744915
24	0x3dc84064	0.097779065
25	0xbc9715dc	-0.01844304
26	0xbd0ebf81	-0.0348506
27	0x3d0afb8c	0.0339313
28	0x3cb9bada	0.022672106
29	0xbde9c75b	-0.11414977
30	0xbe255584	-0.16145903
31	0xbe54e9df	-0.2079234
32	0xbe781a88	-0.24228871
33	0xbc5eadce	-0.013591243
34	0xbe0e65a6	-0.13905963
35	0x3dcf4bab	0.101218544
36	0x3e0cd4f4	0.1375311
37	0xbdb41047	-0.08792167
38	0x3e4b5eba	0.19860354
39	0x3e445867	0.19174348
40	0x3e034ed5	0.12823041
41	0xbe71d0fd	-0.23614879
42	0xbdb4d692	-0.088299885
43	0xbe01f3ed	-0.12690707
44	0x3cf3a239	0.02974044
45	0x3d5257e4	0.05135335
46	0x3cd2b30c	0.025720142
47	0x3b67b1ad	0.0035353706
48	0x3d977238	0.073948324
49	0xbdfa8b1c	-0.12233564
50	0xbd0d2937	-0.034463134
51	0xbd30e71b	-0.04318915
52	0x3d96c58b	0.07361897
53	0xbd9207ba	-0.0713038
54	0xbb01ea57	-0.0019823515
55	0xbd9fcdd3	-0.0780293
56	0x3cb6ce3b	0.022315135
57	0x3e03fa93	0.12888555
58	0xbdf31096	-0.11868398
59	0x3d93c04a	0.072144106
60	0xbdaec451	-0.08533538
61	0xbcfdd5ee	-0.030985799
62	0xbdefd0c8	-0.11709744
63	0x3e0abd64	0.1354881
64	0xbe83ee2f	-0.25767657
65	0xbe462b74	-0.19352514
66	0xbe37bfec	-0.17944306
67	0xbd92e7b5	-0.07173101
68	0x3d845bb3	0.06462803
69	0x3cfd3bbb	0.03091227
70	0xbe45882c	-0.19290227
71	0xbccf88cf	-0.02533379
72	0x3db30c8b	0.08742627
73	0xbe356788	-0.17715275
74	0xbe8e84ba	-0.27835637
75	0xbd1b3d79	-0.03790042
76	0x3d3801ad	0.044923473
77	0xbe947d18	-0.2900169
78	0xbd8bcd9e	-0.06826328
79	0x3ccf123b	0.025277248
80	0xbe26fae9	-0.16306652
81	0xbe729f4d	-0.23693581
82	0xbe9257b3	-0.28582534
83	0x3e31008a	0.17285362
84	0xbdbcf3a0	-0.09226155
85	0xbcfc93e3	-0.030832237
86	0xbd68aa1e	-0.05680286
87	0xbe36dd7c	-0.17857927
88	0x3d55aab0	0.052164733
89	0xbe193fd5	-0.14965756
90	0xbde94834	-0.11390725
91	0xbd47781a	-0.048698522
92	0x3dd1e1ef	0.102481715
93	0xbe4cc5bb	-0.19997303
94	0xbe11f7aa	-0.14254633
95	0xbdc7fb38	-0.09764713
96	0xbe0e41a5	-0.13892229
97	0x3dbec866	0.09315567
98	0x3df554a2	0.11979033
99	0xbde1b6b4	-0.11021176
100	0x3dfe3be5	0.12413768
101	0x3e25919a	0.16168824
102	0x3db5db91	0.088797696
103	0xbe746ba2	-0.23869184
104	0x3df7abd2	0.12093319
105	0xbd638d88	-0.055554897
106	0xbd8673c8	-0.06565052
107	0xbc9635e9	-0.018336253
108	0xbe7a3543	-0.2443438
109	0x3e3be28e	0.18348143
110	0xbe4d7c63	-0.20066981
111	0xbc2c8f4d	-0.010532212
112	0xbcd04d9d	-0.025427634
113	0xbca2dc07	-0.019880308
114	0xbd20045b	-0.039066654
115	0x3d1955be	0.037435286
116	0xbd0d855d	-0.034551013
117	0xbb9b2049	-0.0047340733
118	0xbe75307d	-0.23944278
119	0xbd6cbb0d	-0.057795573
120	0x3e81cdec	0.25352418
121	0xbd1891bb	-0.037248354
122	0xbdab8043	-0.08374073
123	0x3d279cfa	0.04092119
124	0x3d8a2633	0.06745567
125	0x3cb8d1eb	0.022561034
126	0x3cfb47f1	0.030673953
127	0xbd648f72	-0.055800863

actor.2.weight f4 [128, 128]
0	0xbd857523	-0.06516483
1	0x3c1be89d	0.009515909
2	0xb985958c	-0.00025479158
3	0xbd6a81e6	-0.057252787
4	0xbca2efad	-0.019889677
5	0xbddffc76	-0.10936825
6	0xbe862f63	-0.26208028
7	0xbcd765ac	-0.026293598
8	0x3cdd0281	0.026978733
9	0x3dc7f53a	0.0976357
10	0xbd9906dc	-0.074720114
11	0xbcf67f82	-0.030090097
12	0x3d3415dd	0.043966163
13	0x3d4b92fd	0.049700726
14	0x3e140153	0.1445363
15	0x3dc04784	0.093886405
16	0x3dc04ece	0.09390031
17	0xbd3e5221	-0.046465043
18	0x3da57b32	0.08080138
19	0x3d5b8930	0.05359763
20	0x3d97b3ca	0.07407339
21	0xbcf08cf1	-0.029364081
22	0x3e168e73	0.14702778
23	0x3c6784d7	0.014130793
24	0x3d3ee333	0.046603393
25	0x3e25b6b4	0.16182977
26	0x3d71d49e	0.05904066
27	0x3dbcf393	0.092261456
28	0xbd8b4836	-0.068008825
29	0x3d60e23f	0.054903265
30	0x3ca88244	0.020569928
31	0xbc1dafa0	-0.009624392
32	0xbdd20971	-0.10255707
33	0x3cb8ef76	0.022575121
34	0x3dfd5c0f	0.123710744
35	0xbd9980ee	-0.074952945
36	0x3bcef89e	0.0063162586
37	0xbd3ab82a	-0.04558579
38	0xbccc70a1	-0.02495605
39	0xbd9cf356	-0.076636
40	0x3d4cb8cf	0.049980935
41	0xbd48e56b	-0.049046915
42	0x3d8ace12	0.06777586
43	0x3db87448	0.09006554
44	0x3d9327ec	0.07185349
45	0x3da936c3	0.08262398
46	0xbc538d25	-0.012912069
47	0x3d961804	0.07328799
48	0x3c843ec3	0.016143208
49	0xb9861ebf	-0.0002558138
50	0xbd75342b	-0.059864204
51	0x3c8d0595	0.017214576
52	0x3d70cde1	0.05879009
53	0x3b69f632	0.0035699722
54	0x3d12f3d7	0.035877075
55	0x3ce2ff20	0.027709544
56	0x3d9b7a57	0.07591694
57	0xbb196c84	-0.0023410628
58	0x3d6e14f4	0.05812545
59	0xbd55a6be	-0.05216097
60	0x3d2e38f1	0.042534772
61	0x3dc39b23	0.09551074
62	0x3ca8145e	0.020517524
63	0x3c0b393e	0.008497534
64	0xbdbb4594	-0.0914413
65	0x3da6fd72	0.081538096
66	0xbc4de22a	-0.012566129
67	0x3d32e13b	0.043671828
68	0x3c77fc4b	0.015135835
69	0xbd94debf	-0.07269048
70	0xbd8ed229	-0.069736786
71	0xbd8058c2	-0.06266929
72	0x3b1b7f40	0.002372697
73	0x3cc4db54	0.024030365
74	0xbc72b542	-0.014813723
75	0x3c10ec1d	0.008845356
76	0xbccdfa76	-0.025143843
77	0x3bf19032	0.0073719257
78	0xbd5534a3	-0.05205215
79	0x3e0266af	0.12734483
80	0xbe1afe0a	-0.1513597
81	0x3d9fcf5f	0.07803225
82	0x3c180bc0	0.009280145
83	0x3d77c0de	0.060486667
84	0x3dbb8765	0.09156684
85	0x3da8bfed	0.08239732
86	0xbd8da2c5	-0.069158114
87	0x3d79c3e3	0.060977828
88	0x3c821d7d	0.015883202
89	0xbd255639	-0.04036543
90	0xbda0ed53	-0.07857766
91	0x3d7b6c49	0.061382566
92	0xbd5f69c3	-0.05454422
93	0x3d6621a6	0.056184433
94	0x3d152d4f	0.036420163
95	0x3dc94e89	0.098294325
96	0x3c6fdcba	0.014640028
97	0xbcc72893	-0.02431134
98	0xbd759448	-0.059955865
99	0xbe1dec35	-0.15422137
100	0xbd3acab3	-0.045603465
101	0xbd8badc0	-0.068202496
102	0x3d92dd0b	0.07171067
103	0x3cd9614a	0.026535649
104	0xbe36ea59	-0.17862834
105	0x3db6a0aa	0.08917363
106	0xbd07a173	-0.033112954
107	0xbbcd2305	-0.006260278
108	0x3c19e350	0.009392574
109	0xbde6695e	-0.11250566
110	0x3d73cd91	0.059522215
111	0xbdc8853c	-0.097910374
112	0x3d3da8fd	0.046303738
113	0x3dc95c1e	0.09832023
114	0x3d9e4621	0.0772822
115	0x3da450cd	0.08023224
116	0xbdc43230	-0.09579885
117	0xbd874587	-0.06605058
118	0xbca534da	-0.020166803
119	0x3dafe7f6	0.08589165
120	0x3db56123	0.08856418
121	0xbd02ed9b	-0.03196488
122	0xbd37461e	-0.044744603
123	0x3db9a212	0.090641156
124	0xbd5e0d81	-0.054212097
125	0xbdbc9088	-0.09207255
126	0xbd211e8f	-0.039335784
127	0xbd2e52d7	-0.04255947
128	0xbdabb4f0	-0.083841205
129	0x3d63f4ad	0.055653263
130	0x3d796ac0	0.06089282
131	0x3d2e13ed	0.04249947
132	0x3dc2bcf2	0.09508695
133	0x3b82235a	0.0039714994
134	0x3db8bcbc	0.09020373
135	0x3a847732	0.0010106324
136	0x3e07b193	0.13251333
137	0x3de41f6a	0.11138804
138	0xbbe5d30e	-0.007013685
139	0xbd645631	-0.05574626
140	0xbd89c52f	-0.06727063
141	0x3cbeb067	0.023277475
142	0xbe0ef8ac	-0.13962048
143	0xbd229369	-0.039691363
144	0xbea321a6	-0.3186161
145	0x3b26e3fc	0.002546548
146	0xbeb78bb2	-0.35848767
147	0x3d76228b	0.060091536
148	0x3d664c87	0.056225326
149	0xbd3b11af	-0.04567116
150	0x3c87840a	0.016542453
151	0x3d28ecb0	0.041241348
152	0xbbc85ad4	-0.006114343
153	0xbc839874	-0.016063906
154	0x3d88ccb6	0.066796705
155	0x3da5f6d2	0.08103718
156	0x3dc0af5b	0.094084464
157	0x3cd41aee	0.025891747
158	0xbddcf3ea	-0.107887104
159	0xbde2e9b5	-0.11079732
160	0x3db7fd34	0.089838415
161	0xbdb976b7	-0.09055846
162	0x3db8b95e	0.09019731
163	0xbc95a9e5	-0.018269489
164	0x3d31db25	0.043421883
165	0xbdedd998	-0.11613768
166	0xbdc9ea78	-0.098591745
167	0x3dc38e70	0.09548652
168	0x3d29acfa	0.04142473
169	0xbe2b08d6	-0.1670259
170	0xbd3c8567	-0.04602566
171	0x3da55c5c	0.08074257
172	0xbc18e1d4	-0.009331185
173	0xbd96bbd8	-0.07360047
174	0x3d50c86c	0.050972387
175	0xbd0d9fb7	-0.034576144
176	0xbdbe804c	-0.093018144
177	0x3d62f23f	0.055406805
178	0xbc35709d	-0.011074212
179	0xbdbe0922	-0.09279086
180	0xbdcc4fcf	-0.0997616
181	0xbd8158c5	-0.063157596
182	0xbe0d0ed8	-0.13775194
183	0x3cc1dc37	0.023664577
184	0xbd46423f	-0.04840302
185	0xbca0d516	-0.019632857
186	0xbdb08eac	-0.086209625
187	0xbde453bf	-0.11148786
188	0xbdfcbce1	-0.12340713
189	0xbc8f6a1d	-0.017506653
190	0x3d8b528b	0.06802853
191	0xbdc6fc8f	-0.097161405
192	0xbe2ffeee	-0.17187092
193	0xbd554a50	-0.052072823
194	0x3e3e6c83	0.18596081
195	0x3c04b141	0.008098901
196	0xbd454098	-0.048157305
197	0xbbd97c9b	-0.0066371686
198	0xbcea8ec3	-0.028632527
199	0x3ce4fe1e	0.027953204
200	0xbd8621c3	-0.06549408
201	0x3aabcd17	0.0013107386
202	0xbd1b6ad7	-0.037943687
203	0x3ca5067d	0.020144695
204	0xbc28e575	-0.010308613
205	0x3c4fbfdd	0.012680021
206	0x3db9f1c5	0.09079317
207	0xbe405f99	-0.18786468
208	0xbd7908cf	-0.060799416
209	0xbded7806	-0.11595158
210	0x3d1be7a1	0.038062695
211	0x3b7d4126	0.0038643568
212	0x3c4431cd	0.011974764
213	0x3b2d3b93	0.0026433214
214	0xbd7ae8e2	-0.06125725
215	0x3d3bd142	0.04585386
216	0xbdd43979	-0.103625245
217	0x3caa3571	0.020777436
218	0x3cc0fcd2	0.023558054
219	0x3bf3234f	0.0074199806
220	0xbd485512	-0.048909254
221	0xbdc62c69	-0.09676439
222	0x3bd094c6	0.0063653914
223	0x3d9f345e	0.0777366
224	0xbd0acb5c	-0.033885345
225	0xbd469334	-0.048480228
226	0x3cdfa291	0.027299197
227	0x3d6ecef3	0.05830283
228	0xbd91fb1b	-0.07127973
229	0xbe0db099	-0.13836898
230	0xbd4d04f1	-0.05005354
231	0xbd2eda35	-0.042688567
232	0xbdf82a83	-0.121174835
233	0x3d3077e8	0.0430831
234	0xbd2c9800	-0.042137146
235	0x3ae0b854	0.0017144778
236	0xbe0955b1	-0.13411595
237	0x3db21294	0.0869495
238	0xbde1554d	-0.11002598
239	0xbdcd083e	-0.10011338
240	0x3cc24d76	0.023718577
241	0x3e324b23	0.17411475
242	0x3d47586e	0.048668317
243	0xbdeb64b9	-0.11493821
244	0xbc016184	-0.007896785
245	0x3d62f71d	0.055411447
246	0x3cfce1f5	0.030869463
247	0x3d5c02f2	0.053713746
248	0xbd5a447c	-0.053287968
249	0xbd605e75	-0.05477758
250	0xbcd67ca0	-0.026182473
251	0xbda16ee8	-0.07882482
252	0xbe48ea59	-0.19620647
253	0x3dfea265	0.12433318
254	0xbd39e7d1	-0.045387093
255	0xbc2662ea	-0.010155419

actor.2.bias f4 [128]
0	0x3d17c850	0.037056267
1	0xbe2eb738	-0.1706208
2	0xbdf05d46	-0.117365405
3	0xbdca9579	-0.09891791
4	0x3ce90591	0.028445037
5	0xbdc71b9f	-0.09722065
6	0xbae9c8b3	-0.0017836302
7	0x3d00cfd6	0.031448208
8	0xbd1bc963	-0.038033854
9	0x3daa0ca2	0.08303191
10	0xbe016c84	-0.12639052
11	0x3c93c937	0.018040283
12	0x3de447ef	0.11146533
13	0xbd5478e8	-0.051873118
14	0xbd8dfbe7	-0.06932812
15	0xbd39021f	-0.04516804
16	0xbc1d4f6e	-0.009601457
17	0xbd4480e8	-0.047974497
18	0x3c6006ef	0.013673528
19	0x3d00f4e8	0.03148356
20	0xbd33cc9e	-0.04389631
21	0xbd656100	-0.05600071
22	0xbdec93d5	-0.11551634
23	0xbd65bf16	-0.056090437
24	0xbd4db026	-0.050216816
25	0xbcb87819	-0.022518205
26	0xbd3e8275	-0.046511132
27	0xbd849099	-0.06472892
28	0x3dcadb77	0.09905141
29	0xbd2d9636	-0.04237958
30	0x3c842c07	0.016134275
31	0x3d5e62cc	0.05429344
32	0xbd9e4ada	-0.077291206
33	0xbd96ff80	-0.073729515
34	0x3cb5df6f	0.022201268
35	0xbd8eee29	-0.06979019
36	0xbd2401de	-0.040040843
37	0xbc04193a	-0.008062655
38	0xbcb104a0	-0.02160865
39	0xbe1fe01e	-0.15612838
40	0xbd3059e3	-0.043054473
41	0xbdc0fcf6	-0.094232485
42	0x3e00335b	0.1251959
43	0xbd2f296d	-0.042764116
44	0x3d1f76dc	0.038931713
45	0xbdb0c319	-0.08630962
46	0xbe003984	-0.1252194
47	0xbd8f7fc5	-0.07006792
48	0xbdaf0fe9	-0.085479565
49	0xbdc7c0b4	-0.09753552
50	0x3d864d35	0.06557695
51	0xbd95336a	-0.07285197
52	0xbe1d3955	-0.15353902
53	0x3df47a3b	0.11937376
54	0x3dc57bd6	0.096427605
55	0xbeb0468c	-0.34428823
56	0x3d165bb2	0.03670854
57	0xbe310521	-0.17287113
58	0xbd7b90d3	-0.061417412
59	0xbd93bfa3	-0.07214286
60	0xbe0323c1	-0.12806608
61	0xbc994c9b	-0.018713286
62	0xbd6fa58b	-0.058507483
63	0xbdd667b2	-0.10468997
64	0xbdd7f976	-0.10545628
65	0xbe100f58	-0.14068353
66	0x3ce4d5a3	0.027933901
67	0xbe209a3a	-0.15683833
68	0x3d1bbc82	0.038021572
69	0xbe25c474	-0.16188222
70	0xbdc05b83	-0.093924545
71	0xbdaf3198	-0.08554381
72	0x3d8b2b78	0.067954004
73	0xbe014877	-0.126253
74	0x3dc91f12	0.09820379
75	0xbd3da0c4	-0.046295896
76	0xbd802215	-0.06256501
77	0xbdd13185	-0.10214523
78	0xbd83447e	-0.06409548
79	0x3c2897ad	0.010290069
80	0xbdf54ef0	-0.11977947
81	0xbddae36c	-0.106879085
82	0x3d13bfcf	0.036071595
83	0x3c52ea5b	0.0128732575
84	0xbc10ba60	-0.008833498
85	0xbcd71561	-0.026255311
86	0xbe96cad6	-0.29451627
87	0xbb463efe	-0.0030249949
88	0xbd8ac24d	-0.06775341
89	0x3ce5f6d0	0.028071791
90	0x3a93f15d	0.0011287142
91	0xbc82f511	-0.015985997
92	0xbda588a6	-0.08082704
93	0xbe20f17b	-0.15717117
94	0xbd4bd5e3	-0.049764525
95	0xbc775ab4	-0.015097309
96	0xbdf1f463	-0.11814191
97	0x3b17de00	0.0023173094
98	0x3c889a26	0.016675066
99	0x3e0ac04a	0.13549915
100	0x3c6b86b8	0.014375381
101	0xbc2d5e15	-0.010581513
102	0xbbd62861	-0.0065355753
103	0xbe1743cb	-0.14771955
104	0xbd797a95	-0.06090792
105	0xbc9f263d	-0.019427413
106	0xbdf108f1	-0.117692836
107	0xbd154a3c	-0.03644775
108	0xbe1efd5c	-0.15526336
109	0x3c7b7248	0.015347071
110	0xbdab3199	-0.083590694
111	0x3d3205a0	0.043462396
112	0xbc671290	-0.014103547
113	0x3cb6d5dc	0.022318773
114	0xbdc8b3c0	-0.097999096
115	0xbe1152f1	-0.14191796
116	0xbd583cc8	-0.05279234
117	0xbd34533d	-0.044024695
118	0xbd875f5a	-0.06609984
119	0xbdf2b553	-0.11850991
120	0x3c8aa9f8	0.01692675
121	0x3d9bf111	0.07614339
122	0xbd449855	-0.047996838
123	0x3c81610e	0.01579335
124	0xbd817d95	-0.06322781
125	0xbd310df8	-0.043226212
126	0xbe2df029	-0.16986145
127	0xbd14bba4	-0.03631176

actor.4.weight f4 [128, 128]
0	0xbd47173b	-0.04860614
1	0xbb876b07	-0.0041326317
2	0x3affa648	0.0019504512
3	0x3cf9aa29	0.030476646
4	0x3d817e5c	0.06322929
5	0xbcc7fabf	-0.024411557
6	0xbc3870f6	-0.011257401
7	0x3d7d0ef2	0.06178183
8	0xbd11aaf7	-0.035563435
9	0xbdcd5adc	-0.10027096
10	0x3bd5cfa2	0.006524996
11	0xbc95adbf	-0.018271325
12	0x3e095b10	0.13413644
13	0xbc841f67	-0.016128255
14	0xbd99b4a6	-0.07505159
15	0xbd0d2c82	-0.034466274
16	0xbd562c03	-0.052288067
17	0xbd34e09a	-0.04415951
18	0xbd5d8480	-0.05408144
19	0xbd5cd5b9	-0.05391476
20	0xbda5b8ad	-0.08091865
21	0x3d8374c6	0.06418757
22	0xbcf06edc	-0.029349737
23	0xbd481901	-0.04885197
24	0xbdbdbd18	-0.092645824
25	0x3c27ebe7	0.010249115
26	0xbd00b0fb	-0.03141878
27	0xbd80867c	-0.06275651
28	0xbd03173b	-0.032004576
29	0x3d6c6fdd	0.05772387
30	0xbbe0c771	-0.006859713
31	0xbd3304c0	-0.0437057
32	0x3cc3e355	0.023912111
33	0xbd7cd23d	-0.061723936
34	0x3d53eb47	0.05173805
35	0xbc55caa3	-0.013048801
36	0x3cd6edce	0.026236441
37	0xbd119eb6	-0.03555175
38	0x3ce8b68c	0.028407358
39	0x3d23543e	0.03987526
40	0x3dd180a0	0.102296114
41	0xbd7710b7	-0.060318675
42	0x3db2fe39	0.087398954
43	0xbd759f9b	-0.059966665
44	0xbcdb1244	-0.026742108
45	0x3d24b46c	0.040211126
46	0x3c6dbfa0	0.014511019
47	0xbc1cc404	-0.009568218
48	0xbc0d77b2	-0.008634495
49	0xbd350021	-0.044189576
50	0xbd7b78a3	-0.061394345
51	0x3d649307	0.05580428
52	0xbcde9185	-0.027168998
53	0x3bce4224	0.0062945057
54	0xbd418eff	-0.047255512
55	0x3c08e006	0.008354193
56	0x3dc3580c	0.09538278
57	0xbd92f67a	-0.07175918
58	0x3c9612db	0.018319538
59	0xbcf2f995	-0.029660026
60	0xbd4900e3	-0.04907311
61	0x3d957953	0.072985314
62	0x3d242978	0.04007861
63	0xbd3983c4	-0.045291677
64	0xbdeb7428	-0.114967644
65	0x3d18614f	0.037202176
66	0x3d548437	0.051883902
67	0xbd97f5c2	-0.074199215
68	0x3c420eeb	0.011844377
69	0x3d8d3cbc	0.0689635
70	0xbd5979c5	-0.053094644
71	0x3a149fde	0.0005669574
72	0xb99a7f00	-0.0002946779
73	0xbdcc2a69	-0.099690266
74	0x3d99ab1e	0.07503341
75	0xbc63e3ba	-0.013909275
76	0x3d188eeb	0.037245672
77	0x3ca371ef	0.019951789
78	0xbd61a02c	-0.055084392
79	0x3d3f01ca	0.046632566
80	0x3c2966c6	0.0103394445
81	0xbdc067bb	-0.09394785
82	0xbdc6f65e	-0.097149596
83	0xbbd8ab1f	-0.006612196
84	0xbd4e130e	-0.05031114
85	0xbbb688c1	-0.0055705016
86	0x3cb782a6	0.022401165
87	0x3daf0359	0.085455604
88	0x3da3b4d8	0.079934776
89	0x3c50007f	0.012695431
90	0x3d64e75e	0.05588471
91	0xbd37f302	-0.044909485
92	0x3c41fb72	0.011839734
93	0x3da781fa	0.08179088
94	0x3ae9a58c	0.0017825826
95	0xbd64996f	-0.05581039
96	0xbd823b3b	-0.063589536
97	0xbc873348	-0.016503945
98	0xbd750173	-0.059815835
99	0x3d0065b2	0.031346984
100	0xbdfe79e8	-0.124255955
101	0xbafb39a9	-0.0019166964
102	0xbd0bc1fb	-0.03412054
103	0xbd0aef74	-0.033919767
104	0xbcb9315f	-0.02260655
105	0x3c170433	0.00921731
106	0x3d9a3415	0.07529465
107	0x3bcd614d	0.0062677027
108	0xbd546aa8	-0.051859528
109	0xbd1ba59b	-0.03799973
110	0x3d30347a	0.043018796
111	0x3d5d57dc	0.054038867
112	0xbd24b8de	-0.040215366
113	0xbc5bc30f	-0.013413205
114	0xbd86de04	-0.06585315
115	0x3cfdb014	0.03096775
116	0x3d00ff51	0.03149349
117	0x3cc29f37	0.02375756
118	0x3c5ac2b1	0.013352082
119	0xbcfca4a8	-0.030840233
120	0xbc39e715	-0.011346598
121	0xbda3f02c	-0.080047935
122	0xbbf4d123	-0.00747122
123	0xbab9213d	-0.0014124286
124	0x3c87fa3b	0.016598811
125	0xbd23d409	-0.039997134
126	0x3c78bbd2	0.015181499
127	0xbd2ca567	-0.042149927
128	0xbdf21749	-0.118208475
129	0x3d9c8214	0.07641998
130	0x3d5cde3c	0.053922877
131	0xbd8700e3	-0.06591966
132	0x3dab1156	0.08352916
133	0x3d4d0586	0.050054096
134	0x3d26ba13	0.040704798
135	0xbd1369b5	-0.035989482
136	0xbc1fcc93	-0.009753364
137	0x3beb3155	0.0071775117
138	0xbd9b45e2	-0.075816885
139	0x3c1236a4	0.00892416
140	0x3d651e96	0.055937372
141	0x3d3b437e	0.045718662
142	0x3dbd360e	0.09238826
143	0xbdb22b40	-0.086996555
144	0xbcba9b53	-0.022779142
145	0xba240f29	-0.00062583626
146	0x3ce53079	0.027977215
147	0x3c0b5c73	0.008505928
148	0xbdfec8c8	-0.1244064
149	0x3df0370d	0.1172925
150	0xbc798e37	-0.015231661
151	0xbd0cb0d9	-0.034348343
152	0xbd3c2656	-0.045934997
153	0x3d15106b	0.03639261
154	0xbd361a91	-0.04445893
155	0x3cea8ea4	0.02863247
156	0x3db5b823	0.08873012
157	0xbc2cb58f	-0.010541334
158	0x3ceacf31	0.02866325
159	0xbe08e469	-0.13368382
160	0x3d7212af	0.05909985
161	0xbd4f4e34	-0.05061169
162	0x3c2cfa71	0.010557757
163	0x3ccf92f3	0.025338626
164	0x3db57d28	0.08861762
165	0x3df8bafd	0.1214504
166	0x3c8f7898	0.017513558
167	0x3da40184	0.080081016
168	0xbd181205	-0.03712656
169	0xbdaf708a	-0.08566387
170	0xbd261aab	-0.040552776
171	0x3bea1685	0.007143798
172	0x3d0619e5	0.03273954
173	0x3df3da03	0.11906817
174	0xbd4599dd	-0.04824244
175	0x3d24f2cb	0.040270608
176	0x3d5be9bc	0.053689703
177	0xbd841602	-0.0644951
178	0x3bf380e7	0.007431138
179	0x3d2911ca	0.04127673
180	0xbd78446b	-0.060612123
181	0xbdf6356c	-0.12021908
182	0xbbd09c16	-0.006366263
183	0xbda5d8a1	-0.08097959
184	0x3db39605	0.08768848
185	0xbd8f0551	-0.06983436
186	0x3d542dbe	0.051801436
187	0x3d8e987e	0.06962679
188	0x3d320037	0.043457236
189	0xbd5844cb	-0.05279998
190	0xbc402156	-0.011726698
191	0x3d185548	0.037190706
192	0x3d852b49	0.065023966
193	0xbd89da59	-0.067311
194	0xbcb6f183	-0.022331959
195	0x3d70bfba	0.058776595
196	0xbd32afd3	-0.04362471
197	0xbdbd0216	-0.092289135
198	0xbc75b68e	-0.014997138
199	0x3d31d088	0.04341176
200	0x3d3438e8	0.043999583
201	0xbd79222a	-0.060823597
202	0x3c4ffb65	0.0126942145
203	0x3bf2e35d	0.0074123577
204	0x3defdf79	0.11712546
205	0xbd9e29e0	-0.07722831
206	0xbdc3f20f	-0.095676534
207	0xbbeb8755	-0.0071877637
208	0x3d105692	0.03523881
209	0xbcaae7dd	-0.020862514
210	0x3d9f82f0	0.07788646
211	0xbd3bd941	-0.045861486
212	0xbcf0b3f4	-0.029382683
213	0x3d227c6b	0.039669435
214	0xbcd03f0f	-0.025420694
215	0xbce3e713	-0.027820146
216	0x3c1621d8	0.009163342
217	0xbd27a580	-0.040929317
218	0xbd506a6c	-0.05088274
219	0x3da4666b	0.08027347
220	0xbde1749c	-0.110085696
221	0xbc000e91	-0.007815973
222	0x3d6e71fe	0.05821418
223	0xbdef7790	-0.116927266
224	0xba06dab2	-0.00051442825
225	0xbb130865	-0.0022435423
226	0x3b291393	0.002579902
227	0x3cea98c2	0.028637294
228	0xbd6a6953	-0.05722935
229	0x3d9e7ace	0.07738267
230	0x3d676f85	0.056502838
231	0xbd2cb19e	-0.042161576
232	0x3bacf2b2	0.005277955
233	0x3d62c321	0.05536187
234	0x3d436d2b	0.047711533
235	0x3ccaadfb	0.024741163
236	0x3c10c2cc	0.008835506
237	0xbc0eab23	-0.008707794
238	0x3a7d66ff	0.00096665317
239	0xbda4aac1	-0.08040381
240	0xbdcfb956	-0.10142772
241	0xbdcd2107	-0.10016065
242	0x3cf4a1f8	0.029862389
243	0xbd95d7a7	-0.07316523
244	0xbdc59d2a	-0.09649117
245	0xbcea4906	-0.028599273
246	0xbdcefbde	-0.101066336
247	0xbcb4e665	-0.022082517
248	0x3bb75b8c	0.00559563
249	0xbcd1f4d1	-0.025629433
250	0x3d5da070	0.054108083
251	0x3beb3fa9	0.0071792197
252	0xbd9264aa	-0.071481064
253	0x3e010bf3	0.12602215
254	0xbdce4e6e	-0.10073553
255	0xbd495635	-0.04915448

actor.4.bias f4 [128]
0	0x3ccd5368	0.025064185
1	0x3d0d70a6	0.034531258
2	0xba7a09c7	-0.00095382
3	0x3d398047	0.04528835
4	0xbcd63e97	-0.026152892
5	0x3d707f2d	0.058715034
6	0xbc31c0c0	-0.010849178
7	0xbcb91fa9	-0.022598105
8	0xbd5fc3fd	-0.05463027
9	0xbe3ff2a3	-0.18744902
10	0xbded7f6a	-0.11596568
11	0x3c0390ff	0.008030175
12	0xbdba61e8	-0.091007054
13	0xbd9d6618	-0.076854885
14	0x3d770740	0.06030965
15	0xbdbbdbd0	-0.09172785
16	0xbb6d9839	-0.0036254062
17	0xbc40f60b	-0.011777411
18	0xbdfb6d09	-0.12276656
19	0xbd101e6d	-0.035185266
20	0xbdf6942b	-0.120399795
21	0x3dab9313	0.083776616
22	0xbd2fac7e	-0.04288911
23	0x3c925d6f	0.017866818
24	0x3d29d885	0.041466255
25	0xbd288a02	-0.04114724
26	0xba6fffbe	-0.0009155235
27	0xbcc1325c	-0.023583584
28	0xbe126745	-0.14297207
29	0x3d440f71	0.04786629
30	0xbdb4ef53	-0.0883471
31	0x3c9b6932	0.01897106
32	0xbc456738	-0.012048535
33	0x3dd75335	0.10513917
34	0x3d25dafe	0.04049205
35	0x3c88a84a	0.016681809
36	0xbc08379e	-0.008314041
37	0x3d0897e9	0.033347998
38	0xbd22dcd5	-0.039761383
39	0xbc459291	-0.01205887
40	0xbd3fd2cc	-0.04683189
41	0xbd77e930	-0.06052512
42	0xbe14ec6b	-0.14543311
43	0xbddd9690	-0.10819733
44	0xbda13ac2	-0.07872535
45	0xbe05dd85	-0.13072784
46	0x3c20e964	0.00982127
47	0xbe82da04	-0.25556958
48	0xbc30b344	-0.010784928
49	0x3ce45472	0.027872298
50	0xbd9ae02b	-0.07562288
51	0x3d913610	0.0709039
52	0xbd85ee05	-0.06539539
53	0xbd0181b1	-0.031617824
54	0x3cda4acf	0.026647
55	0xbbc4207f	-0.005985319
56	0xbda7c0ff	-0.08191108
57	0xbe0159d2	-0.1263192
58	0xbcde3aaa	-0.027127583
59	0xbd93c3ab	-0.07215055
60	0x3c694096	0.01423659
61	0xbb9c5bcd	-0.0047716857
62	0xbc361e23	-0.011115584
63	0xbd5bb152	-0.053635903
64	0xbd816dbb	-0.063197576
65	0x3cf6c685	0.030123958
66	0x3bf7e71f	0.0075653936
67	0x3d6bec37	0.05759832
68	0xbca0d61f	-0.01963335
69	0x3d9bf8db	0.07615825
70	0xbcedd6e9	-0.029033141
71	0xbdfd04ee	-0.12354456
72	0x3c9dfee8	0.019286588
73	0x3d4bdc7e	0.049770825
74	0xbc9cf9b7	-0.019162042
75	0xbdb06303	-0.08612635
76	0xbd120a9f	-0.03565466
77	0xbd06a84c	-0.032875344
78	0x3ca2e2d6	0.019883554
79	0xbcb4cf37	-0.022071464
80	0xbdf4b8f8	-0.119493425
81	0xbd82b4fc	-0.06382176
82	0x3dd2e3e2	0.102973714
83	0xbd75c717	-0.06000432
84	0xbcd29425	-0.025705406
85	0xbda1a6ee	-0.078931674
86	0x3d44fd34	0.048093036
87	0x3d91e350	0.071234345
88	0x3d8ad184	0.06778243
89	0xbd4db179	-0.05021808
90	0x3d52d661	0.05147398
91	0x3c47c77b	0.012193556
92	0xbe6107a6	-0.21975574
93	0xbd60e172	-0.0549025
94	0xbdde7594	-0.1086227
95	0xbcc79005	-0.024360666
96	0xbd484dd4	-0.048902348
97	0xbd95e367	-0.07318764
98	0xbd5540fd	-0.05206393
99	0x3cc14d75	0.023596505
100	0xbda8777c	-0.08225915
101	0xbd882363	-0.066473745
102	0xbdf097ae	-0.117476806
103	0xbc8cb328	-0.017175272
104	0xbdc34ea0	-0.09536481
105	0x3cd91e69	0.026503759
106	0xbd8b82b7	-0.06812041
107	0x3d229e6c	0.039701864
108	0x3d04ef40	0.03245473
109	0xbd1cc500	-0.03827381
110	0xbcc8078d	-0.024417663
111	0xbd74493e	-0.05964016
112	0xbcf0049f	-0.029299079
113	0xbd5fdb00	-0.054652214
114	0x3d920c5f	0.07131266
115	0x3d82dbd9	0.06389589
116	0xbd24e9b5	-0.040261943
117	0xbde68e34	-0.11257592
118	0xbe04dbb0	-0.12974429
119	0x3d9b4fb1	0.07583559
120	0xbce9a626	-0.028521609
121	0x3c0bc804	0.008531574
122	0x3da6d84e	0.081467256
123	0x3d4c1eaf	0.04983395
124	0x3db2d07b	0.08731171
125	0xbd0544af	-0.032536205
126	0xbdcbfb6a	-0.09960063
127	0xbac574d7	-0.0015064728

actor.6.weight f4 [8, 128]
0	0x3cc06bb8	0.023488864
1	0x3c5ebf2f	0.013595386
2	0x3caa57e9	0.020793872
3	0x3cd3b32b	0.02584227
4	0xbccc32e2	-0.024926607
5	0xba3ae74e	-0.0007129804
6	0x3b1d28f7	0.0023980716
7	0xbc0b7c84	-0.008513574
8	0xbbfc261e	-0.0076949736
9	0xbdbd7778	-0.092513025
10	0xbbfdfdfb	-0.007751224
11	0xbb4e3e89	-0.003147038
12	0xbd3523ba	-0.044223525
13	0xbc90d268	-0.017678455
14	0x3c88e642	0.016711358
15	0xbc4a8d8e	-0.012362851
16	0xbbfb511d	-0.0076695816
17	0xbd534b81	-0.051585678
18	0xbc555e9d	-0.013023046
19	0xbd2d9f51	-0.042388264
20	0x3cfbe007	0.030746473
21	0x3d26b0b4	0.04069586
22	0xbd9bfc4d	-0.07616482
23	0xbb59b0ec	-0.0033217026
24	0x3bd2c383	0.006431998
25	0xbce00adf	-0.027348934
26	0xbcafa24c	-0.021439694
27	0xbcc50f90	-0.024055272
28	0xbdd88056	-0.10571353
29	0xbb6a55d9	-0.0035756736
30	0xbd1fdfdb	-0.039031845
31	0x3bfd4ee7	0.007730353
32	0xbc69ee0b	-0.014277945
33	0x3d296e67	0.041365054
34	0x3d81da86	0.06340508
35	0xbc41f9e4	-0.011839364
36	0xbd880178	-0.06640905
37	0x3d15e303	0.03659345
38	0xbc1fa4a6	-0.009743845
39	0x3bd71bf8	0.0065646134
40	0xbcb784a2	-0.022402111
41	0x3d2a3bcc	0.041560933
42	0xbd5cc7fd	-0.05390166
43	0xbccded5c	-0.025137596
44	0xbb40fb33	-0.0029446601
45	0xbce73db0	-0.028227657
46	0x3d5cedc8	0.053937703
47	0xbdc9d619	-0.09855289
48	0x3b677994	0.003532027
49	0x3a5dafa9	0.00084566564
50	0x3ae91428	0.0017782496
51	0x3a325585	0.00068029045
52	0xbd2699bd	-0.04067396
53	0x3a610846	0.00085843017
54	0x3cb1d54a	0.02170815
55	0xbb4938df	-0.0030704064
56	0x3d038a92	0.032114573
57	0x3b4bf5e4	0.0031121904
58	0xbc3a02fa	-0.011353249
59	0xbc3f77ce	-0.0116862785
60	0x3bbf77e5	0.00584315
61	0x3cb5748b	0.022150299
62	0x3da41dc5	0.080134906
63	0x3c3a4cee	0.0113708805
64	0x3c5c2132	0.013435649
65	0x3c943e87	0.018096222
66	0x39e1812c	0.00043011585
67	0xbac63b18	-0.0015123812
68	0xbd81c0cd	-0.06335602
69	0xbb21edc5	-0.0024708372
70	0x3d50b256	0.050951324
71	0xbd1920c9	-0.037384782
72	0x3ba4d8d0	0.005030729
73	0x3c25d11a	0.0101206545
74	0x3befe282	0.007320703
75	0x3b78b108	0.0037947316
76	0x3bab5d84	0.005229654
77	0x3b6e2ec0	0.0036343783
78	0x39fcba55	0.00048204014
79	0xbb5ad5c1	-0.0033391567
80	0xbbb7661b	-0.0055968887
81	0x3bf2bb03	0.0074075474
82	0xbc388b7c	-0.011263724
83	0x3bb58336	0.005539323
84	0xbca5b0da	-0.020225931
85	0xbd445267	-0.047930147
86	0xb9bd0c78	-0.0003605818
87	0x3ad430d5	0.001618887
88	0xbd1fcdce	-0.03901463
89	0x3bd02776	0.0063523604
90	0x3cb5b6e8	0.022181943
91	0xbadcd974	-0.0016849474
92	0xbdbf10f5	-0.09329406
93	0xbca91267	-0.020638658
94	0x3c45a2cf	0.012062742
95	0xbcbcab2c	-0.02303084
96	0x3b8c6efc	0.0042856913
97	0xbb12cbf1	-0.002239939
98	0xbd0e15da	-0.034688808
99	0xbcd02410	-0.025407821
100	0xbb5ed262	-0.003399991
101	0x3bd1218b	0.0063821725
102	0xbaf19562	-0.001843136
103	0xbd3655f7	-0.044515576
104	0x3cd0cbb1	0.025487753
105	0x3c2ed0c1	0.010669888
106	0x3c298267	0.010346032
107	0xbc45ca5d	-0.012072173
108	0x3cb5b891	0.022182735
109	0xbc4c08d2	-0.012453275
110	0xbd3794de	-0.044819705
111	0x3c194208	0.009354122
112	0xba59ccab	-0.0008308391
113	0x3d852789	0.06501681
114	0x3c9ca442	0.019121293
115	0x3b8b15f1	0.004244559
116	0xbcb9b97e	-0.022671457
117	0xbcaaf6b5	-0.020869592
118	0xbcfec534	-0.031099893
119	0x3c79da90	0.015249863
120	0xbd10b646	-0.03533008
121	0x3c0708d7	0.008241854
122	0xbc0e5a38	-0.008688502
123	0xbd0dbef4	-0.034605935
124	0x3c5ff325	0.01366881
125	0xbd0caefe	-0.034346573
126	0x3aafdd40	0.0013417378
127	0xbd16f5bf	-0.036855455
128	0xbc0b0cf7	-0.008486978
129	0xbd46ee06	-0.04856684
130	0x3d4eef58	0.050521225
131	0x3c29e7f3	0.010370242
132	0xbd66dbda	-0.05636201
133	0x3b4fd020	0.0031709746
134	0x3d54d6e0	0.051962733
135	0x3b486d50	0.0030582733
136	0x3cacb047	0.02108015
137	0x3be546e4	0.006996976
138	0x3bd19901	0.0063964133
139	0x3d5f26b6	0.054480277
140	0x3c103472	0.008801566
141	0x3d8d784b	0.0690771
142	0xbcdb660f	-0.026782064
143	0xbc302872	-0.01075183
144	0x3ae964e5	0.0017806558
145	0x393b98d5	0.00017890644
146	0xbb3eeb39	-0.0029131903
147	0xbcefd6e1	-0.029277267
148	0xbd13d133	-0.03608818
149	0xbd834850	-0.06410277
150	0xbc760b14	-0.01501729
151	0x3c009839	0.007848793
152	0x3cb9e2dc	0.022691183
153	0x3bd6bd1f	0.0065533067
154	0xbc3b4548	-0.011430092
155	0x3d0cd23f	0.034380194
156	0x3ccd4fc0	0.025062442
157	0xbd52651e	-0.051365964
158	0xbcf1e630	-0.029528707
159	0x3ced9b8a	0.02900483
160	0xbd919698	-0.071088016
161	0xbd2c631f	-0.042086717
162	0xbc97ce13	-0.018530881
163	0xbab1f045	-0.0013575634
164	0xbc977de5	-0.018492648
165	0xbca76454	-0.020433582
166	0xbd912607	-0.07087331
167	0x3c4e20e6	0.012581086
168	0x3be6cfc8	0.0070438124
169	0xbc14d537	-0.0090840375
170	0x3d598e17	0.053114023
171	0x3c5b1f9e	0.013374237
172	0xbd3bc604	-0.04584314
173	0xbd3cda07	-0.046106365
174	0x3d53af83	0.051681053
175	0xbd19facb	-0.03759269
176	0x3b7f5380	0.0038959682
177	0x3c0b0af2	0.008486496
178	0xbcdf9d63	-0.027296728
179	0x3b5e0f11	0.0033883492
180	0xbbbf9e7a	-0.0058477493
181	0x3c9b328c	0.018945001
182	0x3d85bce2	0.06530167
183	0x3ba90c53	0.00515894
184	0xba682cdb	-0.00088567816
185	0xbca9ad45	-0.020712504
186	0x3b46d7da	0.003034106
187	0xbcd9e030	-0.026596159
188	0x3d18140c	0.037128493
189	0x3ce02ca3	0.027365034
190	0x3c3f9997	0.0116943335
191	0xbd56e577	-0.05246493
192	0x3d082739	0.03324053
193	0xbd1c5cd2	-0.038174458
194	0xbccb7191	-0.024834426
195	0xbb044f04	-0.0020188699
196	0x3d549de4	0.05190839
197	0x3d3bccfe	0.045849793
198	0x3c8cf284	0.017205484
199	0xbc2643a6	-0.010147965
200	0x3c34bad4	0.011030871
201	0x3c4f72fa	0.01266169
202	0xbcd21050	-0.025642544
203	0x3d0cc2ce	0.034365468
204	0x3cdc2dd8	0.026877329
205	0x3d8f6b69	0.07002909
206	0xbd9086e7	-0.070569806
207	0xbcf1fce6	-0.029539537
208	0x3ca6363b	0.020289531
209	0xb9955112	-0.00028479897
210	0xbc57884b	-0.013155053
211	0xbc05a3a5	-0.008156692
212	0xbccc9230	-0.024972051
213	0x3cedc182	0.029022936
214	0xbbe9acb6	-0.0071311845
215	0x3d200146	0.039063714
216	0xbce8152b	-0.028330406
217	0x3b9c9321	0.0047782813
218	0x3c496c28	0.012293853
219	0x3b63cc38	0.0034759175
220	0x3d9f56fb	0.07780262
221	0x3c8774e9	0.01653524
222	0xbcc18ac4	-0.023625739
223	0xb9e44273	-0.00043537057
224	0xbcb15098	-0.021644875
225	0x3c945715	0.01810793
226	0x3d6b68cc	0.05747299
227	0x3d8cd378	0.06876272
228	0xba35c3a4	-0.0006933755
229	0x3ccac427	0.024751736
230	0xbd153f9d	-0.03643762
231	0x3cab4785	0.020908127
232	0xbd14f658	-0.036367744
233	0xbd3479e7	-0.044061568
234	0x3a00d92e	0.0004915175
235	0x3ca29273	0.019845223
236	0xbb9fe5f3	-0.004879707
237	0x3b823d67	0.003974605
238	0xbba90c0d	-0.0051589073
239	0xbcc4ce0a	-0.024024028
240	0x3d26a7f6	0.040687524
241	0xbd536fc8	-0.051620275
242	0xbc85f4a9	-0.016352015
243	0x3b75c9b7	0.0037504265
244	0x3d905b4e	0.07048665
245	0x3b70a67e	0.003672033
246	0x3d1aac96	0.037762247
247	0x3b8f939f	0.0043816115
248	0xbc8edc16	-0.01743893
249	0x3c717e3a	0.014739567
250	0x3c7a1151	0.015262918
251	0x3c5f8da9	0.013644614
252	0xbc3f808d	-0.011688364
253	0x3d0dbe92	0.03460557
254	0x3d55d34a	0.052203454
255	0x3b86f747	0.004118833

actor.6.bias f4 [8]
0	0x3e27c84b	0.16385
1	0xbdbf205f	-0.09332346
2	0x3d044d25	0.032300133
3	0x3de34795	0.110976376
4	0x3d713b53	0.058894467
5	0x3c81c008	0.015838638
6	0xbcd8ce31	-0.026465507
7	0xbcf53e38	-0.029936895

critic.0.weight f4 [128, 31]
0	0x3e7b9932	0.24570158
1	0x3e21f1c6	0.15814885
2	0xbe1c36ed	-0.15255328
3	0x3e35637b	0.1771373
4	0xbe167bda	-0.14695683
5	0x3db358df	0.08757185
6	0x3dfb5f1d	0.12274001
7	0x3d47de41	0.048795942
8	0x3d647b5a	0.0557817
9	0x3f8f4a17	1.1194485
10	0x3ea25fce	0.31713718
11	0x3ec7c1dc	0.3901509
12	0xbea75d84	-0.32688534
13	0xbe031fad	-0.12805052
14	0x3ed0cf9f	0.40783402
15	0xbdcdd291	-0.10049928
16	0x3d9773f0	0.0739516
17	0x3d067d2d	0.03283422
18	0xbd77ee3e	-0.06052994
19	0xbdaa67aa	-0.083205536
20	0x3d8c24ce	0.068429574
21	0x3d72508b	0.059158843
22	0x3d0498ad	0.032372165
23	0x3dbefb20	0.09325242
24	0x3bd8943b	0.0066094673
25	0x3d560656	0.052252136
26	0x3d362276	0.04446646
27	0x3e879f37	0.2648866
28	0xbdf8c106	-0.12146191
29	0xbe137162	-0.14398721
30	0xbe279aab	-0.16367595
31	0x3dc26e52	0.09493698
32	0x3d1a2167	0.03762951
33	0x3e99a010	0.3000493
34	0x3de1317a	0.10995765
35	0x3c481f89	0.01221455
36	0xbde40d71	-0.11135376
37	0x3e2385e6	0.15969047
38	0xbe0031d3	-0.12519006
39	0x3e49e147	0.19714843
40	0x3fae61a0	1.3623543
41	0xbf8f6bd9	-1.1204787
42	0x3d140ab4	0.03614302
43	0x3e659a55	0.22422154
44	0xbe0aed7a	-0.13567153
45	0xbe156be5	-0.1459194
46	0xbd43731c	-0.0477172
47	0x3d0b7349	0.03404549
48	0x3b0e18a3	0.0021682165
49	0xbd8a602f	-0.06756627
50	0xbc442d34	-0.011973668
51	0xbcc4630d	-0.023973012
52	0x3d208257	0.0391868
53	0x3c471c83	0.012152794
54	0x3df5740e	0.11985026
55	0xbd5f5773	-0.054526757
56	0x3bf35cd2	0.0074268365
57	0x3deb1fd4	0.1148068
58	0xbd004990	-0.031320155
59	0x3e082fe9	0.13299526
60	0xbe077a25	-0.13230188
61	0x3ca5cc1e	0.020238932
62	0x3e83999e	0.25703138
63	0x3df2fd8e	0.11864768
64	0x3e679672	0.22615984
65	0x3d453ece	0.0481556
66	0x3d515690	0.051107943
67	0x3e776d7d	0.2416286
68	0x3dbd0266	0.09228973
69	0x3c62b160	0.013836235
70	0x3dd0c3af	0.10193574
71	0xbff18ac1	-1.8870469
72	0x3f05dac2	0.5228692
73	0xbdcb6f28	-0.09933311
74	0x3cfc30e6	0.030785035
75	0x3d0ea928	0.03482929
76	0x3e86ee83	0.26353845
77	0xbc4bee30	-0.012446925
78	0x3d2d26c0	0.042273283
79	0x3c4d0aaf	0.012514754
80	0x3c8cac32	0.017171953
81	0x3d267c21	0.040645722
82	0xbced23ca	-0.02894773
83	0x3d6645f9	0.056219075
84	0x3da2c098	0.079468906
85	0x3c89a579	0.016802536
86	0x3e4679db	0.19382422
87	0xbc36492b	-0.011125843
88	0xbdfa0711	-0.12208379
89	0x3d18130d	0.037127543
90	0x3dfbb4a8	0.12290317
91	0xbe7e1333	-0.24812011
92	0xbdcfc252	-0.101444855
93	0x3e02ad11	0.12761332
94	0xbd4bd16c	-0.049760267
95	0x3ded6ab0	0.11592615
96	0x3e072bbc	0.13200277
97	0xbd8ae45c	-0.06781837
98	0xbde1f716	-0.11033456
99	0x3e056945	0.13028438
100	0xbcee2bfb	-0.029073706
101	0x3e1ac284	0.15113264
102	0xbf874cb0	-1.0570278
103	0x3f06218a	0.52394927
104	0xbd7b23aa	-0.06131331
105	0xbdeb31dc	-0.11484119
106	0x3dd41565	0.10355643
107	0x3dca551e	0.09879516
108	0xbd356b53	-0.044291805
109	0xbc73941d	-0.014866856
110	0x3e0f2583	0.13979153
111	0xbdb88435	-0.090095915
112	0x3de43cd5	0.11144415
113	0x3db4a0ec	0.08819756
114	0xbd0d89f9	-0.03455541
115	0x3dc01f33	0.09380951
116	0x3dfb2a20	0.12263894
117	0x3d3e905f	0.0465244
118	0xbd432016	-0.04763802
119	0xbddd7c2c	-0.108146995
120	0xbcaea5c9	-0.021319287
121	0x3d87a4cc	0.066232294
122	0x3bfb2edc	0.007665498
123	0xbdb747b6	-0.08949225
124	0xbdac171f	-0.084028475
125	0x3e040082	0.12890819
126	0x3f00795f	0.501852
127	0xbd9fe68e	-0.07807647
128	0x3e4b735a	0.19868222
129	0x3db44e51	0.08804
130	0x3e140c26	0.1445776
131	0xbd1a9723	-0.03774179
132	0x3db94b4b	0.09047564
133	0xbf914de5	-1.1351897
134	0x3f9761fa	1.1826775
135	0x3e890bb6	0.26766747
136	0xbe065744	-0.13119227
137	0x3cba40da	0.022736002
138	0x3ece11bc	0.40247905
139	0x3cee27d7	0.029071731
140	0xbc81a5b5	-0.015826086
141	0xbb342d26	-0.002749273
142	0xbbb64e94	-0.0055635665
143	0x3d2bc5ba	0.041936614
144	0x3d70d341	0.058795217
145	0xbd7a6265	-0.061128993
146	0xbd20d82f	-0.03926867
147	0x3df457b5	0.11930791
148	0xbde48f57	-0.111601524
149	0xba8a1211	-0.0010533949
150	0x3e1f01ab	0.1552798
151	0x3d23bab1	0.039972965
152	0xbe207811	-0.15670802
153	0x3d8559a8	0.06511241
154	0x3d45ba8b	0.048273604
155	0xbe4b5eb0	-0.19860339
156	0xbd3d6f0d	-0.046248484
157	0x3edf3b8e	0.43600124
158	0x3d5bbe8f	0.053648528
159	0x3d1ff687	0.039053466
160	0xbd914f7e	-0.0709524
161	0x3da24df9	0.07925028
162	0xbe6aec8d	-0.229418
163	0xbd860b19	-0.065450855
164	0x3eeb8e24	0.46006882
165	0x40104cb0	2.2546806
166	0xbe5c9a9c	-0.21543354
167	0xbd73d81a	-0.059532262
168	0x3ac8161e	0.001526538
169	0xbe12c7a1	-0.14333965
170	0xbca010af	-0.019539205
171	0x3c961eba	0.018325198
172	0x3c82b7fb	0.01595687
173	0xbd33601d	-0.043792833
174	0xba28c9b5	-0.0006438748
175	0xbb45fc4b	-0.0030210193
176	0x3b62b9fc	0.0034595719
177	0xb37e3211	-5.918452e-08
178	0x3e0334e2	0.12813142
179	0xbcee0b1a	-0.029058028
180	0xbc4115a2	-0.011784943
181	0x3d53f2b2	0.051745124
182	0x3d9c6a22	0.07637431
183	0x3c82a6c4	0.01594866
184	0xbbecb4aa	-0.0072236853
185	0xbd474c83	-0.04865695
186	0x3e0d0a86	0.13773546
187	0x3de6d55a	0.11271162
188	0xbd5538bb	-0.052056056
189	0xbe14edc0	-0.1454382
190	0xbdfbc089	-0.122925825
191	0xbca5121e	-0.02015024
192	0x3d496837	0.049171653
193	0x3e12e89d	0.14346547
194	0x3e679629	0.22615875
195	0x3fa07745	1.2536398
196	0xbf1ca9a5	-0.61196357
197	0x3de91b80	0.11382198
198	0xbda876f9	-0.08225817
199	0xbdf5a75c	-0.11994812
200	0x3e5941f7	0.2121657
201	0xbcd33ad3	-0.025784886
202	0x3c192cf6	0.009349098
203	0xbd6283e5	-0.055301566
204	0x3d4004a5	0.04687943
205	0xbda952a4	-0.082677156
206	0xbd6118bc	-0.05495523
207	0x3cb82a9e	0.022481259
208	0xbd95f4f1	-0.073221095
209	0xbcce5bec	-0.025190316
210	0xbdcc3518	-0.09971064
211	0xbd9b1864	-0.075730115
212	0xbe327389	-0.17426886
213	0x3d20221a	0.03909502
214	0xbd92079e	-0.07130359
215	0xbdf793fd	-0.120887734
216	0x3e36466f	0.17800306
217	0xbda74cc0	-0.08168936
218	0xbdd039f2	-0.10167302
219	0x3e45bd97	0.19310604
220	0x3d2eae4d	0.042646695
221	0xbcc8178c	-0.02442529
222	0x3d2f8264	0.04284896
223	0x3ba1fc57	0.0049434113
224	0x3e5312d9	0.20612659
225	0xbdabd562	-0.08390309
226	0x3f8eae4b	1.114694
227	0x3fbbb7ad	1.4665428
228	0x3e1f7279	0.15571012
229	0xbcbaf8dd	-0.022823745
230	0xbe56ecf4	-0.20988828
231	0x3df7f3b8	0.121070325
232	0x3d2896d4	0.041159466
233	0xbcd3869b	-0.02582102
234	0xb90ecb72	-0.00013617965
235	0x3d420c9f	0.047375318
236	0x3c1e8da1	0.009677322
237	0xbd378a0d	-0.04480939
238	0xbc91437c	-0.017732374
239	0xbc43b520	-0.011945039
240	0xbd9485ca	-0.07252081
241	0x3dba5972	0.090990916
242	0xbcf3aff2	-0.029746983
243	0xbe001df3	-0.12511425
244	0x3d1f444b	0.03888349
245	0x3e9a7964	0.3017074
246	0x3e131ae8	0.14365733
247	0xbd2f0596	-0.042729937
248	0xbcc2dea4	-0.023787804
249	0xbca91746	-0.02064098
250	0x3dacb308	0.08432585
251	0x3db74898	0.08949393
252	0xbd05de6f	-0.032682832
253	0x3d9ec7da	0.077529624
254	0x3e3e834a	0.1860477
255	0x3e6ca003	0.23107915

critic.0.bias f4 [128]
0	0xbe0dfcdd	-0.13865991
1	0xbe37f861	-0.17965843
2	0x3e039f4e	0.12853739
3	0x3d86509a	0.06558342
4	0x3c07f5dc	0.008298364
5	0xbd456f49	-0.048201833
6	0xbc8313d4	-0.016000666
7	0xbb92a618	-0.0044753663
8	0xbde26fd1	-0.110564835
9	0xbe871d3a	-0.26389486
10	0x3d77291c	0.06034194
11	0xbebafbb7	-0.36520168
12	0xbe514b9f	-0.20439003
13	0xbe4df8a9	-0.20114388
14	0x3e65a88a	0.22427574
15	0xbdc7bad6	-0.09752433
16	0xbe2ff61f	-0.17183731
17	0xbd13632c	-0.03598325
18	0x3dacd3d8	0.084388435
19	0x3db9173e	0.09037636
20	0x3e25094b	0.16116826
21	0xbd6aecc9	-0.057354722
22	0xbe163048	-0.14666855
23	0xbe1e1ecf	-0.1544144
24	0xbd8c3901	-0.0684681
25	0xbe8c692b	-0.27423987
26	0xbca0655c	-0.019579582
27	0xbe86d5d5	-0.26335016
28	0xbe5b4177	-0.21411692
29	0x3d7fac62	0.062420256
30	0x3dc59916	0.096483395
31	0x3c320b10	0.010866895
32	0x3cc4bbc7	0.02401532
33	0xbd1949f3	-0.03742404
34	0x3ec15393	0.37759075
35	0xbe864580	-0.262249
36	0xbe92802a	-0.28613406
37	0x3e5609b3	0.20902137
38	0xbe8a5ff8	-0.27026343
39	0xbe76cb33	-0.24100952
40	0x3c0a356a	0.0084355865
41	0x3e96eafd	0.29476157
42	0xbe3bb517	-0.18330799
43	0xbe596fef	-0.21234106
44	0x3dfbc210	0.12292874
45	0x3dccbae0	0.09996581
46	0x3e77b430	0.2418983
47	0xbe104c7f	-0.14091681
48	0xbe87653e	-0.2644443
49	0x3e24a6bc	0.16079229
50	0xbe239b6b	-0.15977256
51	0xbdd5d8fa	-0.104417756
52	0xbeb219e2	-0.34785372
53	0x3dde0b5e	0.10842012
54	0xbe0ae1c0	-0.1356268
55	0xbe539a13	-0.20664243
56	0xbb79e473	-0.003813055
57	0xbe05bf96	-0.13061365
58	0x3e0b1947	0.13583861
59	0xbe120c8c	-0.14262599
60	0x3c8306cb	0.01599445
61	0xbd2537eb	-0.04033653
62	0xbd214c1e	-0.03937923
63	0xbe9a1277	-0.30092213
64	0xbbf19f10	-0.007373698
65	0xbe63f610	-0.22261834
66	0xbd67ec74	-0.056621984
67	0xbde27156	-0.11056773
68	0xbe029cdf	-0.12755154
69	0x3ddf11e1	0.10892082
70	0xbe826f79	-0.25475672
71	0x3e2d61dc	0.16931862
72	0xbe2ed966	-0.17075118
73	0x3e8c7c83	0.27438745
74	0x3cdbb402	0.026819233
75	0x3e16589d	0.14682241
76	0x3e806c6b	0.25082716
77	0x3dd1e0d2	0.10247959
78	0x3dcc8a5f	0.0998733
79	0xbda2e8cf	-0.07954561
80	0x3e136c77	0.14396845
81	0xbdd0508a	-0.101716116
82	0x3d1a6265	0.037691493
83	0x3e8fc056	0.28076428
84	0xbe99bd34	-0.30027163
85	0x3e82fd68	0.2558396
86	0x3d8946e7	0.06702977
87	0x3d39715a	0.045274116
88	0x3df0d9c8	0.117602885
89	0x3df2cd88	0.11855608
90	0xbe6f159c	-0.23348087
91	0xbd30c0ac	-0.043152496
92	0xbe42e2af	-0.19031785
93	0xbd18584d	-0.037193585
94	0xbe4d39c4	-0.20041567
95	0x3e060e1a	0.13091317
96	0x3c9f64fb	0.01945733
97	0xbe02c870	-0.12771773
98	0x3d373862	0.044731505
99	0x3da8be1b	0.08239385
100	0xbd2c0ef8	-0.042006463
101	0xbdadda09	-0.084888525
102	0x3b90ace6	0.0044151423
103	0xbdd40c47	-0.10353904
104	0x3de77829	0.113022156
105	0xbe7f0aa5	-0.24906404
106	0x3e9c40a2	0.3051806
107	0xbe141082	-0.14459422
108	0x3cd5b624	0.026087828
109	0xbd32c18f	-0.043641623
110	0xbe673795	-0.22579797
111	0x3cf8fd7e	0.030394312
112	0xbd3575f9	-0.04430196
113	0x3dae7dcc	0.085200876
114	0xba522edd	-0.00080178474
115	0xbd86040b	-0.0654374
116	0x3bdab5b9	0.006674495
117	0x3e13733b	0.14399426
118	0xbe1e9662	-0.15487054
119	0x3e094e5c	0.13408798
120	0xbd34397d	-0.044000138
121	0x3c57766b	0.013150792
122	0x3d62429f	0.055239316
123	0xbda11d2e	-0.07866894
124	0x3e0b1d85	0.1358548
125	0xbe80d5c2	-0.25163084
126	0x3d75424e	0.059877686
127	0xbdb1e8a3	-0.0868695
