ISAAC_NOGIT/logs/rsl_rl/traquad_flat/2025-09-16_12-27-53/model_200.pt (torch, 925483 bytes, 48 tensors)

std f4 [8]
000000 37 b6 99 3e 80 8b b5 3e 6c 14 a6 3e 12 66 9b 3e
       0.3002183 0.35457993 0.32437456 0.3035131
000010 d5 65 06 3f 46 b4 1e 3f 71 b8 2b 3f a7 09 08 3f
       0.52499133 0.61993825 0.6707831 0.5313973

actor.0.weight f4 [128, 31]
000000 e0 11 b6 bd e4 ca 25 be 84 12 2b 3e a0 6b 9e 3e
       -0.08890128 -0.16190678 0.16706282 0.30941486
000010 78 c3 25 3e ae db a6 bc 47 6e 85 3e 30 bf 85 be
       0.16187847 -0.020368423 0.26060697 -0.26122427
000020 cc 75 b3 bd 5e 46 a9 3f 04 f1 be 3d 35 85 5f be
       -0.08762702 1.3224599 0.09323314 -0.21828158
000030 22 b8 3d 3e c5 f8 ae 3d 61 df 8d be f7 ba e7 bb
       0.18527272 0.08543543 -0.27709487 -0.0070718485
000040 88 b2 24 bd cb de 3c 3e d1 f2 50 3e 88 d2 55 3d
       -0.040209323 0.18444364 0.20405127 0.05220273
000050 c3 f3 9e 3d 5f 19 61 bd d5 c2 8c bd 3d 4a b7 bd
       0.077613376 -0.054955836 -0.06873099 -0.08949707
000060 5d 78 5d 3e 17 80 25 bd 65 c7 03 bd 76 ed 81 bd
       0.21627946 -0.04040536 -0.03217258 -0.0634412
000070 4e e6 4d 3e da f8 5b bd 59 44 99 3d 5f c6 62 be
       0.20107386 -0.05370412 0.074837394 -0.22145985
000080 77 2f 2f bf 08 a1 2f bf 5e 54 60 3e 53 50 f3 3d
       -0.684318 -0.6860509 0.21907184 0.11880555
000090 0c 07 d1 3c fb 3b b1 3d c9 e6 7a 3e 76 93 b6 3e
       0.025516056 0.086540185 0.245021 0.3565938
0000a0 83 ed ea 3d ea b9 ca 3d 97 e1 56 bf 1d 35 dc 3e
       0.11471083 0.098987415 -0.8393797 0.43009272
0000b0 f8 98 ae 3e 1c 3b 08 bf 5b d1 66 be 92 56 02 be
       0.3410108 -0.53215194 -0.225408 -0.12728336
0000c0 34 0d 05 be 85 30 36 3d 9a dc e1 bc 77 37 c6 3c
       -0.12993318 0.044479866 -0.027571011 0.02419637
0000d0 d5 71 18 bd d9 bc b2 3c 29 8a 13 be be f5 73 3d
       -0.037217934 0.021818565 -0.14408173 0.05956053
0000e0 18 19 40 3d bc 04 60 be 3c 75 3f be 7b 18 11 be
       0.04689893 -0.21876806 -0.18697065 -0.14169495
0000f0 51 f2 76 3d 04 b2 6e be 67 da 5c 3d 09 1b 53 be
       0.060289685 -0.23310095 0.053919222 -0.20615782
000100 12 91 e3 bd 93 2b ae 3e 7c 78 ce 3d 80 09 37 be
       -0.11111654 0.3401762 0.10081574 -0.17874718
000110 20 77 db 3d b6 db 66 be 52 e4 bf bd fc a9 70 3f
       0.10716081 -0.2254475 -0.093697205 0.94009376
000120 1d aa a4 be 7a c8 37 be 76 e5 fd 3e 31 c2 81 be
       -0.32161036 -0.1794757 0.49589127 -0.2534347
000130 cd 6f c7 be 38 18 18 3e f0 5f b0 be 0b 90 b8 3e
       -0.38952485 0.14852989 -0.34448195 0.36047396
000140 de da a2 ba 78 1b 0b bc 17 6f b4 3d af 60 e5 ba
       -0.0012424847 -0.008490436 0.08810251 -0.0017500127
000150 5d d3 1f bd d2 a4 cc ba 48 b7 31 bd 85 4f 9f be
       -0.03901993 -0.0015613085 -0.04338768 -0.31115356
000160 2f 0e 14 be 58 02 38 3d 00 07 89 bd 91 33 98 be
       -0.14458536 0.04492411 -0.06690788 -0.29726842
000170 8c 6a db 3e 9f b9 01 3f 53 fd 84 3e 10 e2 94 3e
       0.42854726 0.5067386 0.2597452 0.29078722
000180 7a df ea be 1f 91 ef 3c ab c0 a4 be d9 d3 a4 3d
       -0.45873624 0.029244004 -0.32178244 0.08048219
000190 b6 c9 0d 3e 93 40 48 3d 79 55 43 bf 60 1f d6 be
       0.13846478 0.048889708 -0.76302296 -0.41820812
0001a0 c8 86 51 3e bb fd 50 be 4f a7 1b 3f f9 d4 f9 3d
       0.20461571 -0.2040929 0.6080217 0.121988244
0001b0 75 7f 1d 3f 40 cd 83 3e d4 85 bd 3d 02 48 e3 3e
       0.6152261 0.2574253 0.09254041 0.44390875
0001c0 5c 13 9a 3d 77 3e dc 3d 46 9b 9e bd db 83 39 3d
       0.07523224 0.10754102 -0.0774446 0.045291763
0001d0 13 80 e0 bc 97 2c 9c be 99 11 cf 3e 6b fc fc bc
       -0.02740482 -0.3050277 0.40443113 -0.030882081
0001e0 d0 de 14 3c 7b bc b8 bc 83 18 0d 3e 21 98 03 be
       0.009086326 -0.022550812 0.13778882 -0.12851001
0001f0 2a 0d 13 3f 87 e8 f6 3c 1f b9 64 3d fb db 11 bf
       0.5744196 0.030140175 0.055840608 -0.5697629
000200 cb 4a 2c 3e 8d 2a 85 be 52 62 8c 3e 39 08 a8 3e
       0.16825406 -0.26009026 0.27418762 0.32818773
000210 2b a5 5c be 3f ea 03 40 6b b8 a0 bf 65 74 b7 3c
       -0.21547382 2.0611722 -1.255628 0.022394368
000220 2a dc ff 3e f0 c7 92 3d 7f fb bd be 05 95 dc bc
       0.4997266 0.07167041 -0.3710594 -0.026926527
000230 dd 01 8a 3e 38 72 94 bd 6a cb 06 bd 34 d5 29 3c
       0.26954547 -0.07248348 -0.032908835 0.010365773
000240 ea 69 20 bb ac 2a f7 3b 72 53 93 bc 77 8a 4a 3e
       -0.0024477192 0.0075429287 -0.017984126 0.19779383
000250 db 1d be be 84 61 82 3e 4b 5a c0 3d b7 35 b3 bd
       -0.37132153 0.25465024 0.09392222 -0.0875048
000260 98 de 36 bc ec a2 24 be 2b 54 c9 3e eb 6d cf be
       -0.011161469 -0.16077775 0.39322028 -0.40513548
000270 15 90 5f 3d b4 30 5a 3e 1e 2e a2 be e2 aa 15 be
       0.054580767 0.21307641 -0.3167581 -0.14615968
000280 1c cc 83 3e 22 29 c1 3d 86 fb d4 3d b5 f9 27 be
       0.2574166 0.094316736 0.10399537 -0.1640385
000290 37 39 34 3f d3 00 55 bd dc 5a 1f 3d 03 2e 2e 3f
       0.703998 -0.05200274 0.03890501 0.6803896
0002a0 74 a8 a0 be 49 d5 61 3e c7 76 03 3e 89 c2 97 3d
       -0.3137852 0.22054018 0.12838279 0.074101515
0002b0 c1 52 13 bb 81 bd 96 3e ec 91 e7 3d b1 a6 c6 3d
       -0.0022479745 0.29441455 0.11307129 0.096997626
0002c0 f6 8f 93 bd 3d 46 52 3d 25 ba 1f 3c 4a 8e 41 bd
       -0.07205193 0.051336516 0.00974897 -0.047254838
0002d0 91 f5 a2 bd 3e dc ef bd 65 65 7a be d8 e7 8c 3c
       -0.07956994 -0.1171193 -0.24452741 0.017200395
0002e0 39 ad 29 3e ba 54 84 bc 42 d8 be be 79 31 d0 be
       0.16569985 -0.016153682 -0.37274367 -0.40662745
0002f0 fa a6 76 be f8 62 c4 3e a6 48 e6 bd e7 23 08 bf
       -0.24087134 0.38356757 -0.11244325 -0.5317978
000300 7f cf a2 be 99 3d b1 be d1 69 5c 3d 7f 5f 92 3f
       -0.31798932 -0.34617308 0.053811852 1.1435393
000310 3b 5c 91 3f d0 cf c9 3e 17 99 1e be 07 bb 64 be
       1.1356272 0.3941636 -0.15488087 -0.2233697
000320 88 05 b1 3e 78 fb 6b 3e a8 92 bf 3a dd ea 85 be
       0.34574533 0.23045146 0.001461585 -0.2615575
000330 da 11 ef 3e 71 3f 5e ba ef ce b6 bc 22 19 cf bb
       0.46693307 -0.00084780814 -0.02231547 -0.0063201347
000340 7a 31 8c bc a3 d3 81 be 57 f6 86 be 1a 77 89 be
       -0.017113436 -0.25356779 -0.26359817 -0.2684868
000350 ed 16 4f 3b 3d 63 6a bc 07 a3 9f 3c 55 5a 39 3e
       0.0031599358 -0.014305887 0.019486917 0.18100865
000360 7b cd 1b 3b e4 79 53 3f 89 24 31 be 65 42 98 3e
       0.00237736 0.82607865 -0.17299093 0.29738155
000370 ac ac 9a be ca 70 7f be 8f 1e d2 be 5d ff 3d 3f
       -0.30209863 -0.2494537 -0.4103894 0.7421778
000380 41 51 31 be a3 3b 3b bd 80 03 da 3f e7 88 67 bd
       -0.17316152 -0.04571117 1.7032318 -0.056527045
000390 1c 60 90 3e f2 15 ca bd e7 f3 68 3f 04 55 59 be
       0.28198326 -0.09867467 0.90997165 -0.21223837
0003a0 87 50 24 3e c9 4a aa 3d 8b 7e 9b 3d ed 4a ca 3e
       0.16046344 0.083150454 0.075924955 0.3951029
0003b0 30 16 c1 bb af fc 0f bd 8c 76 c4 bc ad dd c8 bb
       -0.0058925375 -0.035153087 -0.023982309 -0.0061299414
0003c0 ca 37 1c bd 50 db dd be 9c b3 79 3e d7 50 a4 3c
       -0.038139142 -0.43331385 0.24384922 0.020058079
0003d0 ad e1 10 be a9 50 08 3d 5b 38 09 be f5 ce 1d 3f
       -0.14148588 0.03328005 -0.13400404 0.61643916
0003e0 be 21 ac 3e cd 4e 6a 3f 81 5c 4b 3f 61 9c 78 bf
       0.33619493 0.9152649 0.79438025 -0.97113615
0003f0 ae ce 4e 3e 3a 27 12 bd 4a ad 85 bd ae 5f 2a 3d
       0.2019603 -0.03568194 -0.06527193 0.041595154

actor.0.bias f4 [128]
000000 10 39 cb 3d 7a 3e a4 be 7e 81 09 bd dd 12 05 bd
       0.09922993 -0.32078916 -0.03357076 -0.032488693
000010 ef 36 2a 3e 73 04 4d 3d b1 25 a8 3c 60 19 51 bd
       0.16622518 0.05005307 0.020525785 -0.05104959
000020 54 51 68 be 8f 0a 40 3e c3 aa 0d be 57 2d c4 bd
       -0.22687274 0.18754028 -0.13834672 -0.095789604
000030 43 aa cc bd c1 16 86 3c ab bc 6b bc b7 db 36 3e
       -0.09993412 0.016368272 -0.014388244 0.17857252
000040 66 db 8a 3d c3 21 37 be 41 ba f8 bc 00 72 5c bd
       0.06780128 -0.17883973 -0.03036225 -0.053819656
000050 20 4f 2d 3e e4 82 00 3d dd 6c ed 3d 9d 45 a7 3d
       0.16924715 0.031374827 0.1159303 0.081675746
000060 24 1c c2 3d bf 47 ca bb 20 b3 e9 bc e1 01 b8 3c
       0.09478024 -0.0061731036 -0.028527796 0.022461833
000070 65 80 65 3c d9 10 de bd 0c 56 1f be cc 62 57 be
       0.014007662 -0.10843057 -0.15560168 -0.21033782
000080 13 88 6e be 47 d2 a3 3c 35 44 0a be 80 c6 c8 3d
       -0.23294096 0.019997729 -0.13502581 0.09803486
000090 05 f8 01 3e 5f a7 bd bd 5a c4 45 3e d9 9a 49 3e
       0.12692268 -0.09260439 0.19313183 0.19687976
0000a0 fa 82 d9 3d 62 64 70 be 10 35 c6 bd 6a 9d fd bd
       0.10620685 -0.23475793 -0.096780896 -0.1238354
0000b0 5e 53 b1 3c 69 fd 3e 3d 65 7c 0d 3d 70 b8 c3 bb
       0.021646198 0.04662839 0.03454246 -0.0059729144
0000c0 42 aa d2 3d ba 58 03 be 4e 3b dc bc 92 2b 67 bd
       0.1028638 -0.12826815 -0.026883747 -0.056438036
0000d0 60 ea 83 3d 59 75 b1 bd 7e 45 4d 3c 9e ae 9c bd
       0.06441188 -0.086649604 0.012528775 -0.07650493
0000e0 5f 11 f8 3c 9a 20 ef 3d f9 64 fb bd 4f aa aa 3d
       0.03028172 0.1167614 -0.122751184 0.08333265
0000f0 63 67 8d bd 12 50 06 bd 20 14 d5 bd f6 65 fe 3d
       -0.06904485 -0.032791205 -0.10404229 0.12421791
000100 7d 37 85 be aa 3f 48 be fa d9 1b be ca 32 b9 bd
       -0.26018897 -0.19555536 -0.1521987 -0.0904289
000110 1a 2e 9d 3d 45 e6 ec 3c e4 f0 3e be 79 b5 e8 bc
       0.07674809 0.028918395 -0.1864658 -0.028406845
000120 ef d5 8e 3d 75 57 31 be 26 eb 96 be 4e e8 d2 bc
       0.06974398 -0.17318518 -0.2947628 -0.025745537
000130 a2 a7 73 3d 83 00 9b be cf cb 58 bd 91 55 e7 3c
       0.05948604 -0.30273828 -0.052928742 0.028239043
000140 25 14 26 be 99 d0 77 be 0d 3f 88 be 76 ff 28 3e
       -0.16218622 -0.24200667 -0.26610604 0.165037
000150 18 1b b9 bd 5b 94 cf bc 23 cc 87 bd 8c a2 19 be
       -0.09038371 -0.025339296 -0.06630733 -0.15003413
000160 65 8d 6b 3d 6e 5d 1f be b8 60 e5 bd 7f 1e 77 bd
       0.05750789 -0.15562984 -0.11200088 -0.060331818
000170 0d be f5 3d 57 82 4c be d1 5f 03 be 13 6a c6 bd
       0.1199914 -0.19971596 -0.1282952 -0.09688201
000180 f8 e7 14 be 3a 12 f4 3d 0a 76 fe 3d ef 14 d1 bd
       -0.14541614 0.11917539 0.12424858 -0.10209071
000190 8c 87 d1 3d fe 03 28 3e d6 fd ea 3d c6 15 8f be
       0.10230932 0.16407773 0.114741966 -0.279463
0001a0 3e 07 09 3e 20 d5 3f bd de 6c a4 bd 48 ce 7c bc
       0.13381669 -0.04683411 -0.08028577 -0.015430041
0001b0 68 87 71 be cd 60 38 3e 0c a8 4a be 4c 1c f1 bb
       -0.2358681 0.18005677 -0.19790667 -0.0073581096
0001c0 ca 1c a0 bc fc 12 15 bb 06 10 27 bd 5d 92 f7 3b
       -0.019544978 -0.0022746911 -0.040786766 0.0075552897
0001d0 bc 05 da bc ca e9 f0 b9 9b 18 70 be a6 bf 69 bd
       -0.026614062 -0.00045950554 -0.23446886 -0.057067536
0001e0 1c 11 84 3e 1c 48 3b bd d8 2a 9b bd 28 a6 30 3d
       0.25794303 -0.045723066 -0.07576531 0.04312721
0001f0 0a 03 8d 3d f8 c6 72 3d ce 52 35 3d e2 86 5b bd
       0.06885345 0.059271783 0.04426842 -0.05359543

actor.2.weight f4 [128, 128]
000000 57 7a 8d bd 80 c6 35 bb d4 7a 30 bc c1 2a 86 bd
       -0.069081 -0.0027736723 -0.010771472 -0.065511234
000010 32 39 ad bc 1b a5 de bd 5d bb 91 be 48 95 d7 bc
       -0.021145437 -0.10871335 -0.2846326 -0.0263163
000020 4b 3c f3 3c 76 49 b7 3d 79 5f 85 bd bf b6 bc bc
       0.029691836 0.089495584 -0.065123506 -0.023036359
000030 02 48 3c 3d 4e 62 53 3d 16 7b 1e 3e bc 22 e1 3d
       0.04596711 0.051607423 0.15476641 0.10992953
000040 55 a2 b8 3d 50 61 2b bd 8e 15 a4 3d 0e 2b 61 3d
       0.090153374 -0.04184085 0.08011924 0.0549727
000050 eb 63 a5 3d 5c 1f cd bc 95 44 1d 3e 79 01 28 3c
       0.080756985 -0.025039367 0.15358193 0.010254257
000060 21 65 37 3d c9 2f 31 3e 5b f8 75 3d 3b f1 d8 3d
       0.04477418 0.17303385 0.060051303 0.10592886
000070 9b 3c 8b bd 44 a9 5e 3d cb 6b 8c 3c f1 bd cc bc
       -0.06798669 0.054360643 0.017141243 -0.024992915
000080 01 68 0b be e8 46 0d 3d fc e7 ff 3d e1 2d 95 bd
       -0.13613893 0.03449145 0.124954194 -0.07284141
000090 4d 24 64 3c 93 d3 59 bd 7d a1 99 bc 3c eb ad bd
       0.01392467 -0.05318029 -0.018753761 -0.08492133
0000a0 8e 5a 2d 3d 73 14 31 bd 41 eb 97 3d ba c9 a6 3d
       0.042322688 -0.043232393 0.07417918 0.08143945
0000b0 87 f3 8e 3d d8 d2 ac 3d 9e f0 0f bc fc a2 95 3d
       0.06980043 0.08438653 -0.008785395 0.073064774
0000c0 ba 2d cc 3c 9b 56 c3 bb 05 10 7d bd fc 8f 98 3b
       0.024924148 -0.005961252 -0.061782856 0.004655836
0000d0 60 17 64 3d 7d bb b1 3c 0b 8b f5 3c 3c f1 75 3c
       0.055686355 0.021695847 0.029973527 0.015011128
0000e0 ed 51 a2 3d 7b d5 10 3c cf da 8c 3d ca 31 31 bd
       0.07925782 0.00883996 0.06877672 -0.043260373
0000f0 3a 4d 2f 3d a6 e8 cb 3d 9d 2d 79 3c c8 c1 1d 3c
       0.04279826 0.099564835 0.015208629 0.009628721
000100 a7 ef a5 bd 71 c2 a6 3d b5 7f 44 bc 6b fc 36 3d
       -0.08102351 0.081425555 -0.011993338 0.04467432
000110 9f a9 2d 3c f6 26 9a bd 0b 9f 93 bd f5 83 7f bd
       0.010599523 -0.075269625 -0.072080694 -0.062381703
000120 e2 ce 64 3c 1e 29 90 3c 29 ae 80 3b ee 98 57 3c
       0.01396534 0.017597731 0.0039270115 0.01315902
000130 8a bc 08 bd ca 84 02 3c 83 b4 53 bd 8c 95 05 3e
       -0.03338293 0.00796623 -0.05168582 0.13045329
000140 9a 29 28 be f9 95 a7 3d 27 5b b2 3c 64 81 83 3d
       -0.1642212 0.08182902 0.02177198 0.06421164
000150 31 cb a9 3d c1 98 bc 3d a9 4c 84 bd 29 fd 8e 3d
       0.08290709 0.09208823 -0.06459934 0.0698188
000160 ba bd ae 3c b0 f8 7c bd 3b f0 9e bd b6 78 85 3d
       0.021330703 -0.061760604 -0.07760664 0.065171644
000170 a2 6c 82 bd 50 fd 4d 3d a5 c2 05 3d dd f9 cb 3d
       -0.06368376 0.050290406 0.03265633 0.09959767
000180 11 3f 32 3c 0b ea a8 bc 8e e1 66 bd c9 16 22 be
       0.010879294 -0.020619413 -0.05636745 -0.15829004
000190 e3 46 53 bd 27 34 86 bd e3 9f a4 3d d6 e1 b9 3c
       -0.051581275 -0.06552916 0.080383085 0.022690695
0001a0 44 60 34 be ac 0e c2 3d 60 4c 17 bd 3f 0d 1b bc
       -0.17614847 0.09475455 -0.03693807 -0.009463607
0001b0 a4 7d 04 3c c4 0f e7 bd 40 ce 92 3d 5d 08 c8 bd
       0.008086596 -0.11282304 0.07168245 -0.0976722
0001c0 e2 e1 53 3d b2 52 e0 3d 68 38 ab 3d 39 0c 9b 3d
       0.05172909 0.10953273 0.08360368 0.07570691
0001d0 e4 4a c3 bd 22 07 84 bd f0 36 9e bc a7 72 b7 3d
       -0.09535769 -0.06446673 -0.019313306 0.08957415
0001e0 69 f4 c5 3d 72 95 04 bd e3 ec 31 bd 4f 87 c7 3d
       0.09665758 -0.032369085 -0.043438803 0.09742605
0001f0 95 f5 81 bd ca ee bf bd 21 bb fe bc 00 e2 08 bd
       -0.06345669 -0.09371717 -0.03109509 -0.033418655
000200 3c e4 ab bd 73 e3 50 3d 2d ad 3d 3d 9f 34 43 3d
       -0.083931416 0.050998162 0.04630773 0.047657605
000210 94 97 e0 3d 83 3f 82 3b f8 ee a2 3d d4 1c f4 bb
       0.10966411 0.0039748563 0.07955736 -0.0074497256
000220 8c 5b 19 3e 8d 4b 02 3e f8 37 56 bc c4 b1 70 bd
       0.14976329 0.12724133 -0.013074867 -0.05876328
000230 19 c2 7a bd 5f 24 46 3d ee 90 18 be 6b f1 10 bd
       -0.061220262 0.04837453 -0.14899036 -0.035386484
000240 c8 75 a0 be 07 d7 05 3b 1b 19 bd be c5 28 81 3d
       -0.3133986 0.0020422356 -0.36933216 0.06306604
000250 41 03 86 3d 9d d5 1b bd 28 2f ec 3c c8 3b 46 3d
       0.065435894 -0.038045514 0.02883108 0.048396856
000260 fb 3e b3 bc 13 46 63 bb 08 37 91 3d ee a1 74 3d
       -0.021880617 -0.0034679219 0.070905745 0.05972474
000270 d8 6c cb 3d dd 61 9a 3c 79 c2 d2 bd ed 33 f6 bd
       0.0993287 0.018845493 -0.10290999 -0.12021623
000280 9e 10 c6 3d 4d 26 a7 bd ac ba c1 3d 68 7e 1f bd
       0.09671138 -0.08161602 0.09459433 -0.03893891
000290 3e b4 59 3d fb 28 e6 bd 28 9f 9b bd 8e 02 cc 3d
       0.053150408 -0.11238285 -0.07598716 0.09961425
0002a0 2d 03 2a 3d 93 73 55 be ec 15 7d bd 78 77 c6 3d
       0.041506935 -0.2084487 -0.061788484 0.096907556
0002b0 42 f7 74 bb 20 45 c9 bd b8 08 63 3d 07 43 9c bc
       -0.0037378822 -0.09827638 0.055428237 -0.01907493
0002c0 e1 16 c7 bd c1 ef 5a 3d 21 cd 73 bb 37 1d d0 bd
       -0.09721161 0.053451303 -0.0037201124 -0.10161822
0002d0 27 08 a2 bd ed 6b 8f bd c5 bd e5 bd 72 c5 31 3c
       -0.07911711 -0.07003007 -0.11217836 0.010850297
0002e0 a5 00 23 bd 3a 16 fc bc 37 64 cf bd f7 e2 de bd
       -0.039795537 -0.030772317 -0.10126536 -0.10883134
0002f0 ab 6d ee bd b9 49 37 bc b7 5d 9b 3d 59 96 ea bd
       -0.11642011 -0.01118701 0.07586234 -0.11454458
000300 81 12 32 be 5f a8 30 bd 87 b6 48 3e 02 0d cd 3c
       -0.17389871 -0.04312932 0.19600879 0.025030617
000310 e9 b2 2d bd 78 a4 9d 3b 57 bf d8 bc ce 7f 81 3c
       -0.04240695 0.004810866 -0.026458425 0.015808012
000320 1c 4b 85 bd 19 57 8d bc c1 59 62 bd 13 63 04 3d
       -0.065084666 -0.017253445 -0.055261377 0.032321047
000330 0f 3e 9d bb 87 31 7b 3c 9c 32 b7 3d f3 f4 47 be
       -0.0047986577 0.015331632 0.089452 -0.19527034
000340 26 a3 6f bd cd 17 d8 bd 32 60 14 3d c8 8b bd 3b
       -0.0585052 -0.10551415 0.03622455 0.0057844855
000350 f2 18 c5 3c aa 77 17 3c 9b b2 1a bd b4 35 00 3d
       0.024059746 0.009244839 -0.037767988 0.031301215
000360 cf f5 bb bd 5e e8 4d 3c c8 63 94 3c e6 44 2d 3c
       -0.09177744 0.012567608 0.018113986 0.010575509
000370 ba 41 5a bd 57 d9 d8 bd 76 70 56 bc f5 7f 96 3d
       -0.053285338 -0.10588329 -0.013088336 0.073486246
000380 f7 65 ba bc 25 ae 9f bd a3 3b 1e 3d b9 f7 8d 3d
       -0.022753699 -0.07796887 0.038631093 0.06932015
000390 a5 68 38 bd 16 70 16 be 0d 9f 89 bd 1d a8 35 bd
       -0.04502167 -0.14691195 -0.0671979 -0.04434978
0003a0 86 9e 02 be 83 45 49 3d 95 2a e5 bc 4a 37 80 bd
       -0.12755784 0.049138557 -0.027974406 -0.062605456
0003b0 37 ac 09 be 71 86 8e 3d 5d ba c7 bd 85 a7 c2 bd
       -0.13444601 0.069592364 -0.09752343 -0.09504608
0003c0 0d ba 95 3c 2c c9 07 3e 74 e1 7f 3d b9 64 04 be
       0.018277192 0.13260335 0.06247087 -0.12929048
0003d0 83 4b 9a bc 37 cd 74 3d 39 8b 45 3d 1f 87 83 3d
       -0.018834835 0.05976602 0.048228476 0.06422257
0003e0 8d e1 53 bd aa d5 01 bd 23 05 c8 bc 4a 32 91 bd
       -0.051728774 -0.031697907 -0.024416512 -0.0708967
0003f0 6d 4f 45 be 81 02 e1 3d c6 54 1a bd d4 aa a5 bc
       -0.1926858 0.10986806 -0.037678503 -0.020223059

actor.2.bias f4 [128]
000000 34 9f ff 3c 4c 5c 2c be 04 3b 04 be 92 80 c5 bd
       0.031203844 -0.16832083 -0.12913138 -0.096436635
000010 ad a1 0b 3d a1 34 cc bd df 6e ea bb 5b 6a ee 3c
       0.034089733 -0.09970976 -0.00715433 0.029103449
000020 c8 98 56 bd 27 d9 a0 3d 5b e4 fe bd a3 bc 53 3c
       -0.052391797 0.078539185 -0.12445899 0.0129233925
000030 b2 1d d7 3d 3a 22 67 bd 54 34 92 bd 4a fa 4f bd
       0.10503711 -0.056429125 -0.07138887 -0.050775804
000040 d1 d8 84 bc a2 8e 41 bd 7a 06 d1 3c 78 66 f6 3c
       -0.016216667 -0.047255166 0.025515784 0.030078158
000050 eb 3b 05 bd 5b 0f 44 bd 5f da 02 be a6 78 b2 bd
       -0.032527845 -0.047866207 -0.12778614 -0.08714418
000060 92 c7 3b bd 92 fa fd bc 3a 3e 25 bd 25 2b 70 bd
       -0.045844622 -0.03100327 -0.040342547 -0.058634896
000070 c4 b0 b9 3d 1c da 42 bd 53 ba 94 3c df 05 35 3d
       0.090669185 -0.047571287 0.018155253 0.044195052
000080 8a c0 b9 bd c0 82 8d bd 8e ef 43 bc 6d 2a 19 bd
       -0.09069927 -0.06909704 -0.01195897 -0.037393976
000090 cd 97 c8 bd 83 fa 95 bc 9c de 9b bc b4 a5 39 be
       -0.09794579 -0.01830793 -0.019027047 -0.18129617
0000a0 4b 46 8b bd f9 e9 de bd 29 8f e5 3d db 4a 51 bd
       -0.06800517 -0.108844705 0.11208946 -0.05109678
0000b0 70 a6 fd 3c 24 5a ca bd 08 72 15 be 9c c5 96 bd
       0.030963153 -0.09880474 -0.1459428 -0.0736191
0000c0 3c 44 c8 bd f9 e7 ac bd 2e 4d 73 3d 31 65 a4 bd
       -0.0977864 -0.08442683 0.059399776 -0.08027113
0000d0 bf 10 10 be f0 17 e6 3d db 42 e8 3d 0e 6a b1 be
       -0.14068888 0.112350345 0.11340877 -0.34651226
0000e0 16 d4 ba 3c 28 7c 1a be 17 0f 71 bd b7 28 94 bd
       0.022806209 -0.15086424 -0.05885228 -0.07234328
0000f0 14 90 10 be fc 63 9e bc e1 90 70 bd c6 b8 e9 bd
       -0.14117461 -0.019334786 -0.058731917 -0.11412196
000100 e9 77 dc bd c1 d1 0b be 7d be da 3c 70 ff 2f be
       -0.107650585 -0.13654234 0.02670216 -0.17187285
000110 6c d3 2c 3d 1a 33 2d be 0a a0 e6 bd a5 3e bb bd
       0.042193815 -0.16914025 -0.11260994 -0.09142808
000120 57 28 90 3d b6 d7 f2 bd 8b c9 e9 3d 67 4c 3f bd
       0.07038944 -0.1185755 0.114153944 -0.046703722
000130 92 93 34 bd e6 2d e3 bd da d0 8f bd 78 8a d2 ba
       -0.044086047 -0.11092739 -0.07022257 -0.0016062995
000140 bf b5 e8 bd 14 05 d9 bd b2 bf fd 3c 1c 41 55 3c
       -0.1136279 -0.10596672 0.030975197 0.013016012
000150 b8 ed f9 bb 4b 14 b7 bb c2 f1 97 be 6a ca 8a bb
       -0.0076272152 -0.005587136 -0.29676634 -0.0042355554
000160 50 3c 60 bd 20 82 bc 3c 15 f7 3d bc 63 10 b4 bc
       -0.05474502 0.023011267 -0.0115945535 -0.02198047
000170 d8 7d 97 bd 1b d7 21 be d8 2d 2c bd e4 84 c7 bc
       -0.0739705 -0.15804712 -0.042035908 -0.02435536
000180 2b 87 db bd 52 de 50 bb 20 8d 0d 3d 9a 16 0e 3e
       -0.107191406 -0.0031870794 0.034558415 0.1387581
000190 a7 0f 9b 3c de 44 b5 bc 11 36 13 3b 6d 95 16 be
       0.018928362 -0.022127565 0.0022462646 -0.14705439
0001a0 24 a5 90 bd 86 74 bf bc 1e 7d 07 be 3e 70 2b bd
       -0.07062748 -0.023370992 -0.13231322 -0.04185509
0001b0 f0 47 29 be 25 9b 6c 3c 25 cb b4 bd 99 23 0b 3d
       -0.16531348 0.014441286 -0.08827809 0.033969495
0001c0 de 67 07 bd 2f 31 25 3c 1d ba f7 bd c3 c6 06 be
       -0.03305804 0.010082527 -0.12096045 -0.13161759
0001d0 88 4b 3b bd 38 2d 16 bd e7 c1 aa bd 75 ab 07 be
       -0.04572633 -0.036664218 -0.08337765 -0.13249
0001e0 72 fa 0f 3c e4 9e a3 3d 72 18 99 bd 1a b8 0f 3c
       0.008787738 0.0798929 -0.07475366 0.008771921
0001f0 93 ae 8b bd 71 4a 27 bd 80 6d 1e be 1b 2d 33 bd
       -0.06820407 -0.040842477 -0.15471458 -0.043744188

actor.4.weight f4 [128, 128]
000000 22 a4 59 bd f6 12 74 bb 33 9c bf 3b 91 ab e7 3c
       -0.053135045 -0.0037242747 0.005847478 0.028280051
000010 94 f8 8f 3d 90 e2 90 bc 59 a4 35 bc b3 64 6a 3d
       0.070298344 -0.017686158 -0.011086547 0.05722494
000020 21 0d 27 bd f5 16 b4 bd 4a 18 39 3b 8c e6 d6 bc
       -0.040784005 -0.08793441 0.0028243237 -0.02623298
000030 14 10 01 3e f6 0b c5 bb 1d 23 8c bd d9 c3 1e bd
       0.1260379 -0.0060133887 -0.06842635 -0.038760994
000040 d7 ca 52 bd a2 50 4f bd a7 8a 84 bd 63 52 4e bd
       -0.051462974 -0.050614007 -0.06471758 -0.05037154
000050 9c 6d a5 bd 97 6c 79 3d 12 45 c9 bc 80 f4 20 bd
       -0.08077547 0.060894575 -0.024569068 -0.039295673
000060 3d 06 b7 bd 3c 7b 15 3c 0a 3b bb bc a9 74 5b bd
       -0.08936737 0.00912362 -0.0228553 -0.053578053
000070 7a 87 d0 bc 89 c6 67 3d df 60 e4 bb 7e ed ff bc
       -0.025455225 0.056585822 -0.0069695557 -0.031241175
000080 72 82 d7 3c d9 11 52 bd 00 39 64 3d 11 6e 8c bc
       0.026307318 -0.051286552 0.055718422 -0.017142328
000090 ae 90 ff 3c e4 0e 19 bd 06 7f ff 3c 79 d2 14 3d
       0.031196918 -0.037367716 0.0311885 0.036333535
0000a0 30 5f bc 3d 1e 48 92 bd af 96 a4 3d 8b 85 81 bd
       0.09197843 -0.071426615 0.08036553 -0.063242994
0000b0 a0 82 fa bc 39 c9 47 3d 35 f9 83 3c 5d f4 8c bc
       -0.030579865 0.048775885 0.016110042 -0.017206365
0000c0 68 a2 7c ba 63 c5 06 bd 3a ca 6b bd 61 2b 4f 3d
       -0.00096372375 -0.032903086 -0.057565905 0.05057848
0000d0 c5 cc df bc 8a 92 c5 ba 1f cd 36 bd c6 b4 f5 3b
       -0.027319321 -0.0015073579 -0.044629212 0.0074983565
0000e0 d5 18 ca 3d 2c 9e 91 bd d6 9b 3e 3d b1 21 d2 bc
       0.098680176 -0.07110247 0.046535335 -0.025650831
0000f0 d8 d4 63 bd ac 24 9b 3d fe b3 37 3d 45 60 23 bd
       -0.055622905 0.07575354 0.04484939 -0.03988673
000100 5b bb f2 bd 98 4f 0a 3d 48 f6 74 3d ab d0 82 bd
       -0.118521415 0.033767313 0.059805185 -0.063874565
000110 b7 ba 02 3c ae 19 8b 3d 7f e8 6b bd 7d 9d 8a 3b
       0.007979087 0.067920074 -0.057594772 0.0042302
000120 17 10 24 bb b0 17 ec bd 71 9a 92 3d 23 43 ba bb
       -0.0025034004 -0.115279555 0.071583636 -0.005684273
000130 ca f0 38 3d 4a 54 b4 3c 9f 99 6f bd 77 76 5f 3d
       0.04515151 0.022012848 -0.058496114 0.054556336
000140 d0 af 9a 3c c3 cd e0 bd 2f b8 d1 bd ac 1e cd ba
       0.018882662 -0.10976746 -0.10240208 -0.00156494
000150 a6 1f 61 bd dd 68 1b bc ba e4 c7 3c ed 66 ac 3d
       -0.054961823 -0.009485451 0.024401058 0.08418069
000160 c6 ac 9c 3d 7a 23 e5 3c b6 83 2b 3d 9b cd 46 bd
       0.076501414 0.027971018 0.041873656 -0.048535924
000170 09 a5 8a 3c 79 59 cf 3d 78 61 cb 3a 0b 38 72 bd
       0.016924398 0.101244874 0.0015516719 -0.059135478
000180 11 90 8e bd fc 88 44 bc ba f6 63 bd 6b a4 11 3d
       -0.06961072 -0.01199555 -0.05565522 0.03555719
000190 78 8f 00 be 2e 79 dc ba 93 86 50 bd 03 75 ee bc
       -0.12554729 -0.0016820782 -0.05090959 -0.02910853
0001a0 55 89 45 bc fe 95 be 3b 1c 02 73 3d 16 c2 06 3c
       -0.012056668 0.0058162203 0.059328184 0.008224985
0001b0 54 63 72 bd 00 ca 35 bd 8b e7 29 3d be a7 4f 3d
       -0.059176758 -0.044382095 0.041480582 0.05069708
0001c0 fc d7 2e bd 74 1e b0 bc 6a 68 97 bd 7e db 2f 3d
       -0.042686448 -0.021498896 -0.07392962 0.042933933
0001d0 67 28 16 3d af 25 17 3d 5c 69 a9 3c 45 bf f1 bc
       0.036659624 0.036901172 0.020680122 -0.02951015
0001e0 9c 59 e7 bb da cc a8 bd d2 b9 57 bc 4c c4 da ba
       -0.007060243 -0.08242197 -0.013166862 -0.0016690581
0001f0 7b 22 65 3c fc 1b 94 bd fb cf 84 3b f0 e0 32 bd
       0.013985272 -0.072319 0.0040531135 -0.04367155
000200 e3 50 fc bd 78 b8 84 3d 4e c2 76 3d d6 02 92 bd
       -0.123201154 0.06480497 0.060243897 -0.07129447
000210 76 ec 88 3d e5 d6 7a 3d 37 55 1f 3d 5b 85 38 bd
       0.06685726 0.061240096 0.038899627 -0.045049053
000220 11 99 0e bd bd bc 25 bc 94 ae 95 bd 2d ea 14 3b
       -0.034813944 -0.0101157995 -0.07308689 0.0022722587
000230 b5 f1 18 3d 4a cd 3f 3d ac fe dd 3d 8e c8 cd bd
       0.037339885 0.04682664 0.108395904 -0.100480184
000240 c0 dc 83 bd bf f1 85 bb 33 14 e7 3c d5 f1 e7 3b
       -0.06438589 -0.0040876563 0.028207874 0.007078389
000250 6f 4b 16 be 52 d1 ef 3d 57 ae f9 bb f2 d4 07 bd
       -0.14677213 0.117098466 -0.00761966 -0.033162065
000260 c2 41 31 bd b2 aa 14 3d 63 45 1a bd a4 ec b9 3c
       -0.043275602 0.0362956 -0.03766383 0.022695847
000270 f7 ad 52 3d 0b fc 62 bc fb 52 e6 3c 86 ab 0d be
       0.051435437 -0.013854037 0.02811574 -0.13834962
000280 cf 80 61 3d a8 64 3b bd 42 f9 60 3c 00 38 34 3d
       0.055054482 -0.04575029 0.013731303 0.04399872
000290 0f a7 b3 3d f0 0a ec 3d 31 95 89 3c 95 cc a4 3d
       0.08772098 0.11525524 0.016794773 0.080468334
0002a0 5f 43 24 bd 05 95 a4 bd 14 4a 80 bd 4b 71 38 bc
       -0.040103313 -0.08036236 -0.06264129 -0.01125748
0002b0 dd 49 ec 3c a8 4e e8 3d 7a 75 67 bd 38 fc 24 3d
       0.028843815 0.113431275 -0.05650852 0.040279597
0002c0 1a b7 87 3d 55 d9 76 bd 56 35 9b bb c5 08 30 3d
       0.06626721 -0.060265858 -0.0047365827 0.042977113
0002d0 ce 81 80 bd 28 e2 fd bd d1 8a 8d bc b5 47 8e bd
       -0.06274758 -0.123966515 -0.017278107 -0.06947271
0002e0 74 54 d0 3d 5d 95 a5 bd 52 e1 4c 3d 7c 06 70 3d
       0.10172358 -0.080851294 0.05001957 0.058599934
0002f0 39 a4 0e 3d eb 12 82 bd 97 d6 a2 3c a8 78 16 3d
       0.034824584 -0.063512646 0.019877715 0.03673616
000300 ab a2 55 3d 37 8c a1 bd cc 6e b0 bc 61 c3 18 3d
       0.052157085 -0.07888072 -0.021537207 0.037295703
000310 af f0 5a bd f8 44 d5 bd 49 01 a3 bc 64 1e 29 3d
       -0.05345219 -0.10413545 -0.019898074 0.04128875
000320 18 11 28 3d a7 07 ea bc 7c 42 ff 3a 27 00 01 b9
       0.041031927 -0.028568102 0.001947477 -0.00012302455
000330 4d 38 db 3d cf a0 a5 bd f9 03 be bd d6 89 90 bc
       0.10704098 -0.080873124 -0.092781015 -0.01764385
000340 bd 3e 31 3d 7e e5 1f bc d6 d1 5b 3d 11 4b 9c bd
       0.043272723 -0.009759305 0.053666912 -0.07631505
000350 12 a9 7f bd 9c 90 32 3d 77 6e d4 bc db 81 9c bc
       -0.062417097 0.04359494 -0.02593158 -0.019104889
000360 74 3c 27 3c 9f d6 c1 bc a6 41 14 bd 67 c2 a8 3d
       0.010207284 -0.02366191 -0.03619542 0.08240204
000370 74 d7 db bd 72 48 cd bc f2 5c 6e 3d c8 f8 f3 bd
       -0.10734454 -0.025058959 0.05819411 -0.11912686
000380 e3 da b4 3b 10 57 56 bc c3 d9 e9 bb a2 dc 47 3d
       0.0055192574 -0.013082281 -0.007136555 0.048794396
000390 6c ff 6e bd 58 10 9c 3d b2 24 aa 3c 20 55 1a bd
       -0.058349058 0.07620305 0.02076945 -0.037678838
0003a0 83 13 a5 3b 81 d6 6e 3d 65 a6 2a 3d 23 31 fc 3c
       0.0050377264 0.058310036 0.041662592 0.030785149
0003b0 a5 fb 85 3c 27 aa 57 bc 66 2d c9 3b 60 23 a9 bd
       0.016355345 -0.013163126 0.006139445 -0.082587
0003c0 e6 00 a0 bd 08 42 bd bd 7d b7 f7 3c 58 e1 4b bd
       -0.07812671 -0.0924111 0.030238861 -0.04977545
0003d0 dd 23 d3 bd b4 bf 92 bc f9 87 c9 bd 39 0b 30 bb
       -0.10309575 -0.017913677 -0.09840388 -0.0026862158
0003e0 5d 4e 0c 3c 81 44 91 bc ee ab 26 3d 32 20 75 3c
       0.008563605 -0.01773286 0.04069131 0.014961289
0003f0 54 db ad bd a2 d7 09 3e 91 2d 02 be e8 74 76 bd
       -0.08489099 0.13461164 -0.12712695 -0.060170084

actor.4.bias f4 [128]
000000 8c 09 a7 3c f5 6d 13 3d 4e 19 5f bc 57 cb 34 3d
       0.020390294 0.035993535 -0.013616873 0.044139232
000010 f7 47 02 bd a0 e2 78 3d eb 3f 42 bc ea 0b cd bc
       -0.031806912 0.060763 -0.01185606 -0.025030095
000020 d8 2d 62 bd 59 79 3b be e6 2f f8 bd db c3 15 3c
       -0.0552195 -0.18308009 -0.12118511 0.009140934
000030 2a c4 ba bd a5 48 8b bd fa 47 5d 3d 8b b7 c7 bd
       -0.091194466 -0.06800965 0.05402372 -0.09751805
000040 15 14 8f ba ea 07 cd bb bd 85 02 be d3 05 f3 bc
       -0.0010916019 -0.006257047 -0.1274633 -0.029665863
000050 19 8b 00 be c2 e1 af 3d 3f df 26 bd e6 f7 a2 3c
       -0.12553062 0.08587982 -0.040740248 0.019893598
000060 7d 46 1b 3d 56 88 3d bd a4 54 49 bc c7 0e d7 bc
       0.03790902 -0.0462726 -0.012288246 -0.026252164
000070 f4 c4 11 be 79 ec 41 3d fb 41 b8 bd 73 28 97 3c
       -0.14235288 0.04734466 -0.0899696 0.018451905
000080 43 39 7a bc 95 04 cf 3d 98 ad 09 3d 9f 48 b7 3c
       -0.015272441 0.10108296 0.033612818 0.022373496
000090 f0 10 65 bc b1 9c 00 3d 3d 73 1d bd ad 3a c4 bb
       -0.013981089 0.031399433 -0.038439978 -0.00598844
0000a0 7b e1 1d bd c6 46 5d bd 7c 18 17 be 97 b9 e4 bd
       -0.038545113 -0.054022573 -0.14755434 -0.11168211
0000b0 02 a4 9d bd 4f 66 0c be 33 87 54 3a d8 0f 8a be
       -0.07697298 -0.13710903 0.00081073045 -0.26965213
0000c0 e4 f2 21 bc 03 5c dd 3c 3f 54 a7 bd a2 bf 93 3d
       -0.00988457 0.027021414 -0.081703655 0.072142854
0000d0 d3 4a 80 bd 4a 4a 24 bd 6e 07 f7 3c 50 d7 aa bb
       -0.062642716 -0.04010991 0.03015491 -0.0052136555
0000e0 14 78 bf bd 02 b1 07 be 8b 6e f5 bc ac 53 aa bd
       -0.09349075 -0.13251117 -0.029959938 -0.083167404
0000f0 3b fb ff 3b 58 9e 59 bb 8f 61 ac bc 07 92 6d bd
       0.0078119314 -0.0033205952 -0.021042613 -0.05800059
000100 0d 6f 8c bd 31 f4 10 3d 2f 48 b1 3b 38 ac 5e 3d
       -0.06857119 0.03538913 0.0054102163 0.05436346
000110 18 89 b4 bc 36 55 9a 3d ab d2 fc bc fe cb 03 be
       -0.022038028 0.07535784 -0.030862173 -0.12870786
000120 7c 55 0b 3d 22 f0 3c 3d 1c ac f3 bc 2f ac b6 bd
       0.03401707 0.046127446 -0.029745154 -0.0891956
000130 15 e5 14 bd 56 6e 2f bd 72 64 8e 3c e5 c0 8e bc
       -0.036351282 -0.042829834 0.01738188 -0.017425964
000140 8c e5 f6 bd 79 d4 75 bd 78 36 da 3d c9 cd 5b bd
       -0.12055501 -0.060017083 0.1065492 -0.05366305
000150 0f 01 db bc 4b 42 9f bd 15 69 47 3d 85 84 91 3d
       -0.026733903 -0.07776316 0.0486842 0.07105354
000160 a2 95 90 3d ce 9a 62 bd 4e fb 3f 3d 53 e3 a0 3c
       0.0705979 -0.055323415 0.046870522 0.019639647
000170 26 aa 61 be 92 f2 4e bd f2 bd e0 bd 08 0c 3e bc
       -0.22037563 -0.0505243 -0.10973729 -0.011599548
000180 41 ce 43 bd a9 dc 91 bd 94 7c 43 bd 1e f4 ca 3c
       -0.04780412 -0.07122166 -0.04772623 0.024774607
000190 f7 95 b3 bd 77 07 83 bd cc 82 f9 bd 17 c1 98 bc
       -0.08768838 -0.06397908 -0.12183151 -0.01864676
0001a0 d3 2f bd bd a3 9a ba 3c 60 62 97 bd bc 6d 20 3d
       -0.09237637 0.022778815 -0.073918104 0.03916715
0001b0 9c 3e 14 3d 6d e6 09 bd 06 e1 a3 bc a9 be 4b bd
       0.03619252 -0.033667017 -0.02000476 -0.049742375
0001c0 c6 cb dc bc 37 09 80 bd 83 1d 8e 3d c5 f7 81 3d
       -0.026952635 -0.062517576 0.06939223 0.063460864
0001d0 fd 95 21 bd 6d 5d e1 bd ef f2 fe bd ba 24 92 3d
       -0.03944968 -0.11004148 -0.1244868 0.07135911
0001e0 e6 26 02 bd 0e 5b 3c 3c 16 43 a6 3d 73 dc 57 3d
       -0.031775378 0.0114963185 0.081182644 0.05270047
0001f0 1e c4 aa 3d fa a4 12 bd f3 bf aa bd 03 23 0e bc
       0.08338188 -0.035801865 -0.08337393 -0.00867534

actor.6.weight f4 [8, 128]
000000 a0 95 2a 3c ae 54 28 3b b3 6b cb 3c 7a 50 ef 3c
       0.01041165 0.0025685239 0.024831628 0.029213179
000010 e8 5f ae bc ba 78 19 3b ab 92 96 3b 70 ae 70 bc
       -0.021285966 0.0023417906 0.004595121 -0.014690027
000020 88 05 97 bb ff c0 bb bd 67 b5 e5 3b 48 96 09 bb
       -0.0046088137 -0.091676705 0.0070101502 -0.0020994116
000030 84 83 04 bd e6 14 e9 bb 84 9e e3 3c 25 35 e5 bb
       -0.032351986 -0.007113087 0.027785547 -0.0069948607
000040 cb 4f cb ba dd da 2a bd 39 10 76 bc 89 3b 4d bd
       -0.0015511451 -0.04171263 -0.015018516 -0.050105605
000050 32 df 13 3d 30 27 21 3d dc 8f 85 bd 0f ae 21 bc
       0.036101528 0.039344013 -0.065215796 -0.009868159
000060 a9 84 2a 3b 03 f3 ef bc 44 26 b2 bc 87 82 bb bc
       0.0026019013 -0.029290682 -0.021746762 -0.022889389
000070 f1 96 db bd ae 57 96 bb 22 92 3d bd 80 7d d1 3b
       -0.10722149 -0.004588089 -0.04628194 0.0063931346
000080 48 16 1a bc ca 96 ef 3c 06 97 6d 3d 3f 3b 6c bb
       -0.009404726 0.029246707 0.058005355 -0.0036046056
000090 1d a2 87 bd 34 a2 11 3d e5 3a 41 bc 97 1a fd 3b
       -0.066227175 0.03555508 -0.011793827 0.007724117
0000a0 af b9 8a bc b1 5a 1c 3d 69 40 4a bd 48 9c 10 bd
       -0.016934244 0.038172428 -0.049377833 -0.03530529
0000b0 f3 e0 e8 bb ac 88 c3 bc 0b 5b 8e 3d 6e c3 c6 bd
       -0.007106894 -0.023868881 0.06950959 -0.09705244
0000c0 cc 5f d8 3b e3 f2 b7 bb 2f fb f0 ba e2 5a 38 bb
       0.0066032168 -0.005613671 -0.0018385405 -0.0028130342
0000d0 c0 08 33 bd 38 7a ab bb 87 ec 53 3c 95 f9 a8 bc
       -0.043709517 -0.0052330755 0.0129348105 -0.020626822
0000e0 cb 52 be 3c 5e 84 c9 3b 67 b1 a9 bb d7 9f 44 bc
       0.023232838 0.0061498126 -0.0051786187 -0.012000999
0000f0 55 89 b7 ba ef 45 8e 3c ed 78 9d 3d f3 2b f2 3a
       -0.001400272 0.017367331 0.076890804 0.0018476233
000100 a6 4c c6 3a 8b 2f 42 3c 2d 14 68 3b a1 00 9d bb
       0.0015129044 0.011852155 0.0035412416 -0.0047913347
000110 6b 17 87 bd 36 f2 9d bc 03 d6 60 3d 1e 0b 00 bd
       -0.065962635 -0.019280534 0.054891597 -0.031260602
000120 66 df 03 3c f4 7b 84 3c d3 8d 5b 3c 59 10 84 3b
       0.008048868 0.016172387 0.013400513 0.004030269
000130 10 1e fa 3b 5e f5 d8 3b 23 38 5d bb 7f 3b 26 bb
       0.0076329783 0.006621047 -0.0033755384 -0.0025365052
000140 4e 19 f4 37 ae 68 1d 3c c5 60 b1 bc 36 4c 97 bc
       2.909885e-05 0.009607477 -0.021652589 -0.018468957
000150 8e 17 56 bc 5b d4 50 bd 6b 06 38 3a 64 8d 7e ba
       -0.013067139 -0.050983768 0.00070199993 -0.00097104
000160 97 2c 30 bd 9b c5 c8 3b e0 41 cc 3c d0 11 29 bc
       -0.043011274 0.006127072 0.024933755 -0.010319188
000170 44 94 b8 bd 50 6b 84 bc e6 26 3f 3c cd 33 94 bc
       -0.090126544 -0.016164452 0.011666989 -0.018091107
000180 4e 52 67 3a bf f0 94 3b 26 6b 07 bd ad 91 22 bd
       0.0008824215 0.0045453007 -0.03306117 -0.03968971
000190 77 df 8e bb 8e 38 19 bc 09 7c c8 ba 96 a0 01 bd
       -0.004360135 -0.009351863 -0.0015295754 -0.031647287
0001a0 cc 76 af 3c 8b 69 07 3c ee 47 cc 3b 98 df b7 bb
       0.021418951 0.0082649095 0.0062341606 -0.0056113712
0001b0 8f 32 0f 3d 7c 64 08 bc 43 65 12 bd c8 d8 38 3c
       0.034960326 -0.008324739 -0.035741102 0.011282153
0001c0 72 a5 98 3a 47 a5 69 3d fd 96 5c 3c 16 d9 ba 3a
       0.0011645986 0.057042386 0.013463733 0.001425537
0001d0 60 89 a4 bc 49 dd 06 bd 6b 8e 05 bd e4 88 dc 3b
       -0.020085037 -0.032925878 -0.032606523 0.006730186
0001e0 c2 5d 08 bd 21 5a 0b 3c 22 d6 20 bb 7c 3e 0e bd
       -0.03329254 0.008505375 -0.0024541696 -0.03472756
0001f0 23 e2 a2 3c 16 99 39 bd 8c d6 be b8 d1 83 18 bd
       0.019883221 -0.04531201 -9.0998685e-05 -0.037235085
000200 38 89 87 bc b7 3d 2d bd 5e a6 12 3d 61 ba 0e 3c
       -0.016544923 -0.042295184 0.03580319 0.008711428
000210 8a cc 62 bd fe 19 fb 3b fe cd 66 3d 6e 1f f6 bb
       -0.055370845 0.0076630106 0.056348793 -0.007511071
000220 c9 a3 ed 3c 20 36 85 3c 74 ca 3b ba fe da 6d 3d
       0.029008763 0.01626116 -0.0007163652 0.058070175
000230 36 bd cf 3c 9d 2f 92 3d c4 3d 7e bc 99 4f 54 bc
       0.025358777 0.07137988 -0.015517656 -0.012958431
000240 c0 90 4f bb f7 5d 65 3c 92 7f ca 3b ec 11 93 bc
       -0.003167197 0.013999454 0.0061797583 -0.017952882
000250 f1 66 67 bd 8b 51 6d bd 7b d6 04 3c 26 91 83 3c
       -0.056494657 -0.057939094 0.008107777 0.016060423
000260 42 45 cd 3c eb 25 8e 3c 6f 53 5c bb b6 2d 42 3d
       0.025057439 0.017352065 -0.0033619066 0.047406875
000270 e5 35 dd 3c f0 ab 53 bd 2a 48 2d bd 07 27 ee 3c
       0.027003238 -0.051677644 -0.04230515 0.029071344
000280 e9 11 8f bd eb 77 8f bc 3a 0e 75 bb 8e 86 e1 3b
       -0.06985838 -0.017513236 -0.0037392513 0.0068824952
000290 06 38 75 bc c5 3a 57 bc 62 f2 74 bd 9f f7 2d 3c
       -0.01496697 -0.01313657 -0.059801467 0.0106181195
0002a0 81 d3 82 3c e4 4d 11 bc fd 0f 2c 3d 4f b2 31 bc
       0.015969994 -0.008868668 0.042007435 -0.010845735
0002b0 ee 90 13 bd 13 6b 46 bd f3 69 39 3d d2 79 12 bd
       -0.036026888 -0.048441958 0.045267057 -0.03576071
0002c0 be 94 f6 3b 19 5d b5 bb 7c 41 07 bd e7 ba 3a 3c
       0.0075250557 -0.0055347797 -0.033021435 0.0113971
0002d0 94 68 e6 bb 87 e3 31 3c 27 bd 88 3d 16 b6 21 3a
       -0.0070315097 0.010857469 0.06676703 0.00061687955
0002e0 78 8f 07 3b 89 31 db bc e9 4a 6e 3b b9 b9 f2 bc
       0.002068488 -0.026757019 0.0036360568 -0.029629575
0002f0 14 81 18 3d 9c d6 c5 3c aa c5 f0 3c 96 0a 6d bd
       0.037232473 0.024150185 0.029391129 -0.057871424
000300 86 3f 05 3d f4 b4 33 bd 93 f9 2e bc 9f f4 d0 bb
       0.032531284 -0.043873742 -0.01067962 -0.0063768174
000310 49 d8 14 3d 69 6a 37 3d 91 83 54 3c 98 cd b6 bb
       0.036339078 0.044779215 0.012970821 -0.005578708
000320 2c f0 bf 3c c7 2c 50 3c 23 75 09 bb e4 79 96 3c
       0.023429953 0.012705988 -0.002097436 0.018368669
000330 1e 5d 5f 3c 71 18 9a 3d 5b f2 8f bd 15 90 e2 bc
       0.013633041 0.07524193 -0.070286475 -0.027656594
000340 46 2d ee 3c ae b4 86 3c ed 99 aa bc 9b 38 ba bb
       0.029074322 0.016443577 -0.02082535 -0.0056830174
000350 ef 72 f7 bc fc ca ba 3c f7 60 82 bb 91 3c f4 3c
       -0.030206172 0.022801869 -0.0039788443 0.029814037
000360 23 32 a0 bc 56 e0 f8 39 3b 0a 70 3c 96 be e8 b9
       -0.019555157 0.0004746939 0.014650877 -0.00044392486
000370 94 a8 9c 3d 60 9f a2 3c 88 6f a1 bc b1 09 a1 3c
       0.07649341 0.019851387 -0.019706503 0.019657942
000380 12 bd 6e bc 3d 15 68 3c 9f 71 7d 3d 3f d4 4e 3d
       -0.014571445 0.01416522 0.061875936 0.050495382
000390 5f d3 04 3c a7 f3 bb 3c 8d b4 00 bd 23 3b f1 3c
       0.008107035 0.02294333 -0.031422187 0.029447144
0003a0 07 31 0f bd ec dd 17 bd d2 ef 28 bb c4 b0 c5 3c
       -0.034958865 -0.037076876 -0.002577771 0.02413214
0003b0 11 aa d9 3b 97 db 6d 3c e7 f6 03 bc 31 fd 77 bc
       0.006642588 0.014517686 -0.008054472 -0.015136049
0003c0 1c 5c 27 3d cf 29 51 bd b6 60 86 bc 9b 35 46 3c
       0.040859327 -0.051065262 -0.016403537 0.0120977415
0003d0 86 a9 ae 3d b8 ce 59 3b 20 f3 25 3d ce 30 82 3b
       0.08528428 0.0033234786 0.040515065 0.003973103
0003e0 9a f3 be ba 95 c7 50 3c dc c6 8a 3c 55 52 ac 3c
       -0.0014568449 0.012742897 0.016940527 0.021035353
0003f0 be b3 d1 3b b8 f6 1b 3d 01 01 72 3d ca 56 70 3c
       0.0063996008 0.038077086 0.05908299 0.01466913

actor.6.bias f4 [8]
000000 d5 40 25 3e 03 88 bc bd cf 41 0f 3d 77 e1 eb 3d
       0.16138013 -0.0920563 0.03497487 0.115176134
000010 17 ca 60 3d 21 0e 60 3c e5 84 c9 bc a0 31 d9 bc
       0.054880228 0.013675244 -0.024599502 -0.02651292

critic.0.weight f4 [128, 31]
000000 8e 41 68 3e 92 3f 12 3e 76 e3 53 be 21 3d 17 3e
       0.22681257 0.14282063 -0.20692238 0.14769413
000010 a9 02 f4 bd b0 e0 00 3e 1b 95 1c 3e 15 56 0c 3c
       -0.1191457 0.12585711 0.15291254 0.008565445
000020 18 73 8a 3d fa 55 8f 3f 73 11 a7 3e 7c 36 c1 3e
       0.06760234 1.1198113 0.326305 0.3773688
000030 83 8c 9d be 44 39 d8 bd 35 ac d6 3e bd 09 f2 bd
       -0.30771264 -0.105577976 0.4192826 -0.11818264
000040 ca 56 a7 3d 21 87 de 3c fd 47 1f bd dd 1c a4 bd
       0.081708506 0.027164044 -0.038887013 -0.08013318
000050 b4 5d 92 3d 72 89 5c 3d 6b 1e 04 3d 88 f7 c9 3d
       0.07146779 0.053842016 0.03225557 0.09861666
000060 d7 27 5e 3b f4 3d 69 3d 70 f8 6d 3d de 24 8e 3e
       0.0033898258 0.05694385 0.058098257 0.27762502
000070 29 2d ef bd 14 98 17 be 6e 27 2c be 85 dc 7a 3d
       -0.116785355 -0.14804107 -0.16811916 0.06124546
000080 16 51 01 3c 8e 76 7c 3e f2 e3 c0 3d cc 51 a1 3b
       0.007892868 0.246546 0.09418477 0.004923081
000090 c7 17 b6 bd e6 23 44 3e 37 ca 17 be 43 3e 51 3e
       -0.08891254 0.19154319 -0.14823233 0.20433907
0000a0 36 1a ae 3f c3 b2 8f bf 40 9c 08 3d 3b ae 72 3e
       1.3601749 -1.1226429 0.033352137 0.23699276
0000b0 31 04 ee bd ff 16 12 be eb d4 0c bd 03 cd cd 3c
       -0.11621893 -0.14266585 -0.034382742 0.025122171
0000c0 95 d1 d6 3b f3 45 58 bd 6d 8d 25 bc ce 33 aa bc
       0.006555746 -0.052801084 -0.010104519 -0.020776656
0000d0 28 fc 15 3d 6c 11 45 3c 55 6b ed 3d 34 7c 73 bd
       0.036617428 0.0120280795 0.115927376 -0.05944462
0000e0 cf a3 cb 3b ac 5e e7 3d 02 4c e8 bc 32 86 09 3e
       0.006214596 0.11297354 -0.028356556 0.13430098
0000f0 89 3a 0a be dd 9d 53 3c 86 67 9e 3e 58 ef ee 3d
       -0.13498892 0.0129160555 0.30938357 0.11666745
000100 c9 33 51 3e 0c 03 55 3d 00 0a 47 3d d7 37 69 3e
       0.2042991 0.05200486 0.04859352 0.22775207
000110 b1 3e 91 3d 7b 6d 5f 3d 35 6c cc 3d 52 0e f1 bf
       0.070920356 0.054547768 0.09981576 -1.8832495
000120 8d ba 07 3f c0 1f bf bd e0 59 ae 3c e6 7a f9 3b
       0.5301903 -0.09332228 0.02128309 0.0076135276
000130 70 5a 85 3e 6f e0 8f bc d2 16 f9 3c 80 33 19 3c
       0.2604556 -0.017563073 0.03040639 0.009350657
000140 52 8c ae 3c 9e 09 29 3d 3b 7a dd bc b9 94 68 3d
       0.021307144 0.041268937 -0.027035823 0.056782458
000150 21 e3 a0 3d 52 29 99 3c 10 ea 42 3e 12 f2 84 bc
       0.078558214 0.01869646 0.190346 -0.01622871
000160 da ad f1 bd dd 26 18 3d a6 07 fd 3d 38 e8 7a be
       -0.11800738 0.037146438 0.123549744 -0.24502647
000170 90 56 cb bd 11 eb 38 3e e7 2c 82 bc 57 f5 13 3e
       -0.0992862 0.1805842 -0.015890552 0.14449058
000180 46 b7 0a 3e 3f 75 c7 bd a0 ba 0d be ea 03 f2 3d
       0.13546476 -0.0973916 -0.13840723 0.11817153
000190 d7 fc 42 bc 64 db 1c 3e 1d e0 86 bf f3 95 04 3f
       -0.011901102 0.15318066 -1.0537144 0.51791304
0001a0 58 e5 57 bd a4 7f 05 be 1c f7 c9 3d 0c 06 d6 3d
       -0.052708954 -0.13036972 0.098615855 0.10450372
0001b0 00 5f 10 bd 1f 41 84 bc 1b 61 f0 3d 80 2c b4 bd
       -0.03524685 -0.016144333 0.117372714 -0.0879755
0001c0 da 73 e3 3d f7 ad b3 3d 6e 97 01 bd f5 a2 c2 3d
       0.11106081 0.087734155 -0.031638555 0.09503738
0001d0 35 66 f6 3d 99 9d 64 3d 45 ec 40 bd b1 7a d2 bd
       0.12031213 0.05581436 -0.047100324 -0.10277308
0001e0 f3 e0 a6 bc 70 91 83 3d 1b 8e 33 3c 20 ba b1 bd
       -0.020370936 0.064242244 0.010959174 -0.08678079
0001f0 0d 14 97 bd 37 5c 20 3e 4d 78 df 3e 52 87 f5 bd
       -0.07376871 0.15660177 0.4364647 -0.11988701
000200 34 7a 38 3e 05 c2 c1 3d e2 4e 25 3e 67 98 33 3b
       0.18015367 0.094608344 0.16143373 0.0027404071
000210 a5 e3 aa 3d dd 31 91 bf bd fd 97 3f 0e 8c 8b 3e
       0.08344201 -1.1343342 1.187431 0.2725529
000220 c7 ea f5 bd 5b 24 d8 3c 05 6c cf 3e f7 b1 82 3c
       -0.12007671 0.026384523 0.405121 0.015954
000230 d4 c1 80 bc 6a cb f3 3b a9 71 49 bb 3e 2f 1c 3d
       -0.015717424 0.0074400203 -0.0030737913 0.03813099
000240 06 f3 70 3d 43 ff 74 bd e7 00 1b bd 61 9d 08 3e
       0.058825515 -0.05981375 -0.037842657 0.13341285
000250 9a df e4 bd 1e 2a 88 3c 1a db 25 3e cf 34 05 3d
       -0.11175461 0.016621646 0.16196862 0.032521065
000260 50 ca 1f be f1 67 8c 3d 57 16 39 3d 77 b2 2c be
       -0.1560452 0.06855763 0.04518732 -0.16864954
000270 d2 34 c2 3b 4d b0 f0 3e 75 61 7c 3d b4 d7 11 3c
       0.005926707 0.47009507 0.06161638 0.008901525
000280 1f 02 8c bd 2f 86 67 3d fd af 3b be 22 2b 81 bd
       -0.06836342 0.05652445 -0.18328853 -0.06307055
000290 36 7e ec 3e f1 f1 10 40 57 a0 4f be b1 90 89 bd
       0.4619004 2.264767 -0.20276009 -0.06717051
0002a0 22 e4 95 3c f0 12 00 be fe 1c 12 bd 12 fa 88 3c
       0.018297259 -0.12507224 -0.03567218 0.016720805
0002b0 85 76 38 3c 12 34 35 bd 4e 15 05 3a f6 a9 eb ba
       0.011258726 -0.04423911 0.0005076722 -0.001797973
0002c0 dd 5d 74 3b ca 34 5f b9 77 08 00 3e 86 4b 95 bc
       0.0037287392 -0.00021286603 0.12503229 -0.018224489
0002d0 cc 46 25 bc eb eb 59 3d 30 b6 a1 3d de f5 8c 3c
       -0.01008768 0.053203505 0.07896078 0.017207082
0002e0 97 c9 e0 bb 1c bc 64 bd 28 7d c1 3d 1f 5c c3 3d
       -0.006859969 -0.055843458 0.094477 0.09539055
0002f0 2e 2c 33 bd 75 af 1f be 4c c9 eb bd f1 da e1 bc
       -0.043743305 -0.15594275 -0.11513004 -0.02757022
000300 d3 3c 78 3d e4 50 fd 3d de e9 6f 3e 3f c3 9f 3f
       0.06060488 0.12368944 0.23429057 1.2481459
000310 01 03 1c bf 7d af df 3d 1d b1 8b bd b0 37 d9 bd
       -0.60942084 0.109221436 -0.06820891 -0.10606325
000320 cf 64 54 3e 30 16 c1 bc 53 49 d0 3b eb dd 5a bd
       0.2074158 -0.02357015 0.006356397 -0.053434294
000330 01 73 30 3d 1f 06 a4 bd d4 3f 5d bd 6c 91 b3 3c
       0.043078426 -0.0800898 -0.05401595 0.021919928
000340 78 7b 95 bd 7f 70 c3 bc 0d da c1 bd c2 cc 87 bd
       -0.072989404 -0.023857353 -0.09465418 -0.06630851
000350 6a 6e 2f be 64 04 30 3d 04 7a 8e bd 6b b2 fc bd
       -0.17131963 0.042972937 -0.069568664 -0.12338718
000360 ab e2 32 3e d9 9c ac bd d0 3d b8 bd bf d0 36 3e
       0.1746928 -0.08428354 -0.08996165 0.17853068
000370 f9 b7 d4 3c 7f bf c4 bb 64 b0 dd 3c 05 fe 84 bc
       0.025966631 -0.0060042734 0.027061649 -0.016234407
000380 b6 23 80 3e 2c 63 9f bd e3 7f 8e 3f 9c ad bc 3f
       0.25027245 -0.077825874 1.1132778 1.4740481
000390 9f 4f 0b 3e 75 04 a4 bb ca 0a 4e be 29 08 09 3e
       0.13604592 -0.005005414 -0.20121303 0.13382019
0003a0 bb 74 27 3d 4b 6e 5c bc 49 3a ef 3b a9 8d 34 3d
       0.040882807 -0.01345403 0.0073006493 0.04408041
0003b0 1a 0d 1d 3c ae d4 22 bd 7f b5 9b bc 05 c7 46 bc
       0.009585643 -0.03975361 -0.019007443 -0.012132411
0003c0 24 0a 99 bd c9 e4 c1 3d fa 9f 19 bd 2a 98 00 be
       -0.07472637 0.094674654 -0.03750608 -0.12558046
0003d0 ed 03 0a 3d ca a5 9a 3e e4 a0 10 3e 6f 23 31 bd
       0.03369515 0.30204612 0.14123875 -0.043246683
0003e0 80 a5 25 bd e2 ad 0c bd e9 2c ef 3d c6 1d dd 3d
       -0.040441036 -0.034345515 0.11678488 0.107966945
0003f0 2f a5 5c bd 31 0e 85 3d 83 48 42 3e 84 02 6a 3e
       -0.05386847 0.064968474 0.18972974 0.22852522

critic.0.bias f4 [128]
000000 a1 f1 1a be c3 f7 40 be eb 5e 06 3e e4 a1 81 3d
       -0.15131237 -0.18844514 0.13122146 0.06329706
000010 e0 b0 7f 3c 33 39 53 bd d5 ac cf bc f6 b0 3a bc
       0.015606135 -0.05156822 -0.025350967 -0.01139473
000020 f1 bb f4 bd cf 39 89 be c4 35 66 3d 8a bc c1 be
       -0.119499095 -0.26801917 0.05620362 -0.37839156
000030 c4 44 59 be 21 c3 51 be cd 8a 80 3e 31 84 c8 bd
       -0.21217638 -0.20484592 0.25105897 -0.097908385
000040 63 21 30 be f7 4a 2f bd 09 10 a2 3d a4 0a ae 3d
       -0.17200236 -0.0427961 0.07913215 0.08498123
000050 f0 90 23 3e 93 9d b0 bd 2a 1a 24 be c3 90 26 be
       0.15973258 -0.08623805 -0.16025606 -0.1626616
000060 05 2a 6c bd 92 53 92 be bd 0a 7f bc da f4 88 be
       -0.05765726 -0.28579384 -0.015566525 -0.26749307
000070 2b 04 65 be b8 c7 87 3d a0 0e b0 3d e0 f4 8f 3a
       -0.22364871 0.0662989 0.085965395 0.0010983013
000080 e5 9b de 3c 12 0e 33 bd ea 7a c5 3e e3 14 8c be
       0.027173946 -0.04371459 0.38570338 -0.27359685
000090 b6 7a 95 be 14 7f 55 3e 76 a1 93 be 36 e6 81 be
       -0.29195184 0.20849258 -0.28834122 -0.2537095
0000a0 74 ac 1b 3c 88 ab a1 3e 6d 2b 46 be 0e c5 5c be
       0.009501565 0.3157618 -0.19352503 -0.21559545
0000b0 fb de f2 3d 55 a3 e4 3d 41 3b 8b 3e 31 ca 0f be
       0.118589364 0.111639656 0.27193645 -0.14041974
0000c0 57 d0 8a be 12 be 21 3e f2 2f 28 be 18 09 e0 bd
       -0.27112076 0.15795162 -0.1642454 -0.109392345
0000d0 dc 9f a4 be 02 16 db 3d b1 96 05 be 7b 4d 5e be
       -0.32153213 0.10697557 -0.13045765 -0.21709244
0000e0 b6 13 63 bc b7 87 12 be fc fb 07 3e d9 84 1c be
       -0.01385968 -0.14309584 0.13279718 -0.15285052
0000f0 5b b0 c2 3c c3 9a 1d bd 4e 6c 1d bd 79 2f 9c be
       0.023765733 -0.03847767 -0.038433366 -0.3050497
000100 eb 2a a4 bb 46 e5 75 be 2e 81 a1 bd 4a ee ea bd
       -0.005009999 -0.24013242 -0.07885967 -0.11471231
000110 c0 86 0d be ab bf e5 3d b1 35 84 be 4d 4e 35 3e
       -0.13820934 0.112181984 -0.25822213 0.1770565
000120 80 f8 3d be c4 f9 91 3e 51 e0 d1 3c 0e 40 3b 3e
       -0.18551826 0.2851087 0.025619658 0.18286154
000130 42 91 7a 3e ce c2 e4 3d 42 8e c8 3d b7 ab a0 bd
       0.24469474 0.111699685 0.097927585 -0.07845252
000140 23 12 19 3e 8c e1 fc bd 79 09 31 3d 4e 64 a1 3e
       0.14948325 -0.12347707 0.043221924 0.3152184
000150 f0 3e a1 be 95 0e 8d 3e 44 a9 92 3d 4e 9b 25 3d
       -0.3149333 0.27550188 0.07161191 0.040431313
000160 98 66 f7 3d 65 23 e1 3d fc 32 73 be 6c 2f 80 bd
       0.12080115 0.10993079 -0.23749918 -0.06259045
000170 bb 3d 56 be eb 3f 50 bd 3c 99 52 be 6f 42 1e 3e
       -0.20921986 -0.050842207 -0.20566267 0.1545503
000180 b5 8a 3c 3c 63 1f 01 be a2 66 28 3d a4 9d ab 3d
       0.01150768 -0.1260963 0.041113503 0.08379677
000190 20 55 3c bd 2c c1 c2 bd 8d 82 82 3c 04 0d d8 bd
       -0.04597962 -0.09509501 0.015931392 -0.105493575
0001a0 24 38 f3 3d d5 41 7c be d7 5b 9b 3e 73 94 16 be
       0.11875942 -0.24634488 0.30343506 -0.14705066
0001b0 81 79 2b 3d f3 d9 c6 bc c4 f1 76 be 8e 00 da 3c
       0.041863922 -0.024273848 -0.24115664 0.026611593
0001c0 c7 25 4e bd 65 59 ab 3d 9b c1 70 ba b8 6a 9e bd
       -0.050328996 0.0836666 -0.0009184123 -0.07735199
0001d0 bf 3b e0 3b ca 11 03 3e c5 ea 16 be 39 b6 18 3e
       0.00684306 0.12799755 -0.14737995 0.14913262
0001e0 c5 ee 58 bd bf f9 73 3c 72 6e 65 3d ff a5 95 bd
       -0.052962083 0.014891087 0.056013532 -0.07307052
0001f0 83 37 f1 3d 4f 76 7c be 19 1e 4a 3d 9e 3c b6 bd
       0.11778166 -0.24654506 0.04934511 -0.088982806
