ISAAC_NOGIT/logs/rsl_rl/traquad_flat/2025-09-16_12-27-53/model_100.pt (torch, 925483 bytes, 48 tensors)

std f4 [8]
0.5433459 0.6454123 0.6190111 0.5457454 0.6658305 0.68985504 0.7624141 0.71031976
00000000: b818 0b3f be39 253f 8377 1e3f f8b5 0b3f
00000010: de73 2a3f 579a 303f 922d 433f 84d7 353f

actor.0.weight f4 [128, 31]
-0.09713127 -0.022635873 0.008058073 0.27404106 0.2111621 -0.05638032 0.22787723 -0.14147687
-0.011763297 1.1649929 -0.028757803 -0.2766277 0.07782731 0.026482137 -0.22462346 -0.040255953
0.017591687 0.10920371 0.22852616 0.08643169 0.045652505 -0.07867091 -0.08628114 -0.14832337
0.20224446 0.004447418 -0.021442963 -0.05074673 0.17990848 -0.08613733 0.025254127 -0.24369034
-0.5602652 -0.51033056 0.19187394 -0.08950063 0.029319244 0.05766254 0.36906087 0.3179224
0.15457612 0.09774644 -0.69911444 0.33684483 0.12955754 -0.36351302 -0.22530209 -0.0873086
-0.17249337 0.07637344 -0.05296867 0.044706058 -0.032907527 0.056514032 -0.07368108 0.07505471
0.050421458 -0.15146285 -0.231518 -0.14986713 0.09944943 -0.23094942 0.050800785 0.00511789
0.0009801025 0.40891138 0.08322618 -0.15594393 0.07274877 -0.020356886 -0.061006077 0.8329042
-0.376045 -0.13568018 0.34643352 -0.34302306 -0.24953732 0.07349058 -0.3169986 0.3148601
0.036605712 -0.0015581298 0.07945995 0.030815853 -0.073679715 -0.011207365 -0.046968464 -0.2150182
-0.10708525 0.0046723248 -0.08716461 -0.25468186 0.39125445 0.33671027 0.10394008 0.2168839
-0.38263252 -0.007989091 -0.22496395 0.13395119 -0.06442045 0.07546442 -0.6625954 -0.47765082
0.17178833 -0.19334799 0.41923824 0.026572403 0.48758668 0.22164463 0.0869269 0.42916036
0.10535135 0.107186384 -0.074850835 0.044127107 -0.034074914 -0.29415813 0.3187726 -0.04515527
0.05593541 -0.033181716 0.19170988 -0.16260098 0.5431526 0.19824234 0.06523918 -0.48589206
0.16026449 -0.26571378 0.10502585 0.4784036 -0.18594278 1.9340721 -1.2941563 -0.051429402
0.4006237 -0.3103418 -0.22605415 0.03890699 0.28905204 -0.062009487 -0.0667453 0.010466416
-0.012857982 0.0024550683 -0.008756538 0.117828615 -0.32291946 0.30148652 0.051991373 -0.13275568
-0.029396012 -0.15374565 0.44603255 -0.30973843 0.08549981 0.10018974 -0.20921293 -0.09775448
0.38269717 0.08825806 0.15814401 -0.07369636 0.6056641 0.02723199 -0.06794744 0.4969693
-0.24388252 0.23032413 0.05651085 0.051499017 -0.040971022 0.24619855 0.15128894 0.07024957
-0.11435827 0.042088777 -0.10185396 -0.05275413 -0.15216276 -0.12476814 -0.23504595 0.007011062
0.09673992 0.039049156 -0.31496227 -0.35668728 -0.51876265 0.31897962 -0.034053165 -0.72902185
-0.2594795 -0.33038056 0.073092364 1.0460907 1.1366001 0.2645041 -0.17070508 -0.20690927
0.29087827 0.2005512 0.0109971715 -0.17042561 0.45687348 -0.0045562224 -0.018448226 -0.019389838
-0.024136093 -0.21457177 -0.21192025 -0.19858888 -0.017648384 -0.07355409 0.014701801 0.14169826
0.018913705 0.7080839 0.15326339 0.18948807 -0.36756587 -0.23084345 -0.518811 0.3999169
-0.05469503 -0.046174407 1.6128526 -0.068153836 0.123391114 -0.037742846 0.14603043 -0.09400235
0.2274483 0.18527612 0.17091995 0.27985597 0.0057236487 -0.035928547 -0.02184336 -0.026816491
-0.06787724 -0.37504193 0.2906474 -0.031285476 -0.118254535 0.019336537 -0.13033342 0.5951597
0.18337788 0.7264254 0.7542187 -0.8729173 0.057238366 -0.0041937297 -0.1320959 -0.1653378
00000000: c2ec c6bd de6e b9bc 0206 043c 1c4f 8c3e
00000010: e13a 583e 0def 66bd a658 693e 50df 10be
00000020: d8ba 40bc 7d1e 953f 7c95 ebbc 25a2 8dbe
00000030: ed63 9f3d 11f1 d83c b103 66be 6de3 24bd
00000040: 711c 903c 32a6 df3d c302 6a3e 1903 b13d
00000050: 1ffe 3a3d 371e a1bd 2bb4 b0bd 15e2 17be
00000060: 2c19 4f3e a5bb 913b 27a9 afbc cedb 4fbd
00000070: ee39 383e c568 b0bd bee1 ce3c f689 79be
00000080: 8a6d 0fbf 06a5 02bf 9a7a 443e 1b4c b7bd
00000090: e92e f03c 8e2f 6c3d 8cf5 bc3e bac6 a23e
000000a0: 3449 1e3e 492f c83d 2af9 32bf ed76 ac3e
000000b0: bbaa 043e 611e babe 97b5 66be dace b2bd
000000c0: 1aa2 30be ae69 9c3d adf5 58bd b31d 373d
000000d0: 0bca 06bd 427b 673d 1be6 96bd 49b6 993d
000000e0: bb86 4e3d 1419 1bbe 0e13 6dbe c576 19be
000000f0: 25ac cb3d 017e 6cbe 7c14 503d f9b3 a73b
00000100: c876 803a d55c d13e 7d72 aa3d c4af 1fbe
00000110: 4ffd 943d 7cc3 a6bc 82e1 79bd 3639 553f
00000120: f888 c0be bfef 0abe bc5f b13e b8a0 afbe
00000130: b686 7fbe 3b82 963d a44d a2be 5835 a13e
00000140: dfef 153d 293a ccba e6bb a23d 8771 fc3c
00000150: 64e5 96bd 199f 37bc 0162 40bd bb2d 5cbe
00000160: 834f dbbd 4d1a 993b 5c83 b2bd a965 82be
00000170: 8152 c83e 4a65 ac3e 89de d43d d016 5e3e
00000180: 69e8 c3be ade4 02bc f35c 66be 802a 093e
00000190: deee 83bd 178d 9a3d da9f 29bf a68e f4be
000001a0: 48e9 2f3e 04fd 45be 65a6 d63e 5eae d93c
000001b0: f6a4 f93e cff6 623e bb06 b23d e8ba db3e
000001c0: 73c2 d73d 8984 db3d 654b 99bd a0be 343d
000001d0: 2392 0bbd e59b 96be 2a36 a33e bbf4 38bd
000001e0: 871c 653d 8de9 07bd 984f 443e df80 26be
000001f0: 0c0c 0b3f 0a00 4b3e 1f9c 853d d8c6 f8be
00000200: 601c 243e a30b 88be cb17 d73d 51f1 f43e
00000210: c967 3ebe ad8f f73f eaa6 a5bf a3a7 52bd
00000220: 8d1e cd3e 1fe5 9ebe bd7a 67be f05c 1f3d
00000230: a1fe 933e a9fd 7dbd c3b1 88bd 557b 2b3c
00000240: 49aa 52bc 36e5 203b 9577 0fbc 2150 f13d
00000250: b355 a5be 715c 9a3e e8f4 543d 1bf1 07be
00000260: e8cf f0bc 806f 1dbe 615e e43e 0996 9ebe
00000270: 861a af3d 4730 cd3d ea3b 56be 8033 c8bd
00000280: e2f0 c33e a4c0 b43d 81f0 213e 1eee 96bd
00000290: cd0c 1b3f 9f15 df3c 0728 8bbd c372 fe3e
000002a0: 57bc 79be 17da 6b3e ec77 673d a2f0 523d
000002b0: 3bd1 27bd 791b 7c3e 7deb 1a3e 02df 8f3d
000002c0: ab34 eabd 4865 2c3d cf98 d0bd b714 58bd
000002d0: 8ed0 1bbe 7086 ffbd e3af 70be 0dbd e53b
000002e0: 941f c63d 02f2 1f3d bc42 a1be b79f b6be
000002f0: a1cd 04bf 4c51 a33e 557b 0bbd 2da1 3abf
00000300: 7fda 84be a427 a9be 73b1 953d 4de6 853f
00000310: 1d7c 913f 156d 873e 50cd 2ebe 06e0 53be
00000320: ffed 943e 4b5d 4d3e 7b2d 343c 0d84 2ebe
00000330: 52eb e93e 5d4c 95bb bc20 97bc 70d7 9ebc
00000340: 0eb9 c5bc b4b8 5bbe 9f01 59be e25a 4bbe
00000350: 5893 90bc 87a3 96bd d3df 703c 5919 113e
00000360: eaf0 9a3c fd44 353f 14f1 1c3e 2909 423e
00000370: 9831 bcbe 3a62 6cbe ccd0 04bf e8c1 cc3e
00000380: e507 60bd 6021 3dbd f471 ce3f 3d94 8bbd
00000390: 7bb4 fc3d 3e98 1abd 0089 153e 4e84 c0bd
000003a0: 35e8 683e 06b9 3d3e a405 2f3e 4849 8f3e
000003b0: 728d bb3b d029 13bd d9f0 b2bc 42ae dbbc
000003c0: 3903 8bbd 7f05 c0be bccf 943e 3325 00bd
000003d0: 6f2f f2bd a867 9e3c 2076 05be 635c 183f
000003e0: 69c7 3b3e 04f7 393f 7a14 413f 8277 5fbf
000003f0: c772 6a3d 8e6b 89bb 2644 07be 504e 29be

actor.0.bias f4 [128]
0.02450199 -0.28261045 -0.06393981 -0.05909916 0.13822268 -0.03865013 0.0048983693 -0.045691356
-0.2245726 0.17922415 -0.19686893 -0.10341421 -0.14235158 0.040412042 -0.06406814 0.16756772
0.06710516 -0.1718091 -0.035860483 -0.06260374 0.1580889 0.028299788 0.087882385 0.07666179
0.09528803 -0.030024758 -0.03421297 0.023054376 -0.0053860242 -0.11846904 -0.14210145 -0.2177621
-0.24163657 -0.011153902 -0.12266134 0.096612245 0.12568869 -0.10180158 0.20169955 0.1635235
0.13523468 -0.30604273 -0.13096808 -0.13147917 0.016238732 -0.0056966483 -0.016860118 -0.013552965
0.04640999 -0.17490493 -0.05904147 -0.043543555 0.049800843 -0.053095903 -0.04119827 -0.051829234
-0.0029008656 0.09348634 -0.14865233 0.061834984 -0.09484052 -0.060052644 -0.104599975 0.07282611
-0.26690596 -0.18328787 -0.17988381 -0.05748719 0.06639892 0.0015870152 -0.234285 0.005845287
0.05160433 -0.17579116 -0.28410745 -0.09909563 0.011920307 -0.2504185 -0.07914949 -0.0054364977
-0.18033963 -0.2292436 -0.2762509 0.10876357 -0.07675479 -0.007927007 -0.038937997 -0.15728797
0.055485185 -0.147107 -0.14722988 -0.06283986 0.07204205 -0.22107299 -0.13416167 -0.059353866
-0.12904358 0.06902389 0.07886497 -0.13469881 0.07286241 0.12254506 0.067282505 -0.2805364
0.09166643 -0.06714737 -0.10999419 -0.056141112 -0.27323988 0.15361558 -0.1911583 -0.038050707
-0.049894173 -0.028029518 -0.042177472 0.084421225 -0.07245972 -0.021809503 -0.23122656 -0.038437806
0.22167313 -0.028657345 -0.08209191 0.042027894 0.035398807 0.0133375805 0.02285694 -0.07364101
00000000: 66b8 c83c 51b2 90be e0f2 82bd f611 72bd
00000010: 3f8a 0d3e 994f 1ebd 8082 a03b dc26 3bbd
00000020: 5cf6 65be 8986 373e 0298 49be d4ca d3bd
00000030: 9dc4 11be 1987 253d 2836 83bd df96 2b3e
00000040: 6e6e 893d baee 2fbe 71e2 12bd 6436 80bd
00000050: 0ee2 213e f5d4 e73c aefb b33d db00 9d3d
00000060: 5f26 c33d 7bf6 f5bc e622 0cbd 88dc bc3c
00000070: 3f7d b0bb e59f f2bd 0b83 11be 07fd 5ebe
00000080: 946f 77be dbbe 36bc de35 fbbd a4dc c53d
00000090: 89b4 003e 597d d0bd 548a 4e3e b472 273e
000000a0: f67a 0a3e a2b1 9cbe 7f1c 06be 7aa2 06be
000000b0: 1707 853c f3aa babb 3b1e 8abc 410d 5ebc
000000c0: 6718 3e3d 471a 33be 78d5 71bd ba5a 32bd
000000d0: f8fb 4b3d 177b 59bd 84bf 28bd e44a 54bd
000000e0: 731c 3ebb c475 bf3d 5138 18be ae46 7d3d
000000f0: bf3b c2bd c3f9 75bd 8338 d6bd db25 953d
00000100: e6a7 88be d1af 3bbe 7633 38be b077 6bbd
00000110: 28fc 873d 6503 d03a 68e8 6fbe d289 bf3b
00000120: 105f 533d 9902 34be 8876 91be a6f2 cabd
00000130: 644d 433c db36 80be 2119 a2bd a624 b2bb
00000140: f4aa 38be d6be 6abe c270 8dbe 6fbf de3d
00000150: 9e31 9dbd 47e0 01bc 737d 1fbd 1910 21be
00000160: 6f44 633d 38a3 16be 6ec3 16be 2fb2 80bd
00000170: c88a 933d f560 62be ad61 09be 0a1d 73bd
00000180: 0024 04be 665c 8d3d f583 a13d 7cee 09be
00000190: e338 953d e8f8 fa3d 69cb 893d 78a2 8fbe
000001a0: 9cbb bb3d 8f84 89bd a244 e1bd 39f4 65bd
000001b0: 19e6 8bbe 674d 1d3e 00bf 43be 0fdb 1bbd
000001c0: d55d 4cbd 299e e5bc 49c2 2cbd 09e5 ac3d
000001d0: c365 94bd d8a9 b2bc a8c6 6cbe f670 1dbd
000001e0: 48fe 623e cfc2 eabc ce1f a8bd 7125 2c3d
000001f0: 57fe 103d de85 5a3c 7a3e bb3c 19d1 96bd

actor.2.weight f4 [128, 128]
-0.07176924 -0.024857756 -0.0013466729 -0.03893389 -0.016847977 -0.10908427 -0.20950748 -0.008255089
0.017605478 0.08469812 -0.08022887 -0.01844365 0.042507056 0.051951207 0.1330233 0.0431871
0.10706601 -0.06473133 0.062249906 0.04129833 0.056473788 -0.041265838 0.14104143 0.008291811
0.054410595 0.124504685 0.047887076 0.073096894 -0.07496073 0.044053413 0.027011342 -0.006375715
-0.09323341 -0.010686713 0.09523221 -0.088033274 0.017334789 -0.05057126 -0.046724565 -0.08768661
0.049683884 -0.04604166 0.062499847 0.07342472 0.064525865 0.078319214 -0.015942853 0.07474758
0.013544621 0.0024002881 -0.06709736 0.013004313 0.06427245 -0.017230088 0.02430002 0.021613365
0.06485467 -0.027015992 0.03418198 -0.058808018 0.023063397 0.07504122 0.019117473 -0.01766759
-0.09495654 0.06927045 -0.008244166 0.039892893 0.0006388032 -0.061183237 -0.075516135 -0.09039942
-0.0014064292 0.013418812 -0.0088025285 -0.017904067 -0.043549545 -0.00885143 -0.06767914 0.122722976
-0.13015774 0.06639128 -0.022841288 0.048609715 0.08904539 0.10053761 -0.071392894 0.03446328
0.012588848 -0.049705405 -0.08297211 0.04251488 -0.028712574 0.035034914 0.04116009 0.08433057
-0.023929533 -0.029126463 -0.061139118 -0.11333078 -0.048354007 -0.055325717 0.061746296 0.033522617
-0.15713719 0.08429498 -0.04856343 -0.01916957 -0.009983678 -0.0977427 0.0625447 -0.09755172
0.039184563 0.08328348 0.033313412 0.06169835 -0.07570457 -0.07721786 -0.03806399 0.06404268
0.07462379 -0.048939258 -0.04927487 0.08306979 -0.05867601 -0.07369264 -0.09511786 -0.06494194
-0.07191213 0.037872795 0.06485142 0.06666023 0.07103202 0.023274472 0.1026135 -0.017666183
0.12512511 0.082220644 -0.0046449215 -0.07437879 -0.05745652 0.03018739 -0.088633925 -0.061025843
-0.33455977 0.030566493 -0.3619935 0.07455165 0.075156376 -0.027727127 0.021680266 0.04142738
-0.05723608 0.00070660067 0.07164235 0.0583021 0.05912158 0.0027535877 -0.08213471 -0.10651994
0.10997166 -0.07338507 0.09691892 0.0062569412 0.013143317 -0.12187632 -0.1008967 0.10790433
0.021838218 -0.17754659 -0.028373955 0.059600417 0.00756881 -0.05171775 0.070035994 -0.0578427
-0.057621296 0.06652419 0.025948463 -0.082619205 -0.089381635 -0.07365556 -0.11627955 0.027139412
-0.030589364 0.0026133624 -0.06936969 -0.07456607 -0.13329302 -0.0049522826 0.09785349 -0.04191066
-0.11720271 -0.034925666 0.17688191 -0.0047088447 -0.033906642 -0.023476034 -0.017531717 0.019422095
-0.03173102 -0.03366255 -0.03939395 0.012604232 0.010994947 0.0060618147 0.10494345 -0.17916836
-0.06381167 -0.10269018 0.037174184 0.01847333 0.019873768 -0.04096373 -0.060789425 0.037107617
-0.10684083 0.0038527043 0.020269817 0.0031003633 0.013994978 -0.10594905 -0.008794594 0.07561392
-0.061622903 -0.052942626 0.0399476 0.02092779 -0.077320926 -0.14755732 -0.049550295 -0.08288266
-0.08779645 0.05353444 -0.0512714 -0.070167966 -0.1300692 0.034175247 -0.08760546 -0.08738305
0.034538653 0.18294251 0.034726433 -0.1448169 0.011532463 0.071291536 0.012874012 0.081690446
-0.04679292 -0.030680085 0.009191342 -0.0675634 -0.25829312 0.0901824 -0.022340521 -0.020566795
00000000: c0fb 92bd 7ea2 cbbc d882 b0ba 2579 1fbd
00000010: c504 8abc 9367 dfbd 2189 56be 5a40 07bc
00000020: 5d39 903c 3576 ad3d 094f a4bd 2317 97bc
00000030: e11b 2e3d caca 543d 4337 083e f5e4 303d
00000040: 6d45 db3d dc91 84bd c2f9 7e3d 7028 293d
00000050: 0f51 673d 5e06 29bd 2a6d 103e 60da 073c
00000060: a5dd 5e3d 50fc fe3d 3d25 443d d3b3 953d
00000070: 0385 99bd 5a71 343d e446 dd3c 60eb d0bb
00000080: 28f1 bebd 5317 2fbc 1b09 c33d ca4a b4bd
00000090: b001 8e3c cf23 4fbd 4262 3fbd 0a95 b3bd
000000a0: 5481 4b3d 2e96 3cbd d7ff 7f3d b35f 963d
000000b0: 2326 843d d365 a03d 969a 82bc 4215 993d
000000c0: 42ea 5d3c 274e 1d3b 576a 89bd 0b10 553c
000000d0: 46a1 833d 1d26 8dbc d610 c73c 830e b13c
000000e0: 86d2 843d a450 ddbc 6702 0c3d ade0 70bd
000000f0: 73ef bc3c 36af 993d 3f9c 9c3c 9fbb 90bc
00000100: 9378 c2bd aadd 8d3d 8a12 07bc bb66 233d
00000110: 5b75 273a 469b 7abd 34a8 9abd 5523 b9bd
00000120: ef57 b8ba 94da 5b3c 7b38 10bc 8dab 92bc
00000130: 0261 32bd 9705 11bc 5c9b 8abd 2f56 fb3d
00000140: 1248 05be 27f8 873d a71d bbbc fb1a 473d
00000150: 6e5d b63d aae6 cd3d 7036 92bd 5e29 0d3d
00000160: 7541 4e3c e597 4bbd 48ed a9bd 1524 2e3d
00000170: a236 ebbc c580 0f3d 7c97 283d 82b5 ac3d
00000180: de07 c4bc 9f9a eebc 036d 7abd f819 e8bd
00000190: da0e 46bd 389d 62bd afe9 7c3d 034f 093d
000001a0: 92e8 20be d9a2 ac3d 72ea 46bd 8109 9dbc
000001b0: 9592 23bc 532d c8bd 7017 803d 32c9 c7bd
000001c0: fe7f 203d 8790 aa3d a573 083d 69b7 7c3d
000001d0: ff0a 9bbd 6624 9ebd fde8 1bbd cf28 833d
000001e0: 5cd4 983d 8874 48bd 72d4 49bd 7e20 aa3d
000001f0: 4256 70bd 2bec 96bd 27cd c2bd 4800 85bd
00000200: ab46 93bd 8120 1b3d d2d0 843d 2985 883d
00000210: 3c79 913d 1baa be3c 0727 d23d acb8 90bc
00000220: cc20 003e 4c63 a83d 6d34 98bb e853 98bd
00000230: 8757 6bbd 8c4b f73c b485 b5bd 3cf6 79bd
00000240: 6b4b abbe 9566 fa3c 3657 b9be 89ae 983d
00000250: 96eb 993d 0024 e3bc d09a b13c c2af 293d
00000260: 6170 6abd 2b3b 393a 39b9 923d 2fce 6e3d
00000270: 7829 723d 8975 343b 3e36 a8bd 2027 dabd
00000280: d238 e13d e94a 96bd 6d7d c63d 0707 cd3b
00000290: 1157 573c 4b9a f9bd eea2 cebd f2fc dc3d
000002a0: 10e6 b23c c6ce 35be 7f70 e8bc 911f 743d
000002b0: c803 f83b fed5 53bd 086f 8f3d 78ec 6cbd
000002c0: 4f04 6cbd d63d 883d df91 d43c 4234 a9bd
000002d0: b80d b7bd bad8 96bd f923 eebd 7953 de3c
000002e0: 8c96 fabc f244 2b3b b211 8ebd 19b6 98bd
000002f0: f77d 08be c246 a2bb 6967 c83d 83aa 2bbd
00000300: f907 f0bd 370e 0fbd 8820 353e a74c 9abb
00000310: b1e1 0abd d050 c0bc ad9e 8fbc 161b 9f3c
00000320: 63f8 01bd bee1 09bd 8d5b 21bd fb81 4e3c
00000330: 2624 343c 30a2 c63b 97ec d63d e977 37be
00000340: b1af 82bd 3b4f d2bd f543 183d 6255 973c
00000350: 50ce a23c 96c9 27bd 55fe 78bd 28fe 173d
00000360: 5dcf dabd a77d 7c3b e30c a63c 772f 4b3b
00000370: 314b 653c d1fb d8bd 3317 10bc 79db 9a3d
00000380: 4c68 7cbd 5eda 58bd 18a0 233d c270 ab3c
00000390: 6f5a 9ebd 4419 17be 40f5 4abd 62be a9bd
000003a0: a0ce b3bd ee46 5b3d f601 52bd 39b4 8fbd
000003b0: dc30 05be 58fb 0b3d 7e6a b3bd e2f5 b2bd
000003c0: 6778 0d3d 4855 3b3e 4e3d 0e3d e24a 14be
000003d0: a8f2 3c3c 4c01 923d 85ed 523c 524d a73d
000003e0: efa9 3fbd cd54 fbbc 4897 163c ae5e 8abd
000003f0: ff3e 84be 8db1 b83d 7803 b7bc b27b a8bc

actor.2.bias f4 [128]
0.0510662 -0.15643011 -0.10708466 -0.085786 0.039089717 -0.093254454 0.0040935944 0.025178332
-0.0424771 0.07301802 -0.11553993 0.019143002 0.08948665 -0.02742133 -0.06969723 -0.034430087
0.017904846 -0.04799945 0.00010261332 0.055583064 -0.047350947 -0.054853324 -0.10052208 -0.05291709
-0.03526981 -0.033666532 -0.05077442 -0.079106145 0.10476172 -0.04025033 0.027434973 0.06454451
-0.053425618 -0.059074834 0.010803913 -0.046904515 0.026570335 0.031131826 -0.015406284 -0.16161895
-0.04887311 -0.07001229 0.10937598 -0.014003794 0.047106378 -0.06928521 -0.12140146 -0.06513843
-0.08095417 -0.10251554 0.07339633 -0.063193895 -0.1338118 0.10131909 0.13570233 -0.2886953
0.04545128 -0.11582668 -0.021318177 -0.0841997 -0.11296725 0.011706763 -0.050640836 -0.06710139
-0.10679456 -0.131917 0.047191158 -0.12966079 0.06420915 -0.12404342 -0.057822894 -0.01869871
0.061717033 -0.12501344 0.081197545 -0.041660387 -0.029984042 -0.04842756 -0.050662946 0.024422608
-0.079452135 -0.06352472 0.037664715 0.019991076 0.003612675 -0.011940035 -0.19212182 -0.026542678
-0.08052335 0.022657366 0.012324188 -0.007542607 -0.055872694 -0.17349842 -0.035831463 -0.010222234
-0.11773461 -0.020873165 0.035106126 0.13017951 0.021071894 -0.021645447 0.00088069856 -0.14265135
-0.029661981 -0.0012726868 -0.10836569 0.0054342486 -0.14153585 0.018844243 -0.0878563 0.0036138303
-0.031011043 0.06656053 -0.03823087 -0.12557262 -0.01744342 -0.01840402 -0.06718696 -0.11372723
0.018032853 0.06950589 -0.05864062 0.01748318 -0.076005556 -0.024728648 -0.14693166 -0.02301421
00000000: cb2a 513d 372f 20be 344f dbbd 92b0 afbd
00000010: 8a1c 203d 31fc bebd 8f23 863b ca42 ce3c
00000020: 78fc 2dbd 798a 953d 33a0 ecbd c9d1 9c3c
00000030: c744 b73d b2a2 e0bc 6cbd 8ebd 9006 0dbd
00000040: 2fad 923c 129b 44bd 1b32 d738 11ab 633d
00000050: 11f3 41bd e1ad 60bd 85de cdbd 97bf 58bd
00000060: 1477 10bd ebe5 09bd d7f8 4fbd 6702 a2bd
00000070: 508d d63d 88dd 24bd 4fbf e03c e92f 843d
00000080: d2d4 5abd 74f8 71bd e502 313c f31e 40bd
00000090: 08aa d93c 2c08 ff3c a36a 7cbc 707f 25be
000000a0: 2c2f 48bd 9a62 8fbd 8400 e03d 2b70 65bc
000000b0: 9ef2 403d 67e5 8dbd 54a1 f8bd 4c67 85bd
000000c0: 4dcb a5bd abf3 d1bd d150 963d cd6b 81bd
000000d0: f605 09be 6280 cf3d 8df5 0a3e dfcf 93be
000000e0: 1f2b 3a3d 8a36 edbd 75a3 aebc e470 acbd
000000f0: 605b e7bd b9cd 3f3c c46c 4fbd 746c 89bd
00000100: 1bb7 dabd 4015 07be 844b 413d ccc5 04be
00000110: 1680 833d 7a0a febd b3d7 6cbd 092e 99bc
00000120: 00cb 7c3d 8603 00be e64a a63d 15a4 2abd
00000130: 18a1 f5bc fa5b 46bd f383 4fbd ec11 c83c
00000140: cdb7 a2bd 4019 82bd 5146 1a3d 53c4 a33c
00000150: a1c2 6c3b 23a0 43bc 95bb 44be 0870 d9bc
00000160: 6de9 a4bd f19b b93c 64eb 493c f927 f7bb
00000170: c4da 64bd 92a9 31be 03c4 12bd 287b 27bc
00000180: d81e f1bd 33fe aabc 71cb 0f3d c74d 053e
00000190: f79e ac3c cb51 b1bc aede 663a 3213 12be
000001a0: affd f2bc 48d0 a6ba d5ee ddbd c811 b23b
000001b0: c6ee 10be 3e5f 9a3c 01ee b3bd 03d6 6c3b
000001c0: df0a febc e350 883d f997 1cbd 1c96 00be
000001d0: 81e5 8ebc 07c4 96bc 5199 89bd d2e9 e8bd
000001e0: a2b9 933c 1b59 8e3d 2631 70bd e338 8f3c
000001f0: cda8 9bbd bc93 cabc 4175 16be 4c88 bcbc

actor.4.weight f4 [128, 128]
-0.043560497 -0.013329925 0.009378599 0.04518845 0.05244462 -0.015856294 -0.020255696 0.07210323
-0.037424367 -0.08999515 0.008420059 -0.015875833 0.121272855 -0.04535125 -0.08740966 -0.030116415
-0.039190963 -0.04248533 -0.04690381 -0.061449166 -0.07800825 0.04077744 -0.040529963 -0.043231588
-0.1037218 0.018970316 -0.012534296 -0.07958465 -0.037489597 0.047066692 -0.030608233 -0.050995365
0.015505762 -0.06223577 0.03855325 -0.023219015 0.023855932 -0.039798766 0.027985241 0.0322099
0.08649565 -0.058181733 0.04318859 -0.028365446 -0.044032846 0.03802118 -0.01810687 -0.024458697
-0.004719355 -0.055950932 -0.010154356 0.051833827 -0.02487671 0.0132487165 -0.045922883 0.0038599758
0.08647394 -0.07151257 0.0056792204 -0.0469683 -0.048391987 0.07970154 0.03834313 -0.029591406
-0.09655689 0.04626264 0.047747113 -0.04340484 0.00083871145 0.069730654 -0.03330674 -0.006381896
-0.007669063 -0.09840449 0.07227607 -0.012325371 0.043495405 0.025455335 -0.05331936 0.051579993
0.0048096487 -0.086126685 -0.05379898 -0.01085656 -0.06146363 -0.014736941 0.021036467 0.06358696
0.06983473 0.0097516505 0.042022597 -0.05667361 0.014375565 0.07020691 0.009983539 -0.055069346
-0.05835596 0.002783652 -0.06459922 0.025699122 -0.09659074 0.0040063877 -0.0316026 -0.031726323
-0.030322175 0.024840968 0.09066721 -0.000241365 -0.033079777 -0.03661398 0.046635725 0.030953102
-0.042783666 -0.020458074 -0.06036646 0.034692246 0.035025444 0.029000757 0.008872019 -0.021470075
-0.010268914 -0.09830233 -0.012469715 -0.021636592 0.015401994 0.0027134593 0.0148746725 -0.026794352
-0.11249329 0.067408465 0.048871215 -0.07630312 0.078309424 0.044810336 0.020951476 -0.0038222969
0.0049847215 -0.011934658 -0.08661545 -0.0019295069 0.06035507 0.03075165 0.104080364 -0.062414862
-0.013013714 0.0220452 0.023544881 0.0035915384 -0.13537978 0.09502569 -0.033437155 -0.018749626
-0.04070432 0.020325242 -0.036496148 0.021049002 0.07138842 -0.015285214 0.044590488 -0.10859574
0.062732324 -0.039912567 0.006014719 0.017467262 0.08679172 0.105321646 0.014684179 0.058429822
-0.02621768 -0.08292404 0.005243005 0.0032542325 0.03564754 0.11567808 -0.075539425 0.053681158
0.044748675 -0.06557149 0.017789965 0.051484965 -0.06638602 -0.11864075 -0.014577694 -0.088600755
0.091690816 -0.05365689 0.02236895 0.0779838 0.0573744 -0.07029807 -0.0054168603 0.086028166
0.043076076 -0.074963726 -0.019699657 0.045422822 -0.06376092 -0.049978618 -0.03060804 0.035358377
0.026771815 -0.044924036 0.015666487 0.007470745 0.09962025 -0.076852605 -0.088206455 -0.015125037
0.032288104 -0.030304462 0.06949885 -0.03633289 -0.04000005 0.050735056 -0.02085243 -0.024600577
0.029666964 -0.04845138 -0.019905724 0.06284322 -0.08883383 -0.0286226 0.06335586 -0.100226775
0.0116898 0.008587342 0.024331383 0.035998296 -0.062818736 0.09240176 0.06513035 -0.048616987
-0.004903841 0.048016317 0.056655113 0.039175898 0.009955173 0.009807953 0.0049148183 -0.06697652
-0.07674848 -0.0662746 0.042213757 -0.097243726 -0.08812446 -0.013814829 -0.10628888 -0.038269136
0.0032097872 -0.025892755 0.040186718 -0.010009916 -0.06929156 0.12666607 -0.11642698 -0.02680726
00000000: 7e6c 32bd c265 5abc b2a8 193c 8617 393d
00000010: 2bd0 563d 0fe5 81bc 46ef a5bc dcaa 933d
00000020: 4b4a 19bd 614f b8bd 4af4 093c 090e 82bc
00000030: e75d f83d 3bc2 39bd d603 b3bd b3b6 f6bc
00000040: b486 20bd 1905 2ebd 361e 40bd 1fb2 7bbd
00000050: cac2 9fbd 3f06 273d bf02 26bd 9b13 31bd
00000060: 186c d4bd a367 9b3c a65c 4dbc 47fd a2bd
00000070: b18e 19bd 01c9 403d 1ebe fabc 84e0 50bd
00000080: e10b 7e3c efea 7ebd 03ea 1d3d ce35 bebc
00000090: 846d c33c 0804 23bd 4e41 e53c 87ee 033d
000000a0: a224 b13d f84f 6ebd 85e6 303d a75e e8bc
000000b0: c95b 34bd 19bc 1b3d dc54 94bc 9b5d c8bc
000000c0: d2a4 9abb ce2c 65bd 755e 26bc b54f 543d
000000d0: 3eca cbbc 2511 593c a219 3cbd a6f7 7c3b
000000e0: 4019 b13d 2f75 92bd c118 ba3b d561 40bd
000000f0: ad36 46bd 903a a33d b00d 1d3d ad69 f2bc
00000100: 9ebf c5bd e57d 3d3d 7a92 433d 46c9 31bd
00000110: f9dc 5b3a f2ce 8e3d a66c 08bd 391f d1bb
00000120: c34c fbbb 4b88 c9bd 7a05 943d 5af0 49bc
00000130: 3d28 323d b587 d03c 6765 5abd 8b45 533d
00000140: 429a 9d3b 3063 b0bd 525c 5cbd b7df 31bc
00000150: 4ac1 7bbd 3673 71bc ab54 ac3c e139 823d
00000160: 8305 8f3d 63c5 1f3c e31f 2c3d 9622 68bd
00000170: 7d87 6b3c a4c8 8f3d ff91 233c 6590 61bd
00000180: a906 6fbd ee6d 363b 994c 84bd f786 d23c
00000190: 5ed1 c5bd 0448 833b ba71 01bd 76f3 01bd
000001a0: 3666 f8bc 497f cb3c bbaf b93d ed16 7db9
000001b0: a97e 07bd 8af8 15bd 1a05 3f3d 5c91 fd3c
000001c0: ed3d 2fbd b197 a7bc d242 77bd 7519 0e3d
000001d0: d776 0f3d ff92 ed3c f25b 113c 03e2 afbc
000001e0: f23e 28bc bb52 c9bd c74d 4cbc 393f b1bc
000001f0: a558 7c3c 4bd4 313b e6b4 733c d47f dbbc
00000200: e262 e6bd 730d 8a3d 2f2d 483d cf44 9cbd
00000210: b160 a03d 0b8b 373d 6ea2 ab3c 807f 7abb
00000220: e056 a33b 9589 43bc 7163 b1bd 82e7 fcba
00000230: e136 773d e2ea fb3c 1628 d53d baa6 7fbd
00000240: 7937 55bc 2398 b43c 32e1 c03c 0460 6b3b
00000250: ffa0 0abe d49c c23d 66f5 08bd d198 99bc
00000260: 93b9 26bd 1f81 a63c fc7c 15bd f56e ac3c
00000270: 1834 923d d66e 7abc 84a4 363d 7167 debd
00000280: ce79 803d 5c7b 23bd 1f17 c53b 8117 8f3c
00000290: dbbf b13d e0b2 d73d e995 703c 1c54 6f3d
000002a0: 76c6 d6bc 14d4 a9bd 84cd ab3b f644 553b
000002b0: 2803 123d a1e8 ec3d 6ab4 9abd c6e0 5b3d
000002c0: 634a 373d 584a 86bd 43bc 913c e6e1 523d
000002d0: 65f5 87bd ecf9 f2bd 48d7 6ebc 5074 b5bd
000002e0: 65c8 bb3d 54c7 5bbd 173f b73c f8b5 9f3d
000002f0: 6b01 6b3d 6ff8 8fbd eb7f b1bb 892f b03d
00000300: 8a70 303d 9586 99bd 2d61 a1bc 480d 3a3d
00000310: 1695 82bd 61b6 4cbd b6bd fabc f2d3 103d
00000320: 9150 db3c 4402 38bd 0157 803c 27cd f43b
00000330: b405 cc3d e664 9dbd 96a5 b4bd 01cf 77bc
00000340: 8840 043d 1041 f8bc 6a55 8e3d ccd1 14bd
00000350: 18d7 23bd 90cf 4f3d b7d2 aabc 2687 c9bc
00000360: 2208 f33c f474 46bd 5411 a3bc f2b3 803d
00000370: 83ee b5bd f179 eabc b8c0 813d b243 cdbd
00000380: 9386 3f3c ecb1 0c3c 9c52 c73c f372 133d
00000390: 1ca7 80bd 223d bd3d 1063 853d 9b22 47bd
000003a0: 66b0 a0bb c2ac 443d 310f 683d e876 203d
000003b0: 061b 233c 89b1 203c 7c0c a13b fc2a 89bd
000003c0: 4f2e 9dbd faba 87bd 55e8 2c3d b827 c7bd
000003d0: 997a b4bd 9857 62bc fcad d9bd 19c0 1cbd
000003e0: 4b5b 523b 0b1d d4bc d49a 243d a100 24bc
000003f0: bce8 8dbd c0b4 013e 4571 eebd e69a dbbc

actor.4.bias f4 [128]
0.026419384 0.034557052 0.0035287538 0.052298807 -0.028307628 0.0595634 -0.009061343 -0.021209957
-0.044910457 -0.1875439 -0.117435746 0.008569585 -0.09285666 -0.08726914 0.06495347 -0.07904228
-0.0039859293 -0.0022321779 -0.115843356 -0.009599225 -0.11144441 0.09043363 -0.03580581 0.030274712
0.04662567 -0.03808428 0.012862911 -0.031598054 -0.1363499 0.051422894 -0.07730084 0.018513707
-0.0034189567 0.11830687 0.05492629 0.019027779 -0.003776725 0.04313972 -0.044370376 -0.018104924
-0.05148436 -0.05254178 -0.1420463 -0.10827455 -0.079101525 -0.12539166 0.0031885437 -0.22090033
-0.025874875 0.032405745 -0.07755716 0.064928435 -0.036663536 -0.037698638 0.018132903 -0.0085640885
-0.08552311 -0.117185906 -0.03014538 -0.05486046 0.0042688535 -0.022523344 -0.016702682 -0.04517155
-0.05903877 0.015989415 0.027846327 0.061378494 -0.012686623 0.08323764 -0.030338326 -0.1097375
0.015864844 0.04981089 -0.0015322552 -0.08181837 -0.030760376 -0.03766034 0.018420588 -0.025361631
-0.11469397 -0.06567869 0.11235136 -0.050214835 -0.021380326 -0.08977443 0.050403956 0.06866806
0.06626036 -0.05553224 0.056034762 0.0018829909 -0.20355164 -0.055990726 -0.09109612 -0.03808828
-0.03782951 -0.06983124 -0.05224858 0.016890142 -0.07798919 -0.06529555 -0.11645998 -0.013616631
-0.082675695 0.03185196 -0.072273955 0.0496952 0.02338682 -0.034699354 -0.021573013 -0.059573583
-0.034301817 -0.052558757 0.06755309 0.06531688 -0.047223445 -0.12771176 -0.11498897 0.079872996
-0.015687346 0.015500549 0.07457692 0.0487613 0.08952092 -0.029988596 -0.09176887 0.010467888
00000000: 776d d83c b28b 0d3d aa42 673b 4637 563d
00000010: 66e5 e7bc c0f8 733d 0776 14bc 81c0 adbc
00000020: 07f4 37bd 820b 40be 2782 f0bd 7267 0c3c
00000030: a22b bebd 2aba b2bd 5306 853d ebe0 a1bd
00000040: 669c 82bb bb49 12bb 483f edbd 1146 1dbc
00000050: f83c e4bd 4435 b93d 1da9 12bd ac02 f83c
00000060: 8ffa 3e3d 43fe 1bbd f6be 523c f66c 01bd
00000070: 4f9f 0bbe d0a0 523d e74f 9ebd 0faa 973c
00000080: 9310 60bb df4a f23d 64fa 603d 25e0 9b3c
00000090: ee82 77bb 46b3 303d b6bd 35bd c750 94bc
000000a0: 44e1 52bd 0d36 57bd 9674 11be 0cbf ddbd
000000b0: fbff a1bd ac66 00be e3f6 503b b233 62be
000000c0: 8cf7 d3bc e3bb 043d 4ad6 9ebd 33f9 843d
000000d0: 812c 16bd e369 1abd 748b 943c 6450 0cbc
000000e0: be26 afbd 2aff efbd 72f3 f6bc 5db5 60bd
000000f0: bde1 8b3b e082 b8bc 10d4 88bc ce05 39bd
00000100: a3d2 71bd 3cfc 823c fb1d e43c 0468 7b3d
00000110: 8edb 4fbc 7f78 aa3d 1588 f8bc 0ebe e0bd
00000120: fdf6 813c 8106 4c3d f4d5 c8ba 6490 a7bd
00000130: 2ffd fbbc bb41 1abd c6e6 963c 32c3 cfbc
00000140: ace4 eabd 8d82 86bd 7818 e63d 12ae 4dbd
00000150: cb25 afbc a8db b7bd 6174 4e3d d7a1 8c3d
00000160: 83b3 873d c675 63bd b584 653d b1ce f63a
00000170: d76f 50be 8856 65bd 9a90 babd 7502 1cbd
00000180: 1ef3 1abd ae03 8fbd 9b02 56bd 325d 8a3c
00000190: ccb8 9fbd acb9 85bd 9282 eebd 4a18 5fbc
000001a0: e051 a9bd 3377 023d 5e04 94bd 328d 4b3d
000001b0: b795 bf3c e920 0ebd e3b9 b0bc 6e03 74bd
000001c0: 1080 0cbd da47 57bd 4659 8a3d dbc4 853d
000001d0: 5f6d 41bd dfc6 02be 567f ebbd 7494 a33d
000001e0: c082 80bc 04f6 7d3c c9bb 983d eeb9 473d
000001f0: be56 b73d a5aa f5bc 51f1 bbbd 8181 2b3c

actor.6.weight f4 [8, 128]
0.012024501 0.009626841 0.005874262 0.01803411 -0.03491044 0.00042722127 0.016006667 -0.0031835733
-0.008146487 -0.09929506 -0.0042597656 0.0023423235 -0.040751915 -0.028319819 0.019480541 -0.03300923
-0.027042529 -0.046580162 -0.017995939 -0.04534891 0.022184214 0.038030494 -0.07496861 0.022418054
0.025721004 -0.039334245 -0.029234411 -0.022881491 -0.105021626 0.0031384255 -0.05418369 0.00055321836
-0.0005901491 0.041753598 0.064105935 -0.011630693 -0.060907573 0.03365338 -0.022470128 0.0037762087
-0.0046360176 0.02019705 -0.064184256 -0.01823048 -0.023863092 -0.03496466 0.036161683 -0.09713037
-0.00086532306 -0.0010686386 -0.009077087 -0.0042960797 -0.01109631 -0.0093228305 0.030822227 -0.009264228
0.021021865 -0.0017162906 0.0023479501 -0.007079741 -0.01331262 0.0020143678 0.07600792 0.012604855
0.010750348 0.0269902 0.0047654975 0.024498431 -0.06783709 0.0075950283 0.030367214 -0.05382782
-0.0034788481 0.017052712 -0.0005570856 -0.009838947 -0.0006287403 0.0078131985 -0.0023660013 -0.015111128
0.0030964215 0.011456258 0.008182991 0.009562988 -0.022606174 -0.043499995 0.01900688 -0.008152086
-0.025992893 0.007964256 0.024968743 -0.006303464 -0.0932592 -0.012347224 0.019664546 0.0017578006
0.00073214323 -0.0026968368 -0.03938715 -0.00409727 0.014877218 -0.0043886425 -0.007909153 -0.051497635
0.022907887 0.005672629 0.0021895093 -0.025334304 0.0168947 -0.017333148 -0.0402223 0.01493504
0.0069377776 0.052776862 0.018144729 0.010548325 -0.0053001894 -0.00061733794 -0.031530257 0.02279713
-0.03870112 0.008800891 0.0034879006 -0.038376715 0.021354577 -0.031454228 0.005023484 -0.018818641
-0.011269875 -0.051849697 0.041112307 0.023604875 -0.04397794 -0.02253621 0.022337312 -0.009760663
0.04100308 0.027486429 0.02133563 0.047683384 -0.0076578553 0.06963137 -0.013065095 -0.014282257
-0.008302081 -0.0027307495 -0.01239883 -0.04137527 -0.009473955 -0.06697664 -0.034622926 -0.0072749844
0.014338274 0.0026279178 -0.015737938 0.010390131 0.035507336 -0.04138527 -0.017222395 0.03272207
-0.06789915 -0.022966206 -0.037994657 0.0029082943 -0.018211162 -0.035869855 -0.06854648 0.008433977
-0.0034644238 -0.015393547 0.052658077 0.025749475 -0.043057635 -0.043663163 0.044486526 -0.032844294
-0.0041591595 0.010691744 -0.027361188 0.011335918 0.004848775 0.0029444967 0.073534735 -0.007745448
0.011244611 -0.026793148 0.02555578 -0.033900037 0.047678657 0.033905864 0.013721019 -0.03958864
0.029081533 -0.013794856 -0.04299175 -0.0071662394 0.05806015 0.030474396 0.028752698 -0.001097368
-0.008213391 0.01571895 -0.029493785 0.019651547 0.023780115 0.046819814 -0.05322452 -0.027529895
0.019304655 -0.017477987 0.015244769 -0.015285435 -0.011218506 0.04559288 -0.0030937088 0.004844965
-0.025119862 0.01713765 -0.0032230183 -0.0061146487 0.08286727 0.016052548 -0.018623566 0.002116435
-0.010621819 0.01601289 0.04145027 0.051980857 -0.008110167 0.024803204 -0.031651773 -0.00106926
-0.029876335 -0.040153947 0.0352121 0.0017449603 0.0040237545 0.009499985 -0.0034752719 -0.040187288
0.052436028 -0.05150838 -0.0145260645 0.017242838 0.039825916 0.016102083 0.051522058 -0.0017442781
-0.034538258 0.024778554 0.026860802 0.00056843704 -0.01360166 0.04660678 0.062458847 -0.003496052
00000000: 6a02 453c e6b9 1d3c e27c c03b 45bc 933c
00000010: 40fe 0ebd abfc df39 6a20 833c 7fa3 50bb
00000020: d878 05bc 355b cbbd 8195 8bbb ab81 193b
00000030: 7beb 26bd f7fe e7bc a895 9f3c b034 07bd
00000040: 4b88 ddbc d7ca 3ebd 386c 93bc c7bf 39bd
00000050: abbb b53c ddc5 1b3d 2589 99bd 11a6 b73c
00000060: dbb4 d23c f21c 21bd 017d efbc f771 bbbc
00000070: 9415 d7bd 0bae 4d3b b8ef 5dbd db05 113a
00000080: 3cb4 1aba d205 2b3d f949 833d aa8e 3ebc
00000090: 387a 79bd 20d8 093d 4613 b8bc 457a 773b
000000a0: bce9 97bb 4974 a53c 0973 83bd 1658 95bc
000000b0: 887c c3bc 1a37 0fbd 461e 143d 4aec c6bd
000000c0: d9d6 62ba 9011 8cba 10b8 14bc 21c6 8cbb
000000d0: 4ccd 35bc c9be 18bc e57e fc3c fdc8 17bc
000000e0: 0c36 ac3c 28f5 e0ba 11e0 193b 2cfd e7bb
000000f0: 2d1d 5abc 7c03 043b 0aaa 9b3d 9884 4e3c
00000100: 3a22 303c 8d1a dd3c e427 9c3b efb0 c83c
00000110: 2cee 8abd b7df f83b aac4 f83c 8f7a 5cbd
00000120: 63fd 63bb 21b2 8b3c 6209 12ba 8933 21bc
00000130: 0cd2 24ba ee02 003c ea0e 1bbb aa94 77bc
00000140: 55ed 4a3b 07b3 3b3c f411 063c 14ae 1c3c
00000150: 9530 b9bc 0d2d 32bd 51b4 9b3c 5490 05bc
00000160: 0cef d4bc 837c 023c 408b cc3c 4a8d cebb
00000170: aefe bebd 034c 4abc 8b17 a13c 0066 e63a
00000180: 4ded 3f3a 6abd 30bb 6c54 21bd 6442 86bb
00000190: 93bf 733c 9ace 8fbb 6495 01bc 2fef 52bd
000001a0: 52a9 bb3c 76e1 b93b df7d 0f3b e389 cfbc
000001b0: c166 8a3c 3ffe 8dbc 23c0 24bd 19b2 743c
000001c0: 4c56 e33b 8d2c 583d 41a4 943c e2d2 2c3c
000001d0: 36ad adbb d9d4 21ba df25 01bd 0cc1 ba3c
000001e0: 1185 1ebd 9d31 103c 4395 643b e730 1dbd
000001f0: cbef ae3c 26d6 00bd 0a9c a43b 8d29 9abc
00000200: 48a5 38bc 5960 54bd 6165 283d 035f c13c
00000210: 3622 34bd dc9d b8bc bdfc b63c 30eb 1fbc
00000220: d8f2 273d 382b e13c 0fc8 ae3c a74f 433d
00000230: bfee fabb e49a 8e3d fb0e 56bc 2100 6abc
00000240: 7405 08bc 60f6 32bb 7624 4bbc 1d79 29bd
00000250: a638 1bbc 0c2b 89bd c5d0 0dbd fe62 eebb
00000260: 14eb 6a3c 2539 2c3b d9ec 80bc 5e3b 2a3c
00000270: 2470 113d 9a83 29bd fb15 8dbc 9407 063d
00000280: b60e 8bbd a023 bcbc 49a0 1bbd 1599 3e3b
00000290: 932f 95bc 45ec 12bd 1962 8cbd aa2e 0a3c
000002a0: 630b 63bb 3735 7cbc ffaf 573d 90f0 d23c
000002b0: 345d 30bd 25d8 32bd 8137 363d bd87 06bd
000002c0: 8f49 88bb 6d2c 2f3c 9224 e0bc 49ba 393c
000002d0: 79e2 9e3b 75f8 403b 6199 963d 87cd fdbb
000002e0: 513b 383c 4e7d dbbc 5b5a d13c c4da 0abd
000002f0: b24a 433d e0e0 0a3d 20ce 603c b327 22bd
00000300: 653c ee3c d203 62bc 1e18 30bd c6d2 eabb
00000310: 7bd0 6d3d 71a5 f93c c78a eb3c 8fd5 8fba
00000320: 7591 06bc 07c5 803c f39c f1bc 48fc a03c
00000330: 84ce c23c 22c6 3f3d f401 5abd 6086 e1bc
00000340: cc24 9e3c ff2d 8fbc 32c5 793c c36f 7abc
00000350: d3cd 37bc 9abf 3a3d d2bf 4abb 83c2 9e3b
00000360: 2bc8 cdbc 4264 8c3c 4639 53bb 645d c8bb
00000370: 51b6 a93d a280 833c 7390 98bc e3b3 0a3b
00000380: 2307 2ebc 772d 833c c2c7 293d e1e9 543d
00000390: 82e0 04bc 1730 cb3c 4aa5 01bd 6926 8cba
000003a0: 37bf f4bc 7778 24bd 903a 103d 27b7 e43a
000003b0: b3d9 833b d3a5 1b3c 63c1 63bb 6d9b 24bd
000003c0: 29c7 563d 73fa 52bd bbfe 6dbc da40 8d3c
000003d0: 8020 233d 84e8 833c cb08 533d 43a0 e4ba
000003e0: fd77 0dbd 65fc ca3c 2f0b dc3c 2a03 153a
000003f0: 7fd9 5ebc c0e6 3e3d d9d4 7f3d 051e 65bb

actor.6.bias f4 [8]
0.16182649 -0.09945712 0.024769666 0.10677306 0.067376964 0.01998279 -0.038845837 -0.041405726
00000000: d8b5 253e 2db0 cbbd c1e9 ca3c d6ab da3d
00000010: effc 893d f3b2 a33c d01c 1fbd 0d99 29bd

critic.0.weight f4 [128, 31]
0.2390767 0.3080027 -0.068591185 0.13613541 -0.07657246 0.07180569 0.08040864 0.08085628
0.023367187 1.125344 0.28418273 0.3873996 -0.3443188 -0.13474411 0.405879 -0.07252744
0.07911759 0.039720535 -0.05435089 -0.09213142 0.06858516 0.065913014 0.0386163 0.0861616
0.04001297 0.05903919 0.034629684 0.22569907 -0.11804498 -0.13983059 -0.15746838 0.09140755
0.078634396 0.29956025 0.13459286 0.03331293 -0.12786971 0.07891939 -0.13986386 0.1801267
1.352041 -1.1145178 0.023005418 0.2299782 -0.13935748 -0.15305986 -0.08006108 0.030130396
0.018847272 -0.09591705 -0.017064383 -0.027871978 0.045559958 0.014945667 0.11664226 -0.03336283
0.012174021 0.11189582 -0.03628077 0.13239269 -0.1263092 0.020327318 0.194981 0.06699667
0.25505638 0.064400345 0.0589359 0.25083995 0.12705621 -0.010832203 0.093541525 -1.8877393
0.5307817 -0.098143965 0.022497853 -0.008736785 0.2671748 -0.01802361 0.04974552 0.024354035
0.029431714 0.042099927 -0.031586666 0.05614911 0.081061155 0.018116264 0.20111218 0.012661425
-0.11949945 0.043814104 0.118597806 -0.25188532 -0.106482916 0.08676412 -0.023014946 0.10309802
0.11472439 -0.020369846 -0.11341969 0.12607454 -0.030615775 0.14875776 -1.0546032 0.53464925
-0.06719731 -0.104187585 0.08430517 0.09236612 -0.043679465 -0.011907887 0.15883002 -0.09111652
0.11243116 0.086680315 -0.04014219 0.09459559 0.122863494 0.02646102 -0.062460892 -0.11010919
-0.021459414 0.06254918 0.0038529716 -0.09500613 -0.086157046 0.090863615 0.5097408 -0.043791734
0.17784597 0.10081785 0.15886411 -0.066252716 0.09970501 -1.1276356 1.1728843 0.25444236
-0.18510708 -0.07825509 0.39838946 0.036653787 -0.025726989 -0.0050673573 -0.020445416 0.04475961
0.059415072 -0.06542681 -0.043786883 0.1063485 -0.13408168 -0.02768396 0.14783745 0.048466403
-0.15233056 0.058316022 0.065654784 -0.18541189 -0.039650377 0.34745866 0.09019407 0.0331312
-0.105192415 0.0050036157 -0.23375121 -0.06262806 0.4680175 2.238554 -0.2543001 -0.020961514
-0.014233179 -0.17592652 -0.008220204 0.002106507 0.028593492 -0.05668903 0.00058273383 -0.0032093222
0.002331575 -0.0023719342 0.13911548 -0.06026098 -0.027912503 0.0530865 0.083283484 0.011895015
-0.011655837 -0.03658428 0.16871864 0.169977 -0.045476228 -0.18464234 -0.082204685 -0.010722209
0.006855194 0.13085121 0.19452073 1.2547865 -0.6188979 0.1254676 -0.10266949 -0.15218253
0.22663274 -0.0019851197 0.020951023 -0.053219106 0.06704671 -0.08902169 -0.055967983 0.01907262
-0.07721732 -0.017887652 -0.08835233 -0.07830232 -0.17631967 0.027493535 -0.07517299 -0.12075552
0.1687117 -0.07327855 -0.09211435 0.21838392 0.051275443 -0.053018242 0.02732633 0.018290227
0.18445633 -0.09438402 1.1178986 1.4492486 0.15121335 -0.030218918 -0.2093276 0.09849907
0.017262392 -0.012413838 0.01042306 0.038288735 0.0119762765 -0.053494945 -0.015814265 -0.011078845
-0.06289601 0.092740715 -0.025643997 -0.12022642 0.047636688 0.29646125 0.14517184 -0.045531366
-0.008828778 0.023252925 0.0343416 0.029581124 0.041808292 0.063945755 0.11179544 0.20495003
00000000: 86d0 743e 88b2 9d3e 8979 8cbd 1567 0b3e
00000010: 06d2 9cbd dd0e 933d 49ad a43d fa97 a53d
00000020: 8b6c bf3c 460b 903f 6680 913e 3e59 c63e
00000030: 8e4a b0be 5cfa 09be 5fcf cf3e 4489 94bd
00000040: 6708 a23d 00b2 223d 0a9f 5ebd 66af bcbd
00000050: 6076 8c3d 67fd 863d 202c 1e3d 7e75 b03d
00000060: a4e4 233d 14d3 713d dbd7 0d3d a81d 673e
00000070: 91c1 f1bd c02f 0fbe 643f 21be e233 bb3d
00000080: 120b a13d f65f 993e b6d2 093e 2473 083d
00000090: 47f0 02be 7da0 a13d 7938 0fbe 2273 383e
000000a0: ae0f ad3f 85a8 8ebf dc75 bc3c 687f 6b3e
000000b0: bab3 0ebe b9bb 1cbe 10f7 a3bd 05d4 f63c
000000c0: 9865 9a3c 2970 c4bd 9bca 8bbc c653 e4bc
000000d0: 149d 3a3d acde 743c 23e2 ee3d 76a7 08bd
000000e0: 8c75 473c a329 e53d 259b 14bd f391 073e
000000f0: 3357 01be 7a85 a63c 19a9 473e 8d35 893d
00000100: c096 823e 54e4 833d c566 713d 186e 803e
00000110: 061b 023e 8d79 31bc b392 bf3d 71a1 f1bf
00000120: 4fe1 073f b4ff c8bd 6b4d b83c bb24 0fbc
00000130: 23cb 883e 40a6 93bc f5c1 4b3d 1d82 c73c
00000140: c71a f13c f970 2c3d 0561 01bd 9cfc 653d
00000150: 6403 a63d 8f68 943c 5af0 4d3e de71 4f3c
00000160: 21bc f4bd 6b76 333d 68e3 f23d 1df7 80be
00000170: b713 dabd 63b1 b13d d789 bcbc 0e25 d33d
00000180: 9ff4 ea3d aade a6bc 9548 e8bd af19 013e
00000190: efcd fabc f453 183e 3dfd 86bf c6de 083f
000001a0: be9e 89bd 4d60 d5bd 30a8 ac3d 732a bd3d
000001b0: 3de9 32bd 4c19 43bc 56a4 223e 4c9b babd
000001c0: 4f42 e63d 7385 b13d 236c 24bd 55bb c13d
000001d0: db9f fb3d c8c4 d83c fed6 7fbd ed80 e1bd
000001e0: a7cb afbc c919 803d 2382 7c3b 9392 c2bd
000001f0: 1b73 b0bd b416 ba3d 607e 023f f65e 33bd
00000200: 411d 363e 9779 ce3d 46ad 223e 81af 87bd
00000210: 2432 cc3d 5d56 90bf 1321 963f 4546 823e
00000220: b68c 3dbe 3444 a0bd b4f9 cb3e 4822 163d
00000230: 68c1 d2bc 130c a6bb 257d a7bc da55 373d
00000240: 385d 733d 7efe 85bd e059 33bd 3ecd d93d
00000250: b54c 09be 79c9 e2bc b362 173e b584 463d
00000260: 8bfc 1bbe c8dc 6e3d 0476 863d 9ddc 3dbe
00000270: 6f68 22bd 1ae6 b13e abb7 b83d 95b4 073d
00000280: 1f6f d7bd 5ff5 a33b 7a5c 6fbe 2443 80bd
00000290: fd9f ef3e 7844 0f40 9f33 82be 7bb7 abbc
000002a0: 4832 69bc 1526 34be 09ae 06bc 530d 0a3b
000002b0: e63c ea3c c232 68bd 9bc2 183a 7e53 52bb
000002c0: 56cd 183b 7472 1bbb 4a74 0e3e 38d4 76bd
000002d0: c3a8 e4bc 3b71 593d 8890 aa3d 4fe3 423c
000002e0: 20f8 3ebc 66d9 15bd 94c4 2c3e 730e 2e3e
000002f0: 4845 3abd e212 3dbe ee5a a8bd 34ac 2fbc
00000300: 89a1 e03b dcfd 053e 7130 473e d89c a03f
00000310: 1870 1ebf 947a 003e 6244 d2bd bdd5 1bbe
00000320: 6a12 683e c818 02bb 7ba1 ab3c 47fc 59bd
00000330: c94f 893d 0151 b6bd af3e 65bd 2f3e 9c3c
00000340: 1d24 9ebd 2089 92bc 11f2 b4bd f75c a0bd
00000350: 258d 34be 1f3a e13c 4cf4 99bd ac4e f7bd
00000360: c3c2 2c3e 1013 96bd 73a6 bcbd 09a0 5f3e
00000370: 3306 523d a829 59bd 78db df3c 63d5 953c
00000380: 1fe2 3c3e 694c c1bd 4d17 8f3f fa80 b93f
00000390: acd7 1a3e aa8d f7bc f959 56be e1b9 c93d
000003a0: dc69 8d3c 6963 4bbc 7bc5 2a3c a6d4 1c3d
000003b0: 2538 443c 841d 5bbd eb8c 81bc 0b84 35bc
000003c0: a0cf 80bd d8ee bd3d 5c13 d2bc 4539 f6bd
000003d0: b01e 433d c5c9 973e eda7 143e 197f 3abd
000003e0: 94a6 10bc eb7c be3c c7a9 0c3d 1d54 f23c
000003f0: 2c3f 2b3d fef5 823d 02f5 e43d 6cde 513e

critic.0.bias f4 [128]
-0.105103314 -0.16051398 0.13734116 0.069235474 -0.0010937025 -0.04981332 0.017237185 0.007008486
-0.076716065 -0.2507641 0.05720289 -0.3214963 -0.1848978 -0.17688954 0.1680413 -0.09066876
-0.16832972 -0.042484816 0.08611484 0.08160771 0.1600515 0.0008120691 -0.118315145 -0.14864668
-0.06438365 -0.22789545 -0.019922493 -0.23874359 -0.20775786 0.045645583 0.12054551 0.031687506
0.026684506 -0.009745178 0.33616903 -0.23940162 -0.26573533 0.20055293 -0.22913894 -0.20392095
-0.010660716 0.24220735 -0.15006192 -0.201074 0.12394615 0.07936565 0.18828829 -0.1417164
-0.24673909 0.15575334 -0.14050895 -0.09512855 -0.32316974 0.09420677 -0.12774198 -0.17305452
0.011397589 -0.10940812 0.13016462 -0.119043015 0.0030294408 -0.03427495 -0.038271904 -0.2671121
-0.016826348 -0.17678753 -0.0056344047 -0.098670185 -0.11294838 0.10697951 -0.23278713 0.15735197
-0.11975555 0.24548176 0.032519918 0.095189765 0.25317568 0.085896865 0.09260666 -0.057347152
0.11174965 -0.07133855 0.032362435 0.21215229 -0.2713638 0.22181074 0.0692198 0.045611687
0.122849524 0.14218412 -0.21006966 -0.007319206 -0.13709442 -0.017331945 -0.19008075 0.112374745
0.019773154 -0.13311973 0.06510437 0.088271245 -0.016274871 -0.073910125 -0.00942499 -0.08736656
0.11231394 -0.24109927 0.29970098 -0.13489228 0.01909359 -0.0718357 -0.1947936 0.049454432
-0.037286524 0.06891796 -0.018252008 -0.026487667 0.008132305 0.15026556 -0.15311739 0.10327972
-0.027824914 0.015905075 0.063120715 -0.08243694 0.15041226 -0.24277109 0.08632598 -0.061828304
00000000: 6840 d7bd c75d 24be 29a3 0c3e 54cb 8d3d
00000010: 915a 8fba 0d09 4cbd ff34 8d3c 71a7 e53b
00000020: 501d 9dbd 2764 80be 944d 6a3d 2a9b a4be
00000030: d955 3dbe 8822 35be 0513 2c3e 8bb0 b9bd
00000040: a05e 2cbe 8f04 2ebd fa5c b03d f121 a73d
00000050: 8ae4 233e 09e1 543a 364f f2bd d636 18be
00000060: 93db 83bd 6d5d 69be 7f34 a3bc 3379 74be
00000070: 7abe 54be ddf6 3a3d 90e0 f63d c2ca 013d
00000080: 7799 da3c 3daa 1fbc 591e ac3e b325 75be
00000090: 760e 88be bf5d 4d3e 66a3 6abe a7d0 50be
000000a0: 49aa 2ebc 3405 783e d5a9 19be 58e6 4dbe
000000b0: 7bd7 fd3d 758a a23d a5ce 403e 1b1e 11be
000000c0: 2ca9 7cbe ce7d 1f3e 94e1 0fbe c2d2 c2bd
000000d0: 8176 a5be 7bef c03d cbce 02be 3435 31be
000000e0: f4bc 3a3c 5d11 e0bd e049 053e d3cc f3bd
000000f0: 9589 463b e463 0cbd 00c3 1cbd ebc2 88be
00000100: 69d7 89bc ca07 35be d0a0 b8bb 9813 cabd
00000110: 7b51 e7bd 1318 db3d c05f 6ebe e020 213e
00000120: 6642 f5bd 925f 7b3e 9b33 053d daf2 c23d
00000130: 3ea0 813e b2ea af3d 90a8 bd3d d9e4 6abd
00000140: 00dd e43d f219 92bd 798e 043d 733e 593e
00000150: 32f0 8abe 5b22 633e 1cc3 8d3d 52d3 3a3d
00000160: 8898 fb3d b798 113e 801c 57be f3d5 efbb
00000170: 7b62 0cbe b9fb 8dbc 87a4 42be bb24 e63d
00000180: 4ffb a13c 8a50 08be 7155 853d 8ec7 b43d
00000190: e152 85bc 315e 97bd 466b 1abc 3ded b2bd
000001a0: da04 e63d bae2 76be 6872 993e 3421 0abe
000001b0: 296a 9c3c 981e 93bd f977 47be bb90 4a3d
000001c0: c1b9 18bd dc24 8d3d 3c85 95bc aafc d8bc
000001d0: 5c3d 053c 37df 193e ceca 1cbe 5184 d33d
000001e0: 13f1 e3bc 5c4b 823c 6f45 813d b3d4 a8bd
000001f0: ac05 1a3e fc98 78be adcb b03d ad3f 7dbd
