ISAAC_NOGIT/logs/rsl_rl/traquad_flat/2025-09-16_12-27-53/model_50.pt (torch, 925409 bytes, 48 tensors)

std f4 [8]
00000000: 361b 2c3f c35c 3e3f f80b 413f f20a 2f3f
00000010: 03a7 423f 81e6 3f3f 1e2b 483f 6a13 543f
0.6722902 0.74360293 0.7540889 0.68376076 0.7603609 0.74961096 0.7819079 0.82842124

actor.0.weight f4 [128, 31]
00000000: bbe0 2abe 4606 923d b473 d8bd 5393 2e3e
00000010: 9722 103e fc0d bd3d b662 223e 0387 04be
00000020: c79e 69bb a0a4 5c3f 2cb5 283d a101 c5be
00000030: 494a a73d d6f4 203e 2b09 2abe 0e12 50bc
00000040: da62 d53d e462 ee3d 9413 0c3e 739c da3d
00000050: 591b 1b3d fe3b 09be 63f8 c6bd 797b 07bd
00000060: cd60 393e 8f3f 12bc 41c3 933d 890f 0abd
00000070: 8fbf 3b3e 2d1f ddbd cede 13bd 7926 55bd
00000080: 3788 fbbd c9a7 51be 81b7 12be 70cf 30be
00000090: 6038 5ebd 21a5 38be 71be 3a3e f061 6d3e
000000a0: 0a63 173c 70af 7b3c e931 02bf 54c6 1b3e
000000b0: d543 163e 5fe4 07be 8c4c babd 7b7e 183e
000000c0: b9d1 cdbd 28f5 0abd 1db4 5ebd 9365 8b3c
000000d0: 0281 95bc 1d35 bf3d a3f4 8d3d 5762 573e
000000e0: 7461 603d b206 e6bd d041 d3bd a2e1 3dbe
000000f0: 5631 c73d 4e7a 68be 7103 feb9 6b90 3b3d
00000100: 9607 243c faf2 753e a669 fdbc 6b78 45be
00000110: 391d f63d 6199 65be 5710 4abd 9562 043f
00000120: 81a0 a1be 5fa1 b0bd 0859 3c3e 5ba7 87be
00000130: 5065 4cbe 8198 a4bc 4b38 a3bd 483f c63d
00000140: 0b9d d6bd 0a1d 61bb 8279 033e a565 c03d
00000150: 1848 bebd 5ae3 9dbd d30d 98bd a557 8cbe
00000160: 6d2d 4fbe a4e1 2c3c 8b54 17bd 94e3 37be
00000170: cceb be3e 7ec2 963e 98c7 0a3e 510c 9abc
00000180: 1647 55be 984f 51be 9f61 81bd bf66 03bd
00000190: e149 90bd dd45 c13d e454 0dbf 84c8 72be
000001a0: 107b 6f3d a0f6 ecbd f66b 4e3e 1296 f73d
000001b0: 858c e63e 8d6a 823d 6c9c a5bc 8c7f 283e
000001c0: c385 d23d ddba b43d 9f4a babd 20ca 993d
000001d0: 53ef f1bc 4ff1 46be daf4 9f3e 593f a8bc
000001e0: ac25 883d f510 82bd 3732 553e f0a7 ffbd
000001f0: d04b e33d 5a87 243d 51e2 00be 05a6 e5be
00000200: 60be 083e 52da b0bd 72d6 4cbe 1601 063e
00000210: 244c 9dbd 301e 993f b883 40bf 46c3 70bd
00000220: 24c8 d53e 1e2c a6be 754d 10be 346e 173c
00000230: 551e 903e 26f7 67be af05 cebc 0cff 033d
00000240: 0961 f13c 0645 60bc 925f 53bd d203 29bd
00000250: ead1 19bd 7f2a 2d3e 8cc9 6bbd be44 c73c
00000260: e189 943d c27f 12be 7c5e 9e3e 2443 68be
00000270: 70f2 6e3e aef5 d2bb 3831 d5bd ff98 36be
00000280: 915d be3e 8abb e23d 3a10 47bd cdf6 53bd
00000290: 6a41 033f f2c1 e8bd 2949 0cbe 89be b33e
000002a0: fa97 f9bd c2a7 513e efd0 67bd 6636 953c
000002b0: 236d 663c a7f5 2b3e b5d7 103e e820 cd3d
000002c0: 56e5 0bbe 0237 1a3d 9607 93bd 38f4 8ebd
000002d0: 03b3 80bd ed8a cdbd 3b35 82be 9c50 1b3d
000002e0: 0e79 d23d 6318 5bbd 561f dfbe 3327 06be
000002f0: d610 a0bd 1999 5c3e 76c7 9d3d 32d5 0cbf
00000300: 1c9b db3b c79a ca3b b863 c53d 4541 1c3f
00000310: 4b5f 883f ca10 c43d 755f f5bd 0f85 a8bc
00000320: 4f3f 363e 0221 2a3e e2a2 18bd 5161 27be
00000330: 461f b43e 8b9a 823c 572f 0ebc e0c8 08bc
00000340: 13be 423b 1665 f3bd 3d18 26bd 6f8d 87be
00000350: 2e03 f43c a786 04be afda aa3c d04d f63d
00000360: 3f46 b6bd 5a11 6e3e 80d7 de3c 7dc7 743c
00000370: 7b31 91be 6a74 22be a5fe 21be 7ffa d23d
00000380: e649 0ebe c28d 20bd 664a 873f 12b7 9f3d
00000390: 1dea 00bd de75 823d 99ac 0ebe 4bfd 693c
000003a0: 7d20 603e c605 c83d edc3 d33d 6d5a 063e
000003b0: 501d 8a3a 4323 88bb 2ab4 9bbd 657f edbc
000003c0: f118 65b9 8f9f 10be 1ed7 233e ddf6 15bb
000003d0: 9822 743b ff63 653d 9984 03be 8ce6 fe3e
000003e0: ee1e 2b3e 260e 0c3f 122d 923e 57e8 26bf
000003f0: ebfb 8d3c 4bda debc 182a aebd dec6 a63d
-0.1668729 0.07130103 -0.105689436 0.17048387 0.14075695 0.09231183 0.15857968 -0.12942128
-0.0035647617 0.861887 0.041188404 -0.38477805 0.08168466 0.15718397 -0.1660506 -0.012699617
0.10419245 0.11639956 0.13679343 0.106743716 0.037867878 -0.13401791 -0.09715345 -0.033076737
0.18103333 -0.008926286 0.07214976 -0.03370622 0.18334793 -0.10796962 -0.036101155 -0.052038644
-0.1228184 -0.20474161 -0.14327814 -0.17266631 -0.054252982 -0.18031742 0.1823671 0.23181891
0.009239921 0.015361652 -0.50857407 0.15212375 0.14674313 -0.1327071 -0.090966314 0.14891998
-0.10049767 -0.033925205 -0.05437099 0.017016208 -0.018249992 0.093363024 0.069314264 0.21033607
0.05478044 -0.11231746 -0.10315287 -0.18543103 0.09726207 -0.22702906 -0.0004844922 0.045792025
0.010011574 0.2401847 -0.030934166 -0.19284217 0.120172925 -0.2242179 -0.04933199 0.51712924
-0.31567767 -0.08624529 0.18393338 -0.2649487 -0.19960523 -0.02009225 -0.079697214 0.09680039
-0.10479172 -0.0034349584 0.1283932 0.09394387 -0.092910945 -0.077093795 -0.07424512 -0.27410617
-0.20232172 0.010551844 -0.03694586 -0.17957908 0.37289274 0.2944526 0.13552701 -0.018804701
-0.20827898 -0.20440519 -0.06317448 -0.03208041 -0.07045341 0.094371535 -0.5520766 -0.23709303
0.05846697 -0.115704775 0.20158371 0.120891705 0.45029083 0.06367979 -0.02021619 0.16454905
0.10279419 0.08824704 -0.09096264 0.075092554 -0.029533064 -0.1942799 0.31241494 -0.020538019
0.0664781 -0.063508905 0.20819937 -0.124832034 0.110984445 0.040168144 -0.12586333 -0.44853225
0.13353872 -0.08635391 -0.2000368 0.13086352 -0.07680538 1.1962337 -0.75200987 -0.058779977
0.41754258 -0.32455534 -0.14092048 0.009242583 0.28148142 -0.22652873 -0.025149195 0.032225654
0.029465215 -0.0136883315 -0.051604815 -0.04126341 -0.037553705 0.16910742 -0.057565257 0.024324771
0.07252861 -0.14306548 0.3093146 -0.22681862 0.2333467 -0.0064379787 -0.10409778 -0.17831801
0.3718076 0.110709265 -0.04859946 -0.05174904 0.5127169 -0.11365117 -0.13699783 0.35106304
-0.1218719 0.20474151 -0.05659574 0.018214416 0.014064106 0.16792928 0.14144786 0.10016042
-0.13661703 0.037650116 -0.07179181 -0.06980175 -0.06284144 -0.100362636 -0.25431237 0.037918672
0.102769956 -0.053490054 -0.43578595 -0.13100891 -0.07815711 0.21542777 0.0770406 -0.5501281
0.00670184 0.0061830017 0.096381605 0.61037093 1.0654081 0.09573515 -0.119810976 -0.02057126
0.17797588 0.16614154 -0.037264712 -0.16345717 0.3518011 0.015942832 -0.008678279 -0.008348674
0.0029715344 -0.11884515 -0.04055046 -0.26475093 0.029786672 -0.12941991 0.02085623 0.1202656
-0.08900117 0.23248807 0.027202368 0.01494014 -0.28358063 -0.15864721 -0.15819795 0.103016846
-0.13895378 -0.03919769 1.056958 0.0779859 -0.031473268 0.06370138 -0.13933028 0.014281581
0.21887393 0.09766726 0.10340104 0.13120432 0.00105373 -0.004154594 -0.07602723 -0.02899141
-0.00021848433 -0.14123367 0.1600003 -0.0022882738 0.0037252065 0.056003567 -0.1284355 0.49785268
0.16711017 0.5470909 0.2855001 -0.6519827 0.017332038 -0.0272037 -0.085041225 0.081434

actor.0.bias f4 [128]
00000000: b902 843c 89c3 45be 50e4 97bd 37a3 99bd
00000010: abbb e23c 4dbf 67bd fd98 8bbc fa04 55bd
00000020: 303c 5cbe 685a 283e 9433 52be adaf 92bd
00000030: 81b2 0fbe 190a 763d af8d d4bd 15dc ef3d
00000040: 9f27 313d 61a1 18be bda8 9cbd 6296 7dbd
00000050: fb63 013e 927c b03c 4910 49bc b4b6 9e3d
00000060: d9c5 fe3d 1295 8dbd c55e 9bbd 7f66 b63c
00000070: 1e8f 72bd 2052 a2bd df14 12be 3e71 26be
00000080: 0de0 5cbe fb43 fcbc 1018 1cbe 2c8d f43d
00000090: d2f4 a83d ccb7 e6bd 55bd 1d3e 1a60 ed3d
000000a0: d30c 0f3e 226f 8dbe bc40 28be eabb 92bd
000000b0: aefe ac3c d2d1 b73c d771 473c e4d4 c33c
000000c0: f5cd 45bc eb79 1abe c82d b8bd 6bca d6bd
000000d0: 710d 4ebc 1fba dc3c a618 d4bc a8c0 debc
000000e0: a624 11bd af41 593d 9bf6 10be 17f0 793d
000000f0: ca9e d7bd beb5 c8bd e148 0abe 43b2 aa3d
00000100: 49d1 83be 4606 4abe 7a0c d5bd 439b 3ebd
00000110: 1a48 fa3d cd67 96bc 989d 52be 84b3 803d
00000120: 2d18 1c3d a201 2cbe 6cc9 73be 6e89 f9bd
00000130: b4d1 8fbc 9964 3abe 5f66 87bd a368 8abc
00000140: 7810 25be efbe 7bbe 290e 6dbe 78b1 853d
00000150: 38a5 9ebc 37b1 7ebd d601 b8bb 9aa2 0ebe
00000160: a3a6 1d3d fa41 1abe 10af 09be 9831 dfbd
00000170: 7af1 c53d 9175 66be 82f6 01be 91bf 1abd
00000180: 9638 a2bd f1b7 a33d dca9 673d 941d fdbd
00000190: 9638 f23d 8ed3 e33d f0f1 c63d 35d5 77be
000001a0: d499 b13d c023 bebd 33f8 58be 90b5 0ebd
000001b0: 77ab 52be fee4 153e 0624 42be d0b7 4cbd
000001c0: ac1e 2fbd 4d25 9bbd 07f2 d2bd 724c ee3d
000001d0: 6d99 88bd 872f bf3c 8034 49be cc9a 8bbd
000001e0: ac59 493e 7de7 cdbb 2dd2 75bd 0b96 23bd
000001f0: 6f1a 893d f5c3 ab39 152a 743a 99ae fc3c
0.01611458 -0.19312872 -0.07416594 -0.07501834 0.027677378 -0.056578923 -0.017040724 -0.0520067
-0.21507335 0.16440737 -0.20527488 -0.07162414 -0.14032938 0.060068224 -0.103785865 0.11711899
0.043250676 -0.14905311 -0.07649372 -0.061910994 0.12635796 0.021543775 -0.012271949 0.077496916
0.1244008 -0.069131985 -0.07586435 0.02226567 -0.05921852 -0.0792582 -0.14265774 -0.16254136
-0.21569844 -0.030794134 -0.15243554 0.11940989 0.08249821 -0.11265525 0.15404256 0.115905955
0.13969736 -0.2762385 -0.16430944 -0.07164748 0.021117534 0.022438917 0.012173138 0.023905225
-0.01207303 -0.1508557 -0.08993107 -0.10487827 -0.012576447 0.026944218 -0.02589066 -0.027191475
-0.03543534 0.053041156 -0.14156573 0.061019983 -0.105283335 -0.098002896 -0.13504364 0.08334782
-0.2574561 -0.19728956 -0.1040277 -0.046534788 0.122207835 -0.018360043 -0.2056793 0.0628424
0.038108993 -0.16797498 -0.23807305 -0.12184416 -0.017556049 -0.18202437 -0.066113226 -0.016895598
-0.16119564 -0.24584554 -0.23149933 0.0652799 -0.019365892 -0.062180724 -0.0056154532 -0.13929215
0.038488995 -0.1506423 -0.13445687 -0.10898131 0.096651986 -0.22505786 -0.12691692 -0.03778035
-0.07920949 0.079940684 0.056558475 -0.12359157 0.11827199 0.11124335 0.09714115 -0.24202426
0.086719185 -0.092841625 -0.2118843 -0.03484112 -0.20573221 0.14638135 -0.18959054 -0.049979985
-0.04275386 -0.07575474 -0.10300069 0.116356745 -0.06669889 0.023338092 -0.19648933 -0.068166345
0.19663113 -0.006283699 -0.060014892 -0.039938014 0.06694495 0.0003276166 0.0009314132 0.030844973

actor.2.weight f4 [128, 128]
00000000: 0040 8ebd 0f01 a1bd 7d64 213c 4b6c 14bd
00000010: f661 f73c b566 cebd f59d f2bd f032 023d
00000020: e93f 9f3c 67a2 943d 56af 50bd b900 29b9
00000030: 4e87 203d a36d 093d 1e26 ca3d a263 f4bc
00000040: 6ee6 c03d 7576 b0bd 056f 563d be8f 653d
00000050: fa14 223d 2c0f f9bc baac c13d 780a 2c3b
00000060: 9b0b 473d 90f6 a13d 3bcb 223d 62c9 de3c
00000070: 10d6 54bd 3a9e 013d a5e1 b83c 6fe9 6f3c
00000080: cadf babd 2d8c 10bc 6435 b43d e43d a1bd
00000090: abbf ba3c e589 77bd 6979 7abd 42bf 84bd
000000a0: 9ae8 713d 04fa e2bc 53b2 7a3d 00de 863d
000000b0: c1a4 823d c46a 8c3d a57e 13bc a8b8 9f3d
000000c0: 6b2c 003c 0fa2 ff3b 30e9 94bd 3b16 1d3b
000000d0: 7386 893d 0807 fbbc 74d5 003c a220 993c
000000e0: d305 813d f86b a4bc bc63 e73c b585 a6bd
000000f0: f196 82bc b5b2 9a3d b7e2 9c3c 2cc6 c0bc
00000100: ee21 abbd c1e4 843d 162e 91bc fff8 453c
00000110: 1af9 babb a608 3fbd ae17 8cbd a383 93bd
00000120: dcc6 f1bc 3d68 e93b 4d4e 8cbc 4c75 27bd
00000130: ae15 59bd 7da1 41bc edbc b1bd 7996 b13d
00000140: 6f2a babd f065 463d e6c2 5ebc 9558 8f3d
00000150: 29da b13d f160 a33d 503a 54bd 5d63 5fbb
00000160: 9d07 fc3c f73f 12bd 03f1 acbd 3acf 3e3d
00000170: 4cb6 d6bb 2029 293d a003 a43c 6c21 453d
00000180: ce89 6dbc c672 f8bc 4d6a 81bd 1f2c 4ebd
00000190: a34a 04bd 1faf 02bd 23ca 413d d89d 7d3c
000001a0: 7c3d d9bd 7ebb 9e3d eccb 0fbd aeab 4fba
000001b0: 31c3 4cbc 5c86 bbbd ae9e 9b3d fb44 c0bd
000001c0: 1366 883d 264d 1f3d 32e5 2cbc e611 393d
000001d0: d557 46bc deae a6bd eadb 1bbd 031d 473d
000001e0: 4481 8b3d 495d 6bbd 0921 35bd 3771 9a3d
000001f0: e361 3dbd 0c83 89bd 6f20 abbd 7037 b2bd
00000200: 618e b0bd 6a45 f43b fa0b 863d f68f 7d3d
00000210: 3f04 063e e059 863c 576d 6f3d 645f 463c
00000220: 56c9 f73d a807 393d 8afe ff3c 7716 8bbd
00000230: 3587 9ebd d622 993c 722e cabd 2035 57bb
00000240: 24ba 54be 4a19 02bd 65a7 8fbe 81d0 8c3d
00000250: 36f5 943d 7a1d 12bd 95e9 2a3a abf7 e53c
00000260: 9ab4 22bd e6ad 1bbd 2024 7e3d 3e9b 883c
00000270: 7065 913d 5cc6 60bd eea9 bcbd be53 82bd
00000280: 4f71 903d 2915 4bbd 821e 9f3d a490 4c3c
00000290: f4b4 453c eef1 02be a7a5 46bd da5a b33d
000002a0: 9bfc 4a3d c22f 07be 1176 cdba 9835 a93d
000002b0: d2af bf3c bb20 3ebd 704b 8a3d 6cb6 c5bd
000002c0: c959 1dbd 6ea5 8c3d 1a17 fe3c 2a36 80bd
000002d0: a61a 60bc 48ad 9cbd d910 a0bd b279 8f3c
000002e0: b68e fdbc 4d64 1a3d fa3c a3bd e322 66bd
000002f0: 34ae 86bd f242 813c 6f90 a83d c1dd f3bd
00000300: eba1 74bd 9e2c e8bc 28aa 813d 51fc 5d3d
00000310: e8aa 7ebd f396 de3a 690b 40bd d825 53bc
00000320: b722 06bc 290b c4bc f731 bbbd cb39 6f3c
00000330: c4f2 1c3c 8e54 0abc 357f 323d 2a5a fcbd
00000340: fcb3 2dbd 48df a4bd 6bbe 2c3c 3004 e33c
00000350: 0401 163d 13e8 983c 2ec2 29bd 89eb a43c
00000360: e287 6cbc 0dbf c73c c275 ea3b 327e 70bb
00000370: eee9 623c bc0f 4cbd 68f1 f03c 6e84 3c3d
00000380: af09 c3bd a894 5fbd 4d61 273d 15ab 873d
00000390: e787 b1bd 9515 b4bd 493a c8bd e5e6 37bd
000003a0: bb1a d8bc 5a2f 213d d517 efbc 9e49 ac3c
000003b0: 92b5 babd 80da 9b3d 43e1 dbbd fbac b3bd
000003c0: e133 913d 85a4 983d 3ab1 533d 5326 fcbd
000003d0: 9122 533d 1c37 613d cf30 323d 37f5 463d
000003e0: 13d2 7bbb 8910 d1bd 7c7b 6d3c fcdd 7ebd
000003f0: f5ea 5bbe e9ee b53d d70c 523d 1de5 c5bd
-0.06945801 -0.0786153 0.009850618 -0.03623609 0.030198079 -0.100781836 -0.11846534 0.03178686
0.019439654 0.07257538 -0.050948463 -0.00016117365 0.039191537 0.033551823 0.098705515 -0.029832665
0.09418951 -0.08616344 0.05235197 0.056045286 0.039570786 -0.030402742 0.09456773 0.0026251357
0.048595052 0.07908356 0.039744597 0.027195636 -0.05196196 0.031645037 0.022568533 0.014643057
-0.091247156 -0.008822483 0.08799246 -0.07873133 0.022796473 -0.06043424 -0.061150942 -0.06481792
0.059059717 -0.027707107 0.06120522 0.06585312 0.063790806 0.068563014 -0.009002362 0.07798892
0.00782309 0.0078013013 -0.072710395 0.002396955 0.06715097 -0.030643001 0.007863391 0.018692318
0.06299939 -0.020071015 0.0282458 -0.08130971 -0.015941115 0.07553617 0.019151075 -0.023531996
-0.08356081 0.06488944 -0.01772217 0.012083291 -0.0057059648 -0.046639107 -0.06840454 -0.07202842
-0.029513769 0.007123022 -0.01712718 -0.040883347 -0.05299919 -0.011818287 -0.08678613 0.086712785
-0.09090125 0.04843706 -0.013596272 0.069993176 0.08684189 0.079774745 -0.051813424 -0.0034086325
0.030765349 -0.035705533 -0.08444407 0.046584345 -0.006552493 0.041298985 0.02002126 0.048127577
-0.014498187 -0.030328166 -0.063191034 -0.050335046 -0.03229774 -0.03190529 0.047311913 0.015479527
-0.1060743 0.07750605 -0.035106584 -0.00079220056 -0.012497709 -0.091564864 0.07598625 -0.09388157
0.06660094 0.038891934 -0.010552691 0.045183085 -0.012105902 -0.08138822 -0.038051523 0.048611652
0.06811765 -0.05746201 -0.044220958 0.07541125 -0.04623593 -0.06714448 -0.083557956 -0.0870198
-0.086209066 0.007454564 0.06545253 0.06190487 0.13087557 0.016400278 0.058453884 0.012107704
0.12098949 0.045173317 0.031249303 -0.06791394 -0.077406324 0.018693369 -0.0987214 -0.0032838061
-0.20774132 -0.0317624 -0.280574 0.068757065 0.07273333 -0.035672642 0.0006519792 0.028072199
-0.039723016 -0.03800764 0.06204617 0.016675588 0.07099426 -0.05487667 -0.09212099 -0.06363629
0.07052862 -0.049580727 0.07769491 0.012485657 0.012067068 -0.12787601 -0.048497822 0.08757563
0.04955731 -0.13201812 -0.0015675445 0.08262175 0.023399267 -0.046417933 0.0675267 -0.09653935
-0.038415704 0.06867491 0.031016875 -0.06260331 -0.0136782285 -0.07650238 -0.078157134 0.017514084
-0.030951839 0.03769331 -0.07970615 -0.056185614 -0.06576195 0.015778992 0.082306735 -0.119075306
-0.05972473 -0.028341588 0.06331283 0.054195706 -0.062174708 0.0016982242 -0.04688588 -0.012887441
-0.008186988 -0.023931103 -0.091403894 0.014601181 0.009579364 -0.008443011 0.043578345 -0.12321885
-0.042407975 -0.080504 0.010543446 0.027711958 0.036622062 0.01866535 -0.04144495 0.020131843
-0.014436694 0.024383092 0.007155151 -0.0036696312 0.0138497185 -0.049819693 0.029411986 0.046024732
-0.095233314 -0.05458513 0.040864278 0.06624428 -0.086684994 -0.08793179 -0.09776742 -0.044897933
-0.026379934 0.0393518 -0.029186169 0.021031197 -0.09116663 0.07610035 -0.10736325 -0.08773228
0.07089973 0.074532546 0.05168269 -0.12311997 0.051546637 0.054984197 0.04350358 0.0485737
-0.0038424775 -0.10208232 0.014494773 -0.06222342 -0.21476348 0.08883459 0.051281776 -0.096628405

actor.2.bias f4 [128]
00000000: 2721 333d 071a f3bd b5d6 a2bd eb8c 8cbd
00000010: c5d2 e53c 3059 89bd 2edd 87bc af51 7b3c
00000020: 9ee1 34bd 7858 9e3d 269b 66bd 50e8 243c
00000030: 32b2 853d 96d4 a63c 92f4 86bd ccd6 53bc
00000040: bb14 4d3d ebe1 c8bc 0f6c f53c ed23 a93d
00000050: 3d87 e0bc 2325 b8bd 1f8f debd 0b9f e3bc
00000060: 3150 a23b 92da 04bd cd1d 01bd 0a43 b2bd
00000070: 7a2f f73d 6409 c0bc e6db b1b9 cf02 813d
00000080: dc81 e0bc 046d 2fbc 7ab3 bc3d e5f9 0bbc
00000090: 2a0b 123e aaf3 1f3d 5c24 aebc ff73 cabd
000000a0: 24d7 a0bc 81bd 65bd 90ce c73d 3130 483d
000000b0: 5c12 693d c90d 93bd ef4c 1ebd e039 aabc
000000c0: 4e11 88bd ed97 cdbd d9b1 863d 49d7 74bd
000000d0: d683 e8bd b4d9 a03d cc0f f33d 51b2 d9bd
000000e0: 51f8 473d 97e8 3cbd 2c3d 98bb 7498 7ebd
000000f0: 9aec c6bd 2e42 993d 1114 32bc 2485 32bc
00000100: 897f afbd 060c b7bd 163e a13d 773c 8cbd
00000110: 45c3 6e3d fa3e afbd 0bc1 febc 831f 9d3d
00000120: d463 643d f2d5 bbbd 227e a43d 5ba5 b33a
00000130: e14e a4bc 9adf 49bc 1841 2ebd b4e3 f33c
00000140: 3960 9a3c 7d77 e3bc f362 bc3b 0481 e93c
00000150: a04c 043d 2005 25bc 09a4 ccbd 89de f2bc
00000160: 0ca2 a0bd bec5 c23c 2a09 e03c b0e9 833c
00000170: c245 93bd 9eec abbd af14 14bd 0cb9 1abc
00000180: 60be 76bd dfb3 edbc e05f 6c3d adf1 c03d
00000190: 3d1e de3c be67 18bd 60a9 863d 97c5 dfbd
000001a0: cf80 dcbc 8ba0 c8bb f675 9abd f401 073d
000001b0: 8ce2 dfbd 0f05 0c3c 865a 87bd 552b ccbc
000001c0: f8ab 55bd b39e a93d c853 a8bc 9f50 fdbd
000001d0: c9ea 803c 9557 4c3c acc0 97bd ab9a 98bd
000001e0: 909d e33c e6f3 813d ad32 69bd e316 393d
000001f0: 58f6 6bbd e25f 083d d567 fbbd 0103 0cbd
0.04373279 -0.11870199 -0.07951108 -0.068628155 0.028054604 -0.06706464 -0.016584959 0.015339299
-0.044160478 0.07731718 -0.056300305 0.010065153 0.06528129 0.02036504 -0.06589617 -0.01292963
0.0500686 -0.024521789 0.029958753 0.082588054 -0.027408237 -0.08991458 -0.10867142 -0.027785799
0.004953407 -0.032435007 -0.03152256 -0.08704193 0.12069602 -0.023441978 -0.00033923908 0.06299364
-0.027405672 -0.010707144 0.0921392 -0.008543466 0.14262071 0.039050736 -0.021257572 -0.09885406
-0.019633837 -0.056088928 0.097561955 0.048874084 0.056902274 -0.07180364 -0.03864759 -0.02077955
-0.066439256 -0.10038743 0.065768905 -0.059775624 -0.11353271 0.078540236 0.118682474 -0.10629714
0.048820797 -0.046120252 -0.004645964 -0.06215711 -0.09713097 0.07483326 -0.010869042 -0.010896001
-0.08569247 -0.0893784 0.0787317 -0.0684747 0.058291692 -0.08556934 -0.03109791 0.07672026
0.055759266 -0.09171666 0.080318704 0.0013705896 -0.020057144 -0.012321377 -0.042542547 0.029771663
0.01884471 -0.027766937 0.0057491004 0.028503902 0.032299638 -0.010072023 -0.09992225 -0.029647129
-0.07843408 0.023775931 0.02734812 0.016102642 -0.071910396 -0.083947405 -0.036152538 -0.009443533
-0.06024015 -0.029016433 0.05770862 0.09421096 0.027114028 -0.03720831 0.065752745 -0.10926359
-0.02691689 -0.006122654 -0.075420305 0.032960847 -0.10931882 0.008546128 -0.06609063 -0.024923006
-0.052165955 0.082822226 -0.020547763 -0.12368893 0.015736954 0.012472053 -0.07409796 -0.074513756
0.027785093 0.06345348 -0.056933094 0.045187842 -0.05760798 0.033294566 -0.12275664 -0.034182552

actor.4.weight f4 [128, 128]
00000000: 7cdf 2cbd c80b 80bc 9662 6e3c 711a 463d
00000010: 25b1 613d 3b0c 6bba 4458 85bc 4a56 b93d
00000020: c376 0fbd 1ae3 babd 4e68 ba3c 457e cabc
00000030: 4087 e33d 9a16 1ebd 1845 a9bd 4a33 bbbc
00000040: 8b96 a4bc 8eac 94bd 560b 13bd b487 74bd
00000050: 58a5 6cbd 9f38 653d ac50 7ebd d126 41bd
00000060: b624 9fbd 3f87 c33c e580 97bc c7c4 7bbd
00000070: bbd2 b6bc e0e5 4b3d 0732 47bc f144 49bd
00000080: 4d8c 8c3a b51f 38bd 5da1 5a3d 55a7 a9bc
00000090: 74df 223c b605 29bd 9018 883c 9bc4 e53c
000000a0: f656 bb3d 0a18 a0bd ec00 883d c639 583c
000000b0: 28f2 1eb8 35ef ba3c dd21 2cbc 6151 dfbb
000000c0: f422 8c3b 360b 80bd 884c 5dbc 8071 383d
000000d0: 9f7f d4bc e7f7 073c b416 0ebd 33ee 273c
000000e0: f8e2 673d a078 90bd aa81 163d 2b6c 48bd
000000f0: f375 f6bc 24e6 a73d 7c14 043d 13dd 1dbd
00000100: 4173 e1bd c8d0 7e3d 58dc 293d f78d fabc
00000110: aedf 743c 759d 9b3d 719c 2ebd c3a0 cabb
00000120: e627 49bc bea1 6fbd 6d72 883d 1c09 de3c
00000130: 6361 433d 3d35 dc3c aa19 2cbd 7389 423d
00000140: 9b04 33bc e442 a2bd 8cfa 31bd b86a 383c
00000150: 3573 46bd f7e8 13bc 9c50 9a3c 948e 763d
00000160: 649e 8f3d 02ae e1bb 7cf8 5a3d 3240 86bd
00000170: d2ec 053d edf7 433d c9bc 913c 4bce 8bbd
00000180: a325 68bd d3d1 4c3d dcbc 88bd 25bb 423d
00000190: e57e 9dbd 9e9e 993a a436 d8bc cf20 4dbc
000001a0: 9e88 aabc d2d6 e73b d115 ad3d 2682 c23b
000001b0: 179d 64bd ccf0 ddbc 95f7 513d c0b9 e43c
000001c0: c9da 27bd 0f01 44bc 4395 8cbd 5528 113d
000001d0: 6b27 6c3d 3bde d53c f03e c13c 44f1 26bd
000001e0: 502e f9bb 242d c9bd f520 3d3c b477 05bc
000001f0: ddb4 dd3b 1166 3e3c 94d9 343d e42a e9bc
00000200: 0948 c5bd d641 953d c354 5d3d fb57 09bd
00000210: 509a 903d 49d3 403d fe34 f33c 708c 86bc
00000220: 6214 ceba dae5 7b3c 029b bfbd 6bd4 cdbc
00000230: 1a08 913d cab2 fd3c f6f2 c73d 45c1 c4bc
00000240: f5f8 0b3d 357c 833c 7726 973c fcbb 20bb
00000250: f192 eebd 1c2f 623d ef19 ecbc 0101 51bd
00000260: 307e fabc 8c99 09ba 51c6 92bc 9ee4 25bb
00000270: 23d0 793d 2d84 79bc 38eb 563d f19d 9cbd
00000280: 7b04 943d 1871 0fbc 9e1a 833d 3b1a 493d
00000290: 405e 883d ed8f ce3d 16e5 b03b 2150 f83c
000002a0: 1d45 9fbb f05f 6bbd a3b9 ccbc 6df0 cc3b
000002b0: 93a7 463d 7220 233d 5af2 1dbd 7555 043d
000002c0: f6c9 a43d 7d66 59bd 57f4 c23d ec0e 273d
000002d0: bd7d 9abd d539 04be 3b4d b23c 62ce 7bbd
000002e0: d484 aa3d 06bf a4bd 2538 2e3d 8686 963d
000002f0: 28c9 983d 2b71 5cbd b01a aa3c e846 8b3d
00000300: 50c4 77bc e86e 86bd bab6 70bc f158 993d
00000310: 3f53 51bd 3070 6ebc 2df1 a2bd 12fa 383d
00000320: 5981 ec3c 4483 12bd cea5 523c 56d1 b33d
00000330: a155 a53d 4a10 a1bd 0ea3 a8bd e474 acbc
00000340: cd04 413d 13cd 05bd af39 353d 7214 c73a
00000350: 8a73 d3bc 679d a03d 5c94 8fbb e156 93bc
00000360: 58a0 653d 63b9 55bd b7bf 783b 7dae 943d
00000370: 64c0 8bbd 6295 003c ca78 963d 8c13 a1bd
00000380: bef4 1b3d 47c3 ba3c b232 873c e00c 3d3d
00000390: 4785 48bd a396 b33d eff5 823d 2063 71bc
000003a0: ad7e 51bc c3bf 883d a9a5 803d f002 643d
000003b0: 797e f63c b921 9a3c fe1a 173c 08f9 a1bd
000003c0: c0f5 97bd b4ee 2fbd e143 f93c db2a b1bd
000003d0: 4cdb 58bd fcc5 36bd 4fbb a9bd 81bd 20bd
000003e0: b4ee 323c 68f9 24bd 1abe 523d 1aba 863b
000003f0: e70c 42bd 5287 023e 17f7 e9bc f199 ea3c
-0.04220532 -0.015630618 0.014549872 0.04836506 0.05510058 -0.0008966361 -0.01627744 0.090496615
-0.03502537 -0.091253474 0.022754814 -0.024718413 0.11109781 -0.038595773 -0.08265132 -0.022851605
-0.020091316 -0.07259475 -0.035899483 -0.05969973 -0.05777487 0.0559622 -0.062088653 -0.04715616
-0.07770674 0.023868201 -0.018494079 -0.06146696 -0.022317281 0.049779773 -0.012157924 -0.049138013
0.0010722965 -0.044952113 0.053376544 -0.020709673 0.009940971 -0.041265212 0.016613275 0.02804785
0.09147446 -0.07817085 0.06640801 0.013197368 -3.789566e-05 0.02281914 -0.0105061205 -0.006815121
0.0042766277 -0.06252138 -0.013507016 0.045030117 -0.02593976 0.008298851 -0.03468962 0.010249662
0.05661294 -0.070542574 0.03674475 -0.048931282 -0.03008554 0.08198193 0.032246098 -0.03854091
-0.11008311 0.062210828 0.0414699 -0.030585272 0.0149459075 0.07598392 -0.042629663 -0.006183715
-0.012277579 -0.05850386 0.0666245 0.027103953 0.047700297 0.026880855 -0.042016663 0.047494363
-0.010926391 -0.079229146 -0.04345183 0.0112559125 -0.048449714 -0.009027711 0.018837266 0.060194567
0.070126325 -0.0068871984 0.05345963 -0.06555213 0.032696553 0.047843862 0.017790215 -0.06826457
-0.05667652 0.05000479 -0.06676647 0.047541756 -0.07690219 0.0011720245 -0.026393242 -0.012520029
-0.020817097 0.007075169 0.08451427 0.005935925 -0.055813875 -0.02709236 0.051261503 0.027920604
-0.040980134 -0.011963143 -0.06864407 0.035438854 0.05765478 0.026106944 0.023589581 -0.040757433
-0.007604398 -0.09823063 0.011543502 -0.008146215 0.0067659453 0.011621014 0.04415281 -0.028462835
-0.0963288 0.07287948 0.054035913 -0.03353117 0.07060683 0.047076497 0.029688355 -0.016424388
-0.0015722627 0.015374625 -0.09355737 -0.025125703 0.070816234 0.030969042 0.09763138 -0.02401794
0.03417297 0.016050437 0.018450959 -0.002452611 -0.116491206 0.05522071 -0.02882096 -0.051026348
-0.030577749 -0.00052490155 -0.01791683 -0.0025313268 0.06098951 -0.015229267 0.052470416 -0.076473124
0.07227417 -0.008754991 0.06401561 0.04909728 0.06658602 0.100860454 0.005398403 0.030311646
-0.004860534 -0.05746454 -0.024990862 0.006254247 0.048499655 0.039825864 -0.038561203 0.03230806
0.080463335 -0.053076256 0.095192604 0.040785715 -0.07543514 -0.12912686 0.021765342 -0.06147612
0.08326116 -0.08044247 0.042534012 0.07349877 0.074602425 -0.053818863 0.020764679 0.06800634
-0.015122488 -0.065641224 -0.014692003 0.07487667 -0.05110478 -0.014553115 -0.07956157 0.04516036
0.028870272 -0.035769716 0.012856914 0.08780162 0.08072973 -0.07864435 -0.08234225 -0.021051832
0.04712372 -0.032666277 0.044244464 0.0015188588 -0.02581193 0.07842522 -0.0043816995 -0.017985763
0.05606112 -0.05217875 0.0037956068 0.072598435 -0.06823805 0.007848116 0.073472574 -0.078650564
0.0380752 0.022798194 0.016503666 0.046154857 -0.04895523 0.08768966 0.06394564 -0.014733106
-0.0127865495 0.06677201 0.06281597 0.055666864 0.030089604 0.018814908 0.009222744 -0.07908827
-0.0741992 -0.042952254 0.030427875 -0.08650752 -0.052943513 -0.044622406 -0.082876794 -0.039243225
0.010921169 -0.040276915 0.051450826 0.0041115405 -0.047375586 0.12746933 -0.028560204 0.028637858

actor.4.bias f4 [128]
00000000: 6095 b33c cb66 5e3c 6b64 fa3b 6827 273d
00000010: 2490 b7bc 2613 613d 6dc5 a8bc 9c26 74bc
00000020: 6cdd e5bc de74 0fbe f264 ccbd d3ec 083c
00000030: 5ceb bbbd 63bf 9cbd a3d5 7c3d 5819 5bbd
00000040: 778c bb3c e424 823c 436c cdbd e396 2b3c
00000050: ea2e b4bd 42c2 9c3d 8268 f3bc d3e6 053d
00000060: 2faa 2d3d 85fe 72bc 2a40 b23c 06c9 a8bc
00000070: c646 a6bd 655e 7c3d 7fab 80bd 2a86 bf3c
00000080: 325c f63a 1338 d73d 591a 603d e213 533c
00000090: c251 d83c 8087 f43c 66d5 0dbd 035e 09bb
000000a0: 1d02 58bd 6fd2 44bd 9e32 ecbd 0575 abbd
000000b0: b417 84bd f4c6 afbd a620 323c d196 1abe
000000c0: 8a0c 1bbc 24c3 573d 9290 71bd 35e7 733d
000000d0: 64a7 67bc 284a 42bd 976a db3c 80fd 073c
000000e0: 7102 8cbd ddc8 bdbd 94b5 79bc c802 d4bc
000000f0: d2d5 a73c df5f 7bbc 273e 79bc 89fd 2ebd
00000100: f783 77bd 02de 813c 1a5b a83c a714 683d
00000110: 9643 b03c 83f0 993d b7c2 0cbd 6c12 a0bd
00000120: 662a 073c a29d 533d fee7 1fbb 9c6a 60bd
00000130: bee3 ffbc 2f55 0bbd 6c9f 2a3d eee7 59bc
00000140: 34b8 d9bd f0de 69bd 02b6 dc3d 6a08 05bd
00000150: 50e2 35bc 4a94 54bd c00f 3d3d 8412 8b3d
00000160: 7493 943d 515e 85bd 1d94 903d de2d 963b
00000170: e8f4 05be 5bae 91bd 71d7 a7bd 35cb 16bd
00000180: 49ef 52bd a084 88bd aa97 febc 6054 bd3c
00000190: 52c5 80bd 5b5b 8abd efb9 d5bd 4e58 953b
000001a0: 32cf 96bd 28dc 2d3d e7da 94bd 0232 6f3d
000001b0: 1f63 8b3c a61f 26bd b838 c1b9 9da4 7abd
000001c0: e841 e0bc ff2e 72bd 2d35 953d a4bd 913d
000001d0: 122f 51bd 3b17 dabd 6494 a1bd eb0e 9a3d
000001e0: 6a49 843c dcb4 ce3c ed99 843d b156 4c3d
000001f0: 8bdf a13d 73b9 00bd c716 91bd 9d46 f43c
0.021921813 0.013574312 0.0076413653 0.040809065 -0.022407599 0.054949902 -0.020601952 -0.014901783
-0.028059684 -0.14009425 -0.09980191 0.008357245 -0.091757506 -0.076536916 0.061727177 -0.053490967
0.022894127 0.015886731 -0.10030415 0.010472986 -0.08798011 0.07654239 -0.02971292 0.032690834
0.042398628 -0.01483119 0.021759111 -0.020603668 -0.08118968 0.06161346 -0.0628271 0.023379404
0.0018795787 0.10508742 0.054712627 0.012883158 0.026406173 0.029849768 -0.03462734 -0.0020960576
-0.05273639 -0.048052248 -0.11533092 -0.08371929 -0.064498335 -0.08582869 0.010872042 -0.15096594
-0.009463439 0.052676335 -0.058975764 0.059546668 -0.01413903 -0.047434002 0.026784224 0.008300185
-0.06836403 -0.09266827 -0.0152410455 -0.025880232 0.0204877 -0.015342682 -0.015212572 -0.04272226
-0.060428586 0.015852932 0.020551253 0.05666032 0.021516602 0.07516577 -0.034365382 -0.07816014
0.008249855 0.051664002 -0.0024399753 -0.05478917 -0.031236526 -0.034016784 0.041655943 -0.013299925
-0.10630837 -0.057097375 0.10776903 -0.032478727 -0.01110132 -0.051899232 0.0461576 0.06790641
0.07254687 -0.0651213 0.070595 0.0045831045 -0.13081706 -0.07113334 -0.08195389 -0.036814887
-0.05149773 -0.06665921 -0.031078178 0.023111522 -0.06287636 -0.06755706 -0.10435855 0.004557646
-0.07363738 0.042446285 -0.07268315 0.0583973 0.017015038 -0.040557526 -0.00036854087 -0.061192144
-0.027375177 -0.05912685 0.07285533 0.07116249 -0.05107028 -0.10648962 -0.078896314 0.075223766
0.016148288 0.025232725 0.064746715 0.049887363 0.079039656 -0.03142686 -0.070844226 0.029818827

actor.6.weight f4 [8, 128]
00000000: 486e d83c 0b58 b93c 489f 99b9 1c84 ed3c
00000010: d032 94bc 568f a2bc b509 bd3c 47d5 53bc
00000020: 234f 09bd 7b88 a8bd f281 95bc 90ec b03c
00000030: d057 dbbc 2fec 49bd f82f 5cbc c58e f3bc
00000040: b96e 03bd 02b0 28bd 1a35 91bc 4161 eabc
00000050: 5c71 5d3c c19f 123d 92ba 39bd be9d d23b
00000060: 79a2 0c3d 73eb 79bd ef3e d8bc 5eb3 07bc
00000070: ff33 b6bd a0c2 cd3b d348 2dbd 9906 62bb
00000080: 7854 333c 1e0d 4e3d f827 5a3d f10b d6bc
00000090: cf2d 63bd 877d 0e3d e6d3 2bbd ce53 05bc
000000a0: b6ba 3b3b 7a5e 063c cda6 24bd 7b9b d63b
000000b0: de3f 08bc 4443 a2bc 5b9c cc3c 5932 a5bd
000000c0: 78aa 1fbc 6a74 bc3a a01b 1abc a54a e03c
000000d0: b84a 62bc e105 e93b 7aa7 f33c 52fd 0fbd
000000e0: 1aba a9ba 7ae2 d2bc eecd c33b 0a88 5e3c
000000f0: ffff e7ba bd51 2c3c eac3 933d 3241 833a
00000100: ef13 71bc f62d 883c 4642 e4bb 2f95 0f3b
00000110: 3866 7ebd 0634 503c 1f1e 693d 3484 48bd
00000120: 4537 1e3c a2d1 db3c a967 34bc 1722 07bd
00000130: 2bf6 fd3b cb49 ea3a 07b4 c6bc 763f 67bc
00000140: bbe0 053b 4703 743c dada 4c3c a58e f73a
00000150: c8c8 1dbd 0631 2ebd 26de b33c cf68 60bb
00000160: b76f 45bd f7c7 1f3d da8e 073d b2d0 693b
00000170: a330 97bd b163 b83c 594f 9a3b d62a f3bb
00000180: 61cc f63a 077c a63b 96ce 31bd a2fd e13b
00000190: b535 0e3c 0f93 a93c 8bf0 dfbb dd3d 89bd
000001a0: 85ac 1e3d 827b 1d3b f552 313c 5352 cabc
000001b0: e9ae 363a 9e52 22bc 3265 43bd 754d c33c
000001c0: ab7b 6a3c 1c9f 8c3d a5da fb3c 6468 143d
000001d0: 9f50 063d d8b7 7e3c b189 96bc 8dab 113d
000001e0: 1e47 b4bc 03c9 9e3c ef20 ecbb 5cc1 38bc
000001f0: 9868 333d 83c7 44bd c3fa 013d 79c2 f2bc
00000200: 09e2 e1bc 1144 5abd 4a65 663d 5497 ff3c
00000210: db7d 01bd 1a83 15bd 7705 e23c 147a 97bc
00000220: 7d32 303d 879f 7c3c 862c 8dbc 7cdb 89bc
00000230: fa78 25bd 1e0e 813d cf38 05bc 0704 b53c
00000240: 3e47 063d 2533 49bc 6439 38bc 62ff 48bd
00000250: 1b10 bc3b e010 87bd df7e 0fbd b60a 803c
00000260: c28b ecbc 4a73 50bd e4ba 1abd d79f 3bbb
00000270: 45ca fa3b 9253 50bd c550 163d bcfa 8d3d
00000280: 0ee4 44bd 6f26 27bd 9da9 3bbd 361b f73c
00000290: 8124 44bc 4ec2 35bd 0ccb 3ebd 85ab 24bc
000002a0: 6f55 0dbc 82be 2fbd c5dd 753d b6c6 143d
000002b0: 68c0 cc3b f6da 23bd 227b 4a3d 82f3 f4bc
000002c0: 4ad7 52bb 469c 913c d257 25bc 2be2 2f3d
000002d0: fe5b cf3c 01fa 1bbc 3b6d 493d 11b9 fcbc
000002e0: 290f 4f3c 94ec 80bd 7e1c eb39 2b2a d4bc
000002f0: d187 773d ac61 643d 5946 2f3d 2b3a 05bd
00000300: 566e b33c 084b e0bb a45a 37bc 5593 313c
00000310: 6f87 3d3d 2d28 0bbc e494 2c3d 795c bcbc
00000320: 3805 4b3b ab63 243d a593 a7bc 95d7 88bc
00000330: 28e0 143d 3eaa 1e3d ae12 1dbd 4dcf 82bc
00000340: 8677 1d3d bc02 0b3c 8f64 91bb 1421 213c
00000350: d6a8 dabc 926f 5a3d 3af1 dbbc 9fef d4bc
00000360: be44 0ebd a925 ca3c 4af8 62bc 9b75 b33b
00000370: e847 9a3d bc41 493c f328 aabc 1977 f53c
00000380: 0316 a83a 4290 243d 4cb2 6b3d 89a4 2c3d
00000390: ea1a d43a 4d9a d1bc 6108 87bc 1f03 cabc
000003a0: 8e5a 63bd ae97 56bd 934d 793b 3f84 b73c
000003b0: 646b a2bb 2ddf 6bbc 00a9 06bc bfe3 73bd
000003c0: b1d7 f73c 4c82 fbbc 4465 71bb 6b16 063c
000003d0: 8ee6 b23b 575d 8dbc 3289 723d cda6 a1bc
000003e0: 7002 0e3c 9cd6 253d 99b7 fb3c 18fc ac39
000003f0: 36cc 08bc 503a 503d e648 943d 97af 00bc
0.026419774 0.02262499 -0.00029301108 0.028993659 -0.018090636 -0.019843739 0.023075918 -0.012929267
-0.033522736 -0.082291566 -0.01825044 0.021597177 -0.02677527 -0.049297508 -0.013439171 -0.029731164
-0.032088015 -0.04118348 -0.017725516 -0.028610827 0.0135157965 0.035796884 -0.045343943 0.0064274957
0.034334633 -0.061015557 -0.026397197 -0.008282511 -0.08896636 0.0062793046 -0.04230578 -0.0034488796
0.010945432 0.05030548 0.053260773 -0.026128741 -0.05546361 0.03478768 -0.04195013 -0.008137656
0.0028645224 0.008201236 -0.040198136 0.0065492964 -0.008316008 -0.019807465 0.0249769 -0.08066244
-0.009745233 0.0014377956 -0.009406 0.027379343 -0.01381176 0.0071112965 0.029742945 -0.035153694
-0.0012949139 -0.025742758 0.0059754765 0.013582239 -0.0017700194 0.010517535 0.07215102 0.0010013937
-0.014714225 0.016623478 -0.006965908 0.0021908989 -0.062109202 0.012707716 0.05691349 -0.048954204
0.009656732 0.02683336 -0.011011043 -0.032991495 0.007750293 0.0017874775 -0.024255766 -0.014114251
0.002042814 0.0148933595 0.01250335 0.0018887116 -0.038521558 -0.04252722 0.021956515 -0.0034242158
-0.048202243 0.03900906 0.03309522 0.003567737 -0.073823236 0.022508474 0.004709166 -0.007420878
0.001882922 0.005080703 -0.043409906 0.0068966905 0.008679797 0.020700006 -0.006834095 -0.067012526
0.038738746 0.0024029915 0.010823001 -0.024697458 0.00069688127 -0.009907393 -0.04770393 0.023840645
0.014311711 0.06866285 0.030743906 0.036232367 0.03279173 0.015546761 -0.018376203 0.035563994
-0.022006568 0.01938296 -0.0072060744 -0.011276569 0.04380092 -0.04804183 0.031733286 -0.029633747
-0.027573602 -0.05328757 0.05624894 0.031200089 -0.031614166 -0.03650198 0.027590496 -0.018490829
0.0430169 0.015418894 -0.017233144 -0.016828291 -0.040398575 0.06301521 -0.00813122 0.022096647
0.032782786 -0.01228026 -0.011244152 -0.049071677 0.0057392246 -0.065950155 -0.035033103 0.015630107
-0.028875235 -0.0508912 -0.03777589 -0.0028629208 0.007653507 -0.05086095 0.03669812 0.069325894
-0.048069052 -0.040808138 -0.045816053 0.030164342 -0.011971594 -0.044374757 -0.04658036 -0.010050659
-0.008626326 -0.04290629 0.06002595 0.036322318 0.0062485225 -0.04000374 0.049433835 -0.02990127
-0.003217178 0.017774712 -0.010091739 0.0429403 0.02531242 -0.009520055 0.049176436 -0.030849965
0.012637892 -0.06295124 0.0004484392 -0.025899014 0.06043226 0.05575721 0.042791698 -0.032526176
0.021903198 -0.006844882 -0.011191044 0.010838349 0.046271738 -0.008493465 0.04213418 -0.022993313
0.0030978452 0.040134113 -0.020456145 -0.01670436 0.036346585 0.038736574 -0.038347892 -0.01596799
0.038444065 0.008484539 -0.0044370363 0.009834547 -0.026691835 0.053329058 -0.026848424 -0.025993166
-0.034733526 0.02467616 -0.013853142 0.005476666 0.07533246 0.012283739 -0.02077148 0.029964017
0.0012823943 0.040176637 0.057543084 0.0421491 0.0016182337 -0.025586272 -0.016483488 -0.024659691
-0.05550628 -0.052390747 0.0038040623 0.022401927 -0.0049566496 -0.014396471 -0.008219004 -0.059543367
0.030254217 -0.030701779 -0.003683404 0.008184056 0.005459613 -0.017256422 0.05921287 -0.019732857
0.008667573 0.04048787 0.030727195 0.0003299422 -0.008349469 0.05083686 0.07240467 -0.007854364

actor.6.bias f4 [8]
00000000: dac6 013e b5b3 a9bd 0390 7b3c e3d1 973d
00000010: 6bc3 703d 6264 1b3d 9451 1dbd 2422 17bd
0.12673512 -0.082862295 0.015354159 0.074130796 0.058780115 0.03793753 -0.038407877 -0.036897793

critic.0.weight f4 [128, 31]
00000000: e43c b83d a89b af3c 6202 283e 4daa f63d
00000010: 1871 a4bc 1029 ce3d 5a56 043e 7525 e13d
00000020: 72ba 54bc 6908 8e3f 3e89 e63d dbd2 9c3e
00000030: b2c6 9cbe 403c dabc 8828 983e b4f8 9abd
00000040: c04f 803d ce04 6abc 1201 e4bc 0453 f2bd
00000050: 1876 b93d f4ce a23d 8fce 873d 8488 0b3e
00000060: b0d5 8f3d 9a55 5d3d 4b19 8a3d 6f1b 1a3e
00000070: 93a8 83bd 4de5 00be 66e9 24be 61ae 573d
00000080: 0ab4 5fbc e506 433d 1381 b93d 047b 1abd
00000090: bdc0 2d3e 7270 033e 9c1c 46bd 9a6b 183e
000000a0: 4b2c a13f 08b9 3dbf 120e 23bc 1952 8a3e
000000b0: af0f a8bd 1fa6 7fbe 0d60 51be 32c7 883d
000000c0: 880d c9bd d351 86be 1aa0 0fbd 69dc 3fbd
000000d0: 7c71 883d 4ac8 b03c 69de e93d 097c 1dbd
000000e0: 1287 753c 9222 133e c6cd 83bd 97ce 003e
000000f0: bd35 eabd ebcc 8d3c 2a72 363e e938 303d
00000100: 82a5 123f 4302 c33c a4a7 473b 626e 7f3e
00000110: dfda a03d 8fe1 4dbd a795 3d3d ec8c e1bf
00000120: 1957 b53e 84c9 0abe 17e7 843c 1e48 dc3c
00000130: e2c2 8d3e acdc 3fbc 7ecc 023e 460c 3a3c
00000140: 3649 e23c 2bc5 723d 6c0e 30bd 7838 763d
00000150: d065 d53d 405b 4f3d 43f0 493e 1fe6 003d
00000160: 8581 9abd 3a5a 813d f02d f53d a642 86be
00000170: c798 bbbd f5fb b23d f98c cd3c 7f70 ffbd
00000180: ae6a b63d d981 94bd 9f3c 2ebe b9e1 f53d
00000190: 9a33 c7bc ba6c 093e f53c 71bf 4a53 333e
000001a0: 8d9d 3bbd 94c7 f6bd 5426 8a3d 9278 da3d
000001b0: db1f dfb9 2234 083d d6cd 253e 73b2 d6bd
000001c0: 7750 f23d cbbc bf3d 31af 3fbd 865c f13d
000001d0: b0f0 0f3e d609 4fbb 080a bbbd d9dc e4bd
000001e0: 5a57 67bc 82ea 3c3d e3e9 c3b7 6458 b5bd
000001f0: e5ba 84bd e5c7 b33c ce02 3d3f 53b1 af3d
00000200: 7ece 0c3e eaa8 b83d d06d 0c3e d4a9 6fbc
00000210: 2729 763d f92f 8cbf a309 3a3f e3d2 493e
00000220: 2086 2ebe 3b6a 25be 7d7f a43e 286e 9c3d
00000230: 658e 92bd 9282 17bd 7062 e5bc 8292 753d
00000240: c1fe a53d a8a8 c4bd 1b1c 83bd c063 f03d
00000250: f8db 1fbe 35f1 17bc 4ba6 563e 9aa4 b93d
00000260: d451 0abe 0fd4 2e3c 9009 813d 3d02 1cbc
00000270: 0d8c 48bd 6a28 19be ed91 0ebe 6bd8 5dbd
00000280: f956 4ebd fbf4 7a3d 9e09 2d3d dc7a d83d
00000290: 432f 053f d991 d73f 53ee 76be cd8d 493e
000002a0: a46b 6d3d 13d4 9fbe 7e76 ff3d bdb9 0cbd
000002b0: af7e c23c 867a 9f3d 8d54 2f3d 6ff2 843c
000002c0: 80fe 81bc 7743 b039 823a 06be 3b49 baba
000002d0: d1af 88bd f230 5cbe 54ab 083e 474f a8bd
000002e0: a963 5abd 89ed 0f3d fdc1 613d f0d7 283c
000002f0: 13d6 4cbd 1ed5 cebd 2ada 05be af2b 083d
00000300: 3606 e93b 13cb ec3d 64d5 f83d 9adc 943f
00000310: aa7e b5be 8f8e 0d3e 3dc9 12be a399 29be
00000320: 2148 473e 2a95 403c 9380 f9bc 96b9 4ebd
00000330: 41c0 dd3d 0f55 d8bd 309f 61bd 10b2 ef3c
00000340: 449f c0bd e9a0 4c3d aef2 0bbe 6785 f9bd
00000350: 45dd f4bd 91a4 09bc 3417 9fbd a772 e6bd
00000360: 10ef 103e d6ef 48be 4c70 8bbe 6698 133d
00000370: 8e3c 553e a0e7 3cbe daff 5e3d 370d bd3d
00000380: dc3b 603e 1b8c adbd 2fb6 863f 820b 803f
00000390: 2e10 c73d 818d ab3c 3f38 35be 893e afbc
000003a0: 4ce1 5c3d d5d1 163d 6a4d b73d 6f3c 7fbd
000003b0: 8a14 503c 3846 e6bd ab94 66bc 565d 99bc
000003c0: 045e 57bd 670d c43d 99ba c6bb 848c 09be
000003d0: 0369 7a3d 09c4 6c3e e748 0f3e b30f 4fbd
000003e0: 7aeb 96bd 6d15 2dbe f940 fa3c 990c 173d
000003f0: 0a51 b3bc e33c fc3d 1dd2 d73d ec88 563e
0.08995989 0.021436527 0.16407159 0.12044201 -0.020073459 0.10066426 0.12923566 0.109934725
-0.012983905 1.1096317 0.112566456 0.3062962 -0.30620342 -0.026640058 0.29718423 -0.075669676
0.06265211 -0.014283372 -0.027832542 -0.1183224 0.09055728 0.079496294 0.06631195 0.13626295
0.070231795 0.054036714 0.067431055 0.15049528 -0.06428637 -0.12587471 -0.1610466 0.052656535
-0.0136537645 0.047613997 0.09057822 -0.037714973 0.16968055 0.12835863 -0.048367128 0.14884797
1.2591642 -0.7411046 -0.009952085 0.2701576 -0.082061164 -0.24965714 -0.20446797 0.066786185
-0.09817034 -0.26234302 -0.035064794 -0.04684106 0.066622704 0.02157988 0.114193745 -0.038448367
0.014985817 0.14368656 -0.064357325 0.12578808 -0.11436031 0.017309627 0.17816988 0.043023024
0.57283795 0.02380479 0.0030464912 0.24944451 0.07854246 -0.050263938 0.046285298 -1.7621131
0.35418013 -0.13553435 0.016223473 0.026889857 0.27687746 -0.011710327 0.1277332 0.011355465
0.0276228 0.059270065 -0.042982504 0.060112447 0.1041981 0.050624132 0.19720559 0.03146946
-0.07544235 0.063160375 0.119716525 -0.26222724 -0.09159999 0.08739463 0.025091635 -0.12472629
0.08907066 -0.07251329 -0.17015313 0.12005944 -0.024316598 0.13420382 -0.9423364 0.17512241
-0.04580455 -0.12049785 0.06745592 0.10667528 -0.0004255761 0.033252843 0.16191801 -0.10483255
0.11831754 0.09362181 -0.046797935 0.117852256 0.14056659 -0.0031591556 -0.09132773 -0.11174936
-0.014119947 0.04612208 -2.3354723e-05 -0.0885475 -0.0648096 0.021945903 0.73832405 0.08578744
0.13750646 0.09016593 0.13713765 -0.0146278925 0.06009784 -1.095214 0.72670954 0.19709353
-0.17043352 -0.16153805 0.32128516 0.07638198 -0.07156066 -0.036989756 -0.02800104 0.059954174
0.08105231 -0.09602481 -0.06401845 0.11737776 -0.15611255 -0.009273817 0.20961873 0.090645984
-0.13507777 0.010670676 0.06300652 -0.009522018 -0.048961688 -0.14956823 -0.13922854 -0.05416147
-0.050375912 0.061268788 0.0422455 0.105703086 0.5202524 1.6841384 -0.24114351 0.19682999
0.057963982 -0.31216487 0.124737725 -0.03435682 0.023742048 0.07787041 0.042805243 0.016228883
-0.015868425 0.000336196 -0.13108256 -0.0014212498 -0.06674159 -0.21503046 0.13346606 -0.08218246
-0.0533177 0.03513864 0.055116642 0.01030539 -0.050008845 -0.10099243 -0.13071504 0.033244785
0.007111336 0.11562171 0.12150076 1.1629822 -0.354482 0.13823913 -0.14334579 -0.16562514
0.19461109 0.0117543135 -0.030456817 -0.050469957 0.10827685 -0.10563099 -0.055083454 0.029259712
-0.094053775 0.049958143 -0.13666794 -0.121836476 -0.11956266 -0.008401052 -0.077680975 -0.11252337
0.14153695 -0.1962274 -0.27234113 0.03603401 0.20823881 -0.18447733 0.054443218 0.09231036
0.21897835 -0.084739886 1.0524348 1.0003512 0.09719883 0.020941498 -0.17697237 -0.021392124
0.053925797 0.036821205 0.089503124 -0.062313493 0.012700209 -0.11243862 -0.014073531 -0.018721264
-0.052579895 0.09572869 -0.0060647246 -0.13432509 0.061135303 0.23121656 0.13992654 -0.05055208
-0.07369132 -0.16902705 0.03054856 0.03687725 -0.021889228 0.12316301 0.10538123 0.20950669

critic.0.bias f4 [128]
00000000: fb03 8ebd e422 02be 485f 3e3e e2d9 b03d
00000010: 672d 213d 43ba 58be 1294 bb3d 62f4 daba
00000020: 4533 1f3c 52dd b5bd 046c 043d c1c7 26be
00000030: a985 19be 5b95 02be 5604 063e 08ef 99bd
00000040: e6ba 28be e220 adbd e0a7 b73d 6095 4e3d
00000050: 390f 1b3e 2ff6 8b3c dc1e 61bd e31f 22be
00000060: 7aa1 cbbc 72d5 d7bd 0a3e 3b3c 5680 4bbe
00000070: 6394 57be 92a8 d1bc 987e 0e3e 2169 253d
00000080: d03f b73c ec33 2c3d baaf 973e 3d77 49be
00000090: e852 73be fbbf 323e 2c77 62be 4cd6 b7bd
000000a0: 2052 edbc 445f 0b3e 02aa eabd b5ca 25be
000000b0: ef5b 023e baf1 903d 4d09 4c3e c5f2 eabd
000000c0: 5d5c 5fbe cae3 f33d 83f6 d6bd fbf1 9cbd
000000d0: e882 32be e41c 813d f077 f4bd 96a9 07be
000000e0: 888a 403c f81d 12be 9482 f53d 03b9 c7bd
000000f0: a057 493d fa50 e43a 321c 82bc 68a0 0abd
00000100: d8e3 89bc a5b0 17be 3c03 6c3c cb1d 73bd
00000110: e6af efbd 187c e03d 4ee4 4bbe 25a5 1d3e
00000120: 1edc 44bd 438a 473e 6c1d 133d 3bff 923d
00000130: 432c 793e 682c 843d ef82 653d 7203 deba
00000140: 5c29 b63d 790e 04be b06d 683d 07f3 4e3e
00000150: a1bd 9cbe 0e6e 5d3e b8e8 9a3d 5247 413c
00000160: b63a 113e ef67 3b3e 296c 1dbe 934b 1abd
00000170: c0c9 07be ef8c 12bd 030d 2ebe d24a 3a3e
00000180: 461d fcbc dfef 00be da1e cf3d f45a ca3d
00000190: 23bb 963d 8fa9 ccbd 190b c83c 84ae 59bd
000001a0: 3934 0b3e b6a9 49be 5c88 8c3e e312 fabd
000001b0: 8faf 893d d6ca 28bd 5882 36be 056f 9a3d
000001c0: 9a7c 9abb ba75 9a3d 9ae0 72bc 28fb e63c
000001d0: acf6 1f3d a928 e43d 2c7c 49be 41bb b93d
000001e0: 21c1 b23b 2709 fb3c 1b41 b53d 39cb 5bbd
000001f0: f2fa d73d b7a2 4cbe f490 bc3d 0059 36ba
-0.06934353 -0.12708622 0.18591034 0.08635308 0.03934994 -0.21164803 0.091591015 -0.0016704912
0.009716813 -0.08880104 0.032329574 -0.16287138 -0.14992394 -0.12752287 0.13087592 -0.07516295
-0.16477546 -0.084535375 0.089675665 0.050435424 0.15142526 0.017085163 -0.05496107 -0.15832476
-0.024857271 -0.10538758 0.0114283655 -0.19873175 -0.21052699 -0.025593076 0.13915479 0.040383462
0.022369295 0.042041704 0.29626256 -0.19674392 -0.23762095 0.17456047 -0.22115773 -0.08976421
-0.028969824 0.1361056 -0.11458208 -0.16190608 0.12730382 0.07077356 0.19925423 -0.11472086
-0.21812578 0.11908682 -0.10496237 -0.076633416 -0.1743275 0.063043386 -0.11936939 -0.13248286
0.011751778 -0.14269245 0.119877964 -0.09752085 0.04915583 0.0017419152 -0.015882585 -0.03384438
-0.016832277 -0.14813478 0.014405068 -0.059354585 -0.11703472 0.10961169 -0.1991131 0.15395029
-0.048061483 0.19486336 0.03591673 0.071775876 0.24333291 0.06453782 0.05603307 -0.0016938283
0.088946074 -0.12896146 0.05674523 0.20209895 -0.30613425 0.21624014 0.07563919 0.011796789
0.14182553 0.18301366 -0.15373291 -0.03766973 -0.13260555 -0.035778936 -0.16997151 0.18192604
-0.030775677 -0.12591504 0.10113306 0.09880629 0.07359912 -0.09993278 0.024419354 -0.053144947
0.1359414 -0.19693646 0.27447784 -0.122106336 0.06722938 -0.041209064 -0.1782316 0.075407065
-0.0047145607 0.07541986 -0.014824057 0.028195933 0.039053604 0.11140568 -0.19676274 0.09068919
0.0054551517 0.030644013 0.088503085 -0.053660605 0.10545911 -0.19983946 0.09207335 -0.0006956011
