ISAAC_NOGIT/logs/rsl_rl/traquad_flat/2025-09-16_14-40-58/model_100.pt (torch, 925483 bytes, 48 tensors)

std f4 [8]
1.012541 0.9836463 1.0049479 1.0045269 0.9950795 0.98980176 0.9865464 1.0212805
00000000: f29a 813f 3ed0 7b3f 22a2 803f 5694 803f
00000010: 88bd 7e3f a663 7d3f 4e8e 7c3f 52b9 823f

actor.0.weight f4 [128, 31]
-0.016289664 0.10010304 0.06725072 0.16335543 0.12816375 -0.034526877 -0.018674321 0.004313232
-0.047048982 0.13079536 0.11188629 -0.13634703 -0.0071034767 0.07445884 -0.038964633 0.066159405
0.054707535 0.11047771 0.12581305 0.12409272 0.029822445 -0.15825698 -0.17202997 -0.0389115
0.13823071 -0.039170768 0.15147737 0.05721245 0.1307335 -0.13020323 -0.16266675 -0.10683624
-0.041807365 -0.040972475 -0.065213054 -0.10858692 0.079076625 -0.024292564 -0.064043894 0.11650842
0.059298247 0.0809513 0.004295983 -0.058948 0.13693872 0.05660349 -0.043914594 0.025826408
-0.0391431 -0.05684948 -0.058938786 0.053876854 -0.020183396 0.17321484 0.07805641 0.00089317455
0.11510062 -0.02307545 -0.14894561 -0.1572828 0.090699024 -0.10814088 0.17777528 0.1368133
0.0067807664 -0.030295672 -0.0140008945 -0.16111644 0.17589746 -0.043276396 -0.18973193 0.0939167
-0.16444492 0.12541777 0.005533086 -0.18234192 0.006070215 -0.018173598 0.0012766722 0.10881945
-0.04299888 0.03308883 0.13319254 0.14991222 -0.14884855 -0.057482496 -0.069393456 -0.16458464
-0.07379764 0.116491735 -0.0128439 -0.11846379 0.16095966 -0.04498689 -0.029367011 0.15938741
0.0853992 -0.16370845 -0.019034088 -0.049710646 0.1196426 0.08894639 -0.0068887346 0.027088415
-0.1289101 0.017823491 0.13241272 0.064253576 0.17204042 0.11567801 0.06465121 0.09144899
0.0902929 0.13707902 -0.14569189 0.11085757 0.13287091 -0.08168165 0.035672445 0.040383905
0.12151438 -0.024383647 0.176492 -0.12095453 0.041849636 -0.06338707 -0.14624588 -0.12124098
0.13101064 -0.13869569 -0.08828259 0.16655698 -0.10047294 0.083952285 -0.14160766 0.10558319
0.13601567 -0.088788 -0.0009291698 0.1132654 0.1608639 -0.14167808 -0.051051386 0.062257014
0.11337738 -0.0167652 -0.04153789 -0.06401372 -0.022460798 0.13558644 -0.01640914 0.16906439
0.14606965 -0.12977672 0.14229798 -0.016183095 -0.019865857 -0.009398661 -0.050114587 0.050520606
0.10605852 0.08280202 -0.16167316 -0.092440344 -0.08754275 -0.03404734 0.092726976 0.12590887
0.059258584 0.091032594 -0.0690789 -0.07537357 0.11329223 0.064245984 0.14410529 0.13932782
-0.15948288 0.017931605 -0.034276098 -0.17460303 -0.008324023 0.031502835 -0.17285867 0.012685375
0.107958935 -0.093896106 -0.07279601 -0.07894258 -0.03188429 0.12103343 0.16164121 -0.164662
0.095989294 -0.008658636 0.14085053 0.0049049654 0.13988887 -0.085063465 -0.13087416 0.13188276
-0.11282008 0.038198035 -0.015640842 -0.07302807 0.054831654 0.02653902 -0.011567599 -0.050716195
0.029985882 -0.12217561 -0.004566392 -0.067180865 0.027694497 -0.121009186 0.010852884 0.08040378
-0.15364031 0.17411593 -0.12494231 0.032475565 0.019794054 -0.11928275 -0.094481766 0.09477487
0.09490178 -0.06086696 -0.098528236 0.054583292 -0.033674072 0.04680213 -0.13461292 0.012839771
0.047680963 -0.027428221 0.16342798 0.1345752 -0.026535539 -0.028123261 -0.101458676 -0.15143411
-0.056925334 -0.13436784 0.105169825 0.12337648 0.16410965 0.004890379 -0.14223172 0.16916707
-0.124243036 0.013400758 0.13870619 -0.064667486 0.055384204 -0.06719133 -0.06472178 0.06314216
00000000: e771 85bc d302 cd3d bfba 893d a546 273e
00000010: 5c3d 033e 0e6c 0dbd e4fa 98bc 0356 8d3b
00000020: 6fb6 40bd 38ef 053e a424 e53d 8e9e 0bbe
00000030: 48c4 e8bb e07d 983d 6199 1fbd 957e 873d
00000040: 0215 603d 2342 e23d 23d5 003e 5324 fe3d
00000050: 334e f43c 1e0e 22be a028 30be aa61 1fbd
00000060: 5a8c 0d3e 8771 20bd e21c 1b3e 9a57 6a3d
00000070: 01df 053e ff53 05be 1d92 26be f5cc dabd
00000080: 333e 2bbd c1d2 27bd 6c8e 85bd d262 debd
00000090: edf2 a13d 3301 c7bc 7229 83bd f79b ee3d
000000a0: b8e2 723d ccc9 a53d 51c5 8c3b 7573 71bd
000000b0: aa39 0c3e 10d9 673d cadf 33bd e791 d33c
000000c0: 8454 20bd 00db 68bd cc69 71bd faad 5c3d
000000d0: a657 a5bc 3b5f 313e 0adc 9f3d ee23 6a3a
000000e0: e0b9 eb3d ba08 bdbc 3385 18be be0e 21be
000000f0: 69c0 b93d f778 ddbd b90a 363e c918 0c3e
00000100: 3131 de3b a12e f8bc 0264 65bc b5fb 24be
00000110: 771e 343e 9742 31bd 1649 42be 6657 c03d
00000120: 4064 28be 846d 003e e44e b53b d7b7 3abe
00000130: a7e8 c63b cce0 94bc 0356 a73a bbdc de3d
00000140: 981f 30bd 2788 073d a063 083e 9782 193e
00000150: c16b 18be c472 6bbd 281e 8ebd e088 28be
00000160: 3823 97bd 3893 ee3d 396f 52bc 259d f2bd
00000170: 9cd2 243e 2c44 38bd 1693 f0bc 7436 233e
00000180: c7e5 ae3d 30a3 27be 60ed 9bbc 649d 4bbd
00000190: 2e07 f53d 8629 b63d e5ba e1bb 86e8 dd3c
000001a0: 0201 04be 9202 923c 3397 073e 6197 833d
000001b0: 5d2b 303e 98e8 ec3d db67 843d 9c49 bb3d
000001c0: 7ceb b83d 715e 0c3e 4130 15be 4b09 e33d
000001d0: 500f 083e b548 a7bd 451d 123d 9869 253d
000001e0: 88dc f83d 37c0 c7bc 52ba 343e 02b7 f7bd
000001f0: 866a 2b3d 15d1 81bd 7bc1 15be 314d f8bd
00000200: a727 063e 3e06 0ebe 81cd b4bd ea8d 2a3e
00000210: c2c4 cdbd 2def ab3d 9901 11be 003c d83d
00000220: b147 0b3e 7cd6 b5bd 8893 73ba b1f7 e73d
00000230: 82b9 243e 0f14 11be 421b 51bd 3601 7f3d
00000240: 6632 e83d 2c57 89bc a223 2abd a019 83bd
00000250: b5ff b7bc 2cd7 0a3e 766c 86bc 371f 2d3e
00000260: 4893 153e 30e4 04be 90b6 113e 6992 84bc
00000270: b9bd a2bc d7fc 19bc f444 4dbd b2ee 4e3d
00000280: 3635 d93d 1b94 a93d a68d 25be 5d51 bdbd
00000290: 9d49 b3bd 3975 0bbd a4e7 bd3d 41ee 003e
000002a0: 21b9 723d 4c6f ba3d 3d79 8dbd 755d 9abd
000002b0: c205 e83d 6693 833d 5690 133e f4ab 0e3e
000002c0: 7b4f 23be 4de5 923c 1865 0cbd 23cb 32be
000002d0: 7c61 08bc 1e09 013d dd01 31be 52d6 4f3c
000002e0: 9319 dd3d 9a4c c0bd 1316 95bd a6ac a1bd
000002f0: 1a99 02bd 60e0 f73d 4685 253e 289d 28be
00000300: 0996 c43d f4dc 0dbc 1f3b 103e d5b9 a03b
00000310: 073f 0f3e c135 aebd e003 06be 460c 073e
00000320: 370e e7bd 8b75 1c3d 3921 80bc be8f 95bd
00000330: 2897 603d 5c68 d93c 0786 3dbc c9bb 4fbd
00000340: f4a4 f53c 3537 fabd aca1 95bb 1f96 89bd
00000350: 92df e23c aad3 f7bd 4bd0 313c bdaa a43d
00000360: e353 1dbe 724b 323e c1e1 ffbd 1905 053d
00000370: 2427 a23c 844a f4bd a87f c1bd 5419 c23d
00000380: dd5b c23d a24f 79bd 2cc9 c9bd bb92 5f3d
00000390: d3ed 09bd 97b3 3f3d f8d7 09be e75d 523c
000003a0: 1d4d 433d 26b1 e0bc aa59 273e 15ce 093e
000003b0: 0f61 d9bc c162 e6bc 91c9 cfbd 8b11 1bbe
000003c0: 8a2a 69bd b997 09be 4763 d73d cfac fc3d
000003d0: 5c0c 283e 793f a03b 31a5 11be 223a 2d3e
000003e0: 2273 febd da8e 5b3c ff08 0e3e 6370 84bd
000003f0: 8cda 623d 9c9b 89bd da8c 84bd ad50 813d

actor.0.bias f4 [128]
0.05978749 -0.07439777 0.067578174 -0.06833882 0.05429917 -0.019603461 -0.0637931 -0.031756833
-0.13012336 0.17090221 -0.1973224 0.023707153 -0.16127613 0.13822275 -0.114062235 0.1433625
0.07412719 -0.078058355 -0.05944318 0.046787295 0.20216681 0.036308806 0.032941803 0.0768346
0.17648888 -0.0335365 0.01305929 0.027637094 -0.07900257 0.04110111 -0.0034682476 -0.1024614
-0.16719353 0.08848104 -0.020967102 0.11710511 0.102245964 -0.11789151 0.121207565 0.16452388
0.15498604 -0.15888463 -0.12526241 -0.05078489 0.039290167 0.099912316 0.05702971 0.051542025
-0.0010766243 -0.09424753 0.03400591 -0.0786012 -0.003257327 0.071500175 -0.032762855 0.07495322
0.0595479 0.07780961 -0.097811565 0.03452003 -0.016351638 -0.121925026 -0.06697948 0.0874691
-0.16219997 -0.15268205 -0.035815954 -0.08266885 0.11600293 0.049146295 -0.17347184 0.06309585
0.1595276 -0.09358992 -0.1462842 -0.04544877 0.05510997 -0.11913763 -0.10501987 0.15403405
-0.057494856 -0.16612063 -0.14163472 0.08552391 -0.014243652 -0.13807984 0.10341113 -0.06166835
0.03022189 -0.1377817 -0.025972107 -0.099775925 0.18633728 -0.16869971 0.010234173 0.04315107
0.011099456 0.14288701 0.16007233 -0.07320561 0.15250634 0.09058285 0.16692127 -0.1488455
0.08470067 -0.0011466814 -0.21167386 0.08227818 -0.1742252 0.12624007 -0.15805401 0.06286473
0.015397341 0.038379624 -0.013428318 0.17556569 -0.087893195 0.11117266 -0.13036224 -0.01333068
0.16601095 0.016643096 -0.076464556 0.00080493634 0.01986987 0.07156439 0.056052405 0.027948676
00000000: bae3 743d dc5d 98bd 6d66 8a3d 39f5 8bbd
00000010: ce68 5e3d 7097 a0bc f5a5 82bd 7413 02bd
00000020: 0f3f 05be fd00 2f3e e20e 4abe 8135 c23c
00000030: 9225 25be 448a 0d3e 7699 e9bd 9fcd 123e
00000040: ffcf 973d 0fdd 9fbd b17a 73bd 09a4 3f3d
00000050: d104 4f3e 8bb8 143d fced 063d 755b 9d3d
00000060: 80b9 343e 925d 09bd a2f6 553c 3067 e23c
00000070: 19cc a1bd a359 283d 8a4b 63bb 48d7 d1bd
00000080: c834 2bbe 8c35 b53d 33c3 abbc ced4 ef3d
00000090: 5566 d13d 1b71 f1bd ac3b f83d f378 283e
000000a0: a9b4 1e3e a7b2 22be ca44 00be d103 50bd
000000b0: baee 203d d49e cc3d fc97 693d bb1d 533d
000000c0: 841d 8dba d904 c1bd c849 0b3d aaf9 a0bd
000000d0: e178 55bb af6e 923d 5832 06bd 1381 993d
000000e0: 80e8 733d a55a 9f3d 6e51 c8bd e064 0d3d
000000f0: dff3 85bc d4b3 f9bd 8a2c 89bd 0023 b33d
00000100: c017 26be af58 1cbe c0b3 12bd 494e a9bd
00000110: f292 ed3d a04d 493d 9aa2 31be 6638 813d
00000120: 345b 233e 12ac bfbd 86cb 15be 7d28 3abd
00000130: feba 613d 6efe f3bd a814 d7bd 1abb 1d3e
00000140: ba7f 6bbd 871b 2abe b108 11be 2927 af3d
00000150: 355e 69bc cd64 0dbe 37c9 d33d f497 7cbd
00000160: e693 f73c a516 0dbe 75c3 d4bc 5257 ccbd
00000170: 33cf 3e3e 9ebf 2cbe 3cad 273c 2dbf 303d
00000180: 7eda 353c f950 123e 00ea 233e d3ec 95bd
00000190: 9f2a 1c3e 8083 b93d 69ed 2a3e f46a 18be
000001a0: 8b77 ad3d 3e4c 96ba 08c1 58be 7681 a83d
000001b0: 1768 32be 1445 013e e9d8 21be 39bf 803d
000001c0: 2145 7c3c f433 1d3d 7302 5cbc 7ec7 333e
000001d0: 5901 b4bd 7eae e33d ae7d 05be ed68 5abc
000001e0: c6fe 293e 1a57 883c 7399 9cbd 5d02 533a
000001f0: 23c6 a23c 5a90 923d 3597 653d 9ff4 e43c

actor.2.weight f4 [128, 128]
-0.0655072 -0.088679165 0.027237749 -0.021936463 0.048545092 -0.08660153 -0.052385878 0.05072721
0.027995078 0.06810234 -0.044114266 0.0065334183 0.041667864 0.035414137 0.07666848 -0.051982433
0.08737979 -0.08008786 0.022664828 0.06563811 0.042371202 -0.01016494 0.04475149 0.022358708
0.03696844 -0.009010925 0.03188313 0.0029560374 -0.035606567 0.055898935 0.008043401 0.023801522
-0.049638927 0.012782476 0.080680564 -0.044959955 0.044091873 -0.06742411 -0.05881786 -0.048105884
0.07993868 -0.0052401577 0.058276974 0.064186044 0.06868948 0.08044028 0.0029919383 0.079682454
0.005456859 0.01265997 -0.06689674 -0.008375306 0.07951649 -0.028204013 0.013926531 0.045388833
0.07742598 -0.015749281 0.041276827 -0.028216083 -0.04919192 0.08416703 0.024000213 -0.01393339
-0.07339093 0.06524239 -0.004942333 -0.034860265 -0.0017637153 -0.05681364 -0.052521206 -0.060350824
-0.0320451 0.017015457 0.0014185313 -0.018525917 -0.055269036 -0.0077411756 -0.08202385 0.06283554
-0.04863183 0.044953533 -0.003732583 0.084849834 0.083093785 0.06371129 -0.0068509188 -0.0032603382
0.009438252 -0.01664648 -0.059674315 0.047705457 0.018525656 0.06436676 0.033323642 0.04988822
-0.012431359 -0.024908299 -0.061381686 -0.006129553 -0.03198352 -0.018587835 0.064347826 0.016541818
-0.082927726 0.06978051 -0.020234607 0.03632097 -0.026379941 -0.05326472 0.06966226 -0.0857132
0.07506418 0.0557058 -0.03534411 0.0345803 0.017017601 -0.073237754 -0.022903299 0.045674067
0.0458296 -0.0438036 -0.023909945 0.07103675 -0.080761135 -0.046750672 -0.087452665 -0.086479284
-0.080555834 -0.039236438 0.08494575 0.07670666 0.086282864 0.023915896 -0.0028917696 0.025713634
0.08366067 0.054766696 0.04153972 -0.05170326 -0.050182436 0.012437371 -0.08366338 0.02329094
-0.08801585 -0.017046683 -0.085706316 0.07310635 0.0923695 -0.010804523 0.027866386 0.018587304
-0.017541198 -0.0830942 0.056918222 -0.0023291016 0.066381745 -0.074881084 -0.07403757 -0.022430105
0.020680998 -0.047339708 0.093793824 -0.005712323 0.004197368 -0.07917915 0.03300608 0.067676164
0.016290626 -0.064310424 0.006874998 0.08227376 0.039100807 -0.05578462 0.08723746 -0.06788181
-0.0053748237 0.07138332 0.043952122 -0.08589434 -0.027049616 -0.07011524 -0.06761206 -0.008754964
-0.021900285 0.03818349 -0.034565233 -0.04781121 -0.018490626 0.048433885 0.08026507 -0.0789383
-0.028059525 -0.020320117 0.08498374 0.052935984 -0.056091737 -0.03721278 -0.022325037 -0.020792473
0.042835467 -0.009537501 -0.07188069 -0.011951415 0.035738852 0.0029200846 0.043313693 -0.06445037
-0.030027032 -0.04353033 0.008167129 0.053517748 0.013511657 0.03898212 -0.03006267 -0.003320647
0.0047387313 0.007947765 0.037036933 0.045190744 0.03150617 -0.057262674 0.058444567 0.07667758
-0.079524875 -0.040730227 0.0429789 0.06520729 -0.06441174 -0.032919116 -0.086911455 8.568254e-05
0.008292512 0.0452413 -0.025715102 0.044335734 -0.056385763 0.07870845 -0.08311127 -0.08462784
0.07957578 0.047194157 0.06340481 -0.06935708 0.050101712 0.053247247 0.03092464 0.049734987
0.058857616 -0.058583118 0.04995856 -0.029715557 -0.08709536 0.08822544 -0.06294535 -0.042649236
00000000: a428 86bd 6c9d b5bd b321 df3c 19b4 b3bc
00000010: 38d7 463d 255c b1bd 9392 56bd 56c7 4f3d
00000020: ef55 e53c 3d79 8b3d 29b1 34bd 4916 d63b
00000030: ecab 2a3d 6a0e 113d 5d04 9d3d 88eb 54bd
00000040: 2df4 b23d 1b05 a4bd 97ab b93c 466d 863d
00000050: 6d8d 2d3d d98a 26bc 574d 373d 9c29 b73c
00000060: 386c 173d 8fa2 13bc e397 023d 14ba 413b
00000070: 31d8 11bd 48f6 643d 78c8 033c 69fb c23c
00000080: 3052 4bbd 976d 513c da3b a53d ee27 38bd
00000090: ae99 343d a715 8abd ffea 70bd ad0a 45bd
000000a0: e4b6 a33d a1b5 abbb d6b3 6e3d f973 833d
000000b0: 12ad 8c3d e0bd a43d 6514 443b 8e30 a33d
000000c0: 73cf b23b c36b 4f3c 2801 89bd 9438 09bc
000000d0: 8bd9 a23d 1a0c e7bc 1b2c 643c a4e9 393d
000000e0: 8391 9e3d a304 81bc e411 293d 6a25 e7bc
000000f0: 777d 49bd c45f ac3d 189c c43c e048 64bc
00000100: fc4d 96bd cd9d 853d 4bf3 a1bb a3c9 0ebd
00000110: 772c e7ba 6bb5 68bd 7a20 57bd 6d32 77bd
00000120: b941 03bd 0064 8b3c 03ee b93a aac3 97bc
00000130: c961 62bd b0a9 fdbb 1ffc a7bd ebaf 803d
00000140: 2b32 47bd 3221 383d 5a9e 74bb c0c5 ad3d
00000150: 132d aa3d 117b 823d ac7d e0bb 66ab 55bb
00000160: e6a2 1a3c 335e 88bc 0e6d 74bd cc66 433d
00000170: 1ec3 973c b8d2 833d 5f7e 083d 9757 4c3d
00000180: e6ac 4bbc 7d0c ccbc 5d6b 7bbd 6bda c8bb
00000190: 2701 03bd 8445 98bc cbc8 833d b582 873c
000001a0: 03d6 a9bd 16e9 8e3d 0cc3 a5bc 4cc5 143d
000001b0: bf1a d8bc 1b2c 5abd 16ab 8e3d 678a afbd
000001c0: 40bb 993d c42b 643d fcc4 10bd 13a4 0d3d
000001d0: 7f68 8b3c adfd 95bd b39f bbbc bb14 3b3d
000001e0: d2b7 3b3d 676b 33bd cade c3bc b77b 913d
000001f0: 1866 a5bd a27d 3fbd 621a b3bd 0d1c b1bd
00000200: 75fa a4bd 63b6 20bd 0af8 ad3d 6218 9d3d
00000210: 12b5 b03d 45eb c33c d883 3dbb 66a5 d23c
00000220: 4956 ab3d 0b53 603d 8e25 2a3d ccc6 53bd
00000230: 198c 4dbd 1dc6 4b3c b557 abbd a4cc be3c
00000240: a741 b4bd 7ca5 8bbc cb86 afbd c8b8 953d
00000250: 382c bd3d 7405 31bc 0c48 e43c 6744 983c
00000260: 8fb2 8fbc 4b2d aabd 1523 693d d7a3 18bb
00000270: 27f3 873d 415b 99bd 02a1 97bd 57bf b7bc
00000280: 326b a93c 48e7 41bd fa16 c03d 702e bbbb
00000290: 138a 893b ae28 a2bd 6231 073d cd99 8a3d
000002a0: eb73 853c 2fb5 83bd aa47 e13b 257f a83d
000002b0: 2b28 203d 6a7e 64bd 8ea9 b23d 9e05 8bbd
000002c0: 4a1f b0bb 6b31 923d 2407 343d 5fe9 afbd
000002d0: 2897 ddbc 9498 8fbd 3178 8abd fb70 0fbc
000002e0: 3a68 b3bc 4b66 1c3d 4694 0dbd b0d5 43bd
000002f0: a779 97bc 9c62 463d 0362 a43d 67aa a1bd
00000300: 17dd e5bc 6076 a6bc f40b ae3d 67d3 583d
00000310: 73c0 65bd 6e6c 18bd ffe2 b6bc fa54 aabc
00000320: 3e74 2f3d 2e43 1cbc 2f36 93bd decf 43bc
00000330: e762 123d e45e 3f3b b369 313d 8efe 83bd
00000340: 40fb f5bc dc4c 32bd 6ccf 053c 6d35 5b3d
00000350: ff5f 5d3c b7ab 1f3d fd45 f6bc 369f 59bb
00000360: 5c47 9b3b 5837 023c 0ab4 173d ee19 393d
00000370: 9d0c 013d 448c 6abd 9263 6f3d 2309 9d3d
00000380: f0dd a2bd bdd4 26bd a50a 303d 668b 853d
00000390: 4dea 83bd 32d6 06bd a2fe b1bd 77b0 b338
000003a0: 51dd 073c f14e 393d 7aa8 d2bc 6399 353d
000003b0: c2f4 66bd e531 a13d 3e36 aabd 5c51 adbd
000003c0: a0f8 a23d a94e 413d 62da 813d 160b 8ebd
000003d0: 7437 4d3d c919 5a3d ac55 fd3c eab6 4b3d
000003e0: af14 713d daf4 6fbd 59a1 4c3d 0a6e f3bc
000003f0: 0d5f b2bd 8aaf b43d 7ee9 80bd f7b0 2ebd

actor.2.bias f4 [128]
0.060643207 -0.053599134 -0.03010191 -0.025581429 0.009278935 -0.017868724 0.013470135 0.002796552
-0.07018893 0.002788616 -0.031907264 -0.018266244 0.046153497 0.04254468 -0.058549445 0.01800161
0.027269116 -0.040368516 0.035480488 0.04959497 -0.019888548 -0.0827054 -0.08548934 0.01662585
0.051345497 -0.10343852 -0.039972942 -0.07464864 0.0572059 -0.01804508 -0.00994316 0.10134437
-0.031171443 0.025314813 0.028104099 0.00979592 0.0068352465 0.019357026 -0.039651636 0.001242038
0.033057854 -0.036177162 0.08739011 0.06516967 0.03857785 -0.08479599 0.00738534 -0.061490797
-0.066531196 -0.028570028 0.12479454 -0.044561602 -0.046453014 0.061914213 0.07884554 -0.049835723
0.054045696 0.008208139 0.03565064 -0.055294234 -0.10176005 0.07778571 0.0747901 0.07915308
-0.09060899 -0.08251308 0.06633359 -0.068963684 0.058150157 -0.03271884 -0.012263791 0.03860503
0.07269752 -0.009767321 0.0828427 0.00021494359 0.0040656594 0.0026224006 -0.040266786 0.039211318
0.08513089 0.041744836 0.03160506 0.013910919 0.06150205 0.019559707 -0.10739985 -0.025942622
-0.067772955 0.03813339 0.03229052 0.042265292 -0.038435504 -0.034504116 -0.010761826 0.036067527
0.023443187 -0.05907321 0.07462818 0.030195555 0.04162109 -0.045765124 0.03524837 -0.03286901
0.033812802 -0.0038816473 -0.026421275 0.09524099 -0.06585047 0.0020825635 -0.033345826 0.055319536
-0.037046798 0.09547685 0.019809825 -0.09058787 0.10940971 0.034137595 -0.06704786 -0.031362675
0.021908421 0.09060952 0.006203898 0.059868086 -0.04595605 0.025821649 -0.055483792 0.009057017
00000000: 0365 783d c48a 5bbd 4898 f6bc 2590 d1bc
00000010: ad06 183c 6e61 92bc d7b1 5c3c 5b46 373b
00000020: 37bf 8fbd 37c1 363b 31b1 02bd 17a3 95bc
00000030: 730b 3d3d 5543 2e3d 8bd1 6fbd 1d78 933c
00000040: 7b63 df3c 7559 25bd fd53 113d 1824 4b3d
00000050: 4fed a2bc 7361 a9bd 0915 afbd ef32 883c
00000060: a84f 523d 93d7 d3bd abba 23bd 63e1 98bd
00000070: bc50 6a3d 47d3 93bc a3e8 22bc a38d cf3d
00000080: 415b ffbc 0361 cf3c 913a e63c 117f 203c
00000090: 34fa df3b a092 9e3c c169 22bd e1cb a23a
000000a0: ac67 073d 812e 14bd 96f9 b23d ad77 853d
000000b0: cf03 1e3d 85a9 adbd b900 f23b c6dd 7bbd
000000c0: 8241 88bd b10b eabc 4894 ff3d 3a86 36bd
000000d0: 8445 3ebd c299 7d3d c579 a13d 8b20 4cbd
000000e0: 055f 5d3d 6e7b 063c 6806 123d 357c 62bd
000000f0: 9367 d0bd 1d4e 9f3d 8d2b 993d 031b a23d
00000100: 3591 b9bd 9efc a8bd e8d9 873d d53c 8dbd
00000110: dc2e 6e3d 3104 06bd 11ee 48bc 4f20 1e3d
00000120: 70e2 943d 1d07 20bc 6fa9 a93d 7b62 6139
00000130: 3939 853b 95dc 2b3b c9ee 24bd 0c9c 203d
00000140: 1b59 ae3d a2fc 2a3d 4f74 013d a0ea 633c
00000150: 93e9 7b3d ae3b a03c 74f4 dbbd 9f85 d4bc
00000160: 8ccc 8abd c231 1c3d 1043 043d 5f1e 2d3d
00000170: 8c6e 1dbd 3054 0dbd 5f52 30bc 8bbb 133d
00000180: ed0b c03c c0f6 71bd a9d6 983d ab5c f73c
00000190: e07a 2a3d 3674 3bbd 9860 103d a8a1 06bd
000001a0: 4b7f 0a3d 3c63 7ebb 6e71 d8bc b50d c33d
000001b0: 9cdc 86bd 9e7b 083b a295 08bd bd96 623d
000001c0: 62be 17bd 5e89 c33d 3748 a23c 2286 b9bd
000001d0: 3312 e03d ddd3 0b3d 6350 89bd 2676 00bd
000001e0: 4a79 b33c 7c91 b93d 124a cb3b 3d38 753d
000001f0: 693c 3cbd ec87 d33c f942 63bd e263 143c

actor.4.weight f4 [128, 128]
-0.033768862 -0.02445125 0.013144536 0.04787667 0.050584987 -0.0058520185 -0.00619301 0.09742558
-0.063993864 -0.07869606 0.017351236 -0.022713255 0.077763334 -0.012765575 -0.081802525 -0.022928827
0.011982844 -0.040557895 -0.03782738 -0.083735995 -0.04326886 0.06608006 -0.07105188 -0.045520976
-0.050735492 0.039991684 -0.019011179 -0.074195 -0.021776432 0.061393548 -0.017331453 -0.06414648
-0.013158478 -0.07414226 0.065799125 -0.02070197 0.009258475 -0.04946741 0.022914393 0.02814368
0.08059272 -0.07263313 0.0391645 -0.0013356619 -0.022264037 0.031000182 -0.01028065 0.01746321
-0.0098192245 -0.07964844 -0.027505107 0.055064827 -0.031879257 0.018059125 -0.029946685 -0.0030333
0.06432531 -0.07981957 0.060319073 -0.053936638 -0.0025900444 0.085924245 0.028167127 -0.03536825
-0.08091844 0.06895789 0.038018893 -0.031123271 0.0076708477 0.07958193 -0.05168247 -0.0060720234
-0.007987131 -0.06549095 0.07074698 0.036149193 0.05110795 0.039986305 -0.034065768 0.029525975
-0.028943557 -0.07286979 -0.032602187 0.036567874 -0.047797386 -0.02960935 0.0036130038 0.05362368
0.063290454 -0.010249152 0.039142277 -0.051580522 0.02831913 0.056400105 0.023286508 -0.06268062
-0.06630365 0.06533713 -0.031171132 0.042789694 -0.06765135 -0.0029298258 -0.019460848 -0.025590785
-0.030848106 0.02306418 0.0776339 -0.0036202308 -0.05314285 -0.012707124 0.05227383 0.013372608
-0.040552564 -0.009302122 -0.08225985 0.04117081 0.052256554 0.03179143 0.031143358 -0.049908947
-0.0030956967 -0.09179024 0.009196133 -0.008921032 0.022762079 0.0041138637 0.015172986 -0.026363332
-0.06218172 0.07211396 0.024406621 -0.047063507 0.07160587 0.05120363 0.046328727 -0.030882929
-0.048313428 0.03103804 -0.062256478 -0.034642044 0.055660177 0.044623896 0.085270494 -0.011049918
0.013289621 0.03799432 0.028971067 -0.018293234 -0.08123443 0.053207166 -0.038692433 -0.052584644
-0.0514756 0.011474048 -0.03259066 -0.018889977 0.08895732 -0.016145749 0.04840047 -0.07810566
0.055421002 -0.015131275 0.06604902 0.03381681 0.06232949 0.07766638 -0.0027959342 0.03932786
-0.034333955 -0.02183478 -0.054570556 0.00903212 0.017356718 0.036628745 -0.04541106 0.0142201
0.06672109 -0.051285077 0.07860151 0.039224382 -0.070537664 -0.08445712 0.018492293 -0.05480646
0.08395129 -0.055246692 0.029504651 0.08507885 0.056533296 -0.06784476 0.015715947 0.06498781
-0.018196799 -0.042801514 -0.04385312 0.044519387 -0.076322936 -0.015948767 -0.087304205 0.04233019
0.029929772 -0.040049147 1.9045761e-05 0.06874395 0.07881751 -0.08136458 -0.06440706 -0.011192575
0.011132579 -0.043025874 0.014437175 0.022417346 -0.025413211 0.07039206 -0.008180897 -0.03407613
0.07616455 -0.028636314 0.0032386922 0.08904595 -0.05573572 0.019778533 0.084217414 -0.084855326
0.06565245 0.032437317 0.026320368 0.087735415 -0.052664533 0.066906184 0.077619426 -0.021295244
-0.0018757882 0.086014435 0.072218746 0.04550154 0.018021794 0.038886502 0.016531263 -0.08615702
-0.07549908 -0.02395833 0.031453513 -0.069855794 -0.0633204 -0.007277198 -0.07524072 -0.05150345
0.00060215115 -0.040273834 0.03215322 -0.008384644 -0.048163485 0.078289464 -0.019142808 0.018023748
00000000: 3851 0abd fd4d c8bc 2e5c 573c 541a 443d
00000010: 3432 4f3d 4ac2 bfbb bcee cabb 1087 c73d
00000020: 370f 83bd 662b a1bd 2e24 8e3c 2611 babc
00000030: 6242 9f3d b426 51bc 1588 a7bd 3cd5 bbbc
00000040: b153 443c 0920 26bd e2f0 1abd c77d abbd
00000050: b03a 31bd fc54 873d a683 91bd 3474 3abd
00000060: 05d0 4fbd 52ce 233d 55bd 9bbc 8cf3 97bd
00000070: 7d64 b2bc cd77 7b3d b1fa 8dbc 3b5f 83bd
00000080: a896 57bc e6d7 97bd b1c1 863d 2e97 a9bc
00000090: dcb0 173c 579e 4abd f7b6 bb3c 938d e63c
000000a0: cc0d a53d aec0 94bd f46a 203d 6011 afba
000000b0: 1263 b6bc 18f4 fd3c 2c70 28bc 010f 8f3c
000000c0: d0e0 20bc b91e a3bd 6452 e1bc a88b 613d
000000d0: d393 02bd bbf0 933c c052 f5bc 54ca 46bb
000000e0: fdbc 833d 7178 a3bd 2211 773d aaec 5cbd
000000f0: bcbd 29bb 0df9 af3d bfbe e63c 4cde 10bd
00000100: 91b8 a5bd cb39 8d3d b3b9 1b3d 3bf6 febc
00000110: bc5b fb3b dafb a23d ffb0 53bd d3f7 c6bb
00000120: 75dc 02bc 1f20 86bd cbe3 903d 2d11 143d
00000130: 9256 513d aec8 233d 8c88 0bbd 75e0 f13c
00000140: 0a1b edbc c23c 95bd df89 05bd 32c8 153d
00000150: 31c7 43bd 4f8f f2bc 25c8 6c3b 81a4 5b3d
00000160: 6d9e 813d 0fec 27bc a753 203d 1946 53bd
00000170: 85fd e73c cc03 673d 59c3 be3c b25e 80bd
00000180: 35ca 87bd 79cf 853d 9a5a ffbc 3f44 2f3d
00000190: ca8c 8abd 5202 40bb 5b6c 9fbc c4a3 d1bc
000001a0: 2bb5 fcbc 17f1 bc3c 86fe 9e3d 6541 6dbb
000001b0: 51ac 59bd 8b31 50bc 151d 563d c918 5b3c
000001c0: 721a 26bd ed67 18bc da77 a8bd b9a2 283d
000001d0: f80a 563d bb37 023d 5b20 ff3c 536d 4cbd
000001e0: 2ce1 4abb 85fc bbbd 61ab 163c 8529 12bc
000001f0: 8a77 ba3c 97cd 863b 1e98 783c eaf7 d7bc
00000200: 42b2 7ebd 7cb0 933d 65f0 c73c aac5 40bd
00000210: 19a6 923d e6ba 513d 31c3 3d3d 32fe fcbc
00000220: 4de4 45bd 7d43 fe3c a600 7fbd d1e4 0dbd
00000230: edfb 633d 8cc7 363d 4ca2 ae3d b70a 35bc
00000240: b6bc 593c ef9f 1b3d bb54 ed3c b1db 95bc
00000250: 3d5e a6bd c2ef 593d f57b 1ebd ff62 57bd
00000260: 14d8 52bd a5fd 3b3c c97d 05bd 27bf 9abc
00000270: 412f b63d 1744 84bc 923f 463d dcf5 9fbd
00000280: 2201 633d 2be9 77bc b544 873d 7f83 0a3d
00000290: 354d 7f3d 8d0f 9f3d fe3b 37bb 4016 213d
000002a0: c3a1 0cbd dade b2bc 6085 5fbd 75fb 133c
000002b0: ad2f 8e3c 0608 163d f300 3abd 6cfb 683c
000002c0: 11a5 883d 4d10 52bd d4f9 a03d bfa9 203d
000002d0: 0d76 90bd dbf7 acbd 267d 973c bd7c 60bd
000002e0: a7ee ab3d 5b4a 62bd bdb3 f13c d23d ae3d
000002f0: 758f 673d 32f2 8abd bbbe 803c 5418 853d
00000300: 7411 95bc a450 2fbd 549f 33bd f659 363d
00000310: 334f 9cbd fda6 82bc 8ccc b2bd 6c62 2d3d
00000320: 482f f53c 930a 24bd 76c4 9f37 a1c9 8c3d
00000330: 136b a13d 79a2 a6bd d9e7 83bd 1061 37bc
00000340: 6c65 363c e63b 30bd e789 6c3c 95a4 b73c
00000350: 5e2f d0bc b629 903d 2b09 06bc 6993 0bbd
00000360: 29fc 9b3d b496 eabc 3d40 543b b95d b63d
00000370: 234b 64bd 9706 a23c 2e7a ac3d a1c8 adbd
00000380: cb74 863d fedc 043d d09d d73c a0ae b33d
00000390: c4b6 57bd 1c06 893d eff6 9e3d 5d73 aebc
000003a0: 02dd f5ba 5628 b03d 6ce7 933d d35f 3a3d
000003b0: 71a2 933c 7447 1f3d 926c 873c 1773 b0bd
000003c0: 439f 9abd 4244 c4bc 66d5 003d 8e10 8fbd
000003d0: 20ae 81bd 9075 eebb ce17 9abd 48f5 52bd
000003e0: aed9 1d3a 2df6 24bd 18b3 033d bf5f 09bc
000003f0: 1347 45bd 3a56 a03d 61d1 9cbc 8aa6 933c

actor.4.bias f4 [128]
-0.006849525 -0.011192656 0.028639495 0.016240025 0.0016414488 0.08134332 -0.01189662 0.0030150092
0.068129815 -0.053545237 -0.08151638 0.02403915 -0.06962201 -0.04299484 0.09368396 0.013369551
0.054853547 0.07509092 -0.037711397 0.041477866 -0.071564615 0.060058117 0.017624771 0.06062595
0.033023894 0.020778952 0.047188263 -0.040879183 -0.038627874 0.0884469 -0.0009130246 0.032999426
0.000780198 0.08809713 0.03917604 0.04791622 0.070121296 0.044033412 -0.020457663 -0.0036149032
-0.061104476 -0.0390927 -0.078823365 -0.059123162 -0.042706966 -0.071440905 0.004126645 -0.06790789
-0.0024171642 0.088645644 -0.04192026 0.04988533 0.049765207 -0.020086164 0.025628451 0.018181326
-0.051352136 -0.05996705 -0.018553965 -0.0075546214 0.039900776 -0.012850131 -0.03127095 -0.0468312
-0.02761393 0.012776736 0.03448985 0.107703805 0.097554006 0.08114167 -0.04405316 -0.00012382305
0.016372383 0.052196763 0.0072579915 -0.010413478 -0.021682331 -0.02634007 0.07270495 -0.006762791
-0.06769049 -0.05077969 0.07116625 -0.03377524 0.01505027 -0.0120412065 0.038710307 0.02461298
0.12036959 -0.069982365 0.060409915 0.054282166 0.01800218 -0.052137934 -0.06845175 0.012955256
-0.047845874 -0.06260973 -0.006547365 0.03758055 -0.02001407 -0.048599295 -0.099005274 0.043826904
-0.06841747 0.034810442 -0.07250964 0.09567653 0.043922305 -0.005729196 0.044409927 -0.055906422
-0.045563333 -0.07837828 0.10377373 0.058807854 -0.06477057 -0.101983756 -0.061298627 0.05580654
0.063794315 0.0359559 0.09244594 0.060366422 0.06629468 0.005610747 -0.083756335 0.049942043
00000000: fb71 e0bb 6761 37bc 609d ea3c cd09 853c
00000010: e225 d73a 5497 a63d 0aea 42bc 7697 453b
00000020: a587 8b3d 4052 5bbd 0ff2 a6bd c0ed c43c
00000030: fc95 8ebd 5b1b 30bd 60dd bf3d f60b 5b3c
00000040: 1dae 603d 45c9 993d 4477 1abd b2e4 293d
00000050: 7890 92bd 80ff 753d d361 903c eb52 783d
00000060: 1044 073d 9f38 aa3c 7b48 413d ee70 27bd
00000070: 4338 1ebd a623 b53d 0b58 6fba 682a 073d
00000080: 3486 4c3a 456c b43d 0e77 203d cc43 443d
00000090: c19b 8f3d 615c 343d d496 a7bc 03e8 6cbb
000000a0: b048 7abd ab1f 20bd 256e a1bd 212b 72bd
000000b0: 80ed 2ebd 9c4f 92bd cf38 873b 4b13 8bbd
000000c0: 4969 1ebb d98b b53d 94b4 2bbd 8f54 4c3d
000000d0: 9ad6 4b3d bd8b a4bc c2f2 d13c 01f1 943c
000000e0: 9e56 52bd 02a0 75bd 7cfe 97bc c28c f7bb
000000f0: ff6e 233d 5b89 52bc f815 00bd 13d2 3fbd
00000100: 9c36 e2bc 8455 513c 3b45 0d3d d093 dc3d
00000110: 65ca c73d 9b2d a63d 1671 34bd 7fd6 01b9
00000120: 601f 863c 46cc 553d 72d4 ed3b 4b9d 2abc
00000130: 259f b1bc 21c7 d7bc 55e6 943d 679a ddbb
00000140: 50a1 8abd 5dfe 4fbd 9cbf 913d e857 0abd
00000150: 6895 763c 7b48 45bc b38e 1e3d 29a1 c93c
00000160: 5584 f63d ea52 8fbd 6370 773d fa56 5e3d
00000170: 4f79 933c 968e 55bd 6e30 8cbd 4842 543c
00000180: 09fa 43bd 8839 80bd 478b d6bb 10ee 193d
00000190: 8cf4 a3bc 0e10 47bd 47c3 cabd d783 333d
000001a0: 751e 8cbd 6595 0e3d ef7f 94bd 0ef2 c33d
000001b0: e0e7 333d fbbb bbbb 2fe7 353d 22fe 64bd
000001c0: 9ea0 3abd cb84 a0bd 5287 d43d 81e0 703d
000001d0: 6fa6 84bd dcdc d0bd 4514 7bbd 6695 643d
000001e0: 98a6 823d 7e46 133d 4c54 bd3d c842 773d
000001f0: 81c5 873d 5bda b73b 7188 abbd 0790 4c3d

actor.6.weight f4 [8, 128]
0.07191666 0.05719739 -0.0019581248 0.082948215 -0.00034587903 -0.06942191 0.07637944 -0.008111463
-0.0807739 -0.087210864 -0.0460367 0.05374531 -0.03136263 -0.08116787 -0.04349595 -0.05427662
-0.05761824 -0.07630364 -0.060641393 -0.040680155 0.052737895 0.034468867 -0.07181609 0.015450854
0.05379376 -0.08082305 -0.014023042 0.021732604 -0.08484933 0.023119044 -0.07163362 0.029813519
0.028872186 0.08642407 0.0780218 -0.037817385 -0.0465425 0.041213192 -0.059790127 -0.005903259
0.02355965 -0.003451103 -0.06348363 -0.0041007185 -0.04150271 -0.027113182 0.03877249 -0.055334534
-0.0027413676 -0.0018870077 -0.007130803 0.085754886 -0.0398875 -0.038244586 0.059728444 -0.06924774
-0.0013643827 -0.075476676 0.0484212 0.031492002 0.012492922 0.02525055 0.08769185 0.028058259
-0.056380484 0.07842367 -0.03569737 -0.048107192 -0.065780856 -0.011848053 0.08143986 -0.056245502
-0.00041265343 0.07812069 -0.023864334 -0.05015246 0.0027678201 0.02288258 -0.033377506 -0.027319608
-0.0029410885 0.012342121 0.06325889 0.0115132 -0.08561384 -0.047532517 0.054823108 0.052529264
-0.068351395 0.059450805 0.05592221 -0.048895467 -0.0635246 0.033672653 0.012909554 0.025645213
0.0059901937 0.031541783 -0.0799332 0.023676127 0.026574269 0.003960188 0.030719377 -0.08491981
0.053612668 -0.012121227 -0.005825473 -0.054071214 -0.0014014142 0.0016146827 -0.07777667 0.04513184
0.023672171 0.08117853 0.020780703 0.06204811 0.0681039 0.06195777 0.0069868853 0.062506504
-0.0883918 0.028706994 -0.047210872 -0.011966676 0.08898856 -0.07811715 0.064764075 -0.08070566
-0.035013843 -0.08170572 0.085944794 0.071313724 -0.07744911 -0.05791654 0.07929323 -0.02119533
0.074713126 0.010311194 -0.06782163 -0.04267419 -0.06343246 0.056486864 -0.02899494 0.037847646
0.050221797 -0.020140206 -0.0155186495 -0.078704365 -0.0072361184 -0.0718058 -0.027727216 0.020278975
-0.051818445 -0.08031443 -0.061275378 -0.006095665 0.008244159 -0.0654045 0.057752144 0.09326615
-0.074821 -0.040600937 -0.08917991 0.0798388 -0.0037031577 -0.05278835 -0.06996985 0.00022561535
0.010649756 -0.06639071 0.086104594 0.04662191 0.0069806906 -0.07075095 0.065433 -0.039911963
0.049543563 0.028580464 -0.023259128 0.055771407 0.060143396 -0.027270678 0.08801688 -0.058005113
0.01592077 -0.07463789 0.012699982 -0.028111992 0.09294447 0.05454804 0.06421887 -0.07785556
0.0767832 0.031664427 -0.012709277 0.03156172 0.03952485 -0.038626924 0.06344241 -0.06625732
0.007581969 0.082714535 -0.02580242 -0.048334394 0.047044985 0.052621726 -0.07345915 -0.01988456
0.05817843 0.06616164 0.009170102 0.03884658 -0.0407827 0.0664404 -0.07644837 -0.060750525
-0.043138914 0.029868199 -0.02818381 0.047936905 0.078164525 0.041589923 -0.04166832 0.09047349
-0.012159953 0.04417527 0.08237242 0.06831043 0.03133209 -0.019928593 -0.019777888 -0.0661366
-0.06275849 -0.077603266 0.04058858 0.04387325 0.012378153 -0.055914626 0.004295298 -0.07000407
0.07633668 -0.03397929 -0.00883823 0.03493623 -0.036196984 -0.028167695 0.066995524 -0.01581712
0.03497226 0.056306764 0.052070837 -0.03718348 -0.03413428 0.07476239 0.08258948 -0.06727513
00000000: 0b49 933d cf47 6a3d e253 00bb c1e0 a93d
00000010: 1957 b5b9 132d 8ebd d36c 9c3d f1e5 04bc
00000020: c96c a5bd 9c9b b2bd fb90 3cbd 0b24 5c3d
00000030: 1a76 00bd 573b a6bd cf28 32bd 2951 5ebd
00000040: 1b01 6cbd 1545 9cbd 1c63 78bd 3ca0 26bd
00000050: b103 583d 3a2f 0d3d 5014 93bd 9425 7d3c
00000060: d856 5c3d 8e86 a5bd e7c0 65bc 9308 b23c
00000070: 7cc5 adbd 2664 bd3c a6b4 92bd 7b3b f43c
00000080: 5d85 ec3c 1aff b03d e5c9 9f3d 67e6 1abd
00000090: 59a3 3ebd 2acf 283d 7ee6 74bd 2070 c1bb
000000a0: 2b00 c13c e72b 62bb b503 82bd 525f 86bb
000000b0: bffe 29bd 771c debc e7cf 1e3d 77a6 62bd
000000c0: 84a8 33bb 7955 f7ba 83a9 e9bb 42a0 af3d
000000d0: 1361 23bd 5ba6 1cbd d0a5 743d c2d1 8dbd
000000e0: 16d5 b2ba 8493 9abd 4f55 463d c2fd 003d
000000f0: 1daf 4c3c 3eda ce3c c997 b33d 6fda e53c
00000100: 39ef 66bd 979c a03d 6837 12bd 0c0c 45bd
00000110: 1db8 86bd 561e 42bc f1c9 a63d af61 66bd
00000120: 6859 d8b9 befd 9f3d 237f c3bc aa6c 4dbd
00000130: 5164 353b 4074 bb3c dab6 08bd 5fcd dfbc
00000140: 47bf 40bb 9c36 4a3c e08d 813d dca1 3c3c
00000150: 4f56 afbd 75b1 42bd 328e 603d ed28 573d
00000160: d1fb 8bbd b082 733d b00e 653d 9d46 48bd
00000170: 2f19 82bd 56ec 093d 9882 533c e915 d23c
00000180: 6349 c43b f531 013d 04b4 a3bd 70f4 c13c
00000190: 48b2 d93c 77c4 813b 34a7 fb3c 70ea adbd
000001a0: f598 5b3d 1c98 46bc 9ce3 bebb c779 5dbd
000001b0: a8af b7ba c3a3 d33a 6049 9fbd 2adc 383d
000001c0: 24ec c13c ee40 a63d 4b3c aa3c 2926 7e3d
000001d0: 0f7a 8b3d 6ec7 7d3d 3ef2 e43b 6903 803d
000001e0: c306 b5bd ee2a eb3c 3060 41bd e10f 44bc
000001f0: a23f b63d e2fb 9fbd 07a3 843d 0249 a5bd
00000200: ad6a 0fbd 5455 a7bd d303 b03d ee0c 923d
00000210: a49d 9ebd e539 6dbd 7d64 a23d d4a1 adbc
00000220: 3203 993d 48f0 283c 11e6 8abd 22cb 2ebd
00000230: e1e8 81bd c55e 673d cc86 edbc 2206 1b3d
00000240: 5fb5 4d3d 13fd a4bc ef41 7ebc c12f a1bd
00000250: f61c edbb eb0e 93bd 3024 e3bc 1820 a63c
00000260: 943f 54bd e47b a4bd e4fb 7abd 25be c7bb
00000270: 8212 073c cbf2 85bd 838d 6c3d 5302 bf3d
00000280: c13b 99bd 2b4d 26bd f5a3 b6bd 8682 a33d
00000290: adb0 72bb 9938 58bd 5a4c 8fbd 2993 6c39
000002a0: 507c 2e3c daf7 87bd 9b57 b03d 9ef6 3e3d
000002b0: 47be e43b e0e5 90bd bd01 863d ba7a 23bd
000002c0: 31ee 4a3d 9421 ea3c ed89 bebc 8f70 643d
000002d0: ec58 763d c266 dfbc 3242 b43d c596 6dbd
000002e0: 466c 823c c0db 98bd 9613 503c 1f4b e6bc
000002f0: ac59 be3d c46d 5f3d 2f85 833d bc72 9fbd
00000300: 8340 9d3d 8fb2 013d 923a 50bc dd46 013d
00000310: cfe4 213d 4437 1ebd 18ee 813d ebb1 87bd
00000320: 2a72 f83b 3d66 a93d 995f d3bc 49fa 45bd
00000330: 3eb2 403d e189 573d c071 96bd f2e4 a2bc
00000340: 814c 6e3d c17f 873d 323e 163c 971d 1f3d
00000350: c30b 27bd e811 883d f790 9cbd 8bd5 78bd
00000360: 6eb2 30bd 27ae f43c bce1 e6bc 7d59 443d
00000370: b914 a03d 325a 2a3d 66ac 2abd 2a4a b93d
00000380: 8a3a 47bc 21f1 343d dfb2 a83d 57e6 8b3d
00000390: 1456 003d 4a41 a3bc 3d05 a2bc a072 87bd
000003a0: 8687 80bd 76ee 9ebd 3640 263d 70b4 333d
000003b0: bdcd 4a3c bc06 65bd 92bf 8c3b 4b5e 8fbd
000003c0: 6856 9c3d de2d 0bbd 39ce 10bc 4b19 0f3d
000003d0: 4a43 14bd f0bf e6bc f334 893d e892 81bc
000003e0: 133f 0f3d eca1 663d 3b48 553d b44d 18bd
000003f0: 63d0 0bbd 061d 993d ac24 a93d 8bc7 89bd

actor.6.bias f4 [8]
0.07005724 -0.0563305 0.009547947 0.05091346 0.07244987 0.0493556 -0.055057745 -0.048037317
00000000: 2c7a 8f3d cfba 66bd fe6e 1c3c a28a 503d
00000010: 9960 943d 1929 4a3d 3b84 61bd c7c2 44bd

critic.0.weight f4 [128, 31]
0.18243949 0.1023876 -0.115153454 0.022645876 0.021312214 0.052166954 0.16651767 0.014178768
0.08122371 0.040897224 0.096289486 0.22981818 -0.11171751 0.15043671 0.07160384 0.014150545
0.103288874 -0.11500277 0.0152974585 -0.16925126 0.09704082 0.09545128 0.10942073 0.09690301
0.16586345 0.064213544 0.07545319 0.07768079 -0.03702194 -0.1128971 -0.09266871 0.085967876
0.1535147 0.1278441 -0.0016214589 0.101534046 0.070822954 0.0932714 -0.0058960314 0.033733476
-0.0032116754 -0.21090852 0.05628164 0.15836611 -0.110562034 -0.04856596 -0.14852625 0.046410218
-0.17532352 -0.14567126 -0.12984228 -0.09885406 0.106945455 0.054892078 0.106747486 -0.037426557
0.12511708 0.18015498 -0.106445946 0.04505 -0.07662189 0.0794657 -0.04401529 -0.017073084
0.019940387 0.17668505 0.1436892 0.09506714 0.18347439 -0.1696025 0.006638382 -0.16101532
-0.12924975 -0.12374814 0.12315481 0.14780536 0.052552674 -0.013093259 0.0077319737 0.07857676
0.09107529 0.110127114 -0.11370614 0.15134454 0.16656955 0.073639475 0.16582024 0.05944725
-0.036367606 0.06518173 0.08331874 -0.17808859 -0.040730745 0.05383311 0.088854015 0.017834792
0.057196494 -0.16748129 -0.13847119 0.06926147 0.030522441 0.067546725 -0.057960212 -0.09937651
-0.10122217 -0.16976748 -0.00093495403 0.16367613 0.01693097 0.052067287 0.09753225 -0.121707685
0.12947957 0.10919662 -0.055349927 0.1584694 0.16192764 -0.041898433 -0.11676592 -0.12105145
-3.6844542e-06 0.057484686 -0.0026621667 -0.05930485 -0.008261573 0.13375282 0.13168861 -0.024565177
0.05934429 0.092364736 0.07306083 -0.006992409 0.08703601 -0.11804243 0.16717665 0.009406701
-0.027603677 -0.1478661 0.16677232 0.13315706 0.044699397 -0.15424849 -0.01616191 0.08710587
0.13793543 -0.11661117 -0.098083474 0.11228745 -0.04384647 -0.020113446 0.1797098 0.09977346
-0.073789656 0.0013138271 0.01048449 -0.03612635 -0.15774147 -0.06666685 -0.04282329 -0.09703509
-0.02491867 0.168188 -0.12656622 0.054623514 0.14936961 0.08590552 0.2159034 0.10832359
0.12670578 -0.09450607 0.10265108 -0.008164562 0.12768291 -0.031464327 0.073625505 0.040624477
-0.07760413 0.015897926 -0.059740275 -0.08704187 -0.05589337 -0.1755736 0.1846755 -0.06711769
-0.13765381 0.09449633 0.020090982 -0.031586982 -0.14086574 -0.027327219 -0.05829575 -0.04190464
0.035468716 0.08243258 0.07104391 0.11102747 0.1284032 0.18858255 -0.111245945 -0.11474807
0.12726703 0.070753545 -0.08638464 0.00082784024 0.18098672 -0.11382653 -0.060100514 0.018518744
-0.15396477 0.05746915 -0.16394107 -0.11004565 -0.12936753 -0.0015271202 -0.10016981 -0.13471198
0.08897754 -0.12051451 -0.14123428 -0.08909302 0.045443222 -0.16342358 0.05699209 0.08205628
0.19298145 -0.16914797 0.028058192 0.14024857 0.117005736 0.056591727 -0.16030815 -0.035050865
0.07720148 0.10572575 0.08428796 -0.07320821 0.050054885 -0.16768722 -0.019672368 -0.027786529
-0.04972472 0.11970383 -0.03706693 -0.17478736 0.10777603 0.15312096 0.12843463 -0.08552858
-0.12071467 0.0064175604 -0.13506608 -0.060184814 0.020604584 0.12965848 0.16890065 0.15657362
00000000: 6bd1 3a3e 97b0 d13d 93d5 ebbd d883 b93c
00000010: f496 ae3c 04ad 553d 9c83 2a3e 104e 683c
00000020: 9e58 a63d d983 273d 6c33 c53d 7555 6b3e
00000030: 26cc e4bd 150c 1a3e 09a5 923d b0d7 673c
00000040: 1e89 d33d 9386 ebbd 31a2 7a3c 3450 2dbe
00000050: 56bd c63d f67b c33d fa17 e03d 1675 c63d
00000060: 1cd8 293e 6482 833d 3487 9a3d 1b17 9f3d
00000070: 51a4 17bd 9836 e7bd 18c9 bdbd ed0f b03d
00000080: f532 1d3e 90e9 023e 2287 d4ba 15f1 cf3d
00000090: a00b 913d 1305 bf3d 7f33 c1bb 1d2c 0a3d
000000a0: f97a 52bb 67f8 57be 9487 663d ba2a 223e
000000b0: 596e e2bd 1aed 46bd 4417 18be a418 3e3d
000000c0: 0288 33be d92a 15be 60f5 04be ff73 cabd
000000d0: 3806 db3d 84d6 603d 6d9e da3d 974c 19bd
000000e0: b11e 003e 8c7a 383e 5500 dabd 5986 383d
000000f0: f0eb 9cbd eabe a23d 6049 34bd dadc 8bbc
00000100: 065a a33c edec 343e 4323 133e 90b2 c23d
00000110: b6e0 3b3e 47ac 2dbe c986 d93b 33e1 24be
00000120: 0c5a 04be aa6f fdbd 9738 fc3d 4a5a 173e
00000130: 7941 573d 1c85 56bc 7f5c fd3b daec a03d
00000140: af85 ba3d 538a e13d c4de e8bd 10fa 1a3e
00000150: 3591 2a3e 4bd0 963d c8cc 293e f67e 733d
00000160: 33f6 14bd 007e 853d 04a3 aa3d db5c 36be
00000170: 48d5 26bd 1b80 5c3d 18f9 b53d 451a 923c
00000180: df46 6a3d 3780 2bbe 64cb 0dbe f5d8 8d3d
00000190: 330a fa3c f055 8a3d b067 6dbd e985 cbbd
000001a0: 924d cfbd 87d7 2dbe b417 75ba b79a 273e
000001b0: d1b2 8a3c 8244 553d fdbe c73d e141 f9bd
000001c0: 4b96 043e 7aa2 df3d 9bb6 62bd cd45 223e
000001d0: 5cd0 253e b19d 2bbd f822 efbd d3e9 f7bd
000001e0: 7142 77b6 1075 6b3d bf77 2ebb a4e9 72bd
000001f0: 8c5b 07bc 80f6 083e 61d9 063e e93c c9bc
00000200: 0013 733d b929 bd3d eba0 953d 9420 e5bb
00000210: f03f b23d 3bc0 f1bd 5b30 2b3e 901e 1a3c
00000220: 1b21 e2bc 366a 17be 5dc6 2a3e 535a 083e
00000230: b716 373d 51f3 1dbe fb65 84bc 9064 b23d
00000240: f23e 0d3e d6d1 eebd fddf c8bd f6f6 e53d
00000250: 5b98 33bd f4c4 a4bc d905 383e 0756 cc3d
00000260: 081f 97bd b934 ac3a 23c7 2b3c 39f9 13bd
00000270: fb86 21be a188 88bd 7967 2fbd 55ba c6bd
00000280: 3d22 ccbc 7a39 2c3e 939a 01be e8bc 5f3d
00000290: 59f4 183e 3cef af3d c815 5d3e c2d8 dd3d
000002a0: 29bf 013e 668c c1bd bb3a d23d a8c4 05bc
000002b0: 4fbf 023e bde0 00bd f8c8 963d da65 263d
000002c0: eaee 9ebd 5e3c 823c 38b2 74bd 0243 b2bd
000002d0: 72f0 64bd 91c9 33be 931b 3d3e 0075 89bd
000002e0: 1ff5 0cbe 4b87 c13d d895 a43c 5a61 01bd
000002f0: 1c3f 10be 55dd dfbc 86c7 6ebd 33a4 2bbd
00000300: a547 113d 6ad2 a83d 787f 913d 5f62 e33d
00000310: 217c 033e c91b 413e ead4 e3bd 0901 ebbd
00000320: 4a52 023e 3ce7 903d 6eea b0bd 6b03 593a
00000330: 9554 393e e21d e9bd f52b 76bd 9fb4 973c
00000340: f1a8 1dbe c564 6b3d 2be0 27be 9d5f e1bd
00000350: ec78 04be a729 c8ba d425 cdbd f0f1 09be
00000360: db39 b63d 50d0 f6bd b89f 10be 6776 b6bd
00000370: ac22 3a3d 8358 27be 8a70 693d 1f0d a83d
00000380: ee9c 453e 2035 2dbe 4bda e53c 529d 0f3e
00000390: b4a0 ef3d bacc 673d d227 24be 7f91 0fbd
000003a0: cf1b 9e3d be86 d83d 2a9f ac3d 30ee 95bd
000003b0: 5a06 4d3d 33b6 2bbe f227 a1bc 93a0 e3bc
000003c0: 26ac 4bbd 4827 f53d 7ed3 17bd 75fb 32be
000003d0: aeb9 dc3d becb 1c3e 5e84 033e 9c29 afbd
000003e0: 4139 f7bd 664a d23b c34e 0abe 5a84 76bd
000003f0: f2ca a83c 31c5 043e 4bf4 2c3e d654 203e

critic.0.bias f4 [128]
-0.1629534 -0.011276804 0.2254069 0.15247236 0.011096606 -0.15952943 0.14245968 0.08336508
0.040708326 -0.06502756 -0.0108708525 -0.2128476 -0.047346517 -0.01686012 0.12429435 -0.09447314
-0.13336371 -0.15360175 0.15126874 0.07997045 0.20634143 -0.06934376 -0.15825337 -0.12624665
0.051199343 -0.06337705 0.064299375 -0.13499397 -0.13228418 0.038781155 0.12229063 -0.046754442
-0.029169813 0.17026606 0.19478433 -0.19984367 -0.15047419 0.07061856 -0.06749596 -0.15855244
-0.067198746 0.1301371 0.004430584 -0.123776846 0.18974756 0.11607751 0.07736289 -0.12147995
-0.14671317 0.12784077 -0.0063522356 -0.23223472 -0.09082482 -0.06372644 -0.15569673 -0.07132543
0.08089496 -0.13716838 -0.09817505 -0.05011146 0.05191831 -0.054220825 -0.0818277 -0.04057269
-0.0706891 -0.09000937 0.09413853 0.023246994 -0.096694216 0.17937751 -0.073297136 0.1683386
0.07127975 0.15276597 0.13285597 -0.14186937 0.2081828 0.031613655 0.08819573 0.113700934
0.08819883 -0.0002676769 0.059830148 0.14160556 -0.17115055 0.00044287537 0.058414 0.06907877
0.15779121 0.20128936 -0.14077085 0.13706371 -0.048692845 0.028031228 -0.067950815 0.19905914
0.002906929 -0.08330939 0.10495394 0.18098186 0.2039827 -0.0076403865 0.07503675 0.027405178
0.08108757 -0.19059135 0.19689068 -0.052393056 0.12534004 -0.11758124 -0.100245096 0.09337258
0.03315488 0.16210675 0.07449092 0.14636593 0.017215347 0.20785241 -0.077014156 0.09031611
0.13432615 0.1016831 0.16621569 -0.056004275 0.13203792 -0.1663551 0.060424 -0.02515522
00000000: 42dd 26be 58c2 38bc 11d1 663e b721 1c3e
00000010: 8ace 353c af5b 23be f3e0 113e 50bb aa3d
00000020: c6bd 263d 2b2d 85bd a91b 32bc b9f4 59be
00000030: 6cee 41bd 3c1e 8abc 098e fe3d 227b c1bd
00000040: 7f90 08be c749 1dbe 31e6 1a3e 8cc7 a33d
00000050: 2b4b 533e 1a04 8ebd 2c0d 22be cd46 01be
00000060: 67b6 513d d4cb 81bd 64af 833d dc3b 0abe
00000070: 8175 07be fdd8 1e3d 8373 fa3d 9681 3fbd
00000080: 88f5 eebc 3a5a 2e3e 8b75 473e d2a3 4cbe
00000090: e815 1abe 77a0 903d 523b 8abd 925b 22be
000000a0: 7f9f 89bd a942 053e 6f2e 913b b77e fdbd
000000b0: 2f4d 423e 0cba ed3d 6f70 9e3d 7bca f8bd
000000c0: fa3b 16be b1e8 023e 6a26 d0bb f0ce 6dbe
000000d0: 5d02 babd 0283 82bd f76e 1fbe 1113 92bd
000000e0: 42ac a53d de75 0cbe 0010 c9bd ad41 4dbd
000000f0: 4ba8 543d a816 5ebd 4895 a7bd 8d2f 26bd
00000100: 72c5 90bd d556 b8bd b4cb c03d 7b70 be3c
00000110: 9e07 c6bd bdae 373e cf1c 96bd f460 2c3e
00000120: 1efb 913d af6e 1c3e 650b 083e 3446 11be
00000130: df2d 553e 527d 013d f69f b43d 09dc e83d
00000140: 97a1 b43d fc56 8cb9 7510 753d 0c01 113e
00000150: 1742 2fbe ba31 e839 8543 6f3d 2c79 8d3d
00000160: 0594 213e cc1e 4e3e 3c26 10be 6e5a 0c3e
00000170: 2672 47bd bfa1 e53c cc29 8bbd 29d6 4b3e
00000180: 2d82 3e3b 1d9e aabd 17f2 d63d 4f53 393e
00000190: d7e0 503e 355c fabb deac 993d d380 e03c
000001a0: 3d11 a63d 612a 43be b69d 493e 1a9a 56bd
000001b0: 2459 003e 6fce f0bd 4d4d cdbd 203a bf3d
000001c0: 69cd 073d 50ff 253e b28e 983d f3e0 153e
000001d0: 3307 8d3c 43d7 543e 99b9 9dbd a7f7 b83d
000001e0: cb8c 093e 3b3f d03d 7234 2a3e bd64 65bd
000001f0: f334 073e fe58 2abe 287f 773d 5212 cebc
