ISAAC_NOGIT/logs/rsl_rl/traquad_flat/2025-09-16_14-40-58/model_150.pt (torch, 925483 bytes, 48 tensors)

std f4 [8]
000000 97 8d 80 3f 1b a0 77 3f b7 d5 7f 3f 4b be 7e 3f
       1.004321 0.96728677 0.9993548 0.99509114
000010 fe 2e 7d 3f 12 76 7d 3f 13 42 7c 3f f4 53 83 3f
       0.9889983 0.99008286 0.9853832 1.0259995

actor.0.weight f4 [128, 31]
000000 17 15 b7 bc 28 57 d1 3d c0 de 87 3d 6c 4a 27 3e
       -0.022348924 0.10221702 0.06634283 0.16336983
000010 df 44 11 3e b8 0b f2 bc 0e 78 83 bc 59 b2 ac 3b
       0.14186428 -0.029546604 -0.016048457 0.005270284
000020 5a d5 3d bd e8 a7 0a 3e 56 df d5 3d 7e aa 0d be
       -0.046346046 0.13540614 0.104429886 -0.13834569
000030 69 95 50 bc e0 c3 98 3d 33 32 18 bd be e0 7e 3d
       -0.012730935 0.07459235 -0.03715725 0.06222605
000040 b1 78 29 3d bb 14 e9 3d 56 5f 04 3e 9a e2 fd 3d
       0.041374866 0.11380907 0.12926993 0.123967364
000050 b2 53 f4 3c 92 c5 21 be e8 bc 30 be c1 d1 20 bd
       0.029825065 -0.15798023 -0.17259562 -0.039262537
000060 79 4f 09 3e e7 cd 21 bd f6 4a 1b 3e 3a 03 6c 3d
       0.13409223 -0.039503004 0.15165314 0.057620265
000070 13 c9 05 3e dd ff 04 be 2f b5 27 be ec b5 d9 bd
       0.13064985 -0.12988229 -0.1637771 -0.10630402
000080 3a 2b 30 bd 01 64 24 bd dd 03 85 bd fc 21 e3 bd
       -0.043009974 -0.040134434 -0.064948775 -0.110904664
000090 83 b7 a2 3d 75 ee be bc 2d 54 85 bd e5 51 ea 3d
       0.07945158 -0.023307065 -0.06510196 0.114414014
0000a0 00 55 7a 3d 50 45 a2 3d 35 fa 98 3b 4a d1 75 bd
       0.06111622 0.079233766 0.004668499 -0.060014047
0000b0 d3 fb 0c 3e 73 13 62 3d 14 4f 35 bd 3f 2c dc 3c
       0.13767938 0.05519433 -0.044264868 0.026876567
0000c0 00 9a 23 bd a5 41 6c bd c8 8d 76 bd 03 56 5c 3d
       -0.039941788 -0.05767979 -0.060193807 0.053792965
0000d0 e2 2d a6 bc d4 f4 31 3e 5e 40 a1 3d 56 57 fb 39
       -0.02028555 0.17378551 0.07873605 0.0004793952
0000e0 65 ea ec 3d 64 2d c0 bc ad 09 1a be 14 cf 20 be
       0.11568145 -0.023459144 -0.15042754 -0.15703994
0000f0 72 26 b9 3d 50 6e dc bd 3b d4 34 3e 08 66 16 3e
       0.09040536 -0.10763228 0.17659084 0.1468736
000100 7d 87 82 3b cd 31 eb bc 06 d8 77 bc 6d a6 21 be
       0.0039834366 -0.02871027 -0.015127188 -0.15786143
000110 7e 03 33 3e f3 c1 2d bd 3d b5 58 be f9 42 be 3d
       0.17481801 -0.042421293 -0.21162887 0.09290118
000120 0f e0 29 be 1f 5d 00 3e cc e2 75 3b 4b ea 38 be
       -0.16589378 0.12535523 0.0037519215 -0.18058126
000130 4d 6f 03 3b 88 c7 73 bc eb 56 b1 ba 4f ab e0 3d
       0.0020055354 -0.014879115 -0.0013529932 0.109701745
000140 5d 41 3a bd ad 28 0b 3d b9 92 09 3e 27 c0 18 3e
       -0.04547249 0.03397434 0.13434877 0.1491705
000150 bb fb 16 be 41 ec 6b bd fc 97 93 bd 72 cc 29 be
       -0.14744465 -0.057598356 -0.07206723 -0.16581896
000160 55 55 96 bd e6 74 f1 3d bb 0a 48 bc 9a 5f f0 bd
       -0.073404945 0.11789875 -0.01220959 -0.117369846
000170 49 96 21 3e 28 e7 12 bd 5d 65 00 bd 28 e2 24 3e
       0.15779985 -0.03586498 -0.031346668 0.16101897
000180 34 14 b0 3d 05 e7 37 be 21 03 f4 bc 94 84 63 bd
       0.085976034 -0.1795922 -0.029786648 -0.05554636
000190 23 9c f1 3d 38 5b b9 3d ed 29 68 bc c9 84 16 3d
       0.11797359 0.09050602 -0.014170152 0.036747728
0001a0 f6 fd fb bd 44 04 ed 3c 4a e7 06 3e 07 14 6e 3d
       -0.123042986 0.028932698 0.13174167 0.05812457
0001b0 43 b8 36 3e 99 81 09 3e 3e a4 79 3d 60 50 b2 3d
       0.17843728 0.13428344 0.06094765 0.087067366
0001c0 bd 48 b9 3d 67 2d 0c 3e 5c 15 15 be c1 6b e4 3d
       0.09047077 0.13689195 -0.14558929 0.11153365
0001d0 b3 59 08 3e f0 c7 9e bd f1 b3 12 3d d3 46 25 3d
       0.13315468 -0.07752979 0.035816137 0.040350746
0001e0 be 0a f7 3d 75 b7 c7 bc 37 a7 34 3e 0a c3 f6 bd
       0.12062596 -0.024379471 0.17641912 -0.120489195
0001f0 2b 9d 1b 3d aa 60 7d bd c8 e1 15 be 22 c0 f9 bd
       0.037991684 -0.061859764 -0.1463691 -0.121948496
000200 bf 81 11 3e 49 0f 08 be 42 39 b1 bd 95 eb 2a 3e
       0.1420965 -0.13287081 -0.08653499 0.1669143
000210 44 b6 c7 bd ce 4e b0 3d c9 da 15 be 42 ae d2 3d
       -0.09751561 0.08608781 -0.14634241 0.10287143
000220 c1 b0 07 3e 86 bd b4 bd 06 12 37 ba 95 87 df 3d
       0.1325102 -0.08825211 -0.00069835817 0.10914532
000230 7b 98 19 3e f7 40 0f be 7c b4 48 bd 73 b3 7a 3d
       0.14999573 -0.13989626 -0.04900025 0.061206292
000240 4a dd e7 3d b8 cc 88 bc 17 1e 28 bd 93 99 84 bd
       0.113215044 -0.01669918 -0.04104432 -0.064746045
000250 eb 53 d3 bc 0f 8e 0a 3e d6 df 81 bc 87 87 2c 3e
       -0.025796851 0.13530754 -0.015853804 0.16848575
000260 8b 69 15 3e f3 e8 04 be 19 c4 11 3e 24 90 5e bc
       0.14591043 -0.12979488 0.14234962 -0.0135841705
000270 ed b1 b8 bc 06 0b 0c bc 5f b9 4d bd fe cb 5b 3d
       -0.02254578 -0.00854755 -0.05022561 0.05366134
000280 b9 e1 cc 3d e9 ed a7 3d a3 b1 26 be fd ac a6 bd
       0.10003991 0.08199675 -0.162787 -0.08138464
000290 54 28 b4 bd 4b cc ed bc 2e 11 c4 3d 2e b3 05 3e
       -0.087967545 -0.029028079 0.09573589 0.13056633
0002a0 bd e1 72 3d 05 b7 b8 3d a1 1f 8e bd 18 ce 8e bd
       0.059297312 0.09019283 -0.069396265 -0.06972903
0002b0 96 4e ea 3d db 27 86 3d 45 83 15 3e a9 bb 0e 3e
       0.1144077 0.065505706 0.14600857 0.13938774
0002c0 44 05 23 be 90 00 94 3c 29 79 0b bd 59 be 30 be
       -0.15919977 0.018066674 -0.034051094 -0.17260112
0002d0 70 ba 01 bc 13 0f ff 3c bc a4 2f be c9 70 55 3c
       -0.007917985 0.031135118 -0.17152685 0.013027378
0002e0 9c 8f dc 3d 05 93 be bd ad 93 9b bd 9e 14 a0 bd
       0.10769579 -0.093053855 -0.07596526 -0.078164324
0002f0 e4 4e 02 bd 24 cf f5 3d e3 4a 2c 3e 80 cb 28 be
       -0.031813517 0.120023996 0.16825442 -0.16483879
000300 d7 a4 c5 3d 9a 1d 02 bc 1b b3 1a 3e 0b 76 66 3b
       0.09650581 -0.007941628 0.15107386 0.0035165574
000310 ed 34 12 3e ed d5 ae bd 59 dd 07 be 36 7a 06 3e
       0.14278002 -0.08536897 -0.13268031 0.13132557
000320 7b 7d df bd 80 7f 18 3d 57 e0 a6 bc 7f 0b 94 bd
       -0.109126054 0.03723097 -0.020370645 -0.07228755
000330 0e 28 6b 3d f4 4b d3 3c 9b ee 3d bc d1 0d 4f bd
       0.057411246 0.025793053 -0.0115925325 -0.050550286
000340 36 70 f2 3c fc ac fb bd 1a 20 8a bb 89 4b 8a bd
       0.029594522 -0.122888535 -0.0042152526 -0.067526884
000350 fd ff e3 3c 92 bd f9 bd 08 06 2f 3c 13 1a a5 3d
       0.027832026 -0.12194361 0.01068259 0.08061614
000360 a2 03 1e be a6 2d 32 3e 3b 3a 02 be e2 a4 09 3d
       -0.15431073 0.17400226 -0.12717526 0.03360451
000370 71 23 a6 3c 62 e8 fb bd 9c a7 c0 bd 5e 16 c3 3d
       0.020280572 -0.12300183 -0.09406969 0.095257506
000380 49 da c0 3d 71 b4 4f bd 79 0a c5 bd 17 fc 67 3d
       0.094166346 -0.05070919 -0.09621138 0.056636896
000390 9f 7b 0a bd 3e dd 3f 3d 7b 57 09 be 28 a5 58 3c
       -0.0338093 0.046841852 -0.13412277 0.01322297
0003a0 d3 91 3e 3d 83 de ce bc 7d b3 25 3e 3d 07 09 3e
       0.046525788 -0.025252586 0.1618175 0.13381667
0003b0 1e 2d de bc 22 71 e7 bc 3c 84 cf bd 87 6c 1a be
       -0.027121123 -0.028252188 -0.101326436 -0.15080462
0003c0 5d 77 66 bd e0 bf 09 be d6 a8 d8 3d 2c cf fb 3d
       -0.056266177 -0.13452101 0.10579078 0.12295374
0003d0 f3 b1 26 3e ca e5 a6 3b ee e4 11 be 51 19 2e 3e
       0.1627882 0.005093311 -0.14247486 0.17001845
0003e0 2a 03 f5 bd 8f d3 30 3c 6a 30 0d 3e 25 8d 82 bd
       -0.11963494 0.010792627 0.13788 -0.063745774
0003f0 01 59 59 3d 30 bc 90 bd cc 6e 85 bd b0 b9 80 3d
       0.053063396 -0.07067144 -0.065152735 0.06285417

actor.0.bias f4 [128]
000000 74 1e 72 3d 9a 2a 94 bd e2 2b b7 3d 3d 05 8f bd
       0.059111074 -0.07234688 0.08943917 -0.06983421
000010 9c 92 52 3d 21 48 f9 bc 11 3d 97 bd 33 e5 2a bd
       0.05140935 -0.030429902 -0.07384694 -0.041722488
000020 5c 4c 02 be 05 52 31 3e 17 4d 5b be 37 c8 40 3c
       -0.12724441 0.17316444 -0.21416126 0.011766485
000030 77 77 2f be 95 27 14 3e 9e 6a f2 bd 18 fc 1d 3e
       -0.17135416 0.14468224 -0.11836742 0.15428197
000040 3f 72 8b 3d 93 22 88 bd 15 c0 66 bd f2 cd 58 3d
       0.068089 -0.066472195 -0.056335527 0.05293078
000050 1a ba 62 3e 51 62 18 3d e9 1f 1f 3d dd 4a 92 3d
       0.22141305 0.037203137 0.03884879 0.07143185
000060 d4 c3 36 3e 81 7d 03 bd 21 ea 75 3c a1 99 0e 3d
       0.1784814 -0.03210211 0.015009434 0.03481448
000070 5f 8d a7 bd 51 70 13 3d 9c 5e 86 b9 05 0d e2 bd
       -0.08181261 0.035995785 -0.0002562896 -0.110376395
000080 4e cf 2b be 36 58 cb 3d f5 3b 17 bc 2a 18 e2 3d
       -0.16778299 0.09928934 -0.009230603 0.11039765
000090 52 fc e5 3d f4 eb 0b be bd d5 ed 3d 3c f5 31 3e
       0.11229767 -0.13664228 0.11613033 0.17378706
0000a0 71 0c 1e 3e dd 69 25 be 75 14 09 be 69 11 76 bd
       0.15434434 -0.16153665 -0.1338671 -0.060075197
0000b0 e7 03 11 3d af c8 c5 3d 2d 0b 3a 3d bc 62 40 3d
       0.035404112 0.09657418 0.045420814 0.04696916
0000c0 66 60 05 ba 1a 99 be bd da ff 10 3d b3 2e a4 bd
       -0.0005087912 -0.093065456 0.03540025 -0.0801672
0000d0 39 73 22 bc 04 37 86 3d a8 48 05 bd a5 5d bf 3d
       -0.009915167 0.06553462 -0.032539994 0.09344033
0000e0 6a 50 9e 3d 2d a6 a8 3d e4 67 d7 bd 49 d8 04 3d
       0.077301815 0.082348205 -0.105178624 0.032432828
0000f0 fb 6e 27 bc 51 5f 0a be 51 1d 98 bd 79 88 a6 3d
       -0.010219331 -0.13512923 -0.07427467 0.08131499
000100 a8 fb 27 be f3 e9 28 be 58 73 11 bd 19 9a cb bd
       -0.16404593 -0.16495495 -0.03551039 -0.09941501
000110 96 d9 e2 3d 01 be 5b 3d ff 28 31 be fb 2f 53 3d
       0.110766575 0.053648 -0.17300795 0.05155943
000120 4b 93 37 3e 42 d2 cc bd a1 59 1e be a5 47 68 bd
       0.17927282 -0.10001041 -0.15463878 -0.05670895
000130 97 2a 6f 3d d7 51 f6 bd 4b ad ea bd ea 94 2c 3e
       0.058390226 -0.120273285 -0.11458834 0.16853681
000140 a7 44 2d bd 23 23 26 be e6 f2 01 be dc 8e 97 3d
       -0.0423018 -0.16224341 -0.12690315 0.07400295
000150 31 15 97 bc 62 17 20 be 19 9a ec 3d f4 9d 7b bd
       -0.018442722 -0.1563392 0.11552829 -0.061429933
000160 f8 3a cb 3c 65 d5 0d be f2 7d f3 bc aa c2 e4 bd
       0.024808392 -0.13850935 -0.029723141 -0.11169942
000170 6b a9 4b 3e 67 0d 33 be 52 3d c6 3c eb cf 5c 3d
       0.19888847 -0.17485581 0.024199162 0.053909224
000180 aa bd 9f bb cc 73 10 3e d0 2e 16 3e c9 27 b9 bd
       -0.0048749046 0.14106673 0.14666295 -0.090407915
000190 fd 07 22 3e 5a 38 9f 3d 30 e0 1f 3e dd 97 16 be
       0.1582336 0.0777442 0.15612864 -0.14706369
0001a0 42 07 a8 3d 95 e1 2c 3c b4 45 68 be 39 33 84 3d
       0.08204509 0.01055183 -0.2268284 0.064550824
0001b0 90 4a 47 be 00 4c fa 3d 9e f3 22 be c1 0e a4 3d
       -0.19462037 0.12221527 -0.15913245 0.080106266
0001c0 13 58 d2 3c 4b 1d 2e 3d 73 e3 2f bc 57 ef 36 3e
       0.025676763 0.042508405 -0.01073538 0.17864738
0001d0 a2 7f cb bd 01 d6 e2 3d de 52 11 be 7c 55 1e bc
       -0.099364534 0.11075974 -0.14191768 -0.009663936
0001e0 d3 47 37 3e 52 0e 5f 3c 0c c1 ab bd 09 4c f7 3b
       0.17898493 0.013614254 -0.0838643 0.007546906
0001f0 b8 4a 46 3c 78 60 91 3d 9a db 4d 3d 4e 08 b4 3c
       0.012102775 0.07098478 0.050258256 0.021976616

actor.2.weight f4 [128, 128]
000000 78 9d 86 bd 54 5c b5 bd e4 8b e3 3c 66 c1 b3 bc
       -0.065730035 -0.08855501 0.027776666 -0.021942805
000010 f4 b2 46 3d 12 8d b1 bd d1 b9 56 bd c3 d0 4d 3d
       0.048510507 -0.08669485 -0.052423302 0.05024792
000020 26 82 e8 3c fe 2c 8b 3d e6 52 35 bd 18 8c f0 3b
       0.028382372 0.06795691 -0.04426851 0.007340919
000030 40 9d 26 3d 84 32 10 3d db eb 9c 3d 8f d9 51 bd
       0.04067731 0.035204425 0.07662173 -0.05123287
000040 6b b3 b2 3d e7 fb a3 bd fb 71 b5 3c 24 63 84 3d
       0.087256275 -0.08007031 0.022149077 0.06464222
000050 e9 93 2c 3d b4 2e 29 bc cd 4f 36 3d d1 dc b4 3c
       0.042133246 -0.010326076 0.044509698 0.02207795
000060 39 31 17 3d 14 54 fc bb ad b9 01 3d e8 df 39 3b
       0.036912177 -0.0077004526 0.031671215 0.0028362218
000070 19 76 10 bd 46 73 65 3d 14 24 02 3c d1 a7 c1 3c
       -0.035268877 0.056018136 0.007943172 0.023639591
000080 6f 6f 49 bd df 3e 52 3c 6f 0b a4 3d a6 04 38 bd
       -0.049178537 0.012832372 0.08009993 -0.044926308
000090 93 1d 33 3d 44 4b 89 bd 9b 5f 71 bd 62 6c 45 bd
       0.043729376 -0.06703809 -0.058929067 -0.048199065
0000a0 ef b5 a2 3d ed 69 a3 bb 19 c3 72 3d 4d 1f 83 3d
       0.07944857 -0.0049869926 0.05926809 0.064024545
0000b0 89 8f 8c 3d 43 e6 a8 3d a8 f9 21 3b 01 dc a2 3d
       0.06863315 0.08247044 0.0024715457 0.07952119
0000c0 42 b3 aa 3b d1 d2 4d 3c d8 49 89 bd 56 cd 0d bc
       0.0052093575 0.01256247 -0.06703538 -0.008654913
0000d0 cf 6f a2 3d 9b 97 e7 bc d1 10 60 3c 11 9d 3a 3d
       0.07931482 -0.028270533 0.013675884 0.045559946
0000e0 75 72 9d 3d 1c 6a 71 bc 54 c9 27 3d 2a 5f e3 bc
       0.076878466 -0.014734771 0.040963486 -0.027755339
0000f0 b2 02 45 bd 34 6c ab 3d a2 25 c3 3c 36 d0 5c bc
       -0.048098274 0.083702475 0.023821656 -0.013477376
000100 b7 8f 93 bd fd 0f 87 3d 2d f4 9b bb 20 b1 10 bd
       -0.07205146 0.065948464 -0.0047593326 -0.03532517
000110 28 63 0d bb ff b4 69 bd bf 27 58 bd 4c e0 76 bd
       -0.0021573994 -0.057057377 -0.05277228 -0.0602725
000120 6b 30 04 bd 2d 94 8e 3c c5 db ba 3a d7 f5 9e bc
       -0.032272737 0.01740464 0.001425617 -0.019404335
000130 16 b5 62 bd 67 62 03 bc e8 56 a8 bd 2e f4 81 3d
       -0.05534848 -0.008019066 -0.08219701 0.06345402
000140 da ad 45 bd 86 df 38 3d 98 24 42 bb 44 cf af 3d
       -0.0482615 0.045135044 -0.0029623862 0.08584455
000150 28 b3 a9 3d d3 b6 83 3d 2d b4 db bb c1 4f 7a bb
       0.082861245 0.06431355 -0.0067048282 -0.003819451
000160 9d ae 30 3c 1e 9c 8b bc 51 bc 76 bd 9f 6e 44 3d
       0.010783819 -0.017042216 -0.060238186 0.04795706
000170 0c b4 9d 3c c2 59 84 3d 61 dc 0a 3d 50 31 49 3d
       0.019250892 0.064624324 0.033901576 0.049119294
000180 f3 32 39 bc b4 98 c1 bc 3b de 75 bd 08 d7 b6 bb
       -0.011303651 -0.023632385 -0.06002639 -0.005579833
000190 fa b0 03 bd 5d d0 95 bc c8 bb 83 3d 80 8a 88 3c
       -0.0321512 -0.018287832 0.06432301 0.016667604
0001a0 8e 02 a8 bd a0 c3 8d 3d 1c 03 9d bc 6d fa 15 3d
       -0.08203612 0.06922078 -0.019166522 0.036615778
0001b0 54 54 d0 bc d1 f0 5a bd 1e 5d 8e 3d 37 e5 ae bd
       -0.025430836 -0.053452317 0.069513544 -0.08539813
0001c0 6d 5d 9c 3d 78 97 64 3d ca 8d 19 bd f0 2d 0d 3d
       0.07635007 0.055808514 -0.037488736 0.034467638
0001d0 23 8c 89 3c 32 b7 93 bd ad 21 b6 bc e3 d5 3a 3d
       0.016790455 -0.07212676 -0.022232855 0.045614135
0001e0 9d 36 40 3d 63 3d 35 bd e2 47 c4 bc 8e 2a 91 3d
       0.046927083 -0.044247996 -0.023960058 0.07088195
0001f0 98 97 a5 bd 3a 15 41 bd d2 49 b3 bd 79 39 b1 bd
       -0.08085555 -0.047139384 -0.087543145 -0.0865354
000200 e4 43 a0 bd a7 78 34 bd dc b4 b2 3d 06 66 a0 3d
       -0.07825449 -0.044060376 0.087259024 0.078319594
000210 1a ce b4 3d 29 c1 d1 3c 64 fe 56 ba e9 97 e1 3c
       0.08828373 0.025604801 -0.00082013593 0.027538257
000220 a0 ad ae 3d e4 8d 66 3d bc d9 2b 3d af ae 5c bd
       0.0852921 0.05628766 0.041955695 -0.05387753
000230 9e 34 42 bd 15 48 53 3c 74 40 b2 bd bd 5e e1 3c
       -0.04741346 0.012895604 -0.087037 0.027510995
000240 82 1f b3 bd c2 ba 97 bc 4d e0 a8 bd 03 66 9b 3d
       -0.08746244 -0.01852167 -0.08245907 0.075878166
000250 c3 98 c1 3d 53 f9 12 bc 2e 20 ec 3c e7 72 a3 3c
       0.09452965 -0.008970576 0.028823938 0.01995225
000260 51 97 95 bc 72 c3 ad bd 73 86 71 3d b7 31 5b bb
       -0.01826063 -0.08484544 0.05896611 -0.003344638
000270 de dd 85 3d 1e 26 97 bd f7 ba 93 bd 2b f9 b4 bc
       0.065364584 -0.07380317 -0.07213395 -0.022091469
000280 1b 6f b8 3c 50 cd 45 bd d4 86 bb 3d 7b 50 73 bb
       0.022513917 -0.048291504 0.09156576 -0.0037126828
000290 d3 50 c3 3b c5 e2 a4 bd 61 f5 09 3d e7 29 8e 3d
       0.0059605627 -0.08051065 0.033681277 0.06941586
0002a0 63 bf 98 3c bf 82 7b bd ba 9f 1e 3c 46 4b a9 3d
       0.018645948 -0.061403986 0.0096816365 0.082663104
0002b0 c6 a9 27 3d 0f dc 5c bd 6f 53 b8 3d f2 ae 86 bd
       0.040933393 -0.0539208 0.09000289 -0.06576337
0002c0 e4 8c 38 bb 4d d9 95 3d 3f f7 3e 3d 4b 52 b0 bd
       -0.002816015 0.073168375 0.04662251 -0.08609446
0002d0 4f 80 d8 bc 63 22 8c bd 5b 3d 8c bd 5f c4 c8 bb
       -0.02642837 -0.06842496 -0.0684764 -0.006126925
0002e0 7e 3a af bc 73 6f 28 3d be 6c 01 bd 60 81 35 bd
       -0.021390196 0.04112191 -0.031597845 -0.044312835
0002f0 5d 3e 97 bc 40 2d 42 3d 2f 32 a8 3d c0 58 9c bd
       -0.018462354 0.047406435 0.08212697 -0.07634115
000300 5c c4 d8 bc 58 2d b9 bc a7 1b ae 3d 5e 6f 55 3d
       -0.026460819 -0.02260463 0.08501368 0.05210816
000310 11 ed 5b bd bc 18 1f bd 39 bc 9d bc 3f b2 a3 bc
       -0.05369288 -0.038841948 -0.01925479 -0.019982455
000320 67 bd 3a 3d 38 00 23 bc 0f ed 8f bd 97 aa 46 bc
       0.045590784 -0.009948783 -0.07027637 -0.012125633
000330 6c 25 1c 3d 78 60 b0 3b a3 2d 34 3d 12 56 87 bd
       0.038121626 0.0053825937 0.043988835 -0.066082135
000340 fb 06 e0 bc 6b 16 28 bd 0b 62 0a 3c 20 c0 63 3d
       -0.027347079 -0.041037004 0.008446227 0.055603147
000350 fe 42 6a 3c 09 fa 1e 3d 3b 83 e3 bc d4 52 12 bb
       0.014298199 0.03881267 -0.027772537 -0.0022327201
000360 0c 45 bb 3b 7f d8 30 3c 8d 90 14 3d 35 5d 2f 3d
       0.005715018 0.010793804 0.036270667 0.0428135
000370 cc 87 fd 3c 39 3e 5f bd 31 a9 6c 3d a8 3d a1 3d
       0.030948542 -0.0545027 0.05777854 0.07873088
000380 69 1e a2 bd 05 10 25 bd 2c e7 36 3d ce 45 81 3d
       -0.079159565 -0.04029848 0.044654056 0.06312142
000390 80 cf 84 bd 6f fd 0b bd c2 c1 ae bd 11 db c5 3a
       -0.0648489 -0.03417724 -0.0853305 0.0015095194
0003a0 02 48 17 3c 6c 82 45 3d 67 df c4 bc 42 15 41 3d
       0.009233477 0.048220083 -0.024032308 0.047139414
0003b0 f1 b1 6a bd 56 92 a2 3d 67 37 a6 bd 6e 9b aa bd
       -0.057298604 0.079380676 -0.08116036 -0.08330427
0003c0 71 f9 a1 3d 95 3d 44 3d 64 b5 80 3d c7 39 8d bd
       0.07908905 0.04791029 0.062845975 -0.06895786
0003d0 9f b3 53 3d de 8e 56 3d 80 e6 12 3d cb 43 54 3d
       0.051684972 0.052382343 0.035864353 0.051822465
0003e0 86 b2 6a 3d 7d 3e 6a bd e4 72 58 3d 59 87 de bc
       0.05729916 -0.0571885 0.052843943 -0.027164148
0003f0 d6 f0 af bd e2 30 b8 3d 86 da 88 bd ad d5 2f bd
       -0.08590858 0.08993699 -0.06682305 -0.042928386

actor.2.bias f4 [128]
000000 ca 1f 80 3d 79 c2 21 bd 0d ae 6b bc fe 38 df bc
       0.06256063 -0.039492104 -0.014384759 -0.027248856
000010 eb e1 eb 3b 9a 3d 12 bb b0 09 ed 3c 8d 0a d3 3b
       0.0071985624 -0.002231455 0.028935283 0.0064404667
000020 93 d0 9e bd 1d e1 24 bc 76 c1 ff bc 6d 1b 9b bc
       -0.07754626 -0.010063437 -0.031220179 -0.018933976
000030 51 a5 2a 3d 78 0a 1e 3d d5 1a 82 bd 26 7a 7c 3c
       0.041661564 0.038584203 -0.06352774 0.015409982
000040 a8 92 23 3d 70 9a 73 bd f9 5e 20 3d 33 e8 4b 3d
       0.039934784 -0.059473455 0.039153073 0.04978199
000050 df 1f 4a bc cd 2d a1 bd e7 64 b3 bd 6a b3 90 3c
       -0.0123367 -0.07870064 -0.0875948 0.017663676
000060 ec 2a 80 3d 99 5c eb bd 66 dd f2 bc ee a9 99 bd
       0.06258187 -0.11492271 -0.029646587 -0.07503115
000070 13 2c 26 3d 4c 97 82 bc a2 4c b2 bb ad f8 d6 3d
       0.040569376 -0.015941285 -0.0054412642 0.1049665
000080 f1 e8 f2 bc 19 9a e3 3c 85 b0 86 3c a4 1c 8d 3b
       -0.02965209 0.02778344 0.016441593 0.0043063927
000090 ca 7d b3 b9 b4 bc 85 3c 7e d1 31 bd 9d 20 84 3c
       -0.0003423526 0.016325332 -0.043412678 0.016128832
0000a0 48 f9 40 3d 61 f5 09 bd 35 2b ce 3d 57 d4 84 3d
       0.047112733 -0.033681277 0.10066835 0.06485813
0000b0 81 e0 01 3d 7f 33 b5 bd cb 37 08 3c 54 2f 77 bd
       0.031708244 -0.08847713 0.008314083 -0.06034787
0000c0 52 3d 88 bd 23 61 c2 bc 0f 0a 10 3e 77 d2 34 bd
       -0.06652321 -0.023727959 0.14066337 -0.044146027
0000d0 aa e5 09 bd ad 9e 55 3d 04 cc b1 3d 79 9f 29 bd
       -0.03366629 0.05215328 0.08681491 -0.04141185
0000e0 26 4d 45 3d a1 54 52 3c 1b cf 39 3d 04 1c 6b bd
       0.048169278 0.01283756 0.045363527 -0.057399765
0000f0 e8 76 d8 bd 59 3c 8f 3d f6 a2 a9 3d 2f b6 bf 3d
       -0.105695546 0.06993932 0.082830355 0.09360921
000100 7a 75 ba bd e7 84 b2 bd f3 11 82 3d 6f 2e 9f bd
       -0.09104438 -0.08716755 0.0635108 -0.077725284
000110 cd bd 60 3d d6 33 f3 bc b7 45 d6 3a e0 5f d1 3c
       0.054868508 -0.029687803 0.0016347681 0.025558412
000120 e9 9d 91 3d 4e e3 dc 3b 47 96 a2 3d 90 7f 1a bc
       0.07110197 0.006740964 0.079388194 -0.009429827
000130 37 b1 6b 3b e8 51 18 3b ec af 21 bd 78 0b 5a 3d
       0.0035963783 0.002324218 -0.039474413 0.053233594
000140 52 bf d0 3d 7e af 2a 3d 38 bf 45 3d 9f 4a b1 3c
       0.101927415 0.04167127 0.048278064 0.021642027
000150 ca 1e 88 3d 75 44 d2 3c 82 59 fc bd a1 0b 0b bd
       0.066464975 0.025667408 -0.1232176 -0.033946637
000160 69 0c 6d bd 50 03 18 3d 51 6b fc 3c bc 9e 31 3d
       -0.057873163 0.037112534 0.030812891 0.04336427
000170 0f c3 be bc 59 89 a9 bc bc 5e 1d bc 8c 97 2b 3d
       -0.02328637 -0.020695375 -0.009605106 0.041892573
000180 fa da 06 3d f1 1a 92 bd bd 21 b5 3d 22 ba 61 3c
       0.032923676 -0.07134045 0.08844326 0.013777288
000190 01 3b 28 3d b1 b9 4d bd bc 8e 04 3d 81 d4 02 bd
       0.041071896 -0.050225917 0.032362685 -0.03194094
0001a0 9b be 1b 3d 16 da dd bb 3a cc 99 bc 72 46 d2 3d
       0.038023572 -0.0067703826 -0.01877414 0.102673426
0001b0 39 c3 8a bd 03 06 32 39 2f a5 1a bd 83 c0 92 3d
       -0.06775517 0.00016977642 -0.037755188 0.07165625
0001c0 b9 8a 0b bd d8 a3 ce 3d 79 ec a9 3c 9c f6 b7 bd
       -0.034067843 0.100898445 0.020742642 -0.08982584
0001d0 f4 bd f9 3d 6c 3f f1 3c bc 80 83 bd 7f 5d e7 bc
       0.12194434 0.029449187 -0.064210385 -0.028242825
0001e0 7f 94 9d 3c f5 5a b9 3d 59 4a 9b 3c 7d cf 6b 3d
       0.019235848 0.09050552 0.01895635 0.057570923
0001f0 dc 2a 31 bd 7c 08 e1 3c 7d 9c 5e bd ab 1c 83 3c
       -0.043253765 0.027469866 -0.054348458 0.01600488

actor.4.weight f4 [128, 128]
000000 c3 28 0a bd 49 4e c2 bc 1d bd 54 3c eb 1f 44 3d
       -0.03373028 -0.02371897 0.012984541 0.047882
000010 48 a2 4c 3d 2c ea 25 bc c8 c6 cd bb a9 91 c9 3d
       0.04995945 -0.010126632 -0.0062798 0.098422356
000020 ee 83 84 bd da 41 99 bd 70 c7 93 3c 2a d9 c0 bc
       -0.06470476 -0.07483263 0.018039435 -0.023541052
000030 68 4b 9e 3d f2 30 5d bc c5 6a a9 bd 93 65 bd bc
       0.07729226 -0.013500439 -0.08272318 -0.023119723
000040 66 d6 4e 3c 32 35 15 bd 8d 94 1e bd e4 1a af bd
       0.012624359 -0.036427684 -0.038715888 -0.08550051
000050 a8 9f 2f bd 27 0e 88 3d dc e1 92 bd 7b 42 41 bd
       -0.04287687 0.06643324 -0.071719855 -0.04718254
000060 c8 6c 4e bd 37 e0 28 3d 9f a1 8e bc 9c 42 99 bd
       -0.05039671 0.041229453 -0.017411051 -0.07483408
000070 04 45 ac bc 18 2a 78 3d 71 a2 8c bc c3 e7 83 bd
       -0.021029003 0.06058702 -0.017167302 -0.064406894
000080 45 c6 6f bc 06 d5 9a bd a8 51 85 3d a2 60 ad bc
       -0.0146346735 -0.07560162 0.06509715 -0.021164242
000090 dc 64 56 3c e8 23 4a bd bb 8d b2 3c 10 85 eb 3c
       0.01308557 -0.04935065 0.021796098 0.028749973
0000a0 79 bc a3 3d fd 58 97 bd 27 d6 1b 3d 14 62 57 37
       0.07994933 -0.0739002 0.03804603 1.2837834e-05
0000b0 ba 8a b8 bc e4 8f f9 3c cc 74 fd bb 03 3f a9 3c
       -0.022527087 0.03046412 -0.0077348705 0.02065993
0000c0 a1 55 08 bc 9d fe a6 bd 9e 6f ef bc 1f 00 5f 3d
       -0.008321197 -0.081540324 -0.029228028 0.054443475
0000d0 37 ef 00 bd ab b8 8f 3c c9 f0 ef bc 47 79 bf b9
       -0.031478133 0.017544111 -0.02928962 -0.00036520718
0000e0 97 82 82 3d 2f 0c a6 bd cf 7e 7a 3d fa b5 61 bd
       0.06372564 -0.081077926 0.06115609 -0.055105187
0000f0 46 b5 4a bb 46 68 af 3d e2 13 da 3c 76 f7 09 bd
       -0.0030930801 0.085648105 0.026620809 -0.033683263
000100 34 20 a6 bd 4e 88 8c 3d 3d 45 18 3d 56 d1 ef bc
       -0.08111611 0.068619356 0.037175406 -0.029274624
000110 42 2e df 3b cb e0 a2 3d 91 b9 50 bd a8 83 d2 ba
       0.0068109343 0.07953032 -0.05095822 -0.0016060965
000120 46 2a 0c bc bb 5a 84 bd 02 54 8e 3d df bd 0e 3d
       -0.008555001 -0.06462618 0.06949617 0.034849044
000130 4d 1d 50 3d 02 b9 24 3d 53 31 08 bd dd 47 f8 3c
       0.050809193 0.0402155 -0.033250164 0.030307705
000140 46 81 e7 bc 3b e9 90 bd 97 13 10 bd 0b a4 16 3d
       -0.028259885 -0.07075735 -0.035174932 0.036777537
000150 2b 51 44 bd f5 c3 f2 bc 69 c4 ac 3b 4b 51 58 3d
       -0.04792897 -0.029634455 0.0052724374 0.052811902
000160 f4 e5 82 3d 96 4d 2c bc e6 6a 1e 3d a1 38 53 bd
       0.06391516 -0.010516545 0.038676165 -0.051567677
000170 bf 28 f3 3c f1 9a 69 3d d9 bb be 3c df 28 83 bd
       0.029682515 0.05703253 0.023282932 -0.0640428
000180 00 c5 83 bd 34 02 85 3d f4 b9 fe bc 47 f5 35 3d
       -0.06434059 0.06494561 -0.031094529 0.044423368
000190 9c 26 8d bd 30 4d 85 bb e2 db a7 bc be f5 ab bc
       -0.0689213 -0.0040680394 -0.02049059 -0.020991202
0001a0 db 04 00 bd 50 cd bc 3c 99 3f 9d 3d ed 62 cb bb
       -0.03125463 0.02304712 0.07678146 -0.006206861
0001b0 9e 3f 59 bd 9a fd 49 bc e6 09 54 3d 00 a6 4d 3c
       -0.053039186 -0.01232853 0.051767252 0.0125517845
0001c0 02 30 29 bd c0 71 24 bc 9f e8 a7 bd d9 ca 26 3d
       -0.04130555 -0.010036886 -0.08198666 0.040720794
0001d0 40 30 55 3d 4c 4d fd 3c 26 b9 fb 3c 69 22 53 bd
       0.052047968 0.030920647 0.030727934 -0.051546488
0001e0 0d 3a 5e bb e4 94 bd bd 81 47 13 3c 5a 37 20 bc
       -0.0033909113 -0.09256914 0.008989216 -0.009778822
0001f0 95 1a b8 3c 70 ab 70 3b df 81 70 3c af 09 e2 bc
       0.022473613 0.0036723278 0.014679401 -0.027592508
000200 4f 21 80 bd 92 68 92 3d 2a 45 d3 3c 39 af 40 bd
       -0.06256353 0.071488515 0.025789816 -0.047042105
000210 d3 de 92 3d c0 a4 50 3d 7c cf 3f 3d f4 7d f9 bc
       0.071714066 0.050938368 0.046828732 -0.030455567
000220 0d be 45 bd fa af 05 3d 21 11 7e bd 76 7d 0d bd
       -0.04827695 0.032638527 -0.062028054 -0.034543477
000230 38 4b 64 3d 32 0b 38 3d 18 e9 ae 3d 5f e5 31 bc
       0.055735797 0.04493255 0.08540553 -0.010857909
000240 23 23 69 3c 25 7a 24 3d c0 76 f0 3c f1 90 96 bc
       0.014229569 0.04015555 0.0293535 -0.01837966
000250 d4 d8 a7 bd f5 22 5e 3d 57 e8 1d bd 5e da 54 bd
       -0.081956536 0.054232556 -0.038551655 -0.051966064
000260 1f bb 52 bd 86 50 4f 3c ee 54 00 bd 60 1f 9a bc
       -0.051447984 0.012653476 -0.031330995 -0.018813789
000270 59 be b8 3d 5b c0 82 bc be 61 46 3d df 70 9f bd
       0.09020681 -0.015960863 0.048433058 -0.077852
000280 23 05 63 3d 56 fa 78 bc 5d 7c 88 3d e2 56 0d 3d
       0.05542482 -0.0151964035 0.066643454 0.034506686
000290 82 23 84 3d ae 01 a1 3d 15 c7 34 bb 0e f8 23 3d
       0.06452085 0.078616485 -0.0027584482 0.040031485
0002a0 b1 55 07 bd a2 d2 b0 bc c4 ce 5b bd f4 0e 25 3c
       -0.033040706 -0.021584813 -0.053663984 0.010074366
0002b0 dc 35 9a 3c bb 64 17 3d b4 c8 35 bd ab 89 83 3c
       0.01882451 0.0369613 -0.04438086 0.016056856
0002c0 1b 6d 8c 3d 01 fb 51 bd 89 32 a1 3d b1 6a 21 3d
       0.06856748 -0.051264767 0.07870967 0.03940839
0002d0 7b 99 8d bd ab 41 a8 bd 6a e5 9b 3c 06 71 5a bd
       -0.0691404 -0.0821565 0.019030292 -0.053330444
0002e0 8c 6e aa 3d 42 06 61 bd a4 6a f0 3c 43 88 ae 3d
       0.083218664 -0.05493761 0.029347725 0.085220836
0002f0 66 df 67 3d 4b 7b 8b bd 29 80 83 3c d2 2f 88 3d
       0.056609534 -0.06810626 0.016052322 0.06649746
000300 25 ae aa bc f7 39 31 bd 12 37 33 bd 36 7f 3c 3d
       -0.020834992 -0.04326817 -0.04375369 0.046019755
000310 8d fa 99 bd 4a d4 81 bc 3a ec af bd a8 c7 36 3d
       -0.07518492 -0.015848298 -0.085899785 0.044624
000320 03 06 f5 3c b8 0d 23 bd 26 c8 c5 38 d7 85 8f 3d
       0.029910093 -0.039808005 9.4309726e-05 0.0700795
000330 0e 92 a1 3d ae e0 a6 bd 61 fc 83 bd 5a fd 24 bc
       0.07889186 -0.08148323 -0.06444622 -0.010070169
000340 97 c8 45 3c 3d 41 2b bd bb b3 71 3c a0 04 c0 3c
       0.01207175 -0.041810263 0.014752324 0.023439705
000350 3b ab ce bc ac d5 91 3d ff 3f d0 bb 42 57 0b bd
       -0.025228133 0.07120833 -0.006355285 -0.034018762
000360 f2 8d 9e 3d 2b 1e ea bc d6 28 78 3b 52 a3 b6 3d
       0.07741918 -0.028578838 0.0037866137 0.0891787
000370 5c 12 68 bd f6 38 aa 3c 7e ac ac 3d 2c 4d ae bd
       -0.056658134 0.020779114 0.08431338 -0.08510813
000380 67 2c 89 3d 9d ee 09 3d b6 c4 dd 3c bc 60 b5 3d
       0.06697922 0.033674825 0.027071338 0.08856341
000390 93 1f 57 bd ef 38 89 3d c9 1b 9f 3d b5 9a a3 bc
       -0.052520346 0.06700312 0.077689715 -0.019971231
0003a0 02 e5 cf ba c2 e9 af 3d f9 1f 95 3d f2 ca 38 3d
       -0.0015861096 0.08589508 0.07281489 0.04511542
0003b0 46 68 99 3c 60 a2 1e 3d 19 69 89 3c 25 2c af bd
       0.01872648 0.03872907 0.016773747 -0.08553342
0003c0 82 12 9a bd fa be c2 bc 50 ce 03 3d cc 97 8d bd
       -0.07523061 -0.023772705 0.032179177 -0.069137186
0003d0 72 0f 80 bd ce dd e7 bb a1 5b 9a bd 21 51 52 bd
       -0.06252946 -0.0070760017 -0.07537008 -0.0513469
0003e0 86 93 3d 3a 5e 71 24 bd b8 d3 06 3d 07 4b 09 bc
       0.00072317605 -0.040147178 0.032916754 -0.008379704
0003f0 42 89 45 bd 91 7d a0 3d 49 05 9b bc ec 61 92 3c
       -0.048226602 0.0783645 -0.018923419 0.017868958

actor.4.bias f4 [128]
000000 de 58 5d bc e8 e0 80 bc d6 60 e6 3c 3e 3d 69 3c
       -0.013509957 -0.015732244 0.028122347 0.014235793
000010 11 38 d5 3b fe 18 a5 3d 2a 88 3e bc f9 c8 cd 3a
       0.006506928 0.080614075 -0.011629144 0.0015700153
000020 c0 7b a9 3d b2 1d 7f bd ec 79 b5 bd 79 4b 28 3d
       0.082755566 -0.06228418 -0.088611454 0.0410876
000030 a3 4d 8d bd da f7 20 bd 30 76 c4 3d a4 eb b8 3c
       -0.06899574 -0.03929887 0.09592855 0.0225733
000040 e7 dc 53 3d 0d 45 a4 3d 4d af ce bc 7b 14 17 3d
       0.05172434 0.08020983 -0.025230074 0.036884766
000050 2e 3f 83 bd ee 52 7c 3d 6f dc ab 3c b0 b8 7c 3d
       -0.06408535 0.061602525 0.020979134 0.06169957
000060 67 07 f7 3c e0 30 c1 3c e8 9f 46 3d 37 85 4a bd
       0.030154897 0.023582876 0.048492342 -0.04944345
000070 f5 49 49 bd 95 96 b6 3d 5e c4 2b 3b 3c 32 3b 3d
       -0.049142797 0.0891544 0.0026209573 0.045702204
000080 cf 00 59 bb fa 62 b8 3d e5 19 18 3d 8a f8 56 3d
       -0.0033112054 0.09003253 0.03713407 0.05248312
000090 bb 92 78 3d ef 02 67 3d 09 ad b6 bc 86 f3 a7 bb
       0.060686808 0.056399282 -0.022299306 -0.005125466
0000a0 73 ce 80 bd 8d 8e 16 bd 2d fc a2 bd 9e 60 3e bd
       -0.06289377 -0.03675704 -0.07958255 -0.04647886
0000b0 df 09 56 bd 60 87 9c bd 5e 8a 63 3a 06 f4 88 bd
       -0.052255508 -0.07643008 0.0008679981 -0.06687169
0000c0 41 0f 6c bb ea 8e cd 3d 97 9e 2f bd 03 1e 50 3d
       -0.0036019834 0.10037024 -0.042875852 0.05080987
0000d0 f1 6f 82 3d f9 fc c4 bc da 4a b7 3c 08 79 a6 3c
       0.063690074 -0.024046408 0.02237456 0.020321384
0000e0 87 c9 47 bd 0f 9f 8f bd 10 a7 92 bc 81 5f 07 bc
       -0.048776176 -0.0701276 -0.017901927 -0.008262516
0000f0 e7 c7 38 3d 72 c3 6a bc 52 0f 0b bd e9 71 4f bd
       0.045112517 -0.014328824 -0.033950157 -0.050645743
000100 33 f6 a5 bc 81 00 1d 3c bf e1 05 3d fb cb ef 3d
       -0.020258998 0.00958264 0.03268599 0.11708828
000110 d8 fd d9 3d 48 35 aa 3d d7 a3 40 bd 52 fe 3d 3c
       0.1064412 0.08310944 -0.04703125 0.011596279
000120 e7 fc 86 3c 95 80 76 3d 51 7c d4 3a 89 32 05 bc
       0.016478015 0.06018122 0.0016211366 -0.008129724
000130 63 23 91 bc 4f 7e cf bc a0 ee 8c 3d c9 71 9d bb
       -0.017717069 -0.025328783 0.068814516 -0.004804824
000140 28 ad 82 bd a3 90 5f bd c7 7e 89 3d be dd 1b bd
       -0.06380683 -0.054581296 0.06713634 -0.038053267
000150 96 4d 86 3c 05 f4 76 bc 18 0e 1a 3d 35 35 2f 3c
       0.016394418 -0.015072827 0.037611097 0.010693838
000160 cf 1d 00 3e 67 16 8e bd 7b c2 71 3d 55 5c 69 3d
       0.12511371 -0.06937867 0.05902336 0.05697282
000170 c3 94 0c 3d 54 6c 30 bd bd 8f 8b bd f4 ac db 3c
       0.034321558 -0.04307206 -0.06814525 0.026815869
000180 bf ab 55 bd 87 b7 85 bd 9d 50 85 bb 9e 0b 1c 3d
       -0.052165743 -0.06529146 -0.0040684477 0.038097017
000190 ff 55 c6 bb 5c ac 24 bd 29 98 c5 bd 29 7b 48 3d
       -0.006052732 -0.040203437 -0.09648163 0.04894558
0001a0 f0 80 8e bd 79 c4 00 3d 72 60 97 bd ac 16 c4 3d
       -0.069581866 0.03143737 -0.07391442 0.09574637
0001b0 85 2f 21 3d aa 96 d3 3b 2a ff 2b 3d 22 ea 68 bd
       0.03935196 0.0064571695 0.04199139 -0.05686391
0001c0 3a ac 43 bd e8 e7 aa bd 5f b4 f3 3d 4d 78 50 3d
       -0.04777167 -0.08345014 0.118996374 0.050895978
0001d0 32 33 83 bd 8a fd dc bd 13 be 7e bd e5 f5 61 3d
       -0.06406249 -0.10790546 -0.062192988 0.055166144
0001e0 6e f5 84 3d 83 fd 0d 3d b9 bf cd 3d 7f e1 82 3d
       0.064921245 0.034665596 0.10046334 0.06390666
0001f0 20 e8 85 3d 85 c8 1b 3c 5d 70 b0 bd a2 9c 51 3d
       0.06538415 0.009508257 -0.086151816 0.051174767

actor.6.weight f4 [8, 128]
000000 e8 78 97 3d b9 b5 6a 3d e8 98 fc ba 0e 87 aa 3d
       0.07396108 0.05730221 -0.0019271644 0.08326541
000010 98 7b 02 3b f1 88 8e bd a5 5f 9c 3d ad ee 01 bc
       0.0019910093 -0.06959713 0.0763543 -0.00793044
000020 43 74 a8 bd b4 04 b5 bd 2a 1e 35 bd 77 49 64 3d
       -0.082253 -0.08838788 -0.04421822 0.055734124
000030 e2 83 00 bd f0 af a5 bd 27 1d 38 bd 37 62 5a bd
       -0.031375773 -0.08090198 -0.044949677 -0.05331632
000040 61 c6 6c bd 2b 7a a4 bd 4c c2 73 bd 56 e8 22 bd
       -0.057806376 -0.08031114 -0.059511468 -0.039772354
000050 b9 a1 61 3d 53 ef 0c 3d a8 79 92 bd f8 41 7b 3c
       0.05508587 0.034407925 -0.0715211 0.015335552
000060 57 43 5b 3d 16 4b a5 bd fc 51 66 bc 79 fb c1 3c
       0.053531017 -0.08070962 -0.014057633 0.023679482
000070 ca 83 ac bd 14 b2 cf 3c 64 b0 92 bd 4f 58 fe 3c
       -0.08423574 0.025353469 -0.0716255 0.031047968
000080 96 16 ec 3c ed b6 b0 3d 8c ba 9f 3d ae f5 1a bd
       0.028819364 0.0862864 0.07799253 -0.037831955
000090 bc b8 3c bd a1 76 26 3d d6 8e 74 bd e6 25 c9 bb
       -0.046074614 0.040640477 -0.05970653 -0.006138551
0000a0 6f 74 9e 3c 29 6c 77 bb b4 8d 81 bd 82 0e 8f bb
       0.01934263 -0.0037753677 -0.06325856 -0.004365743
0000b0 cb 8a 26 bd 57 d1 dd bc a4 7c 24 3d 89 e7 5a bd
       -0.040659707 -0.02707736 0.04015793 -0.053443465
0000c0 15 8a 2b ba cc b6 72 ba 48 4f e7 bb 5b f9 ae 3d
       -0.0006543708 -0.0009258806 -0.0070590116 0.085436545
0000d0 71 cf 1e bd 55 67 1e bd 3f e3 74 3d 03 b7 8d bd
       -0.03877205 -0.038672764 0.05978703 -0.06919672
0000e0 9b 19 89 ba d5 d7 99 bd 12 53 46 3d 32 fd 00 3d
       -0.0010459902 -0.0751187 0.048419066 0.031491466
0000f0 66 b2 64 3c 74 a6 d0 3c f3 af b3 3d 3c 22 ef 3c
       0.013958549 0.025469996 0.08773794 0.029191129
000100 41 79 60 bd 8d 43 a0 3d b1 28 18 bd 1a 59 3e bd
       -0.054803137 0.07825384 -0.03714818 -0.046471693
000110 32 cf 82 bd 65 f8 48 bc 8c 51 a7 3d b0 58 60 bd
       -0.063871756 -0.012266253 0.08169851 -0.05477208
000120 6d ac ee b9 bb cd a4 3d 68 8a b7 bc 9c be 4c bd
       -0.00045523365 0.080470525 -0.022404864 -0.049986467
000130 6c 53 37 3b d7 eb cd 3c 2c 95 00 bd d6 60 e0 bc
       0.0027973307 0.025136871 -0.03139226 -0.027389925
000140 67 52 4f bb b1 90 3c 3c 5b 51 85 3d ba c5 63 3c
       -0.003163481 0.0115091065 0.06509658 0.013902122
000150 9d 57 af bd 80 1d 39 bd 20 90 60 3d ce e5 60 3d
       -0.08561633 -0.04519415 0.05482495 0.05490666
000160 dd 6f 93 bd 5c 84 73 3d f6 d5 67 3d c2 42 48 bd
       -0.071990706 0.0594524 0.056600533 -0.04889179
000170 1d ad 7c bd b0 d5 03 3d 4b b1 53 3c 67 eb d2 3c
       -0.06168853 0.03218621 0.012920688 0.025747014
000180 21 c7 c2 3b ed 6e 01 3d 23 8e a3 bd 9d 85 c2 3c
       0.005944148 0.031599928 -0.07986095 0.023745352
000190 6d 02 eb 3c e5 3f 44 3b a2 19 03 3d 16 02 ae bd
       0.02868768 0.002994531 0.032006867 -0.084964916
0001a0 01 8c 5b 3d e2 4a 42 bc 16 cf bc bb 23 88 5d bd
       0.053600315 -0.011858674 -0.0057619913 -0.05408491
0001b0 34 ec ac ba 3e c8 7c 3b e2 87 9f bd f6 cf 37 3d
       -0.0013192953 0.0038571502 -0.077895895 0.04487606
0001c0 d7 f7 c0 3c 03 3b a6 3d c9 b9 9e 3c 7d 61 80 3d
       0.02355568 0.08116724 0.019375699 0.062685944
0001d0 05 f2 86 3d 54 c2 83 3d 2d a3 18 3c db 74 7f 3d
       0.0658913 0.064335495 0.009316248 0.0623673
0001e0 f0 e6 b5 bd c6 14 ec 3c cc be 38 bd e5 14 42 bc
       -0.088819385 0.0288185 -0.045103833 -0.011845802
0001f0 be 53 b6 3d ef ef 9f bd e4 93 84 3d e3 44 a5 bd
       0.08902691 -0.078094356 0.064735204 -0.0806978
000200 1a 5f 10 bd 9f b5 a7 bd df fd af 3d fc ab 91 3d
       -0.035246946 -0.08188938 0.08593344 0.071128815
000210 57 96 9e bd 80 07 69 bd 39 41 a2 3d ff a4 ae bc
       -0.07743519 -0.05689192 0.079225965 -0.02131891
000220 5f b5 99 3d 48 5c 16 3c fd e7 8a bd f5 7e 2d bd
       0.07505297 0.009177275 -0.067825295 -0.042357404
000230 87 b5 81 bd ad 76 66 3d 98 69 f2 bc c8 20 1c 3d
       -0.06333452 0.05626552 -0.029591367 0.0381172
000240 79 93 4d 3d a7 37 a3 bc 72 a7 80 bc 52 6d a2 bd
       0.05018947 -0.019923998 -0.015704844 -0.079310074
000250 ec 17 f2 bb 8c 25 93 bd e8 39 ed bc c3 81 a7 3c
       -0.0073881056 -0.07184896 -0.028958276 0.020447617
000260 67 20 53 bd 8e d0 a3 bd d6 bc 7a bd 40 1a cf bb
       -0.051544573 -0.07998763 -0.061215244 -0.006320268
000270 68 e4 d1 3b 90 c1 85 bd f1 62 6b 3d 01 d0 bd 3d
       0.006405402 -0.0653106 0.057467405 0.09268189
000280 fc 47 99 bd 1a 6e 26 bd 14 1e b7 bd a8 3e a3 3d
       -0.07484433 -0.040632345 -0.08941284 0.07970935
000290 40 c9 95 bb 5e 4b 58 bd 28 75 8f bd c7 4e 22 39
       -0.00457111 -0.05280625 -0.07004768 0.00015478871
0002a0 b3 29 43 3c 01 d0 86 bd 61 ac ad 3d 76 ef 3d 3d
       0.011911797 -0.06582642 0.08480144 0.046370946
0002b0 e7 ee ad 3b 7c 30 91 bd 0b 8d 82 3d 62 0b 26 bd
       0.0053080204 -0.07089326 0.06374558 -0.0405382
0002c0 99 ef 49 3d 6d c2 ec 3c 5d 51 bf bc c3 f4 65 3d
       0.049300764 0.028901303 -0.023354227 0.056141626
0002d0 4f da 75 3d 68 92 da bc dc ef b3 3d 4f cc 6d bd
       0.06002265 -0.02668114 0.08785984 -0.058056172
0002e0 27 ca 82 3c 84 2f 96 bd 55 1d 4f 3c 9f 22 e8 bc
       0.015965534 -0.07333282 0.012641271 -0.028336821
0002f0 3e dd bd 3d 75 fb 5e 3d de 58 83 3d a9 6c 9e bd
       0.09270714 0.054439027 0.064134344 -0.07735569
000300 19 c4 9d 3d 3d 67 02 3d 4b fb 41 bc 92 0e 03 3d
       0.07703418 0.031836737 -0.011839698 0.031996317
000310 44 10 22 3d 81 c6 1a bd ea 20 81 3d db e7 86 bd
       0.039566293 -0.037786964 0.06305106 -0.06587192
000320 5a 71 f8 3b 31 03 a9 3d fc e5 d4 bc 6c f3 51 bd
       0.007581872 0.08252562 -0.025988571 -0.051257536
000330 1a 7e 3f 3d 5d 85 56 3d 6e 44 97 bd 89 b2 a4 bc
       0.04675112 0.05237328 -0.07386099 -0.020104663
000340 69 d3 6e 3d 14 1d 88 3d 21 ee 14 3c 1e 02 1f 3d
       0.058307085 0.06646171 0.0090899775 0.03882038
000350 4e c2 26 bd 93 95 87 3d 93 c9 9c bd 34 b5 79 bd
       -0.040712647 0.06620326 -0.07655635 -0.060963824
000360 b7 60 2a bd 93 9e f3 3c 73 73 eb bc ce 6c 44 3d
       -0.04159614 0.0297387 -0.028741574 0.047955327
000370 ea 1f a1 3d 75 65 1f 3d 61 df 2a bd 65 21 b9 3d
       0.07867415 0.038915116 -0.041716937 0.090395726
000380 62 1d 48 bc 81 d9 35 3d b1 7c a8 3d 89 87 8b 3d
       -0.012214037 0.04439688 0.08226908 0.06812961
000390 15 5b 01 3d 1c 8b a8 bc b6 b3 a7 bc 3b 53 88 bd
       0.031581003 -0.020574145 -0.020471435 -0.066565
0003a0 78 20 78 bd 48 01 a1 bd 33 89 26 3d f6 74 33 3d
       -0.06057784 -0.078615725 0.040658187 0.043812715
0003b0 f5 fa 48 3c 9d 13 65 bd 00 8d 85 3b 28 09 8f bd
       0.012266864 -0.055926908 0.0040756464 -0.06984168
0003c0 c8 88 9c 3d 4e 25 0b bd c3 8a 0f bc 9b 36 0e 3d
       0.076432765 -0.033971123 -0.008761111 0.034720045
0003d0 55 9c 19 bd 5d 2e ea bc cb 99 86 3d bf 27 82 bc
       -0.037502605 -0.02858656 0.065723024 -0.015888093
0003e0 10 83 09 3d 27 b8 67 3d 12 ea 55 3d bb bb 18 bd
       0.033572257 0.056572106 0.05222518 -0.03728841
0003f0 e2 f9 0b bd f1 a3 98 3d ea f4 a8 3d b1 01 8a bd
       -0.034173854 0.07453144 0.08249839 -0.06738604

actor.6.bias f4 [8]
000000 d6 0d 89 3d 05 9a 5d bd ad 7d 3c 3c f0 73 5b 3d
       0.06692092 -0.054101963 0.011504573 0.053577363
000010 25 50 9e 3d f4 f7 3e 3d 6e 2f 5a bd 52 1f 49 bd
       0.0773013 0.046623185 -0.05326789 -0.049102135

critic.0.weight f4 [128, 31]
000000 70 1f 48 3e 89 2f b9 3d 3a 2f c5 bd b6 ed db 3c
       0.19543242 0.0904227 -0.096281484 0.026846748
000010 39 c0 c6 3c aa 30 40 3d f2 89 30 3e c0 64 aa bb
       0.02426158 0.04692141 0.17240122 -0.0051999986
000020 a6 91 a9 3d b2 61 3a 3d c6 43 bf 3d 8d 30 7c 3e
       0.08279733 0.045503326 0.09339099 0.24627896
000030 35 aa e4 bd 57 55 29 3e 19 ab 5a 3d c7 fb 72 3c
       -0.11165277 0.16536461 0.053385828 0.014830536
000040 4e 52 cf 3d a9 0b f3 bd 53 19 40 3c 2e e3 2a be
       0.1012312 -0.118674584 0.011724788 -0.16688225
000050 70 ba c5 3d 7d 6b c4 3d 59 29 df 3d f0 24 c4 3d
       0.09654701 0.09590814 0.10896558 0.09577358
000060 5b 7b 27 3e ef 01 84 3d c2 3a 9d 3d d4 3c 9c 3d
       0.1635565 0.06445681 0.07677223 0.076287895
000070 76 97 15 bd 73 8d e8 bd 13 05 bd bd 11 ef a0 3d
       -0.036521398 -0.11355104 -0.092294835 0.07858098
000080 10 4e 1b 3e 2a c5 02 3e e2 83 c9 ba c7 7d d8 3d
       0.15166497 0.12770525 -0.0015374387 0.10570865
000090 7c 56 91 3d 1e 21 c1 3d 4c e0 be bb d5 27 08 3d
       0.07096574 0.09430145 -0.005825078 0.03324111
0000a0 20 eb 0a ba 08 3e 59 be 54 f0 64 3d 4a 49 21 3e
       -0.00052993186 -0.2121507 0.055893257 0.15750614
0000b0 39 b6 e0 bd f7 8b 44 bd b8 a2 1e be 97 d0 28 3d
       -0.10972256 -0.047985043 -0.1549176 0.04121455
0000c0 9f 19 31 be 52 4c 10 be d8 50 05 be ab e8 c9 bd
       -0.1729493 -0.14091614 -0.1301912 -0.09858831
0000d0 39 03 dc 3d 13 5c 5d 3d 43 1b d5 3d ce f6 1e bd
       0.10742802 0.054042887 0.104055904 -0.03880959
0000e0 74 cc 00 3e ea c3 39 3e c5 48 db bd db e7 38 3d
       0.12577993 0.18141142 -0.10707239 0.04514299
0000f0 25 f8 9c bd 54 ca a0 3d 7a 20 6a bd d5 ff a8 bc
       -0.07664517 0.07851091 -0.05715988 -0.020629803
000100 83 ea ab 3c 4b 02 37 3e e2 ee 12 3e f1 64 cb 3d
       0.020985847 0.17871968 0.14348939 0.099313624
000110 c8 7f 3c 3e 0d 8d 2d be 94 29 c0 3b 37 0f 1c be
       0.1840812 -0.16948338 0.0058643315 -0.15240179
000120 a2 12 07 be 62 77 fd bd a6 38 f3 3d d2 ef 19 3e
       -0.13190702 -0.12376286 0.11876039 0.1503289
000130 8b 28 67 3d 7f 8d 2d bc be 4e 91 3b 9a 6f 95 3d
       0.05643515 -0.010592817 0.0044344356 0.07296677
000140 cd 2b c3 3d 22 b0 e3 3d c0 1c eb bd 0d cb 1b 3e
       0.09529839 0.11117579 -0.11480093 0.15214176
000150 bb ee 28 3e 0b f2 93 3d 96 c2 29 3e 1b 74 68 3d
       0.16497318 0.072239004 0.16578135 0.05675135
000160 18 e7 13 bd 09 3f 88 3d 6d 06 a7 3d 82 ec 35 be
       -0.03610906 0.06652648 0.081555225 -0.17766002
000170 13 7a 2e bd 14 ac 2a 3d 7c 4c d1 3d 2f d0 a0 b9
       -0.042596888 0.041668013 0.10219666 -0.00030672687
000180 f6 66 57 3d 2c 55 2c be f7 61 08 be 6e ed 83 3d
       0.052588426 -0.16829365 -0.1331862 0.064417705
000190 9d 62 4b 3d e1 24 89 3d 1d 9b 9c bd 8c c2 b3 bd
       0.04965459 0.06696487 -0.07646773 -0.08777341
0001a0 3f 6c e8 bd 13 c8 2b be 60 fa 61 bc e2 82 38 3e
       -0.11348771 -0.16775541 -0.013792604 0.18018678
0001b0 d5 8e 62 3c 26 cd 56 3d 0e 86 cf 3d 51 ec f4 bd
       0.013827999 0.05244174 0.10132991 -0.11959136
0001c0 f8 51 04 3e 2f 94 df 3d 25 be 62 bd 1c 25 22 3e
       0.12921894 0.10916936 -0.055357117 0.15834469
0001d0 44 8c 25 3e 4e ec 15 bd 09 cb f1 bd 35 99 fc bd
       0.16166788 -0.03660231 -0.11806304 -0.123339094
0001e0 1d 6b d5 b9 55 95 66 3d 87 33 9c ba ae e8 77 bd
       -0.00040706331 0.056294758 -0.0011917212 -0.060524635
0001f0 fd ba 76 bc cf 26 12 3e b8 88 f4 3d 0e 7b ec bc
       -0.01505923 0.14272617 0.119401395 -0.02886727
000200 69 98 76 3d 27 28 c1 3d 11 54 90 3d a0 5d da 3b
       0.060203943 0.094314866 0.070472844 0.006663993
000210 ea 84 b1 3d 86 06 05 be eb 2a 31 3e a5 56 12 3b
       0.086679295 -0.1299077 0.17301528 0.0022329476
000220 59 85 d6 bc d7 a3 1f be 29 51 36 3e 34 96 04 3e
       -0.026186632 -0.15589844 0.17804398 0.12947923
000230 20 1f 32 3d 43 fd 1b be 0f 17 4d bc fa 09 b1 3d
       0.043486714 -0.1523333 -0.012517705 0.08644481
000240 81 3f 0d 3e b5 c4 ee bd 52 a4 c9 bd 4d 2e e3 3d
       0.13793756 -0.11658613 -0.09845795 0.110928155
000250 91 5b 22 bd b8 6c b2 bc 3d ec 36 3e 6e 8e cc 3d
       -0.039638106 -0.021780357 0.17863555 0.09988104
000260 e1 16 99 bd 3c 12 1b 3b 60 57 1d 3c 46 70 bd bc
       -0.07475067 0.0023661992 0.009603351 -0.023124825
000270 63 f1 2f be cb 28 42 bd be 86 1b bd 07 ea c5 bd
       -0.17181925 -0.047402184 -0.037970297 -0.09663778
000280 f6 ac fc bc 11 5f 31 3e b0 57 15 be 7e a7 63 3d
       -0.030844193 0.17321421 -0.14584231 0.055579655
000290 57 af 2b 3e b8 ef 9e 3d 37 2e 6a 3e 5c 63 d9 3d
       0.16766106 0.077605665 0.22869192 0.106146544
0002a0 40 10 0f 3e 05 8e e7 bd da 23 d9 3d ae 9e e4 bb
       0.13971043 -0.11306385 0.10602541 -0.006976924
0002b0 e8 59 fd 3d 21 a7 0c bd 08 72 97 3d cf 47 26 3d
       0.12370664 -0.034339074 0.073947966 0.040595826
0002c0 14 f1 9e bd c1 03 83 3c dc b6 71 bd 1a 0d be bd
       -0.07760826 0.015993001 -0.05901228 -0.09279843
0002d0 f5 6b 5e bd 0e 74 31 be a2 f1 3c 3e d5 fa 86 bd
       -0.054302175 -0.17329428 0.1845155 -0.06590811
0002e0 a4 84 0e be 0f 7f c4 3d ed 07 94 3c 6e 8a 0a bd
       -0.13917786 0.09594547 0.018070186 -0.033823423
0002f0 91 d4 10 be 83 29 fa bc e6 f2 61 bd 1e 5f 2c bd
       -0.14143588 -0.030537372 -0.055163287 -0.0420829
000300 e3 7b 13 3d 3d 54 a9 3d 41 8b 8e 3d 53 c5 ff 3d
       0.03600682 0.0826802 0.06960154 0.124888085
000310 b9 1f f9 3d ab e4 40 3e d4 17 e5 bd 34 9f ea bd
       0.12164254 0.1883723 -0.111861855 -0.11456147
000320 23 c9 02 3e 1c 71 84 3d 38 75 b7 bd cf a8 16 3b
       0.1277204 0.064668864 -0.089579046 0.0022988801
000330 a7 42 3d 3e 7a d3 e8 bd 1f 0d 78 bd 86 d2 98 3c
       0.18482457 -0.11368461 -0.06055939 0.018655073
000340 b8 13 1d be fe ed 56 3d 47 ed 28 be cc f5 e5 bd
       -0.15339553 0.05247306 -0.16496764 -0.11228523
000350 8e a3 01 be 30 6e af ba 2b 8d ce bd e5 84 09 be
       -0.12660047 -0.0013384279 -0.100855194 -0.13429601
000360 54 31 b5 3d c0 02 08 be 70 e5 10 be f7 7c b6 bd
       0.08847299 -0.13282299 -0.14150023 -0.08910554
000370 e9 b3 46 3d 73 82 25 be 69 72 72 3d ac b7 a8 3d
       0.04851142 -0.16163044 0.05919114 0.08238158
000380 12 b8 45 3e a9 fe 2d be 32 a0 04 3d 7f e0 0d 3e
       0.19308499 -0.16991676 0.032379337 0.1385517
000390 8c e8 ee 3d 16 79 63 3d 0f e1 22 be db 26 0c bd
       0.116654485 0.0555354 -0.15906166 -0.034216743
0003a0 23 81 a3 3d c1 1c d0 3d ab c5 ac 3d a5 ed 92 bd
       0.07983615 0.10161734 0.0843614 -0.07174233
0003b0 17 7e 50 3d f5 d0 2b be 50 b4 a5 bc a0 b5 ce bc
       0.0509015 -0.1677893 -0.020227581 -0.02523309
0003c0 bf 70 4a bd cc fb f4 3d 7b e8 13 bd 75 8d 33 be
       -0.04942393 0.11962089 -0.036110383 -0.1753443
0003d0 9d 18 de 3d b3 f8 1c 3e 63 d3 02 3e de ce aa bd
       0.10844538 0.15329246 0.1277595 -0.08340238
0003e0 24 48 e5 bd 7c ab bf 3b de 0a 0b be d3 93 83 bd
       -0.111954 0.0058493 -0.13578364 -0.064246796
0003f0 61 18 be 3c 90 21 03 3e 4b 19 2d 3e 81 77 20 3e
       0.023204984 0.12805772 0.1690418 0.15670587

critic.0.bias f4 [128]
000000 e3 25 28 be 20 91 30 bc 3a a1 67 3e 90 57 1c 3e
       -0.16420703 -0.010776788 0.22620097 0.15267777
000010 ca 97 2e 3c 52 d0 23 be 02 5d 13 3e 82 59 ac 3d
       0.0106563065 -0.15997437 0.14390948 0.0841551
000020 b7 79 23 3d 81 70 83 bd 87 7e 3f bc 88 20 5a be
       0.039911 -0.06417943 -0.011687881 -0.21301472
000030 a1 63 40 bd 33 e1 85 bc 41 ca ff 3d 01 97 c1 bd
       -0.046970014 -0.016342735 0.12489749 -0.0945263
000040 95 4b 08 be 30 3d 1e be de 51 1b 3e 9a 1e a4 3d
       -0.13310082 -0.15453029 0.15167949 0.08013649
000050 da 17 54 3e 9e 6d 90 bd be 9c 22 be de 24 02 be
       0.20712224 -0.07052158 -0.15880105 -0.12709376
000060 90 a9 51 3d b9 46 80 bd e7 71 83 3d 67 c2 0a be
       0.051187098 -0.06263489 0.064182095 -0.13550721
000070 4b 46 07 be 5a 53 1f 3d 61 f1 f8 3d 0c f6 41 bd
       -0.13210408 0.03889785 0.121554144 -0.04735379
000080 05 fd f1 bc 7c 71 2f 3e 09 26 48 3e f4 19 4d be
       -0.029539594 0.17133135 0.1954576 -0.20029432
000090 80 8f 1a be f2 94 92 3d 73 78 89 bd 0f 9a 22 be
       -0.15093803 0.07157315 -0.06712427 -0.15879081
0000a0 f0 6f 89 bd 57 e2 05 3e 45 17 a4 3b f5 a9 ff bd
       -0.067108035 0.13074623 0.0050076568 -0.124835886
0000b0 93 0b 43 3e f3 de ee 3d c1 d0 a0 3d bc d5 f9 bd
       0.19047384 0.11663618 0.07852317 -0.1219897
0000c0 f9 2d 16 be 8e 5e 03 3e e3 7a af bb e9 c6 6e be
       -0.14665975 0.12829039 -0.0053552254 -0.23318066
0000d0 78 b2 b8 bd 6a 41 82 bd 0b 88 1f be 52 d8 91 bd
       -0.09018415 -0.06360133 -0.1557924 -0.07121338
0000e0 5f 99 a6 3d cd ef 0c be 21 7c ca bd a1 15 53 bd
       0.08134722 -0.13763352 -0.09886957 -0.0515343
0000f0 a1 d3 58 3d 47 9b 62 bd a3 86 a7 bd d5 b1 24 bd
       0.0529362 -0.055323865 -0.08179977 -0.040208656
000100 13 ed 91 bd 14 69 b7 bd 2b a0 c1 3d 79 c2 c1 3c
       -0.071252964 -0.08955589 0.09454378 0.023652302
000110 4e 14 c6 bd a7 29 38 3e 0a 72 98 bd fe 8e 2d 3e
       -0.096718416 0.17984639 -0.07443626 0.16949078
000120 17 a0 92 3d f9 29 1d 3e 1e a1 08 3e 3d f7 11 be
       0.07159441 0.15348043 0.13342711 -0.1425447
000130 71 1a 56 3e 5d 37 04 3d dc da b4 3d c5 01 ea 3d
       0.20908524 0.03227936 0.088308066 0.11426119
000140 bf 0e b7 3d 57 83 38 b7 2d 7d 78 3d 4c d1 11 3e
       0.089383595 -1.0997835e-05 0.060666252 0.14239997
000150 0b fb 2f be 64 21 51 3a 7c 2b 6c 3d 46 65 8f 3d
       -0.17185609 0.0007977693 0.057658657 0.07001738
000160 17 72 22 3e 3f 06 4f 3e c2 3c 11 be 87 cd 0c 3e
       0.15863834 0.20217226 -0.14183334 0.13750277
000170 e2 e0 44 bd a0 fa e5 3c 60 a0 89 bd 64 95 4c 3e
       -0.048066027 0.028073609 -0.06720042 0.19978863
000180 ff ed 76 3b 50 55 aa bd 70 54 d6 3d ff e0 39 3e
       0.0037678478 -0.08317053 0.10465324 0.18152235
000190 6f 7c 51 3e 70 30 ea bb 3f 69 9a 3d ac 48 e5 3c
       0.20457624 -0.0071468875 0.07539605 0.027988754
0001a0 d8 8e a7 3d 21 00 44 be 64 2e 4a 3e 2c e6 55 bd
       0.08181542 -0.19140674 0.19744259 -0.052221462
0001b0 66 6d 01 3e 9c aa ef bd 2e f8 cc bd a8 a3 bf 3d
       0.12639388 -0.11702463 -0.10008274 0.09357387
0001c0 0e 4c 07 3d 57 8a 26 3e 30 60 99 3d ed 57 16 3e
       0.033031516 0.1626371 0.074890494 0.14681979
0001d0 49 a6 92 3c cb 57 55 3e 84 b8 9c bd 03 da ba 3d
       0.017901557 0.20834272 -0.07652381 0.09123614
0001e0 fe 2c 0a 3e f4 53 d1 3d 75 c0 2a 3e 29 5c 61 bd
       0.13493726 0.10221091 0.16674979 -0.05501953
0001f0 80 17 08 3e 99 09 2b be 38 e1 75 3d aa 9e d5 bc
       0.13290215 -0.1670288 0.06002924 -0.026076633
