ISAAC_NOGIT/logs/rsl_rl/traquad_flat/2025-09-15_18-43-42/exported/policy.onnx (onnx, 153859 bytes, 8 tensors)

actor.0.weight f4 [128, 31]
000000 2f 7d bf be e9 d7 60 be ab a6 12 bf b5 0a c5 3e
       -0.37400195 -0.21957363 -0.57285565 0.3848473
000010 1c ad 4e 3e 5e 18 d0 be 15 50 08 3e c3 3b 9c bf
       0.20183223 -0.4064359 0.13311799 -1.2205738
000020 d1 7d 10 bd 20 34 2e 3f 07 ce 8c 3e 17 73 9a bf
       -0.035276238 0.68048286 0.27500936 -1.2066373
000030 b2 06 85 be af f9 04 40 81 cd 9a bf 05 86 19 3e
       -0.2598167 2.0777395 -1.2093965 0.1499253
000040 b4 1f 1c 3d 42 b0 d9 3d d2 c8 0f 3e a9 40 42 3c
       0.038116172 0.10629322 0.1404145 0.0118562365
000050 2e 1b 40 3c 8c 28 5c bd 40 d0 c1 bb f7 0d 71 3e
       0.01172523 -0.053749606 -0.005914718 0.23540483
000060 d6 b7 77 3e 1a 0b 0f bf eb 22 83 3e 8e 06 a6 3b
       0.24191222 -0.55876315 0.25612578 0.0050666993
000070 3e a3 13 3e 63 8e 85 bd ba 71 3f 3d 91 fb ca bd
       0.1441774 -0.06521299 0.046739317 -0.09911264
000080 24 6f 14 be 89 29 32 bf 3b 26 d8 be 41 d5 b1 bd
       -0.14495522 -0.6959463 -0.42216668 -0.08683253
000090 08 4e b4 3e 2e c8 37 bf d9 34 b6 3e 6d 96 b1 3e
       0.35215783 -0.71789825 0.35587195 0.34685078
0000a0 25 ea ca be f1 8a f1 be c3 1c 15 be 3b 8e 9d 3f
       -0.39631763 -0.47176316 -0.14561753 1.230903
0000b0 69 e6 25 bf 5a 44 1c 3e 49 a0 29 3d e4 3d e9 3c
       -0.64804703 0.15260449 0.041412625 0.028471895
0000c0 59 8e eb bd 84 df 8f 3d eb 11 ad 3c ef f9 9f 3b
       -0.1150176 0.07025054 0.021126708 0.0048820893
0000d0 53 34 01 bd 87 07 f0 3c 0e 1d b2 3e ae 6d 3e 3d
       -0.03154404 0.029300464 0.34787792 0.046491317
0000e0 01 68 14 be bf 01 75 be c3 90 c8 be f5 e7 8a be
       -0.144928 -0.23926447 -0.39172944 -0.27130094
0000f0 66 30 d0 3d 58 a0 03 bf eb fa 32 bd ef 33 12 bf
       0.10165481 -0.5141654 -0.043696325 -0.57110494
000100 ce 66 46 3f f1 5b ef bd 47 ba dc 3d ba a4 b1 be
       0.7750062 -0.11687458 0.10777717 -0.3469599
000110 76 20 87 3d a2 ee da bf ba 4c e1 3d df 59 e0 3d
       0.06597988 -1.7104075 0.110009626 0.109546416
000120 d3 d4 cb be c0 83 9a 3d 91 a3 da bf 8d 80 89 3f
       -0.3981081 0.075446606 -1.7081167 1.0742356
000130 e0 6a 85 bf 1a e3 2d be 91 8d e6 3d b2 a7 92 3d
       -1.0423241 -0.16981164 0.112574704 0.071608916
000140 2a 9d e5 3d 72 2b 90 3d f7 77 59 3d a3 aa ea 3b
       0.11211617 0.070395365 0.053092923 0.0071614548
000150 b8 16 22 bd 44 c2 0d 3e 4a b0 86 3e ee b0 64 bd
       -0.039572448 0.13843638 0.26306373 -0.055832796
000160 56 3e 95 3e 4e a3 00 3e 4c ae 58 be 26 8c 7b be
       0.2914912 0.12562296 -0.21160239 -0.24565181
000170 44 2d 94 3e e4 cf b7 3e f6 57 80 3e e1 0b 89 3f
       0.28940785 0.35900795 0.2506711 1.070675
000180 3c 20 ce 3c 13 43 69 be c5 b1 ad be 71 c2 09 bf
       0.025161855 -0.22779493 -0.3392469 -0.5381232
000190 55 4a be bf 72 a9 a8 3e a4 07 5c bf a4 3e 16 bf
       -1.4866434 0.32941777 -0.8594916 -0.5868933
0001a0 71 f4 95 3f d5 28 ee be 4a ab 81 3f 1b 7b 98 bf
       1.1715223 -0.46515527 1.0130398 -1.1912569
0001b0 a2 fe d2 3d 59 c5 14 3e 43 84 65 3e d6 63 53 3d
       0.103024736 0.14528407 0.22413735 0.051608883
0001c0 ee e3 9f bb 4e 55 91 3c f2 88 94 bd c9 f7 2b 3c
       -0.0048794663 0.017740872 -0.07252683 0.010496088
0001d0 23 c3 c7 3c 29 18 93 3e 8a 13 82 3e 28 72 38 3c
       0.02438504 0.2872937 0.25405532 0.011257686
0001e0 87 b3 e9 3d f5 68 12 bd a2 3e 99 3e 77 50 2e be
       0.11411195 -0.035744626 0.29930598 -0.17022882
0001f0 68 cb c9 3e 90 85 81 3b 20 f0 15 bf ab f0 56 be
       0.39413 0.0039526895 -0.58569527 -0.20990245
000200 20 10 e8 3c f5 f9 56 be 50 56 4e bf dd 46 f1 3e
       0.028328001 -0.20993789 -0.8060045 0.47124377
000210 87 3f cb bd 05 15 e2 3f 20 f6 8d be fc 79 2b 3f
       -0.09924226 1.7662665 -0.2772684 0.6698301
000220 fa 62 28 40 a3 f2 b9 bf f6 c0 eb bf 18 88 e4 3d
       2.631041 -1.4527172 -1.8418262 0.1115877
000230 bf d5 b9 3d 07 a8 56 bd fe 0d 5a 3d 4a 4b 04 3b
       0.09073972 -0.052406337 0.053236 0.0020186477
000240 5c c5 bc bc b8 0e e2 ba d1 56 e7 bc f4 cd 10 3d
       -0.023043327 -0.0017246818 -0.02823964 0.035352662
000250 b8 fb 6f be 3c e9 27 3d ca c7 5e be 52 1b 0c be
       -0.23435867 0.040993914 -0.21755901 -0.13682297
000260 3c c4 da 3d 8c f4 2d be 51 a3 4c 3e 24 a4 f1 3c
       0.1068196 -0.16987818 0.19984175 0.029497214
000270 2f 8f 47 3e ca 99 f8 3e 29 5a 02 3d bd e7 14 be
       0.19488214 0.48554832 0.031824265 -0.14541526
000280 54 72 22 3e ac e3 7a be 25 7a 37 3f 52 3a 1f bd
       0.15863925 -0.24500912 0.7167075 -0.038873978
000290 c4 b7 bd 3e 31 31 ad 3e 8e ed 9f bd f9 ba 8c 3f
       0.37054265 0.33826593 -0.07808982 1.099456
0002a0 ca a1 a9 be 17 15 d2 3e bc d5 17 3e 26 54 f1 bd
       -0.33131248 0.41031715 0.14827627 -0.11783628
0002b0 0f e6 c6 3d 05 94 4e be 64 55 1e 3d 31 b6 a1 3c
       0.09711849 -0.20173652 0.038655654 0.019740196
0002c0 40 3a e0 3b 5f aa 38 3d 99 29 8b 3e a2 3b 33 bf
       0.0068428814 0.045084354 0.27180174 -0.7001287
0002d0 9b 33 0d be ad 4c b7 bd 71 98 39 be 46 7d 50 3e
       -0.13789217 -0.089501716 -0.18124558 0.20360288
0002e0 83 c9 d6 3e 27 25 1a be 71 1a 78 be ab 0b 09 bf
       0.41950616 -0.15053235 -0.24228837 -0.5353343
0002f0 34 3e 6d 3f e6 fe 07 3e ea f6 87 3e d7 f8 16 be
       0.9267304 0.1328083 0.26555568 -0.14743362
000300 68 51 24 3f 78 5a 93 3e a2 67 4f 3d 69 20 2d 3e
       0.64186716 0.2877996 0.05063594 0.16906895
000310 2f e6 1d 3e 41 9b 05 3f b5 2f 3d c0 c0 35 4e 3e
       0.1541984 0.52190024 -2.9560368 0.20137691
000320 dc 0b e3 3f 49 40 ce bc 1f a5 b7 bc b8 d0 08 be
       1.7737994 -0.025177138 -0.022417603 -0.1336087
000330 b0 22 19 3e 6c 6f 77 39 5e 3e 2e 3c f9 67 e0 bc
       0.14954638 0.00023597263 0.010634987 -0.027393328
000340 7c 70 36 3a a0 9d 96 be 48 57 b0 bc ee 6a 3a be
       0.00069595105 -0.29417133 -0.021525994 -0.18204853
000350 4a ab 82 3d 76 98 87 be ef 9c 57 3d b7 45 fa 3d
       0.06380327 -0.26483506 0.052639898 0.12220328
000360 92 a3 56 be a0 a3 03 3f 99 ec 10 3f e1 43 54 bf
       -0.20960835 0.51421547 0.5661102 -0.82916075
000370 7a c3 d0 be a1 e8 b1 bd 17 95 08 bd 65 75 b8 3e
       -0.40774137 -0.086869486 -0.03334531 0.36027065
000380 50 70 8a 3f a7 39 45 bd d1 62 ca 3e ad 6c 08 3f
       1.0815525 -0.048150685 0.39528516 0.53290826
000390 f3 80 d1 be 8d ba 99 3f eb 28 3e 3f 62 d3 a2 bc
       -0.40918693 1.2010056 0.74281186 -0.019876186
0003a0 5a 9f 74 3e 55 e2 89 3d dd e2 8f 3d 58 d4 7b 3e
       0.23888913 0.067326225 0.070256926 0.24592721
0003b0 a2 31 d3 3c 09 ab 22 bc 1d a0 9c 3c b8 06 63 bd
       0.025780503 -0.009928473 0.019119317 -0.05542633
0003c0 2d 6e 09 bf 66 b4 6d be bc 49 c9 3d 83 fd f2 3e
       -0.5368374 -0.23213348 0.09828517 0.4745904
0003d0 d4 aa 90 3e 7f 37 22 be 2c d0 92 bd 56 6d b6 3e
       0.28255332 -0.15841483 -0.07168612 0.35630292
0003e0 09 78 56 3e 40 c3 f5 3d 09 8c 12 3f 97 80 ff bb
       0.20944227 0.120001316 0.57244927 -0.0077973115
0003f0 bd 03 5b bd 13 7b dd 3d 23 a5 2d bf 1c 62 f3 3f
       -0.053470362 0.1081449 -0.67830104 1.9014316

actor.0.bias f4 [128]
000000 b0 47 4d 3d f0 8a 9b be 57 7f 74 be 92 e2 9e be
       0.050117195 -0.30379438 -0.23876701 -0.31032234
000010 0d f1 79 3d ce 85 90 bd a0 c4 3d 3c 68 33 ba bc
       0.0610209 -0.07056771 0.011582524 -0.02272959
000020 60 ee 50 be 06 7f a8 3d f8 e9 b7 be c7 03 37 bc
       -0.20403433 0.08227353 -0.35920691 -0.011170334
000030 2f a6 93 be 49 54 a7 3c 68 68 d2 be 74 61 25 3d
       -0.28837726 0.020425932 -0.4109528 0.04037614
000040 b1 20 bf bd 2a 6c 41 be ab aa 19 bc 95 fe 87 bd
       -0.09332407 -0.18888918 -0.009379069 -0.066403545
000050 4b b3 34 3e cd fd 4c be f7 0d e9 bc df e9 4e bc
       0.1764652 -0.20018692 -0.028449042 -0.012629001
000060 10 34 53 bd 39 e7 b7 bc 3a 64 b5 bd d0 18 1e 3e
       -0.051563323 -0.022449123 -0.08857007 0.15439153
000070 ee 7f 15 be 34 eb cd be 9e 5a 9e bd 91 df 72 be
       -0.14599583 -0.40218508 -0.077321276 -0.23718096
000080 8a 5c 13 bd 9e 32 1d 3d 1c 04 31 be 70 06 a3 3c
       -0.035976924 0.03837835 -0.17286724 0.01990053
000090 2a 6c 2d 3e cc 2e 90 be 5b 82 34 3c dc ee e4 3d
       0.16935793 -0.28160703 0.011017407 0.11178371
0000a0 cf ce 12 3d eb 6d a2 be eb df 56 be b3 8c 1a be
       0.03584176 -0.31724486 -0.20983855 -0.15092735
0000b0 96 76 b7 bd 3a 5e 6d be ab d2 25 bd 60 01 c3 3d
       -0.08958165 -0.23180476 -0.04048411 0.09521747
0000c0 57 0f 69 3d 7d 01 1d be 72 28 fa bd 00 e2 1a be
       0.056899395 -0.15332599 -0.122147456 -0.15125275
0000d0 68 cb 79 be 34 ee 05 bd c7 cd 09 be 28 ab a3 3c
       -0.24394 -0.03269787 -0.13457404 0.019979075
0000e0 84 51 6f bd 7a 93 a6 bd af 15 13 be df b4 cb bd
       -0.05842735 -0.08133598 -0.1436374 -0.09946608
0000f0 08 15 71 bd f0 2a 11 be 8a 22 89 bd 1b c2 d9 3d
       -0.058857948 -0.14176536 -0.06696041 0.10632726
000100 49 14 8d be ec f0 88 be dc c6 9e bd 00 d4 5f bd
       -0.2755454 -0.2674631 -0.07752773 -0.05464554
000110 68 28 cd 3d d8 fd e8 ba 04 95 60 be 0f 0a 0a be
       0.100174725 -0.0017775847 -0.21931845 -0.134804
000120 c3 d6 5d 3d b4 73 80 be a0 25 f4 be 53 67 09 be
       0.05415989 -0.25088274 -0.47684956 -0.13418321
000130 51 d8 cb 3d 47 e2 a7 be ba ae 24 be 97 fe 6c bb
       0.099533685 -0.32789823 -0.16082278 -0.003616249
000140 ca 96 b8 bc ed 4e 7c be 32 9d 6f be 2e 96 f9 bb
       -0.02253284 -0.24639483 -0.23399809 -0.0076167798
000150 e7 b2 49 be b2 8d 56 be 67 57 b4 bd ad d3 7d bd
       -0.19697152 -0.2095249 -0.08805733 -0.061969448
000160 10 f2 16 be e2 e6 3d be 79 df a2 bd 80 a9 d0 3c
       -0.14740777 -0.18545106 -0.0795278 0.025471449
000170 5f af 97 3d 58 15 78 be c4 46 41 be cc 6e e3 bd
       0.07406496 -0.24226892 -0.18874651 -0.11105117
000180 81 35 45 be d7 fa eb 3c d4 12 c5 bc 0e c8 52 be
       -0.19258691 0.028806133 -0.02405683 -0.20584127
000190 18 1d f9 3d f3 cc bc 3d de e7 2a 3e 06 1f 86 be
       0.12163752 0.092187785 0.16690013 -0.26195544
0001a0 ba 84 12 ba ff f4 2b be 32 f1 a7 be b8 a6 84 3d
       -0.0005589236 -0.16792677 -0.32801205 0.064771116
0001b0 9a 24 2b be f7 a7 52 3d 4e 48 8f be 56 e5 02 be
       -0.16713181 0.051429715 -0.27984852 -0.12782797
0001c0 79 03 0c be 8d 99 11 be 59 1a 76 3d ef 51 91 bd
       -0.136732 -0.14218731 0.06008372 -0.07095706
0001d0 0a db 90 be 3f 68 2b 3d 1c b4 f5 bd bc bf 1b be
       -0.28292114 0.041847464 -0.11997244 -0.1520986
0001e0 bf e9 8d 3e b1 88 04 be bf a9 f0 bd 81 7e c1 bd
       0.27717397 -0.12942769 -0.117511265 -0.09447957
0001f0 76 04 9b bd 91 28 37 be 33 09 7c 3c 23 6f 6a ba
       -0.0756921 -0.17886569 0.015383053 -0.0008942952

actor.2.weight f4 [128, 128]
000000 19 21 8d bd ca d7 2e 3d b2 89 d0 3a ce 33 87 3c
       -0.068910785 0.04268626 0.0015910177 0.016504195
000010 9f 3f 9f bd 49 32 b4 bd 53 d4 54 be dc f1 b0 3d
       -0.07775807 -0.08798654 -0.2078412 0.08639881
000020 0b 25 81 3c 79 e6 1c 3e 07 23 ea bc f7 a6 05 3d
       0.015764734 0.15322293 -0.028581155 0.032629933
000030 63 22 47 3d 25 9b 66 3a 2f b2 13 3e e9 51 19 be
       0.048616778 0.0008796922 0.1442344 -0.14972652
000040 05 cf 2e 3e d0 28 45 be a9 35 7b 3c 48 4e 39 3d
       0.17071159 -0.1925385 0.015332618 0.04524067
000050 9d a0 13 3d fe 1f 42 bd 2e 6f 38 3e 12 46 8d 3d
       0.036041845 -0.04739379 0.18011162 0.068981305
000060 97 93 8d 3d a5 d5 cd 3d 94 02 cc 3c ba 5f cb bb
       0.06912916 0.10050515 0.024903573 -0.00620648
000070 47 bd f1 bd a0 4d bc 3d 59 2f 4c bd a1 8e c9 3d
       -0.1180368 0.09194493 -0.04984984 0.098416574
000080 14 00 7b bd fd d6 85 3c d4 f4 65 3d 2a c7 51 be
       -0.06127937 0.016337866 0.05614169 -0.20486131
000090 e8 32 8a 3c 6b 46 c8 bd ba 5f 8e bd f5 7d cb bd
       0.016869977 -0.09779056 -0.06951852 -0.09936134
0000a0 c8 ee 56 3d fa 17 91 bc 3b 22 0f 3e 56 11 d8 3d
       0.052473813 -0.017711628 0.13977902 0.105501816
0000b0 4b 46 87 3d 83 61 b0 3d fa 0b ae bc 24 77 3a 3e
       0.06605204 0.08612349 -0.021245945 0.18209511
0000c0 b6 95 29 bd 7e 5c 3b 3d c2 f3 f0 bd 92 af 9e 3d
       -0.04140254 0.045742504 -0.11765243 0.07748331
0000d0 c0 15 05 3e 76 1a 77 bd 8e cc c0 3a 04 67 31 3b
       0.12996578 -0.06032797 0.00147094 0.0027069459
0000e0 e7 cc 98 3d 4b d0 ee 3a 56 1f 71 3d ca 36 02 be
       0.07460957 0.0018220035 0.058867775 -0.12716213
0000f0 6f 5c 28 3d a9 ef 10 3e 6f c9 40 3d 0d 00 b9 3d
       0.041103777 0.14153923 0.047067102 0.09033213
000100 cd 6e 39 bb 87 6c 2e 3e 3c 40 84 bc 54 48 65 3d
       -0.0028294802 0.17033587 -0.01614391 0.05597718
000110 e5 5f 2e 3c b0 66 e3 3c 8e 64 00 bc c4 6f a5 bd
       0.01064298 0.027758926 -0.007836474 -0.08077958
000120 58 08 ad 3d ee cc 7a 3d 6d f3 66 3a 32 cb 13 bc
       0.08448857 0.061230592 0.0008810077 -0.0090206135
000130 6f 24 43 bd 4e f5 f0 3c 16 37 e1 bd eb 4f c8 3d
       -0.047642168 0.029413845 -0.10996835 0.09780868
000140 a3 87 74 be 58 9e c5 3c 5d 73 29 bd c4 8d 0e 3d
       -0.23879866 0.024123356 -0.041369785 0.034803167
000150 9b fc f0 3d 65 11 ac 3d 1f bd 48 be e9 23 c3 3c
       0.11766931 0.08401755 -0.19603394 0.023820834
000160 8e 1c 9d 3a 5b 0f c4 bc 0b 83 e2 bd b0 49 93 3d
       0.0011986659 -0.023933103 -0.11060151 0.07191789
000170 71 9f 79 bc f9 74 cf bb fe 34 ac 3d a2 2f 43 3e
       -0.015235768 -0.006331083 0.08408545 0.19061139
000180 c3 22 25 3e ac dc 45 3c 21 30 88 bc f5 23 b0 bd
       0.16126542 0.012076538 -0.016624512 -0.08600608
000190 e0 bf bf bd ba 24 33 3c fe 18 09 3e 9b fe 1a bd
       -0.09362769 0.010934049 0.1338844 -0.037840467
0001a0 6b 37 24 be 26 c3 c8 3c f4 18 de bd e5 18 89 bc
       -0.16036765 0.024507117 -0.10844603 -0.016735503
0001b0 3f 81 88 bb c7 fd c8 bd 2d 9d 1d 3e f0 f2 e5 bd
       -0.004165798 -0.09814029 0.15391989 -0.11227977
0001c0 95 b1 15 3d 5c 9d 32 3e b1 43 42 bd 84 b0 17 3e
       0.03654631 0.1744284 -0.047427837 0.14813429
0001d0 28 db 62 3d a9 b8 1c be 38 4c 71 bd 0e 85 9d 3d
       0.055384785 -0.15304817 -0.05891058 0.07691394
0001e0 48 71 f4 3d 54 d0 19 be e6 e7 03 be b2 4f 2c 3e
       0.11935669 -0.15020877 -0.12881431 0.16827276
0001f0 48 8a 32 be 4f 47 0c bd 8b 08 75 bd f6 a2 6a bc
       -0.17435563 -0.034247693 -0.0598226 -0.0143210795
000200 c7 5b 3d be 38 82 a1 3d de 0d f0 3c bc 3e 86 3c
       -0.18492042 0.078861654 0.029303487 0.016387336
000210 aa 10 9c 3c 13 73 fc bc 25 34 38 be ac 96 61 bc
       0.019050915 -0.03081659 -0.17988642 -0.013768833
000220 30 06 18 3e 55 97 c9 3c 28 d0 4d bd fa b6 ef 3b
       0.1484611 0.024608294 -0.05024734 0.0073155137
000230 ce 1a d3 bd 8c f5 a6 3d 0e c7 58 3c bf 75 b5 bd
       -0.10307847 0.08152303 0.013231052 -0.08860349
000240 1a fc 2e bd 2e bc 43 bd fe ea cf bd 48 27 27 3d
       -0.04272089 -0.047786884 -0.10152243 0.040808946
000250 78 e2 1f 3e f8 25 3a bc e4 41 b1 3c 5c bd 44 bd
       0.15613735 -0.0113615915 0.021637864 -0.04803215
000260 da b3 c6 bd 9b 33 39 3e da f4 4e 3d 55 39 1a 3d
       -0.09702273 0.18086092 0.050526477 0.037652332
000270 0b 58 11 3e 9c a8 6d bd 1c 80 2d be 48 59 82 bd
       0.14193742 -0.058022127 -0.16943401 -0.06364685
000280 66 71 07 bd d4 2a 72 3d a6 12 e8 3d bf 6a 0c be
       -0.03306713 0.059122875 0.11331682 -0.13712595
000290 2d 3b c6 bd ae 4e 9c 3b 34 28 40 3d 3a 54 01 3e
       -0.09679256 0.0047701215 0.04691334 0.12629786
0002a0 54 c4 3e bd 38 85 2f be 03 a3 4b 3c 3b 78 94 3d
       -0.04657395 -0.17140663 0.012429002 0.07249495
0002b0 f1 d6 16 bd b7 08 4c bd 45 01 f2 3d 93 8b b8 bd
       -0.036826078 -0.049813 0.118166484 -0.09010997
0002c0 8c 3a 93 bc de b9 3c 3c 90 ad 01 bd fd 1f 81 bd
       -0.017972253 0.011518924 -0.031659663 -0.063049294
0002d0 da 94 6f bc ba 2b a1 bd 05 14 53 3c a5 d5 9d bd
       -0.014622891 -0.07869668 0.012883191 -0.07706765
0002e0 7e 62 1a be 5a 32 74 bc 26 6b c9 bc ff b1 22 be
       -0.15076634 -0.014904583 -0.024587225 -0.15888213
0002f0 a3 1d f8 3c b0 56 14 3d a1 ae e6 3d 5f 42 00 be
       0.03028757 0.036215484 0.112637766 -0.12525319
000300 b0 dc a7 ba a3 56 fc bb f3 86 2b 3e 07 c8 6e 3d
       -0.0012806859 -0.0077007576 0.16750698 0.05829623
000310 12 40 54 bd 8c 41 69 3d 9e a4 51 3d 5f c6 d0 bd
       -0.051818915 0.056947276 0.05118238 -0.10194086
000320 f6 10 5b 3d 7b 4c 39 bd 33 46 53 be 97 55 df bc
       0.053482972 -0.045238953 -0.20632248 -0.027262492
000330 dd 05 03 bd 32 88 c8 3c 45 e3 0a 3e ee 4d f5 bc
       -0.031988014 0.024479005 0.13563259 -0.029944386
000340 ea 98 1e bd 6e e7 c7 bd 89 d6 a1 bc 75 b4 c9 3c
       -0.03872005 -0.097609386 -0.019755619 0.024622181
000350 7a 5c c3 3d c2 b3 f4 3d ed 13 fa bc 7b d4 a3 bb
       0.09539123 0.119483486 -0.03052708 -0.004999695
000360 c9 ea 3d 3d 35 18 9d bd 6c a6 9b 3b d3 92 88 3c
       0.046366487 -0.07670633 0.0047500636 0.016671574
000370 48 8e 82 bc 73 49 f6 bc 20 ab b0 3a 90 0e b8 3d
       -0.015936986 -0.03006432 0.0013478734 0.089871526
000380 4b f2 34 bd 97 89 e7 bd 51 19 27 3d ff 74 a1 3d
       -0.04417638 -0.1130554 0.040795628 0.07883643
000390 9c 62 03 be be 18 06 be c8 03 42 be f7 a0 27 bc
       -0.12830585 -0.13095376 -0.18946755 -0.010231248
0003a0 54 4c ea 3a da b6 a5 3d e6 93 50 bd e5 fa 47 3d
       0.0017875531 0.08091517 -0.050922297 0.048823256
0003b0 c6 37 9a 3d dc b6 be bc 28 5c ea bd 9a c7 c6 bd
       0.07530169 -0.023280554 -0.11443359 -0.0970604
0003c0 33 98 2d 3d 98 58 0d bd f0 cc 47 3e c4 17 85 bd
       0.042381477 -0.034508318 0.19511771 -0.064986736
0003d0 a5 18 cb 3d 61 0b 2d bd ea 30 f6 3d e0 ce a6 3d
       0.0991681 -0.04224718 0.12021048 0.08144927
0003e0 6c 35 48 3d 9d b1 28 be 92 e4 37 bc 86 8e 8e bd
       0.048879072 -0.16474004 -0.011223929 -0.06960778
0003f0 92 5e d7 bd bc bf dc 3d 11 39 8d bd 21 2e 51 be
       -0.10516085 0.10778758 -0.0689565 -0.20427753

actor.2.bias f4 [128]
000000 20 59 5c bd f3 5d 39 be 02 e4 07 be c9 3c 96 3c
       -0.053795934 -0.18102245 -0.13270572 0.018339531
000010 2b 5a 8a bc 05 ff d5 bd 7e 70 d6 bd 61 8c d3 bd
       -0.016888699 -0.10449032 -0.10470675 -0.103295095
000020 21 66 a6 bd b2 68 c5 bd 18 dd b2 bd 36 a2 fb bd
       -0.08124948 -0.0963911 -0.087335765 -0.12286799
000030 4f 57 13 bd a0 dc 30 be ae f1 1b be 5b a7 c1 bd
       -0.035971936 -0.17271662 -0.15228912 -0.09455749
000040 6d 6e 8c bd 1f dc 8e 3c 1c 8f 8c bd 0a 0f c3 3d
       -0.068569995 0.017438946 -0.068632334 0.09524353
000050 4a 37 8e bd d7 2c fd bd 4e 96 b4 bd cb 7f 8f 3d
       -0.06944139 -0.12362068 -0.08817731 0.070067964
000060 67 59 8f bd 9f 61 66 bd 6f b6 eb bd 8c 94 09 be
       -0.06999474 -0.056245442 -0.11509406 -0.13435572
000070 07 0a 91 3d ab 68 ef bd cf d6 8b bd 04 27 36 3e
       0.07081991 -0.11689886 -0.06828081 0.17788321
000080 fe 2f 03 be 9f 1c 62 3c 19 32 4f bd e5 2f 17 be
       -0.12811276 0.013800769 -0.050584886 -0.14764364
000090 46 f2 46 be 73 41 b1 bd 7d 96 5f bd ad 18 58 be
       -0.19428357 -0.086550616 -0.054586876 -0.21103163
0000a0 30 da c8 bd 06 dd 23 be 4c cc 1c bd 82 94 ad 3b
       -0.09807241 -0.16002283 -0.03828077 0.0052972445
0000b0 5e bc 44 3d ed 3f 13 be b5 69 22 be b3 56 05 be
       0.048031203 -0.14379855 -0.15860637 -0.13021354
0000c0 62 5f 54 be fa 4f 2a be eb 3e d9 3d aa 30 48 bd
       -0.2073951 -0.16632071 0.10607704 -0.048874535
0000d0 cd 36 0f be 4f c0 c2 3d b9 f7 a3 bd 8f cb 2f be
       -0.13985749 0.09509336 -0.08006234 -0.17167495
0000e0 70 4e 79 bc f8 3a 35 be e5 6e 63 3c b7 f9 30 be
       -0.015216455 -0.17698276 0.01388142 -0.17282759
0000f0 a5 71 28 be 65 24 6e 3d 07 15 eb 3b 89 13 b2 bc
       -0.16449602 0.058140177 0.0071741375 -0.02173783
000100 58 f7 54 be 08 47 df bd 7c 99 97 3c a6 0e 2b be
       -0.20797479 -0.1090222 0.018505804 -0.16704807
000110 e8 9e 3d 3d 25 4b ed bd aa b9 1a be f4 a1 6a 3d
       0.046294123 -0.11586598 -0.15109888 0.057283357
000120 aa a1 65 3d d6 00 0d be e5 73 3e 3d 56 7b df bc
       0.056062378 -0.1376985 0.046497244 -0.02728049
000130 34 3e d8 bd 78 4d 04 be 6b 3c 6b bd 3e 0b a1 bd
       -0.10558739 -0.12920177 -0.057430666 -0.078634724
000140 12 55 4f be b3 69 d9 bd a1 2f 05 3d 8a 81 af bc
       -0.20247295 -0.10615864 0.032516126 -0.021424074
000150 ea 75 0c 3c c5 ce c2 bd 5c 10 36 be dd 46 00 be
       0.008573035 -0.095120944 -0.17779678 -0.12527032
000160 ab 49 d4 bd ca 8d a0 3c 88 91 d9 bd ef ea f7 bc
       -0.103656135 0.01959886 -0.10623461 -0.030263392
000170 bc bd 3f bd f0 43 8c be e6 c3 ae bd ed e4 91 bc
       -0.046811804 -0.27395582 -0.085334584 -0.017809356
000180 89 f2 b2 bd fe 42 36 be 66 b6 9d 3d f3 31 4c 3d
       -0.08737666 -0.17798993 0.07700805 0.049852323
000190 96 c1 0b be 34 09 ec bd ef d9 38 be 82 57 01 bd
       -0.13648066 -0.11525193 -0.18051885 -0.031577595
0001a0 05 9e e5 bd 26 51 b8 bd 90 06 83 bd a5 3c 6c 3d
       -0.112117805 -0.08999853 -0.06397736 0.057675023
0001b0 d3 8e 5a be 33 67 01 bd 61 c7 1c be 10 8b 2c be
       -0.21343546 -0.03159256 -0.15310432 -0.16849923
0001c0 06 08 9b bd 02 2f b9 bb 0c 8c c5 3b 10 cb 5f bd
       -0.0756989 -0.0056513557 0.006028658 -0.054637015
0001d0 a9 27 7a 3c 24 fd 3f bc ce be ad bd 31 5f 6d bd
       0.015268245 -0.011718068 -0.08483659 -0.05795211
0001e0 ef d9 2b bc 78 d0 63 bc fd 93 53 bd 72 5d 9d bd
       -0.010488971 -0.013904683 -0.051654804 -0.07683839
0001f0 bc af 2a be 54 77 85 bd b1 21 f9 bd 0d f1 03 be
       -0.166686 -0.06516901 -0.12164629 -0.12884922

actor.4.weight f4 [128, 128]
000000 2d 01 44 bd 88 02 e3 bc 5e bd d6 bc e6 81 eb bb
       -0.047852684 -0.027711168 -0.026213344 -0.007187116
000010 a7 51 17 3d 95 5f 6c bc 3d f6 8c 3c 94 ff d2 3d
       0.036943104 -0.014427085 0.01720726 0.10302654
000020 da c1 8b bd 96 d3 c8 bc 4f 5b 82 bc b6 00 2f bd
       -0.068240836 -0.024514955 -0.01591268 -0.042725287
000030 9d 72 f4 3d 1a 46 8d ba 26 0c a3 bd 06 cb 34 3d
       0.11935923 -0.0010778338 -0.079613015 0.04413893
000040 15 7a 9e 3c 4f 75 de bd e7 6e fd bd f7 0c a4 bd
       0.019345323 -0.108622186 -0.123746686 -0.08010285
000050 c8 ce 22 3c 76 01 38 3d c6 4f 99 bd ce 99 5a bc
       0.009936996 0.04492327 -0.07485919 -0.013342334
000060 4d 23 87 bd b2 d5 d7 bc c8 1e 94 3c 20 b9 de bd
       -0.0659853 -0.026347015 0.018081084 -0.108751535
000070 d8 ea 7d bc 25 e6 b9 3d f0 d2 d4 3c 52 25 90 bd
       -0.015497886 0.090771 0.02597949 -0.07038368
000080 4f de a1 3c 51 27 03 bd 8f b8 71 3c 2a 86 0b 3d
       0.019759325 -0.032019917 0.014753475 0.034063496
000090 40 5c c1 3c 81 80 95 ba 60 83 4b 3d e9 54 55 3d
       0.023603559 -0.0011406095 0.049685836 0.05208293
0000a0 04 2c d9 3d 2d b2 87 bd e0 36 ce 3d 73 e8 8f 3c
       0.106040984 -0.06625781 0.1006906 0.017566895
0000b0 54 f8 db 3c 82 cf 5e bc c1 3f 67 bd 04 c7 3f bc
       0.02685181 -0.013599278 -0.056457285 -0.011705164
0000c0 bd e0 25 bc cd 44 17 be d6 74 03 3d 4e 11 93 3d
       -0.010124383 -0.14772339 0.032093845 0.07181035
0000d0 25 bc d0 bc ae cb 82 bc 23 a8 4d bd a9 fe 3c bd
       -0.02548034 -0.015966263 -0.050209176 -0.0461413
0000e0 8b 92 99 3c 02 da 91 bd 4d 62 61 3d 89 e5 94 bd
       0.018746635 -0.0712166 0.055025388 -0.07270343
0000f0 1e 5e 1e bd ec aa 22 3d b5 14 c6 bc dc 4c b0 bc
       -0.038663976 0.039713785 -0.024179796 -0.021521024
000100 bf cb 17 be e7 c8 fc 3c ee 63 9e 3c 89 1b 98 bd
       -0.14823817 0.030857516 0.01933476 -0.07427127
000110 02 1d e9 bc a0 e4 8b 3d 49 fa b0 bd 1d a2 b9 3b
       -0.028456215 0.06830716 -0.08641488 0.0056650774
000120 c9 53 ae bc 2d 18 ef bc 8a ac fe 3d 86 dc ce 3d
       -0.021280186 -0.029186333 0.12435253 0.10100655
000130 4f 88 08 3d 3d a7 c1 3b 5b 02 df bd 23 b0 6f 3d
       0.03333312 0.005909829 -0.10889121 0.058517586
000140 55 8f 03 bd c2 34 87 3c 9a 46 bf 3c b9 cd d1 bc
       -0.032119114 0.01650465 0.023349095 -0.025610792
000150 ca e6 12 3c 1c 21 a2 bc 9a ce 25 bd b9 cd d0 3c
       0.008966157 -0.019791178 -0.040480234 0.025488721
000160 32 18 f8 3a ae f7 3e bd 35 3a f5 3c b8 9d 26 be
       0.0018928109 -0.046622925 0.029934982 -0.16271102
000170 60 92 97 3c 40 1c 0d 3d ff 0a 57 3c c6 18 d3 bd
       0.018502414 0.03445077 0.01312518 -0.103074595
000180 c1 a8 ab bd 5d 80 92 3d 2b c7 b0 bc 43 a2 04 3c
       -0.08381797 0.071533896 -0.021579346 0.008095327
000190 3d e8 b3 bd b7 97 b8 3c 44 2c bf 3c f0 9e cb 3b
       -0.0878453 0.02253328 0.023336537 0.006214015
0001a0 8c 09 b6 3d c5 8e 0e 3a 00 cb 93 bc d7 04 00 bd
       0.0888854 0.00054381444 -0.018041134 -0.031254616
0001b0 a0 0a 6f 3d 9f dc b9 3c e2 1c f7 3d c8 2a 48 3c
       0.058359742 0.022688208 0.12066056 0.012217231
0001c0 4f 8e e3 bd 49 4d 00 3d 7c 4c 03 be 5d c5 06 3d
       -0.111111276 0.031323705 -0.12822145 0.032903064
0001d0 e0 8d 95 bd 32 a3 ed 3c 89 e7 50 3d 52 17 be bb
       -0.07302451 0.029008482 0.05100206 -0.00580112
0001e0 4b dd 0f bd 3a 08 c1 bd 16 c5 ca bd 6a b5 08 bd
       -0.03512315 -0.09425397 -0.099008724 -0.033376135
0001f0 20 13 ca 3b e5 48 eb 3c 76 51 db bd ac c6 4d 3c
       0.0061668307 0.028721282 -0.10708897 0.012559574
000200 6c b8 1b bd e2 c2 5c 3d 1a 3a fa bc 4e fc 24 bd
       -0.038017675 0.053896792 -0.030545283 -0.04027968
000210 03 54 90 3c fc ea f5 3b 6f af 80 3d 72 8c 31 bd
       0.017618185 0.007504819 0.06283461 -0.04334683
000220 01 5c 55 bd 45 1b b4 3c f3 f8 a4 bd 52 0c 2a bd
       -0.052089695 0.02198566 -0.08055296 -0.041515656
000230 38 37 b3 3c 91 a8 40 3c cb 53 05 3e 13 d4 33 bd
       0.021876916 0.011758939 0.13020246 -0.04390342
000240 a8 70 43 3d a4 db 80 3d 31 df 6b 3d f9 38 0f bd
       0.04771486 0.06291893 0.0575859 -0.034966443
000250 30 fb 14 be 0b 6a ab 3d d8 52 96 bd 70 70 02 bd
       -0.14548945 0.083698355 -0.0734002 -0.03184551
000260 f4 af 8b bd 08 a1 b2 3b cd 08 06 bd c5 36 c8 bb
       -0.0682067 0.0054513253 -0.032723237 -0.0061100447
000270 8f 55 dc 3d f9 1a a4 bc ca 0f e1 3d e1 77 b3 bb
       0.107585065 -0.020032393 0.1098934 -0.005476937
000280 dc a0 83 3d 89 ef f1 bc a6 a6 a5 3c e5 c4 62 3d
       0.06427166 -0.029533165 0.020221066 0.055363555
000290 50 73 fc 3d bb df c0 3d b9 db cf bc 54 84 bd 3c
       0.123266816 0.09417673 -0.025373327 0.023134388
0002a0 36 5a 2f bd 77 58 a8 bc 82 39 77 bd 75 3d b5 bc
       -0.04281064 -0.020549996 -0.060357578 -0.022124032
0002b0 bc 65 8a bc ab d7 64 3d 07 34 03 be 2f 83 a3 3c
       -0.016894214 0.05586974 -0.12812816 0.019960014
0002c0 ae 90 fb 3c d4 21 54 bd ae f6 e7 3d ce 4c 0b ba
       0.030708637 -0.051790074 0.11326347 -0.0005313874
0002d0 fd a5 a5 bd 93 ee ee bd 56 79 cf 3c 48 ca 28 bd
       -0.080883004 -0.11666598 0.025326412 -0.041208535
0002e0 ee d9 a0 3d 46 aa c6 bd f4 00 3a 3d 0e 34 c6 3d
       0.07854067 -0.09700446 0.045411065 0.096778974
0002f0 78 a4 74 3d b5 44 a6 bd 0b 9f 93 bc 3c 1b 42 3d
       0.059727162 -0.081185736 -0.018020174 0.047389254
000300 7e 3e b5 bc ef 07 34 bd 6b 81 af bc df ad 1f 3d
       -0.022124525 -0.04395288 -0.021424016 0.038984176
000310 73 03 ae bd 04 0b ad bd 7a 1d 14 be d7 f4 1c 3d
       -0.08496752 -0.08449367 -0.1446437 0.038319435
000320 52 d4 4b 3b 52 37 5e bd fd f0 6a bc 81 01 86 3d
       0.0031101895 -0.054251976 -0.014339683 0.065432556
000330 17 6b 84 3d e6 38 fe bd f8 ad 53 bd aa 5a 22 bd
       0.06465738 -0.12413196 -0.05167958 -0.039637245
000340 bb b3 2e 3d 55 6a d3 3c e2 ca 23 3c c3 a8 87 bd
       0.042651873 0.025807539 0.0099971015 -0.066239856
000350 a6 37 18 3d 94 c3 66 3d 2b 57 c9 bd 2f 32 20 bd
       0.037162445 0.05633886 -0.09831079 -0.03911036
000360 e4 1e bf 3c 66 ee 98 bb 92 8a a2 3c 67 02 f8 3d
       0.02333016 -0.004667091 0.019841466 0.12109833
000370 46 c2 77 bb e7 03 17 bd 01 e9 3d 3d 81 df 94 bd
       -0.0037805005 -0.036868956 0.046364788 -0.072691925
000380 b0 16 c4 3d 41 bf 49 3c 31 af 80 3c 64 66 80 bc
       0.0957464 0.012313665 0.015708538 -0.015673824
000390 fb 21 ad bd 8b bf ae 3d 5b 46 5b 3d 6a 56 80 3c
       -0.08453747 0.08532628 0.053533893 0.015666205
0003a0 3f 0c b7 bc b4 bb 95 3d 6d 48 c3 3d 21 6f 91 3d
       -0.022344707 0.07311192 0.095352985 0.07101274
0003b0 b0 eb cc bc 48 b4 65 3d c9 88 2b bd aa 2d 35 bd
       -0.025014728 0.056080133 -0.041878495 -0.044233
0003c0 09 8e 96 bd ef c7 53 bc 1b 1c 02 3e 5e 71 e7 bd
       -0.0735131 -0.012926086 0.12706034 -0.1130092
0003d0 15 18 65 bc 20 b9 4c bd 8f 68 b8 bd 54 8e b2 bd
       -0.013982792 -0.049981236 -0.09004318 -0.08718553
0003e0 56 9c 3d bb a3 7a 4e bd fc dd 5d bc 40 d8 8e bb
       -0.0028932295 -0.050409924 -0.013541695 -0.004359275
0003f0 26 fa 40 bd d9 c5 e6 3d 2e 34 47 3c 0a 71 4b 3b
       -0.04711356 0.11268205 0.012158437 0.0031042718

actor.4.bias f4 [128]
000000 07 36 1c bd 35 19 8d bb 41 ff 9e bc 6c e8 54 bc
       -0.038137462 -0.0043059834 -0.019408824 -0.012994867
000010 e7 ab 52 bd 62 a5 98 3d 86 94 cd bd 30 18 2f bd
       -0.05143347 0.07453419 -0.10038094 -0.042747676
000020 02 f0 f6 bc 02 06 06 be d3 8d 04 be 7c ef 45 bd
       -0.030143742 -0.1308823 -0.12944727 -0.048324093
000030 35 9d 04 be 64 23 1d be 67 15 9e 3c 04 32 8f bd
       -0.12950595 -0.15345532 0.019297315 -0.069919616
000040 76 80 4a 3d 06 3b 40 3c 49 b4 1f be 56 c1 37 bd
       0.049438916 0.011732822 -0.15596117 -0.044862114
000050 c1 59 a3 bd 1f 07 53 3c 1d 6f 5a bd d1 1a 44 3d
       -0.079761036 0.012880116 -0.053328622 0.047877137
000060 e0 25 a9 3d fb 1f c2 bd 87 0d 08 bd 22 c9 5a bd
       0.08259177 -0.09478756 -0.033216026 -0.05341447
000070 85 40 0d be 47 d6 ae 3d 41 38 19 bd 9f a6 05 bd
       -0.13794143 0.08536964 -0.037407164 -0.032629605
000080 f9 56 be bc 12 63 dd 3c f9 00 f0 3c ee 38 4c bd
       -0.023234831 0.02702478 0.029297339 -0.04985898
000090 d1 1a 2e 3c be 18 ac bc c3 23 b3 bd cc 82 94 bc
       0.010626511 -0.021007892 -0.087470554 -0.018128775
0000a0 5a fb bc bd 88 ae 86 bd 34 2e 09 be 76 40 af bd
       -0.09227629 -0.06576258 -0.13396531 -0.08557217
0000b0 01 ae ac bd 3f de 08 be 15 3e 97 3a 6b 72 6d be
       -0.08431626 -0.1336603 0.0011538888 -0.23188178
0000c0 d3 4c 99 bd 6c 2e 56 3c 4f 6b 04 be 28 94 9f 3d
       -0.07485356 0.013072591 -0.1293156 0.077919304
0000d0 2a 81 f8 ba 44 0a 0e bd c4 51 8f bd ec 4d 0e bd
       -0.0018959392 -0.03467776 -0.069980174 -0.03474228
0000e0 cb d9 3c bd 45 82 d0 bd 8c b2 3f bc 65 49 d9 bc
       -0.04610614 -0.10181097 -0.011700284 -0.026524255
0000f0 1b 92 79 bd 36 20 52 bd 28 4e 9a bd 38 19 b2 bc
       -0.060930353 -0.05130025 -0.07534438 -0.02174054
000100 f8 49 51 bd bd d3 45 bd 42 d9 06 3d be e4 63 3d
       -0.051095933 -0.048297632 0.032922037 0.055638067
000110 f9 ed 08 3d 25 2e 5d 3d 6a 53 59 bd 08 5f e1 bd
       0.033430073 0.053999085 -0.053058065 -0.11004454
000120 4e 0b 4f bc c3 13 20 3d cf 2a 7e bc 1c f0 0d be
       -0.012636973 0.039081346 -0.015513136 -0.13861126
000130 56 53 0e bd 85 19 6e bc 15 ce 0b 3d 58 32 06 bd
       -0.034747444 -0.0145324515 0.034132082 -0.032762855
000140 62 31 f7 bd f8 25 68 bd 86 cf 7b 3d a1 82 46 bd
       -0.12069966 -0.056676835 0.061477207 -0.04846442
000150 c4 2f 22 bd 27 bd 23 bd e3 c1 81 3c ff f0 b1 3c
       -0.039596334 -0.03997531 0.015839523 0.021721361
000160 2c aa 06 3d 83 ed dc bd 83 95 44 3d 39 9a cf bb
       0.032877132 -0.10787489 0.047994148 -0.0063355234
000170 c0 02 91 be 71 d7 3c bd 65 6f 09 be f4 69 a4 bd
       -0.2832241 -0.0461039 -0.134214 -0.080280215
000180 c3 ab 21 bd 91 c3 b4 bc da a0 e0 bd f4 54 49 bd
       -0.039470445 -0.02206591 -0.1096818 -0.049153283
000190 39 cc 8f bd 71 12 b1 bd 52 c7 0b be 7d e1 a5 bd
       -0.07021374 -0.086460955 -0.13650253 -0.08099649
0001a0 1c 6b 97 bd 49 fd 65 bc bb 7d c9 bd d7 91 f2 3c
       -0.07393476 -0.014037439 -0.09838434 0.029610557
0001b0 88 03 db 3b a8 bc 8d bd da b1 e0 bc f5 a1 02 be
       0.0066837706 -0.06920749 -0.027428556 -0.12757094
0001c0 90 a0 82 bc da b3 90 bd c7 3f 89 ba d4 8c a8 3d
       -0.015945703 -0.07065554 -0.0010471278 0.08229986
0001d0 35 89 a8 bd 4c 0c 36 be 5d 13 cf bd 94 a1 5c 3d
       -0.08229295 -0.17778128 -0.10111115 0.05386503
0001e0 27 ab c6 3c f0 53 c2 3c 40 32 f0 3c dc bd 37 3d
       0.024251534 0.023721665 0.029320836 0.0448588
0001f0 4f ab 23 3d e8 c7 b5 bd 65 b8 9a bd 9e da e0 3b
       0.039958294 -0.0887602 -0.07554702 0.0068619987

actor.6.weight f4 [8, 128]
000000 a3 06 df 3c 20 81 23 3c f3 e8 73 3c ba cf dd 3c
       0.027224844 0.009979516 0.014887082 0.02707659
000010 36 b5 bb 3c 72 09 94 ba 46 77 1e 3d 38 29 c0 bb
       0.022913557 -0.0011294319 0.038687967 -0.0058642887
000020 b4 5f e2 bb d0 00 92 bc 81 ec db bb d6 64 34 3d
       -0.0069083814 -0.017822653 -0.006711543 0.044041477
000030 73 5c e1 bc a2 17 de 3c 06 0c 9f 3b be e0 81 bb
       -0.027509904 0.027110878 0.004853728 -0.003963559
000040 b4 f9 9c bb 69 56 61 bc d3 69 44 3c a5 6a 15 bd
       -0.004790509 -0.013753512 0.011988121 -0.036478657
000050 56 c2 97 3c 97 93 fe 3c 6f 33 23 bc cb f4 20 bb
       0.018525284 0.031076236 -0.009960993 -0.002455997
000060 e4 41 a9 bb a1 44 f3 3a c0 4d c7 3c d4 56 90 3c
       -0.0051653255 0.0018559882 0.024329066 0.017619528
000070 9e a2 c7 bc ee bc 81 3a 2d cf 56 bc 52 8a 89 bc
       -0.024369534 0.0009898224 -0.013110918 -0.01678959
000080 8b 2d 44 3c 55 cc 16 3c 46 72 0a 3d a6 44 00 bd
       0.011973749 0.00920399 0.033800386 -0.03131547
000090 f2 88 6b bd eb b8 2f 3d 44 45 1a 3c 2f 7a a6 bc
       -0.057503648 0.04290096 0.009415928 -0.020321934
0000a0 15 a7 4f 3b 6f ce ac 3b 17 ac 11 bd 5c 6e 4f bb
       0.0031685282 0.0052736322 -0.03556451 -0.0031651473
0000b0 d4 99 95 bb 2f 26 ec bc fd 66 da 3b 46 6b b7 bc
       -0.004565457 -0.028826801 0.006665109 -0.02239002
0000c0 f0 21 2b bb 5d 79 0f 3c 41 ee 55 3c 3e a2 0a 3b
       -0.0026112758 0.008756963 0.013057292 0.0021153833
0000d0 1f 97 0a 3c 5b 78 ff bb 89 73 93 3d 06 4f 1a bc
       0.008458882 -0.00779633 0.07199771 -0.009418255
0000e0 93 f0 34 3b 54 32 bd bc f1 26 32 bc 45 5a 7e bc
       0.0027609214 -0.023095287 -0.010873542 -0.015524452
0000f0 e5 63 37 3d c9 ae 2f bb 2c 15 3a 3d 99 0d 94 bc
       0.044773 -0.002680706 0.045430347 -0.01807289
000100 05 66 cd 39 a8 6b 6e 3c bc 22 6f 3c 1b 6a 0e bc
       0.00039176657 0.014552034 0.014595684 -0.00869229
000110 a8 f2 1a 3c 9a 8f 00 bb 13 42 d9 3b 97 0d 0e bd
       0.009457268 -0.0019616843 0.006630191 -0.03468093
000120 1e b0 20 3c fa 64 ad 3c 2d 75 1d bc 3c 1d 0b bd
       0.009807615 0.021166313 -0.009610456 -0.033963427
000130 d8 c3 30 bd c7 1d 5a 3b b6 48 04 bc cb 26 5c 3b
       -0.04315552 0.003328191 -0.008073976 0.0033592458
000140 b3 e9 44 3b c0 46 b8 bb 10 f6 75 3c a9 ae 7a 3c
       0.0030046522 -0.0056236684 0.015012279 0.015300431
000150 73 d0 b5 bb f0 20 56 bc 6a fb a3 bb d6 ec 86 3c
       -0.0055485307 -0.013069376 -0.005004336 0.016470354
000160 7e 75 43 bd 16 e9 e6 3c f2 aa dc 3c 49 ee e3 ba
       -0.04771947 0.028187316 0.026936982 -0.001738974
000170 c8 04 ac bd b3 9a c7 ba 9e b3 54 3c 03 e9 87 bb
       -0.083993495 -0.0015228599 0.012982277 -0.00414765
000180 08 0b c2 3b a0 4e da bb 5f d9 ac bd 80 05 9c 3c
       0.005921725 -0.006662205 -0.08439898 0.019045591
000190 15 25 0e bb 14 0f 8b 3c 5a 16 49 3d 3f 41 7c bd
       -0.0021689583 0.016974963 0.04909358 -0.06158566
0001a0 95 13 ff bb e3 ad 82 3c a2 46 80 3c b4 6f 36 bd
       -0.007784317 0.015952056 0.01565868 -0.044540122
0001b0 c7 12 e0 3b e8 3f 41 3b 94 d3 b8 bb d1 9d d5 bb
       0.006838176 0.0029487554 -0.0056404565 -0.0065190573
0001c0 d4 cf 3c 3b de b8 c3 3c 14 ee 06 3d 54 ab 0f 3c
       0.0028810399 0.023891862 0.032941893 0.008768875
0001d0 6f 67 af 3d 78 12 3b 3d 6e 7b c8 bc 21 1d 03 3d
       0.0856465 0.04567191 -0.024472918 0.0320102
0001e0 0f 7b 90 bb a2 b9 e2 bb 86 98 d9 3c b8 1a a0 bc
       -0.004409201 -0.006919102 0.026561987 -0.01954399
0001f0 09 dd 0e 3d 66 97 5b bd 12 97 e1 3a 60 99 c6 3b
       0.034878764 -0.05361118 0.001721116 0.006060764
000200 8f 18 ed 3b 4b b8 3b 3c d2 f7 3c bc b0 4c 01 3d
       0.0072355936 0.011457513 -0.011533694 0.031567276
000210 e6 d5 dd 3c 21 1b 95 3b 28 21 dc 3b fe 6d cd bb
       0.027079534 0.004550353 0.0067178197 -0.0062692156
000220 1d 6f ff 3b b3 ba 27 3d dc cd ad b9 df f5 8b bc
       0.007795228 0.040949535 -0.00033150509 -0.017085014
000230 16 a3 61 bd 2a db 08 3d 80 e6 1d 3b 18 30 a7 bc
       -0.05508717 0.033412136 0.0024093688 -0.020408675
000240 53 11 96 bb 20 f2 47 3d 30 4f 53 3b 39 91 2c bd
       -0.004579702 0.048814893 0.0032243244 -0.042130683
000250 e3 99 9c 3c 97 60 80 bd 05 34 19 3b ac 9d 1e bc
       0.019116348 -0.06268423 0.0023376953 -0.009681147
000260 88 10 e3 bb dd 6a 78 bb 3b 50 c6 bd 17 81 92 bb
       -0.006929461 -0.0037905492 -0.096832715 -0.004470955
000270 b3 5d f6 bc 57 29 5d bc f9 21 48 bb c8 82 b5 3c
       -0.030073976 -0.013498626 -0.0030537827 0.022157088
000280 f6 4e 98 3b 94 9f 82 bc 11 22 db ba 75 27 ab 3d
       0.0046480848 -0.015945233 -0.0016718527 0.08357135
000290 8b b3 65 bd 0c 7e 3d bb 8a 68 77 3c f3 dc 0b 3a
       -0.05607943 -0.002891424 0.015100608 0.0005335353
0002a0 18 04 a0 3a aa a4 72 bc fd 39 04 3d de 3d 29 3c
       0.0012208251 -0.014809767 0.032281864 0.010329692
0002b0 52 ff 5e bb 2a 14 45 bc 99 c7 e3 bb bc c5 34 bc
       -0.0034026694 -0.012028733 -0.006951284 -0.011033472
0002c0 af 4a 33 bc 27 c8 b9 bb cd 48 26 3b 75 93 3e bb
       -0.010943099 -0.005669612 0.0025372982 -0.002907959
0002d0 0d 5b 2d bb 70 20 be 3b 9f cd 19 3d 0e d9 0b bc
       -0.0026451976 0.0058022067 0.03754961 -0.008535637
0002e0 2f 02 21 3b a8 4d b8 3c 8a 72 94 bc a2 3a c6 3b
       0.0024567952 0.022497967 -0.018121023 0.00604947
0002f0 c7 46 82 3d 1c 9a 6c 3c 46 1b 3a bc b2 3c 23 3c
       0.06361156 0.014441039 -0.011359042 0.009963201
000300 fb 8c 3a 3b ba 80 16 bd 4f 03 1b 3c 3a 13 a9 3a
       0.0028465379 -0.036743857 0.009461238 0.0012899407
000310 09 4d ea ba 3e 09 f9 3b e9 df d9 3c ea ce a0 bd
       -0.0017875741 0.0075999787 0.026596026 -0.07851966
000320 ab 28 9c 3b ea 0f 96 bb fd ae 81 bc b8 7b ba 3c
       0.00476559 -0.004579534 -0.015830511 0.022764072
000330 80 1a 46 3c 75 80 63 bc 68 e5 26 bc 57 5e d1 38
       0.012091279 -0.013885607 -0.010186531 9.983469e-05
000340 c6 19 a2 bc 9d 53 bb 3a 08 d9 01 bc 17 04 05 ba
       -0.01978768 0.0014291886 -0.007925279 -0.0005074157
000350 99 c0 de bc 46 dc 52 3a 08 7a 69 bb dc ed a5 bc
       -0.027191447 0.00080436876 -0.0035625715 -0.020255022
000360 b1 86 3e 3c f3 b8 fa bc 97 b2 3b 3c 97 19 9c bc
       0.011628793 -0.030605769 0.011456153 -0.019055171
000370 7e 74 32 3d 2c 22 5b bb d3 b6 85 3c a6 2a 16 3d
       0.043568127 -0.0033437116 0.016322529 0.036661766
000380 11 92 91 3b 6c 7f 30 39 10 12 1f 3d 82 01 12 3d
       0.0044424613 0.00016832136 0.038835585 0.03564597
000390 21 1e c5 3c b5 df 8a bc cc 0f c8 3c 9a 53 e8 bc
       0.024062218 -0.016952375 0.024421595 -0.028360177
0003a0 67 3b 86 bb 18 dd 3d bc b5 87 3d 3a 3c fe c0 bc
       -0.004096437 -0.011588357 0.000723 -0.023558728
0003b0 f2 5c be 3a a4 19 d5 3b 20 a9 48 bc d0 94 c4 3b
       0.001452355 0.0065033007 -0.012247354 0.005999185
0003c0 0c 58 02 bd 26 18 f4 bc cf f0 f9 3c b5 93 08 3c
       -0.03182225 -0.029796671 0.030510334 0.008335997
0003d0 c2 6f 16 3c b4 41 02 bc 97 9d 0f bc 9f c5 f2 bc
       0.009181919 -0.007950235 -0.0087656 -0.029635249
0003e0 c9 bc 13 bc 8f 18 e3 3b 22 90 39 3d be b0 f2 bb
       -0.009017178 0.006930418 0.04530347 -0.007406323
0003f0 74 18 a5 bc 28 e4 e5 3c 3f bf 60 ba c0 b8 c6 bb
       -0.020153262 0.028062895 -0.000857342 -0.0060645044

actor.6.bias f4 [8]
000000 fd 8b 37 3e 78 19 cd bd 9d 48 5e bd 9e 95 ef 3d
       0.17924495 -0.100146234 -0.05426847 0.11698459
000010 ae b0 cf 3c 3b 71 10 3d f8 a6 c7 bd 97 65 70 bc
       0.025352802 0.035264235 -0.09748644 -0.014672658
