ISAAC_NOGIT/logs/rsl_rl/traquad_flat/2025-09-16_14-33-50/model_100.pt (torch, 925483 bytes, 48 tensors)

std f4 [8]
000000 30 7e 50 3f 94 b1 49 3f 56 c6 30 3f 07 9f 26 3f
       0.81442547 0.7878659 0.69052637 0.65086406
000010 d6 96 53 3f 58 73 2c 3f 20 b2 13 3f 04 fb 47 3f
       0.8265203 0.673635 0.5769367 0.78117394

actor.0.weight f4 [128, 31]
000000 34 7c 9a bd 23 3c c0 3d a2 bc 39 3e 80 99 21 3e
       -0.07543221 0.0938647 0.18138364 0.15781212
000010 87 0b 6f 3d 0c 62 6d 3d e0 16 af 3c d1 35 73 bd
       0.058360603 0.057954833 0.021373212 -0.059377495
000020 f8 d8 06 3d 65 62 8a 3e 6f 0b bd bc 87 6e 24 be
       0.03292176 0.27028194 -0.023076741 -0.16057788
000030 89 40 bc bd da 54 f9 3d 30 7e a8 3b b5 7e 8a bb
       -0.091919966 0.12174387 0.005141996 -0.0042265304
000040 77 d6 e4 bc e8 cb b7 3c b7 bf 11 3e d0 c9 fb 3d
       -0.027934296 0.022436097 0.1423329 0.12294352
000050 fb 70 1b 3d 2a da 15 be 5b 32 24 be 43 23 18 bd
       0.037949543 -0.14634004 -0.16034834 -0.037143003
000060 d5 43 21 3e 83 4a 1d bd ab 17 0f 3e 70 d0 2a 3d
       0.15748532 -0.038401138 0.13973872 0.041702688
000070 74 86 0c 3e df 4c f3 bd 09 5a 16 be 3f 4e 95 bd
       0.13723165 -0.118798964 -0.14682783 -0.07290315
000080 e4 94 08 be 27 33 af 3b b1 93 95 bb 04 0f e4 bd
       -0.13338047 0.005346674 -0.0045647253 -0.111356765
000090 7f 0d e1 3d dd 58 ff 3d c0 77 32 be 79 15 00 3e
       0.10988902 0.12468121 -0.17428493 0.12508191
0000a0 f3 75 34 3e 49 e8 2d be d8 17 1e 3d 36 63 3b be
       0.17623119 -0.16983141 0.038596958 -0.18299565
0000b0 e2 7e 87 3e a2 da 4f 3d 1a 17 a9 bd 19 5d 4d bc
       0.2646399 0.050745614 -0.082563594 -0.012534403
0000c0 3a 3c 88 bd 7a 9d a2 bd 44 c5 54 bd 27 ba 36 3d
       -0.06652112 -0.079401925 -0.05194594 0.044611122
0000d0 21 5e a0 bc 31 5f 14 3e 0b 53 d6 3d 3d 2a d6 bb
       -0.019576134 0.14489438 0.10465058 -0.006535797
0000e0 39 f9 10 3e 96 bf 14 3c 19 6d 0c be ae 77 29 be
       0.14157571 0.009078881 -0.13713492 -0.1654956
0000f0 95 bc bb 3d 12 76 0a be b1 0d 16 3e 84 b1 44 3e
       0.091668285 -0.13521603 0.1465366 0.19208342
000100 7c 5b ea 3b 2c 3e d7 bd f1 ca e5 bc 87 a3 0a be
       0.007152019 -0.10509905 -0.028050872 -0.13538943
000110 ce 9d 0b 3e 84 f7 7c 3d 58 50 86 be 58 cc bd 3d
       0.13634416 0.061759487 -0.26233172 0.09267491
000120 83 2f 0d be 5b f8 8b 3c e1 9d 50 3d cd 97 81 be
       -0.13787656 0.017086199 0.050931815 -0.25311127
000130 44 a4 9d 3d 2a 5d 5e bd e4 66 ef ba 71 18 ae 3d
       0.07697347 -0.054288067 -0.0018264917 0.085007556
000140 79 67 54 3b f5 74 77 3d a3 05 14 3e 9b 04 c4 3d
       0.0032410307 0.060414273 0.14455275 0.09571191
000150 52 44 d0 bd 25 f6 d9 bd 0d eb ce bc 3d f9 56 be
       -0.10169281 -0.106426515 -0.025258565 -0.20993514
000160 c1 f6 d3 bd 0f 78 04 3e 96 fa 2a 39 fd 69 34 be
       -0.10349799 0.12936424 0.00016305814 -0.17618556
000170 82 61 49 3e 1e 7c c0 3c 15 7c 28 bb 61 58 3a 3e
       0.19666103 0.023496684 -0.0025708724 0.18197776
000180 00 68 f5 3c ec a7 10 be 57 af 4d be 64 79 3e be
       0.029956818 -0.14126557 -0.20086418 -0.18600994
000190 77 3c 6d 3e 0a b6 2c 3d c0 e9 0a be 81 bc f7 3d
       0.23167597 0.042165793 -0.13565731 0.12096501
0001a0 db 65 97 bd 7e 42 0d 3e ae 97 92 3b fc 2f 8e 3d
       -0.07392474 0.13794896 0.004473648 0.06942746
0001b0 70 35 7c 3e 50 2f 1e 3e c8 8d 88 3d 48 6e f8 3d
       0.2462976 0.15447736 0.066676676 0.121304095
0001c0 18 84 b9 3d cb f5 ef 3d 61 18 13 be f1 03 d0 3d
       0.09058398 0.11716803 -0.14364769 0.10157002
0001d0 e2 20 e8 3d 5d 08 ee bd 98 64 85 3c 52 6f 3a 3c
       0.11334397 -0.11622689 0.016283318 0.01137908
0001e0 6a 5c 02 3e a1 43 2c bd 36 0a 34 3e bb 75 09 be
       0.12730566 -0.042056683 0.1758202 -0.13423817
0001f0 b7 b0 16 3d af c9 19 be 4b ae b4 bd 8f cd cd bd
       0.036789622 -0.15018342 -0.08822306 -0.10048973
000200 59 87 ed 3d 96 f0 c8 bd 2f e3 b8 3d 2e 18 23 3d
       0.11598081 -0.09811513 0.09027707 0.03981798
000210 70 cb 46 be ee f5 a8 3d 66 68 34 be 82 ef ac 3d
       -0.19413543 0.08250032 -0.1761795 0.0844412
000220 c2 c7 92 3d 6f 7a 26 3d 56 77 4b 3d 83 71 52 3d
       0.07167007 0.040644106 0.049674354 0.051377784
000230 77 8a 1f 3e 8d 26 50 be c7 29 dd bb 17 9f 7c 3d
       0.15580164 -0.20327206 -0.006749365 0.061675157
000240 9e 6a ee 3d 17 b9 9b bb 75 40 68 bd 32 02 85 bd
       0.11641429 -0.004752289 -0.056702096 -0.06494559
000250 8f 3c 67 3b 10 0a 0b 3e 1c 37 55 bc 21 79 1d 3e
       0.0035283898 0.13578057 -0.013013627 0.15378238
000260 99 32 17 3e ba 67 f1 bd 6e b1 02 3e f9 25 66 bd
       0.14765395 -0.117873624 0.12762997 -0.056188557
000270 ce 28 40 bd d2 f1 f1 3d 86 d8 ca bd 5d 52 b1 3b
       -0.046913914 0.11813702 -0.0990458 0.00541143
000280 7b 2c 86 3d e5 4e 5f 3e 23 2b 7f be be eb 75 be
       0.06551453 0.2180744 -0.24918799 -0.2401571
000290 5f c9 f3 bd 64 2d b8 bc 7b c3 ba 3d e2 41 c7 3d
       -0.11903643 -0.022482581 0.09119316 0.09729363
0002a0 78 d7 1d 3e 6e de 44 3e a5 75 e6 bd c6 e4 2e bd
       0.15414226 0.19225475 -0.11252908 -0.042698644
0002b0 d8 55 2e 3c 4f a0 29 3e 6e b8 0b 3e 59 71 11 3e
       0.010640584 0.16565059 0.13644573 0.14203395
0002c0 5d 67 1f be 95 f3 60 3c 15 e3 fa bc 9a a6 25 be
       -0.15566774 0.0137299495 -0.03062586 -0.16176835
0002d0 bb 28 07 3c 95 52 1e 3d ff 3e 49 be d6 eb 2c 3c
       0.008249457 0.038652975 -0.19652937 0.010554275
0002e0 87 78 e3 3d 3c 03 c7 bd 41 44 21 be dd 04 ee bd
       0.11106973 -0.09717414 -0.15748693 -0.11622021
0002f0 30 ce 47 3d 5f b6 fd 3d 31 48 02 3e e4 27 6f be
       0.04878062 0.123883 0.12722851 -0.23355061
000300 ca 07 91 3e fa 71 0a be 64 43 fc 3d 4a a3 18 bd
       0.28326255 -0.13520041 0.12317541 -0.0372651
000310 b1 fe 54 3e 10 9b 61 bd 18 c0 45 be 18 f3 8b 3e
       0.20800282 -0.05507952 -0.19311559 0.27333903
000320 87 d6 94 3c fb bb 73 3c 58 05 3f 3d 28 30 16 be
       0.0181687 0.014876361 0.046635956 -0.14666808
000330 66 21 3c 3e e3 ae 84 3c 3b d9 36 bc b1 e9 3a bd
       0.18372115 0.016196674 -0.01116019 -0.04563302
000340 13 9f de 3c e5 cb f6 bd 0a 8e a3 ba 98 f5 54 bd
       0.027175462 -0.120506085 -0.0012478244 -0.05199203
000350 da 6b 97 3d 51 e2 1d be b7 44 1e 3c d9 c3 ae 3d
       0.07393618 -0.15418364 0.009659938 0.08533449
000360 fe 9f 21 be 5a 7e 64 3e 2d 94 3f be 20 6e 10 3e
       -0.15783688 0.22313824 -0.18708868 0.1410451
000370 38 9b 02 3c 7b 1d d9 bd eb 2b 06 bd e8 42 67 3e
       0.007971577 -0.10601326 -0.032756727 0.22584116
000380 40 88 a2 bc d0 20 0a be 50 04 3e be 36 3a 79 3d
       -0.01984036 -0.1348908 -0.18556333 0.06084653
000390 f7 a0 b3 bb a4 d6 96 3c ce ca 2c bd db 4c 75 3c
       -0.005481835 0.018412896 -0.042185597 0.014971937
0003a0 38 66 c3 bc a8 94 3e bc d6 87 a1 3d d2 3c 49 3e
       -0.023852453 -0.011632122 0.07887237 0.19652107
0003b0 3f 62 c9 bc 76 50 a1 bc ad b2 c2 bd ca 3d 13 be
       -0.02458298 -0.019691687 -0.09506736 -0.1437904
0003c0 3b f3 95 bd 6c 5d 0d be 53 9c d8 3d 6d 24 07 3e
       -0.07321783 -0.13805169 0.105766915 0.13197489
0003d0 d4 e6 27 3e bd e7 4f 3c f2 d6 0a be 12 b3 36 3e
       0.16396648 0.012689528 -0.13558558 0.17841747
0003e0 87 9a 10 bd 53 b2 cd bd 46 88 85 3e 4e b4 83 bd
       -0.03530362 -0.10043778 0.2608053 -0.06430875
0003f0 94 99 03 3d b2 84 41 be 8a 5b eb 3d c5 61 b0 bd
       0.032128885 -0.18898275 0.11492069 -0.08612398

actor.0.bias f4 [128]
000000 d3 fd 81 bc 59 68 9e bd 28 f1 0c 3e 60 31 cc bc
       -0.015868103 -0.077347465 0.13763869 -0.024925888
000010 ad 57 1b 3e 68 40 05 3e 7b e4 24 bd 53 2e 3c 3d
       0.15170164 0.1301285 -0.04025696 0.045942616
000020 ed f0 e6 bc a0 cb 45 3e 46 ca 53 be 40 fd 06 bd
       -0.028191054 0.19315958 -0.2068263 -0.03295636
000030 0f df 8f bd 5b 73 6e 3e bb b5 8f bd f6 aa 85 3e
       -0.07024967 0.23286192 -0.07017084 0.26106995
000040 33 de 8e 3e 81 c0 91 3c 8f 6d 66 be da 93 9d bd
       0.279039 0.017791988 -0.22502731 -0.07694216
000050 24 5c 9c 3e b7 43 c7 3d c5 11 61 3d 53 65 50 3d
       0.30539048 0.097297125 0.054948587 0.05087788
000060 fa 79 16 3e 37 58 0a be cf db ba 3d 81 ff b1 3d
       0.14694968 -0.13510214 0.091239564 0.08691312
000070 e9 fa 8a 3c 3a 25 fe 3d ce 75 19 be bd 27 94 bd
       0.016965346 0.12409444 -0.14986345 -0.07234142
000080 bd 4a 3c be 7f b4 2c 3e c2 8f 6b bd 4d bf 2a 3e
       -0.18387885 0.16865729 -0.057510145 0.16674538
000090 21 1a 88 3e e7 f3 01 bd 84 76 18 3e 80 77 8d 3e
       0.26582435 -0.031726744 0.1488896 0.27630234
0000a0 e6 34 77 3e 07 c0 04 be 88 35 a2 3a 4d 59 f4 3c
       0.24141273 -0.12963878 0.0012375573 0.029827738
0000b0 24 ba 21 3e 6a 5d 18 3e 15 83 ff 3d d4 d0 a8 3d
       0.15793663 0.14879385 0.12476174 0.08242956
0000c0 64 48 b1 3d e9 dd 38 be 24 53 92 3d 3e 2a c8 bc
       0.086563855 -0.18053402 0.07144764 -0.024434205
0000d0 20 d2 2c 3e d2 42 c8 3d a2 52 f3 3d 2f 87 47 bd
       0.16877031 0.0977837 0.11880995 -0.048712905
0000e0 46 fd 68 3e de 2e 94 3d 28 40 78 bd f2 bf 1d 3e
       0.22752866 0.07235502 -0.06060806 0.15405253
0000f0 3f e9 14 bd 57 16 3a be 23 60 08 bd 0a 36 5f 3e
       -0.036355253 -0.18172584 -0.033294808 0.21797958
000100 0d a8 1e be c3 31 ab bc 05 e3 25 3c 27 cd 0e 3d
       -0.15493794 -0.020897752 0.010124926 0.034863617
000110 28 01 25 3e 89 70 d9 3d db d9 7f be bb 3f f2 3d
       0.16113722 0.106171675 -0.24985449 0.11828562
000120 91 91 82 3e 33 ff 32 3a 1b d3 dc bc 8c be 44 bd
       0.25501683 0.0006828189 -0.026956132 -0.048033282
000130 ef 8c aa 3c 3f 1a ea bd 8a f8 db bd c4 96 03 3e
       0.020819155 -0.11430787 -0.107407644 0.12850481
000140 76 32 d9 3c cd f8 d4 bd 9e 0a 01 be ed 44 a0 3d
       0.02651332 -0.103990175 -0.12601706 0.078256465
000150 fd 28 06 3e 20 b4 bf bd 6e dd ba 3d fa 0b fa bd
       0.13101573 -0.09360528 0.091242656 -0.122093156
000160 be 73 0b 3e 51 e5 5b bd 4e f1 7a 3c 25 62 84 bd
       0.13618371 -0.05368549 0.015316321 -0.06464032
000170 7a 4f 38 3e b1 a9 11 be a5 fe 17 3d 6b 26 4e bd
       0.17999068 -0.14224888 0.037108082 -0.050329607
000180 b6 4d 98 3d 50 6c 88 3d c9 f4 4e 3e 1d 33 53 3d
       0.07436697 0.06661284 0.20210566 0.051562417
000190 f6 de a0 3e 63 80 62 3e 27 a7 27 3e 09 ce 77 be
       0.31420106 0.22119288 0.16372357 -0.2419969
0001a0 d3 d7 47 3e 5e 95 68 3d fa 85 e8 bc de 3f 21 3e
       0.19515924 0.056783073 -0.028384198 0.1574702
0001b0 f9 26 6e be 25 56 43 3e 6a 90 23 be 87 db a2 3c
       -0.23257054 0.1907583 -0.15973058 0.01988007
0001c0 c6 fe 23 bd 04 e6 82 3b 15 29 2b bd 9d 5b f0 3d
       -0.040037893 0.003994705 -0.041787226 0.11736224
0001d0 2e 56 c3 bd 6a 2e 92 3e b0 51 dd 3c 86 0e a5 bd
       -0.09537922 0.28551036 0.02701649 -0.08059411
0001e0 7c 34 bf 3e 08 34 1e 3e a1 32 ef bc 77 20 66 ba
       0.3734473 0.15449536 -0.029198946 -0.00087786413
0001f0 54 fe f2 3d e4 24 9e 3d 91 31 06 3e 4c a0 20 3d
       0.118649155 0.0772188 0.13104846 0.03921537

actor.2.weight f4 [128, 128]
000000 d2 d2 8f bd c1 c7 b2 bd c3 a2 bf 3c f5 68 cb bc
       -0.07022633 -0.08729506 0.02339304 -0.02483032
000010 46 2d 35 3d ee ed b6 bd 40 bb 76 bd c1 2f 4a 3d
       0.04423263 -0.089321 -0.06023717 0.049361948
000020 85 b1 c9 3c 39 a5 94 3d c1 e2 3d bd 99 e5 dd 3b
       0.02462078 0.07258076 -0.046358828 0.006771755
000030 dc 33 04 3d 16 38 1d 3d c4 7c a6 3d 60 26 32 bd
       0.03227602 0.038383566 0.08129266 -0.04349363
000040 d3 a5 ad 3d ef bc 9a bd a8 2b f0 3c 76 22 69 3d
       0.08478894 -0.075555675 0.029317692 0.05691763
000050 d8 49 23 3d db 4b 43 bc c7 29 2a 3d 05 3c a9 3c
       0.039865345 -0.011919941 0.04154375 0.020658502
000060 60 d6 07 3d af 91 01 3c a4 b6 e0 3c 08 62 3b 3c
       0.03316343 0.007908269 0.02743084 0.011436947
000070 49 cb ca bc ba d9 60 3d fd 94 d3 3b c2 d5 b4 3c
       -0.024755137 0.05489514 0.00645697 0.022074584
000080 f1 58 8a bd 6e 07 80 3c 41 1d 9b 3d fd 92 3c bd
       -0.067552455 0.015628543 0.07573939 -0.046038616
000090 c7 64 0b 3d 4c a1 8a bd 7b f3 6d bd 23 e0 56 bd
       0.034031656 -0.06769046 -0.05809353 -0.052459847
0000a0 ac 97 9a 3d 3c 56 fb bb 7e 01 75 3d 58 4a 84 3d
       0.0754846 -0.007670192 0.059815876 0.064594924
0000b0 82 3d 8a 3d ef e6 a3 3d f5 a3 1f bc 40 48 af 3d
       0.06750013 0.080030315 -0.00974368 0.085587025
0000c0 a0 e1 54 bb f8 a5 29 3c 0c 33 99 bd 4d c5 7a bb
       -0.0032483116 0.010354511 -0.074804395 -0.0038264573
0000d0 35 43 a0 3d f8 2f ed bc f1 93 5c 3c dc 7d 47 3d
       0.07825319 -0.028953537 0.013463006 0.048704013
0000e0 36 47 85 3d 9e 2f 5d bc e5 38 1f 3d f1 5f f4 bc
       0.06507723 -0.013500122 0.03887262 -0.029830905
0000f0 ca b6 23 bd 5c 16 9c 3d 4a 9d 94 3c 58 7b 8a bb
       -0.039969243 0.07621452 0.018141408 -0.0042261295
000100 e5 e8 82 bd 94 30 7f 3d 27 ce 1a bc f0 56 9f bc
       -0.06392077 0.062302187 -0.009448565 -0.019450635
000110 97 d2 1e bc 59 1e 5b bd cc 57 52 bd d0 af 77 bd
       -0.009693763 -0.05349574 -0.05135326 -0.060470402
000120 d2 f0 fd bc d3 7e d5 3c 1c 0e 85 37 21 53 4e bc
       -0.030998621 0.026061451 1.5861406e-05 -0.012593062
000130 db f8 5e bd fb 06 11 bc 7e 63 9c bd 16 eb ad 3d
       -0.054436546 -0.008851762 -0.07636164 0.08492105
000140 44 ad 5e bd 9b 95 2e 3d 1b ef e5 bb c0 f8 a2 3d
       -0.054364458 0.042623144 -0.007017029 0.079576015
000150 fd 61 a5 3d 32 7b 8d 3d 1e 6a 25 bc 99 c4 24 b9
       0.080753304 0.06908263 -0.010096101 -0.00015713497
000160 ae f1 ca 3c f6 0c d0 bc bb e6 76 bd 44 ce 3b 3d
       0.024773445 -0.025396805 -0.060278635 0.045851007
000170 66 e9 21 3c 28 83 93 3d 29 a1 20 3d c1 26 42 3d
       0.009882307 0.072027504 0.039216194 0.04740024
000180 ff d8 bd bb 0d 56 eb bc 10 1e 81 bd d8 73 9b bb
       -0.00579369 -0.028727556 -0.06304562 -0.0047440343
000190 db bd e7 bc 53 da bb bc 92 05 81 3d 70 3a de 3c
       -0.028288772 -0.022931254 0.062998906 0.027127475
0001a0 78 66 a5 bd 5e 93 7f 3d fc e0 45 bc d8 a3 2d 3d
       -0.08076185 0.0623964 -0.012077566 0.04239258
0001b0 82 17 d9 bc b5 d2 24 bd ea 72 8c 3d b1 77 ba bd
       -0.026500467 -0.04024001 0.068578556 -0.091048606
0001c0 88 22 9e 3d 0a fa 64 3d 54 03 f2 bc 90 1d 10 3d
       0.0772143 0.05590252 -0.029542603 0.035184443
0001d0 d9 0e b4 3b eb 18 a3 bd 49 7a c0 bc c8 e9 2f 3d
       0.005494934 -0.07963737 -0.02349581 0.04294756
0001e0 e9 a6 a2 3d f6 af 13 bd c0 5a cb bc 53 c5 86 3d
       0.07941992 -0.03605648 -0.024823546 0.06580605
0001f0 26 c4 af bd 85 e1 3a bd d0 77 b1 bd 20 b8 b1 bd
       -0.08582334 -0.04562523 -0.086654305 -0.08677697
000200 4d af b0 bd c0 b8 c2 bc 88 bf 9a 3d 5e dc a8 3d
       -0.08627186 -0.023769736 0.07556063 0.08245157
000210 ff c2 99 3d d9 6d a8 3c 90 07 7c bc 6a 61 66 3c
       0.07507896 0.020560192 -0.015382662 0.014061311
000220 84 26 99 3d 24 40 95 3b f1 bf 2a 3d ee 0c 81 bd
       0.074780494 0.0045547653 0.041686956 -0.06301294
000230 51 5d 65 bd 9d 2b ee bb 3f 3c 84 bd 0f bb 09 bc
       -0.055997197 -0.0072683827 -0.064568035 -0.008406415
000240 1d bb fc bd b6 16 e8 ba 56 c3 e0 bd f2 a9 87 3d
       -0.123403765 -0.0017706964 -0.109747574 0.06624211
000250 b6 d5 99 3d f1 ed 69 bc f0 03 21 3d e7 54 4d 3c
       0.07511465 -0.014277921 0.039310396 0.012532449
000260 fa e5 15 bd 91 9c bc bd 97 44 40 3d c0 98 81 bd
       -0.036596276 -0.0920955 0.046940412 -0.06327963
000270 09 f3 68 3d da dc b8 bd 2a ea 83 bd 77 1e a2 bc
       0.0568724 -0.09026499 -0.064411476 -0.019789917
000280 f0 af 6c 3c e1 33 78 bd 27 55 a9 3d 27 2e f3 ba
       0.014446244 -0.06059635 0.08268195 -0.0018553183
000290 69 e1 be bb f6 c6 ab bd 05 79 98 b9 3a dd 69 3d
       -0.005825211 -0.08387558 -0.00029081866 0.057095744
0002a0 a4 33 08 3b e7 aa 95 bd 3c c2 fd 3a 84 db 42 3d
       0.0020782733 -0.07307988 0.0019360255 0.047572628
0002b0 2c 72 15 3d f6 64 6c bd 7e 54 a4 3d 4b 29 bb bd
       0.036485836 -0.05771347 0.08023928 -0.091387354
0002c0 a0 b7 03 bc fa 61 9b 3d 46 84 1f 3d d0 2c b4 bd
       -0.008039385 0.07587047 0.038944505 -0.0879761
0002d0 38 dd 0b bd 00 e8 8a bd fd f0 8a bd 31 40 15 bc
       -0.034146518 -0.06782532 -0.06784246 -0.009109543
0002e0 48 76 04 bd 5a c4 e3 3c 6b 50 0a bd c6 c5 5e bd
       -0.032339364 0.027803589 -0.0337681 -0.05438783
0002f0 df ed 0a bc 12 5a 41 3d c1 d7 af 3d 75 fd b6 bd
       -0.008479564 0.04720504 0.08586074 -0.08935062
000300 13 73 c6 bc d1 d9 04 bd c3 9e a9 3d 31 6a 1b 3d
       -0.024224794 -0.03243429 0.082822345 0.03794307
000310 a2 4f 80 bd cf 0e b3 bc b5 c8 f3 bc 32 7f 00 bd
       -0.06265189 -0.021857647 -0.02975879 -0.031371303
000320 a6 27 cc 3c fe 86 5b bc a2 88 85 bd 20 7b 29 bd
       0.02492125 -0.013398884 -0.06520201 -0.041377187
000330 68 97 38 3d 87 5b 1e bb db 3a 8a 3c 67 61 83 bd
       0.045066267 -0.0024163441 0.016873768 -0.064150624
000340 a9 50 a4 bc 75 83 5f bd 5c a8 f1 bb e1 9e 4e 3d
       -0.020057993 -0.054568727 -0.0073748063 0.050444487
000350 28 ac a3 3a d0 53 13 3d 2f 83 12 bd 15 40 d7 3b
       0.001248722 0.0359686 -0.035769638 0.0065689185
000360 c8 be 85 bb 08 48 a0 bb 53 89 84 3c 1c f8 07 3d
       -0.004081581 -0.0048913993 0.016178763 0.0331956
000370 fc e9 f8 3c 4a 13 8c bd 39 4c 3d 3d 7d 36 96 3d
       0.03038501 -0.068396166 0.04621527 0.073346116
000380 91 ea d1 bd dd ec 31 bd 5d 61 34 3d e8 81 67 3d
       -0.10249818 -0.04343878 0.044038165 0.056520373
000390 23 cb ac bd 35 a9 26 bd ec 64 a5 bd 46 bb d3 bc
       -0.08437183 -0.040688712 -0.0807589 -0.025846135
0003a0 f0 36 47 3c 38 3a 27 3d f2 f7 47 bd 9b c2 75 3c
       0.012159094 0.040827006 -0.048820443 0.015000011
0003b0 9d c0 52 bd be f2 69 3c 47 93 a7 bd f6 bf b6 bd
       -0.05145322 0.014279066 -0.08182388 -0.089233324
0003c0 6c 3f 98 3d bc 31 76 3d ef 0f d1 3c fc 72 aa bd
       0.07433972 0.060106024 0.025520293 -0.08322713
0003d0 38 1c 5c 3d 1a bb 41 3d 98 99 c4 3b d7 ef 31 3d
       0.05373785 0.047297575 0.005999755 0.04344162
0003e0 55 3d 02 3d ba c5 b5 bd dd d3 31 3d 51 75 05 bd
       0.031796772 -0.08875604 0.04341494 -0.032582585
0003f0 d0 46 c3 bd 0b 6f a3 3d ae 54 49 bd d3 f8 79 bd
       -0.09534991 0.07980164 -0.049153022 -0.061028313

actor.2.bias f4 [128]
000000 2c 73 bd 3d 9c 9e 21 be 78 3c 4d bd b4 b9 29 bd
       0.09250483 -0.15783161 -0.050106496 -0.041436866
000010 03 ce dd 3c c0 09 93 bd d7 97 03 be 47 de 65 3d
       0.027075773 -0.07179594 -0.12850891 0.056120183
000020 a2 6e b0 bd 82 9c df bc ef 13 18 be ae f0 73 3d
       -0.086148515 -0.027296308 -0.14851354 0.059555702
000030 72 97 10 3e 84 61 ba 3d 53 4a 4a bd a0 fa 88 3d
       0.14120272 0.09100631 -0.049387287 0.06688428
000040 09 95 d1 bd 53 7b 79 be 78 59 14 bc 12 6e 62 3d
       -0.10233504 -0.2436345 -0.009054534 0.055280752
000050 6c 9e 97 bc 3b 7e 30 be 1f 87 ca bd 74 78 2c bc
       -0.018508159 -0.17235653 -0.098890536 -0.010526765
000060 fe 4d 7c bc 33 e7 96 bc 67 95 89 be c6 d5 a7 bd
       -0.015399454 -0.018420791 -0.26871797 -0.08195071
000070 9d 92 79 3c 03 7a 10 bd fe 08 06 bd ce 43 79 bc
       0.015232709 -0.03527261 -0.03272342 -0.01521392
000080 ca 82 6d bd ac 8b e1 bd 47 1b 41 3b 16 98 6c 3d
       -0.05798606 -0.110129684 0.0029465721 0.057762228
000090 6f 1b 67 3b 87 9b 3f bd c5 e8 90 3c d6 97 d6 3d
       0.0035264154 -0.04677918 0.017689118 0.10478179
0000a0 61 40 76 3d ef e6 7b 3c 41 57 9c 3d 65 3a 9c 37
       0.06011999 0.015374883 0.0763383 1.8623841e-05
0000b0 13 c4 cc 3d 3c d9 62 bd 57 97 9e 3b c5 fa ca bd
       0.09998336 -0.055382952 0.0048398185 -0.09911112
0000c0 34 7d 9c bd fc 50 b7 bc 57 b6 c2 3d a8 cb da bc
       -0.07641068 -0.022377484 0.09507435 -0.026708439
0000d0 ba f3 1b be bd 7a 26 3d 4b 5a 77 bd c6 ff d9 bd
       -0.15229693 0.040644396 -0.060388844 -0.10644488
0000e0 df e2 41 3c 1c 63 4d bd 5c 9b 51 bb 4b 3c 10 bd
       0.011833875 -0.050143346 -0.003198347 -0.03521375
0000f0 06 f9 83 bd b8 b3 f3 3d 87 f7 03 3e 4e be f8 3d
       -0.06443982 0.11899513 0.12887393 0.12145673
000100 7a 9e af bd dc 79 b3 bd 40 4c 25 3d fc 0b 45 be
       -0.08575149 -0.08763477 0.04035592 -0.19242853
000110 27 fa 9f bd ed 81 7e bd 9c a3 b4 bd 88 f9 ce bd
       -0.07811385 -0.062135626 -0.088202685 -0.10106188
000120 12 cc 05 3e e2 4f f9 bd 86 82 e5 3d 7f c6 a1 3c
       0.13066128 -0.121734396 0.11206536 0.01974797
000130 75 0b 0a bd e5 a6 bf bd 5a a4 d3 bb 04 77 6d be
       -0.033702333 -0.093580045 -0.006458801 -0.23189932
000140 a6 66 2d be ea d4 4e bd 57 2d 19 be a6 44 76 3d
       -0.16933689 -0.05049602 -0.14958702 0.060124062
000150 ef 1d 35 bd f5 fd 58 bd c6 9c 10 be 56 07 35 be
       -0.044218 -0.052976567 -0.14122304 -0.1767858
000160 f6 55 4e bd fc 27 b4 3d 8f 7b 48 39 00 2f b3 3d
       -0.050374947 0.08796689 0.00019119515 0.08749199
000170 aa b2 38 be 60 1d 76 be 38 5e 88 3d 30 45 91 3d
       -0.18036905 -0.24034643 0.06658596 0.070932746
000180 d3 bf 31 bd 8d cd d1 bc 1d 26 cd bd 11 18 30 3d
       -0.04339583 -0.02561071 -0.10017035 0.0429917
000190 4e 4e 7b 39 2d c0 03 bd 57 c4 b9 3d a4 a5 26 be
       0.00023966396 -0.032165695 0.09070652 -0.16274124
0001a0 aa bc 50 3d fa 93 fe bc a7 79 0b be 72 3a 04 3e
       0.050961174 -0.03107642 -0.13620625 0.1291292
0001b0 d8 9d 35 bd 26 49 d4 3c 54 dd 50 3b f1 7b 65 bc
       -0.044339985 0.025913786 0.0031870203 -0.014006601
0001c0 a8 26 a7 bd cb a2 30 bd 9f 93 a9 bd 4a 22 f6 bc
       -0.0816167 -0.043124 -0.082801096 -0.030045647
0001d0 d5 c0 29 bd 6a ec 06 bc e9 a6 16 bd 10 6d 6a bd
       -0.041443665 -0.008235076 -0.03678027 -0.057232916
0001e0 0b e1 24 3b 9a 34 cc 3d 36 09 8e bd 26 ce 79 3d
       0.002515855 0.099709705 -0.069353506 0.060987614
0001f0 6f b3 30 bd 46 28 b9 3c 48 5a 8b bd 8d 87 cf bc
       -0.04313987 0.022602212 -0.06804329 -0.02533319

actor.4.weight f4 [128, 128]
000000 3f a6 06 bd 3a 6b ba bc 8e a0 29 3c 3a 1b 81 3d
       -0.03287339 -0.022756208 0.010353221 0.06304021
000010 15 71 5f 3d c2 d8 d7 bc 3d a3 df bc 08 19 8e 3d
       0.054551203 -0.026348475 -0.027299518 0.06938368
000020 23 9d 8f bd 66 4d d2 bd e9 e3 06 3d 1e 61 76 bc
       -0.07012393 -0.10268669 0.032932196 -0.015037803
000030 a7 fd a4 3d d8 b3 82 bc 21 65 d3 bd 00 27 6e bc
       0.08056193 -0.015954897 -0.10322023 -0.0145356655
000040 6e ce 11 bd 47 0d ae bd 9f d3 2b bd 15 ba 93 bd
       -0.035597257 -0.08498626 -0.041949864 -0.07213227
000050 4f a7 32 bd 46 f4 3d 3d 2c 2f 8f bd 53 58 44 bd
       -0.04361659 0.046375535 -0.06991419 -0.047935795
000060 63 0d a3 bd 42 48 5a 3d 73 5b 96 bd d5 ad 94 bd
       -0.07961538 0.053291567 -0.07341661 -0.07259718
000070 87 d0 51 bd 81 5a 84 3d fe bf 4a 3c 38 1a 51 bd
       -0.051224258 0.06462575 0.012374876 -0.051050395
000080 02 35 d4 bc fc 79 aa bd 88 d6 24 3d 17 5f fa bc
       -0.025904182 -0.08324048 0.040243655 -0.03056292
000090 2a 6f 23 bd 4d 0e 91 bd 92 6d cd 3c 8a 27 92 3c
       -0.039900936 -0.07082806 0.025076661 0.01784112
0000a0 6a d2 af 3d c0 89 90 bd ac 9e 3b 3d ce d3 b1 bc
       0.08585055 -0.07057524 0.04580562 -0.021707442
0000b0 29 0f e7 bc 94 17 d5 3c 96 1d 6e bd 9f b4 39 bc
       -0.028205471 0.02601222 -0.058133684 -0.011334567
0000c0 2a 34 8e bc 32 b0 a4 bd 30 27 f4 bc 42 b9 5a 3d
       -0.017358858 -0.08041419 -0.029803842 0.053399332
0000d0 5e 5d 14 bd 55 c5 99 3c cb a1 30 bd 99 87 a2 3b
       -0.036221854 0.018770853 -0.043123048 0.004960012
0000e0 b7 c9 81 3d 48 b8 c2 bd c5 82 34 3d 58 ea 26 bd
       0.06337302 -0.09507805 0.044070024 -0.04075083
0000f0 be 4f bc 3c d9 12 ae 3d 67 6f 03 3d 90 31 01 bd
       0.022987243 0.08499689 0.032088663 -0.031541407
000100 5f c2 a9 bd 8e 9a 7d 3d 00 a2 0b 3d e5 4e 3f bd
       -0.082890265 0.061914973 0.034090042 -0.0467061
000110 7e 96 20 39 f6 9d a1 3d c8 88 ea bc 08 6f 88 bd
       0.00015314852 0.07891457 -0.028629676 -0.066618025
000120 48 7f 8a 3b 05 24 a3 bd de 24 a0 3d 82 a1 6b 3d
       0.004226599 -0.079658546 0.07819532 0.057527073
000130 2f 48 58 3d 7c fc 95 3c be de a8 bc 69 66 19 bc
       0.052803215 0.01830887 -0.020614024 -0.009362795
000140 e6 76 8e bd 50 a6 d3 bd 82 39 59 bd fa 6e 0a 3d
       -0.06956272 -0.10334456 -0.05303336 0.03379724
000150 52 45 25 bd d7 9a 11 bd 96 37 0e bd 99 26 29 3d
       -0.040349312 -0.035548057 -0.03472098 0.041296575
000160 53 8f 81 3d 8e 7c be bb c5 09 4f 3d 93 7a 6e bd
       0.06326165 -0.005813188 0.050546426 -0.058222365
000170 87 1a c7 3b c5 bd 18 3c 6f da d9 3c 68 03 84 bd
       0.0060761604 0.009322588 0.026593415 -0.06445962
000180 82 7f 90 bd c0 27 89 3d 6c c6 80 bd 48 16 d1 3c
       -0.0705557 0.06697035 -0.06287846 0.02552332
000190 bc 38 8c bd 81 76 38 3b b1 6f f6 bc dd 1e 5a bd
       -0.06846759 0.0028146806 -0.030082555 -0.05325209
0001a0 eb 6e e0 bc fc 1e e2 3c bc 75 9c 3d fa 98 64 bb
       -0.02739664 0.027602665 0.076396435 -0.003488122
0001b0 03 f2 5d bd bd 02 04 bc 11 d3 47 3d 3a 84 8f 3b
       -0.05418588 -0.0080572935 0.048785273 0.0043797763
0001c0 9f 9c 49 bd ac 92 41 bc b9 2b db bd 5c ec 40 3d
       -0.04922163 -0.011814754 -0.10701699 0.04710041
0001d0 92 2a 76 3b 9f 4b e5 3c d4 f5 f9 3c 85 39 5d bd
       0.0037561995 0.02799016 0.030512728 -0.054009933
0001e0 a2 72 15 bc 9b 06 b4 bd fc 5c b3 bc 31 13 14 bc
       -0.009121569 -0.087903224 -0.021894924 -0.009037779
0001f0 37 bc a8 3c f9 b5 9c ba 0a a1 b8 3c 16 9a 96 bc
       0.02059756 -0.0011956088 0.022537727 -0.01838402
000200 25 23 7e bd d1 79 95 3d b3 1a f9 3c 65 e6 46 bd
       -0.062045235 0.07298625 0.030408239 -0.048559565
000210 a5 36 8f 3d 8c d3 3f 3d a5 8c 2a 3c 86 3d 06 bd
       0.069928445 0.046832606 0.010409509 -0.032773517
000220 af ee 4b bd 09 bc a5 3c 4e 64 8b bd 30 f5 ea bc
       -0.049788173 0.020231264 -0.06806241 -0.028681368
000230 d4 68 71 3d 7e e9 24 3d 33 a2 a3 3d 16 f4 30 bc
       0.058937863 0.040261738 0.079899214 -0.010800382
000240 9c cb 62 bc 40 32 02 3c ea 73 ba 3c 34 22 99 bc
       -0.01384249 0.007946551 0.02276035 -0.018693067
000250 9c 86 b0 bd 19 1b 2d 3d fa e5 1a bd a5 7c 51 bd
       -0.08619425 0.04226217 -0.03781698 -0.05114426
000260 81 87 46 bd a8 92 5e 3c 80 94 a7 bd d0 60 c0 bc
       -0.04846907 0.01358477 -0.08182621 -0.023483664
000270 92 8b 86 3d 18 cc 98 bc 7c 4f 40 3d be 38 b0 bd
       0.0656959 -0.018652007 0.046950802 -0.08604573
000280 17 a4 4c 3d b0 8a ed bc 66 4d 34 3d 18 f2 0c 3d
       0.049961176 -0.028996795 0.044019125 0.034410566
000290 fb ca 08 3d 11 b2 9d 3d 6c 9d 87 bb b5 77 5a 3d
       0.033396702 0.07699979 -0.004138639 0.053336818
0002a0 4e f0 8a bc 40 df a1 bc f3 71 13 bd b8 fc 7f 3c
       -0.01696029 -0.019759774 -0.035997342 0.015624218
0002b0 02 e2 e6 3c 0d 49 b3 3c a9 1b 5a bd 90 16 99 3a
       0.02818394 0.02188542 -0.053249035 0.0011679698
0002c0 17 96 51 3d fb 88 66 bd 1d 6a a3 3d 0c e7 20 3d
       0.051168527 -0.05628298 0.07979224 0.039282843
0002d0 33 51 94 bd d1 dd b3 bd b6 ee 8a ba 91 29 63 bd
       -0.0724205 -0.087825425 -0.0010599706 -0.055459563
0002e0 f6 de 9d 3d 93 c0 77 bd d8 3d 49 3c 1d 2c ab 3d
       0.07708542 -0.060486387 0.012282811 0.08358023
0002f0 05 3b 78 3d 44 23 6f bd 69 e4 cd 3c 12 78 85 3d
       0.06060316 -0.05838324 0.025133329 0.06517042
000300 00 5d b7 bc 04 0b 50 bd f8 5a 34 bd 50 21 0d 3d
       -0.022383213 -0.050791755 -0.044032067 0.034455597
000310 1b 6f c1 bd ee 02 ac bc 8c 45 9a bd f2 2a 39 bc
       -0.0944502 -0.02099749 -0.07532796 -0.011301743
000320 c9 6a 05 3d 41 02 24 bd 98 66 95 3a 8b a6 98 3d
       0.03257254 -0.040041212 0.0011398373 0.074536406
000330 86 11 8f 3d 8f 0e ab bd 00 0d 94 bd de 27 29 bd
       0.06985764 -0.08352386 -0.07229042 -0.041297786
000340 37 75 b9 bc 8f c4 8b bd 6b b8 e3 bb 85 ab c9 3c
       -0.0226389 -0.068246 -0.0069494746 0.02461792
000350 b0 03 30 bd e3 c3 79 3d 29 43 1c bd 6a 5e 18 bd
       -0.042972267 0.060977828 -0.038149986 -0.037199415
000360 69 05 b9 3d 01 54 3f bd f7 3f be 3b 24 3a a0 3d
       0.09034235 -0.04671097 0.005805965 0.078235894
000370 9d 70 86 bd 4c 17 6f bc 34 5b a3 3d 97 eb 9f bd
       -0.06564448 -0.014592957 0.0797638 -0.07808607
000380 59 d6 83 3d 3d 26 7b 3d 03 16 04 3c 57 59 a2 3d
       0.06437368 0.061315764 0.008061889 0.079271965
000390 4a 4b 5d bd 92 6c 8d 3d af 4c 97 3d 73 b6 06 bd
       -0.05402688 0.06905474 0.07387673 -0.03288884
0003a0 8f ec 9e bb fc 54 b7 3d 8f a8 83 3d 37 11 52 3d
       -0.0048499773 0.08951756 0.064286344 0.05128595
0003b0 84 64 a3 b9 c5 73 ec 3c f1 df 4d 3c fe b5 b3 bd
       -0.00031164673 0.028863797 0.012565599 -0.08774947
0003c0 a4 48 98 bd db 24 f1 bc 56 60 64 3c 11 24 85 bd
       -0.0743573 -0.02943652 0.013938984 -0.0650102
0003d0 0e fe b2 bd 04 d2 7a bc 62 3a 7c bd d3 fb 4b bd
       -0.08739863 -0.015308861 -0.061579116 -0.049800705
0003e0 75 ad cb 39 7a 70 2d bd 2a 17 ba 3c 4f e0 3a bc
       0.00038848413 -0.042343594 0.022716124 -0.011406018
0003f0 94 0c 49 bd 70 ac 99 3d 0c 1e c2 bc 53 ed d9 3c
       -0.04908426 0.07503593 -0.023695968 0.026602423

actor.4.bias f4 [128]
000000 9a 8b 90 3d 37 a4 6f 3d f7 86 05 3d 9a 31 95 bd
       0.07057877 0.058506217 0.032599416 -0.07284851
000010 9d 77 9b 3d 8b cb 39 3d 01 e3 e0 bc f9 84 bb 3c
       0.07591174 0.04536013 -0.027451994 0.022890555
000020 d9 f4 55 bd 68 eb 4c be 05 5c 2f 3a fb a7 52 3d
       -0.052235458 -0.20011675 0.0006689432 0.05142973
000030 ba 9d d8 bc f2 32 51 bd ae 50 e8 3d f8 7c 7c bd
       -0.026442397 -0.051073976 0.113435134 -0.061642617
000040 69 d6 b4 3c dd b2 0e 3a 0b 75 36 bc 72 54 12 bc
       0.022074895 0.0005443523 -0.011136304 -0.008931266
000050 61 95 a7 bd b0 c3 d3 3d 75 6f a8 bd a6 70 cf bb
       -0.08182789 0.10340059 -0.08224384 -0.0063305674
000060 1e 76 6d 3c 08 76 4c 3d 6d 87 81 3d 60 cd 07 3c
       0.014493493 0.04991725 0.063246585 0.008288711
000070 c7 4c 4a bd 10 e6 c5 3d c1 83 37 bd b4 df 02 3d
       -0.049389627 0.096630216 -0.044803385 0.03195162
000080 03 3c 45 3d 58 f2 d4 3d fc 05 b2 bb e4 d7 b5 3c
       0.048152935 0.10397786 -0.0054328423 0.022197671
000090 25 ce 10 3e b2 78 0e 3d e9 fc 8e bc 5f df 78 ba
       0.14141138 0.034783073 -0.017454581 -0.0009493734
0000a0 c5 69 f7 bc 16 c9 37 bd c5 40 bb bd 9d 68 ac bd
       -0.030201802 -0.044869505 -0.09143213 -0.08418391
0000b0 fc 9d c4 bc 1d 19 7d bd 4e ac ce 3c 75 6f 56 3d
       -0.024001114 -0.061791528 0.025228646 0.052352387
0000c0 fe 72 36 3d 16 4f b3 bc 47 99 30 3c 7e 65 64 3d
       0.04454326 -0.021888297 0.010778732 0.055760853
0000d0 eb 23 16 bd 6a 1d 08 be ea d7 0c 3d 52 eb 48 3d
       -0.036655348 -0.1329247 0.0343856 0.049052544
0000e0 a4 56 19 be 26 4c 6c bd e4 05 54 3c 4d 84 f5 bb
       -0.14974457 -0.05768981 0.012940858 -0.007492578
0000f0 20 23 2b 3d 5d a9 f9 3b 0e 8b e4 bb 62 56 a2 bd
       0.041781545 0.0076190666 -0.0069745844 -0.079266325
000100 e1 3f b0 bd df 7b a0 3c c6 a7 10 bd 9f 51 07 bc
       -0.08605934 0.019590316 -0.03531625 -0.008259206
000110 01 32 cd 3d d8 f4 b7 3d 24 19 b4 bd d6 24 9f bc
       0.10019303 0.08982247 -0.08793858 -0.019426744
000120 da a9 c0 bc 5c fa 3e 3d 8b 1b 3d 3d c5 3d 23 3a
       -0.023518492 0.04662548 0.046168845 0.0006227161
000130 86 f2 85 bd 38 76 23 be 80 e8 2f 3e 4b e3 d9 bb
       -0.06540398 -0.15963066 0.17178535 -0.00664941
000140 6c f5 b1 bd 35 62 b2 bd 05 9e 83 3c 48 ab 0e bd
       -0.08689389 -0.08710138 0.01606656 -0.034831315
000150 41 40 53 bc 3a 03 84 bd f5 5a 42 3d 6e cd 04 3d
       -0.012893737 -0.06445928 0.047450025 0.032422476
000160 d5 cd a3 3d ab 47 6e bd 3c 84 3a 3d 24 7e 3e 3d
       0.07998244 -0.058173817 0.045536265 0.046507016
000170 f8 d1 28 be b9 25 6d be d5 27 a7 bd 05 f5 3e 3c
       -0.16486347 -0.23158921 -0.08161894 0.011655097
000180 55 84 15 bd 7b 68 ce bd 1b ee aa bc 4d 72 9e 3d
       -0.036503155 -0.10078522 -0.02086549 0.07736645
000190 16 00 d8 bd 89 4b 04 be 30 5a 80 bd 0c 1a 7e 3d
       -0.105468914 -0.1291944 -0.06267202 0.06203656
0001a0 b4 54 55 bd 92 73 83 3d 0a 04 70 bd f0 53 3e 3d
       -0.052082732 0.06418528 -0.058597602 0.046466768
0001b0 ff 28 24 3d 71 67 cb bd 5f 47 0d 3d e4 b2 1c bd
       0.04007816 -0.09931839 0.034491893 -0.03825654
0001c0 ff 28 bd bd 64 5b 4b bd df 03 01 3e a7 40 64 3d
       -0.09236335 -0.049647704 0.12599133 0.05572572
0001d0 5f cb 1c bd 37 81 da bd bc 74 70 be 51 9a 8c 3d
       -0.038279887 -0.10669177 -0.2348203 0.06865371
0001e0 68 1c f5 3c 10 3e 34 3d bc b1 c5 3d 92 c9 38 3d
       0.029920772 0.0440045 0.09653041 0.045114107
0001f0 d1 d2 ac 3d f7 cb 7c 3c d4 d0 bc bd 35 c1 c0 3b
       0.084386475 0.015429488 -0.09219518 0.005882407

actor.6.weight f4 [8, 128]
000000 41 3e 9a 3d a3 c7 52 3d df 87 d2 3a a1 43 9f 3d
       0.07531405 0.05145992 0.0016062221 0.07776571
000010 8b 50 bb bb f9 3a 96 bd a3 85 9f 3d 2a 8b 6d bc
       -0.0057163886 -0.07335467 0.07789161 -0.014498511
000020 f1 31 a0 bd 58 a3 b9 bd 6d 85 7c bd 33 73 87 3d
       -0.078220256 -0.090643585 -0.061650682 0.066137694
000030 ae bd ed bc f7 67 ab bd 8a 1b 06 bd 58 e3 59 bd
       -0.02902111 -0.08369439 -0.032741107 -0.053195328
000040 bb 8a 6e bd 9b 2a 95 bd 33 c6 99 bd 8c 1b 3d bd
       -0.058237772 -0.07283517 -0.075085066 -0.04616885
000050 56 06 24 3d a4 2f 14 3d f1 fe 93 bd 37 db 3e 3c
       0.040045105 0.036178246 -0.072263606 0.011648945
000060 f4 1f 57 3d 87 ea a8 bd c7 f6 ee bb 1a d9 97 3c
       0.052520707 -0.082478575 -0.0072926017 0.01853614
000070 c4 7f 98 bd 76 06 30 ba eb ff 80 bd b9 56 7e 3c
       -0.07446244 -0.000671483 -0.062988125 0.015523606
000080 7f ab 02 3d 14 a3 ac 3d b6 e1 a3 3d b6 71 05 bd
       0.031901833 0.08429542 0.08002035 -0.032579146
000090 f7 b5 54 bd d1 c1 2c 3d 65 64 82 bd 89 22 4f bb
       -0.051931348 0.042177025 -0.06366805 -0.0031606278
0000a0 f7 d3 d4 3c 8b fa 5c 3b 3b dd a2 bd 2c b8 2f bc
       0.025979979 0.0033718671 -0.079523526 -0.010725062
0000b0 5c ca 1e bd 73 e0 04 bd 06 83 76 3d 9b 76 98 bd
       -0.038767204 -0.032440614 0.060183547 -0.07444497
0000c0 fe 63 d6 bb ba 86 44 bc 93 23 bf bb 67 37 c6 3d
       -0.0065426817 -0.011995012 -0.005833098 0.09678536
0000d0 b4 ea 59 bd bb 58 09 bd 15 c6 81 3d 6a 48 92 bd
       -0.053202346 -0.033531886 0.06336609 -0.07142718
0000e0 10 47 dc bb cf d4 6f bd 54 41 41 3d 07 95 18 3d
       -0.0067223385 -0.05855256 0.047181442 0.0372515
0000f0 5f be ce 3c 4e 59 f4 3c 48 4f b9 3d 1b 68 7f 3c
       0.02523726 0.02982774 0.09048325 0.0155887855
000100 be 16 86 bd 2b 90 a7 3d ba ad 0c bd 23 be 65 bd
       -0.065473065 0.08181795 -0.034345366 -0.05608953
000110 e7 cf 94 bd 4c 16 07 bc a6 e6 a3 3d d1 1b 74 bd
       -0.07266217 -0.008245062 0.08002977 -0.05959684
000120 d1 cc 32 bb fe 9e 87 3d 6c 11 ee bc 0c e3 86 bd
       -0.0027282725 0.06622122 -0.029061042 -0.065862745
000130 ec b0 a7 ba 42 85 67 3c 78 78 3c bd bf ed e3 bc
       -0.0012793816 0.014130892 -0.046013325 -0.027823327
000140 cf fa 6e bb a5 3a a2 3c 1e 19 83 3d c3 d4 72 bb
       -0.0036465412 0.019803355 0.06401275 -0.0037053085
000150 90 a3 a8 bd 21 67 81 bd 22 5a 3c 3d af 57 27 3d
       -0.08234322 -0.063184984 0.045984395 0.040855106
000160 b2 ab 89 bd 98 95 7f 3d e1 98 43 3d 06 87 33 bd
       -0.067222014 0.062398523 0.04775322 -0.04382994
000170 68 21 9d bd d7 ae f1 3c 87 b9 5b 3c bf 92 ce 3c
       -0.07672387 0.029502315 0.013410932 0.025216458
000180 a9 2a 0f 3c aa bd 19 3d bb 6d 95 bd f4 7b a2 3c
       0.008738198 0.037534393 -0.0729632 0.019834496
000190 dd 2a 6d 3c 48 b2 77 3c fb 16 25 3d 15 c7 93 bd
       0.014475551 0.015118189 0.04030512 -0.07215706
0001a0 5f 5f 98 3d 40 4c ba bc fb ff 7b 3a 10 82 85 bd
       0.074400656 -0.022741437 0.0009613034 -0.06518948
0001b0 b9 0f 4c 3b 0d 53 4d bc ec be a3 bd 98 ea 44 3d
       0.00311373 -0.012532008 -0.079954 0.04807529
0001c0 21 23 f2 3c eb c8 ad 3d 68 17 10 3d d8 ca 83 3d
       0.029557766 0.08485588 0.035178572 0.06435174
0001d0 ae ca cc 3d f9 9e 80 3d 7f 80 1a bb 90 b2 8d 3d
       0.099995956 0.06280322 -0.0023575125 0.06918824
0001e0 b1 70 c3 bd 14 20 c9 3c 77 a4 4a bd 67 be 7f bc
       -0.095429786 0.024551429 -0.049473252 -0.01560936
0001f0 a2 1e b5 3d 7a b1 8f bd f1 23 87 3d 45 71 8f bd
       0.08843733 -0.07016273 0.06598652 -0.07004026
000200 85 76 37 bd e1 07 ad bd 48 77 a5 3d 3a 45 ad 3d
       -0.044790763 -0.084487684 0.08079392 0.084604695
000210 84 80 c2 bd 6c a8 67 bd 57 da 99 3d e4 81 df bc
       -0.09497169 -0.056557104 0.07512348 -0.027283616
000220 7e 98 a7 3d 9b 41 01 3d 7f bf 8a bd 08 d2 08 bd
       0.081833825 0.031556707 -0.06774806 -0.033403426
000230 ea e2 75 bd 6a c7 8e 3d d4 32 25 bd 79 6a 6c 3c
       -0.060030855 0.06971629 -0.040331677 0.014429682
000240 de 86 4d 3d 09 58 98 bc a2 c6 47 bd a5 12 39 bd
       0.050177447 -0.018596666 -0.048773415 -0.045183796
000250 83 88 4a bc 5c b2 8d bd 41 16 90 bc e2 60 f4 3c
       -0.0123616485 -0.06918785 -0.017588736 0.029831354
000260 ae 67 2f bd be c6 9c bd c9 b2 6e bd a7 8c c3 bc
       -0.042823486 -0.076550946 -0.05827597 -0.02387078
000270 f3 18 31 3c ac 09 96 bd 53 43 80 3d 68 b4 8b 3d
       0.010809171 -0.073260635 0.06262841 0.06821519
000280 df fc 82 bd 18 5d 2d bd a5 31 8b bd 9d a3 a6 3d
       -0.063958876 -0.04232511 -0.06796578 0.081366755
000290 05 01 2d bc 76 b5 71 bd e3 57 82 bd f7 18 a6 bb
       -0.010559325 -0.059010945 -0.06364419 -0.005068894
0002a0 5e 8e a0 3c 22 72 91 bd 03 e0 b5 3d 2b 81 fd 3c
       0.019599136 -0.07101847 0.088806175 0.030945381
0002b0 2e 09 7b 3c 2d 89 8e bd 18 f4 62 3d c4 97 a4 bd
       0.015322013 -0.06959758 0.055408567 -0.080367595
0002c0 be 31 ea 3c b1 a4 f0 3c 0c 82 c2 bc 9d b5 6e 3d
       0.028588172 0.029375406 -0.023743652 0.05827867
0002d0 1a 98 4a 3d 09 40 39 bc 50 10 b8 3d ec a7 6a bd
       0.04946146 -0.011306771 0.08987486 -0.05728905
0002e0 0f d8 29 3d 8b 62 d2 bd ba 54 5a 3b 8b b0 c2 bc
       0.041465815 -0.10272702 0.003331466 -0.023765823
0002f0 c1 1d bb 3d 6e cf 65 3d 48 03 82 3d 86 f3 9d bd
       0.091365345 0.056106023 0.06348282 -0.07712464
000300 85 9f 8a 3d 37 b6 21 3d b6 3d ab bb ac 61 14 3d
       0.06768707 0.039480414 -0.0052258624 0.03622596
000310 57 eb 4f 3c 50 63 37 bd d7 e0 97 3d 7a 23 65 bd
       0.012690387 -0.044772446 0.07415932 -0.055942036
000320 02 d8 79 3c 62 83 98 3d 2f 96 03 bd a8 95 47 bd
       0.015249254 0.07446934 -0.032125648 -0.048726708
000330 20 8e 40 3d f1 95 82 3d 9e cc cd bd a7 af 37 bc
       0.04701054 0.06376255 -0.10048793 -0.011211312
000340 aa 46 8e 3d 96 91 96 3d 78 27 5f 3c f1 06 f3 3c
       0.06947072 0.07351987 0.01362025 0.029666396
000350 4e 2c 2e bd 71 89 99 3d 04 84 a5 bd 1f db 84 bd
       -0.04252272 0.07496918 -0.080818206 -0.064871065
000360 2d e4 35 bd ad 3c ec 3c 41 90 e8 bc 43 e9 26 3d
       -0.04440706 0.028837526 -0.028389098 0.0407498
000370 45 df c7 3d 1b f9 83 3d 0b 4e 23 bd f7 ab 91 3d
       0.09759382 0.064439975 -0.03986935 0.07112878
000380 24 d0 cc bb 1c 85 52 3d 2d a3 aa 3d 5a 68 8a 3d
       -0.0062503982 0.051396474 0.083319046 0.06758185
000390 0f 72 f5 3c a4 ea 2f bb 27 94 cd bc 7b 96 3a bd
       0.029961614 -0.0026842738 -0.025095059 -0.045553666
0003a0 c7 7d 10 bd aa 46 a6 bd 9a 4a 20 3d 45 de 3d 3d
       -0.0352762 -0.08118947 0.039133646 0.04635455
0003b0 67 00 98 3c a6 e3 28 bd a8 c2 43 3c 0c 73 82 bd
       0.01855488 -0.041232727 0.011948265 -0.063696
0003c0 fc 91 a3 3d 0e eb 0d bd 39 93 7d bc d6 ca fc 3c
       0.07986829 -0.034647994 -0.015476995 0.030858438
0003d0 13 c4 9f bc 4b e8 cd bc d4 52 ad 3d 58 23 5c bc
       -0.019502675 -0.02513518 0.08463064 -0.013436161
0003e0 c2 0f 11 3d 1d dd 3d 3d 27 36 36 3d bb ab 1a bd
       0.03541542 0.04635345 0.044485237 -0.03776143
0003f0 9d ae 13 bd 26 30 98 3d 5f cd b2 3d 88 13 53 bd
       -0.036055196 0.074310586 0.08730578 -0.0515323

actor.6.bias f4 [8]
000000 ac 85 a9 3d 47 c0 be bd b5 82 78 3d cf 77 d4 3c
       0.08277449 -0.09314018 0.060671527 0.025936035
000010 4e 89 39 3d c7 4d 92 3c 28 c9 74 bd b8 a3 f1 bc
       0.04529696 0.017859353 -0.05976215 -0.029497012

critic.0.weight f4 [128, 31]
000000 c1 36 98 bd ab 08 af 3e c6 82 2f be 54 5f 6a bd
       -0.074323185 0.341863 -0.1713973 -0.05721982
000010 00 bf 83 bd 7b 7b 9b bc b5 93 75 be 8b 8d b5 3e
       -0.06432915 -0.018979779 -0.23982127 0.3545955
000020 20 71 9e 3d 45 b8 1a be 92 01 d6 3d d3 60 e3 bc
       0.07736421 -0.15109356 0.10449518 -0.02775613
000030 93 c4 f1 3c 4a bc 41 be 5d cc 8a 3e aa 08 34 3c
       0.02951268 -0.18919483 0.27109042 0.010988394
000040 7a f3 2a 3d be 09 95 bd 65 8e 64 3b d8 73 26 be
       0.041736104 -0.07277249 0.0034874913 -0.16255128
000050 71 15 ac 3d 38 15 b5 3d d6 af d0 3d 38 ff e0 3d
       0.08402527 0.08841938 0.10189788 0.10986179
000060 e6 cc 45 3e 65 a3 3f 3d 57 61 91 3d e2 a4 48 3d
       0.19316444 0.046786685 0.07098644 0.04898537
000070 40 ec 43 bd 8c 44 ee bd 67 26 d7 bd f4 49 91 3e
       -0.047832727 -0.11634168 -0.105053715 0.28376734
000080 63 ed 95 ba 5b f4 35 3e 32 dd a3 3c 5c 71 22 3e
       -0.0011438545 0.17768995 0.020002935 0.15863556
000090 98 c6 e3 3d 82 4c e0 3e ee 29 78 be 11 ca a9 3d
       0.11121863 0.4380837 -0.24234745 0.08290494
0000a0 ca f9 ca 3d de b2 02 be de e4 76 3e a8 11 8e 3d
       0.09910925 -0.12763545 0.24110743 0.069369614
0000b0 b2 36 10 3e e9 f6 59 be 7c fa 08 be b3 61 18 3d
       0.14083365 -0.21285595 -0.13376802 0.03720255
0000c0 8a 10 2b be 2e 9d e6 bd 3a d7 00 be 1f 0f b5 bd
       -0.16705528 -0.112604484 -0.12582102 -0.08840775
0000d0 38 61 e0 3d a1 de 0d 3d a9 4d bb 3d b3 e8 6e bd
       0.10956043 0.034636144 0.09145672 -0.058327388
0000e0 01 85 24 3e ac c6 4d 3e 83 23 9f bd 38 9e 86 3d
       0.16066362 0.20095319 -0.07770445 0.065731466
0000f0 d5 c6 98 bd 5c 99 80 3d c6 07 1e 3e 2f 84 3e be
       -0.07459799 0.06279251 0.15432653 -0.18605112
000100 56 25 1e 3d 3e dd 69 3e 02 2e 3a 3e 68 ff 2b 3e
       0.038609825 0.22838303 0.18181613 0.16796649
000110 ff 52 0d 3f 53 ff cf be e0 fe 94 39 bd 9b 9d 3b
       0.55204767 -0.40624484 0.00028418656 0.004809825
000120 93 5d 39 be f2 13 9d 3d 72 91 62 3a 5b b0 cc 3e
       -0.18102102 0.0766982 0.0008642889 0.399783
000130 87 8b eb bd 6e 65 17 bd cd bc 62 3d 71 57 11 3d
       -0.11501222 -0.036961965 0.055355836 0.03548378
000140 3b 39 c8 3d f5 1c d1 3d 27 49 b6 bd 1e 98 0b 3e
       0.09776541 0.10210601 -0.089006715 0.13632247
000150 ce 50 25 3e 0a 4b 2b 3d fd df ea 3d 55 aa 72 3d
       0.16144106 0.04181961 0.114685036 0.059244473
000160 71 26 cd bc ac 93 49 3d f3 77 e1 3d 4b ab 45 be
       -0.025042744 0.049213096 0.110092066 -0.19303624
000170 99 9d 34 bd 36 1e 47 bd 59 9c 30 3e 79 cd 7b 3d
       -0.04409561 -0.048612796 0.17247142 0.06147525
000180 5c 85 61 3d 00 89 0b be 32 00 01 be 33 8b 21 be
       0.055058822 -0.1362648 -0.12597731 -0.15775757
000190 a9 46 3f 3e e3 ce 70 3d 7a d5 4f bc fe 6d d1 bd
       0.18679298 0.058791053 -0.012685174 -0.102260575
0001a0 c5 6a 4c be dd 38 ae bd 03 33 2c be d9 ad 71 3e
       -0.19962604 -0.085069396 -0.16816334 0.23601474
0001b0 b4 ec 3c 3c e6 61 78 3d 3b ea e6 3d 99 31 ec bd
       0.011531044 0.06064024 0.11275145 -0.115328975
0001c0 af af fc 3d 24 99 d9 3d b9 a3 5b bd 22 cd 1b 3e
       0.123381965 0.106249124 -0.053622935 0.1521497
0001d0 e7 df 21 3e 78 4b 94 bc 80 70 f5 bd fd 82 07 be
       0.15808068 -0.018102393 -0.11984348 -0.13233562
0001e0 b8 91 68 3c b2 06 82 3d e2 28 b4 bb 1f 4f 79 bd
       0.014194898 0.06348933 -0.0054980377 -0.06086647
0001f0 a1 8f 15 be 3c e4 49 3e 0d b6 de 3d b5 7f 2a bc
       -0.14605571 0.19715971 0.10874567 -0.010406424
000200 f6 1d a4 3d e8 d6 ea 3d 06 4c 0c be d7 6f 2c 3e
       0.08013527 0.11466771 -0.13700876 0.16839539
000210 c1 99 ac 3d 41 86 2a be 5b 56 f3 3d 3f e4 dd bd
       0.08427764 -0.16652776 0.118817054 -0.1083455
000220 5c 83 9a 3d af 7b aa be 52 7a 77 3e b3 dd 00 3e
       0.07544586 -0.33297488 0.24167755 0.12584572
000230 7c ba 12 3d 07 cc b6 bd 92 5b 2e 3c 00 72 9a 3d
       0.035822377 -0.08925634 0.010641949 0.07541275
000240 5f 15 0b 3e 6c c4 ee bd b4 48 bb bd 31 19 ba 3d
       0.13582371 -0.11658558 -0.091447264 0.09086836
000250 6d 2f 74 bd 78 19 05 bd 9e 29 27 3e 9e 4d b6 3d
       -0.05961554 -0.032494992 0.1632447 0.08901523
000260 84 13 8c bd 35 73 9e ba 38 10 1d 3c 07 15 7e 3d
       -0.0683966 -0.0012088778 0.009586386 0.062031772
000270 77 9a 57 be 2d 3c c1 bd bf f3 9b bd ed ca ca bd
       -0.21055017 -0.09435306 -0.0761485 -0.09901986
000280 9f 3b 08 bd 3e 70 da 3e 01 09 9a be 94 6c 9b 3d
       -0.033259984 0.4266376 -0.30084994 0.07589069
000290 cb 1a 80 3d 33 16 50 3d 76 45 ad 3e f5 c0 b3 3b
       0.0625511 0.05080242 0.33842057 0.0054856488
0002a0 c7 0d 9c 3e 7a 63 32 be ae d6 bf 3d 21 82 f2 bc
       0.3047926 -0.1742076 0.09367119 -0.029603066
0002b0 dc 3c e8 3d 96 4f 0b 3c 7d e4 7d 3d 32 d9 17 3d
       0.11339733 0.0085028615 0.06198548 0.037072368
0002c0 5a f6 99 bd cf 50 67 3c c4 85 85 bd 9c 18 ae bd
       -0.07517691 0.014118387 -0.065196544 -0.085007876
0002d0 1b f9 58 bd 0c 94 16 be 02 13 1c 3e 2d a5 a6 bd
       -0.05297194 -0.14704913 0.15241626 -0.081369735
0002e0 99 c3 04 be 62 d4 b9 3d c8 40 60 3e 7e 38 22 be
       -0.1296524 0.09073712 0.21899712 -0.15841863
0002f0 7a d4 0a be 26 2e 3b bc e1 1f fa 3a ed ff ba 3c
       -0.13557616 -0.011424577 0.0019082987 0.022827113
000300 bf cc ba 3e 13 21 2b be b1 cd a8 3d 71 2e 40 3e
       0.36484334 -0.16711836 0.082423575 0.18767716
000310 89 f1 26 3e 4f be c0 3e 90 a7 77 be 8e 42 0f 3e
       0.16303076 0.37645194 -0.24185014 0.13990232
000320 89 ea 6d bc 2d 42 70 3d 0f a2 9b bd 7b 25 ea 3b
       -0.01452125 0.05865686 -0.075992696 0.0071455813
000330 6d 7e 3b 3e c1 e0 d1 bd 0b 52 6d bd 73 1a 06 3d
       0.18309946 -0.102479465 -0.05793957 0.032740068
000340 3e 03 0d be 94 b8 77 3d d2 87 1b be 1c f6 b9 bd
       -0.13770768 0.06047876 -0.1518853 -0.09080145
000350 0b 9f f9 bd cd 27 2e 3d d0 6b c1 bd ee e7 f5 bd
       -0.12188538 0.042518426 -0.09444392 -0.12007128
000360 01 dd e2 3d 7c ba 9e be 51 b3 24 3c 84 99 d1 bd
       0.110773094 -0.3100165 0.010052518 -0.10234359
000370 0d fe 31 3c 1d 85 25 be 36 29 71 3d d4 5b 89 be
       0.010863793 -0.1616406 0.058877192 -0.26827872
000380 98 35 f0 3e d2 2a 3f be 79 66 03 be 24 8e 06 3e
       0.4691589 -0.18668678 -0.12832059 0.1314016
000390 fc 2c b3 bd a6 ab 4b 3e 86 d6 e4 be 3d 73 04 3e
       -0.087488145 0.19889697 -0.44694918 0.12934585
0003a0 1a 1c b5 3d 1e c9 f3 3c 99 a3 bb 3d cc 7c ba bd
       0.088432506 0.029758986 0.09162063 -0.09105834
0003b0 cc 33 14 3d 77 e9 1d be b8 5d d7 bc c0 d0 38 bc
       0.03618221 -0.15421091 -0.026289806 -0.011280239
0003c0 62 91 05 bd f6 29 d5 3d 46 f1 7c bd 65 c2 21 be
       -0.03260935 0.10408394 -0.061753534 -0.15796812
0003d0 6b a2 b7 3d 9c a4 2b 3e 77 f6 f8 3d d1 ac 9f bd
       0.08966526 0.16762012 0.121563844 -0.07796634
0003e0 a2 a0 b3 be 72 75 03 3e 85 9b 03 be ac 2d 4b b9
       -0.3508349 0.1283777 -0.12852295 -0.00019376603
0003f0 46 f1 06 3d 24 a5 b8 3d 67 d6 41 be 18 2c d0 3e
       0.03294494 0.09015873 -0.18929444 0.4065864

critic.0.bias f4 [128]
000000 65 aa 2a be e5 57 53 bd 51 31 72 3e fc 73 22 3e
       -0.16666563 -0.051597495 0.23651625 0.15864557
000010 7e 9f fe 3b c0 95 32 be 65 e0 0e 3e b0 e2 c3 3d
       0.007770478 -0.17439938 0.13952787 0.095647216
000020 32 11 1b 3d a0 b8 d8 bd 4c 06 80 bc fa f8 7e be
       0.037858196 -0.105820894 -0.015628003 -0.24899665
000030 d0 38 3d bd d3 14 2c bb 37 25 16 3e 38 fc e1 bd
       -0.04619676 -0.002625753 0.14662634 -0.11034435
000040 e2 13 fe bd f3 41 43 be 2d a6 1e 3e 76 f2 94 3d
       -0.12406136 -0.19068126 0.15493079 0.07272808
000050 71 dc 5a 3e 2a 35 b6 bd 23 c4 3b be 83 0f 41 be
       0.21373154 -0.08896859 -0.18336539 -0.18853574
000060 ff 99 1c 3d 5f b0 99 bd 96 4b 39 3d b7 65 28 be
       0.0382328 -0.07504343 0.0452381 -0.16445051
000070 c9 8c 01 be c2 b6 5c 3d 01 09 10 3e 4a e5 be bd
       -0.12651362 0.05388523 0.14065935 -0.09321077
000080 40 d6 2b bd 39 be 36 3e bc a1 68 3e 40 43 66 be
       -0.04195237 0.17846002 0.22717947 -0.22486591
000090 6d 9d 20 be 0d 4f b1 3d e1 6e 9b bd 7e e3 39 be
       -0.15685053 0.08657656 -0.07589508 -0.18153188
0000a0 41 e6 9c bd eb 59 1d 3e 37 28 84 3c 0b e7 1c be
       -0.07661105 0.15366332 0.016132457 -0.15322511
0000b0 d0 5a 40 3e 29 22 02 3e 75 df 11 3d 3d cb 0d be
       0.18784642 0.12708344 0.035613496 -0.1384706
0000c0 d1 6e 19 be 2f 09 17 3e 7c fe 49 3d 69 5f 81 be
       -0.1498368 0.14749597 0.04931496 -0.25268105
0000d0 35 97 a7 bd a5 17 5b bd b2 5b 22 be 1b e7 91 bd
       -0.08183137 -0.053489346 -0.15855291 -0.07124158
0000e0 e2 84 a5 3d 54 da 1b be e8 93 f4 bd db 9a cb bd
       0.08081986 -0.15220004 -0.119422734 -0.09941646
0000f0 c1 3a 60 3d f7 33 61 bd c5 f2 ca bd f3 ad 77 bd
       0.054743532 -0.0549812 -0.09909586 -0.060468625
000100 28 0f ba bd 7e 72 d4 bd fb 71 d8 3d 65 7d c7 3c
       -0.09084922 -0.103734 0.10568615 0.024351785
000110 0e 2d bd bd df e3 48 3e 59 23 bc bd 02 50 2d 3e
       -0.09237109 0.19618176 -0.091864295 0.16925052
000120 a7 f4 aa 3d 5d f4 39 3e 14 85 18 3e c7 c6 1a be
       0.08347445 0.18159623 0.14894515 -0.1511489
000130 02 42 67 3e 84 6c 8a 3d 4e f0 c1 3d dd 4e f4 3d
       0.22583774 0.06758979 0.094696626 0.119291045
000140 ed 73 d8 3d 5b 8d 83 3c 0c 0b 94 3d c9 d3 1b 3e
       0.10568986 0.016058614 0.072286695 0.15217508
000150 6a 45 3b be 77 b3 5f bc 42 60 6b 3c 08 35 82 3d
       -0.18288198 -0.013653628 0.014366211 0.06357771
000160 d5 bd 2c 3e b2 3a 5c 3e a3 10 0c be 40 79 18 3e
       0.1686929 0.21506765 -0.13678221 0.14890003
000170 3e 61 02 bd 53 03 08 3d 8b 47 6c bd e6 a2 5d 3e
       -0.03183102 0.033206295 -0.057685416 0.21644172
000180 a8 b1 1b 3d 0c c2 a4 bd 42 07 ba 3d 72 48 44 3e
       0.038011223 -0.08044824 0.090834156 0.1916826
000190 55 d9 5e 3e 54 5d 70 3c 70 a7 96 3d 34 aa 26 3d
       0.21762593 0.014670689 0.07356155 0.040689662
0001a0 97 c8 af 3d 11 23 5e be 5d 43 5b 3e fd ed 55 bd
       0.08583181 -0.21693064 0.21412416 -0.052228916
0001b0 3a 84 02 3e 7e bf e3 bd b3 8b c9 bd 2e 2e 9f 3d
       0.12745753 -0.111205086 -0.09841099 0.0777248
0001c0 78 3c c6 3c bf fb 37 3e c0 36 b5 3d 48 82 15 3e
       0.024198756 0.17967127 0.08848333 0.1460048
0001d0 b9 ae b9 bb a3 2e 61 3e 36 a1 3a bd 1b 24 ae 3d
       -0.0056665805 0.21990447 -0.0455639 0.0850298
0001e0 3d 6e 13 3e 9f d4 e8 3d 65 83 3c 3e 40 07 67 bd
       0.14397521 0.11368679 0.18409498 -0.0564034
0001f0 4d b8 22 3e 52 6e 33 be 34 17 38 3d 39 bf 95 bd
       0.15890618 -0.17522553 0.044944003 -0.073118635
