ISAAC_NOGIT/logs/rsl_rl/traquad_flat/2025-09-16_14-33-50/model_0.pt (torch, 924887 bytes, 48 tensors)

std f4 [8]
1.0041723 1.0001105 0.9971283 1.004078 1.0005287 0.9972932 0.9969606 1.0001131
00000000: b888 803f 9f03 803f cd43 7f3f a185 803f
00000010: 5311 803f 9b4e 7f3f cf38 7f3f b503 803f

actor.0.weight f4 [128, 31]
-0.008282683 0.09807702 0.06601502 0.16021997 0.10102553 -0.054280996 -0.038635656 0.013762778
-0.060267612 0.122240245 0.12165311 -0.14062335 0.004878801 0.06935674 -0.035009935 0.07156793
0.07139429 0.10286137 0.12110558 0.12569472 0.032257825 -0.15811193 -0.17484955 -0.0383005
0.14472418 -0.04104023 0.15291668 0.058694653 0.13317727 -0.13009778 -0.1633507 -0.10596069
-0.046106428 -0.050658785 -0.064359196 -0.09970916 0.06283925 -0.033875838 -0.06231341 0.12184156
0.054290485 0.08818036 0.0064886226 -0.056206737 0.1348617 0.05759171 -0.04557421 0.031262472
-0.029033551 -0.051067907 -0.055560406 0.04783277 -0.02305088 0.17639975 0.08347524 0.005220503
0.11573772 -0.022572009 -0.14074288 -0.1632228 0.08836832 -0.1045202 0.17864522 0.121055916
-0.0037361712 -0.02504324 -0.009801935 -0.17448299 0.17764334 -0.045053266 -0.1650477 0.09224339
-0.1605746 0.12852523 0.005729283 -0.18076828 0.007543769 -0.016530836 -0.002203897 0.11955833
-0.04138757 0.036559552 0.13785283 0.1441595 -0.14210692 -0.053539954 -0.07429585 -0.15822959
-0.07539997 0.11880858 -0.0077973027 -0.12736334 0.16917244 -0.05027023 -0.028009053 0.161376
0.08555302 -0.14033635 0.002967375 -0.021841582 0.116801776 0.09242365 0.007556332 0.012870975
-0.12762229 0.0050483234 0.13798557 0.06423694 0.16301323 0.102786794 0.065970495 0.09339251
0.087321386 0.13752364 -0.14316614 0.11036897 0.127876 -0.0845872 0.035247467 0.039015286
0.118424885 -0.02334563 0.17600375 -0.123440005 0.050894428 -0.059521485 -0.14776349 -0.12685834
0.11002952 -0.1573973 -0.09980975 0.17244142 -0.11989404 0.075119026 -0.13778456 0.104894325
0.14464901 -0.09298694 0.0028241663 0.12629846 0.17229457 -0.14666957 -0.053547766 0.06813837
0.11470275 -0.017130144 -0.043848652 -0.061860036 -0.013939389 0.13429387 -0.016446935 0.17510225
0.14601342 -0.12956658 0.14284737 -0.0077940547 -0.014201228 -0.0019989226 -0.05518517 0.024953395
0.105806 0.059241645 -0.16106147 -0.11703369 -0.09473521 -0.03977651 0.09058468 0.13402331
0.05393684 0.082720935 -0.05841102 -0.05800811 0.101318106 0.04871988 0.14412874 0.14315495
-0.15452328 0.015143052 -0.03427636 -0.16578133 -0.0034118807 0.027213188 -0.17221233 0.013567157
0.1121863 -0.096503526 -0.06641037 -0.07290793 -0.035151232 0.1220863 0.15583771 -0.17167777
0.09557237 -0.005969883 0.11694135 0.00054123584 0.13954382 -0.087216154 -0.12830986 0.13299033
-0.10851534 0.03982812 -0.008986576 -0.06894681 0.05070266 0.025785701 -0.012731882 -0.048029803
0.030363217 -0.120711386 -0.004198164 -0.06874345 0.030017288 -0.12211368 0.009432652 0.08336816
-0.15272486 0.1746608 -0.11568386 0.029290121 0.010978427 -0.12799789 -0.09962319 0.078432865
0.09554418 -0.09474598 -0.10163796 0.062489655 -0.032473706 0.048005737 -0.13929088 0.01011887
0.053849395 -0.026665775 0.15696537 0.13485883 -0.019523237 -0.02788456 -0.10496685 -0.15353675
-0.058970258 -0.1352885 0.10260211 0.122713216 0.17264554 0.005126871 -0.14534181 0.16744427
-0.12733516 0.019156983 0.14297341 -0.06648586 0.053782217 -0.05545979 -0.06674165 0.0634331
00000000: 17b4 07bc 9bdc c83d e232 873d b410 243e
00000010: 79e6 ce3d c055 5ebd 6c40 1ebd 467d 613c
00000020: 2cdb 76bd 1859 fa3d 4425 f93d 91ff 0fbe
00000030: 59de 9f3b e80a 8e3d 9466 0fbd 3592 923d
00000040: 2b37 923d fba8 d23d 3406 f83d 1eb6 003e
00000050: c820 043d 18e8 21be c30b 33be fce0 1cbd
00000060: 9332 143e cd19 28bd 3196 1c3e ce69 703d
00000070: 9f5f 083e 5a38 05be 6845 27be eb01 d9bd
00000080: 18da 3cbd 967f 4fbd c1ce 83bd 5134 ccbd
00000090: ddb1 803d 64c1 0abd 593c 7fbd 1188 f93d
000000a0: b35f 5e3d e897 b43d 839e d43b 0939 66bd
000000b0: 2f19 0a3e 49e5 6b3d 06ac 3abd 140d 003d
000000c0: c5d7 edbc 952c 51bd 4f93 63bd 4bec 433d
000000d0: 33d5 bcbc 23a2 343e 11f5 aa3d c110 ab3b
000000e0: e607 ed3d efe8 b8bc e71e 10be e123 27be
000000f0: 73fa b43d b00e d6bd c6ee 363e 2aec f73d
00000100: 8dda 74bb 7b27 cdbc 4c98 20bc abab 32be
00000110: 23e8 353e c689 38bd 4402 29be 1aea bc3d
00000120: ab6d 24be 1e9c 033e b6bc bb3b 521b 39be
00000130: b931 f73b ad6b 87bc 426f 10bb ffda f43d
00000140: 0386 29bd 78bf 153d 4b29 0d3e 8c9e 133e
00000150: 7a84 11be b64c 5bbd 6c28 98bd f006 22be
00000160: 4d6b 9abd ea51 f33d 8480 ffbb 896b 02be
00000170: 8a3b 2d3e 28e8 4dbd 3e73 e5bc c03f 253e
00000180: 6c36 af3d 55b4 0fbe 4b78 423b 1eed b2bc
00000190: c535 ef3d 9c48 bd3d 1b9b f73b c8e0 523c
000001a0: 6baf 02be 686c a53b 174c 0d3e a88e 833d
000001b0: f1ec 263e e281 d23d 8a1b 873d 9344 bf3d
000001c0: 8ed5 b23d ffd2 0c3e 259a 12be 2009 e23d
000001d0: edf1 023e 0e3c adbd a65f 103d 7ece 1f3d
000001e0: bf88 f23d 563f bfbc 543a 343e 1dce fcbd
000001f0: ad76 503d cdcc 73bd 504f 17be 27e7 01be
00000200: 2857 e13d c22c 21be 0e69 ccbd 7c94 303e
00000210: 028b f5bd 01d8 993d 6517 0dbe d6d2 d63d
00000220: df1e 143e f06f bebd a615 393b 6254 013e
00000230: fd6d 303e 8c30 16be e754 5bbd 218c 8b3d
00000240: 47e9 ea3d 8454 8cbc a59a 33bd f360 7dbd
00000250: 0962 64bc 5584 093e b9bb 86bc 014e 333e
00000260: 8b84 153e 1aad 04be 9546 123e 4565 ffbb
00000270: 44ac 68bc 5b00 03bb d809 62bd 106b cc3c
00000280: d1b0 d83d 5ea7 723d 4ced 24be 5caf efbd
00000290: 8904 c2bd b2ec 22bd 7684 b93d 683d 093e
000002a0: e0ec 5c3d 9869 a93d 6540 6fbd e999 6dbd
000002b0: de7f cf3d 7f8e 473d 7c96 133e 3697 123e
000002c0: 5a3b 1ebe 901a 783c 5e65 0cbd 95c2 29be
000002d0: dc99 5fbb 31ee de3c 6e58 30be c848 5e3c
000002e0: eec1 e53d a4a3 c5bd 2902 88bd c150 95bd
000002f0: bdfa 0fbd 6208 fa3d ec93 1f3e 4ccc 2fbe
00000300: 72bb c33d 029f c3bb f27e ef3d b9e1 0d3a
00000310: 93e4 0e3e 629e b2bd a963 03be 9e2e 083e
00000320: 4a3d debd d022 233d 6f3c 13bc fc33 8dbd
00000330: 98ad 4f3d 893c d33c 6299 50bc e6ba 44bd
00000340: 48bc f83c 8837 f7bd c190 89bb 5ec9 8cbd
00000350: d1e6 f53c bd16 fabd 698b 1a3c edbc aa3d
00000360: e863 1cbe 48da 323e a9eb ecbd d6f1 ef3c
00000370: dcde 333c e111 03be 3e07 ccbd 69a1 a03d
00000380: abac c33d 2e0a c2bd 9027 d0bd 27f5 7f3d
00000390: 2603 05bd aaa1 443d 45a2 0ebe 9ec9 253c
000003a0: 2f91 5c3d 2f72 dabc 88bb 203e 6f18 0a3e
000003b0: 32ef 9fbc 296e e4bc dcf8 d6bd bd38 1dbe
000003c0: cc8a 71bd 1289 0abe 0e21 d23d 1151 fb3d
000003d0: fec9 303e 50ff a73b 7cd4 14be 8376 2b3e
000003e0: 2664 02be 1bef 9c3c 9f67 123e bd29 88bd
000003f0: be4a 5c3d ce29 63bd d9af 88bd 37e9 813d

actor.0.bias f4 [128]
0.072654404 -0.079588875 0.0428666 -0.071559355 0.07324518 0.0046922457 -0.040265717 0.0017150446
-0.1337013 0.1659218 -0.17422444 0.016156975 -0.1292473 0.14186922 -0.10750705 0.12975
0.087539054 -0.10926818 -0.064010166 0.035849214 0.16233848 0.05621355 0.020121923 0.096065365
0.17722319 -0.065313876 0.0030353756 0.021603528 -0.0862369 0.04287528 -0.018330453 -0.07977043
-0.16006699 0.06956241 -0.065804616 0.1357968 0.099325575 -0.07471734 0.13526277 0.14863041
0.16888268 -0.17581 -0.11765143 -0.036966927 0.0523491 0.083376735 0.09097159 0.06844018
-0.0042073913 -0.099575154 0.022699222 -0.081516646 0.02144284 0.090610735 -0.037098087 0.034286473
0.040052228 0.080575496 -0.08196864 0.042997602 -0.05435884 -0.09151758 -0.06389629 0.11039753
-0.17212223 -0.13933307 -0.054494448 -0.043608677 0.14297126 0.047046725 -0.17735153 0.09607734
0.13190043 -0.07707652 -0.13576236 -0.029041309 0.036153976 -0.121729724 -0.07388788 0.10361517
-0.07717602 -0.1796476 -0.16702363 0.120159164 -0.0060531227 -0.108311884 0.059454292 -0.07321108
0.052526608 -0.122805275 -0.04246172 -0.08438169 0.1562143 -0.1783807 -0.040121283 0.02091514
0.011059777 0.14452247 0.16730255 -0.053588253 0.14676136 0.11965002 0.17879188 -0.17222264
0.10809735 -0.02698213 -0.17653964 0.102854684 -0.14547132 0.14865664 -0.14865837 0.023739805
-0.013255258 0.026445614 -0.035013445 0.1720625 -0.06217115 0.12205299 -0.13167249 -0.014295278
0.16362156 0.016338816 -0.047759596 0.007369924 0.049708016 0.07011906 0.072428145 0.043098573
00000000: d5cb 943d 7eff a2bd e394 2f3d b68d 92bd
00000010: 9201 963d 69c1 993b aaed 24bd 59cb e03a
00000020: fee8 08be 68e7 293e e467 32be a25b 843c
00000030: 6759 04be 2a46 113e a82c dcbd 2fdd 043e
00000040: ad47 b33d ffc7 dfbd c317 83bd a0d6 123d
00000050: 0f3c 263e 2e40 663d bbd6 a43c ebbd c43d
00000060: ff79 353e 48c3 85bd 27ed 463b e2f9 b03c
00000070: f99c b0bd fd9d 2f3d bf29 96bc ae5e a3bd
00000080: 9ae8 23be bd76 8e3d 92c4 86bd 510e 0b3e
00000090: 356b cb3d 6805 99bd 5382 0a3e 9232 183e
000000a0: 95ef 2c3e 8907 34be 3cf3 f0bd a26a 17bd
000000b0: 036c 563d 6cc1 aa3d 504f ba3d 5d2a 8c3d
000000c0: 28de 89bb 0fee cbbd b8f3 b93c 33f2 a6bd
000000d0: e5a8 af3c 1f92 b93d 2af4 17bd f96f 0c3d
000000e0: ce0d 243d c404 a53d 2ddf a7bd 411e 303d
000000f0: 60a7 5ebd 926d bbbd 0fdc 82bd 1a18 e23d
00000100: cf40 30be 54ad 0ebe 9235 5fbd 039f 32bd
00000110: 0f67 123e 11b4 403d a49b 35be 32c4 c43d
00000120: e810 073e 4bda 9dbd 4a05 0bbe 0ae8 edbc
00000130: 3116 143d 6f4d f9bd 8752 97bd 3134 d43d
00000140: 760e 9ebd 8af5 37be 3e08 2bbe 0216 f63d
00000150: 4659 c6bb 9fd2 ddbd 5886 733d b1ef 95bd
00000160: 2426 573d 5581 fbbd 57ec 2dbd 4fd0 acbd
00000170: a4f6 1f3e 6ea9 36be 3756 24bd 3a56 ab3c
00000180: 1134 353c b3fd 133e 5c51 2b3e 5b7f 5bbd
00000190: 9c48 163e 120b f53d 3815 373e 225b 30be
000001a0: 2562 dd3d a109 ddbc cfc6 34be 7aa5 d23d
000001b0: 6ff6 14be 7239 183e e639 18be fb79 c23c
000001c0: 952c 59bc 79a4 d83c 426a 0fbd 2731 303e
000001d0: 2da7 7ebd ebf6 f93d 27d5 06be be36 6abc
000001e0: 698c 273e fbd8 853c 919f 43bd 677f f13b
000001f0: a29a 4b3d 959a 8f3d 3555 943d 2188 303d

actor.2.weight f4 [128, 128]
-0.06663758 -0.08611779 0.023993447 -0.02308186 0.04666084 -0.08730714 -0.049414027 0.04886267
0.026552556 0.06801746 -0.045398444 0.007262082 0.03647651 0.034551427 0.08145462 -0.05311606
0.08607031 -0.07562813 0.020582939 0.062309 0.040473357 -0.010867636 0.042784117 0.021399798
0.03589244 -0.0041660727 0.03031675 0.0004628713 -0.035015993 0.054898817 0.0070665674 0.022131626
-0.04912865 0.014131735 0.08028378 -0.041586682 0.041211378 -0.06769078 -0.05921372 -0.050157744
0.074308 -0.0074806805 0.058392037 0.063478336 0.06839409 0.079843424 -0.0021396738 0.081247225
0.0038710588 0.010863598 -0.06675941 -0.005152855 0.0780111 -0.029810986 0.013971542 0.045621444
0.07340053 -0.014370811 0.041432954 -0.026887696 -0.04991083 0.08163789 0.022797124 -0.010268996
-0.071100235 0.06519967 -0.0061858403 -0.03394535 -0.0029731332 -0.056572422 -0.05261366 -0.061405174
-0.03339358 0.01794513 0.0017678279 -0.01681858 -0.056245934 -0.009249878 -0.08177717 0.063583456
-0.049355015 0.043469775 -0.006150538 0.08209262 0.08195247 0.06268246 -0.006768196 -0.004123458
0.010305166 -0.02219657 -0.05971873 0.048153114 0.017502034 0.06596722 0.033961955 0.047634386
-0.013300643 -0.025424892 -0.06330499 -0.005613408 -0.02860955 -0.017772945 0.064683415 0.018900484
-0.08296657 0.06779599 -0.020656547 0.037871316 -0.026707496 -0.05248297 0.068717934 -0.087995544
0.07564262 0.05780571 -0.03662565 0.03465779 0.01640668 -0.07629067 -0.025153104 0.045472797
0.04699814 -0.04164881 -0.02382911 0.07051221 -0.0818748 -0.04741241 -0.08716965 -0.08585894
-0.08618018 -0.03345878 0.07508594 0.07771927 0.08259941 0.02329287 -0.0010219256 0.018119648
0.08325797 0.05442258 0.04220679 -0.054156825 -0.058377143 0.008422362 -0.07711555 0.030659815
-0.08869752 -0.008154056 -0.09097845 0.06620115 0.08349312 -0.013004349 0.02285083 0.013500856
-0.017910933 -0.07114545 0.05184847 -0.0051713684 0.06228476 -0.07392077 -0.075987786 -0.024795212
0.022073073 -0.054040182 0.08336325 -0.0050904243 0.00020561002 -0.08439558 0.03223046 0.064960845
0.008733628 -0.075920574 0.0045089894 0.07941661 0.037975498 -0.05616611 0.08050399 -0.0722386
-0.010089256 0.068094395 0.039308447 -0.0870627 -0.029654598 -0.07061137 -0.06604739 -0.017398216
-0.02953813 0.035518657 -0.041388292 -0.058885746 -0.016156845 0.041217793 0.076135434 -0.08019907
-0.028850392 -0.023231909 0.08511252 0.06618522 -0.061932135 -0.033722147 -0.02931619 -0.020019503
0.034938857 -0.013716632 -0.07024326 -0.01613456 0.032662455 -0.0037924408 0.040936016 -0.058679685
-0.03695041 -0.047371812 0.005871628 0.0507579 0.009488415 0.03762492 -0.023131806 -0.009265932
0.0076476056 0.00086089637 0.023854518 0.039581243 0.027664248 -0.06377689 0.05723319 0.06759565
-0.07856454 -0.041374654 0.042696618 0.06975095 -0.06410325 -0.03645357 -0.08513609 -0.00791415
0.009981895 0.038064484 -0.02625978 0.041678656 -0.056099676 0.07235407 -0.08552851 -0.089603655
0.07825993 0.050508 0.05759914 -0.06983667 0.04769453 0.050617334 0.0247618 0.048488073
0.05905006 -0.06525703 0.04652566 -0.034875732 -0.08444127 0.08131706 -0.054381996 -0.04265528
00000000: 4979 88bd 865e b0bd e88d c43c 2b16 bdbc
00000010: 701f 3f3d 16ce b2bd 5d66 4abd 3924 483d
00000020: bf84 d93c bd4c 8b3d b8f3 39bd c2f6 ed3b
00000030: 6568 153d cc85 0d3d aed1 a63d 3a90 59bd
00000040: a145 b03d ece2 9abd 8d9d a83c b937 7f3d
00000050: 64c7 253d 2b0e 32bc 663e 2f3d a14e af3c
00000060: f303 133d 8d83 88bb d55a f83c 89ad f239
00000070: ee6c 0fbd 95dd 603d aa8e e73b 624d b53c
00000080: 203b 49bd cb88 673c d36b a43d cc56 2abd
00000090: 43cd 283d 77a1 8abd 168a 72bd 3572 4dbd
000000a0: cb2e 983d 7f20 f5bb 7d2c 6f3d ee00 823d
000000b0: 3312 8c3d f384 a33d c539 0cbb f264 a63d
000000c0: 97b1 7d3b 3cfd 313c 28b9 88bd 48d9 a8bb
000000d0: 49c4 9f3d 2b36 f4bc e5e8 643c 8ddd 3a3d
000000e0: 0453 963d 8d73 6bbc 9ab5 293d 9643 dcbc
000000f0: 4c6f 4cbd c431 a73d 09c1 ba3c 4a3f 28bc
00000100: 009d 91bd 6887 853d 97b2 cabb 480a 0bbd
00000110: e6d8 42bb 7cb8 67bd 6c81 57bd fe83 7bbd
00000120: b5c7 08bd aa01 933c 76b6 e73a 1ec7 89bc
00000130: 2362 66bd cd8c 17bc ca7a a7bd 0b38 823d
00000140: 7c28 4abd 5d0d 323d 748a c9bb 2d20 a83d
00000150: b2d6 a73d a95f 803d bec7 ddbb 131e 87bb
00000160: 00d7 283c 95d5 b5bc a19b 74bd 333c 453d
00000170: 6d60 8f3c d219 873d b11b 0b3d 461c 433d
00000180: f1ea 59bc dd47 d0bc 0ca6 81bd aef0 b7bb
00000190: 935e eabc 9198 91bc bd78 843d 30d5 9a3c
000001a0: 61ea a9bd a0d8 8a3d eb37 a9bc f41e 1b3d
000001b0: aec9 dabc 62f8 56bd fdbb 8c3d 0237 b4bd
000001c0: 85ea 9a3d aec5 6c3d c704 16bd 54f5 0d3d
000001d0: 4d67 863c 483e 9cbd e20d cebc af41 3a3d
000001e0: 1f81 403d f197 2abd 4435 c3bc b568 903d
000001f0: faad a7bd 8433 42bd 0086 b2bd d0d6 afbd
00000200: 3c7f b0bd 130c 09bd a8c6 993d 482b 9f3d
00000210: e129 a93d b0d0 be3c 22f2 85ba a86f 943c
00000220: 2883 aa3d 36ea 5e3d 07e1 2c3d 8cd3 5dbd
00000230: df1c 6fbd f2fd 093c c2ee 9dbd 4b2a fb3c
00000240: 0ca7 b5bd 9798 05bc e952 babd 7894 873d
00000250: 71fe aa3d 3110 55bc aa31 bb3c b232 5d3c
00000260: f3b9 92bc b5b4 91bd 105f 543d 9574 a9bb
00000270: 4e1e 7f3d c663 97bd 7c9f 9bbd 541f cbbc
00000280: 97d2 b43c 3d59 5dbd 5aba aa3d 93cd a6bb
00000290: 0599 5739 97d7 acbd 1604 043d 310a 853d
000002a0: 7e17 0f3c 3f7c 9bbd 25c0 933b 2da5 a23d
000002b0: 328c 1b3d 6f0e 66bd 47df a43d d5f1 93bd
000002c0: 684d 25bc 1375 8b3d e501 213d ee4d b2bd
000002d0: 33ee f2bc b29c 90bd db43 87bd b486 8ebc
000002e0: f3f9 f1bc 037c 113d c586 29bd 2e32 71bd
000002f0: 5c5b 84bc fdd3 283d e5ec 9b3d 693f a4bd
00000300: a857 ecbc d850 bebc 794f ae3d 1e8c 873d
00000310: 8dac 7dbd 3c20 0abd 8228 f0bc f1ff a3bc
00000320: 0c1c 0f3d b9bb 60bc b3db 8fbd a02c 84bc
00000330: 11c9 053d 998a 78bb 86ac 273d 1c5a 70bd
00000340: 5059 17bd f208 42bd c966 c03b 84e7 4f3d
00000350: 4c75 1b3c 971c 1a3d ea7e bdbc 23d0 17bc
00000360: c498 fa3b c7ad 613a 8d6a c33c f11f 223d
00000370: 22a0 e23c 759d 82bd 596d 6a3d 976f 8a3d
00000380: 72e6 a0bd 7878 29bd a6e2 2e3d 96d9 8e3d
00000390: 9148 83bd 5750 15bd d55b aebd 5aaa 01bc
000003a0: 1a8b 233c 81e9 1b3d c01e d7bc 3db7 2a3d
000003b0: c6c8 65bd 5f2e 943d 9229 afbd 1f82 b7bd
000003c0: be46 a03d 7ae1 4e3d 13ed 6b3d 8706 8fbd
000003d0: 575b 433d 1f54 4f3d 42d9 ca3c 6e9b 463d
000003e0: 7ade 713d 7aa5 85bd b191 3e3d dbd9 0ebd
000003f0: 8bef acbd 8f89 a63d a8bf 5ebd 4eb7 2ebd

actor.2.bias f4 [128]
0.061342485 -0.07455495 -0.046266917 -0.036718007 0.018827297 -0.05511504 -0.006312277 0.021679534
-0.05700235 0.04325272 -0.033618305 0.0013219257 0.0670964 0.057270586 -0.04938002 0.015946155
-0.003702933 -0.012942918 0.037674423 0.050324444 -0.017989019 -0.08737117 -0.0824993 -0.0074456003
0.01703017 -0.057034153 -0.02526547 -0.06387184 0.075355254 -0.009199773 -0.004783687 0.08214452
-0.043821022 0.0075041293 0.05967438 0.02236347 0.03306882 0.015763972 -0.027730243 -0.040455617
0.020743467 -0.047366783 0.07192865 0.047026638 0.067222744 -0.07108561 0.006617868 -0.052419245
-0.0689222 -0.04453451 0.08390187 -0.039836008 -0.084768504 0.07922588 0.05764116 -0.049685776
0.062198177 0.020796483 0.0059628338 -0.058842294 -0.08453941 0.086267106 0.051263943 0.055780396
-0.08078396 -0.06943225 0.07253419 -0.08375036 0.053904694 -0.048358362 -0.037127636 0.08824153
0.07098885 -0.05268373 0.08674395 0.022375366 0.001174616 0.0018515603 -0.03170371 0.0014864835
0.039495014 0.01569884 -0.02560611 0.022682969 0.04828585 -0.0054510916 -0.07247391 -0.012765278
-0.070815824 0.03661689 0.035916243 0.039240338 -0.07625753 -0.07847005 -0.016019057 0.02384602
-0.008687958 -0.03522961 0.07243984 0.07413855 0.053280067 -0.033351135 0.043407828 -0.06457033
0.016654592 0.0044764616 -0.047124982 0.07566655 -0.076025605 0.019689174 -0.034843408 0.009932
-0.042825416 0.080530904 0.029131657 -0.08683392 0.064260595 0.046624366 -0.053222246 -0.027935656
0.040700123 0.08147116 -0.03926232 0.08156044 -0.05568507 0.033370495 -0.069601916 -0.00070230156
00000000: 4242 7b3d 44b0 98bd 6182 3dbd 9f65 16bd
00000010: b43b 9a3c 4fc0 61bd 38d7 cebb 4799 b13c
00000020: 4c7b 69bd c429 313d 59b3 09bd 7744 ad3a
00000030: d669 893d 9094 6a3d b442 4abd 83a1 823c
00000040: e8ac 72bb 880e 54bc 7f50 1a3d 0121 4e3d
00000050: b55d 93bc a8ef b2bd 65f5 a8bd 39fa f3bb
00000060: db82 8b3c a59c 69bd 88f9 cebc 3dcf 82bd
00000070: db53 9a3d a5ba 16bc 7ac0 9cbb 633b a83d
00000080: ac7d 33bd 33e5 f53b 1f6d 743d 9933 b73c
00000090: 2c73 073d 7223 813c 892a e3bc cab4 25bd
000000a0: 34ee a93c ac03 42bd 544f 933d 019f 403d
000000b0: 14ac 893d 5595 91bd b3da d83b 90b5 56bd
000000c0: 1527 8dbd d169 36bd bed4 ab3d 152b 23bd
000000d0: 1c9b adbd 2e41 a23d 2319 6c3d 5083 4bbd
000000e0: 84c3 7e3d 635d aa3c e063 c33b 9e04 71bd
000000f0: 0023 adbd cfac b03d 24fa 513d fc79 643d
00000100: 1072 a5bd 7f32 8ebd ce8c 943d 4f85 abbd
00000110: 2bcb 5c3d 6b13 46bd 2613 18bd fab7 b43d
00000120: 9a62 913d e5ca 57bd d0a6 b13d 8b4c b73c
00000130: 93f5 993a 0eb0 f23a c0db 01bd 1cd6 c23a
00000140: 86c5 213d db9a 803c e8c3 d1bc a2d1 b93c
00000150: 62c7 453d 129f b2bb 346d 94bd 7525 51bc
00000160: e307 91bd 98fb 153d e91c 133d 7aba 203d
00000170: e82c 9cbd e8b4 a0bd 663a 83bc bb58 c33c
00000180: f057 0ebc ec4c 10bd 575b 943d f4d5 973d
00000190: 333c 5a3d 339b 08bd 68cc 313d 733d 84bd
000001a0: 366f 883c 48af 923b 2006 41bd 10f7 9a3d
000001b0: 50b3 9bbd 314b a13c f6b7 0ebd d4b9 223c
000001c0: b469 2fbd 63ed a43d 83a5 ee3c fbd5 b1bd
000001d0: 0f9b 833d 31f9 3e3d 92ff 59bd 51d9 e4bc
000001e0: 2cb5 263d 5ada a63d 87d1 20bd 2909 a73d
000001f0: 0716 64bd 80af 083d 738b 8ebd a91a 38ba

actor.4.weight f4 [128, 128]
-0.028174039 -0.016316785 0.014132426 0.057097774 0.052477565 -0.010816262 -0.013071187 0.087594464
-0.064803794 -0.08782151 0.020105045 -0.022635972 0.08197657 -0.008948708 -0.081699654 -0.016209224
-0.0069631734 -0.058328725 -0.035153043 -0.0824846 -0.037961062 0.06215056 -0.06790913 -0.046872895
-0.064225316 0.04237606 -0.035028078 -0.0751089 -0.023894554 0.06611346 -0.021484371 -0.056037493
-0.0112342695 -0.0712446 0.05537992 -0.02235374 -0.012245744 -0.05518467 0.026573885 0.015026838
0.08244515 -0.064090215 0.04008438 -0.007341224 -0.01967412 0.03155104 -0.024648264 0.0047708983
-0.014395556 -0.07727157 -0.028166858 0.05713966 -0.025191817 0.024996059 -0.03441866 0.001048474
0.068033315 -0.08508437 0.055549994 -0.04230738 0.0062670605 0.08920004 0.03305476 -0.02908281
-0.08033737 0.067972355 0.037166756 -0.041803982 0.0136778215 0.08356073 -0.056795336 -0.025617998
-0.002120017 -0.056618873 0.07693892 0.04172592 0.059982575 0.027400915 -0.025208559 0.021218026
-0.046634555 -0.08274454 -0.035434727 0.03586781 -0.041512374 -0.034017216 -0.009556481 0.058012642
0.060014945 -0.005813542 0.044857185 -0.049645603 0.026460506 0.042625662 0.02810979 -0.06042156
-0.061154075 0.06452888 -0.04495158 0.043698363 -0.06398792 0.0033362028 -0.025216157 -0.028482378
-0.02199801 0.02512471 0.08404082 -0.006915132 -0.053380907 -0.0056914003 0.054416005 0.0150707215
-0.040915687 -0.0026734767 -0.08756597 0.04295987 0.048938733 0.037825238 0.035231397 -0.047876682
-0.0022904975 -0.08369492 -0.005676586 -0.0055293418 0.024160735 0.0117137795 0.017194143 -0.021338994
-0.06043641 0.07773132 0.026749128 -0.045953244 0.07356068 0.057114303 0.03896192 -0.029212214
-0.049277175 0.02974858 -0.061351765 -0.03351189 0.055590864 0.044784963 0.08527966 -0.010917688
0.009715485 0.032913286 0.029884802 -0.01644934 -0.07327753 0.053555224 -0.037655115 -0.05511673
-0.05569772 0.010549833 -0.03536523 -0.02082319 0.085908614 -0.014382025 0.049007278 -0.07722981
0.054797478 -0.021209506 0.060111117 0.033840735 0.057463378 0.07719495 -0.0029736005 0.037890624
-0.03464833 -0.022019371 -0.05299725 0.009011064 0.019039288 0.037246343 -0.046123397 0.010351858
0.063371815 -0.051523883 0.0785665 0.041515566 -0.06573605 -0.083810724 0.014958846 -0.05315075
0.08866883 -0.056834415 0.028462416 0.0849018 0.058121633 -0.06554716 0.016602376 0.06851017
-0.017727122 -0.046794713 -0.04350302 0.04225286 -0.07703446 -0.014855021 -0.08782874 0.037874375
0.0298717 -0.03424786 0.0015697159 0.06799725 0.079811744 -0.080701716 -0.06505497 -0.012667193
0.0066490658 -0.047437318 0.013868494 0.021837287 -0.024667667 0.06912609 -0.012960612 -0.030680558
0.07646826 -0.028753413 0.00592929 0.0892271 -0.05777486 0.01680184 0.08423021 -0.083687976
0.0697849 0.033921625 0.025415087 0.08872875 -0.051909186 0.070978396 0.07773237 -0.01657807
-0.001515996 0.08607855 0.07209237 0.044840716 0.015251685 0.038621318 0.016840775 -0.08944977
-0.07449051 -0.02484024 0.030713864 -0.06902339 -0.06482485 -0.007313131 -0.06547078 -0.050049495
-0.00012546424 -0.040242806 0.029646706 -0.008725436 -0.043987796 0.077671506 -0.018982269 0.018618515
00000000: 3ecd e6bc c7aa 85bc b18b 673c 5bdf 693d
00000010: b7f2 563d b136 31bc 8828 56bc ba64 b33d
00000020: dab7 84bd c4db b3bd 56b3 a43c 136f b9bc
00000030: 55e3 a73d 9a9d 12bc 2652 a7bd 35c9 84bc
00000040: 552b e4bb 1aea 6ebd a3fc 0fbd b0ed a8bd
00000050: 0f7d 1bbd 9691 7e3d f113 8bbd cbfd 3fbd
00000060: 9088 83bd 8592 2d3d 9a79 0fbd b2d2 99bd
00000070: 83be c3bc 7e66 873d feff afbc 9287 65bd
00000080: f10f 38bc b0e8 91bd 0ed6 623d 311f b7bc
00000090: 5fa2 48bc 5209 62bd 7ab1 d93c 2033 763c
000000a0: 01d9 a83d bb41 83bd 852f 243d a68e f0bb
000000b0: 9f2b a1bc aa3b 013d 28eb c9bc 3255 9c3b
000000c0: 57db 6bbc 8f40 9ebd 2fbe e6bc 470b 6a3d
000000d0: 125f cebc 89c4 cc3c 95fa 0cbd f36c 893a
000000e0: 0d55 8b3d b740 aebd 6488 633d 814a 2dbd
000000f0: ea5b cd3b 83ae b63d 6e64 073d 133f eebc
00000100: eb87 a4bd 1735 8b3d 2b3c 183d a73a 2bbd
00000110: f118 603c e321 ab3d 3aa2 68bd d6dc d1bc
00000120: fcef 0abb 31e9 67bd 2792 9d3d cce8 2a3d
00000130: 4ab0 753d e277 e03c 2e82 cebc 6dd1 ad3c
00000140: e003 3fbd f875 a9bd 0124 11bd 20ea 123d
00000150: e108 2abd a355 0bbd c992 1cbc aa9e 6d3d
00000160: 3bd2 753d 867f bebb 2bbc 373d 3059 4bbd
00000170: b4c3 d83c 3f98 2e3d 8146 e63c 997c 77bd
00000180: b27c 7abd b827 843d 261f 38bd 0efd 323d
00000190: 190c 83bd 32a4 5a3b 1d92 cebc e053 e9bc
000001a0: 2c35 b4bc 56d2 cd3c 981d ac3d 5598 e2bb
000001b0: f0a5 5abd ed7e babb 51e3 5e3d 30eb 763c
000001c0: 3597 27bd 7f35 2fbb ca55 b3bd b0f6 2f3d
000001d0: fb73 483d a3ee 1a3d cc4e 103d 571a 44bd
000001e0: 2c1c 16bb 3e68 abbd a802 babb 7b2f b5bb
000001f0: bcec c53c 27eb 3f3c bbda 8c3c 1dcf aebc
00000200: 2b8c 77bd 9931 9f3d fd20 db3c 7839 3cbd
00000210: fba6 963d b0f0 693d 8996 1f3d 744e efbc
00000220: ddd6 49bd 4bb3 f33c fd4b 7bbd c343 09bd
00000230: 3fb3 633d 7070 373d 1aa7 ae3d 1ae0 32bc
00000240: b32d 1f3c 15d0 063d f9d0 f43c c4c0 86bc
00000250: 8812 96bd b95c 5b3d 403c 1abd 15c2 61bd
00000260: 4b23 64bd 35d9 2c3c 22db 10bd 6595 aabc
00000270: dbf0 af3d 96a2 6bbc dbbb 483d aa2a 9ebd
00000280: 5273 603d 8fbf adbc 1337 763d 959c 0a3d
00000290: b85e 6b3d 6318 9e3d bde0 42bb 3333 1b3d
000002a0: 68eb 0dbd f861 b4bc a513 59bd 24a3 133c
000002b0: 48f8 9b3c 9f8f 183d e3eb 3cbd d79a 293c
000002c0: 15c9 813d b50a 53bd 79e7 a03d 3a0c 2a3d
000002d0: 9fa0 86bd f5a4 abbd f315 753c 9ab4 59bd
000002e0: 0198 b53d 34cb 68bd 032a e93c ffe0 ad3d
000002f0: f310 6e3d 973d 86bd b501 883c 0f4f 8c3d
00000300: 7838 91bc d0ab 3fbd 3930 32bd 5611 2d3d
00000310: 3ec4 9dbd 7962 73bc 8edf b3bd 2922 1b3d
00000320: 7fb5 f43c 7c47 0cbd edbe cd3a 2442 8b3d
00000330: 5774 a33d f146 a5bd 8a3b 85bd 0f8a 4fbc
00000340: 68e0 d93b a24d 42bd ae38 633c 1ce4 b23c
00000350: d913 cabc fb91 8d3d bf58 54bc cb55 fbbc
00000360: 649b 9c3d 478c ebbc 7d4a c23b b3bc b63d
00000370: 55a5 6cbd 03a4 893c e380 ac3d 9a64 abbd
00000380: 63eb 8e3d 67f1 0a3d 4d33 d03c 6bb7 b53d
00000390: ba9e 54bd 1f5d 913d 2632 9f3d bcce 87bc
000003a0: 62b4 c6ba f349 b03d 2aa5 933d e6aa 373d
000003b0: 34e2 793c 6331 1e3d aaf5 893c 7131 b7bd
000003c0: 7b8e 98bd c27d cbbc a49b fb3c 235c 8dbd
000003d0: e4c2 84bd fda2 efbb 8b15 86bd b300 4dbd
000003e0: 0d8f 03b9 a4d5 24bd a6dd f23c 22f5 0ebc
000003f0: 8c2c 34bd 3d12 9f3d b480 9bbc db85 983c

actor.4.bias f4 [128]
0.027269537 0.0012600484 0.04024011 0.023206363 -0.010634243 0.062870264 -0.00041360303 -0.0010906985
0.021739407 -0.0746224 -0.06999869 0.0032316511 -0.06583056 -0.056771446 0.0769812 -0.011960056
0.055098884 0.03965702 -0.06514829 0.026627844 -0.068817794 0.05703958 -0.011082051 0.052316513
0.039678283 0.007218668 0.04452913 -0.009609195 -0.0317529 0.08593988 -0.011597813 0.023139514
0.009902817 0.08682071 0.03347157 0.03443552 0.08533522 0.021700053 -0.03069331 -0.0010137524
-0.05250367 -0.04694042 -0.07247895 -0.08129733 -0.03377517 -0.067164525 0.02306453 -0.06909651
0.009441058 0.064989984 -0.031922076 0.063231245 0.005246123 -0.031302318 0.043274265 0.007269934
-0.053599916 -0.061269384 -0.005446301 -0.0022709756 0.055349845 0.0007627054 -0.013759775 -0.054679155
-0.043565538 0.024722362 0.018824069 0.067774065 0.08285297 0.06956905 -0.038439296 -0.03513924
0.0125980545 0.06280153 0.012728599 -0.03528383 -0.028233321 -0.025978561 0.07558951 -0.019957239
-0.06882114 -0.03981321 0.08361596 -0.015404657 -0.0025430957 -0.015145687 0.040572017 0.046852738
0.08542254 -0.057485517 0.069767796 0.04760422 -0.03341968 -0.070080474 -0.071684405 -0.00021887309
-0.0343185 -0.05478797 -0.0149066895 0.052685555 -0.051363964 -0.07999747 -0.084128104 0.0231381
-0.058973517 0.027888242 -0.06150501 0.08550138 0.05884513 -0.043922883 0.04111767 -0.0631611
-0.04347649 -0.061363336 0.08307847 0.085660644 -0.064026475 -0.07670196 -0.05955858 0.05626495
0.05894152 0.048497267 0.07915525 0.048197486 0.07736833 -0.0031669848 -0.06824238 0.03211444
00000000: 5d64 df3c 3528 a53a d0d2 243d 451b be3c
00000010: 3f3b 2ebc 20c2 803d dcd8 d8b9 c5f5 8eba
00000020: d716 b23c a1d3 98bd 795b 8fbd 1cca 533b
00000030: 2cd2 86bd 2d89 68bd 52a8 9d3d 1cf4 43bc
00000040: 5eaf 613d 666f 223d 776c 85bd a322 da3c
00000050: 58f0 8cbd 56a2 693d 7e91 35bc d749 563d
00000060: b285 223d 938a ec3b 2d64 363d e36f 1dbc
00000070: 540f 02bd 3f01 b03d c104 3ebc 148f bd3c
00000080: 6d3f 223c 0ecf b13d 7c19 093d 430c 0d3d
00000090: 3bc4 ae3d 4fc4 b13c 8970 fbbc e3df 84ba
000000a0: 170e 57bd 9944 40bd d86f 94bd 377f a6bd
000000b0: d557 0abd 8e8d 89bd d3f1 bc3c 7982 8dbd
000000c0: abae 1a3c 7819 853d b9c0 02bd 627f 813d
000000d0: abe7 ab3b dc36 00bd 5b40 313d a038 ee3b
000000e0: 968b 5bbd 9bf5 7abd e276 b2bb a6d4 14bb
000000f0: 85b6 623d 4bf0 473a ae70 61bc 40f7 5fbd
00000100: c771 32bd 8d86 ca3c ef34 9a3c 21cd 8a3d
00000110: d1ae a93d 387a 8e3d 8672 1dbd 2aee 0fbd
00000120: 1268 4e3c 179e 803d 9d8b 503c c785 10bd
00000130: 9149 e7bc fed0 d4bc acce 9a3d 5d7d a3bc
00000140: 19f2 8cbd 2d13 23bd d83e ab3d d163 7cbc
00000150: 11aa 26bb 9e25 78bc d82e 263d a8e8 3f3d
00000160: 03f2 ae3d ef75 6bbd 6be2 8e3d a5fc 423d
00000170: 13e3 08bd 5a86 8fbd 46cf 92bd 4c81 65b9
00000180: 8e91 0cbd 5a69 60bd 303b 74bc cfcc 573d
00000190: 0563 52bd b7d5 a3bd 5b4b acbd 1d8c bd3c
000001a0: 378e 71bd e275 e43c adec 7bbd 591b af3d
000001b0: 9707 713d 7be8 33bd 006b 283d 9b5a 81bd
000001c0: 6714 32bd 1f58 7bbd 0b25 aa3d d96e af3d
000001d0: 5020 83bd eb15 9dbd b3f3 73bd 1476 663d
000001e0: aa6c 713d 12a5 463d 261c a23d ba6a 453d
000001f0: 4973 9e3d 308d 4fbb a9c2 8bbd 6e8a 033d

actor.6.weight f4 [8, 128]
0.070143215 0.055801086 -0.0030277898 0.0825106 -0.009412149 -0.073127516 0.07526605 -0.007505404
-0.08106218 -0.08731659 -0.052868262 0.044699598 -0.030973798 -0.082586296 -0.037101872 -0.053753067
-0.056654416 -0.07173437 -0.06695455 -0.047503453 0.043249294 0.035462618 -0.07148162 0.015929041
0.054628834 -0.08297918 -0.012650401 0.019930413 -0.08280386 0.015611702 -0.07027796 0.022509586
0.029946288 0.08619632 0.07923806 -0.036604032 -0.049601745 0.04395942 -0.0600398 -0.0031554757
0.027571889 0.0018721549 -0.06158823 -0.0015011441 -0.040440828 -0.026744016 0.03846466 -0.065450676
-0.010251664 -0.008214503 -0.0056592976 0.0916552 -0.043338545 -0.034116898 0.060711183 -0.06875929
-0.0044520963 -0.07663657 0.050005674 0.030677069 0.007678673 0.027122801 0.09011836 0.030913996
-0.060645193 0.078116365 -0.031457968 -0.05237576 -0.07305214 -0.012010444 0.08334794 -0.058578387
-0.0019648739 0.068770885 -0.020053942 -0.048400193 0.004579707 0.014888755 -0.04478442 -0.02655761
-0.0019096513 0.01443772 0.06100318 0.006213084 -0.08329964 -0.05485634 0.056128286 0.04446465
-0.059423633 0.060723163 0.052792035 -0.048118234 -0.0727001 0.03383928 0.01360425 0.019261476
0.0067520295 0.03671024 -0.07709484 0.024020951 0.017951664 0.0074334666 0.024258537 -0.08480913
0.053692944 -0.0074635344 -0.007190511 -0.053568702 0.0012171295 -0.008173107 -0.07861369 0.044142596
0.024573376 0.082798794 0.02426635 0.057204302 0.07375372 0.05227233 -0.0010731696 0.063583665
-0.086627215 0.028618902 -0.05356923 -0.011384461 0.08929358 -0.07614476 0.06507308 -0.08055052
-0.03990213 -0.07783215 0.08530844 0.07131295 -0.08538146 -0.06015908 0.07593352 -0.020631623
0.070943505 0.007943691 -0.07473082 -0.049387537 -0.06126762 0.05937669 -0.028059633 0.032140054
0.049585957 -0.020659331 -0.025412107 -0.081381135 -0.017635912 -0.069541216 -0.028966168 0.023573859
-0.054353032 -0.07884809 -0.060875528 -0.0138545185 0.0072977333 -0.0745445 0.05855994 0.09074115
-0.06918072 -0.03977346 -0.084341444 0.07918199 -0.0085955 -0.057171114 -0.06863091 0.0017727899
0.012479583 -0.066810556 0.08523084 0.043827925 0.007384285 -0.06910523 0.063225955 -0.046006404
0.043246653 0.024049744 -0.022686651 0.055410296 0.0532071 -0.02477955 0.09084138 -0.05608934
0.018685311 -0.08305431 0.010889056 -0.029112738 0.08352985 0.05474003 0.06468895 -0.08346549
0.07415765 0.033754565 -0.0138852 0.021560555 0.03835626 -0.0392753 0.062424675 -0.07392184
0.008949702 0.07740223 -0.028556377 -0.051755928 0.046557486 0.045680963 -0.07857863 -0.018066103
0.05973673 0.07359765 0.007753025 0.032709893 -0.042222504 0.065313146 -0.077115595 -0.06557068
-0.047921408 0.030967832 -0.030724775 0.046662457 0.071322545 0.042414974 -0.039207667 0.08290713
-0.0101567395 0.046583485 0.080657676 0.06858354 0.024927242 -0.021032568 -0.028470032 -0.0637443
-0.05992824 -0.07973726 0.042520188 0.047362395 0.015337362 -0.0618088 0.008154727 -0.07059964
0.07648428 -0.034219284 -0.012590973 0.028180394 -0.038761087 -0.033287596 0.060992096 -0.016067121
0.03621164 0.055157762 0.044322684 -0.035440493 -0.033095833 0.07652354 0.08496068 -0.06484042
00000000: 3fa7 8f3d ae8f 643d e26d 46bb 51fb a83d
00000010: 6a35 1abc e1c3 95bd 1625 9a3d e4ef f5bb
00000020: ee03 a6bd 0ad3 b2bd 648c 58bd ed16 373d
00000030: c3bc fdbc 0123 a9bd 22f8 17bd 2d2c 5cbd
00000040: 760e 68bd 78e9 92bd 781f 89bd fb92 42bd
00000050: 2c26 313d 4041 113d f564 92bd 9f7d 823c
00000060: 7cc2 5f3d fdf0 a9bd a143 4fbc 1b45 a33c
00000070: 1295 a9bd 39c8 7f3c e4ed 8fbd 0666 b83c
00000080: eb51 f53c b287 b03d 9047 a23d 1cee 15bd
00000090: 332b 4bbd cb0e 343d 4bec 75bd 19cc 4ebb
000000a0: 71de e13c 1863 f53a f143 7cbd 0ac2 c4ba
000000b0: 48a5 25bd 4416 dbbc 1f8d 1d3d 010b 86bd
000000c0: 98f6 27bc 1f96 06bc a171 b9bb b9b5 bb3d
000000d0: c283 31bd 29be 0bbd 4aac 783d acd1 8cbd
000000e0: e4e2 91bb a2f3 9cbd c0d2 4c3d 7a4e fb3c
000000f0: 619d fb3b a330 de3c fa8f b83d 593f fd3c
00000100: 1867 78bd 79fb 9f3d 12da 00bd f787 56bd
00000110: 5c9c 95bd 74c7 44bc 53b2 aa3d e4ef 6fbd
00000120: 1dc5 00bb c0d7 8c3d 2a48 a4bc 483f 46bd
00000130: 5e11 963b f7ef 733c de6f 37bd 588f d9bc
00000140: 444d faba 308c 6c3c 78de 793d 2097 cb3b
00000150: 0099 aabd 0bb1 60bd c6e6 653d 9120 363d
00000160: 3266 73bd dab8 783d 763c 583d a017 45bd
00000170: cae3 94bd 0f9b 0a3d 5ce4 5e3c 3eca 9d3c
00000180: 2140 dd3b 7a5d 163d e6e3 9dbd 96c7 c43c
00000190: 5e0f 933c 7094 f33b d7b9 c63c 69b0 adbd
000001a0: 22ed 5b3d aa90 f4bb 619e ebbb db6a 5bbd
000001b0: 1788 9f3a 7fe8 05bc 3700 a1bd dece 343d
000001c0: 1b4e c93c 6a92 a93d 39ca c63c 0f4f 6a3d
000001d0: 310c 973d 831b 563d 99a9 8cba 2738 823d
000001e0: 9c69 b1bd 3072 ea3c 696b 5bbd e485 3abc
000001f0: 8ddf b63d c9f1 9bbd 0945 853d acf7 a4bd
00000200: 6a70 23bd 7666 9fbd 31b6 ae3d 860c 923d
00000210: 7adc aebd 5e69 76bd 0983 9b3d a603 a9bc
00000220: d44a 913d 4126 023c 790c 99bd 964a 4abd
00000230: c2f3 7abd f934 733d 51dd e5bc 4aa5 033d
00000240: a51a 4b3d c23d a9bc 0d2d d0bc 27ab a6bd
00000250: 3079 90bc a06b 8ebd 754a edbc f71d c13c
00000260: 49a1 5ebd 1b7b a1bd 9e58 79bd 10fe 62bc
00000270: d321 ef3b c9aa 98bd 8cdc 6f3d 7fd6 b93d
00000280: 9fae 8dbd 7fe9 22bd 35bb acbd 2b2a a23d
00000290: 24d4 0cbc 422c 6abd 5d8e 8cbd f55c e83a
000002a0: 2a77 4c3c f9d3 88bd 828d ae3d e984 333d
000002b0: dff7 f13b 0b87 8dbd 9c7c 813d 3671 3cbd
000002c0: 6723 313d f803 c53c 5bd9 b9bc e8f5 623d
000002d0: b0ef 593d 7cfe cabc 0c0b ba3d f0bd 65bd
000002e0: f011 993c 6118 aabd 0368 323c d67d eebc
000002f0: b311 ab3d 1537 603d a47b 843d f4ef aabd
00000300: f7df 973d 3a42 0a3d c07e 63bc c39f b03c
00000310: 741b 1d3d 23df 20bd 04b1 7f3d 5564 97bd
00000320: c5a1 123c 0f85 9e3d 10ef e9bc 06fe 53bd
00000330: 10b3 3e3d f61b 3b3d d5ed a0bd 5dff 93bc
00000340: 80ae 743d 5dba 963d 160d fe3b cffa 053d
00000350: 81f1 2cbd e6c2 853d c8ee 9dbd ec49 86bd
00000360: 3d49 44bd 40b0 fd3c 86b2 fbbc 2221 3f3d
00000370: 8e11 923d 53bb 2d3d 3898 20bd 37cb a93d
00000380: 7468 26bc 53ce 3e3d da2f a53d 8775 8c3d
00000390: 3734 cc3c 7e4c acbc fc39 e9bc 5f8c 82bd
000003a0: 5077 75bd 4a4d a3bd a629 2e3d 12ff 413d
000003b0: 8f49 7b3c 392b 7dbd 679b 053c 8b96 90bd
000003c0: caa3 9c3d 8529 0cbd 5e4a 4ebc 92da e63c
000003d0: f2c3 1ebd 9358 08bd d9d2 793d 329f 83bc
000003e0: a852 143d 1bed 613d b48b 353d 0d2a 11bd
000003f0: 7f8f 07bd 60b8 9c3d ddff ad3d 0ecb 84bd

actor.6.bias f4 [8]
0.08608966 -0.05132252 0.00902893 0.03561624 0.062042825 0.04162293 -0.057567157 -0.04662
00000000: c74f b03d 9037 52bd 14ee 133c 56e2 113d
00000010: 9e20 7e3d ce7c 2a3d 8acb 6bbd 9df4 3ebd

critic.0.weight f4 [128, 31]
0.14561887 0.16010365 -0.14645793 -0.016268836 -0.023738256 0.024027187 0.121864766 0.077818386
0.039660588 0.053858954 0.13649622 0.18082222 -0.12946144 0.10112763 0.11618679 0.009774527
0.098619044 -0.13201967 0.030258304 -0.16440998 0.09799465 0.094920434 0.11463442 0.09782289
0.16189839 0.059854515 0.07857841 0.07485736 -0.038487025 -0.1099249 -0.09213623 0.08934974
0.14351527 0.13462438 -0.007683403 0.08538363 0.068899125 0.08436344 0.007633509 0.06714863
-0.0066815363 -0.18255253 0.04000085 0.16238542 -0.12522994 -0.04965989 -0.13252185 0.054043714
-0.17688926 -0.15979409 -0.12704295 -0.097463526 0.10540415 0.05754035 0.11058734 -0.031759758
0.12043593 0.17182359 -0.10894791 0.05022238 -0.07899335 0.08210443 -0.04073353 -0.0077949464
0.021095876 0.16157505 0.13787508 0.07820883 0.17031787 -0.14139089 0.05671445 -0.17818898
-0.08926922 -0.15223297 0.14293809 0.12107641 0.05589871 -0.0134868985 0.02000828 0.09509851
0.087325074 0.10884445 -0.10447916 0.15381877 0.16875976 0.062987 0.16741568 0.055195443
-0.03911794 0.064392686 0.089612626 -0.1759152 -0.0367367 0.10433386 0.03720695 0.051482856
0.09284544 -0.12221916 -0.10562105 0.11668544 -0.027576534 0.10685136 -0.0019297617 -0.10926807
-0.053870514 -0.15765285 0.050228316 0.12789175 0.029296331 0.076942205 0.10377206 -0.13426071
0.1323691 0.10971473 -0.056713652 0.16036806 0.17103688 -0.041435227 -0.10491859 -0.12456647
0.0023393268 0.06295476 -0.008725431 -0.051663682 0.035766885 0.091193564 0.15837076 0.00518937
0.1028484 0.12645666 0.1227319 -0.053156983 0.10134214 -0.06561452 0.1431766 0.048909947
-0.0085567245 -0.10334919 0.1291028 0.14376353 0.06452249 -0.14269672 -0.03168822 0.090052515
0.14003426 -0.11955438 -0.0947473 0.12318422 -0.042679027 -0.008051634 0.17166616 0.10254807
-0.0682422 -0.0043216017 0.016264541 -0.09427664 -0.09657963 -0.10641946 -0.087094456 -0.15199412
-0.061808955 0.11595729 -0.060652908 0.004317471 0.15916316 0.13921106 0.16014586 0.08748137
0.068546854 -0.044596706 0.091154516 -0.036641285 0.11766868 -0.018943548 0.06930729 0.040568586
-0.07706532 0.014580548 -0.07329646 -0.08397948 -0.07199137 -0.17443392 0.17767745 -0.073101625
-0.13146918 0.086638354 0.008711778 0.0037987302 -0.14133678 -0.03988284 -0.08036451 -0.051598776
0.022115428 0.11052952 0.09491394 0.09553623 0.15136829 0.15881811 -0.11007875 -0.1373011
0.13455603 0.09591593 -0.077839926 -0.009336588 0.17213342 -0.11131298 -0.05941532 0.017204285
-0.15571585 0.067489214 -0.15560469 -0.12142738 -0.13928317 -0.010679168 -0.100070946 -0.1356464
0.08352182 -0.086226925 -0.16654138 -0.085189305 0.056717955 -0.14188041 0.059565485 0.08938086
0.17476356 -0.116950706 -0.0121736275 0.16667545 0.14015222 0.060771033 -0.14797299 -0.041165616
0.07880647 0.121335894 0.098224595 -0.07738148 0.046943545 -0.16898838 -0.0201589 -0.032386813
-0.04282242 0.11688946 -0.025212988 -0.1728544 0.10280416 0.15730281 0.12813783 -0.09157034
-0.14422055 0.03517939 -0.1355645 -0.07322179 0.0007764518 0.1300876 0.16296373 0.17228542
00000000: 1d1d 153e 36f2 233e 11f9 15be 3946 85bc
00000010: bb76 c2bc aad4 c43c 3c94 f93d 3f5f 9f3d
00000020: 2473 223d 359b 5c3d aac5 0b3e 7629 393e
00000030: 8a91 04be 011c cf3d 57f3 ed3d 5625 203c
00000040: c8f8 c93d 2a30 07be 43e0 f73c 175b 28be
00000050: 6bb1 c83d a565 c23d 73c5 ea3d 5e57 c83d
00000060: b1c8 253e 022a 753d b8ed a03d d14e 993d
00000070: 92a4 1dbd 4e20 e1bd ebb1 bcbd fffc b63d
00000080: abf5 123e f9da 093e 0ec5 fbbb 9ddd ae3d
00000090: fc1a 8d3d bdc6 ac3d 8422 fa3b 3985 893d
000000a0: caf0 dabb 0def 3abe eed7 233d 5d48 263e
000000b0: 473c 00be 2b68 4bbd cfb3 07be f15c 5d3d
000000c0: 7522 35be 10a1 23be 8c17 02be f59a c7bd
000000d0: 22de d73d 6eaf 6b3d 9e7b e23d 8516 02bd
000000e0: 1da7 f63d 86f2 2f3e 1520 dfbd fbb5 4d3d
000000f0: 44c7 a1bd 5e26 a83d 34d8 26bd c06c ffbb
00000100: 42d1 ac3c ee73 253e 202f 0d3e f32b a03d
00000110: cf67 2e3e c6c8 10be 694d 683d 2c77 36be
00000120: c8d2 b6bd f6e2 1bbe 5d5e 123e e9f6 f73d
00000130: 0cf6 643d 27f8 5cbc 68e8 a33c 02c3 c23d
00000140: 7dd7 b23d d7e9 de3d 2bf9 d5bd ab82 1d3e
00000150: 5ccf 2c3e 54ff 803d 046f 2b3e 9e14 623d
00000160: 223a 20bd 50e0 833d d386 b73d 1d23 34be
00000170: 3979 16bd feac d53d 5166 183d b0df 523d
00000180: c025 be3d 0a4e fabd d94f d8bd c7f8 ee3d
00000190: 2fe8 e1bc e3d4 da3d 0ff0 fcba f0c7 dfbd
000001a0: 54a7 5cbd c06f 21be 35bc 4d3d 0ef6 023e
000001b0: dcfe ef3c e093 9d3d 7286 d43d a47b 09be
000001c0: c48b 073e 1eb2 e03d 934c 68bd 8637 243e
000001d0: 4b24 2f3e fcb7 29bd 8fdf d6bd b51c ffbd
000001e0: 644f 193b 6dee 803d 1cf5 0ebc 4c9d 53bd
000001f0: 4c80 123d b1c3 ba3d f22b 223e 970b aa3b
00000200: 2fa2 d23d db7d 013e dd5a fb3d 23bb 59bd
00000210: 788c cf3d e860 86bd e39c 123e cc55 483d
00000220: 8131 0cbc bda8 d3bd 8633 043e bf36 133e
00000230: 5e24 843d 171f 12be 82cb 01bd 746d b83d
00000240: 2465 0f3e edd8 f4bd df0a c2bd 0248 fc3d
00000250: 34d0 2ebd 00eb 03bc 41c9 2f3e b904 d23d
00000260: 91c2 8bbd 399c 8dbb 373d 853c 1c14 c1bd
00000270: 8bcb c5bd 72f2 d9bd 945e b2bd 59a4 1bbe
00000280: 632b 7dbd 047b ed3d 2f6f 78bd 9279 8d3b
00000290: abfb 223e 588d 0e3e 47fd 233e 6f29 b33d
000002a0: 4b62 8c3d 09ab 36bd 38af ba3d 2c15 16bd
000002b0: 47fc f03d 802f 9bbc fbf0 8d3d 3f2b 263d
000002c0: 6cd4 9dbd 40e3 6e3c 741c 96bd 6ffd abbd
000002d0: 3670 93bd ce9e 32be 14f1 353e 4eb6 95bd
000002e0: db9f 06be 736f b13d d8bb 0e3c 1ef4 783b
000002f0: 97ba 10be 305c 23bd 2696 a4bd 3d59 53bd
00000300: 6a2b b53c 4d5d e23d 3d62 c23d 80a8 c33d
00000310: 4a00 1b3e 37a1 223e f870 e1bd a998 0cbe
00000320: 0ec9 093e 926f c43d 8a6a 9fbd 7df8 18bc
00000330: be43 303e 0ff8 e3bd 7b5d 73bd 00f0 8c3c
00000340: fa73 1fbe c937 8a3d d656 1fbe ebae f8bd
00000350: 3fa0 0ebe adf7 2ebc fff1 ccbd e4e6 0abe
00000360: 7d0d ab3d be97 b0bd d389 2abe bb77 aebd
00000370: 1651 683d 1949 11be f0fa 733d 500d b73d
00000380: 38f5 323e da83 efbd e573 47bc f8ac 2a3e
00000390: 1084 0f3e 0ceb 783d 3b86 17be 479d 28bd
000003a0: 4965 a13d f47e f83d fa29 c93d 2e7a 9ebd
000003b0: e047 403d 4a0b 2dbe 4724 a5bc 09a8 04bd
000003c0: 9066 2fbd be63 ef3d 788b cebc be00 31be
000003d0: fd8a d23d fd13 213e 9036 033e 3b89 bbbd
000003e0: 8dae 13be 4418 103d 6cd1 0abe 4ef5 95bd
000003f0: cc8a 4b3a af35 053e f7df 263e 976b 303e

critic.0.bias f4 [128]
-0.12171206 -0.044713352 0.17530638 0.11350411 -0.0016270108 -0.10970439 0.118541025 0.031152923
0.0716992 -0.09146676 0.045372494 -0.18319377 -0.08746773 -0.06487587 0.075294845 -0.07317052
-0.16809233 -0.1571231 0.11342571 0.04447143 0.15606718 -0.022623777 -0.11530396 -0.12109969
0.01388546 -0.062426683 0.030434368 -0.1167363 -0.16874 0.008116786 0.16384715 -0.042042807
0.008429401 0.12619841 0.15579651 -0.16116802 -0.17319441 0.026542626 -0.09270746 -0.114864096
-0.048258495 0.07725385 -0.039416227 -0.09610379 0.13785632 0.06648356 0.071042284 -0.07366984
-0.17263535 0.07808626 -0.030631835 -0.17345169 -0.13665265 -0.10492226 -0.13304612 -0.10246193
0.047296036 -0.086894356 -0.047478724 -0.020131607 0.028900672 -0.035749786 -0.059339613 -0.029855551
-0.039245874 -0.12454882 0.048416045 -0.01438856 -0.13266437 0.13339312 -0.082316324 0.13086788
0.017912438 0.100420944 0.08119636 -0.08605092 0.15432183 -0.025010452 0.053746402 0.07008469
0.048951827 -0.04687048 0.013840046 0.08524242 -0.13339832 0.00955405 0.04929677 0.038777176
0.10897394 0.1475249 -0.08752016 0.08520773 -0.091403715 -0.0064245816 -0.116259925 0.14528897
-0.04301643 -0.11349779 0.14260562 0.13609573 0.15824819 -0.04647604 0.03970889 -0.013996111
0.026589843 -0.14104047 0.14787316 -0.0857903 0.09234652 -0.16111466 -0.13412404 0.09976907
0.0051814946 0.11385029 0.03520768 0.10795941 0.0071594 0.1635215 -0.11588548 0.074561045
0.09322606 0.061271075 0.121261336 -0.07227339 0.12497735 -0.16510616 0.09508183 0.02510353
00000000: 2c44 f9bd 5925 37bd 8483 333e d874 e83d
00000010: 6c41 d5ba b2ac e0bd a3c5 f23d 6a34 ff3c
00000020: 08d7 923d ed52 bbbd 82d8 393d 2697 3bbe
00000030: 4822 b3bd a4dd 84bd 2f34 9a3d 6dda 95bd
00000040: 6520 2cbe e1e4 20be bd4b e83d ad27 363d
00000050: 13d0 1f3e 8055 b9bc 7c24 ecbd 1d03 f8bd
00000060: d77f 633c 1fb3 7fbd 7f51 f93c 7113 efbd
00000070: 2eca 2cbe 45fc 043c 8cc7 273e 1435 2cbd
00000080: 781b 0a3c 283a 013e 1f89 1f3e 3b09 25be
00000090: e059 31be ec6f d93c 69dd bdbd de3d ebbd
000000a0: b3aa 45bd 4437 9e3d e972 21bd 10d2 c4bd
000000b0: 352a 0d3e 8828 883d 9e7e 913d 37e0 96bd
000000c0: 52c7 30be b0eb 9f3d 9def fabc 529d 31be
000000d0: acee 0bbe 7be1 d6bd 3e3d 08be 8fd7 d1bd
000000e0: 7db9 413d abf5 b1bd 0d79 42bd 0aeb a4bc
000000f0: 1ac1 ec3c 5e6e 12bd 180e 73bd a193 f4bc
00000100: 48c0 20bd 7413 ffbd e74f 463d ffbd 6bbc
00000110: 2bd9 07be 3598 083e 7695 a8bd 3b02 063e
00000120: 1bbd 923c 7fa9 cd3d 474a a63d 773b b0bd
00000130: 8b06 1e3e b8e2 ccbc 3025 5c3d 9088 8f3d
00000140: b681 483d 43fb 3fbd 5cc1 623c 9493 ae3d
00000150: 9299 08be 9788 1c3c 69eb 493d d1d4 1e3d
00000160: bb2d df3d c410 173e c53d b3bd 6481 ae3d
00000170: df31 bbbd 4c85 d2bb af19 eebd a2c6 143e
00000180: ff31 30bd 8871 e8bd 3507 123e ae5c 0b3e
00000190: d00b 223e a95d 3ebd caa5 223d f24f 65bc
000001a0: f1d2 d93c ea6c 10be 106c 173e d3b2 afbd
000001b0: 2c20 bd3d 3efb 24be d057 09be ba53 cc3d
000001c0: 87c9 a93b 572a e93d ee35 103d d319 dd3d
000001d0: 6699 ea3b 2e72 273e 5e55 edbd 76b3 983d
000001e0: 4eed be3d 61f7 7a3d dd57 f83d 1204 94bd
000001f0: 20f4 ff3d 9711 29be 43ba c23d eba5 cd3c
