ISAAC_NOGIT/logs/rsl_rl/traquad_flat/2025-09-12_18-12-28/model_0.pt (torch, 924887 bytes, 48 tensors)

std f4 [8]
00000000: 4e9d 7d3f 378e 7f3f 29bc 7e3f f8e9 7f3f
00000010: 67b3 7f3f 7c49 803f 9dae 803f 95a4 7f3f
0.9906815 0.9982638 0.9950586 0.99966383 0.9988312 1.0022426 1.0053288 0.9986051

actor.0.weight f4 [128, 31]
00000000: 6182 c5bb f558 cf3d 92b3 7f3d 59ba 203e
00000010: 92a0 cd3d 4095 52bd 6bbb 0bbd 88aa 713c
00000020: 81d5 82bd 83c9 f63d 8027 ed3d 90a2 16be
00000030: 3b74 b63b 7efd 863d 22f3 0cbd 2ade 983d
00000040: 7bfd 9b3d 78cc d53d 2781 f73d 8987 003e
00000050: dbd9 f43c 7f9e 1dbe 1c95 32be 2a2a 15bd
00000060: 0c7c 193e 7d1e 28bd 5626 1e3e d60d 763d
00000070: e2c1 063e f542 03be a17b 29be 9d92 d8bd
00000080: 65bc 38bd 620e 63bd d814 85bd 4c9e d0bd
00000090: edf1 803d 21c5 20bd 8d66 86bd f186 f93d
000000a0: 349a 743d 3eac b93d 4d0d 1d3c e0ae 55bd
000000b0: 5fba 0a3e 2ceb 6e3d 6939 2fbd 834f ee3c
000000c0: 5bad fcbc 48f5 62bd 971d 67bd b628 583d
000000d0: 2f45 96bc 7f9c 343e 4cee a13d f380 bb3b
000000e0: 5738 e83d c04b b4bc 0758 0bbe a2d6 1fbe
000000f0: 0de7 c13d e32f d0bd 8e8c 343e adf5 f53d
00000100: 1836 23bc a9b9 8fbc 3f8d 26bc d911 37be
00000110: 61c9 3b3e f672 18bd 74dc 29be d204 bb3d
00000120: 1832 29be 3c0a f93d b80e 013c a0d3 3fbe
00000130: 65ae 523c db04 6fbc e9a1 83ba af48 f63d
00000140: 02ce 16bd 5d63 1c3d d53d 0c3e 3e22 113e
00000150: 3b70 13be 7c0e 39bd 8fcf 96bd 9e1c 20be
00000160: 5fcf 92bd 6814 f33d 4730 78bb eb63 08be
00000170: 6c76 2c3e aa5c 4fbd 56fc 01bd a2ef 223e
00000180: cfff aa3d 196c 12be e468 9c3a 59cb c5bc
00000190: fca8 ea3d ba4b b73d 9801 713c b62f 753c
000001a0: eab9 01be 7cf3 58bb 5b4d 103e c609 8e3d
000001b0: d1d6 263e c578 d13d 7b6c 8a3d 2eb5 c33d
000001c0: 55fd b63d 96c4 0c3e d292 14be c9af dd3d
000001d0: d31e 033e cef4 b8bd b68b 0e3d 09d5 2c3d
000001e0: b5fe f33d f8a1 89bc 2334 363e dfc8 fcbd
000001f0: f89e 403d db8f 8dbd 35b8 1fbe 2f07 f8bd
00000200: 6764 ec3d e84f 24be 6c19 c6bd 720b 3a3e
00000210: 6eec f8bd 6639 913d fd5c 0fbe 865e d83d
00000220: 5a13 0b3e b2f5 cfbd aa87 5c3c 7ccb f93d
00000230: 72d5 313e e418 12be 2cbf 47bd b51b 813d
00000240: 40ec e03d 7e52 c8bc fe7b 3abd 586d 80bd
00000250: a4bb 43bc c708 083e 4e67 8cbc 9391 2f3e
00000260: 67eb 1b3e 6aea 07be 1fb7 113e 18f5 09bc
00000270: ba94 78bc a8ec e73a b068 59bd a473 bf3c
00000280: 1a5b d33d b96e 473d 37b0 1bbe 1adf e7bd
00000290: c617 c6bd 4a66 35bd 76b6 b63d 9060 0d3e
000002a0: 3e54 5c3d 89d5 a43d 205a 6cbd 219f 66bd
000002b0: 0d37 d73d 7cd0 443d 088a 113e 3972 0f3e
000002c0: 2653 20be 324f 1f3c 4d6c 03bd aca0 21be
000002d0: 93e6 24bc 03db c43c 6f75 33be 08c1 563c
000002e0: 3c2a df3d 7ff2 cabd 5d9a 91bd 4929 96bd
000002f0: 9459 dcbc 12ca fa3d ecd7 1e3e 66bf 2ebe
00000300: 4357 ce3d 5f6e f2bb a38e ec3d bfb5 8f3a
00000310: 82e0 123e 134b babd 09ab 06be 8bbd 0c3e
00000320: ea3a ebbd cfff 223d 6f6a 3abc daca 95bd
00000330: 8e1d 5a3d e44c d93c 115a 4ebc 28e3 29bd
00000340: eb38 063d 8cc5 f6bd 2bc6 89bb c19e 85bd
00000350: eff2 df3c cd88 01be a900 173c f42d b13d
00000360: 38fa 1fbe 20e2 393e 04d8 f0bd f976 193d
00000370: b3ed 293c cf35 02be f3a0 c8bd 8bf1 8f3d
00000380: b16a d63d 95a0 bbbd dded cbbd f6e0 773d
00000390: 6d99 0ebd d5e7 473d 9eb7 15be f8ee 2b3c
000003a0: 8619 5a3d e9da a3bc d786 1f3e c162 023e
000003b0: 1e5f b2bc f83f d8bc 6285 d1bd 7cc4 1bbe
000003c0: 982b 83bd 3f3d 06be e573 ce3d 301b f13d
000003d0: a936 2e3e f8a1 173c 32b2 17be a98e 2e3e
000003e0: d2a7 05be b837 bd3c 05f8 153e 39e0 8fbd
000003f0: 0917 613d a38c 5ebd d4ff 90bd 1197 883d
-0.0060275053 0.10124389 0.06242711 0.15696086 0.10040392 -0.051411867 -0.034114283 0.0147501305
-0.06388379 0.12050154 0.115798 -0.1471045 0.005568055 0.065913185 -0.034411557 0.074642494
0.07616707 0.1043939 0.12085181 0.12551703 0.029889038 -0.15392493 -0.17439693 -0.036417164
0.14988726 -0.0410447 0.15444311 0.06007179 0.13159898 -0.12818511 -0.16551067 -0.10574839
-0.045101542 -0.05543364 -0.06498116 -0.10186443 0.06296144 -0.039250497 -0.06562529 0.12183941
0.059717372 0.09066056 0.009585691 -0.052168727 0.13547657 0.058329746 -0.04277936 0.029090649
-0.030844381 -0.0554097 -0.056424703 0.0527732 -0.018343536 0.17637824 0.0790678 0.005722159
0.11338871 -0.022008777 -0.13607799 -0.1560922 0.094678976 -0.10165384 0.17631742 0.120097496
-0.009961627 -0.017544584 -0.010165512 -0.17877902 0.18338539 -0.03721901 -0.16588002 0.09131779
-0.16523015 0.12160155 0.007877044 -0.18733072 0.012858962 -0.01458856 -0.001004276 0.12025582
-0.036817558 0.038180698 0.13695462 0.14173219 -0.14398281 -0.04517983 -0.073638074 -0.15635917
-0.07168459 0.118691266 -0.0037870572 -0.13319366 0.1684205 -0.05062548 -0.031734787 0.15911725
0.08349573 -0.14299048 0.0011933115 -0.024144815 0.114580125 0.089499906 0.014709853 0.014964988
-0.12668577 -0.0033104112 0.14092009 0.06935458 0.16292883 0.10228113 0.06758972 0.09556042
0.08935038 0.13746867 -0.14509133 0.10824544 0.12804727 -0.09031068 0.034801207 0.042195354
0.11913816 -0.016800866 0.17793326 -0.123430006 0.047026604 -0.06912204 -0.15597613 -0.12110745
0.11542588 -0.16046107 -0.096728176 0.18168429 -0.121544704 0.07091026 -0.14000316 0.10564904
0.13581601 -0.101542845 0.013460079 0.12197015 0.17366579 -0.14267308 -0.0487663 0.06304113
0.10982561 -0.024453398 -0.045528404 -0.06270856 -0.0119465925 0.13284598 -0.017139103 0.17145376
0.15226518 -0.13273016 0.14230011 -0.008420251 -0.015172178 0.001769443 -0.053078353 0.023370571
0.103201106 0.048689578 -0.1520394 -0.1132185 -0.09672503 -0.044287004 0.089215204 0.13806367
0.053791277 0.08048541 -0.057703137 -0.0563041 0.10508547 0.04805039 0.14212811 0.14008416
-0.15656719 0.0097234715 -0.032085706 -0.15783948 -0.010064739 0.024030214 -0.17525266 0.013107546
0.108967274 -0.09909534 -0.071095206 -0.07332093 -0.026898183 0.12245573 0.15512055 -0.170652
0.100752376 -0.007398411 0.11550643 0.0010964199 0.14343455 -0.090963505 -0.13151182 0.1374418
-0.11485846 0.03979474 -0.011377915 -0.073140815 0.05325084 0.026525922 -0.012594716 -0.0414764
0.032769125 -0.12049398 -0.0042045317 -0.065244205 0.02733752 -0.12649842 0.009216466 0.08651343
-0.15622795 0.18152666 -0.11759952 0.037466977 0.010371613 -0.12715839 -0.097963236 0.070284925
0.104695685 -0.09161488 -0.09957478 0.060517274 -0.034814287 0.048805077 -0.14620826 0.010493986
0.053246997 -0.020001845 0.15578781 0.12732984 -0.021773871 -0.02639769 -0.10230519 -0.15211672
-0.06404799 -0.13109301 0.10080699 0.11772764 0.17013039 0.009254925 -0.1481407 0.17046608
-0.130523 0.023097858 0.14645393 -0.07025189 0.05495361 -0.05433334 -0.07080045 0.06669439

actor.0.bias f4 [128]
00000000: 5f22 9c3d 15fa a2bd 0f0f 333d 6e4e 8cbd
00000010: 1c7a 993d d7c4 533a b49b 1fbd f05d e2ba
00000020: 7e57 09be fa02 2a3e e8de 34be cad9 683c
00000030: aa49 09be 7dbf 083e 7153 ddbd b9dc 013e
00000040: 7f9d ae3d 1918 debd 5005 7dbd 82a1 1e3d
00000050: 5530 253e d495 533d 7b05 9a3c a7bd c63d
00000060: 699d 333e 0d11 7ebd b5e6 e03b 5883 963c
00000070: a13a b0bd 3366 303d 4099 7dbc 09fb a4bd
00000080: 79f4 24be 8cb9 7e3d e692 7ebd e91c 0a3e
00000090: ef62 c13d 0dc5 a0bd 07e2 0e3e 837c 163e
000000a0: 8ae7 2c3e 1d57 37be 6cba f5bd 425b fcbc
000000b0: 70a7 5e3d dd59 ad3d 8228 b93d 93d5 8c3d
000000c0: 5db4 7ebb 6d6b b8bd ce2f d93c e574 afbd
000000d0: f1ee 9c3c 8c18 c13d 27d5 31bd 5c91 083d
000000e0: a201 0d3d 14b2 a23d fe9d adbd 32d8 253d
000000f0: d6b0 67bd a140 b8bd 643f 6ebd fed1 da3d
00000100: 4319 31be c8de 0cbe 2a1d 53bd 5734 3abd
00000110: 502e 0d3e 81d7 353d c46e 37be 493c be3d
00000120: 1b4f 023e 999b a5bd e653 0cbe 2786 d6bc
00000130: 456c 213d cde0 f4bd dc0a 9bbd 3d10 d03d
00000140: 08e8 9fbd 5c6e 39be 1f86 2cbe 2829 f83d
00000150: f0a6 95ba 7533 e0bd 4fc5 6b3d 9f2f 92bd
00000160: f7c8 4a3d b325 01be 4274 3cbd 2ac8 abbd
00000170: a1a8 1f3e bcfd 33be 1720 2abd f645 9e3c
00000180: 3a30 dd3b eed4 143e 80ac 2b3e 0141 62bd
00000190: e175 153e 62da ef3d 4a8e 383e 8642 34be
000001a0: 3101 da3d df9f debc 6eea 35be 7b84 cc3d
000001b0: f193 17be 7d62 183e e8a0 18be 260c 913c
000001c0: 87ab 81bc 69ca f13c 2512 04bd eff8 2f3e
000001d0: e385 6bbd 4b61 f03d a822 06be 55f6 77bc
000001e0: 4b17 243e 3821 303c cc1b 42bd e55e 953b
000001f0: 5d04 433d 557d 933d c79c 8e3d b9e0 283d
0.07623743 -0.079578556 0.043715533 -0.06850897 0.07493994 0.00080783427 -0.03896685 -0.0017270427
-0.13412282 0.16602698 -0.17663157 0.014212081 -0.13407007 0.13354297 -0.10806931 0.12681855
0.08526134 -0.1084444 -0.061772645 0.038728245 0.16131718 0.05165656 0.018801441 0.09704142
0.17540516 -0.06202798 0.00686344 0.018373176 -0.086049326 0.043066215 -0.015478432 -0.08055694
-0.16108884 0.06218867 -0.062151812 0.13487591 0.09442698 -0.078500845 0.1395341 0.14695935
0.168852 -0.17904325 -0.11998448 -0.030805234 0.0543589 0.08464406 0.090409294 0.068766735
-0.003886483 -0.09004865 0.026512053 -0.08567218 0.019156905 0.0942851 -0.04341617 0.03334175
0.034425385 0.07944122 -0.084774 0.040489383 -0.05656513 -0.08996702 -0.058165923 0.10684584
-0.17294793 -0.1375686 -0.051541485 -0.04546007 0.13787198 0.044394974 -0.17913347 0.09288842
0.12725489 -0.080863185 -0.1370388 -0.026187016 0.039409894 -0.1195694 -0.07570431 0.10159347
-0.07807928 -0.18108505 -0.16848038 0.12117225 -0.0011417549 -0.10947315 0.057561215 -0.07137989
0.04950806 -0.12612037 -0.04600931 -0.08387788 0.1559167 -0.1757726 -0.04153451 0.01932047
0.006750134 0.14534351 0.16765022 -0.055237774 0.14595748 0.11711575 0.18023029 -0.17603502
0.106447585 -0.027175842 -0.17765209 0.09986206 -0.14802529 0.1488132 -0.14905131 0.017705988
-0.01582886 0.029515462 -0.032243866 0.17184804 -0.05750073 0.11737307 -0.13099158 -0.015134414
0.1602451 0.0107501075 -0.04738979 0.0045584315 0.047611583 0.072016396 0.06963497 0.041229937

actor.2.weight f4 [128, 128]
00000000: b2f3 7cbd 59d9 b0bd 593a d43c fe78 bdbc
00000010: bbef 4e3d 1e7b adbd 7551 48bd 3209 603d
00000020: e5fd c23c dd54 973d 806b 48bd c3b3 a43b
00000030: 2eee 0b3d da73 2d3d dba3 a53d 7eff 60bd
00000040: ae4e b43d 9c21 9dbd 950c b63c 1cb4 7f3d
00000050: 99b9 113d 6d99 09bc 44c7 413d 33cf d93c
00000060: 78c2 123d 0d23 e4bb 192b 0c3d 048c 623b
00000070: edfd 1dbd 7526 643d a15e 4f3c 09bd ee3c
00000080: b379 4abd 7a18 183c 489a a33d 8743 3bbd
00000090: 656a 2d3d 5fbd 92bd 797f 5cbd 7963 3abd
000000a0: 1dc9 a43d 65e5 2dbc c594 613d 6bdd 8b3d
000000b0: 19f2 8e3d 09f3 973d 0def e8bb 66e1 ab3d
000000c0: ba8c 9d3b 97ea 8a3c 651a 89bd 51cf c5bb
000000d0: 1d07 a53d e969 d6bc 52b2 4b3c f662 313d
000000e0: b035 8b3d 0c7b 8dbc 8c6a 2b3d a9f9 f7bc
000000f0: 55a4 60bd 3485 aa3d 4127 e23c b66a 51bc
00000100: 5007 9dbd 350c 823d c437 a5bb d99d 20bd
00000110: 28d9 c9ba d390 6ebd 6867 55bd bd16 75bd
00000120: f63c 18bd 6e54 743c 72aa 2f3a 2d99 78bc
00000130: d9fa 4fbd 3c21 95bb 31e9 9dbd 3f7e 713d
00000140: b8af 45bd a6c1 243d 7733 babb 7e91 9d3d
00000150: 7701 b43d 1b1f 843d 61f6 3cbc 4f04 ccba
00000160: 3055 e93b 269e 9cbc 2071 73bd ed2a 403d
00000170: ed9d 673c 6dd2 813d 1073 ea3c 74cb 473d
00000180: 39bb 3ebc baa2 cdbc 2e6c 8abd 060c fabb
00000190: a668 f4bc 134d a0bc 5f83 843d 316f 913c
000001a0: 2f3b afbd 5a86 883d fa2d 9bbc 6014 113d
000001b0: 2b37 f5bc 6bed 58bd 3a56 923d 9c2c b0bd
000001c0: befe 923d f94e 5d3d 2c9c 04bd e5f3 1d3d
000001d0: e006 a03c e8bc 9cbd 9e0e bebc 400a 423d
000001e0: b041 383d 1bd5 23bd 1b06 b9bc 22f9 8a3d
000001f0: f38b a5bd b351 2bbd 9535 b4bd a48c abbd
00000200: bb67 a5bd a29e 18bd ef5a a83d 84c7 9f3d
00000210: 5ca7 af3d 5a75 dd3c aec5 2e3b 2f87 c53c
00000220: d930 ae3d 2f81 823d 14ac 263d b7ff 5ebd
00000230: 4f1d 5cbd 6dd3 823c 2877 9bbd 5d3c d93c
00000240: ac13 abbd 4aef 08bc d45c b3bd fe6a 8f3d
00000250: c6bb ac3d 9a2b acbb 132d e93c 10bb 903c
00000260: d08e 64bc d257 96bd e1c1 603d b663 383a
00000270: f0e5 883d aa89 91bd 8370 94bd a5a6 81bc
00000280: 2910 bc3c 4841 52bd 3c7e b13d dcb7 01bb
00000290: 6e8c c23b 651f a3bd 683d 253d cdf5 8f3d
000002a0: 41fb 573c 9c3a 94bd 4952 713b 7487 b13d
000002b0: dcc9 2a3d 591c 60bd 6236 a83d c771 83bd
000002c0: f151 f2bb 2546 8f3d 101e 2c3d 3453 a0bd
000002d0: 44e1 bfbc a4a4 88bd 5d50 6dbd 948e 68bc
000002e0: 566d ddbc ed3e 133d cf53 15bd 364d 6ebd
000002f0: 3eed 9fbc 1620 353d 36e9 a53d 56e1 a8bd
00000300: 602b 07bd e18d b7bc a4f7 b33d 257b 7d3d
00000310: d990 67bd 0af5 d5bc d5e7 c6bc 2cbb 90bc
00000320: af24 0d3d 939d fcbb ffdd 8abd 9292 1dbc
00000330: b723 163d 4478 b23a b670 413d c4bf 81bd
00000340: 201f 10bd ec29 3cbd f329 043c a606 563d
00000350: 65c3 723c 2c78 1f3d f193 edbc 2158 1cbb
00000360: 6b6c 763b 1a34 093c 25f8 e73c 5493 233d
00000370: e4f9 e63c 7100 65bd e218 753d 3d1d 963d
00000380: 2fa0 9bbd 2891 1ebd 7e78 333d 8be8 8d3d
00000390: 51ba 65bd d892 15bd cc64 a7bd aef8 4abb
000003a0: d4ec b43b 13b3 2e3d 55e1 c9bc 2fd8 3a3d
000003b0: 69d0 76bd da49 9e3d 4d6c a1bd 7082 b2bd
000003c0: 79c5 9e3d 29fd 573d 7a28 823d 2043 83bd
000003d0: 4a54 533d aebc 593d a993 e03c 4101 533d
000003e0: 77b6 723d 9e0b 76bd be79 513d 8842 f6bc
000003f0: ead5 a6bd ae57 b23d 637e 4abd 437f 22bd
-0.061755843 -0.08635206 0.025906729 -0.023128983 0.050521594 -0.08470748 -0.04890581 0.05469627
0.023802707 0.07389233 -0.048930645 0.005026312 0.034162693 0.042346813 0.080878936 -0.054931156
0.088040695 -0.07672426 0.022222796 0.062427625 0.03557739 -0.008398396 0.047309175 0.026588058
0.03582999 -0.006962186 0.03422079 0.003456832 -0.03857224 0.055700738 0.012656839 0.029142873
-0.049432468 0.009283179 0.07988411 -0.045718696 0.042337794 -0.07165026 -0.053832505 -0.04550502
0.08046172 -0.010613774 0.05507352 0.068293415 0.0697977 0.07419402 -0.007108575 0.08392601
0.0048080357 0.016957564 -0.066944875 -0.006036677 0.080579974 -0.026173549 0.012432652 0.043307267
0.067973495 -0.017270587 0.041849658 -0.030270414 -0.05484422 0.08326188 0.027606608 -0.0127817895
-0.076674104 0.063499846 -0.005042048 -0.039213035 -0.0015399801 -0.058243584 -0.05210057 -0.059836138
-0.037167512 0.014912708 0.00067011185 -0.015173239 -0.050776336 -0.004551081 -0.07710493 0.05895829
-0.04826328 0.04022374 -0.0056824046 0.07693766 0.08789342 0.064512454 -0.011533351 -0.0015565249
0.007120751 -0.01911838 -0.059434056 0.046915937 0.0141367735 0.06338964 0.02861932 0.048778012
-0.011641317 -0.025102008 -0.06758915 -0.007630828 -0.029835057 -0.019568002 0.064703695 0.017753216
-0.0855621 0.066662505 -0.018942822 0.03541982 -0.029933533 -0.052960794 0.07145353 -0.086022586
0.071774945 0.054030392 -0.0323755 0.038562674 0.019534528 -0.076532185 -0.02320033 0.047373056
0.04498452 -0.039998155 -0.02258592 0.067857996 -0.08083334 -0.04182596 -0.087992825 -0.083764344
-0.08076426 -0.03726066 0.08220469 0.078017265 0.08576843 0.027033497 0.002666812 0.024112312
0.08505411 0.06372296 0.04069145 -0.054443087 -0.05373889 0.015969956 -0.075910866 0.026518041
-0.083533615 -0.008357832 -0.0875794 0.07002829 0.084342524 -0.005254221 0.028463876 0.017667323
-0.013950065 -0.07340969 0.054872397 0.0007033901 0.06684482 -0.071063355 -0.072480224 -0.015826533
0.022956925 -0.05133179 0.086666554 -0.0019793427 0.0059371507 -0.079649724 0.040341765 0.07029305
0.013182462 -0.07237741 0.0036822727 0.08668414 0.041696414 -0.054714534 0.08213498 -0.06418186
-0.007395022 0.06995801 0.042020857 -0.0782837 -0.023422845 -0.06672028 -0.05793797 -0.0141941495
-0.027029675 0.035948683 -0.03645688 -0.058179103 -0.019522306 0.044220053 0.08101122 -0.082461044
-0.03300035 -0.02240652 0.08787468 0.061885018 -0.056534622 -0.02611782 -0.024280468 -0.017667376
0.034458812 -0.007709214 -0.06780624 -0.009617465 0.036655154 0.0013616164 0.04722663 -0.063354045
-0.035185933 -0.045938417 0.008066642 0.052252434 0.0148170935 0.038932964 -0.029001208 -0.002385624
0.0037601243 0.008374238 0.028316567 0.039935425 0.028195329 -0.055908624 0.059838183 0.073297955
-0.07598912 -0.03871265 0.043816082 0.0692912 -0.05608589 -0.036516994 -0.08173522 -0.0030970979
0.005521396 0.042651247 -0.02464358 0.045616325 -0.06025735 0.0772893 -0.07881985 -0.08716285
0.07752509 0.052731667 0.063553765 -0.064092875 0.051594056 0.053158455 0.02741416 0.051514868
0.059256043 -0.060069673 0.051141493 -0.030061021 -0.081462696 0.0870813 -0.049436938 -0.039672147

actor.2.bias f4 [128]
00000000: 7d4e 7b3d bd1f 91bd c762 55bd 675c 1abd
00000010: d2f2 853c 4c52 57bd b5f8 4bbb 1067 933c
00000020: ed42 62bd a929 293d 714b 0ebd a651 2dbb
00000030: 9f2f 823d 55dc 5c3d 8920 56bd 7347 683c
00000040: eb75 2cba a9d7 0abc 574a 183d 1198 463d
00000050: 46be abbc eaff b0bd 4934 aebd 3c04 c7bb
00000060: 983a 8d3c 55d9 68bd 4fcc c4bc e904 86bd
00000070: d6ed 9f3d 0acf 4cbc 6024 95bb 2c42 b23d
00000080: 870b 33bd 79d5 253c b711 7e3d bf13 c43c
00000090: 5916 fc3c c73e b63c 3cd1 c1bc 1776 26bd
000000a0: 4c86 933c b351 3abd 61b3 923d 970a 453d
000000b0: 273a 813d 4d39 98bd 1050 b13b 0be1 52bd
000000c0: 7e7a 8ebd 9b2e 3cbd d185 ab3d bbe6 31bd
000000d0: dae6 a9bd 6342 a23d beec 863d 4554 46bd
000000e0: 10e9 823d af11 a23c fd65 3a3b 7267 75bd
000000f0: c395 aabd 639d ad3d 81af 533d d9f8 5e3d
00000100: b732 b1bd 7c6e 8fbd dfb9 8f3d d152 9bbd
00000110: d9d2 5f3d 5214 44bd 2b1e 28bd 1015 b93d
00000120: 0722 8a3d 55ef 63bd 3843 ad3d 8c20 b13c
00000130: 2627 e63a 3ec6 ce3b 376b 07bd 0bae 993b
00000140: 8aa0 263d 8c36 863c 5311 bcbc a009 d13c
00000150: 277a 423d b25f bfba da77 91bd d492 00bc
00000160: 8bb1 90bd ee4c 123d fd8f 103d 3bac 293d
00000170: 9049 98bd b711 93bd d4b3 84bc 6cb1 b33c
00000180: e77b 06bc c507 0ebd 2a2f 963d 7993 a03d
00000190: e6ee 653d 8c27 01bd fa41 323d e7f0 83bd
000001a0: d630 543c 49fa b03b f674 36bd c63d 9b3d
000001b0: 0feb 9cbd e0b0 893c 193e 0cbd d851 153c
000001c0: f7d5 2ebd 0b39 a03d 4803 e53c f999 b9bd
000001d0: cc70 853d df6e 4c3d 7293 64bd 8bd9 10bd
000001e0: 1747 1f3d dfb4 a53d 7398 1abd 47b4 a13d
000001f0: 4cb8 5dbd 34d2 053d ee0d 8bbd 502a d5bb
0.06135415 -0.07086132 -0.052096155 -0.037685778 0.016351137 -0.05256872 -0.0031123583 0.01799348
-0.055239607 0.041299496 -0.034739915 -0.0026446371 0.06356739 0.053921062 -0.05227712 0.014177191
-0.00065788504 -0.008474269 0.03718027 0.048484866 -0.020964753 -0.08642562 -0.08506066 -0.006073503
0.017239854 -0.05684789 -0.024023203 -0.06543905 0.078090355 -0.012500534 -0.0045514554 0.087040275
-0.043712165 0.010121697 0.062028613 0.023935197 0.030772375 0.022246731 -0.023659341 -0.040639963
0.018008374 -0.04548807 0.0716312 0.048105802 0.0630992 -0.07432804 0.0054111555 -0.05148415
-0.06956957 -0.045942884 0.08375133 -0.043432932 -0.082959846 0.079228185 0.06588124 -0.04842021
0.063921094 0.019783823 0.0028442137 -0.059913106 -0.08329346 0.08477285 0.051681045 0.05443654
-0.08652251 -0.07003495 0.07017874 -0.07584155 0.05464444 -0.04787094 -0.041044395 0.090372205
0.067447715 -0.055648167 0.084600866 0.021621965 0.0017559275 0.0063102534 -0.033061232 0.004689937
0.040680446 0.016383432 -0.02295748 0.025517285 0.047479775 -0.0014600663 -0.07102938 -0.007847507
-0.07065114 0.035717897 0.035293568 0.041424017 -0.07435906 -0.07181113 -0.01619903 0.021935187
-0.008208252 -0.03467538 0.073332146 0.07840628 0.056136034 -0.031531855 0.04351995 -0.06442433
0.0129510965 0.00540093 -0.044545136 0.07580142 -0.07662021 0.016807973 -0.03423891 0.009113751
-0.04268452 0.0782338 0.027955666 -0.09062571 0.06515655 0.049910422 -0.055804677 -0.035363715
0.038886156 0.08091139 -0.037743043 0.07895713 -0.054130837 0.03267117 -0.06789766 -0.006505288

actor.4.weight f4 [128, 128]
00000000: d728 00bd b553 a0bc fbf9 813c c145 663d
00000010: 7ec5 4e3d f336 3ebc 2e32 45bc 1cef ba3d
00000020: 8685 80bd 1c9f b1bd 9c6d 9b3c f02a babc
00000030: 760c a83d c1b4 72bc ca4a aebd 5036 a4bc
00000040: 91d7 30bb ec2a 6bbd 3b11 0fbd 3c25 a5bd
00000050: b9db 1abd 6e73 823d cf24 92bd 6fad 3abd
00000060: 2bed 81bd 5f29 253d 0bfc 05bd b82c 9ebd
00000070: fe13 c2bc e82f 8c3d eaa9 a7bc d1dc 63bd
00000080: 905c 31bc 38fc 8cbd 7931 603d ff3e b2bc
00000090: f663 28bc 3796 65bd 491f d03c 5108 4e3c
000000a0: 047f a93d 2c50 76bd 9028 343d 448c 0abc
000000b0: f234 9ebc 08da 093d 7bf7 ccbc c9a0 a43b
000000c0: 51fe 9fbc d8ae a1bd ecc4 ddbc a817 693d
000000d0: cc6b cbbc 4b09 c03c 9dc4 02bd a6b6 bb39
000000e0: c8c5 893d 1948 aabd 25ae 693d 15a4 36bd
000000f0: aa8a a23b bac1 af3d 1fce 0c3d 083a f2bc
00000100: 4eef 9fbd a401 843d c8b5 113d 6120 35bd
00000110: afe2 6b3c 263d a53d 75d1 5fbd 763c c0bc
00000120: 66e0 94bb 3f4b 53bd 0a3e 943d 1027 3e3d
00000130: 6ad2 7a3d 8b15 e33c f8b8 e1bc 8335 ac3c
00000140: f8fb 31bd 160d b0bd 0984 10bd 92a7 083d
00000150: ea4a 2cbd b27a 0bbd b528 c1bb 3983 643d
00000160: d42f 673d abcc 06bc 7dab 2d3d 6552 5fbd
00000170: a42d ae3c e250 313d a048 e43c d608 77bd
00000180: 0f9b 7bbd 7902 893d b910 44bd 664e 343d
00000190: 8afc 85bd fe9c 2439 e84a c1bc 9a76 f1bc
000001a0: e616 b6bc 5989 aa3c 8133 a93d 18ab 14bc
000001b0: ec26 66bd 45ac e9bb 8668 5d3d faf6 703c
000001c0: ff43 26bd 0343 8cbb 45a1 b3bd f496 243d
000001d0: 323b 473d 7532 163d dbcc fb3c 0615 41bd
000001e0: d472 e0ba eb82 aebd d817 96bb b607 15bc
000001f0: 234d bf3c 8a1b 5a3c 5d74 713c 83ad a3bc
00000200: aa91 83bd f086 953d ae28 fa3c c06f 40bd
00000210: 741d 8f3d cf48 643d 0712 293d 45d4 eebc
00000220: cb0a 3cbd 1403 003d b0e4 72bd fd7a 0fbd
00000230: c104 643d 0029 2a3d e523 ad3d 6436 8bbc
00000240: 8191 6e3c 41db 0b3d 31e6 e43c f5fe 9abc
00000250: 1246 94bd ae95 4c3d 5167 17bd f059 4ebd
00000260: b7c5 61bd 3f77 fc3b 9de5 0abd beb7 b8bc
00000270: cf68 b23d 79bb 7bbc 6f7e 453d 2ad9 9dbd
00000280: f9e3 633d 91f4 95bc c6fe 803d 0740 0c3d
00000290: a9ce 733d 5c97 a33d 2032 c3bb 08a1 0c3d
000002a0: ece7 11bd 42e6 b4bc 58a9 46bd 8b4d fb3b
000002b0: e0b4 693c f186 1c3d b65f 37bd cff2 313c
000002c0: cbf6 7b3d f377 70bd e05e a83d 1d23 2b3d
000002d0: 3e88 86bd 5754 a8bd f905 983c e63c 52bd
000002e0: c4ee af3d eb18 6abd 7a1c e23c 5c80 a43d
000002f0: 3df5 6d3d f32d 86bd 1f76 803c e71e 863d
00000300: a9d3 47bc cfed 33bd 960a 37bd 68b5 313d
00000310: 26f8 9abd 7d76 8dbc 838c b0bd 0547 233d
00000320: afcc e53c 1c90 1cbd 58a3 45bb 28f6 8f3d
00000330: 3056 a43d 2c39 9dbd 6c27 88bd ac06 5ebc
00000340: 9460 593c ba85 4cbd a9d0 893c 6624 9b3c
00000350: 4e4c c7bc 5256 913d 36ae 45bc db86 0bbd
00000360: f83b 913d 331b e1bc db3b 473b b080 a53d
00000370: 98cb 77bd c9c4 933c 5d52 ac3d f640 a7bd
00000380: c4ef 933d 4759 173d bbc2 ac3c a71e b13d
00000390: 7b1f 61bd 2c1b 883d f325 9f3d d55b 99bc
000003a0: 4c48 22bb a1ce a83d 11c7 923d 3fec 223d
000003b0: b9e4 4d3c 6466 113d a664 7b3c f8b1 b0bd
000003c0: e83d 97bd 251e dabc 34a5 083d e43c 95bd
000003d0: 53f4 72bd ad74 dbbb 6d91 8abd 5c87 45bd
000003e0: ed0d 463b 5e8a 30bd 5da1 f63c b9be 21bc
000003f0: 3eb1 3abd 9f34 a43d d48d b8bc df36 913c
-0.031288948 -0.019571165 0.01586627 0.056218866 0.050481312 -0.011609781 -0.01203589 0.09127638
-0.062754676 -0.08672926 0.018973164 -0.022725552 0.08205502 -0.014813603 -0.08510359 -0.02004543
-0.0026983956 -0.05741398 -0.03492854 -0.080637425 -0.0378072 0.06369673 -0.07135927 -0.045575555
-0.06344064 0.040322658 -0.03271107 -0.07723373 -0.023691174 0.06845075 -0.020466764 -0.05563051
-0.010825291 -0.068840444 0.05473468 -0.021758555 -0.010277739 -0.05605146 0.025405543 0.012575225
0.082761794 -0.06013505 0.043983996 -0.0084562935 -0.019312356 0.033655196 -0.025020352 0.00502405
-0.019530447 -0.07894677 -0.027071439 0.056907326 -0.024831675 0.023441931 -0.031925786 0.00035803503
0.06727177 -0.08314533 0.057050843 -0.044590075 0.0049603777 0.08581872 0.03437626 -0.029568687
-0.078093156 0.064456254 0.03557375 -0.044220332 0.014397307 0.08068304 -0.054643113 -0.02346633
-0.004543352 -0.051585432 0.072383955 0.04642397 0.061235823 0.027720233 -0.02755402 0.02102161
-0.043453187 -0.08596246 -0.03528217 0.033362933 -0.04206363 -0.03405256 -0.0058947452 0.055789206
0.056442097 -0.008227508 0.042399872 -0.054521937 0.021261998 0.043290026 0.027866662 -0.06031116
-0.061427172 0.06689925 -0.04786751 0.04402008 -0.06542309 0.00015698743 -0.023595288 -0.029475499
-0.022227716 0.020817446 0.08261777 -0.009073995 -0.056189463 -0.007131132 0.05405476 0.014707321
-0.04059219 -0.0042804494 -0.08770994 0.040183023 0.048640437 0.036669213 0.030737331 -0.04713919
-0.0017124065 -0.08521064 -0.004580479 -0.009096077 0.023352211 0.01331223 0.014737216 -0.019980198
-0.064242676 0.07301128 0.030536976 -0.046981573 0.069880396 0.0557335 0.041276958 -0.029153952
-0.04590873 0.031252936 -0.059300125 -0.0350294 0.055668596 0.041543007 0.08454112 -0.016993709
0.014561058 0.034144644 0.027941795 -0.018920401 -0.07239927 0.049947433 -0.036963765 -0.05037874
-0.055120196 0.007704645 -0.033910383 -0.022548553 0.08711397 -0.015364521 0.04821628 -0.077074364
0.055637334 -0.018305095 0.06298594 0.03424075 0.05952326 0.07987854 -0.005956903 0.03433326
-0.03562157 -0.022082452 -0.048501343 0.007669156 0.014264315 0.038214628 -0.04476901 0.010861113
0.061514657 -0.058708142 0.08221221 0.041781534 -0.06568955 -0.082192115 0.018557535 -0.05132761
0.08590463 -0.05715267 0.02760147 0.08032295 0.058095206 -0.06551733 0.015681325 0.06548863
-0.01219646 -0.043927964 -0.04468783 0.043385893 -0.07566862 -0.017268414 -0.086205505 0.03986265
0.028051702 -0.03822337 -0.0030157175 0.070293725 0.080242515 -0.0767692 -0.06648144 -0.013551395
0.013267655 -0.04993222 0.01682313 0.018938255 -0.024328377 0.070965424 -0.012065461 -0.034064155
0.07091516 -0.02747879 0.0030400667 0.08081186 -0.060496897 0.01803817 0.08414147 -0.08166687
0.07223466 0.036950376 0.021088948 0.086484246 -0.054961663 0.066458076 0.0777091 -0.018720547
-0.002476233 0.08242536 0.07166875 0.039776083 0.012566739 0.035498038 0.015343821 -0.08627695
-0.073848546 -0.026625702 0.033360675 -0.072870046 -0.059315037 -0.0066972584 -0.06766019 -0.048224792
0.0030220703 -0.043100707 0.03010624 -0.009872132 -0.045579188 0.08017849 -0.022528566 0.01772636

actor.4.bias f4 [128]
00000000: 23d3 dd3c 79b0 0d3b f693 1f3d cb37 c93c
00000010: 2b36 3dbc 3edd 853d 0d4b 2dbb a9db 193a
00000020: bbe0 a93c cd8f 8dbd 339c 90bd 745d ea3a
00000030: 1d3a 8fbd 7268 6cbd 67b3 9e3d 6fbd 18bc
00000040: 6123 653d e967 1b3d 795d 83bd 09e1 eb3c
00000050: 456b 94bd d7bf 633d 734d 96bb 6ed8 5f3d
00000060: c93e 273d 4586 c63b ceab 273d d221 25bc
00000070: 7bf7 0cbd 744a b13d c513 7abc 50a8 b13c
00000080: 96a1 da3b 4f3d ac3d 6a63 1c3d ab8b 0b3d
00000090: 0afe a93d 455f 963c d686 f3bc 5f69 e23a
000000a0: c4c7 5fbd 3934 3bbd 6ead 95bd 6251 a9bd
000000b0: 0cc1 f6bc 8fdc 84bd 2c03 b23c 84c0 90bd
000000c0: 5f80 ff3b 1156 843d b30a 15bd 3cb0 783d
000000d0: 5648 423b 5a96 e4bc 52f1 2e3d a060 e43b
000000e0: 5b13 51bd fcbd 7abd a6c6 9bbb d8f2 b0bb
000000f0: 30eb 613d 1673 69ba f3d7 7dbc 3005 4dbd
00000100: 36a7 26bd c48e ce3c 5ad4 d73c 831c 903d
00000110: 3db4 ab3d 12ff 8e3d 046e 19bd 0a63 14bd
00000120: e60e f23b da48 823d a7b6 1d3c 5106 14bd
00000130: 29ee ccbc 88a6 d0bc 7d22 993d ebbd a1bc
00000140: efb3 8fbd 600f 21bd 4c92 ae3d 3992 a5bc
00000150: de69 8bb8 5808 85bc 9845 273d 3440 4a3d
00000160: 5f69 b03d 00cb 78bd 8418 873d e604 423d
00000170: 998f 02bd 33c7 8cbd 2921 91bd 963a 64ba
00000180: 54b0 0bbd a091 59bd 1919 75bc 3e3d 4b3d
00000190: c3bd 49bd 6df0 9cbd d64e aebd 9dff c13c
000001a0: bd7e 73bd d8b4 ec3c 5393 85bd d428 b03d
000001b0: 55d0 6b3d ba64 2abd f753 263d 20d8 84bd
000001c0: 2a7a 20bd 3e15 78bd a2a3 a03d d573 ac3d
000001d0: 0dc1 83bd 6359 a3bd cd5b 64bd 5f70 6a3d
000001e0: eb29 6b3d 14f4 473d d744 a13d 413c 3f3d
000001f0: 8d9e 973d 9b3e 64bb 92e9 8dbd bf29 0e3d
0.027078217 0.0021620078 0.038959466 0.024562737 -0.011548559 0.06536339 -0.0026442439 0.0005869219
0.020737043 -0.069121934 -0.07061043 0.0017880634 -0.06993506 -0.057716794 0.07749062 -0.009322508
0.055941943 0.037940893 -0.06414313 0.028793829 -0.072470225 0.055602875 -0.0045868694 0.054649763
0.04083136 0.0060584866 0.04093533 -0.010078864 -0.034415703 0.08656779 -0.0152635025 0.021686703
0.0066720946 0.08410131 0.038180746 0.034068745 0.08300407 0.018355975 -0.02972738 0.0017273835
-0.05463387 -0.0457041 -0.0730847 -0.08267476 -0.030121349 -0.06487381 0.021730028 -0.070679694
0.0077972854 0.06461728 -0.036387157 0.060714945 0.0029645166 -0.027903724 0.04271061 0.0069695264
-0.05104385 -0.06121634 -0.0047539053 -0.005400043 0.055155933 -0.0008905394 -0.015493381 -0.050053775
-0.04068681 0.02521456 0.026346374 0.07036688 0.08383987 0.069822446 -0.037458435 -0.036227264
0.00738703 0.063615516 0.009626067 -0.036138836 -0.025015907 -0.025470033 0.07477281 -0.01974388
-0.070167415 -0.039321303 0.08523998 -0.020211326 -6.647756e-05 -0.01623933 0.040837854 0.049377635
0.08613848 -0.06074047 0.06596473 0.047367953 -0.031875227 -0.06873932 -0.07086403 -0.000870624
-0.034103706 -0.053117394 -0.014959597 0.049618952 -0.049253237 -0.07663045 -0.085111305 0.023681456
-0.05944704 0.028894827 -0.065222405 0.08601537 0.057571728 -0.041599967 0.04060742 -0.06486535
-0.039179005 -0.060567133 0.078437105 0.08420531 -0.06433306 -0.079760335 -0.05575161 0.05723607
0.057413023 0.048816755 0.07874458 0.046688322 0.07403288 -0.0034827355 -0.069293156 0.03470778

actor.6.weight f4 [8, 128]
00000000: 2cd3 923d accf 623d 8a14 60bb 46b8 a53d
00000010: be3f 9abb afa7 99bd 4c17 943d fab1 2cbc
00000020: 7499 abbd 32bb afbd 30a5 57bd 9e6e 463d
00000030: b148 02bd ed2b acbd 14e5 1ebd 2236 63bd
00000040: f2f2 69bd 58f0 93bd 81a6 8fbd 75aa 39bd
00000050: 138c 323d ed19 fd3c 93ff 89bd 039b 5d3c
00000060: 49e8 5f3d 1cc9 a5bd 0eb2 43bc 121e 933c
00000070: a97a a6bd ec70 9c3c 3677 95bd 5c9f 9e3c
00000080: c2e3 ef3c 2c8d b03d 56a1 9c3d a13f 27bd
00000090: 27e2 47bd 0cca 263d b344 78bd e025 89bb
000000a0: cb95 e23c e551 faba 02a7 78bd 8356 f1bb
000000b0: e244 20bd c33d e5bc 4ab3 1f3d f59b 83bd
000000c0: 78bd 11bc 94fa dcbb 0597 08bc 4a98 b53d
000000d0: f541 23bd 3321 10bd 46f6 643d fc1a 90bd
000000e0: 701b 2abb c27c 9cbd c7df 443d c4bb 023d
000000f0: 84d9 fb3b fabb c53c d0f1 b13d 2e96 eb3c
00000100: 6898 82bd 13f2 a63d 4e2f 12bd 604f 67bd
00000110: 276e 84bd 06d1 54bc 23b5 9f3d a471 6cbd
00000120: 7771 1b3b b5e2 8c3d 38b2 bcbc 7994 42bd
00000130: 5cca 073b 30e4 863c 29cf 12bd 69e2 c8bc
00000140: b499 cfbb c76c 2f3c a1de 703d 9c2c 9e3b
00000150: 4cb5 b2bd 6f0a 63bd be35 5a3d 57d2 373d
00000160: 9c1e 73bd bc1d 6b3d c599 493d 2267 44bd
00000170: 991a 96bd a4a8 023d 5949 283c d39b a73c
00000180: 371e 663b de2d 093d e36d 9cbd e955 af3c
00000190: c796 8e3c 04e3 aa3b 7031 bd3c b091 adbd
000001a0: cfa5 5d3d 035a c3bb 3999 eabb b788 62bd
000001b0: e1d5 13bb 0bc2 03bc f35c a6bd 1be0 3f3d
000001c0: c718 b73c 63c7 a63d 5e9b b43c 12b2 6b3d
000001d0: bbc9 963d 0c3a 593d a93c bbb9 cba5 763d
000001e0: a3e7 abbd 7c78 d53c 0462 67bd c511 69bc
000001f0: 188c ae3d 8111 a0bd 5646 823d 44f5 a6bd
00000200: 3725 1abd 22fe 9cbd 274a ad3d 8952 8f3d
00000210: bac2 a8bd 20fd 76bd 25ff 923d 7705 b3bc
00000220: 489b 8e3d dce6 143c 3748 91bd 8b2f 42bd
00000230: 8cdb 7dbd 5579 6f3d 7ba7 07bd edde 063d
00000240: d8c5 433d de18 b8bc 9dc9 afbc ba05 9fbd
00000250: dfba 93bc 42bf 94bd e9f7 e1bc 94ff b03c
00000260: cb12 44bd a6ef a2bd 792d 82bd b11c 47bc
00000270: ef74 113b 75f0 92bd 3a38 6c3d bcca b73d
00000280: f675 94bd 0df3 2dbd 5e55 b3bd 1027 9f3d
00000290: 1c9b 08bc 41d0 69bd 2dab 8ebd c354 ccba
000002a0: 10fa ef3b 1790 8bbd 6d05 a93d 76dc 2c3d
000002b0: 532c c23b 90f9 90bd e437 863d 8024 38bd
000002c0: efec 303d 1ab3 d93c 7b54 c2bc a6ed 663d
000002d0: 2b84 513d e2d0 c0bc f75d b33d 15f1 6ebd
000002e0: 0177 7e3c 5976 a0bd 7dc3 473c 8638 fcbc
000002f0: be76 af3d 2352 653d 9aab 833d 7fb9 a7bd
00000300: 5518 903d e4a6 fe3c 91d6 5abc 2a81 aa3c
00000310: 7022 1f3d 73bb 1abd 5ae0 793d 20ab 98bd
00000320: ae39 4a3b 2b8a 9a3d 56cc c9bc 788c 3dbd
00000330: 860d 393d d698 3b3d d4aa 97bd 8f5f b9bc
00000340: 8d39 6f3d afa5 853d 7b0c 3e3b bc49 0d3d
00000350: 0589 30bd 94a1 813d 5bf3 a1bd bc35 86bd
00000360: bd22 3abd 81c7 e43c fa14 e3bc 36c1 3b3d
00000370: 9f66 943d 6384 193d 4fae 2fbd 88ae 9f3d
00000380: 0ec8 4abc b736 303d 1653 a23d f4a5 8a3d
00000390: 3c04 c83c d66d d8bc 2ce7 c9bc 4a68 82bd
000003a0: 7040 7abd a102 abbd 2e17 283d d4ee 313d
000003b0: b1fd 3f3c 184b 77bd 92a9 0f3c ae7c 8fbd
000003c0: b3b3 953d 2904 0cbd 1bee 26bc f280 cd3c
000003d0: dcb6 23bd 5229 06bd 1c9e 7e3d 61e1 85bc
000003e0: de13 083d 908c 5e3d 2a96 373d a2b2 17bd
000003f0: 15b5 0ebd ed2e 9a3d 1871 ab3d 87d5 8bbd
0.07169184 0.055373833 -0.003419193 0.08091788 -0.0047073057 -0.07502686 0.07231006 -0.01054048
-0.08378878 -0.085806265 -0.05264777 0.048445337 -0.031807605 -0.08406816 -0.038792685 -0.055471547
-0.057116456 -0.07223576 -0.0701418 -0.045328576 0.043590616 0.030896151 -0.067382 0.013525727
0.054664884 -0.08094999 -0.011944307 0.017958675 -0.08128864 0.019096814 -0.07298128 0.019363098
0.029283408 0.086206764 0.0764796 -0.040832166 -0.04879966 0.04072003 -0.06061239 -0.0041854233
0.027659317 -0.0019097893 -0.060706146 -0.0073650493 -0.03912819 -0.027983552 0.038989343 -0.06426231
-0.0088952705 -0.0067437384 -0.008336787 0.088669375 -0.039857823 -0.03518791 0.055898927 -0.07036397
-0.0025956295 -0.07640983 0.048064973 0.03191735 0.007685842 0.024137486 0.086887 0.028758135
-0.063767254 0.08151641 -0.035689645 -0.056472182 -0.064663224 -0.012989288 0.07798221 -0.057725564
0.0023718753 0.068791784 -0.0230342 -0.047504876 0.002071998 0.01646623 -0.035842095 -0.024522023
-0.0063354615 0.010707087 0.058806065 0.004827095 -0.08725986 -0.055429872 0.05327391 0.04487833
-0.059355363 0.057401404 0.04921891 -0.047949918 -0.07329292 0.03189911 0.010271394 0.020460045
0.0035113224 0.033491008 -0.07638147 0.02140327 0.01740588 0.0052150507 0.023094863 -0.08475053
0.054113206 -0.005961658 -0.007159379 -0.055306163 -0.0022557902 -0.008041869 -0.081231974 0.046844583
0.022350682 0.08143499 0.022046741 0.057542868 0.07362696 0.053033873 -0.00035712615 0.060216706
-0.083937906 0.026058428 -0.05648996 -0.014225428 0.085228145 -0.078158386 0.06361072 -0.081522495
-0.037633147 -0.076656595 0.08461409 0.06998164 -0.08240266 -0.060299993 0.07177571 -0.021853192
0.06963211 0.009088244 -0.07093852 -0.04740862 -0.061976954 0.05846532 -0.033118706 0.032927442
0.0477961 -0.022472795 -0.021458441 -0.07764764 -0.018033443 -0.07263042 -0.027584033 0.021606244
-0.047869485 -0.079558656 -0.063563295 -0.012152837 0.0022194942 -0.0717477 0.05767081 0.089742154
-0.07249062 -0.04246812 -0.08756517 0.077711225 -0.008337762 -0.057083372 -0.06966243 -0.0015589226
0.007323511 -0.06814592 0.08252988 0.042202435 0.005925694 -0.0707885 0.06553629 -0.044956684
0.043194707 0.02657466 -0.023721924 0.056378983 0.051151436 -0.023537103 0.08758157 -0.058335382
0.015531302 -0.07835073 0.012192604 -0.030788671 0.0856757 0.055986535 0.06429215 -0.081896774
0.07035891 0.031085439 -0.013356821 0.020813543 0.0388512 -0.03777642 0.061004974 -0.074545145
0.0030857134 0.07545885 -0.024633568 -0.04627654 0.045178913 0.045800053 -0.0740563 -0.022628574
0.058404494 0.06525742 0.0028999138 0.034494147 -0.043099422 0.06329647 -0.079077445 -0.06553218
-0.045443285 0.027927162 -0.027719963 0.045838557 0.07246136 0.03747977 -0.042890843 0.07796961
-0.012376798 0.04302093 0.07926004 0.06769934 0.024416082 -0.026419561 -0.024646364 -0.06367548
-0.06109661 -0.08350111 0.04103773 0.043440655 0.0117182 -0.06037435 0.008768456 -0.07006203
0.073096655 -0.034183655 -0.010188605 0.0250859 -0.03996931 -0.03275425 0.062162504 -0.01634282
0.03322207 0.05433327 0.044820942 -0.037035592 -0.034840662 0.07528482 0.0837118 -0.068278365

actor.6.bias f4 [8]
00000000: 07e3 ab3d 7d04 54bd 4446 f83b 23c8 213d
00000010: db31 6f3d 040b 2d3d 9c84 68bd 8e2b 4dbd
0.083929114 -0.051762093 0.0075767357 0.039497506 0.058397155 0.042246833 -0.05676709 -0.050090365

critic.0.weight f4 [128, 31]
00000000: 36cd 103e 29fc 2c3e 5441 11be ab70 3ebc
00000010: 2df9 bfbc 76fb e13c 102d 093e 91d7 893d
00000020: c707 2b3d d69a 523d d288 0a3e 01bb 313e
00000030: 8b81 10be 518c eb3d 05fe ef3d 654e f63b
00000040: c687 c53d d51f 05be c9fd 033d ecd0 26be
00000050: dac0 cb3d 83ea c93d 9f1b f43d 9e0b ce3d
00000060: 6261 193e bdd4 843d dbbc ad3d 7de1 a33d
00000070: d5d1 17bd 9348 dabd 5756 b9bd a831 b73d
00000080: 7b9c 093e fed1 013e 1979 13bc 1c32 b03d
00000090: 0325 953d 314a 9b3d 0d22 803c 4807 843d
000000a0: 718a 4cbb 2ab3 3dbe a681 333d a6a7 293e
000000b0: 510d 0cbe d44f 55bd 145a 07be ed33 5e3d
000000c0: 6053 36be e9d0 23be f13f 05be 4616 bdbd
000000d0: 0286 d03d 3249 553d 8e31 de3d 02b6 cabc
000000e0: 99e7 f03d 9f86 2a3e 7434 e5bd b474 533d
000000f0: 7de0 a3bd 34b6 ac3d 4648 2ebd 63aa 41bc
00000100: 480a 6b3c db5e 293e 16d9 0d3e 3dcf a73d
00000110: 58b9 373e 4720 12be ae43 623d 223c 36be
00000120: 04a5 b5bd edf6 20be 65e2 053e b374 013e
00000130: f543 7a3d fd5e 97bc efa6 753c f182 c83d
00000140: f55d b53d 9a22 e23d 81c2 d4bd 0b08 1c3e
00000150: 150b 2d3e fb6b 6e3d 509c 2b3e e644 6d3d
00000160: 3306 22bd 86ce 6c3d 60ba bc3d 559e 34be
00000170: ec09 19bd ff6f db3d c3f6 ea3c bcf0 3e3d
00000180: 6efe c33d ea8f 01be ae8a e1bd 0def dd3d
00000190: 44da b3bc 06ef d73d 0052 0cba 38bc d5bd
000001a0: 1528 4ebd 3bd9 18be a549 303d 72b4 fd3d
000001b0: 788d 103d 3a69 a63d ad96 cc3d 17cd 0cbe
000001c0: e59d 013e db53 dc3d 46cd 62bd 8d0a 243e
000001d0: 8f6d 2c3e f95a 02bd ccfa d7bd ec01 07be
000001e0: 92b8 3bbb bcb0 7a3d 20ab fcbb f907 45bd
000001f0: c0d2 f63c de98 bd3d 2acc 263e cf9e cd3b
00000200: e46c d53d 9871 063e 0ae3 093e 517a 7abd
00000210: 1863 d33d 262a 83bd 6311 123e 3ba6 293d
00000220: 18f4 92bc 956f b9bd 2d9d 083e 85fe 103e
00000230: 8810 723d 3357 0cbe 311f dfbc 0dfe c53d
00000240: fdf5 0e3e e9cc e6bd 8b0a c2bd 924b fc3d
00000250: 6961 61bd 1413 0bbb 7a52 3a3e 56e4 d53d
00000260: 0a43 90bd 7839 0dbb 425d 373c 6963 c7bd
00000270: f12d b8bd fce7 d0bd fc19 b5bd 3309 18be
00000280: f80b 60bd 7f6c fc3d 9a76 87bd 00d9 b43b
00000290: 7405 213e 1138 0d3e 7a73 213e 143f 9f3d
000002a0: dbf8 973d 3820 2cbd 0538 b33d 7e78 2dbd
000002b0: aa02 f53d 9666 83bc 5819 963d 142d 233d
000002c0: 2792 9ebd 3db5 3f3c b34a 90bd 679c c0bd
000002d0: 2a3b 9abd 4a67 2cbe 63d5 3b3e e2bb 97bd
000002e0: e2ff 05be 6fb4 a33d f757 4ab9 cb64 b6ba
000002f0: 26f0 10be 3b17 1bbd 0f01 91bd d37a 5ebd
00000300: eb39 b93c 7af1 e63d cc3f bf3d 5657 b93d
00000310: 47d9 1d3e e2ec 183e f636 d5bd ec8c 05be
00000320: 233a 0e3e 38a8 b43d 50f4 a5bd b833 1e3a
00000330: da57 363e bac6 ecbd 7836 6dbd 8ace 963c
00000340: a10f 1fbe c465 823d 0634 25be 774a e7bd
00000350: 63df 08be e408 b3bb fa74 c2bd 9ac0 09be
00000360: 4ee3 b03d 6ed3 b0bd 361b 34be dc17 bcbd
00000370: bf7e 7b3d 39f8 11be 41f7 4b3d 0e81 a63d
00000380: 1f48 393e 3765 f3bd f02c 4cbc 4ca6 2d3e
00000390: 5b7d 123e 67a4 893d 373d 22be 884f 2fbd
000003a0: 274e a53d d460 fb3d 8705 c73d 3099 9fbd
000003b0: 61ad 333d 2ef2 29be 7d7b b3bc 5b68 0dbd
000003c0: 8f39 39bd f03f fb3d d264 d7bc 009e 34be
000003d0: 5ca5 cf3d 7233 223e c416 003e d210 b9bd
000003e0: ff63 19be 9913 cf3c 758f 18be 0ff0 81bd
000003f0: 56a6 c53b 7af4 053e a6cd 223e 5dd6 343e
0.14140782 0.16893066 -0.14185077 -0.011623542 -0.023434246 0.027585726 0.13396096 0.06730569
0.041755464 0.051417194 0.13528755 0.17356493 -0.14111917 0.115013726 0.11718372 0.0075166696
0.09645037 -0.13000424 0.03222445 -0.16290635 0.09948893 0.09859183 0.11919331 0.100608096
0.14978555 0.06485889 0.08483287 0.08001993 -0.037065346 -0.10658374 -0.09049671 0.08945018
0.13438599 0.12677762 -0.00900104 0.086033076 0.0728245 0.0758251 0.015641237 0.06446701
-0.0031210447 -0.18525377 0.043824814 0.16567859 -0.13676955 -0.052078083 -0.13217956 0.05424874
-0.17805243 -0.15997662 -0.13012673 -0.09232764 0.1018181 0.052071758 0.108492956 -0.024744991
0.11762924 0.16652916 -0.11191645 0.05162497 -0.08001802 0.0843319 -0.042549394 -0.0118204085
0.014345713 0.1654009 0.13852343 0.081938244 0.17941797 -0.14270125 0.055240326 -0.17796376
-0.08869365 -0.15719195 0.13074644 0.12642173 0.061099965 -0.018477911 0.014993413 0.097906
0.088558115 0.11041756 -0.10388661 0.15237443 0.16898759 0.058208447 0.16758847 0.057927035
-0.039556693 0.057814144 0.09215236 -0.17638524 -0.037362978 0.10714721 0.028682118 0.0466163
0.09570013 -0.12652555 -0.11012779 0.10836611 -0.021954663 0.10543637 -0.0005352795 -0.104362905
-0.050331194 -0.14926617 0.043038983 0.12387933 0.035291165 0.08125539 0.099896766 -0.1375011
0.12657888 0.10758182 -0.055371545 0.1601965 0.16838668 -0.03182504 -0.105458826 -0.13184327
-0.0028643948 0.061203703 -0.0077108294 -0.048103306 0.03012979 0.09257673 0.1628882 0.006275035
0.1042116 0.1312927 0.13465515 -0.061151806 0.10321635 -0.064045236 0.14264445 0.041418295
-0.017938659 -0.09054486 0.13341208 0.14159591 0.059097797 -0.13705139 -0.027236553 0.09667597
0.13961025 -0.11269552 -0.09474667 0.123191014 -0.05502454 -0.0021221088 0.18195525 0.10443942
-0.07044037 -0.0021549147 0.011191668 -0.09735758 -0.08993138 -0.102004975 -0.08842847 -0.14847259
-0.054698914 0.123253815 -0.06614418 0.0055190325 0.15724736 0.13790919 0.15766707 0.07775703
0.07420512 -0.042022914 0.08750919 -0.04235124 0.11963399 -0.016040128 0.07329053 0.03983791
-0.0774272 0.011700925 -0.07045498 -0.094048314 -0.07530816 -0.16836277 0.1834312 -0.07408883
-0.13085893 0.07993399 -0.0001929699 -0.0013915537 -0.1415411 -0.03786395 -0.0708028 -0.054316353
0.022610625 0.11276527 0.0933834 0.09049861 0.15414916 0.14934114 -0.104108736 -0.13042039
0.13889365 0.08821148 -0.081032395 0.00060349284 0.1780695 -0.115613416 -0.057913274 0.018409032
-0.15533306 0.063670665 -0.16133127 -0.112935 -0.13366465 -0.0054637063 -0.09494968 -0.13452378
0.08637105 -0.08634077 -0.17588505 -0.09184238 0.06140017 -0.14254846 0.049796347 0.08130084
0.18093918 -0.118845396 -0.012461886 0.16957968 0.14305632 0.067208104 -0.15843664 -0.042800456
0.08071547 0.12274328 0.09717851 -0.0779289 0.04386652 -0.1659629 -0.02190947 -0.03452335
-0.045220908 0.122680545 -0.026293192 -0.17638397 0.10138962 0.15839937 0.12508684 -0.09036411
-0.14979552 0.0252779 -0.14898475 -0.06344616 0.0060317917 0.13081542 0.15898761 0.17659898

critic.0.bias f4 [128]
00000000: 6388 fdbd 4134 2cbd b008 353e fb5a eb3d
00000010: f653 64bb 7b21 e3bd d3e5 f53d 2656 073d
00000020: 63fd 9a3d be91 c9bd 1434 4f3d 65b2 3bbe
00000030: ef28 afbd bd78 80bd f409 993d 3982 97bd
00000040: 102a 2bbe aef6 1dbe 978d eb3d ed1e 2f3d
00000050: 6423 1e3e 4f41 b6bc 2e0c eebd a1fb f3bd
00000060: b1a4 4f3c 6ce2 80bd c1b2 0f3d 1e4f edbd
00000070: 0db0 2dbe 3d95 233c f799 213e d266 24bd
00000080: be19 d53b 2503 013e 8ec1 1e3e e203 27be
00000090: 17d9 2fbe e1e4 043d cc2b bfbd a811 edbd
000000a0: a2b9 5bbd a19f a73d 012e 17bd ac81 c3bd
000000b0: bdd8 143e 3da4 763d 2228 8c3d 3873 9abd
000000c0: 0188 30be ebee a33d abd6 c1bc 05e3 33be
000000d0: cd71 09be 4bc7 e1bd b293 08be 7e4b d0bd
000000e0: bdd4 4b3d 6a6c b7bd b8d9 53bd 57b7 a8bc
000000f0: a2d4 e73c 9343 17bd a249 77bd 8870 ffbc
00000100: 466a 26bd 162f fbbd d4d5 503d 4710 4ebc
00000110: 79dc 0bbe 67ba 0a3e ac57 a2bd 94ff 043e
00000120: 1110 803c 5dd8 cc3d 98d3 ae3d 276c babd
00000130: bfc0 1e3e 4d3d b0bc 6648 603d 9171 963d
00000140: 8d28 433d 2c6b 3abd 2429 393c 3d9d ab3d
00000150: 75f1 0fbe 65dc 283c efae 443d 16a1 173d
00000160: 8645 d23d 467e 163e aea0 bdbd 0dea ac3d
00000170: bd9d b9bd 8aac a4bb e1a1 edbd ac88 153e
00000180: 625f 34bd 5e4e e5bd 8e12 103e 85f4 0c3e
00000190: 5e8d 243e 9862 35bd 91a8 2b3d 4765 0bbc
000001a0: fa4b f63c 660f 17be af2e 1b3e 8ded acbd
000001b0: 6390 ba3d 402c 2ebe 86fa 08be fe5e c83d
000001c0: b53c 923b 40c1 ef3d f985 183d 4266 e23d
000001d0: 5dd5 bd3a ce93 293e 9b54 e7bd 4224 963d
000001e0: acbe c13d b53a 893d 9fe3 fa3d 859f 96bd
000001f0: 1e47 fe3d 53d3 22be 008a c03d 5d51 b43c
-0.12379529 -0.04204202 0.17679095 0.114919625 -0.0034840084 -0.1109037 0.12006726 0.033041142
0.07567861 -0.09842251 0.050586775 -0.18329771 -0.08552729 -0.06273029 0.074726015 -0.07397885
-0.16715264 -0.15426132 0.115016155 0.042754102 0.15443188 -0.022247938 -0.11623417 -0.11913229
0.012673543 -0.062931865 0.035082582 -0.11587356 -0.1696169 0.009984312 0.15781389 -0.04013712
0.006503313 0.12598856 0.15503523 -0.16310075 -0.17172657 0.03244484 -0.093345255 -0.11575633
-0.05364383 0.08184744 -0.036909107 -0.09546217 0.14535804 0.060215224 0.06843592 -0.075415075
-0.17239381 0.08004554 -0.023661932 -0.1756707 -0.13422318 -0.1102434 -0.13337591 -0.10170649
0.04976343 -0.08956225 -0.051721305 -0.020595236 0.028299633 -0.03692968 -0.060372956 -0.031181589
-0.040628694 -0.1226484 0.050985172 -0.012577123 -0.13658322 0.1354767 -0.07926878 0.1298812
0.015632661 0.100022055 0.08536452 -0.0910266 0.15503214 -0.021513605 0.054756545 0.0734588
0.047646094 -0.045512363 0.011301313 0.083796 -0.14056952 0.010306452 0.048018392 0.037018858
0.10267167 0.14696607 -0.09259163 0.08443079 -0.09063289 -0.005025451 -0.116031416 0.14602917
-0.044036277 -0.11196588 0.14069578 0.13765152 0.16069552 -0.04428348 0.041908804 -0.008508033
0.030065525 -0.14751968 0.15154527 -0.08443747 0.09109571 -0.17009068 -0.13376817 0.09783743
0.0044628032 0.117067814 0.03723714 0.110546604 0.0014483143 0.1656029 -0.11295434 0.073311344
0.09460196 0.067006506 0.122504465 -0.07354645 0.12415908 -0.15900926 0.094013214 0.022011453
