ISAAC_NOGIT/logs/rsl_rl/traquad_flat/2025-09-16_11-47-01/exported/policy.onnx (onnx, 153859 bytes, 8 tensors)

actor.0.weight f4 [128, 31]
0	0xbeee3c40	-0.46530342
1	0xbd556908	-0.05210212
2	0x3d8fdfe0	0.07025123
3	0x3ed21128	0.41028714
4	0xbe3f1706	-0.18661126
5	0x3db79e80	0.08965778
6	0x3d9c64e2	0.07636429
7	0x3e197898	0.14987409
8	0x3dbb2ff4	0.09140006
9	0x3f4ebca5	0.807566
10	0xbd7bf699	-0.06151447
11	0xbeb3bf14	-0.3510672
12	0xbc4c4338	-0.012467198
13	0x3d3b3180	0.045701504
14	0xbd9c273b	-0.0762467
15	0x3dbc3d71	0.091914065
16	0x3e318e05	0.17339332
17	0x3df9abbe	0.1219096
18	0x3e1a9766	0.15096816
19	0x3dcbdecf	0.09954607
20	0xbd05c2f7	-0.032656636
21	0xbdf23e3e	-0.11828278
22	0xbe1415e4	-0.14461476
23	0xbbc30430	-0.005951427
24	0x3f0021c1	0.50051504
25	0xbc295dc9	-0.0103373015
26	0x3e07e2cc	0.1327011
27	0x3d0eaa6b	0.034830492
28	0x3d250497	0.04028758
29	0xbdce9d26	-0.100885674
30	0xbe131f64	-0.14367443
31	0xbec2bf9b	-0.38036808
32	0xbe55a126	-0.20862255
33	0xbe9aed26	-0.30259055
34	0x3d44ff54	0.048095062
35	0x3ca82015	0.02052311
36	0x3e41c249	0.1892177
37	0x3f0d6f37	0.55247825
38	0x3df5452b	0.11976083
39	0x3e7f24df	0.24916409
40	0x3e5d7225	0.21625574
41	0xbe42ac61	-0.1901107
42	0xbf17f754	-0.5936177
43	0x3e64904e	0.22320673
44	0x3f031322	0.5120107
45	0xbec5ba10	-0.38618517
46	0xbc6099be	-0.01370853
47	0x3e2a853a	0.16652384
48	0xbd37b731	-0.04485244
49	0xbe0b5762	-0.13607553
50	0xbc865563	-0.016398137
51	0x3cab113d	0.020882243
52	0xbbc48dcf	-0.00599835
53	0x3e0212bb	0.12702458
54	0x3df3ce76	0.11904614
55	0x3dda90ef	0.10672175
56	0x3de54327	0.11194449
57	0xbd3b2cf8	-0.045697182
58	0xbdc37acd	-0.09544907
59	0xbe8a2d2b	-0.26987585
60	0x3da22105	0.07916454
61	0xbdbaab63	-0.09114721
62	0x3c0e8b18	0.008700155
63	0x3cd8c2be	0.026460048
64	0xbe82f9ce	-0.2558121
65	0x3e4c9dad	0.19982024
66	0x3dbdab7a	0.09261222
67	0xbe3db97f	-0.18527792
68	0x3de77b8a	0.1130286
69	0xbe842e6b	-0.25816664
70	0xbe6ab7b9	-0.22921647
71	0xbdfef4a2	-0.12449004
72	0xbf0fc996	-0.5616697
73	0x3e69255e	0.2276816
74	0xbef499cf	-0.47773597
75	0xbef7e358	-0.48415637
76	0x3e169de6	0.14708671
77	0xbdf8c3a4	-0.121466905
78	0x3dcf9555	0.10135905
79	0x3eb175a4	0.34660065
80	0x3e0326b7	0.12807737
81	0xbb706a99	-0.003668463
82	0x3d8a033c	0.06738898
83	0x3da8dc4b	0.082451425
84	0xbd2ed8ba	-0.042687155
85	0x3d754cb4	0.059887603
86	0x3e17e091	0.14831759
87	0xbe49de66	-0.19713745
88	0x3e6f0405	0.23341377
89	0x3dd69bc4	0.10478929
90	0xbe28b333	-0.16474609
91	0xbe45abbf	-0.19303797
92	0x3e5e93bc	0.21736044
93	0xbdcef9fe	-0.10106276
94	0xbf13e46e	-0.5777043
95	0x3f356f2d	0.70872766
96	0x3e1b0394	0.15138084
97	0xbe5873f1	-0.21137978
98	0xbe1709f2	-0.14749888
99	0xbd80671b	-0.06269666
100	0xbe945317	-0.28969643
101	0x3db939df	0.09044241
102	0xbf5c09e6	-0.85952604
103	0xbd41f0b1	-0.04734868
104	0xbe6ff6bd	-0.23433967
105	0xbefe2bfa	-0.49642926
106	0x3d81dcd6	0.06340949
107	0xbc8c62dd	-0.017136985
108	0x3e6de387	0.23231326
109	0x3df4ce34	0.119533926
110	0xbc056da3	-0.008143815
111	0x3e638005	0.22216804
112	0x3d94a7a3	0.07258537
113	0x3da6f403	0.0815201
114	0xbe280ea1	-0.1641183
115	0x3dd153c7	0.102210574
116	0xbc01f828	-0.0079327
117	0x3d8d74fc	0.069070786
118	0x3e40b6ed	0.1881978
119	0x3e76c080	0.2409687
120	0x3db1bff2	0.08679189
121	0xbe5d7c97	-0.21629559
122	0x3e832c07	0.25619528
123	0xbd5aeb69	-0.05344716
124	0x3ed5ec1e	0.41781706
125	0xbe50e11e	-0.20398375
126	0xbf8caf15	-1.0990931
127	0xbdc2a2ef	-0.09503733
128	0x3e848a9f	0.2588701
129	0xbdd99a85	-0.106251754
130	0x3e1661d5	0.14685757
131	0x3cd63120	0.026146472
132	0xbd13ecc1	-0.036114458
133	0xbe1ee0d8	-0.15515459
134	0xbe8ec568	-0.27884984
135	0x3e0974d9	0.1342348
136	0x3ebc0cee	0.36728615
137	0xbddf9b14	-0.10918251
138	0x3cf6c021	0.030120911
139	0x3e12fee3	0.14355044
140	0x3e495d10	0.19664407
141	0xbe27548d	-0.16340847
142	0xbc9103db	-0.017702034
143	0x3d092edd	0.033491958
144	0x3cd8a073	0.026443696
145	0x3cf9d088	0.030494943
146	0xbb830e09	-0.003999476
147	0x3d267ad5	0.040644486
148	0x3c75e336	0.015007785
149	0x3d1c037c	0.03808926
150	0xbdc6e27c	-0.09711167
151	0x3e10076c	0.14065331
152	0x3dd36dc0	0.103236675
153	0xbdb1acaa	-0.08675511
154	0x3e0c5e28	0.13707793
155	0x3e444439	0.1916665
156	0xbe1bca2e	-0.15213844
157	0x3ee12d2e	0.43979782
158	0xbe0a43c3	-0.13502412
159	0xbc4e02d5	-0.012573917
160	0x3e1f1719	0.15536155
161	0xbe01587f	-0.12631415
162	0x3e297bc4	0.16551119
163	0xbedd2341	-0.4319096
164	0x3e0bb201	0.13642122
165	0xbdd247ec	-0.10267624
166	0x3e81915f	0.25306222
167	0x3eaf9c92	0.3429914
168	0xbd6e9452	-0.058246918
169	0x3e7a321e	0.2443318
170	0xbdd99e5b	-0.10625907
171	0xbe114d20	-0.14189577
172	0x3afaa874	0.0019123689
173	0x3e1eb178	0.15497386
174	0x3e06b93b	0.13156597
175	0x3dc8a22f	0.09796559
176	0xbdfbeff5	-0.123016275
177	0x3bfa4bfa	0.0076384516
178	0x3df0b875	0.117539324
179	0xbe5ea6c2	-0.217433
180	0x3c2c0154	0.0104983635
181	0x3d3f2b90	0.046672404
182	0xbe65bd44	-0.2243548
183	0xbc7afe41	-0.015319408
184	0x3e483465	0.19551237
185	0xbd98b824	-0.07456997
186	0xbf0f87d3	-0.56066626
187	0xbcfc2f99	-0.030784415
188	0xbf770102	-0.9648591
189	0x3dea976e	0.11454664
190	0x3e8422cd	0.258078
191	0xbddf1ec0	-0.10894537
192	0x3efb4c7b	0.49081787
193	0xbeaffa5b	-0.34370694
194	0x3e659b56	0.22422537
195	0x3d6244ae	0.05524128
196	0x3e6f45a7	0.23366414
197	0xbbc3757f	-0.0059649344
198	0x3d366b7b	0.044536095
199	0x3edfefa6	0.43737525
200	0xbe77a568	-0.24184191
201	0xbd84f079	-0.06491179
202	0xbdc7be17	-0.09753054
203	0xbd09345c	-0.0334972
204	0x3ca15d8c	0.019697927
205	0xba8f9937	-0.0010955696
206	0xbc27ea0b	-0.010248671
207	0xbbbd4f17	-0.0057772505
208	0x3c2535c7	0.010083622
209	0xbdf01e5e	-0.11724542
210	0xbe2d2571	-0.16908814
211	0xbe0bf1d2	-0.13666466
212	0x3d7ebd09	0.062191997
213	0xbe3559d1	-0.17710043
214	0x3b37d894	0.0028052675
215	0x3d9b3877	0.07579129
216	0xbe834562	-0.25638872
217	0x3efe8975	0.49714246
218	0xbee4aa77	-0.44661304
219	0x3df14913	0.11781516
220	0xbe06cbeb	-0.13163726
221	0xbdb1fa2b	-0.08690294
222	0xbe97af52	-0.29625946
223	0xbeaa3581	-0.33243945
224	0x3eb6fff5	0.35742155
225	0xbd826613	-0.06367125
226	0x3f121fed	0.57079965
227	0x3d95acdc	0.07308361
228	0x3e2d680e	0.16934225
229	0x3ea7e686	0.32793063
230	0xbebe6860	-0.37189007
231	0x3dc84edb	0.097806655
232	0x3d64c0fd	0.05584811
233	0xbdccd820	-0.1000216
234	0x3e348e17	0.17632328
235	0x3e4d2ef5	0.20037444
236	0xbcd61813	-0.026134526
237	0x3b3b5d01	0.002858937
238	0xbd6ade16	-0.057340704
239	0xbd86a370	-0.06574142
240	0x3ed2010c	0.41016424
241	0xbeb43b8e	-0.35201687
242	0x3e0ddca7	0.13853703
243	0x3e634c23	0.22197013
244	0x3e354a70	0.17704177
245	0x3da1e193	0.07904353
246	0xbda398ce	-0.079881296
247	0x3e8e799b	0.27827153
248	0x3f1a8860	0.6036434
249	0xbe0a03fc	-0.13478082
250	0x3f77cff5	0.9680169
251	0xbe331b03	-0.17490773
252	0x3d45ffa2	0.048339494
253	0xbc3a28ea	-0.011362294
254	0xbf09551c	-0.5364549
255	0xbc283640	-0.01026684

actor.0.bias f4 [128]
0	0xbd939985	-0.07207016
1	0xbe52346b	-0.20527808
2	0x3dd54867	0.104142
3	0xbd8b3fe6	-0.06799297
4	0xbc673d4e	-0.014113737
5	0x3ea6860d	0.32524148
6	0xbe1ee8ed	-0.15518542
7	0xbcd21e0c	-0.025649093
8	0xbdbc9c5c	-0.09209511
9	0x3eda0d1a	0.4258812
10	0xbe7de931	-0.24795987
11	0x3d6157ba	0.055015303
12	0xbe4ab9df	-0.19797467
13	0x3ebcbe24	0.36863816
14	0xbe4f25d9	-0.20229281
15	0x3e29fcb0	0.16600299
16	0x3e816891	0.2527509
17	0x3e63990c	0.22226351
18	0xbdf0b0b8	-0.117524564
19	0xbd691df2	-0.056913324
20	0x3eb0103c	0.34387386
21	0x3d035aaf	0.032068904
22	0xbd2f7b15	-0.04284199
23	0x3dde3ec5	0.10851816
24	0x3e92182e	0.28534073
25	0xbc6487c6	-0.013948387
26	0x3de93689	0.11387355
27	0x3ce64abd	0.02811181
28	0xbdc1b0ff	-0.094575875
29	0x3dc5e814	0.09663406
30	0xbe5c068d	-0.21486874
31	0xbdfb62cb	-0.12274703
32	0xbe618134	-0.22021943
33	0x3df7728b	0.12082394
34	0x3ba67145	0.0050794207
35	0x3e278348	0.16358674
36	0x3e5556fa	0.2083396
37	0xbe294184	-0.16528898
38	0x3ead95b9	0.33903292
39	0x3ebded59	0.37095144
40	0x3e6d76af	0.23189805
41	0xbe148a6b	-0.14505927
42	0xbde49356	-0.111609146
43	0xbdb10baa	-0.08644803
44	0x3e06a31c	0.13148159
45	0x3e97e012	0.2966314
46	0x3e4ebbaa	0.20188776
47	0x3e5d75a0	0.21626902
48	0x3e66c59b	0.22536318
49	0xbe638cc6	-0.2222167
50	0x3df57b62	0.11986424
51	0xbe502dff	-0.20330046
52	0x3d98f638	0.074688375
53	0x3def2fb2	0.11679019
54	0x3d83b3b6	0.064307615
55	0x3e12bc74	0.14329702
56	0x3e64bc28	0.22337401
57	0xbd2da2fd	-0.042391766
58	0xbe374bfb	-0.17900078
59	0x3e56be8a	0.20971122
60	0x3d8d89f8	0.06911081
61	0xbe6ec6cf	-0.23318027
62	0xbe5a442c	-0.21315068
63	0x3e23e483	0.16005139
64	0xbde40261	-0.11133266
65	0xbd3be4fd	-0.045872677
66	0x3e225220	0.1585164
67	0x3c378fbe	0.011203704
68	0x3d42767c	0.047476277
69	0x3dff3787	0.12461763
70	0xbdba93e3	-0.091102384
71	0xbcb0fc7a	-0.021604765
72	0x3e61297f	0.21988486
73	0xba1bb427	-0.00059396256
74	0xbdea0723	-0.114271425
75	0xbd668b1b	-0.056285005
76	0x3e205d36	0.15660557
77	0xbe26c69f	-0.16286705
78	0xbe12389c	-0.14279407
79	0x3e74081b	0.23831217
80	0x3c9ab8c6	0.018886935
81	0xbe462709	-0.19350828
82	0xbda02f9d	-0.078215815
83	0x3e4b4064	0.19848782
84	0xbdabbecc	-0.08386001
85	0xbe7fadb3	-0.24968605
86	0x3df542fd	0.119756676
87	0xbe10d2e8	-0.14142954
88	0x3cc4e834	0.024036504
89	0xbe59fa82	-0.21286967
90	0x3d3798dd	0.044823516
91	0xbdf840e2	-0.121217504
92	0x3e769df0	0.24083686
93	0xbd12525e	-0.035723083
94	0x3e10b67a	0.1413211
95	0xbdaae4ec	-0.08344445
96	0x3d8fabe7	0.0701521
97	0x3d8f25ec	0.06989655
98	0x3e4ca0a2	0.19983152
99	0x3af010b7	0.0018315528
100	0x3e8dbd60	0.27683544
101	0x3e65ac9b	0.22429125
102	0xbcea0865	-0.028568456
103	0xbc97c07c	-0.0185244
104	0x3d86cac7	0.065816455
105	0x3e63cac5	0.22245319
106	0xbe131b18	-0.14365804
107	0x3e6cccc1	0.23124982
108	0xbe72e539	-0.23720254
109	0x3dc7d568	0.09757501
110	0xbeca290b	-0.39484438
111	0x3e1f743b	0.15571682
112	0xbd9cf385	-0.07663635
113	0x3d0da9cd	0.034585763
114	0xbe0b7274	-0.13617879
115	0x3a7ac316	0.0009565813
116	0xbe664fae	-0.22491333
117	0x3e2e581a	0.17025796
118	0xbcfdaf17	-0.030967278
119	0xbe5f7036	-0.21820149
120	0x3ea21b63	0.3166152
121	0x3e5d5e38	0.21617973
122	0x3d5b4709	0.05353454
123	0xbd6ee824	-0.058326855
124	0xbd692d92	-0.056928225
125	0x3e21e8e5	0.15811498
126	0x3c82c6ea	0.01596399
127	0x3b98f238	0.0046675466

actor.2.weight f4 [128, 128]
0	0xbdb19664	-0.08671263
1	0xbd6ddfa5	-0.058074612
2	0x3b615650	0.0034383722
3	0xbba9b295	-0.0051787593
4	0x3d986058	0.07440251
5	0xbdc68b82	-0.09694578
6	0xbd9e4dd6	-0.0772969
7	0x3d09706a	0.033554472
8	0x3ccfadef	0.025351493
9	0x3d0b82ac	0.034060165
10	0xbd30e403	-0.0431862
11	0xbbb8ed1c	-0.0056435
12	0x3d03c710	0.032172263
13	0xbc057081	-0.008144499
14	0x3db42b3e	0.0879731
15	0xbda48156	-0.08032481
16	0x3c3e18ee	0.011602623
17	0xbd966d1f	-0.07345032
18	0x3bf20e45	0.007386955
19	0x3d80fc9a	0.0629818
20	0x3cdccb05	0.026952276
21	0xbcb5e6e0	-0.022204816
22	0x3d56cc0b	0.052440684
23	0xbcb270a2	-0.021782223
24	0xbc2798a1	-0.010229261
25	0xbe0c07af	-0.13674806
26	0x3cda4150	0.026642472
27	0xbc8ac335	-0.016938785
28	0xbd6e0ba7	-0.05811658
29	0x3d6f779c	0.058463678
30	0x3c229013	0.009922045
31	0x3bbb6ed9	0.005720001
32	0xbd3351e9	-0.043779287
33	0x3c300af3	0.010744798
34	0x3db30c4a	0.08742578
35	0xbdcd5944	-0.10026792
36	0x3bee43e7	0.007271278
37	0xbd924c24	-0.07143429
38	0xbda458e4	-0.08024767
39	0xbdbcb274	-0.09213725
40	0x3d93f25c	0.07223961
41	0xbcb578fd	-0.022152418
42	0x3d892547	0.06696563
43	0x3d5d04d5	0.053959686
44	0x3d6d840e	0.057987265
45	0x3d8417a9	0.06449825
46	0x3b829f90	0.0039863065
47	0x3d375d9a	0.044767
48	0x3cb09d20	0.021559298
49	0x3b2ceab9	0.0026385023
50	0xbddc0a78	-0.10744184
51	0xbcf343c0	-0.029695392
52	0x3d291596	0.04128035
53	0xbd2d376a	-0.042289175
54	0xbcabd9e8	-0.02097793
55	0x3d0e63aa	0.034763016
56	0x3d8ae49d	0.06781886
57	0xbc95942f	-0.018259136
58	0x3d02aba0	0.031901956
59	0xbcc78638	-0.024355993
60	0xbd9790a1	-0.07400633
61	0x3daf1578	0.08549017
62	0x3d74eab7	0.059794154
63	0x3bdccc70	0.006738238
64	0xbd617d32	-0.055051036
65	0x3d8308f6	0.063981935
66	0xbc901566	-0.017588329
67	0xbd73aa36	-0.059488498
68	0xbc93e1f0	-0.018052071
69	0xbdadd8ef	-0.084886424
70	0xbda3dfda	-0.08001681
71	0xbd3c6c57	-0.04600176
72	0xbd460bc5	-0.048351068
73	0x3b781234	0.0037852647
74	0x3c77bfe3	0.015121433
75	0xbcbf5552	-0.023356114
76	0xbd80cb96	-0.06288831
77	0xbd06bfeb	-0.03289787
78	0xbdc0f6e1	-0.094220884
79	0x3c46f00e	0.012142194
80	0xbd9823fd	-0.07428739
81	0x3d3621cb	0.04446582
82	0x3c4c1442	0.012456002
83	0x3dabc5bc	0.08387324
84	0x3d8781af	0.06616532
85	0x3d947cc3	0.07250359
86	0xbcdf6075	-0.027267674
87	0xbc437233	-0.011929083
88	0x3cfd4aa8	0.030919388
89	0xbcdd2938	-0.026997194
90	0xbdc55982	-0.09636213
91	0x3d1f33b3	0.038867664
92	0x3b93a748	0.0045060255
93	0x3cded975	0.027203301
94	0xbc83e96e	-0.016102519
95	0x3d7c69f4	0.061624482
96	0xbd171e83	-0.036894333
97	0xbc3d9972	-0.011572229
98	0xbd94b100	-0.072603226
99	0xbcb7eae3	-0.02245087
100	0xbd89cb0b	-0.067281805
101	0xbd393440	-0.045215845
102	0x3d8c69a8	0.0685609
103	0x3b7dbb85	0.0038716507
104	0xbdbaf4a3	-0.09128692
105	0x3d66307c	0.056198582
106	0xbd004128	-0.031312138
107	0xbc907bd4	-0.01763717
108	0xbc25f097	-0.010128162
109	0xbda47ec6	-0.080319926
110	0x3d93b736	0.07212679
111	0xbdce43a2	-0.10071494
112	0x3dac1d9f	0.08404087
113	0x3db3ff62	0.08788945
114	0xbd6e78d1	-0.05822069
115	0x3cc7ab81	0.024373772
116	0xbc44055e	-0.01196417
117	0xbdb49ae4	-0.088186055
118	0xbcff33ed	-0.03115269
119	0x3d4a3534	0.049367145
120	0xbba2b932	-0.0049659247
121	0xbd87d9ff	-0.06633376
122	0xbd6707cd	-0.056403924
123	0x3d607da8	0.054807335
124	0xbdbadc03	-0.09123995
125	0xbd6b75a4	-0.057485238
126	0xbdbcb5b5	-0.09214345
127	0xbda801d2	-0.08203472
128	0xbdb79696	-0.08964269
129	0xbe443733	-0.19161682
130	0x3d98c1fb	0.07458874
131	0x3c882a38	0.016621694
132	0x3db60621	0.08887888
133	0x3d96d6aa	0.07365163
134	0xbd99b294	-0.07504764
135	0x3c663b73	0.01405226
136	0x3dbb3ed6	0.091428444
137	0x3d80b63d	0.06284759
138	0x3cd518ba	0.026012767
139	0xbd6507ee	-0.055915765
140	0xbd909da8	-0.070613205
141	0xbc7cf8ca	-0.015440175
142	0xbdee9c73	-0.11650934
143	0x3d7616e2	0.060080417
144	0xbe0edd93	-0.13951711
145	0xbc348617	-0.011018298
146	0xbdc900f6	-0.098146364
147	0x3d6d6fcf	0.057967957
148	0x3dc933d9	0.09824342
149	0xb93cf50c	-0.00018020364
150	0x3dd07099	0.10177726
151	0x391c203b	0.00014889326
152	0xbd360e8c	-0.044447467
153	0xbd9fac8e	-0.07796584
154	0x3d985218	0.07437533
155	0x3cf4e29d	0.029893214
156	0x3d7ede98	0.062224
157	0xbd9dc746	-0.07704024
158	0xbd7c6013	-0.06161506
159	0xbd037d09	-0.032101665
160	0x3d52cee4	0.051466838
161	0xbd064ba7	-0.03278699
162	0x3db7f7c9	0.08982808
163	0xbcf5d80e	-0.03001025
164	0x3bf60769	0.0075082076
165	0xbdc99fbe	-0.098449215
166	0x3b92bd5e	0.0044781407
167	0x3dbc70f1	0.09201229
168	0x3d86f587	0.065897994
169	0xbddd9038	-0.10818523
170	0xbb35747f	-0.0027687845
171	0x3d10763f	0.03526902
172	0x3d34fc40	0.044185877
173	0xbd9a8260	-0.07544398
174	0x3d9d84fe	0.07691382
175	0xbdab0af2	-0.08351697
176	0x3c62487d	0.013811228
177	0x3d9bcd38	0.07607502
178	0xbba94101	-0.00516522
179	0xbdd5c8da	-0.104387
180	0xbcc46b4c	-0.023976944
181	0xbd928eea	-0.07156165
182	0xbc6382e6	-0.013886189
183	0x3b26ba0b	0.002544048
184	0xbcf0c7c7	-0.029392136
185	0xbc565b83	-0.0130833415
186	0xbda01042	-0.07815601
187	0xbd9a5dec	-0.075374454
188	0xbd0c7623	-0.03429235
189	0x3d337213	0.04380996
190	0x3dbb9449	0.091591425
191	0xbe2633ea	-0.16230741
192	0xbc7e1e7d	-0.015510199
193	0xbc826cde	-0.015921053
194	0x3d9bc094	0.07605091
195	0x3d2d8291	0.042360846
196	0xbdaa11e7	-0.08304196
197	0xbcb5527f	-0.022134064
198	0xbd7f012a	-0.06225697
199	0xbb2afde3	-0.002609127
200	0x3c9bc7c2	0.01901615
201	0xbc12727d	-0.008938429
202	0xbdd4ab79	-0.10384268
203	0x3c750c24	0.014956508
204	0xbc4cd0eb	-0.012500982
205	0xbc76392d	-0.01502828
206	0xbcb280b3	-0.021789884
207	0xbdc4653c	-0.095896214
208	0xbcb5a567	-0.022173597
209	0xbca681d7	-0.020325584
210	0x3c84bd5b	0.016203573
211	0x3cded1ad	0.02719959
212	0x3c8ad51b	0.01694732
213	0x3d4217e7	0.047386076
214	0xb9e3e013	-0.00043463762
215	0x3c9ad7da	0.018901754
216	0x3c08ad24	0.008342061
217	0x3c8c6e40	0.017142415
218	0x3c241837	0.010015539
219	0x3cfeb2b6	0.031091075
220	0x3c8e468f	0.01736763
221	0xbd5fa642	-0.054601915
222	0x3d9351f5	0.071933664
223	0x3d9e60d3	0.077333115
224	0xbdd61e1b	-0.10454961
225	0xbd75ff28	-0.06005779
226	0x3ced8003	0.028991705
227	0x3da4b424	0.080421716
228	0xbd99d47d	-0.07511232
229	0xbd6107c1	-0.054939035
230	0xbdfbf47e	-0.123024926
231	0xbd123ba6	-0.035701416
232	0x3b9cae59	0.004781526
233	0x3d06b423	0.032886636
234	0xbd14f533	-0.036366653
235	0x3cc897d9	0.02448647
236	0xbd42ec1f	-0.047588464
237	0x3d98f9d4	0.07469526
238	0xbda4391c	-0.08018705
239	0xbdcb1c98	-0.09917563
240	0x3dac7c2e	0.08422123
241	0xbd8a6c19	-0.06758899
242	0x3dbdf70e	0.092756376
243	0xbdc61efc	-0.096738786
244	0x3d5016f9	0.05080316
245	0x3d400fd7	0.046890106
246	0x3d12da54	0.035852745
247	0x3cc0aa5b	0.023518732
248	0x3d1883a2	0.03723491
249	0xbd699f46	-0.05703666
250	0x3d19c044	0.037536874
251	0xbd8a4bdc	-0.0675275
252	0xbe015e18	-0.1263355
253	0x3d83fea6	0.06445055
254	0xbda8c81b	-0.08241292
255	0xbd981adb	-0.07426997

actor.2.bias f4 [128]
0	0xbc4e3665	-0.012586211
1	0xbda2956b	-0.079386555
2	0x3cfa98aa	0.030590374
3	0xbcaaa0d9	-0.020828651
4	0xbd8d3e15	-0.06896607
5	0x3d2f10fb	0.042740803
6	0xbd05b196	-0.032640062
7	0xbd8973dd	-0.06711552
8	0xbe528b65	-0.20560987
9	0xbd956a3b	-0.072956525
10	0xbdba7445	-0.09104208
11	0xbdb75a9f	-0.089528315
12	0x3da65905	0.08122448
13	0x3bff74b6	0.0077958954
14	0xbe723048	-0.2365123
15	0xbc8b6961	-0.017018022
16	0xbdabf691	-0.08396638
17	0x3c16bd4d	0.009200406
18	0x3c0f9731	0.008764074
19	0x3df08025	0.11743192
20	0xbe0297b6	-0.12753186
21	0xbe314db4	-0.17314798
22	0xbda36852	-0.07978882
23	0x3d4e54e6	0.050373934
24	0x3c52c33d	0.012863931
25	0xbe0f05ee	-0.13967106
26	0xbe236b78	-0.15958965
27	0xbda2de7f	-0.07952594
28	0x3c5254a4	0.012837563
29	0xbda2d3f4	-0.07950583
30	0xbceae1a7	-0.028672053
31	0x3df2751b	0.11838742
32	0xbe501cef	-0.20323537
33	0xbd96b4a8	-0.07358676
34	0xbed6819f	-0.41895768
35	0xbd0a6a14	-0.03379257
36	0xbdfcb75a	-0.12339659
37	0xbdf02561	-0.117258795
38	0xbe109405	-0.14118965
39	0x3da88dcb	0.0823017
40	0x3de32bda	0.110923484
41	0xbdb7238d	-0.08942328
42	0x3cf7b08a	0.030235548
43	0x3d9bfd43	0.07616665
44	0x3ddb4008	0.10705572
45	0xbe1ad75e	-0.15121219
46	0xbd13efbf	-0.03611731
47	0xbd94e9db	-0.07271167
48	0xbeccf498	-0.4003036
49	0xbd6955ec	-0.056966707
50	0x3e0ff0d9	0.1405672
51	0xbdcd41c2	-0.10022308
52	0xbe0611f6	-0.13092789
53	0x3c68c9cf	0.014208271
54	0xbe138223	-0.14405112
55	0xbe8906b3	-0.26762924
56	0x3d9585dc	0.07300922
57	0x3c86ad6c	0.016440116
58	0xbd014cbb	-0.031567317
59	0xbe0facbf	-0.14030741
60	0xbe0be086	-0.13659868
61	0x3d97efa3	0.07418754
62	0x3dc98d61	0.09841419
63	0x3da68ca1	0.081322916
64	0xbd8add4e	-0.06780492
65	0xbdeb9c9a	-0.11504479
66	0xbd9163f5	-0.070991434
67	0xbdfb13df	-0.122596495
68	0x3c486d37	0.01223307
69	0xbdeda1cc	-0.11603126
70	0xbd26a21a	-0.040681936
71	0xbe832c66	-0.2561981
72	0xbbffa296	-0.007801364
73	0xbe224c54	-0.1584943
74	0x3dfb8dfb	0.1228294
75	0x3d2c2373	0.042025995
76	0xbd76da8f	-0.060267027
77	0xbe4c9154	-0.19977313
78	0xbd831fa3	-0.064025186
79	0xbda9b922	-0.082872644
80	0x3c6316c3	0.013860407
81	0x3a15ea36	0.0005718799
82	0xbd1bdb6d	-0.038051058
83	0x3bc53670	0.0060184523
84	0x3be60250	0.0070193186
85	0xbd04b683	-0.03240062
86	0xbe05cd7a	-0.13066664
87	0xbe07c9d2	-0.13260582
88	0x3d8648e6	0.06556873
89	0xbe2d0fdd	-0.16900583
90	0x3d555350	0.052081406
91	0x3da58231	0.08081473
92	0xbda0a577	-0.0784406
93	0xbe554971	-0.20828797
94	0xbcce69e5	-0.025196979
95	0x3c596fdf	0.013271301
96	0xbcbf54c7	-0.023355855
97	0xbe890c99	-0.26767424
98	0x3db7cb97	0.089743786
99	0x3d1a7a38	0.037714213
100	0xbbbc24e7	-0.005741704
101	0xbe2ce5e6	-0.16884574
102	0xbda195cf	-0.07889902
103	0xbddbb3d6	-0.1072766
104	0xbc7b357e	-0.015332578
105	0xbdce0810	-0.100601315
106	0xbd8dc375	-0.06922046
107	0x3e259c5b	0.16172926
108	0xbdbd972e	-0.09257351
109	0xbdb5d473	-0.08878412
110	0xbd48c540	-0.049016237
111	0x3d2ef779	0.042716477
112	0xbde972c6	-0.113988444
113	0x3cc20e20	0.023688376
114	0x3df200a9	0.11816532
115	0xbdb9e2ee	-0.090764865
116	0xbdc44674	-0.0958375
117	0x3cf6c89e	0.030124959
118	0xbdd77157	-0.10519665
119	0xbe00ec05	-0.12590034
120	0xbd369831	-0.044578735
121	0x3d9b93cb	0.07596549
122	0x3daa1b94	0.08306041
123	0x3b232640	0.0024894625
124	0xbd9b5959	-0.07585401
125	0xbd05f203	-0.032701503
126	0xbe171738	-0.14754951
127	0x3d1dd093	0.03852899

actor.4.weight f4 [128, 128]
0	0xbd1cc950	-0.038277924
1	0x3b1e638f	0.0024168228
2	0x3ca04a3a	0.019566644
3	0x3d47ff55	0.048827488
4	0x3d6ae49c	0.057346925
5	0xbcc96b98	-0.024587438
6	0xbcd26b79	-0.025686013
7	0x3cb9aa66	0.02266426
8	0xbd9db30c	-0.07700166
9	0xbdb4007c	-0.08789155
10	0x3d859fe6	0.06524639
11	0xbd91512d	-0.07095561
12	0x3df33830	0.11875951
13	0xbcc8eda8	-0.024527386
14	0xbda225a8	-0.079173386
15	0xbd06c9c5	-0.032907266
16	0xbccb24e0	-0.024797857
17	0xbd84f1cb	-0.06491431
18	0xbd8306bc	-0.06397769
19	0xbd76b78a	-0.06023363
20	0xbd344f4b	-0.044020932
21	0x3d7027c0	0.05863166
22	0xbd91d4d1	-0.0712067
23	0xbd08947d	-0.033344734
24	0xbd98fbcd	-0.07469902
25	0xbb19b649	-0.0023454598
26	0xbd4075ab	-0.046987217
27	0xbd841bde	-0.06450628
28	0xbd7d4348	-0.061831743
29	0x3d1f8a51	0.03895027
30	0xbc385aeb	-0.011252145
31	0xbd9f1b33	-0.0776886
32	0xbc886f08	-0.016654506
33	0xbdc27291	-0.09494508
34	0x3d93f931	0.07225264
35	0xbc8a20e3	-0.016861385
36	0x3b84c8b2	0.004052245
37	0xbd8c44d1	-0.06849063
38	0x3cb46137	0.022019012
39	0x3d461b52	0.0483659
40	0x3d7d6040	0.06185937
41	0xbdb8fdef	-0.09032809
42	0x3d80412f	0.06262433
43	0xbcb29b46	-0.021802556
44	0xbc0a9e62	-0.008460613
45	0x3d3bdffa	0.045867898
46	0xbc5006d3	-0.0126969395
47	0x3c59216e	0.013252599
48	0xbadad914	-0.0016696774
49	0xbdb8223a	-0.08990903
50	0xbcd65416	-0.026163142
51	0x3d29f3fc	0.041492447
52	0xbcac2234	-0.021012403
53	0x3b3895f4	0.002816555
54	0xbb760abf	-0.0037543026
55	0x3ce06e75	0.02739642
56	0x3d816680	0.063183784
57	0xbddf54bd	-0.109048344
58	0x3da53d47	0.08068328
59	0xbd492ca5	-0.049114842
60	0xbd6554fb	-0.055989247
61	0x3dab1652	0.08353867
62	0x3bbbe18f	0.005733676
63	0x3c623a39	0.013807827
64	0xbdc3c247	-0.0955854
65	0x3cecfe9a	0.028929997
66	0x3d3d9d52	0.04629261
67	0xbdafbcf4	-0.08580962
68	0x38f384f6	0.00011611909
69	0x3d86eeda	0.06588526
70	0xbd818f49	-0.063261576
71	0x3a821d26	0.00099269
72	0xbc7bd52c	-0.015370648
73	0xbd5215dc	-0.051290378
74	0x3d83c623	0.06434276
75	0x3d387099	0.045029256
76	0x3d6360a7	0.055512097
77	0x3d0fc3b1	0.035098735
78	0xbd0bed8b	-0.034162086
79	0x3d045b7b	0.032313805
80	0xbd3a0f0c	-0.045424506
81	0xbda5f0bf	-0.08102559
82	0xbd3758e1	-0.044762496
83	0x3c6d0141	0.014465631
84	0xbcd00de9	-0.025397258
85	0xb710ac6a	-8.623212e-06
86	0x3ce377a4	0.02776701
87	0x3d956813	0.07295241
88	0x3de5b8f3	0.11216917
89	0xbba7a6d1	-0.0051163216
90	0x3d1f89b1	0.038949672
91	0xbdc44012	-0.09582533
92	0x3d59546a	0.05305902
93	0x3dbc5eb6	0.09197752
94	0xbb8b795e	-0.0042564115
95	0xbdaef401	-0.08542634
96	0xbd9d84ae	-0.07691322
97	0x3da518f5	0.08061401
98	0xbd1637d4	-0.036674336
99	0xbc4bf1fc	-0.01244783
100	0xbd997905	-0.07493786
101	0xbcb8008b	-0.022461196
102	0xb99de53b	-0.00030116164
103	0xbd40e921	-0.04709733
104	0xbd09c40c	-0.03363423
105	0x3a6beb65	0.0008999615
106	0x3d56cbdb	0.052440505
107	0x3d7d9031	0.06190509
108	0xbd130948	-0.035897523
109	0x3c8305e1	0.015994014
110	0x3c0cbf06	0.008590465
111	0x3a49f317	0.0007703765
112	0xbd491bbe	-0.049098723
113	0xbcb05d0e	-0.021528747
114	0xbdb29208	-0.087192595
115	0x3d497097	0.04917964
116	0x3d2b39ac	0.041803047
117	0x3d37b838	0.04485342
118	0x39ecbbfb	0.00045153484
119	0xbd6e5f28	-0.058196217
120	0xbd546181	-0.0518508
121	0xbe041bf5	-0.1290129
122	0xbc1ed926	-0.009695327
123	0x3c2221f3	0.009895789
124	0x3c6339bd	0.013868746
125	0x3db2275e	0.08698915
126	0x3c352877	0.011057011
127	0xbd4eba75	-0.050470788
128	0xbd84bc09	-0.06481177
129	0x3dce859f	0.1008408
130	0x3d853fbd	0.06506298
131	0xbcbb35a5	-0.022852728
132	0x3d96ed7f	0.073695175
133	0x3c48cb5e	0.012255518
134	0x3d312cee	0.04325574
135	0xbd0de2ea	-0.03464023
136	0xbcde094d	-0.027104044
137	0x3d404be8	0.04694739
138	0x3c42b2eb	0.011883478
139	0xbd188a9f	-0.037241574
140	0x3d0dcdd2	0.034620114
141	0x3d50244f	0.050815877
142	0x3dc04f57	0.09390133
143	0xbc6cd9c5	-0.014456217
144	0x3d167bbd	0.0367391
145	0x3d4063b4	0.046970084
146	0x3d34e2ec	0.044161722
147	0xbca87b6f	-0.02056667
148	0xbd403721	-0.046927575
149	0x3d8a8350	0.06763327
150	0xbd0dcd16	-0.034619413
151	0xbd4b12bf	-0.049578425
152	0xbd8af64a	-0.06785257
153	0x3a592563	0.0008283464
154	0xbce585fc	-0.02801799
155	0xbcc4d959	-0.02402942
156	0x3dfc5195	0.12320248
157	0xbc6deb59	-0.014521443
158	0x3d3a89a1	0.04554141
159	0xbd79f5ac	-0.061025307
160	0x3db1e9eb	0.086871944
161	0x3c4d8fe3	0.012546512
162	0x3dff5963	0.12468221
163	0x3d64dcd3	0.055874657
164	0x3dc11c46	0.09429221
165	0x3ddf88c5	0.109147586
166	0xbb1911d2	-0.002335657
167	0x3d09d93a	0.03365443
168	0xbcaf9a80	-0.021435976
169	0xbd4517c1	-0.048118357
170	0xbd1a579e	-0.037681215
171	0x3d15dcb8	0.036587447
172	0x3bca930a	0.006182079
173	0x3c036880	0.00802052
174	0x3b0ffb29	0.0021969771
175	0x3bbf30b6	0.005834664
176	0x3de54540	0.11194849
177	0xbd1c0a60	-0.038095832
178	0x3d7ea035	0.062164504
179	0x3d740db3	0.059583377
180	0xbd74e24a	-0.05978612
181	0xbdac6549	-0.08417756
182	0x3d861630	0.06547201
183	0x3c8c6857	0.017139597
184	0x3da8249f	0.0821011
185	0xbd688eba	-0.05677674
186	0x3cb1b1c2	0.021691207
187	0x3db49072	0.08816613
188	0x3d400851	0.04688293
189	0xbdac5512	-0.084146634
190	0x3cd23035	0.025657753
191	0x3db72df5	0.089443125
192	0xbc311c84	-0.010810021
193	0xbd104960	-0.035226226
194	0xbd0c69c9	-0.034280572
195	0x3d6bf5e7	0.057607558
196	0xbdbb359c	-0.091410846
197	0xbabf222c	-0.0014582328
198	0xbd84c5f7	-0.06483071
199	0x3dd65c4e	0.104668245
200	0x3bdc2358	0.0067180805
201	0xbcd86233	-0.026414013
202	0xbc00511c	-0.007831838
203	0x3d9467cd	0.07246361
204	0x3d83fca2	0.0644467
205	0xbd352162	-0.04422129
206	0xbdb01fe7	-0.08599835
207	0xbc68a57f	-0.014199614
208	0x3d404c30	0.046947658
209	0xbcad0674	-0.021121241
210	0x3c8aa9aa	0.016926605
211	0x3c3cd39a	0.011525059
212	0xbc9fe5a6	-0.019518685
213	0x3da30ffb	0.079620324
214	0x3c6ddf86	0.014518624
215	0xbcc4ab3b	-0.02400743
216	0x3d95e9ab	0.07319959
217	0x3c3e084a	0.011598656
218	0xbbbea7e9	-0.0058183563
219	0x3db04d0f	0.08608448
220	0xbcd06db1	-0.02544293
221	0x3d8e047d	0.0693445
222	0x3dab6daf	0.0837053
223	0xbd9c5a49	-0.07634408
224	0x3d7ddcd6	0.061978184
225	0x3d94f3b9	0.07273049
226	0xbd418a09	-0.04725078
227	0x3d3226cb	0.043494027
228	0xbd34f800	-0.044181824
229	0x3d948785	0.07252411
230	0x3dbf8278	0.09351057
231	0xbd402415	-0.04690941
232	0x3c786758	0.015161358
233	0x3db11c3a	0.08647962
234	0x3db5e88f	0.08882248
235	0x3d7f7308	0.06236556
236	0x3caad5ff	0.020853994
237	0x3d1d6e67	0.038435366
238	0x3c1bbe0d	0.009505761
239	0xbda1e015	-0.079040684
240	0xbd797328	-0.060900837
241	0x3c01bd92	0.007918732
242	0xbc07f367	-0.008297778
243	0xbdafa66d	-0.08576665
244	0xbd41de1b	-0.047330957
245	0xbc7d81ad	-0.015472812
246	0xbdb9e5c7	-0.0907703
247	0xbd230ec5	-0.039809007
248	0x3caa5d6f	0.020796506
249	0xbd4c0d99	-0.049817655
250	0x3cad0708	0.021121517
251	0xba8d6d7f	-0.0010790079
252	0xbd2dcbf6	-0.04243084
253	0x3d84066d	0.06446538
254	0xbc55a40f	-0.013039603
255	0x3c5b7137	0.013393692

actor.4.bias f4 [128]
0	0x3c99deba	0.018782962
1	0xbd910bfa	-0.070823625
2	0x3d57e2dd	0.052706588
3	0xbde6e701	-0.11274529
4	0x3c0e22c2	0.008675279
5	0x3ddbe33f	0.10736703
6	0xbd7a5e13	-0.061124872
7	0x3be52cf7	0.0069938856
8	0x3d5cf0bc	0.05394052
9	0xbd430599	-0.04761276
10	0xbda57922	-0.08079745
11	0xbceeb550	-0.02913919
12	0xbd69c393	-0.05707128
13	0xbc1f520a	-0.0097241495
14	0x3ce7419c	0.028229527
15	0x3c4f1fd9	0.01264187
16	0x3d7f4ca4	0.06232895
17	0x3c934988	0.017979398
18	0xbcd393d9	-0.025827335
19	0xbd69f77e	-0.057120793
20	0xbd893575	-0.06699649
21	0x3d092b18	0.033488363
22	0xbc95608a	-0.01823451
23	0x3d4eb4d8	0.050465435
24	0xbd216efc	-0.039412484
25	0x3c5efea0	0.013610512
26	0x3c0af2b1	0.008480714
27	0x3bd20336	0.006409074
28	0xbd86a754	-0.06574884
29	0x3da962bd	0.08270786
30	0xbcdfd454	-0.027322926
31	0x3d336be7	0.043804076
32	0xbcc2a550	-0.023760468
33	0x3d28f977	0.041253533
34	0xbd3cbe4b	-0.046079915
35	0xba846d0d	-0.00101033
36	0x3ddda0a1	0.10821653
37	0x39520a11	0.0002003091
38	0xbcfd800e	-0.03094485
39	0xbcb89e42	-0.0225364
40	0xbde24580	-0.11048412
41	0xbdb87c05	-0.0900803
42	0xbd85907f	-0.06521701
43	0xbd90dab5	-0.07072965
44	0xbd32c13d	-0.043641318
45	0xbd8f59c5	-0.06999544
46	0x3c8fd91b	0.017559579
47	0xbb2c1e5a	-0.0026263208
48	0x3d06e8a5	0.03293671
49	0x3dc13763	0.09434392
50	0xbd12b156	-0.035813652
51	0x3caa4d27	0.020788742
52	0x3d25d9d3	0.040490936
53	0xbd0d7ac1	-0.034540895
54	0x3c8833be	0.016626235
55	0x3d419091	0.04725701
56	0xbda9f3f2	-0.08298482
57	0xbd42855e	-0.04749047
58	0x3c9a3c15	0.018827477
59	0xbd497e54	-0.04919274
60	0x3dbb766e	0.09153448
61	0x3d01eee6	0.031721972
62	0xbd46e5f7	-0.048559155
63	0xbde4ed00	-0.11178017
64	0xbc81cc90	-0.015844613
65	0xbd0b4403	-0.034000408
66	0xbbcb06f0	-0.0061958954
67	0x3de49b77	0.11162465
68	0x3e034ecf	0.12823032
69	0x3d5a86e0	0.053351283
70	0xbde05c62	-0.109551206
71	0xbc661863	-0.0140439
72	0xbd2b161a	-0.041769125
73	0x3dbf44a8	0.09339267
74	0x3c8bb725	0.017055104
75	0xbce6d4b1	-0.028177591
76	0xbd513ba2	-0.05108226
77	0xbe42160b	-0.18953721
78	0x3dddc75a	0.10829039
79	0xbd614e36	-0.05500623
80	0xbde0bfe3	-0.109740995
81	0xbd549e05	-0.05190851
82	0x3c8b4c5d	0.017004186
83	0x3c3d8d4e	0.011569334
84	0x3c719679	0.014745348
85	0x3c76e333	0.015068817
86	0xbd2611be	-0.040544264
87	0xbccf39d3	-0.025296127
88	0x3d80fbc1	0.06298018
89	0xbdfe83ad	-0.12427459
90	0x3d936eb6	0.07198851
91	0x3db5d891	0.088791974
92	0x3ce52692	0.027972493
93	0xbe29635b	-0.16541807
94	0xbd75c764	-0.060004607
95	0x3c9611f1	0.018319102
96	0xbda59525	-0.08085088
97	0xbe14d18b	-0.1453306
98	0xbad9b500	-0.0016609728
99	0x3db1899e	0.086688265
100	0xbd2bb6f5	-0.04192253
101	0xbe0cf7b4	-0.13766366
102	0xbe0f9da3	-0.14024977
103	0x3d0f6542	0.035008676
104	0xbdf1dddd	-0.11809895
105	0x3c446aae	0.011988325
106	0xbd3c1315	-0.045916636
107	0x3d20254c	0.03909807
108	0x3d8fcbbc	0.07021281
109	0xbdb05c58	-0.08611363
110	0x3d83f700	0.06443596
111	0xbe1c7202	-0.15277866
112	0xbdba53e0	-0.09098029
113	0xbe0b99e1	-0.13632919
114	0x3da32451	0.07965911
115	0xba14f98d	-0.0005682938
116	0xbe085953	-0.13315324
117	0xbe123a3a	-0.14280024
118	0xbdee75e9	-0.11643583
119	0xbc4a74e1	-0.012356968
120	0x3db403d8	0.08789796
121	0x3ccddb46	0.025128972
122	0x3dfc7805	0.123275794
123	0x3d36f66f	0.04466861
124	0x3ce5ee24	0.028067656
125	0x3c316ff0	0.010829911
126	0xbe0b8b73	-0.13627414
127	0xbc0777a9	-0.008268275

actor.6.weight f4 [8, 128]
0	0x3d6e464c	0.05817251
1	0x3d8337ca	0.06407125
2	0xbcd5b43f	-0.026086925
3	0x3ddb799f	0.10716557
4	0xbb75bf1f	-0.003749795
5	0xbdb2de92	-0.08733858
6	0x3d850bd3	0.06496396
7	0xbc001040	-0.007816374
8	0xbd92939b	-0.0715706
9	0xbdf61522	-0.120157495
10	0xbd65f24f	-0.056139287
11	0x3d09d7c8	0.03365305
12	0xbcb517ca	-0.02210607
13	0xbd77b042	-0.060470827
14	0xbd5c0a4b	-0.053720754
15	0xbd4af9ac	-0.049554512
16	0xbbe573f1	-0.0070023467
17	0xbd418585	-0.047246475
18	0xbda45d71	-0.08025635
19	0xba9c0459	-0.0011903151
20	0xbafb9743	-0.001919486
21	0x3c48f996	0.012266537
22	0xbd765a9f	-0.060145017
23	0x3b7a8963	0.0038228862
24	0x3d91176e	0.07084547
25	0xbd41530c	-0.04719834
26	0x3aa8ba23	0.0012872856
27	0x3bf853a8	0.007578332
28	0xbd505ff2	-0.05087275
29	0xbc1c605b	-0.009544457
30	0xbc9e920c	-0.01935675
31	0x3c1133a5	0.008862411
32	0x3d47cc12	0.0487786
33	0x3d88098b	0.06642445
34	0x3da70fa5	0.08157281
35	0xba9c45b7	-0.0011922632
36	0xbd8c54b1	-0.06852091
37	0x3bdac809	0.006676678
38	0xbd8fe560	-0.07026172
39	0x3cc7cf26	0.024390768
40	0x3d1e1026	0.03858962
41	0xbb8d69b9	-0.0043155816
42	0xbd6775a4	-0.056508675
43	0xbbc8b8be	-0.0061255386
44	0xbd2e7825	-0.042595048
45	0xbcdfaf57	-0.027305288
46	0x3d02dbb7	0.031947818
47	0xbd381ca7	-0.0449492
48	0x3c742f06	0.014903789
49	0xbc6de4c6	-0.014519876
50	0xbce43187	-0.027855648
51	0x3d9ac458	0.07556981
52	0xbcee0ac0	-0.02905786
53	0xbd525b16	-0.051356398
54	0x3d011f48	0.031523973
55	0xbc9fcb10	-0.019506007
56	0x3bf089e3	0.007340656
57	0xbd71b63d	-0.059011687
58	0x3d4c9a19	0.049951646
59	0x3cf84240	0.030305028
60	0xbb2a530f	-0.0025989448
61	0x3cbd5150	0.023110062
62	0x3db587b7	0.08863776
63	0xbb1e5cd4	-0.0024164217
64	0xbdf8098e	-0.121111974
65	0x3d2612ab	0.040545147
66	0xbcdc1081	-0.026863338
67	0xbcaeb9f3	-0.021328902
68	0xbd00ce8b	-0.031446975
69	0xbd03db83	-0.032191765
70	0x3dce32c8	0.100682795
71	0xbd307c9d	-0.04308759
72	0x3c83f91f	0.016110001
73	0x3d0852e3	0.033282172
74	0xbc243fca	-0.010024974
75	0xbd13de76	-0.036100827
76	0x3c41194d	0.011785817
77	0x3d4bc74b	0.049750607
78	0xbd3fb7db	-0.046806198
79	0x3b4da6b5	0.0031379883
80	0xbc0bb6ec	-0.008527499
81	0x3bb96228	0.005657453
82	0x3d7cdd8c	0.06173472
83	0xbcbc46d6	-0.022982996
84	0xbdb392e1	-0.08768249
85	0xbd8f4d37	-0.069971494
86	0x3d810c5f	0.06301188
87	0x3d86a111	0.0657369
88	0xbd5c21f8	-0.053743333
89	0x3d836669	0.064160176
90	0x3d820be0	0.06349921
91	0xbd1b2c4d	-0.037884045
92	0xbd3e6f8d	-0.046493102
93	0x3d85b0dc	0.06527874
94	0x3c932981	0.017964127
95	0xbcaeefef	-0.021354644
96	0xbb7a6418	-0.0038206633
97	0x3d8095bd	0.0627856
98	0xbd3f1d7f	-0.04665899
99	0x3c8f015b	0.017456701
100	0xbc03014f	-0.007995917
101	0x3d467712	0.048453398
102	0x3d482a28	0.04886833
103	0xbd7a44a9	-0.061100636
104	0x3d833197	0.06405943
105	0x3c1b78b8	0.009489231
106	0xbc280b2a	-0.010256568
107	0xbd7098fc	-0.058739647
108	0x3ac48578	0.001499339
109	0x3cd26889	0.025684612
110	0xbd5467f9	-0.05185697
111	0x3d84ca79	0.06483931
112	0x3d6a0e2c	0.05714242
113	0x3d96442f	0.07337224
114	0x3c057e0b	0.008147727
115	0x3d804ebd	0.06265018
116	0x3d622443	0.055210363
117	0x3d9c0ac0	0.07619238
118	0x3cc9106f	0.024543969
119	0x3d5bc1cc	0.053651616
120	0xbdc6900a	-0.09695442
121	0x3d08d555	0.033406574
122	0xbbeab89b	-0.00716312
123	0xbc5a6537	-0.013329796
124	0x3da38f77	0.07986348
125	0xbd89503d	-0.06704757
126	0x3dafa3f4	0.085761935
127	0xbc2f5e4a	-0.010703633
128	0xbd0f731a	-0.03502188
129	0xbd65dc01	-0.056118015
130	0x3dbd0e10	0.09231198
131	0x3d7c0455	0.06152757
132	0xbd8cc9cd	-0.06874428
133	0xbd73aa8e	-0.059488826
134	0x3d51a655	0.051184017
135	0xbcdbd45d	-0.026834661
136	0x3c833826	0.016017985
137	0x3bed6366	0.007244515
138	0xbcf6a0e1	-0.03010601
139	0xbd0d80b6	-0.034546576
140	0xbcd7e8d9	-0.026356148
141	0x3d989498	0.07450217
142	0xbcbfe40a	-0.023424167
143	0x3caf6799	0.021411704
144	0x3ab61288	0.0013891021
145	0xbca055bf	-0.019572137
146	0xbd241083	-0.04005481
147	0xbdacf7f5	-0.084457316
148	0xbcb01369	-0.02149363
149	0xbd7748ec	-0.060372278
150	0xbcc7bbcd	-0.024381543
151	0x3ca2778f	0.0198324
152	0xbd38f47a	-0.045155026
153	0xbd6a6d3f	-0.05723309
154	0xbd6a335e	-0.057177894
155	0xbd29152c	-0.041279957
156	0xbc77a4b1	-0.015114949
157	0xbd80b561	-0.06284595
158	0x3d3f7a27	0.046747353
159	0x3dcc4239	0.099735685
160	0xbda55fcc	-0.080749124
161	0xbca595a9	-0.020212965
162	0xbd967b04	-0.07347682
163	0x3db88840	0.090103626
164	0xbcd0be08	-0.025481239
165	0xbd63af1d	-0.055586923
166	0xbd1f6e2e	-0.038923435
167	0xbd0f6d37	-0.035016265
168	0x3c166b5b	0.009180869
169	0xbd0c67dc	-0.034278736
170	0x3d8e1c90	0.069390416
171	0x3d05e67a	0.032690503
172	0xbbe0c60c	-0.0068595465
173	0xbd28311e	-0.041062467
174	0x3cf3e67a	0.029772986
175	0xbcb652f6	-0.022256356
176	0x3c95eea2	0.018302266
177	0xbca10a93	-0.019658362
178	0xbd1c08a4	-0.038094178
179	0x3d6f0785	0.05835678
180	0x3cb206ca	0.021731753
181	0xbd6add9e	-0.057340257
182	0x3d875c8f	0.06609451
183	0xbcf98822	-0.030460421
184	0x3be538f9	0.006995317
185	0xbdb233b5	-0.087012686
186	0x3be89b2f	0.0070985775
187	0xbc95912e	-0.018257704
188	0x3dba807b	0.09106537
189	0xbc5711d0	-0.013126805
190	0x3d4b5ca0	0.04964888
191	0xbd317060	-0.04332006
192	0x3bba5482	0.0056863436
193	0x3c86d26b	0.016457757
194	0x3a5610f1	0.00081659766
195	0x3bceea80	0.0063145757
196	0x3b8d4aa9	0.0043118787
197	0x3b936796	0.0044984324
198	0x3d5e2760	0.05423677
199	0xbd87a1f1	-0.06622685
200	0x3b997a92	0.004683801
201	0x3ba5a48b	0.0050550154
202	0xbc38c569	-0.011277535
203	0xbce72cc1	-0.028219583
204	0x3d0eb0a1	0.034836415
205	0x3d33c406	0.043888114
206	0xbd3c4207	-0.045961406
207	0x3cff4615	0.031161347
208	0x3d19496c	0.037423536
209	0x3d0ba228	0.03409019
210	0xbc79a734	-0.015237618
211	0xbca9d8a5	-0.020733187
212	0xbd645510	-0.055745184
213	0x3d809e35	0.062801756
214	0xbd829d84	-0.063777
215	0xbd6f0f84	-0.058364406
216	0xbd57d78c	-0.052695796
217	0x3d12d20f	0.03584486
218	0xbcbea47d	-0.023271793
219	0x3cbb0c63	0.022833055
220	0x3d0586a2	0.0325991
221	0x3ce172e0	0.027520597
222	0xbda26ea6	-0.07931261
223	0x3d8f419a	0.069949344
224	0xbcaa0ce8	-0.020758107
225	0x3d146dfa	0.036237694
226	0x3d5e457a	0.054265477
227	0x3cc48865	0.02399082
228	0x3aa469fe	0.0012543795
229	0xbd0f912b	-0.035050552
230	0x3b7a6282	0.0038205688
231	0xbc94e37e	-0.018174883
232	0xbd364c2e	-0.044506244
233	0xbdab5f33	-0.08367767
234	0xbbcdfe4b	-0.0062864176
235	0x3cd5767b	0.026057472
236	0xbc7323a2	-0.0148400385
237	0xbd78571c	-0.06062995
238	0x3cacd6d0	0.021098524
239	0xbd30e52d	-0.04318731
240	0x3d0f5cea	0.03500072
241	0xbca75f6c	-0.020431243
242	0xb9930c24	-0.0002804707
243	0x3cc6d409	0.024271028
244	0x3a72011b	0.0009231732
245	0xbceac606	-0.028658878
246	0x3cfedc95	0.031111041
247	0xbbec243e	-0.007206469
248	0x3d82b116	0.06381433
249	0x3d0d4b0c	0.0344954
250	0x3cb6f96d	0.022335732
251	0xbc737a90	-0.014860764
252	0xbce74929	-0.028233128
253	0x3dae36d2	0.0850655
254	0x3d956435	0.072945036
255	0xbca7c145	-0.0204779

actor.6.bias f4 [8]
0	0x3cb279d1	0.021786602
1	0xbd18d000	-0.03730774
2	0x3d12dd60	0.03585565
3	0x3b990432	0.0046696896
4	0x3d633813	0.0554734
5	0x3cd78668	0.026309207
6	0x3c58a9df	0.013224094
7	0xbd27a738	-0.040930957
