ISAAC_NOGIT/logs/rsl_rl/traquad_flat/2025-09-16_12-39-05/model_250.pt (torch, 925483 bytes, 48 tensors)

std f4 [8]
0.20577812 0.1610376 0.19328173 0.19125898 0.5326006 0.5935707 0.63763887 0.4769389
00000000: 80b7 523e 0ae7 243e a5eb 453e 65d9 433e
00000010: 8358 083f 40f4 173f 4d3c 233f 5631 f43e

actor.0.weight f4 [128, 31]
-0.49430588 -0.10364385 0.01634528 0.5633553 0.4685163 -0.028388238 0.89942616 -0.30252632
-0.079183966 0.50517416 -0.044648014 -1.1079974 -1.0450344 1.2319307 0.33209193 -0.08055978
-0.13267201 0.32008603 0.20613833 0.042558726 -0.04368717 -0.04024855 -0.0955948 -0.061731968
0.115522936 0.0090166535 0.05594596 -0.04901883 0.048155457 -0.16059624 -0.019516231 -0.25542268
0.11208583 0.3886712 0.14118809 0.019025438 0.015716104 -0.007820222 0.3175675 0.35057428
-0.04600872 -0.55845714 -0.94584286 1.0750544 0.7179426 -0.37650508 -0.056987964 0.014560682
0.33222872 -0.25263292 0.0058571673 0.030232834 -0.025736805 -0.0057221595 0.40544143 0.32787898
0.7178461 -0.08235285 -0.2438274 -0.12475254 0.15667056 -0.50532126 0.14044164 0.052478727
0.44991198 0.027920648 0.118725166 -0.60989684 0.5631569 0.29619005 0.0036122836 1.5874683
-0.21422195 -0.29777965 0.098736376 -0.20177837 0.49579513 0.04926733 -0.10371603 0.28221047
-0.06911778 0.0051522763 -0.0020567873 0.058637492 -0.0681832 -0.14373627 0.20985252 -0.11125893
-0.40917653 -0.046975825 -0.2220765 -0.15311763 0.50051427 0.034409728 -0.24714091 0.5346754
0.009048065 -0.22130832 -0.094697125 -0.3558587 -0.2043384 0.1450659 -1.493817 -0.43422905
1.0552248 0.004076848 -0.2654702 -0.0907956 0.14098883 0.15339434 0.1759338 0.17606565
0.029003603 0.036632843 -0.086043514 0.030930351 0.1007994 0.25195342 -0.012817918 0.3332078
0.16697659 -0.19588672 0.15818599 -0.33544102 0.65008956 0.37726095 -0.71999395 -0.7601022
0.0314852 -0.098188244 -0.9465414 1.0869384 -0.031244446 1.3442469 -0.69605947 0.46309507
1.8965664 -0.9110139 -0.9455624 0.17404056 0.16667823 -0.31734395 0.021174327 0.0077746
0.0017048757 -0.00054309884 -0.020714557 -0.0773918 -0.22405918 0.28818452 -0.039893057 -0.25816327
-0.058333583 -0.08651664 0.3127298 0.14147533 0.37606344 0.87950486 -0.5828496 -0.034116495
-0.036371876 0.61542386 0.85850453 -0.04060313 0.3300377 -0.2269354 -0.84126633 0.37319157
-0.59796214 0.94886076 -0.059466604 0.17847294 -0.061929546 0.048361383 0.068655096 0.1045564
-0.051316697 0.03738896 -0.11076466 0.09415407 -0.00021259583 -0.2799983 -0.28047332 -0.018080493
0.14499666 0.03863119 -0.30742225 0.35252154 1.1858459 -0.5242185 0.14890568 -0.16478989
0.45682085 1.2683332 0.04318743 0.55740625 0.4093185 0.04280638 -0.96898687 -0.9903928
1.8208516 0.17841193 -0.040146157 -0.18197294 0.36350653 -0.0005210477 -0.0055222875 -0.00880464
0.0051134885 0.0127461525 0.21056622 0.095751844 0.012516454 -0.17923549 -0.008694991 0.044446345
-0.048159786 0.8443155 -0.052282702 -0.036826223 -0.37716746 -0.14643319 0.013435103 -0.39259133
0.67075276 -0.070351824 2.033851 0.19619553 0.17067386 1.3919638 -0.78220123 -0.35635296
0.024694363 0.11817649 0.04410927 0.047997046 -0.011020169 -8.7978944e-05 -0.017568951 -0.051191553
-0.066121615 -0.15606323 -0.07134457 0.17398778 -0.032555297 -0.103933655 0.023845252 0.45498624
0.04189999 0.57677275 0.09211018 -0.9075577 -0.038693503 -0.2990623 -0.73978686 0.7927085
00000000: a915 fdbe 3a43 d4bd 89e6 853c 0e38 103f
00000010: 5ee1 ef3e 738e e8bc cb40 663f bbe4 9abe
00000020: 342b a2bd 1853 013f d6e0 36bd dcd2 8dbf
00000030: b0c3 85bf e8af 9d3f f407 aa3e 87fc a4bd
00000040: 2cdb 07be 51e2 a33e ed15 533e 0f52 2e3d
00000050: 51f1 32bd aadb 24bd 35c7 c3bd a9da 7cbd
00000060: 4a97 ec3d 96ba 133c 9727 653d f8c7 48bd
00000070: a83e 453d 5773 24be 81e0 9fbc c3c6 82be
00000080: 418d e53d e9ff c63e 9c93 103e 3cdb 9b3c
00000090: 0fbf 803c 6320 00bc 3598 a23e 797e b33e
000000a0: a473 3cbd 0cf7 0ebf c222 72bf 629b 893f
000000b0: 16cb 373f 46c5 c0be 366c 69bd ed8f 6e3c
000000c0: e219 aa3e 1a59 81be 7bed bf3b d9aa f73c
000000d0: fed5 d2bc f480 bbbb 0596 cf3e c1df a73e
000000e0: c3c4 373f 9ca8 a8bd e4ad 79be 427e ffbd
000000f0: 3f6e 203e bc5c 01bf efcf 0f3e eff3 563d
00000100: dd5a e63e d8b9 e43c 2e26 f33d 3322 1cbf
00000110: 0d2b 103f 39a6 973e 10bc 6c3b 2932 cb3f
00000120: 005d 5bbe 9376 98be 4c36 ca3d fd9e 4ebe
00000130: dcd8 fd3e 8acc 493d 1269 d4bd e47d 903e
00000140: 9f8d 8dbd 6dd4 a83b 2acb 06bb de2d 703d
00000150: a2a3 8bbd 9a2f 13be 94e3 563e b9db e3bd
00000160: 967f d1be b969 40bd 0668 63be deca 1cbe
00000170: b421 003f 37f1 0c3d 8212 7dbe 7de0 083f
00000180: 563e 143c a69e 62be 91f0 c1bd 1d33 b6be
00000190: 163e 51be 288c 143e 6535 bfbf 4553 debe
000001a0: 9b11 873f 1497 853b b6eb 87be 0bf3 b9bd
000001b0: 605f 103e 6813 1d3e fd27 343e 8e4a 343e
000001c0: f798 ed3c 520c 163d 9537 b0bd a661 fd3c
000001d0: ea6f ce3d 0a00 813e 3f02 52bc 369a aa3e
000001e0: e9fb 2a3e 8796 48be 82fb 213e edbe abbe
000001f0: 456c 263f 5928 c13e 8651 38bf 0f96 42bf
00000200: a0f6 003d eb16 c9bd 8a50 72bf cc20 8b3f
00000210: 5af4 ffbc 4810 ac3f f430 32bf cc1a ed3e
00000220: b0c2 f23f 3538 69bf 6110 72bf b037 323e
00000230: b3ad 2a3e e87a a2be c875 ad3c 12c2 fe3b
00000240: 2376 df3a bf5e 0eba 93b1 a9bc 987f 9ebd
00000250: c56f 65be ec8c 933e e766 23bd fa2d 84be
00000260: 32ef 6ebd a32f b1bd 1f1e a03e e9de 103e
00000270: 638b c03e 3b27 613f a235 15bf bdbd 0bbd
00000280: adfa 14bd 6b8c 1d3f f4c6 5b3f 784f 26bd
00000290: b4fa a83e c161 68be 3b5d 57bf f712 bf3e
000002a0: 0c14 19bf 8ae8 723f 4193 73bd 9cc1 363e
000002b0: d6a9 7dbd 9616 463d 0b9b 8c3d aa21 d63d
000002c0: 7531 52bd 2b25 193d 95d8 e2bd d9d3 c03d
000002d0: 42ec 5eb9 f05b 8fbe 339a 8fbe 8b1d 94bc
000002e0: 017a 143e bd3b 1e3d 7366 9dbe b47d b43e
000002f0: ccc9 973f 2f33 06bf bb7a 183e aebe 28be
00000300: 6ce4 e93e be58 a23f 4de5 303d 2db2 0e3f
00000310: 3292 d13e be55 2f3d 860f 78bf 628a 7dbf
00000320: aa11 e93f 9eb1 363e 4c70 24bd 1d57 3abe
00000330: 871d ba3e eb96 08ba 4ef4 b4bb 5641 10bc
00000340: 0d8f a73b 3dd5 503c ac9e 573e 8b19 c43d
00000350: d011 4d3c 8289 37be 6f75 0ebc 5f0d 363d
00000360: 3243 45bd 1025 583f 6326 56bd 18d7 16bd
00000370: 181c c1be 95f2 15be e81e 5c3c bb01 c9be
00000380: 74b6 2b3f 9e14 90bd 9d2a 0240 7be7 483e
00000390: 21c5 2e3e df2b b23f 573e 48bf e573 b6be
000003a0: d54b ca3c 8406 f23d ecab 343d 8d98 443d
000003b0: f08d 34bc 5681 b8b8 c3ec 8fbc 3cae 51bd
000003c0: c56a 87bd 0acf 1fbe 1a1d 92bd da29 323e
000003d0: b458 05bd 2bdb d4bd 1e57 c33c f5f3 e83e
000003e0: 539f 2b3d 61a7 133f 43a4 bc3d b455 68bf
000003f0: 147d 1ebd b21e 99be ac62 3dbf f2ee 4a3f

actor.0.bias f4 [128]
0.08497116 -0.3062095 -0.1332147 -0.12134333 -0.015654646 -0.067136735 0.03415473 -0.022646619
-0.20100138 0.17557944 -0.28964835 -0.06870582 -0.06202787 0.03863977 -0.11560215 0.11708379
-0.07940948 -0.108668976 -0.144889 0.0139880795 0.20859465 0.0037889818 0.08702076 0.027963225
0.06762305 -0.04535943 -0.039970614 -0.0054064877 -0.19175972 -0.07933289 -0.041770466 -0.117579654
-0.1026049 0.11399535 -0.18299098 0.072411634 0.13979389 -0.111532874 0.14048152 0.15932097
0.11172413 -0.2239833 -0.24121705 -0.062719576 0.028277352 0.036994986 -0.015657578 0.021137532
0.002182433 -0.05450661 -0.062882215 -0.106506646 0.018937282 0.05749055 -0.04596263 0.096302226
-0.017400535 0.02190148 -0.14494427 0.162153 -0.06888539 -0.09240538 -0.033498548 0.09687286
-0.23111686 -0.16734394 -0.111602515 -0.035440244 0.034754414 0.03653674 -0.20131718 -0.085935734
0.12905663 -0.09833476 -0.1645854 -0.13188429 0.06784837 -0.13788766 -0.20720184 -0.017962357
-0.104391836 -0.2360491 -0.30374458 0.045582693 -0.011235685 -0.11778816 0.016326942 -0.20810343
-0.0134907905 -0.13634604 -0.20249455 -0.12390046 0.26508087 -0.21062604 -0.09443314 -0.050804257
-0.049441714 0.17404294 0.075428694 -0.16301627 0.12628019 0.1257545 0.08601848 -0.28379363
-0.003660145 -0.091233335 -0.17908849 0.07972632 -0.14091726 0.05891568 -0.28928176 0.032250214
-0.09383727 -0.102972016 -0.18225665 -0.0019237262 -0.121974245 0.013374307 -0.23318514 -0.11654958
0.26427856 -0.12638772 -0.11524262 -0.034075744 -0.015665356 0.080294155 -0.05154911 0.07913423
00000000: 5c05 ae3d 7ec7 9cbe 6f69 08be da82 f8bd
00000010: 2c3e 80bc fc7e 89bd d5e5 0b3d 6785 b9bc
00000020: 4ed3 4dbe 19cb 333e ca4c 94be a3b5 8cbd
00000030: f010 7ebd bc44 1e3d d2c0 ecbd a0c9 ef3d
00000040: 70a1 a2bd d78d debd c85d 14be 422e 653c
00000050: d699 553e 9150 783b f137 b23d 2213 e53c
00000060: f47d 8a3d cfca 39bd 3ab8 23bd e828 b1bb
00000070: a95c 44be 4879 a2bd 8217 2bbd 9acd f0bd
00000080: 8522 d2bd 6576 e93d fd61 3bbe 8d4c 943d
00000090: 2126 0f3e 596b e4bd 63da 0f3e 0925 233e
000000a0: 9fcf e43d e15b 65be 9a01 77be 1f73 80bd
000000b0: e8a5 e73c 0e88 173d 5244 80bc 9e28 ad3c
000000c0: 2607 0f3b 5342 5fbd 64c8 80bd 2820 dabd
000000d0: 5c22 9b3c 367b 6b3d 5043 3cbd 1a3a c53d
000000e0: 918b 8ebc bc6a b33c 456c 14be 700b 263e
000000f0: c913 8dbd 083f bdbd c635 09bd 4765 c63d
00000100: e6a9 6cbe 365c 2bbe dc8f e4bd ca29 11bd
00000110: a55a 0e3d 8ca7 153d 1726 4ebe 13ff afbd
00000120: 6c27 043e bc63 c9bd 1389 28be ad0c 07be
00000130: 16f4 8a3d 6c32 0dbe b82c 54be cb25 93bc
00000140: 63cb d5bd dbb6 71be 6984 9bbe ebb4 3a3d
00000150: e115 38bc eb3a f1bd 14c0 853c 1119 55be
00000160: 7a08 5dbc 4c9e 0bbe bb5a 4fbe 86bf fdbd
00000170: aeb8 873e 5aae 57be 2966 c1bd 2018 50bd
00000180: 6583 4abd 5038 323e 5c7a 9a3d bded 26be
00000190: 984f 013e cac5 003e 752a b03d 664d 91be
000001a0: 0bdf 6fbb 8bd8 babd f962 37be 8e47 a33d
000001b0: 9d4c 10be 9151 713d bd1c 94be cd18 043d
000001c0: c12d c0bd fee2 d2bd 7da1 3abe 8a25 fcba
000001d0: a2cd f9bd e91f 5b3c 16c8 6ebe 8cb1 eebd
000001e0: 854f 873e c86b 01be 5304 ecbd 0293 0bbd
000001f0: a254 80bc 4371 a43d 2925 53bd 2111 a23d

actor.2.weight f4 [128, 128]
-0.08504354 -0.1407431 0.009065964 -0.047519736 0.0027303412 -0.11115122 -0.13513331 0.0080154
0.02162114 0.025474453 -0.06894016 0.010006611 -0.010060852 -0.014834222 0.011718184 -0.08299244
0.056135796 -0.1554137 0.08300733 0.03603581 0.01581844 -0.047280826 0.0819459 -0.01176975
0.034322307 -0.028359935 0.04193962 0.014763255 -0.048854202 0.06603427 -0.015828451 0.03161218
-0.14770174 0.006922146 0.070266135 -0.09100602 0.026145158 -0.06765607 -0.106671624 -0.08262273
0.060311016 -0.040614825 0.02136943 0.024331981 0.0546731 0.051086504 -0.028332414 0.05864508
-0.019658253 0.013747617 -0.114671186 -0.017508635 0.05496376 -0.020690305 -0.042340584 0.044718068
0.0431333 -0.04987499 -0.006955601 -0.027498232 -0.03382342 0.10651253 0.015061165 -0.041758977
-0.104382806 0.04334951 -0.031971212 -0.070352785 -0.04048402 -0.055020593 -0.10854547 -0.055911105
-0.016651822 0.01654085 -0.062469337 -0.05663555 -0.085408285 -0.04558951 -0.1326942 0.049809434
-0.09511218 0.039462086 -0.0027362588 0.084778346 0.08867129 0.1066475 -0.072110586 0.018338492
-0.0033952496 -0.01614498 -0.0814427 0.04146711 -0.025099263 0.013513644 0.012576967 0.09635104
-0.039785475 -0.019578213 -0.090276875 -0.07759837 -0.056898158 -0.036141854 0.046291087 0.0100610135
-0.15496539 0.030266989 -0.07209619 -0.028866732 0.017810805 -0.07584767 0.063801415 -0.090429574
0.06313953 0.03941859 -0.026390046 -0.002330296 0.016648415 -0.1050616 -0.03375486 0.0008209311
0.11352256 -0.089275815 -0.07412705 0.055221025 -0.06312789 -0.05187956 -0.096873105 -0.13020417
-0.08860317 -0.12838818 0.034534495 0.033740368 0.009782355 -0.028772233 -0.025763161 -0.027897883
0.085050985 0.06179881 0.011377942 -0.07367688 -0.093627095 0.035785776 -0.055676907 0.02310256
-0.10303916 0.018238548 -0.09738861 0.03395289 0.026812086 -0.015523917 0.006213125 -0.0008058015
-0.11154467 -0.13070974 0.009845332 -0.026411729 0.0047191917 -0.05069758 -0.10348437 -0.10983152
-0.0055580614 -0.11186377 0.06100068 -0.00393009 -0.032057244 -0.10866238 -0.019399922 0.037595715
-0.067341685 -0.15442123 0.008527186 0.058019623 0.035829294 -0.06252092 0.05353797 -0.015457737
-0.02522507 0.019605393 0.038864676 -0.09024534 -0.12174446 -0.09074688 -0.21204533 -0.11328791
-0.0883254 -0.01625422 -0.019615585 -0.12105763 -0.01563038 0.004623067 0.01670658 -0.20756774
-0.047052454 -0.060205117 0.06795257 0.081752166 -0.04869759 0.07526502 -0.035534296 -0.021151869
-0.013447062 -0.09025671 -0.114198 0.05937221 0.024517683 -0.020990951 0.07120444 -0.1253657
-0.035951782 -0.13369803 -0.004603514 0.023417985 -0.019667493 -0.008441987 0.00034479893 -0.007018553
-0.0127885565 -0.10833789 -0.033528496 0.016295245 -0.039643474 -0.116793215 -0.10024952 0.092254095
-0.04313435 -0.032801516 0.04666616 0.07701237 -0.21315388 -0.075887896 -0.11219751 -0.005504983
-0.004089813 0.025009273 -0.02321518 0.062498007 -0.08260536 0.0714359 -0.09573183 -0.1216328
0.081664994 0.047406916 0.15696113 -0.098104775 0.046154514 0.026827611 0.010851821 0.056186154
-0.015869966 -0.09337141 -0.021879971 -0.06384103 -0.09305357 0.08561493 -0.08338963 -0.15625012
00000000: 4f2b aebd f61e 10be 6989 143c 0ea4 42bd
00000010: 86ef 323b 40a3 e3bd 6360 0abe 0653 033c
00000020: d11e b13c cdaf d03c 8030 8dbd c5f2 233c
00000030: 46d6 24bc 3d0b 73bc a0fd 3f3c f1f7 a9bd
00000040: a6ee 653d c524 1fbe bfff a93d 499a 133d
00000050: ac95 813c 8aa9 41bd 41d3 a73d e9d5 40bc
00000060: 8c95 0c3d 1853 e8bc e1c8 2b3d 94e1 713c
00000070: 581b 48bd fa3c 873d abaa 81bc c67b 013d
00000080: 203f 17be 2bd3 e23b b1e7 8f3d 5d61 babd
00000090: 5f2e d63c 448f 8abd a776 dabd 1b36 a9bd
000000a0: af08 773d bb5b 26bd f10e af3c dd53 c73c
000000b0: e7f0 5f3d 1540 513d 6119 e8bc d335 703d
000000c0: 580a a1bc af3d 613c bad8 eabd 456e 8fbc
000000d0: ae21 613d b77e a9bc 526d 2dbd 4b2a 373d
000000e0: 8bac 303d b849 4cbd cfeb e3bb f943 e1bc
000000f0: 6d8a 0abd 3e23 da3d 1bc3 763c 760b 2bbd
00000100: a7c6 d5bd 418f 313d 3ff4 02bd 1f15 90bd
00000110: 92d2 25bd 465d 61bd 164d debd 0b03 65bd
00000120: 6769 88bc ad80 873c d9df 7fbd aefa 67bd
00000130: 8aea aebd 11bc 3abd fde0 07be fa04 4c3d
00000140: 2dca c2bd ffa2 213d ce52 33bb 45a0 ad3d
00000150: 4b99 b53d 016a da3d b7ae 93bd 9b3a 963c
00000160: d682 5ebb 7a42 84bc 6ecb a6bd 6bd9 293d
00000170: f89c cdbc 5568 5d3c 9f0f 4e3c b253 c53d
00000180: 18f6 22bd 7d62 a0bc 15e3 b8bd e5eb 9ebd
00000190: 0b0e 69bd 7b09 14bd b99b 3d3d f3d6 243c
000001a0: 3faf 1ebe 7af2 f73c 2ba7 93bd ed79 ecbc
000001b0: f7e7 913c 0656 9bbd 51aa 823d 2433 b9bd
000001c0: 4c4f 813d 6375 213d f02f d8bc e1b7 18bb
000001d0: 4262 883c 892a d7bd 8942 0abd c133 573a
000001e0: 847e e83d 3dd6 b6bd eccf 97bd 712f 623d
000001f0: 3249 81bd a97f 54bd 6865 c6bd 3e54 05be
00000200: 9475 b5bd 3178 03be 0b74 0d3d 5733 0a3d
00000210: 2c46 203c bfb3 ebbc 440d d3bc 1a8a e4bc
00000220: 362f ae3d c020 7d3d 8c6a 3a3c e7e3 96bd
00000230: 90bf bfbd 1b94 123d 780d 64bd 9441 bd3c
00000240: 3206 d3bd 0269 953c ae73 c7bd 3012 0b3d
00000250: 05a5 db3c 0758 7ebc 7897 cb3b 6c3c 53ba
00000260: 8871 e4bd c6d8 05be 514e 213c 695d d8bc
00000270: 73a3 9a3b 44a8 4fbd 9def d3bd 59ef e0bd
00000280: 6620 b6bb d518 e5bd d9db 793d fcc7 80bb
00000290: 754e 03bd 628a debd 96ec 9ebc f7fd 193d
000002a0: 70ea 89bd 9920 1ebe 9cb5 0b3c fca5 6d3d
000002b0: bdc1 123d f80a 80bd a14a 5b3d 7342 7dbc
000002c0: cea4 cebc 7d9b a03c 9130 1f3d 8cd2 b8bd
000002d0: 2955 f9bd 80d9 b9bd 6922 59be 7e03 e8bd
000002e0: f3e3 b4bd 9227 85bc ddb0 a0bc 10ed f7bd
000002f0: 480b 80bc 197d 973b 3ddc 883c a38c 54be
00000300: 13ba 40bd a499 76bd b82a 8b3d ae6d a73d
00000310: 2077 47bd 8c24 9a3d 698c 11bd af46 adbc
00000320: 1151 5cbc 83d8 b8bd a4e0 e9bd 4630 733d
00000330: 4fd9 c83c 37f5 abbc a2d3 913d de5f 00be
00000340: 2d42 13bd 23e8 08be 13d9 96bb 13d7 bf3c
00000350: b91d a1bc 4350 0abc 21c6 b439 e4fb e5bb
00000360: 1887 51bc 41e0 ddbd 2d55 09bd 9b7d 853c
00000370: 3261 22bd 4831 efbd 9f4f cdbd b7ef bc3d
00000380: a5ad 30bd e25a 06bd 0425 3f3d a9b8 9d3d
00000390: 0345 5abe 1d6b 9bbd cfc7 e5bd 2563 b4bb
000003a0: d703 86bb 3fe0 cc3c c32d bebc e9fd 7f3d
000003b0: 002d a9bd fc4c 923d 0d0f c4bd 9e1a f9bd
000003c0: fa3f a73d c12d 423d 6bba 203e 28eb c8bd
000003d0: 840c 3d3d 94c5 db3c d6cb 313c 7423 663d
000003e0: bb01 82bc 8339 bfbd a03d b3bc 16bf 82bd
000003f0: df92 bebd e156 af3d 2fc8 aabd 0800 20be

actor.2.bias f4 [128]
-0.0073081125 -0.15530884 -0.07605009 -0.091104046 -0.026091585 -0.022842707 -0.07521381 0.018762361
-0.11272529 -0.042876568 -0.19043298 0.009680046 0.06647601 -0.094989054 -0.0420062 -0.10451481
0.048448417 -0.021024756 0.04999308 0.1295161 -0.14079072 -0.09393297 -0.10622012 -0.022402821
0.039802317 -0.061093997 -0.18698587 -0.08491862 0.10101453 -0.05304206 -0.05315274 0.0818854
-0.11503948 0.06731867 0.0015001947 -0.1310574 -0.08862504 -0.066095985 -0.080037706 -0.016790528
-0.03753204 -0.09458446 0.052347373 0.033866093 -0.059607226 -0.17572115 -0.06594816 -0.031928286
-0.18302111 -0.15935156 0.0879512 -0.10291104 -0.10060334 0.05568188 0.050728254 -0.0025086512
0.031050952 -0.12665613 0.002310661 -0.20826477 -0.12513478 0.08186944 -0.01818608 -0.021615818
-0.15057446 -0.10174615 0.08775606 -0.11785194 -0.0351918 -0.057942197 -0.07308269 -0.0055659255
-0.0040014624 -0.15663213 0.077152185 -0.13120751 -0.07887335 0.012500349 -0.11805103 0.045867078
-0.12323102 -0.03610767 -0.086604595 0.015885739 -0.041182876 0.024759697 -0.22819395 -0.12816542
-0.03928877 -0.024368964 0.008454085 0.008721954 -0.06750431 -0.15083286 -0.09431994 0.008850081
-0.005369641 0.017447352 0.093253344 0.11417592 -0.0043184343 -0.12694477 0.012469622 -0.117372885
-0.09559261 -0.006453378 -0.04586887 0.08844065 -0.09095203 -0.045927133 -0.0038741974 -0.00019741709
-0.15918902 -0.036848314 -0.11974367 -0.22127195 0.08783744 0.034774207 -0.15460013 -0.071328565
-0.079370394 0.07245883 -0.017552726 0.006697705 -0.07182294 0.012295818 -0.11156575 -0.02499061
00000000: e478 efbb 4809 1fbe 26c0 9bbd c294 babd
00000010: 05be d5bc a120 bbbc b309 9abd 86b3 993c
00000020: 84dc e6bd 579f 2fbd dd00 43be 0e99 1e3c
00000030: 9324 883d 9f89 c2bd b10e 2cbd dc0b d6bd
00000040: d971 463d 1c3c acbc 8bc5 4c3d de9f 043e
00000050: 712b 10be ee5f c0bd ef89 d9bd 1f86 b7bc
00000060: c107 233d b33d 7abd 3979 3fbe d0e9 adbd
00000070: b5e0 ce3d a242 59bd b0b6 59bd 88b3 a73d
00000080: d299 ebbd 5fde 893d 2ea2 c43a e933 06be
00000090: 0c81 b5bd 555d 87bd cfea a3bd 4a8c 89bc
000000a0: 32bb 19bd 7fb5 c1bd 336a 563d 2cb7 0a3d
000000b0: b526 74bd 3ff0 33be d40f 87bd 3cc7 02bd
000000c0: e369 3bbe 0e2d 23be c21f b43d 06c3 d2bd
000000d0: 2009 cebd af12 643d 6ec8 4f3d 2f68 24bb
000000e0: 915e fe3c 25b2 01be 756e 173b 5c43 55be
000000f0: 5523 00be 2aab a73d f9fa 94bc a813 b1bc
00000100: 3130 1abe 4960 d0bd 73b9 b33d 5c5c f1bd
00000110: 4725 10bd cc54 6dbd 61ac 95bd 5e62 b6bb
00000120: b31e 83bb 2c64 20be f701 9e3d 435b 06be
00000130: 5a88 a1bd 44ce 4c3c bdc4 f1bd 1edf 3b3d
00000140: 8c60 fcbd a3e5 13bd c05d b1bd cf22 823c
00000150: 60af 28bd d9d4 ca3c adab 69be cc3d 03be
00000160: 43ed 20bd 6ca1 c7bc 0183 0a3c 87e6 0e3c
00000170: b33f 8abd ee73 1abe d02a c1bd eeff 103c
00000180: d0f3 afbb c0ed 8e3c 9cfb be3d 11d5 e93d
00000190: a781 8dbb cffd 01be 634d 4c3c 3261 f0bd
000001a0: 0fc6 c3bd dc76 d3bb ffe0 3bbd 5f20 b53d
000001b0: 0f45 babd 171e 3cbd 3fe6 7dbb bf01 4fb9
000001c0: 7202 23be 42ee 16bd 2b3c f5bd 1d95 62be
000001d0: 1ee4 b33d 666f 0e3d 7f4f 1ebe b614 92bd
000001e0: f28c a2bd 4c65 943d bcca 8fbc 6c78 db3b
000001f0: e817 93bd 6674 493c 957c e4bd 1cb9 ccbc

actor.4.weight f4 [128, 128]
-0.06739193 -0.00999564 -0.010385955 0.034489494 0.042497184 -0.026289282 -0.065541066 0.07118068
-0.030228015 -0.09650815 0.06378852 -0.056692816 0.118701406 -0.020908508 -0.06042087 -0.019462904
0.008821866 -0.0832857 -0.07112642 -0.070593685 -0.029325956 0.047340177 -0.05038642 -0.046186525
-0.025656352 0.027754262 -0.013757792 -0.07485018 0.0027872662 0.027834952 0.0054585733 -0.082683496
-0.08163844 -0.06564819 0.09173942 -0.011991065 0.03920044 -0.08168066 0.013983173 0.085475236
0.090592705 -0.06617946 0.08937141 0.017960913 0.0033665865 0.036462996 -0.05968612 -0.02094324
0.0108365705 -0.0990843 -0.05139892 0.055557534 -0.031108014 0.002968013 -0.041074537 0.010757005
0.061980937 -0.07704156 0.027776489 -0.056110457 -0.012066007 0.096458085 0.0028937762 -0.016325844
-0.10718962 0.043875996 0.06008409 -0.050789014 -0.04048523 0.08764918 -0.017436022 0.035000045
-0.009911846 -0.10656536 0.05785437 0.016502338 0.038112413 0.050990302 -0.06539009 0.025630526
-0.012460197 -0.030582393 -0.054033935 0.034116846 -0.047031894 0.009992183 0.04222953 0.07639755
0.045768727 0.000941742 0.06278159 -0.11540568 0.03702315 0.04978338 0.017237172 -0.07462097
-0.096090205 0.0804088 -0.022955084 0.05547062 -0.09133023 -0.014922952 0.020195484 -0.015393183
-0.07082597 0.03995182 0.040374823 -0.03472708 -0.005383704 -0.038901903 0.08658687 0.019359658
-0.09290395 0.01492799 -0.10625874 -0.0010521025 0.008374316 0.018545069 0.026341733 -0.08209229
-0.042118758 -0.12466862 -0.05141739 -0.032064866 0.023640422 -0.033879023 0.059229985 -0.030268423
-0.048573017 0.07812381 0.051677063 -0.057653375 0.06465607 0.027804464 0.06930136 0.0015941277
-0.018777542 0.03164834 -0.06835343 -0.041575618 0.12892357 0.008603583 0.060370587 -0.038341682
0.024313625 0.063345425 0.030489894 -0.02432229 -0.10780345 0.034216747 -0.03781414 -0.07307413
-0.043193374 0.006025931 -0.01172596 -0.0591084 0.092456736 -0.009005507 0.038985785 -0.076271705
0.08293531 -0.003815611 0.05547171 0.061768107 0.06256537 0.09765035 -0.011067733 0.04948793
-0.018214835 -0.031466488 -0.009672434 0.04775806 0.06488869 -0.0071238605 -0.12505008 -0.008002503
0.06626851 -0.061189126 0.08734837 0.04294215 -0.045943387 -0.08303442 0.023198523 -0.047229063
0.07212844 -0.08570308 0.021414055 0.06559076 0.050934102 -0.08244987 -0.009345134 0.057331424
-0.0016090818 -0.048534032 -0.011336031 0.03713765 -0.062974416 -0.023768751 -0.09877238 0.054987017
0.012127849 -0.01845993 -0.0017016353 0.040001426 0.06451355 -0.084192604 -0.051517762 0.01988455
0.037388343 0.0031625454 0.003990784 -0.014999999 -0.044289093 0.056960084 -0.028879449 -0.036868244
0.08560468 -0.03806521 -0.0065540816 0.04189922 -0.08815287 0.009484289 0.074044086 -0.11201929
0.066763625 0.037891556 0.01984613 0.07573052 -0.04569054 0.045468964 0.08915542 -0.008517051
-0.0050551565 0.109489396 0.046806514 0.015253826 0.053772345 0.009917247 0.01318628 -0.06834064
-0.05755331 -0.015159493 0.035885423 -0.09331227 -0.06739182 -0.03922855 -0.06817082 -0.056204066
0.0054171435 -0.062079076 0.012364038 0.0032698736 -0.073188595 0.058998797 -0.042417526 0.018700842
00000000: c804 8abd c1c4 23bc da29 2abc db44 0d3d
00000010: 8711 2e3d 9f5c d7bc 653a 86bd 2dc7 913d
00000020: bea0 f7bc 11a6 c5bd 8ea3 823d ba36 68bd
00000030: b919 f33d 5248 abbc e07b 77bd ab70 9fbc
00000040: 9689 103c b191 aabd baaa 91bd 6c93 90bd
00000050: fd3c f0bc c6e7 413d fe61 4ebd 152e 3dbd
00000060: 452d d2bc e85c e33c 5d68 61bc 0d4b 99bd
00000070: 91aa 363b 2006 e43c d5dd b23b f755 a9bd
00000080: 0e32 a7bd 8f72 86bd e1e1 bb3d 2c76 44bc
00000090: a490 203d 3148 a7bd ae19 653c a40d af3d
000000a0: ab88 b93d 1989 87bd 5c08 b73d c422 933c
000000b0: f3a1 5c3b 395a 153d 6f79 74bd 2891 abbc
000000c0: df8b 313c b6ec cabd ad87 52bd 4c90 633d
000000d0: 3cd6 febc ff82 423b c63d 28bd 263e 303c
000000e0: b9df 7d3d f7c7 9dbd 858b e33c 14d4 65bd
000000f0: 80b0 45bc d18b c53d 82a5 3d3b c7bd 85bc
00000100: 3b86 dbbd 51b7 333d bc1a 763d 2408 50bd
00000110: d7d3 25bd 6a81 b33d fdd5 8ebc 355c 0f3d
00000120: 4c65 22bc f13e dabd b4f8 6c3d e92f 873c
00000130: c31b 1c3d 35db 503d 3deb 85bd 1cf7 d13c
00000140: db25 4cbc ed87 fabc b052 5dbd 1bbe 0b3d
00000150: 84a4 40bd 41b6 233c dff8 2c3d 5276 9c3d
00000160: fd77 3b3d 3cdf 763a a293 803d d059 ecbd
00000170: 96a5 173d a8e9 4b3d f834 8d3c e1d2 98bd
00000180: f1ca c4bd 5ead a43d 4d0c bcbc 2935 633d
00000190: 580b bbbd 667f 74bc 0071 a53c b033 7cbc
000001a0: 350d 91bd 85a4 233d 1260 253d fc3d 0ebd
000001b0: c869 b0bb 9a57 1fbd 7554 b13d 2598 9e3c
000001c0: 6d44 bebd 8794 743c 2f9e d9bd b4e6 89ba
000001d0: 6d34 093c d4eb 973c 9eca d73c 0120 a8bd
000001e0: b884 2cbd 4352 ffbd 0b9b 52bd 7356 03bd
000001f0: 8fa9 c13c bbc4 0abd 249b 723d 7cf5 f7bc
00000200: 80f4 46bd 60ff 9f3d 54ab 533d f225 6cbd
00000210: 676a 843d 30c6 e33c dfed 8d3d 0df2 d03a
00000220: 5cd3 99bc b1a1 013d e2fc 8bbd 324b 2abd
00000230: 8a04 043e 0bf6 0c3c 2647 773d 2b0c 1dbd
00000240: 5e2d c73c 3fbb 813d f1c5 f93c 8a3f c7bc
00000250: 0ec8 dcbd dc26 0c3d 00e3 1abd e4a7 95bd
00000260: 89eb 30bd 2c75 c53b 3e1e 40bc a61b 72bd
00000270: f559 bd3d d68b 13bc 8faf 1f3d 5734 9cbd
00000280: fdd9 a93d 540f 7abb 4e36 633d 8e00 7d3d
00000290: 4622 803d e8fc c73d 7055 35bc dbb3 4a3d
000002a0: 4737 95bc 01e3 00bd 2179 1ebc f59d 433d
000002b0: 5de4 843d 466f e9bb 210d 00be ee1c 03bc
000002c0: c9b7 873d 73a1 7abd b4e3 b23d 1ce4 2f3d
000002d0: 222f 3cbd f30d aabd d40a be3c 4373 41bd
000002e0: 13b8 933d 1985 afbd 876c af3c 7354 863d
000002f0: 47a0 503d 7adb a8bd 551c 19bc 5bd4 6a3d
00000300: d3e7 d2ba 9fcb 46bd c3ba 39bc a61d 183d
00000310: bbf8 80bd afb6 c2bc 2c49 cabd 113a 613d
00000320: e3b3 463c 4739 97bc 6809 dfba 89d8 233d
00000330: ae1f 843d 2c6d acbd 4a04 53bd ece4 a23c
00000340: 8524 193d b542 4f3b 1fc5 823b 8ec2 75bc
00000350: 7b68 35bd fa4e 693d 9894 ecbc 2803 17bd
00000360: 8251 af3d 44ea 1bbd 9fc3 d6bb 849e 2b3d
00000370: 7e89 b4bd fe63 1b3c 6da4 973d 5f6a e5bd
00000380: 5ebb 883d 2d34 1b3d 5a94 a23c 9a18 9b3d
00000390: 0126 3bbd aa3d 3a3d 1e97 b63d 1a8b 0bbc
000003a0: baa5 a5bb fa3b e03d 30b8 3f3d 2feb 793c
000003b0: 6440 5c3d f37b 223c 440b 583c 2df6 8bbd
000003c0: 05bd 6bbd 865f 78bc 98fc 123d 811a bfbd
000003d0: b904 8abd 1eae 20bd 259d 8bbd 3c36 66bd
000003e0: 4b82 b13b a146 7ebd 8992 4a3c 604b 563b
000003f0: e7e3 95bd b9a8 713d 00be 2dbd 8232 993c

actor.4.bias f4 [128]
0.00695182 -0.0032496087 -0.010477589 -0.014714501 0.010193941 0.06670893 -0.030281968 -0.043387853
0.0027781278 -0.091713004 -0.10486919 -0.014322409 -0.08787669 -0.06752913 0.046073135 -0.02880603
0.04689903 0.009454076 -0.05987702 -0.016314397 -0.045397505 0.028990854 -0.019861164 0.06142378
0.04241687 -0.08169032 -0.048218645 0.0039625107 -0.14268464 0.08221998 -0.04856829 0.018667426
-0.035468265 0.089748755 0.029302517 -0.02837239 -0.0041291215 0.02060724 -0.0711464 0.008638312
-0.08497174 -0.074515216 -0.09711859 -0.11425469 -0.08618243 -0.05691516 -0.007067247 -0.18824996
-0.038304616 0.052742254 -0.08405059 0.054273956 0.01265994 -0.05440215 -0.0008420802 -0.002220336
-0.049578715 -0.07293018 0.014087304 -0.07340171 -0.018360201 -0.009085523 -0.030246496 -0.063507654
-0.03853996 -0.006121189 0.0153600285 0.07938408 0.07808097 0.038047366 -0.044194024 -0.054335523
-0.04078633 0.089555666 -0.010155365 -0.092309 -0.034486383 -0.07898017 0.01210792 -0.054040506
-0.083318986 -0.04488375 0.088660456 -0.0041357847 -0.022116186 -0.017819406 0.02721768 0.07346073
0.02938852 -0.11193733 0.08695945 0.009973447 -0.119907215 -0.07206459 -0.074995294 -0.06767043
-0.08174347 -0.08232201 -0.028769914 0.055391945 -0.037650134 -0.05370513 -0.1440002 -0.010508377
-0.0956329 0.031449683 -0.071653105 0.04349373 0.026386812 -0.02858164 0.03284313 -0.13816267
-0.018784972 -0.085137196 0.024411459 0.057116084 -0.093831316 -0.11893562 -0.042713292 0.050898295
0.027225113 0.056043502 0.09489046 0.062404186 0.066768214 -0.033803362 -0.08734091 0.021292688
00000000: 18cc e33b 63f7 54bb 32aa 2bbc 1715 71bc
00000010: 7d04 273c b19e 883d e411 f8bc 76b7 31bd
00000020: 4011 363b 07d4 bbbd a8c5 d6bd 8aa8 6abc
00000030: b2f8 b3bd b64c 8abd 2fb7 3c3d a0fa ebbc
00000040: 3319 403d 45e5 1a3c 9b41 75bd c5a5 85bc
00000050: bcf2 39bd 3a7e ed3c e1b3 a2bc 8097 7b3d
00000060: 50bd 2d3d 414d a7bd ea80 45bd f3d7 813b
00000070: ec1b 12be f362 a83d 8bef 46bd 6eec 983c
00000080: 2c47 11bd 32ce b73d d50b f03c 376d e8bc
00000090: 954d 87bb 84d0 a83c 34b5 91bd b587 0d3c
000000a0: aa05 aebd 6f9b 98bd 1ce6 c6bd 5dfe e9bd
000000b0: 6a80 b0bd df1f 69bd 5d94 e7bb 99c4 40be
000000c0: 4de5 1cbd 4308 583d b722 acbd 5e4e 5e3d
000000d0: a36b 4f3c cad4 5ebd 0cbf 5cba 0f83 11bb
000000e0: 0d13 4bbd 6b5c 95bd 6fce 663c a353 96bd
000000f0: 2268 96bc 72db 14bc 80c7 f7bc 4d10 82bd
00000100: 14dc 1dbd 4194 c8bb a1a8 7b3c 1f94 a23d
00000110: eae8 9f3d 8ed7 1b3d cb04 35bd ed8e 5ebd
00000120: 910f 27bd f668 b73d b062 26bc 800c bdbd
00000130: 9841 0dbd 5bc0 a1bd 4c60 463c 9459 5dbd
00000140: 25a3 aabd 06d8 37bd 9d93 b53d 7a85 87bb
00000150: 012d b5bc 01fa 91bc 9df7 de3c 9472 963d
00000160: 32c0 f03c 663f e5bd cc17 b23d ab67 233c
00000170: ea91 f5bd 9a96 93bd 2297 99bd cb96 8abd
00000180: 1f69 a7bd 7198 a8bd e2ae ebbc aae2 623d
00000190: 0737 1abd e9f9 5bbd ca74 13be 542b 2cbc
000001a0: 2fdb c3bd 62d1 003d ddbe 92bd 7b26 323d
000001b0: 2829 d83c 0b24 eabc 8586 063d 847a 0dbe
000001c0: f1e2 99bc 695c aebd 8afa c73c 8ef2 693d
000001d0: a22a c0bd 8594 f3bd 22f4 2ebd bb7a 503d
000001e0: 3307 df3c df8d 653d ee55 c23d 889b 7f3d
000001f0: c6bd 883d 6575 0abd cbdf b2bd 016e ae3c

actor.6.weight f4 [8, 128]
0.03406513 0.013071461 0.0019220486 0.05272446 0.036008894 0.015435688 0.023101466 -0.01837217
-0.0132728955 -0.024180118 -0.013418436 0.045087088 -0.022386532 -0.0039217374 -0.0055241967 -0.041973926
-0.0051068524 -0.023443772 0.01290785 -0.028719543 0.0074833957 0.022847742 -0.040742062 -0.002862399
0.026319165 -0.060866635 -0.010729405 0.009146477 -0.055523537 -0.018340675 -0.0076518436 -0.010656642
-0.0086479075 0.016832877 0.023077961 -0.0100470865 -0.012530839 0.04630324 -0.00048780852 -0.010594871
-0.0153196305 -0.0070240004 -0.018550077 -0.010266307 -0.014950918 -0.015686104 0.0012619401 -0.045715127
-0.0011291476 -0.002424316 -0.011042363 0.017010191 -0.017260803 -0.009844056 0.025220178 -0.0044211266
-0.02098197 -0.0044325595 -0.014566269 0.010029107 -0.0039899508 0.0038219094 0.085922636 0.0043205726
-0.016269159 0.01804604 0.0063316226 -0.004239126 -0.018298728 0.003041863 0.016975723 -0.0044800984
0.0032867554 0.0061299247 0.0038630273 -0.043944128 -0.006622673 -0.0075385533 -0.027360374 0.0014231331
0.0034035363 -0.01003343 -0.007732561 -0.010037003 -0.026617067 -0.012886742 0.005004627 0.009855225
-0.01770036 0.024974748 0.027819682 -0.0007173907 -0.05390427 -0.026394457 0.042644523 0.004882811
0.009606386 0.04125189 -0.0075853546 -0.016499897 0.006360745 0.0006128411 0.019922066 -0.05472976
0.023209194 0.012416656 -0.0044822167 -0.026730988 -0.008387005 -0.013431817 -0.012560448 -0.0021235908
-0.00046612506 0.027511459 0.019662648 -0.0024188664 0.057298604 0.020129567 0.019449284 0.015144727
-0.0057511777 0.016953403 -0.01712641 -0.017676186 0.017746182 -0.05792949 0.056775123 0.00081326405
-0.03858593 0.0031104651 0.033980384 -0.0016705825 -0.024468286 -0.011102056 0.022686841 -0.03212314
0.01634569 0.036656644 -0.004127122 -0.0198822 -0.0051500737 0.026356235 -0.0008081092 0.012427771
0.0041595846 -0.00022302907 -0.00075144507 -0.03144402 0.0022427246 -0.0693767 0.017140923 0.0059550055
0.0034922229 -0.029286781 -0.013111965 0.0054350737 -0.0014861362 -0.04645394 0.005965509 0.04204093
0.0025298833 -0.0063518602 -0.042929094 0.053564657 -0.0025925853 -0.0144014815 -0.02423748 0.0018636793
0.00817376 -0.024415532 0.05574968 0.013833902 -0.0027141457 -0.0042219595 0.0037428702 -0.06236244
0.0039131674 -0.0025905354 -0.0040409626 -0.0066043045 0.02262603 -0.024126694 0.019755272 -0.01329949
-0.005237519 0.0031103631 0.014157891 -0.013222671 0.01502311 0.011899515 0.007297959 -0.034986712
0.027185777 -0.008417097 0.004083185 -0.001929523 0.016968237 0.024901742 0.018129054 -0.024390522
0.0070690676 0.017314702 0.0044706925 -0.0059387665 0.044556495 0.0094439825 -0.0672339 -0.000878844
0.029699022 0.0036163775 0.0029688329 -0.0020471078 -0.016753837 0.00741933 -0.028916778 -0.0031998442
-0.0023561788 0.017213587 0.00053994666 0.00065913866 0.011471791 -0.0011411426 0.0025467493 -0.0032949236
0.011004425 0.020235686 0.03882831 0.013284321 0.023336349 -0.013728152 -0.0020962292 -0.010415864
-0.00059367256 0.00042098016 -4.812981e-05 0.025202047 -0.00516157 -0.028347675 0.0099935755 -0.016742267
0.029527485 -0.031830013 -0.007326644 0.017074684 -0.05053963 -0.0082476055 0.020540314 0.010409133
-0.00859616 -0.00068954803 0.034368906 0.00017825092 0.0010984343 0.029279165 0.052265782 -0.01182634
00000000: e187 0b3d ae29 563c 40ed fb3a 9af5 573d
00000010: 107e 133d f8e5 7c3c 493f bd3c 3c81 96bc
00000020: 8f76 59bc 6215 c6bc 00d9 5bbc 3dad 383d
00000030: f663 b7bc eb81 80bb 5204 b5bb daec 2bbd
00000040: 6257 a7bb 270d c0bc 727b 533c 3f45 ebbc
00000050: 4637 f53b 302b bb3c 26e1 26bd 1697 3bbb
00000060: 4a9b d73c 4b4f 79bd 63ca 2fbc 1bdb 153c
00000070: a66c 63bd 2f3f 96bc 51bc fabb 3299 2ebc
00000080: f4af 0dbc 1ae5 893c fe0d bd3c 899c 24bc
00000090: 264e 4dbc 77a8 3d3d 8dc0 ffb9 1c96 2dbc
000000a0: 30ff 7abc 9629 e6bb 55f6 97bc 0334 28bc
000000b0: b2f4 74bc 2580 80bc af67 a53a c93f 3bbd
000000c0: e8ff 93ba 46e1 1ebb 07eb 34bc f558 8b3c
000000d0: 8766 8dbc f748 21bc 8c9a ce3c 19df 90bb
000000e0: 61e2 abbc 013f 91bb 5ca7 6ebc 2051 243c
000000f0: 22be 82bb 0079 7a3b 35f8 af3d 9793 8d3b
00000100: e646 85bc 4ad5 933c 8079 cf3b 5ee8 8abb
00000110: 37e7 95bc fe59 473b ac10 8b3c cacd 92bb
00000120: 9b66 573b 89dd c83b d82a 7d3b c2fe 33bd
00000130: 0203 d9bb f805 f7bb dd22 e0bc 6c88 ba3a
00000140: dd0d 5f3b 4163 24bc 6c61 fdbb 3e72 24bc
00000150: 090c dabc ea22 53bc dbfd a33b cf77 213c
00000160: 5800 91bc d897 cc3c 1ae6 e33c 460f 3cba
00000170: b9ca 5cbd 3039 d8bc 06ac 2e3d fdff 9f3b
00000180: 1a64 1d3c bef7 283d 918e f8bb cb2a 87bc
00000190: cc6d d03b 12a7 203a 9a33 a33c 502c 60bd
000001a0: 3521 be3c 3b6f 4b3c 8fdf 92bb f2fa dabc
000001b0: a669 09bc 2011 5cbc 56ca 4dbc f12b 0bbb
000001c0: 3f62 f4b9 b65f e13c 9013 a13c d885 1ebb
000001d0: f1b1 6a3d c3e6 a43c 1b54 9f3c 9721 783c
000001e0: 6074 bcbb dde1 8a3c af4c 8cbc a6cd 90bc
000001f0: 7160 913c 7947 6dbd 088d 683d 3a31 553a
00000200: 480c 1ebd f2d8 4b3b 042f 0b3d 72f7 daba
00000210: b771 c8bc 66e5 35bc c1d9 b93c 8e93 03bd
00000220: 65e7 853c 4725 163d cf3c 87bb ffdf a2bc
00000230: f3c1 a8bb 08e9 d73c 4ad7 53ba da9d 4b3c
00000240: 204d 883b e9dc 69b9 a0fc 44ba 72cb 00bd
00000250: adfa 123b 5f15 8ebd 1f6b 8c3c 3522 c33b
00000260: c7dd 643b d5ea efbc 91d3 56bc b418 b23b
00000270: 75ca c2ba 7d46 3ebd 517a c33b 1c33 2c3d
00000280: 66cc 253b 4423 d0bb 6bd6 2fbd 9d66 5b3d
00000290: 5de8 29bb 31f4 6bbc ae8d c6bc b346 f43a
000002a0: 3ceb 053c 1503 c8bc c759 643d 97a7 623c
000002b0: cfdf 31bb 5d58 8abb f14a 753b c26f 7fbd
000002c0: 073a 803b f9c5 29bb 0d6a 84bb ec68 d8bb
000002d0: 395a b93c 58a5 c5bc cfd5 a13c 1be6 59bc
000002e0: 7e9f abbb 3cd7 4b3b 80f6 673c e7a3 58bc
000002f0: 7e23 763c 2ff6 423c b823 ef3b 3a4e 0fbd
00000300: b5b4 de3c dde7 09bc 3dcc 853b 0ce8 fcba
00000310: f900 8b3c bdfe cb3c 6283 943c a2ce c7bc
00000320: a3a3 e73b 90d7 8d3c e37e 923b fc99 c2bb
00000330: df80 363d efba 1a3c edb1 89bd 3962 66ba
00000340: 5d4b f33c bf00 6d3b c090 423b c528 06bb
00000350: 583f 89bc da1d f33b e1e2 ecbc 7ab4 51bb
00000360: 1f6a 1abb 8203 8d3c 358b 0d3a 0cca 2c3a
00000370: 2ef4 3b3c 6492 95ba 5de7 263b a5ef 57bb
00000380: e74b 343c 4fc5 a53c 6f0a 1f3d 7ba6 593c
00000390: df2b bf3c 0bec 60bc e460 09bb 4da7 2abc
000003a0: b1a0 1bba 00b7 dc39 fdde 49b8 8674 ce3c
000003b0: 6322 a9bb 6239 e8bc 18bc 233c 1427 89bc
000003c0: a0e3 f13c 3060 02bd 5814 f0bb 35e0 8b3c
000003d0: a502 4fbd f720 07bc 2944 a83c 118b 2a3c
000003e0: e9d6 0cbc c9c2 34ba 69c6 0c3d dee8 3a39
000003f0: 57f9 8f3a dcda ef3c a514 563d 44c3 41bc

actor.6.bias f4 [8]
0.11956168 -0.064603664 -0.010817935 0.07025821 0.00030860535 0.007896151 0.019062873 -0.058826074
00000000: c1dc f43d ed4e 84bd b53d 31bc 89e3 8f3d
00000010: 4fcc a139 dc5e 013c be29 9c3c 9cf3 70bd

critic.0.weight f4 [128, 31]
-0.04221134 0.09740539 0.60289246 -0.03931258 0.041935615 -0.19820479 0.08555212 0.04867686
0.081215724 1.0676117 0.2717155 -0.030304963 -0.008592036 0.17063583 -0.044444304 0.024549328
0.06748048 0.05681647 0.02939425 -0.0852437 0.089463614 0.033915248 0.029289315 0.06760714
0.132338 0.10947729 0.003258822 0.13053142 -0.030034002 -0.17569992 -0.18360527 -0.18948093
0.067648426 -0.1496409 0.060250405 0.024413457 -0.0018585876 0.13785148 -0.119134195 0.20677552
1.2157139 -1.8881088 0.06335555 0.056231663 -0.06831686 -0.0471 0.008124179 0.009980794
-0.0041299555 -0.04806978 -0.0060165077 -0.03674353 0.04234276 0.036194075 0.018807022 -0.0020227057
0.10859138 0.07433559 0.01892441 0.09518305 -0.10110281 0.024862144 0.26824197 0.07821963
0.6070776 -0.04787323 0.09502475 0.32136828 0.035522416 -0.053221915 -0.054762635 -1.1276587
-1.0861723 0.040413674 0.08721608 0.01932537 0.27954382 -0.18992692 0.05747592 -0.06071114
-0.025495246 0.06893351 -0.052442994 0.07725151 0.09050625 0.15063025 0.06037741 -0.03418782
-0.0006370199 0.03332291 0.12006264 -0.21714467 -0.13636482 0.116486415 -0.045542207 -0.23286049
0.13886106 -0.13100496 -0.101829365 0.13282262 -0.06559507 0.13055739 -0.816015 0.7419325
-0.0044079395 -0.11984245 0.09284847 0.15966907 0.02643008 -0.0063797873 0.061058182 -0.1326392
0.0941629 0.07670214 -0.037471075 0.13963515 0.11957754 0.07865955 -0.04247171 -0.090952516
-0.076480426 0.05271036 -0.0055712806 -0.1045129 -0.5261972 0.06827357 0.21828592 -0.15921319
0.20154397 -0.02950681 0.1304535 -0.16472386 -0.19337758 -0.36043942 -0.5077748 0.36709246
-0.14198112 -0.07866503 0.3193751 0.06838252 -0.09279771 0.013419666 0.08988914 0.04113526
0.077449724 -0.08214165 0.013654497 0.18093038 0.013019519 0.07371417 0.2915384 0.039082803
-0.12295539 0.07833325 0.075834244 0.19090723 0.026500877 0.84926206 -0.021430366 -0.104047105
-0.1295727 0.06754677 0.020140726 0.19300863 -0.8714419 -1.0577961 0.08335802 0.02459859
-0.12278914 0.030186744 0.0026439314 0.011014905 0.029641172 0.023040596 0.0139896665 -0.005543523
-0.00086785347 0.0026859378 -0.037258834 -0.047776524 -0.075366125 -0.08895283 0.024706284 0.006052865
-0.059814245 0.022333872 -0.33316067 -0.17857943 -0.19924352 -0.24436961 -0.0043507437 -0.038152814
-0.09515021 -0.06352075 0.3562291 0.40402794 -0.5295 -0.056329317 0.021081917 0.055401955
-0.41696292 0.036786105 -0.027251586 -0.06059388 0.17558949 -0.060334418 -0.04765942 0.018297324
-0.08378047 -0.055499464 -0.1346558 -0.06140311 -0.13514945 0.042314343 0.010545531 -0.12852038
-0.014395701 -0.34079275 -0.0566827 -0.5866665 -0.033170402 -0.04767937 0.11242744 0.017063648
0.17514645 -0.2467676 1.2821637 0.5397423 0.12647858 0.034712125 -0.079443656 -0.07419646
0.035482336 -0.014942804 0.029581133 -0.024675567 0.03425216 -0.07301792 -0.004954327 -0.014894844
-0.032843087 0.047250044 0.0039330623 -0.068477385 0.033955578 0.24649337 0.16579455 -0.028751962
-0.26896414 -0.044259086 0.13081475 -0.042804576 0.02823069 0.09881495 0.12666567 0.13308473
00000000: cce5 2cbd 7a7c c73d 2957 1a3f 3a06 21bd
00000010: aec4 2b3d 32f6 4abe f335 af3d 6361 473d
00000020: 6e54 a63d 80a7 883f 4b1e 8b3e 1d42 f8bc
00000030: 9cc5 0cbc 29bb 2e3e 3b0b 36bd ac1b c93c
00000040: 3533 8a3d 63b8 683d 36cc f03c 4094 aebd
00000050: b338 b73d b7ea 0a3d 25f0 ef3c 9d75 8a3d
00000060: 9d83 073e a135 e03d f691 553b 07aa 053e
00000070: de09 f6bc aeea 33be 0503 3cbe 4a07 42be
00000080: 428b 8a3d 773b 19be 21c9 763d bbfe c73c
00000090: da9b f3ba f028 0d3e a1fc f3bd f6bc 533e
000000a0: 839c 9b3f 8dad f1bf 8ec0 813d 2c53 663d
000000b0: b6e9 8bbd eeeb 40bd 471b 053c 7c86 233c
000000c0: 9454 87bb d1e4 44bd 2026 c5bb 6280 16bd
000000d0: 9a6f 2d3d 3d40 143d 2f11 9a3c 5f8f 04bb
000000e0: 2865 de3d 423d 983d 5d07 9b3c 55ef c23d
000000f0: fd0e cfbd b2ab cb3c 0357 893e 9d31 a03d
00000100: 7069 1b3f b816 44bd 569c c23d 628a a43e
00000110: f47f 113d 39ff 59bd c94e 60bd 1f57 90bf
00000120: b207 8bbf cf88 253d 589e b23d 3d50 9e3c
00000130: 5e20 8f3e 347c 42be df6b 6b3d 3fac 78bd
00000140: 68db d0bc 032d 8d3d 77ce 56bd 0a36 9e3d
00000150: 575b b93d d13e 1a3e 4e4e 773d 8708 0cbd
00000160: affd 26ba 9b7d 083d 67e3 f53d 2c5b 5ebe
00000170: 38a3 0bbe 6e90 ee3d 778a 3abd fb72 6ebe
00000180: 9831 0e3e 2a26 06be ea8b d0bd a702 083e
00000190: b556 86bd d6b0 053e 5ce6 50bf 4aef 3d3f
000001a0: 7a70 90bb f56f f5bd 5727 be3d 4a80 233e
000001b0: e583 d83c 890d d1bb 2518 7a3d 92d2 07be
000001c0: 7ad8 c03d 0316 9d3d 457b 19bd 84fc 0e3e
000001d0: 12e5 f43d 4218 a13d d1f6 2dbd 5045 babd
000001e0: c5a1 9cbd d2e6 573d 4a8f b6bb dc0a d6bd
000001f0: dcb4 06bf 03d3 8b3d 5886 5f3e c808 23be
00000200: 8b61 4e3e 44b8 f1bc 9a95 053e 5fad 28be
00000210: c604 46be 848b b8be 87fd 01bf 8bf3 bb3e
00000220: 8063 11be 221b a1bd 2285 a33e 220c 8c3d
00000230: ba0c bebd 29de 5b3c cc17 b83d 727d 283d
00000240: f69d 9e3d e239 a8bd 1db7 5f3c d045 393e
00000250: d24f 553c 74f7 963d 8544 953e 4a15 203d
00000260: 09d0 fbbd 2f6d a03d fc4e 9b3d 2f7d 433e
00000270: 5e18 d93c 3d69 593f bc8e afbc a616 d5bd
00000280: b5ae 04be f655 8a3d 2afe a43c 0ea4 453e
00000290: d116 5fbf dd65 87bf 9cb7 aa3d fb82 c93c
000002a0: df78 fbbd 314a f73c cf45 2d3b dc77 343c
000002b0: 0bd2 f23c a2bf bc3c ea34 653c 71a6 b5bb
000002c0: a980 63ba 8f06 303b b89c 18bd 51b1 43bd
000002d0: 8e59 9abd e72c b6bd d564 ca3c 1d57 c63b
000002e0: c8ff 74bd 86f5 b63c 0994 aabe 87dd 36be
000002f0: 7e06 4cbe 073c 7abe af90 8ebb 2046 1cbd
00000300: 1dde c2bd 2b17 82bd a963 b63e c0dc ce3e
00000310: 508d 07bf 92b9 66bd fcb3 ac3c 29ed 623d
00000320: 2a7c d5be 07ad 163d b83e dfbc 4a31 78bd
00000330: bbcd 333e 3921 77bd 8636 43bd 45e4 953c
00000340: 1895 abbd 6853 63bd 36e3 09be d481 7bbd
00000350: 9e64 0abe ce51 2d3d 2ac7 2c3c d99a 03be
00000360: f2db 6bbc 637c aebe 1e2c 68bd c72f 16bf
00000370: b0dd 07bd 714b 43bd 5c40 e63d 10c9 8b3c
00000380: 9759 333e a5b0 7cbe f11d a43f 8d2c 0a3f
00000390: 9a83 013e 4d2e 0e3d 5bb3 a2bd 50f4 97bd
000003a0: ed55 113d aad2 74bc 2254 f23c 6a24 cabc
000003b0: fe4b 0c3d 6b8a 95bd e857 a2bb 8109 74bc
000003c0: 7986 06bd 4389 413d ebe0 803b df3d 8cbd
000003d0: 0115 0b3d c268 7c3e 0cc6 293e 3c89 ebbc
000003e0: abb5 89be 0449 35bd 4df4 053e da53 2fbd
000003f0: 0c44 e73c 7e5f ca3d a5b4 013e 5d47 083e

critic.0.bias f4 [128]
-0.17290649 -0.19294256 0.29472083 0.092249006 0.30588433 -0.30748782 -0.15564919 0.15647714
-0.14923853 -0.18504335 0.094323196 -0.35444674 -0.16160724 -0.1258945 0.2903675 -0.25912333
-0.08435535 -0.24440695 0.102049924 0.05301646 0.316867 0.2128847 -0.14501666 -0.25980607
-0.115642376 -0.22560048 0.008914503 -0.17755297 -0.138861 0.009011571 0.09152341 0.035418727
-0.010826696 0.11215326 0.30177224 -0.27760196 -0.33078298 -0.0022500488 -0.39749044 -0.23787129
-0.0431753 0.28867373 -0.21300578 -0.2565304 0.21028349 0.05319036 0.3598124 -0.24114683
-0.25962663 0.12208087 -0.04648871 -0.066035636 -0.39852145 0.11614609 -0.106242694 -0.13623056
-0.011496122 -0.16323367 0.057863515 -0.110779375 0.027921407 0.07515381 0.0035909265 -0.24372946
-0.024160944 -0.1585296 -0.050406422 -0.09751411 -0.16467771 0.11341959 -0.29267737 0.36005542
0.09156549 0.1447609 0.24618642 0.30972746 0.3637894 -0.001707209 0.042198215 -0.046304166
0.12241292 -0.18008485 0.023637762 -0.04725827 -0.4066825 0.23173131 0.20115799 -0.1592914
0.1697786 0.18763085 -0.31291556 -0.06794333 -0.280302 0.010533793 -0.2633323 0.30705518
-0.04756495 -0.045313008 0.04879663 0.15256184 -0.0777328 -0.051265597 -0.05092005 -0.18223915
0.22077541 -0.28378463 0.27594635 -0.14987981 0.05199609 0.022373637 -0.24702977 -0.087123595
0.019305702 0.2069509 0.012964534 0.0076001994 -0.006633407 0.16291037 -0.17332105 0.100733735
-0.011548178 0.048173804 0.18447849 -0.016162593 0.19874106 -0.15547788 0.061766975 -0.0882242
00000000: 660e 31be bc92 45be a6e5 963e 0ced bc3d
00000010: df9c 9c3e 0b6f 9dbe 8062 1fbe 8b3b 203e
00000020: fcd1 18be 017c 3dbe 852c c13d 0b7a b5be
00000030: 5e7c 25be 7dea 00be 0dab 943e d0ab 84be
00000040: 7fc2 acbd d145 7abe 8dff d03d ca27 593d
00000050: 643c a23e 72fe 593e 3f7f 14be 4d05 85be
00000060: e9d5 ecbd d003 67be 230e 123c 72d0 35be
00000070: 9431 0ebe 45a5 133c a070 bb3d 3a13 113d
00000080: 7462 31bc 9cb0 e53d e481 9a3e d821 8ebe
00000090: 635c a9be 8e75 13bb de83 cbbe 8894 73be
000000a0: 95d8 30bd 0bcd 933e 301e 5abe f457 83be
000000b0: 8e54 573e 23de 593d 5539 b83e 32ef 76be
000000c0: c8ed 84be 8905 fa3d f26a 3ebd b13d 87bd
000000d0: 010b ccbe 00de ed3d c595 d9bd 0680 0bbe
000000e0: 3b5a 3cbc ba26 27be 4b02 6d3d 4ce0 e2bd
000000f0: 6fbb e43c 3eea 993d c055 6b3b 3794 79be
00000100: 2ced c5bc 9555 22be f776 4ebd 7ab5 c7bd
00000110: 46a1 28be 8848 e83d cfd9 95be 2f59 b83e
00000120: b086 bb3d 343c 143e 4b18 7c3e 9994 9e3e
00000130: 9b42 ba3e 6ec4 dfba 09d8 2c3d 70a9 3dbd
00000140: a0b3 fa3d 2a68 38be fba3 c13c e391 41bd
00000150: b038 d0be f94a 6d3e 5cfc 4d3e 491d 23be
00000160: 71da 2d3e 4d22 403e 7836 a0be df25 8bbd
00000170: be83 8fbe ee95 2c3c 7ed3 86be 5636 9d3e
00000180: 77d3 42bd 229a 39bd fade 473d 2c39 1c3e
00000190: 6032 9fbd e0fb 51bd 8b91 50bd e69c 3abe
000001a0: f312 623e 384c 91be d748 8d3e 187a 19be
000001b0: daf9 543d eb48 b73c 5ff5 7cbe db6d b2bd
000001c0: fe26 9e3c f0ea 533e 3269 543c 180b f93b
000001d0: 0d5d d9bb fad1 263e 137b 31be 7d4d ce3d
000001e0: 9234 3dbc e551 453d eee7 3c3e 6a67 84bc
000001f0: c782 4b3e 9835 1fbe 5eff 7c3d e4ae b4bd
