ISAAC_NOGIT/logs/rsl_rl/traquad_flat/2025-09-16_12-39-05/model_0.pt (torch, 924887 bytes, 48 tensors)

std f4 [8]
1.0027729 0.9971873 1.0003916 1.004152 0.9974711 1.0016246 1.0040538 1.001928
00000000: dd5a 803f ab47 7f3f d50c 803f 0e88 803f
00000010: 445a 7f3f 3c35 803f d684 803f 2d3f 803f

actor.0.weight f4 [128, 31]
-0.007880868 0.09837684 0.064539544 0.16478452 0.10196503 -0.052074336 -0.034577563 0.0067549204
-0.06260589 0.12026705 0.12550811 -0.14499943 0.0002687987 0.073393986 -0.031559374 0.072420575
0.07361774 0.10538549 0.1221723 0.12088964 0.0321396 -0.1560624 -0.1731004 -0.044297818
0.147041 -0.03867872 0.15557897 0.054031707 0.13293518 -0.12809 -0.16142958 -0.10294376
-0.040215142 -0.046450954 -0.06374631 -0.10582084 0.0599671 -0.034945317 -0.06346683 0.1220165
0.06081639 0.08687546 0.005760751 -0.05573083 0.13338287 0.05761515 -0.039615665 0.031890985
-0.035251748 -0.05231717 -0.058893558 0.048422307 -0.019360367 0.17601298 0.0837765 0.0033997998
0.11402213 -0.022761747 -0.14440891 -0.1626152 0.091891065 -0.10489846 0.17672524 0.11874759
-0.0066396114 -0.017295199 -0.010513785 -0.17427468 0.1787669 -0.047783114 -0.16641429 0.092750326
-0.1592332 0.12712978 0.0032189393 -0.17919372 0.008731773 -0.01584642 -0.0045870915 0.11975035
-0.03887092 0.037682634 0.13772981 0.14646083 -0.14271256 -0.056210022 -0.07738685 -0.15593903
-0.0735064 0.119574636 -0.007907559 -0.12483437 0.16830853 -0.050688066 -0.028080815 0.16228667
0.08447634 -0.14469548 0.0033269387 -0.020957906 0.11443143 0.091983624 0.007558576 0.014709621
-0.12853032 0.0041729105 0.13873947 0.0642897 0.16449735 0.10281709 0.064167194 0.09534333
0.090251595 0.13650002 -0.14165561 0.1067064 0.1260118 -0.08390364 0.035109334 0.04068988
0.12121311 -0.024674386 0.1772324 -0.12312877 0.047126602 -0.062236708 -0.152177 -0.121665865
0.112489134 -0.16015938 -0.10182583 0.17562737 -0.11735214 0.06909971 -0.13867158 0.100505635
0.14653897 -0.09608927 0.0005023676 0.12400476 0.17298754 -0.14484772 -0.051753476 0.0642595
0.11015478 -0.022055881 -0.04496089 -0.06306366 -0.0143617205 0.1318615 -0.018723806 0.17098227
0.1460632 -0.13471128 0.14223668 -0.0060602645 -0.012994774 -0.00015502045 -0.05786943 0.020223662
0.10237802 0.057859126 -0.15846463 -0.114311464 -0.09390904 -0.040091194 0.0921298 0.1404234
0.05245213 0.080441244 -0.05819592 -0.06029506 0.10131313 0.050472833 0.14223728 0.14384635
-0.15853354 0.010269062 -0.035425156 -0.1637002 -0.008117589 0.025295904 -0.170417 0.014066122
0.10867299 -0.097086065 -0.067956135 -0.07417447 -0.033730082 0.12123792 0.15875992 -0.17002058
0.09747789 -0.00021945506 0.1172492 -0.002382602 0.14130045 -0.09106847 -0.13071723 0.13161051
-0.10969748 0.036860332 -0.013987736 -0.06998161 0.052933943 0.03016491 -0.009447372 -0.048743527
0.028687505 -0.12320023 -0.0057644937 -0.065269165 0.028779112 -0.11773626 0.012337605 0.08279528
-0.15691903 0.17682351 -0.118506335 0.033330787 0.011955524 -0.12748729 -0.09506595 0.07624957
0.099450186 -0.091690406 -0.10101543 0.061205067 -0.030916054 0.050365686 -0.14138305 0.0072374702
0.054349996 -0.025180226 0.15594284 0.12776496 -0.023546899 -0.026888411 -0.104062505 -0.15095782
-0.059440944 -0.13293213 0.100099884 0.11899637 0.16896501 0.009223777 -0.14463158 0.17039487
-0.12609467 0.0150598325 0.14525168 -0.06755615 0.051376387 -0.05350065 -0.069743864 0.06393475
00000000: c21e 01bc cc79 c93d 4f2d 843d 46bd 283e
00000010: 0bd3 d03d e64b 55bd 34a1 0dbd 6158 dd3b
00000020: 8437 80bd 924e f63d 3385 003e bb7a 14be
00000030: 8ded 8c39 964f 963d 6744 01bd 3d51 943d
00000040: e6c4 963d 59d4 d73d 7935 fa3d fd94 f73d
00000050: d0a4 033d d2ce 1fbe 3b41 31be a171 35bd
00000060: ea91 163e 946d 1ebd 1850 1f3e 5a50 5d3d
00000070: 2920 083e 062a 03be cc4d 25be 2ed4 d2bd
00000080: a2b8 24bd 5b43 3ebd 6d8d 82bd 99b8 d8bd
00000090: 10a0 753d d222 0fbd e6fa 81bd c9e3 f93d
000000a0: 9b1a 793d c3eb b13d afc4 bc3b 0346 64bd
000000b0: 8595 083e ddfd 6b3d 0944 22bd 1fa0 023d
000000c0: 2364 10bd 874a 56bd 5f3a 71bd 7856 463d
000000d0: a299 9ebc bf3c 343e 0393 ab3d 2dcf 5e3b
000000e0: 6f84 e93d d876 babc eedf 13be 9984 26be
000000f0: 6231 bc3d 01d5 d6bd 76f7 343e f031 f33d
00000100: 1991 d9bb a9ae 8dbc 0342 2cbc 1075 32be
00000110: ac0e 373e 3ab8 43bd 8268 2abe e2f3 bd3d
00000120: 070e 23be 4f2e 023e d7f4 523b 8f7e 37be
00000130: b60f 0f3c 5ad0 81bc 504f 96bb ac3f f53d
00000140: 1d37 1fbd 1b59 1a3d 0b09 0d3e d4f9 153e
00000150: 3e23 12be 7b3c 66bd ff7c 9ebd 7bae 1fbe
00000160: 868a 96bd 8ce3 f43d b58e 01bc 2aa9 ffbd
00000170: 1259 2c3e 4a9e 4fbd bd09 e6bc 7a2e 263e
00000180: ee01 ad3d 0d2b 14be c508 5a3b eaaf abbc
00000190: 075b ea3d e961 bc3d eead f73b 9f00 713c
000001a0: 749d 03be e9bc 883b b811 0e3e 51aa 833d
000001b0: fe71 283e c491 d23d 176a 833d 5d43 c33d
000001c0: d4d5 b83d a9c6 0b3e 2b0e 11be e388 da3d
000001d0: 3d09 013e acd5 abbd cece 0f3d 6eaa 263d
000001e0: 943e f83d f021 cabc 697c 353e f02a fcbd
000001f0: d307 413d ebeb 7ebd 4ad4 1bbe f42b f9bd
00000200: b460 e63d d200 24be 108a d0bd a9d7 333e
00000210: 5256 f0bd 2684 8d3d ecff 0dbe e6d5 cd3d
00000220: 500e 163e 74ca c4bd 52b1 033a 35f6 fd3d
00000230: a523 313e f652 14be 74fb 53bd 7c9a 833d
00000240: d498 e13d 89ae b4bc e928 38bd 8527 81bd
00000250: 6c4d 6bbc b306 073e ab62 99bc fa15 2f3e
00000260: 9791 153e c1f1 09be 7ea6 113e 2f95 c6bb
00000270: 08e8 54bc fc8c 22b9 7f08 6dbd 18ac a53c
00000280: 91ab d13d b1fd 6c3d 8d44 22be 211c eabd
00000290: 6253 c0bd aa36 24bd 8cae bc3d 27cb 0f3e
000002a0: 0bd8 563d 61be a43d d85e 6ebd f4f7 76bd
000002b0: 427d cf3d 9abc 4e3d a6a6 113e 754c 133e
000002c0: 9e56 22be 913f 283c f819 11bd 06a1 27be
000002d0: a3ff 04bc 5b39 cf3c cb81 2ebe 9775 663c
000002e0: f28f de3d 0fd5 c6bd 962c 8bbd c9e8 97bd
000002f0: 8e28 0abd 964b f83d f691 223e e019 2ebe
00000300: 7da2 c73d 851d 66b9 5920 f03d 6e25 1cbb
00000310: 11b1 103e 1b82 babd bdda 05be e8c4 063e
00000320: 13a9 e0bd dcfa 163d d12c 65bc 8552 8fbd
00000330: 43d1 583d 671c f73c 26c9 1abc 4ba7 47bd
00000340: 0f02 eb3c 6750 fcbd 14e4 bcbb d7ab 85bd
00000350: 2cc2 eb3c b51f f1bd aa23 4a3c 9290 a93d
00000360: 62af 20be 3911 353e 73b3 f2bd dd85 083d
00000370: 1ae1 433c 078c 02be f0b1 c2bd bc28 9c3d
00000380: 8aac cb3d 2ec8 bbbd 2ee1 cebd 2ab2 7a3d
00000390: aa43 fdbc 404c 4e3d b8c6 10be 4d28 ed3b
000003a0: 1a9e 5e3d c346 cebc 7baf 1f3e d1d4 023e
000003b0: 6de5 c0bc 1645 dcbc b91e d5bd b094 1abe
000003c0: 5978 73bd 5c1f 08be 2b01 cd3d 5eb4 f33d
000003d0: 2a05 2d3e 531f 173c 4d1a 14be fe7b 2e3e
000003e0: f61e 01be 84bd 763c dbbc 143e e15a 8abd
000003f0: 0c70 523d 7f23 5bbd dfd5 8ebd 39f0 823d

actor.0.bias f4 [128]
0.07497849 -0.07983328 0.044231575 -0.07111747 0.07071456 0.0019587378 -0.04065212 -0.0014136903
-0.13611087 0.16675092 -0.1768222 0.0154699925 -0.13270378 0.1393929 -0.10580285 0.12816668
0.08603633 -0.105154306 -0.06375842 0.035843935 0.1654084 0.052309565 0.019377686 0.09257339
0.17448063 -0.06423968 0.0043344777 0.02013305 -0.08716738 0.04312319 -0.018358827 -0.082046345
-0.16238764 0.068244174 -0.06245931 0.13357127 0.09572973 -0.07729113 0.13380049 0.147809
0.1661498 -0.17563544 -0.11905298 -0.03746128 0.05226121 0.08555781 0.089772515 0.069078155
-0.008181236 -0.098834805 0.025651436 -0.07906028 0.018284958 0.09083232 -0.037426654 0.037298143
0.039336227 0.07894904 -0.08211598 0.04275534 -0.052827276 -0.09181492 -0.061446838 0.109661885
-0.17241685 -0.13896921 -0.051867504 -0.045734916 0.13904898 0.04612676 -0.17873849 0.09498292
0.13104154 -0.07988539 -0.14067426 -0.027719837 0.038802285 -0.11946186 -0.07612389 0.10622334
-0.07516465 -0.17826948 -0.1667559 0.12006469 -0.004868471 -0.10787789 0.059753053 -0.07056766
0.04989658 -0.12638347 -0.04022966 -0.08353028 0.15679987 -0.17635614 -0.039870296 0.021325164
0.009267752 0.14432304 0.17021622 -0.051847 0.15007716 0.1187031 0.18105595 -0.17285262
0.10701882 -0.024347592 -0.17561205 0.10327818 -0.14541963 0.14953317 -0.15132865 0.021444716
-0.012448978 0.028974246 -0.03481344 0.1697252 -0.0599016 0.12011738 -0.12836912 -0.016923392
0.16205895 0.016687294 -0.04915032 0.003029883 0.047554087 0.07147888 0.07251439 0.04021659
00000000: 538e 993d a17f a3bd 2b2c 353d 09a6 91bd
00000010: ccd2 903d 2b5e 003b d682 26bd 934b b9ba
00000020: a660 0bbe c1c0 2a3e e110 35be da75 7d3c
00000030: 80e3 07be 03bd 0e3e 2aaf d8bd 203e 033e
00000040: d133 b03d 245b d7bd c693 82bd 17d1 123d
00000050: d260 293e 8e42 563d f4bd 9e3c 1e97 bd3d
00000060: 0dab 323e 1890 83bd 3c08 8e3b 11ee a43c
00000070: d084 b2bd f1a1 303d 4065 96bc ea07 a8bd
00000080: f248 26be 9ac3 8b3d 55d5 7fbd e8c6 083e
00000090: f30d c43d d04a 9ebd ff02 093e 3e5b 173e
000000a0: 2c23 2a3e c7d9 33be 0cd2 f3bd 0071 19bd
000000b0: da0f 563d ef38 af3d a7da b73d d978 8d3d
000000c0: 970a 06bc e769 cabd f622 d23c 5bea a1bd
000000d0: 56ca 953c 4c06 ba3d b14c 19bd f0c5 183d
000000e0: 061f 213d 09b0 a13d 6c2c a8bd 3920 2f3d
000000f0: 6a61 58bd 7609 bcbd aeaf 7bbd 6996 e03d
00000100: 0b8e 30be f24d 0ebe 0573 54bd 8954 3bbd
00000110: db62 0e3e 6aef 3c3d 3907 37be 6886 c23d
00000120: c12f 063e f49a a3bd ea0c 10be b614 e3bc
00000130: 25ef 1e3d 6ba8 f4bd d8e6 9bbd 9f8b d93d
00000140: edef 99bd 468c 36be 0fc2 2abe 7ae4 f53d
00000150: b287 9fbb 15ef dcbd 9ebf 743d c785 90bd
00000160: 5b60 4c3d ab6a 01be dbc7 24bd ec11 abbd
00000170: 2590 203e b496 34be 094f 23bd 1cb2 ae3c
00000180: c5d7 173c 6bc9 133e 294d 2e3e 855d 54bd
00000190: d4ad 193e 9c1a f33d bb66 393e 4700 31be
000001a0: af2c db3d 9a74 c7bc a5d3 33be 8383 d33d
000001b0: e2e8 14be 391f 193e e6f5 1abe d4ac af3c
000001c0: ccf6 4bbc 665b ed3c 8a98 0ebd 71cc 2d3e
000001d0: 615b 75bd 1a00 f63d 3273 03be eda2 8abc
000001e0: c8f2 253e cbb3 883c d951 49bd 0091 463b
000001f0: 13c8 423d 8563 923d 6d82 943d 27ba 243d

actor.2.weight f4 [128, 128]
-0.0648988 -0.086862564 0.024924511 -0.020884752 0.047953837 -0.085157946 -0.04979976 0.051687118
0.026774548 0.070502 -0.045994557 0.0063432064 0.03726246 0.036379512 0.07981715 -0.054375082
0.0865358 -0.07724395 0.021216009 0.063764185 0.04036432 -0.008411543 0.04535148 0.022651656
0.03707016 -0.0049904953 0.031619754 0.0016222505 -0.037373506 0.055991456 0.009160809 0.023265086
-0.049671486 0.012017045 0.07949918 -0.042023316 0.041708924 -0.06944575 -0.056632776 -0.048305966
0.075285465 -0.007703508 0.0582253 0.06564282 0.07046684 0.07901784 -0.0016456489 0.082998455
0.004988096 0.012617371 -0.06495096 -0.007803828 0.07520567 -0.027789189 0.009757625 0.045344144
0.07360923 -0.014602331 0.04329592 -0.026252743 -0.052112278 0.082229264 0.025062831 -0.01093571
-0.076384366 0.063667566 -0.005217401 -0.037313458 -0.0011200118 -0.059817865 -0.050221853 -0.06002613
-0.03360928 0.015774013 0.0029940591 -0.019174883 -0.05418413 -0.007591122 -0.07905492 0.058101717
-0.048950087 0.04346847 -0.0054729865 0.08189976 0.08387607 0.062909745 -0.0098257745 -0.0072383867
0.0081457505 -0.021298194 -0.05912793 0.04563642 0.01690006 0.06403839 0.031475168 0.049452588
-0.01318553 -0.025425997 -0.06374949 -0.00761298 -0.031536702 -0.018549059 0.065834545 0.018231263
-0.085359976 0.07027691 -0.020646218 0.035788827 -0.027311737 -0.053835467 0.07104553 -0.08697117
0.07423413 0.057538167 -0.034837715 0.03698539 0.018716766 -0.07585798 -0.024275217 0.04727879
0.047771305 -0.039817397 -0.02232239 0.07094926 -0.08139108 -0.04477106 -0.09028442 -0.08368871
-0.08527385 -0.03346981 0.077655256 0.077109806 0.08288092 0.023150297 -0.0013045693 0.020083932
0.08461547 0.05403868 0.0420361 -0.05406677 -0.05584715 0.009408688 -0.082176104 0.029778413
-0.084534 -0.012931479 -0.089416675 0.06836775 0.08509638 -0.012921361 0.023618437 0.014486053
-0.01463064 -0.07150094 0.052365173 -0.003929999 0.06353191 -0.07351329 -0.07597193 -0.0238881
0.0235356 -0.052458193 0.08528834 -0.004315592 0.0020228801 -0.08395495 0.031950064 0.065178424
0.011113934 -0.07301432 0.005645887 0.08031467 0.037948318 -0.055054292 0.08263656 -0.07167586
-0.008452682 0.06832984 0.040953297 -0.086317584 -0.02824901 -0.07077484 -0.06524085 -0.013853891
-0.027431777 0.037152454 -0.039095473 -0.058618993 -0.016896093 0.04384706 0.076514535 -0.082353234
-0.029443417 -0.021895347 0.08980584 0.065401204 -0.060271032 -0.03356882 -0.026986597 -0.019843902
0.035228036 -0.011655007 -0.07083912 -0.013663862 0.03278545 -0.0022253243 0.041322827 -0.05933978
-0.035309736 -0.04582357 0.00754961 0.05198544 0.010531066 0.038970705 -0.024024637 -0.0073089926
0.007101237 0.0026847827 0.026739992 0.040592495 0.028090993 -0.060937945 0.057935666 0.070424914
-0.076948546 -0.04007186 0.043705374 0.07250194 -0.064132825 -0.03617242 -0.08568888 -0.0057077133
0.009389882 0.040187415 -0.024905127 0.043761037 -0.056438286 0.07412632 -0.08532514 -0.088365585
0.08106307 0.055377305 0.05992124 -0.07031159 0.047893718 0.052184403 0.02625107 0.04866675
0.058879197 -0.063083686 0.046972144 -0.032688044 -0.078777164 0.083147116 -0.055599734 -0.04295526
00000000: a9e9 84bd 00e5 b1bd 7d2e cc3c 8016 abbc
00000010: 3e6b 443d 4a67 aebd d5fa 4bbd dfb5 533d
00000020: 4c56 db3c 5a63 903d ca64 3cbd acda cf3b
00000030: 85a0 183d af02 153d 2d77 a33d 68b8 5ebd
00000040: ae39 b13d 1332 9ebd 32cd ad3c cc96 823d
00000050: 0f55 253d 92d0 09bc 79c2 393d f78f b93c
00000060: e1d6 173d 4f87 a3bb b783 013d b2a1 d43a
00000070: f614 19bd 4c57 653d 3817 163c 6c96 be3c
00000080: 5474 4bbd 24e3 443c 77d0 a23d a420 2cbd
00000090: fad6 2a3d 9339 8ebd c5f7 67bd 7adc 45bd
000000a0: 442f 9a3d b56d fcbb a77d 6e3d be6f 863d
000000b0: eb50 903d 1bd4 a13d d0b2 d7ba 18fb a93d
000000c0: 2f73 a33b 17b9 4e3c 0205 85bd 41b7 ffbb
000000d0: 6e05 9a3d 27a6 e3bc 72de 1f3c c8ba 393d
000000e0: 70c0 963d 9e3e 6fbc 1057 313d fe0f d7bc
000000f0: af73 55bd d167 a83d 9150 cd3c b12b 33bc
00000100: 686f 9cbd 2464 823d bbf6 aabb ffd5 18bd
00000110: 5ccd 92ba 9403 75bd 6eb5 4dbd f6dd 75bd
00000120: e2a9 09bd 8138 813c fa37 443b a514 9dbc
00000130: 2ef0 5dbd f2be f8bb 8ce7 a1bd 11fc 6d3d
00000140: e37f 48bd ff0b 323d bd56 b3bb 10bb a73d
00000150: 38c7 ab3d d3d6 803d 49fc 20bc fd2f edbb
00000160: c175 053c 8d79 aebc 2130 72bd 41ed 3a3d
00000170: ff71 8a3c 8f26 833d 1bec 003d cc8e 4a3d
00000180: 1f08 58bc 2e4a d0bc 188f 82bd 4e76 f9bb
00000190: a12c 01bd 32f4 97bc 43d4 863d bb59 953c
000001a0: 36d1 aebd 57ed 8f3d 4222 a9bc 4e97 123d
000001b0: ddbc dfbc 9482 5cbd 5280 913d f11d b2bd
000001c0: 1008 983d 24ad 6b3d feb1 0ebd fe7d 173d
000001d0: e753 993c 6e5b 9bbd d2dc c6bc 68a7 413d
000001e0: d8ab 433d 9117 23bd 72dd b6bc d84d 913d
000001f0: 5eb0 a6bd dc61 37bd 0ae7 b8bd fd64 abbd
00000200: 0ea4 aebd a417 09bd b809 9f3d bfeb 9d3d
00000210: 79bd a93d b1a5 bd3c 15fe aaba 0f87 a43c
00000220: e04a ad3d aa57 5d3d 0c2e 2c3d 1e75 5dbd
00000230: fbbf 64bd e626 1a3c f24b a8bd dcf1 f33c
00000240: 2920 adbd 8ede 53bc 1720 b7bd 6404 8c3d
00000250: 0347 ae3d 1eb4 53bc 747b c13c e956 6d3c
00000260: 5ab5 6fbc 166f 92bd dd7c 563d 39c7 80bb
00000270: 051d 823d 238e 96bd 2c97 9bbd fab0 c3bc
00000280: bbcd c03c 67de 56bd a7ab ae3d cf69 8dbb
00000290: 4c92 043b 93f0 abbd 12de 023d 447c 853d
000002a0: 3817 363c 8888 95bd 2201 b93b 057c a43d
000002b0: b26f 1b3d 9c80 61bd 5b3d a93d cbca 92bd
000002c0: 1e7d 0abc 84f0 8b3d a5be 273d 46c7 b0bd
000002d0: 786a e7bc 66f2 90bd ff9c 85bd 6efb 62bc
000002e0: 9bb8 e0bc 2c2d 183d 9322 20bd 781a 70bd
000002f0: ad69 8abc fa98 333d a7b3 9c3d d0a8 a8bd
00000300: 5233 f1bc df5d b3bc 20ec b73d 11f1 853d
00000310: c2de 76bd 767f 09bd ff12 ddbc ae8f a2bc
00000320: 464b 103d a4f4 3ebc 1a14 91bd 64de 5fbc
00000330: 094a 063d bfd6 11bb 2042 293d 450e 73bd
00000340: f1a0 10bd 7fb1 3bbd b862 f73b afee 543d
00000350: 7e8a 2c3c bf9f 1f3d 51cf c4bc 4680 efbb
00000360: 7eb1 e83b 2ef3 2f3b d40d db3c 5144 263d
00000370: 151f e63c 119a 79bd f34d 6d3d f03a 903d
00000380: 3397 9dbd 6422 24bd 6804 333d e67b 943d
00000390: 1258 83bd 8829 14bd a77d afbd c507 bbbb
000003a0: 05d8 193c 8f9b 243d d605 ccbc c63e 333d
000003b0: d52b 67bd 8acf 973d f2be aebd 04f9 b4bd
000003c0: 6504 a63d 50d3 623d f96f 753d 86ff 8fbd
000003d0: 342c 443d 50bf 553d 7c0c d73c c956 473d
000003e0: 502b 713d 0532 81bd dd65 403d e6e3 05bd
000003f0: ec55 a1bd 0949 aa3d 8cbc 63bd dbf1 2fbd

actor.2.bias f4 [128]
0.060571183 -0.072224684 -0.047938026 -0.03567698 0.014905289 -0.05250754 -0.0031014048 0.019508231
-0.056083396 0.04147538 -0.03675411 -0.0021018968 0.063856505 0.053709246 -0.051355742 0.015671507
-0.00230669 -0.008936693 0.034326427 0.049750354 -0.021287574 -0.08978471 -0.08409644 -0.00543502
0.017446693 -0.05944973 -0.024462674 -0.06697349 0.07396309 -0.01307483 -0.0041250866 0.08463298
-0.043125756 0.009078985 0.05714559 0.024254713 0.031757936 0.018222252 -0.026836906 -0.039242677
0.018000666 -0.04658503 0.07290693 0.049608972 0.06636339 -0.0743619 0.0059381514 -0.05280688
-0.06959379 -0.04487774 0.08677484 -0.042434964 -0.08330188 0.07726043 0.05902028 -0.04886125
0.06419196 0.019742772 0.005375866 -0.05870963 -0.08485217 0.08704423 0.053647358 0.056039628
-0.08214925 -0.06975604 0.067666136 -0.08085803 0.053794697 -0.048784964 -0.040138442 0.086079
0.0700066 -0.051970314 0.085920356 0.021880787 0.00033087772 0.004702424 -0.035197724 0.0025076433
0.040212672 0.012748922 -0.024299396 0.020897381 0.047124855 -0.002023453 -0.069598384 -0.010704577
-0.07035724 0.035965748 0.035906658 0.041215774 -0.074396305 -0.07638404 -0.015977457 0.02350637
-0.0066548046 -0.03681182 0.07298144 0.07329003 0.052959435 -0.034333758 0.040668525 -0.06173199
0.01607655 0.0045570936 -0.046479147 0.07816811 -0.076457694 0.016786702 -0.03350915 0.010237695
-0.042512387 0.07965646 0.029292442 -0.08659994 0.064463004 0.047741767 -0.05563297 -0.027463935
0.039433382 0.083903916 -0.037873276 0.07830828 -0.05373819 0.032361604 -0.06869902 -0.00034592394
00000000: 7d19 783d 89ea 93bd aa5a 44bd 0622 12bd
00000010: 5035 743c 2512 57bd f040 4bbb bacf 9f3c
00000020: b4b7 65bd 17e2 293d 7a8b 16bd fabf 09bb
00000030: 33c7 823d 3afe 5b3d 665a 52bd 8861 803c
00000040: d62b 17bb 356b 12bc de99 0c3d 07c7 4b3d
00000050: 4763 aebc 0ce1 b7bd c13a acbd 4118 b2bb
00000060: 5eec 8e3c 8f81 73bd f265 c8bc 6629 89bd
00000070: f679 973d d037 56bc bc2b 87bb 0e54 ad3d
00000080: a2a4 30bd 06c0 143c 7f11 6a3d d2b1 c63c
00000090: 9c14 023d d546 953c 12d9 dbbc eebc 20bd
000000a0: 2276 933c f2cf 3ebd 3b50 953d c732 4b3d
000000b0: 87e9 873d 0d4b 98bd d394 c23b 074c 58bd
000000c0: 3087 8ebd b9d1 37bd 02b7 b13d 49d0 2dbd
000000d0: 2d9a aabd b73a 9e3d 40bf 713d bc22 48bd
000000e0: 1377 833d 98bb a13c 0828 b03b 8279 70bd
000000f0: f9c6 adbd 3f44 b23d 55bd 5b3d cf89 653d
00000100: de3d a8bd 41dc 8ebd 8b94 8a3d e598 a5bd
00000110: d457 5c3d bed2 47bd 3568 24bd 304a b03d
00000120: 9f5f 8f3d d3de 54bd 03f7 af3d 563f b33c
00000130: a879 ad39 cb16 9a3b 7d2b 10bd 4657 243b
00000140: 0bb6 243d dbe0 503c 870f c7bc fc30 ab3c
00000150: fe05 413d e89b 04bb 9989 8ebd 4062 2fbc
00000160: 7517 90bd d250 133d dc12 133d dfd1 283d
00000170: 175d 98bd 3c6f 9cbd 28e3 82bc 6e90 c03c
00000180: 8c10 dabb fec7 16bd 4b77 953d 1519 963d
00000190: feeb 583d 8ea1 0cbd 0a94 263d afda 7cbd
000001a0: f8b2 833c ac53 953b eb60 3ebd 9a16 a03d
000001b0: da95 9cbd 4484 893c e440 09bd 01bc 273c
000001c0: 7821 2ebd ed22 a33d b4f6 ef3c 4f5b b1bd
000001d0: 2e05 843d df8c 433d 66df 63bd 0cfc e0bc
000001e0: e684 213d d1d5 ab3d 0221 1bbd 1760 a03d
000001f0: 941c 5cbd 9a8d 043d 12b2 8cbd 205d b5b9

actor.4.weight f4 [128, 128]
-0.030587712 -0.015701445 0.015445042 0.055313133 0.051984683 -0.012604619 -0.009483062 0.08631311
-0.06508979 -0.08910117 0.01770987 -0.022721352 0.08171326 -0.012654146 -0.081289455 -0.019111179
-0.0052978233 -0.055919215 -0.035986837 -0.08176367 -0.04032308 0.06454793 -0.07125967 -0.04443092
-0.058469467 0.041912112 -0.033194244 -0.07682741 -0.024653424 0.061887525 -0.023255706 -0.056336317
-0.0099494625 -0.06624682 0.057109036 -0.02092347 -0.010239003 -0.05656792 0.025374781 0.016169917
0.08435722 -0.062780865 0.041183393 -0.007833366 -0.017691376 0.033998318 -0.022256827 0.0022881282
-0.017781995 -0.07667152 -0.028452314 0.055161323 -0.026003098 0.02431142 -0.03353106 -0.0017601966
0.06739588 -0.08381086 0.05746391 -0.043989472 0.0036202385 0.08727746 0.034127887 -0.028381124
-0.08104353 0.06804449 0.03833638 -0.04085578 0.012483685 0.079928584 -0.055643868 -0.023668835
-0.0045013214 -0.057578776 0.07405409 0.04337425 0.05750288 0.026077408 -0.024842428 0.023085434
-0.042058136 -0.079900146 -0.03499675 0.034366593 -0.042614654 -0.0330077 -0.0026661276 0.058710307
0.060643822 -0.007897075 0.041056465 -0.049866736 0.024814729 0.04314671 0.027293874 -0.06165197
-0.060986903 0.06634141 -0.044462662 0.045225818 -0.066899106 0.00097592524 -0.02337487 -0.031038396
-0.022293888 0.021670714 0.082992375 -0.0062761186 -0.05306194 -0.0070805927 0.052587874 0.016571544
-0.04034854 -0.00051412196 -0.08713404 0.040979587 0.051289834 0.037725247 0.03213707 -0.046853717
-0.0023243513 -0.08544919 -0.003619774 -0.0053474163 0.022637997 0.013217959 0.017298346 -0.01987172
-0.062184453 0.07685767 0.030469174 -0.046468057 0.06914227 0.052692015 0.037606873 -0.030011846
-0.046752177 0.030160878 -0.061709106 -0.030025315 0.05740812 0.044516508 0.08500919 -0.013091206
0.010785827 0.033401474 0.028943768 -0.016495444 -0.07545025 0.053372446 -0.037085082 -0.051797416
-0.05520855 0.010799577 -0.034175176 -0.018354766 0.08856653 -0.015126511 0.04919929 -0.07791934
0.055541847 -0.016746476 0.06170184 0.035417132 0.05944075 0.08001968 -0.0030401195 0.037283726
-0.031257536 -0.023829566 -0.051386748 0.008881099 0.018185776 0.036810968 -0.043884277 0.007575543
0.06324885 -0.052998245 0.08018687 0.04377914 -0.06564879 -0.08396603 0.016942915 -0.057281103
0.08669695 -0.056554493 0.027762765 0.08317184 0.061622065 -0.06705958 0.01681913 0.06764991
-0.012899095 -0.04674034 -0.042171016 0.043328516 -0.07779145 -0.015185914 -0.08696395 0.03984847
0.028480915 -0.03687558 0.0013113889 0.06655023 0.07713915 -0.08082997 -0.06616586 -0.0141699985
0.009696421 -0.044478353 0.013530072 0.02135633 -0.025222661 0.070339754 -0.009901112 -0.03123997
0.076801516 -0.028467346 0.002281182 0.08836496 -0.057188805 0.017997479 0.084539875 -0.080454394
0.06852134 0.03565919 0.024352262 0.08706624 -0.053057928 0.06978101 0.07791513 -0.016930498
-0.0018993275 0.082332864 0.071401305 0.043746844 0.013193694 0.03622279 0.015918197 -0.086650334
-0.0738353 -0.021294363 0.030692903 -0.069686756 -0.06290166 -0.008845675 -0.068964414 -0.048970684
0.0022022245 -0.04150781 0.03138648 -0.0059770984 -0.043665003 0.08102323 -0.022563336 0.017401418
00000000: 1593 fabc 51a0 80bc 340d 7d3c 0690 623d
00000010: e4ed 543d 9b83 4ebc d85e 1bbc eec4 b03d
00000020: cc4d 85bd ad7a b6bd 4a14 913c 2122 babc
00000030: 4859 a73d 5653 4fbc 167b a6bd 0c8f 9cbc
00000040: 5d99 adbb 8c0b 65bd ef66 13bd b673 a7bd
00000050: d029 25bd b531 843d 97f0 91bd 32fd 35bd
00000060: ae7d 6fbd 09ac 2b3d b0f6 07bd b057 9dbd
00000070: faf5 c9bc c67d 7d3d c082 bebc e9c0 66bd
00000080: 1203 23bc 6aac 87bd 2aeb 693d b267 abbc
00000090: 7ec1 27bc c3b3 67bd c6de cf3c c676 843c
000000a0: 7ac3 ac3d 4193 80bd ebaf 283d 8557 00bc
000000b0: 81ed 90bc d241 0b3d f353 b6bc 6cf4 153b
000000c0: 8cab 91bc f505 9dbd d414 e9bc d7f0 613d
000000d0: 7304 d5bc be28 c73c dd57 09bd 66b6 e6ba
000000e0: da06 8a3d 07a5 abbd 475f 6b3d 4e2e 34bd
000000f0: 8641 6d3b 86be b23d afc9 0b3d 887f e8bc
00000100: 26fa a5bd e95a 8b3d 9c06 1d3d 6458 27bd
00000110: 5f88 4c3c 99b1 a33d d3ea 63bd 25e5 c1bc
00000120: d27f 93bb b9d7 6bbd aca9 973d 33a9 313d
00000130: 2488 6b3d 4aa0 d53c 5982 cbbc aa1d bd3c
00000140: 2745 2cbd b0a2 a3bd c158 0fbd fcc3 0c3d
00000150: b48c 2ebd 1533 07bd 33ba 2ebb 387a 703d
00000160: a865 783d bc62 01bc d32a 283d 1041 4cbd
00000170: 4248 cb3c 9bba 303d 6797 df3c c786 7cbd
00000180: 67cd 79bd 01de 873d 7b1e 36bd b53e 393d
00000190: 6602 89bd 3cd5 7f3a a87c bfbc 3c44 febc
000001a0: aca1 b6bc c886 b13c e8f7 a93d e6a7 cdbb
000001b0: 7a57 59bd 5104 e8bb 6266 573d 0cc1 873c
000001c0: 8344 25bd 24c6 06ba 5573 b2bd 36da 273d
000001d0: 4a15 523d ca85 1a3d 29a2 033d afe9 3fbd
000001e0: 2554 18bb fcff aebd bb39 6dbb 6139 afbb
000001f0: 5273 b93c 2390 583c 43b5 8d3c 04ca a2bc
00000200: 20b5 7ebd 8e67 9d3d 7d9a f93c 4a55 3ebd
00000210: 769a 8d3d 95d3 573d aa09 1a3d 67db f5bc
00000220: 367f 3fbd f213 f73c b0c2 7cbd a6f7 f5bc
00000230: c724 6b3d f156 363d 4c19 ae3d 7f7c 56bc
00000240: 0ab7 303c fccf 083d 7b1b ed3c 7421 87bc
00000250: a985 9abd 119d 5a3d 87e6 17bd 8729 54bd
00000260: 5c22 62bd b6f0 303c 45fb 0bbd bc5c 96bc
00000270: 5e62 b53d 30d5 77bc 3285 493d 2d94 9fbd
00000280: d97f 633d e82f 89bc 12bb 7c3d 8e11 113d
00000290: 2578 733d 5ce1 a33d be3c 47bb d2b6 183d
000002a0: e707 00bd 3936 c3bc e97a 52bd 0782 113c
000002b0: 56fa 943c 19c7 163d 00c0 33bd 433c f83b
000002c0: 9d88 813d b014 59bd 0439 a43d c151 333d
000002d0: df72 86bd 62f6 abbd decb 8a3c 979f 6abd
000002e0: 2c8e b13d afa5 67bd bd6e e33c ff55 aa3d
000002f0: 6b67 7c3d 8856 89bd 46c8 893c 098c 8a3d
00000300: ba56 53bc cc72 3fbd 84bb 2cbd 3e79 313d
00000310: 2051 9fbd 57ce 78bc 281a b2bd 2638 233d
00000320: cf50 e93c d90a 17bd e9e2 ab3a 7d4b 883d
00000330: 21fb 9d3d 2f8a a5bd f781 87bd 4829 68bc
00000340: bddd 1e3c ef2e 36bd 3cad 5d3c 78f3 ae3c
00000350: c19f cebc 4a0e 903d 4638 22bc f7ea ffbc
00000360: 1d4a 9d3d 5a34 e9bc e27f 153b b0f8 b43d
00000370: cf3e 6abd 736f 933c 3e23 ad3d 46c5 a4bd
00000380: eb54 8c3d 5f0f 123d 657e c73c c94f b23d
00000390: 4553 59bd 59e9 8e3d f891 9f3d d4b1 8abc
000003a0: dbf2 f8ba 229e a83d d93a 923d e42f 333d
000003b0: 5d2a 583c 595e 143d e166 823c bb75 b1bd
000003c0: f636 97bd 8471 aebc af6f fb3c eeb7 8ebd
000003d0: 96d2 80bd 73ed 10bc 373d 8dbd 7c95 48bd
000003e0: 3253 103b 1804 2abd 1c8f 003d 89db c3bb
000003f0: 13da 32bd 82ef a53d bfd6 b8bc 6b8d 8e3c

actor.4.bias f4 [128]
0.025204184 -0.0007505101 0.040063478 0.023037665 -0.010552114 0.06541711 -0.0029694326 0.00027427622
0.023302672 -0.071619526 -0.069883026 0.0062935175 -0.06682416 -0.054894328 0.07638895 -0.008693389
0.055175778 0.040002134 -0.0630757 0.029337656 -0.07277227 0.056929898 -0.00864018 0.052586008
0.03837062 0.0062813894 0.04236173 -0.010784306 -0.031869996 0.08449246 -0.011043891 0.023776231
0.0072090593 0.08531241 0.036227815 0.033261515 0.0863742 0.02202971 -0.030189728 0.0012795002
-0.056262072 -0.046921004 -0.07253929 -0.07919866 -0.034116875 -0.0658809 0.021713248 -0.069607
0.010338073 0.065809585 -0.0348294 0.061357677 0.0074655646 -0.029749041 0.04225431 0.008473189
-0.05202411 -0.06152297 -0.005822977 -0.0044384496 0.056186076 0.00068132137 -0.015729716 -0.05414281
-0.041311413 0.022957211 0.021508394 0.070399724 0.08462934 0.07253137 -0.03872884 -0.035114225
0.010311269 0.062291835 0.011118636 -0.03573313 -0.025367264 -0.027338464 0.07555628 -0.020900713
-0.070583336 -0.039668933 0.083984986 -0.017752556 -4.1553405e-05 -0.012787713 0.03918132 0.048058167
0.087789565 -0.06045836 0.06704175 0.048874453 -0.03063721 -0.069754764 -0.07141926 0.00012103339
-0.036486436 -0.054518677 -0.016929876 0.052606743 -0.048850555 -0.07674561 -0.08724411 0.024029447
-0.061513387 0.028797248 -0.06521337 0.08590388 0.05667235 -0.040767476 0.0418733 -0.06483079
-0.042142835 -0.06327688 0.082710676 0.08385851 -0.06708139 -0.07895394 -0.05661784 0.053615063
0.057692654 0.04906555 0.08125862 0.049984388 0.07555895 -0.0013625394 -0.07030191 0.033346575
00000000: 0179 ce3c e1bd 44ba 9a19 243d 7cb9 bc3c
00000010: c6e2 2cbc 68f9 853d d09a 42bb bbcc 8f39
00000020: 3fe5 be3c 42ad 92bd d51e 8fbd da39 ce3b
00000030: 1bdb 88bd e0d8 60bd cf71 9c3d b76e 0ebc
00000040: ffff 613d 47d9 233d d52d 81bd 8655 f03c
00000050: a109 95bd 532f 693d 8b8f 0dbc 6d64 573d
00000060: 832a 1d3d 1dd4 cd3b 7e83 2d3d a8b0 30bc
00000070: 1d8a 02bd 620a ad3d 70f1 34bc 5fc6 c23c
00000080: f939 ec3b 46b8 ae3d 9e63 143d 3a3d 083d
00000090: f5e4 b03d a677 b43c 7350 f7bc e7b4 a73a
000000a0: 0f73 66bd 3d30 40bd 7b8f 94bd e832 a2bd
000000b0: 23be 0bbd 91ec 86bd fbdf b13c 1d8e 8ebd
000000c0: 0561 293c 2dc7 863d 46a9 0ebd 3052 7b3d
000000d0: b2a1 f43b 43b4 f3bc db12 2d3d 21d3 0a3c
000000e0: 3c17 55bd 83ff 7bbd acce bebb 6a70 91bb
000000f0: 5f23 663d b49a 323a 9bdb 80bc dac4 5dbd
00000100: 2836 29bd c310 bc3c 5f32 b03c bb2d 903d
00000110: 2652 ad3d 548b 943d 22a2 1ebd efd3 0fbd
00000120: 99f0 283c b925 7f3d f02a 363c e75c 12bd
00000130: 02cf cfbc eaf4 dfbc 40bd 9a3d f937 abbc
00000140: ff8d 90bd e47b 22bd 5200 ac3d cf6d 91bc
00000150: a149 2eb8 8e83 51bc 987c 203d a4d8 443d
00000160: 04cb b33d 2fa3 77bd 2f4d 893d 9430 483d
00000170: e3fa fabc 96db 8ebd 4344 92bd 4ed3 fd38
00000180: cd72 15bd fa4e 5fbd 86b0 8abc 2b7a 573d
00000190: 8517 48bd cd2c 9dbd 0aad b2bd 67d9 c43c
000001a0: 76f5 7bbd 35e8 eb3c 968e 85bd 60ee af3d
000001b0: 4421 683d ccfb 26bd 5683 2b3d 01c6 84bd
000001c0: f79d 2cbd 4f97 81bd 3764 a93d 03be ab3d
000001d0: f861 89bd 9ab2 a1bd 1ce8 67bd 789b 5b3d
000001e0: 224f 6c3d f5f8 483d eb6a a63d 6ebc 4c3d
000001f0: a7be 9a3d 3c97 b2ba 73fa 8fbd 6b96 083d

actor.6.weight f4 [8, 128]
0.07148462 0.05582778 -0.001372898 0.08127588 -0.007529568 -0.07218786 0.077252075 -0.008584296
-0.08282971 -0.08544683 -0.05304907 0.046025094 -0.031031232 -0.08142326 -0.039344553 -0.05531708
-0.056953922 -0.07220225 -0.0668694 -0.04514566 0.04485604 0.033802524 -0.070278764 0.015348341
0.052718587 -0.08305497 -0.01337128 0.017656952 -0.08228935 0.015281753 -0.07227053 0.023112664
0.028427258 0.08559535 0.078952156 -0.03793559 -0.051091943 0.042446245 -0.06028435 -0.005314352
0.026440924 -0.0010995734 -0.06374383 -0.0048162346 -0.04200271 -0.027017444 0.03783193 -0.06357804
-0.008563253 -0.006635823 -0.007601559 0.08716135 -0.041633226 -0.0329719 0.059426125 -0.06873954
-0.0007008161 -0.07962195 0.04843147 0.03221413 0.0074558994 0.023850592 0.0870533 0.029693153
-0.060818214 0.077656716 -0.033331875 -0.053265855 -0.069992 -0.015291572 0.08161676 -0.060900956
0.00037663212 0.070608884 -0.023608996 -0.04821036 0.0039473725 0.016229907 -0.03849286 -0.02311944
-0.0040824898 0.01062872 0.058887605 0.0036486608 -0.08532114 -0.054985087 0.054232035 0.045897502
-0.0615847 0.058853757 0.052169576 -0.048119865 -0.07085061 0.03326103 0.012282462 0.019030508
0.0054015913 0.030922774 -0.07571838 0.023124943 0.020036217 0.00566884 0.023866188 -0.08309384
0.05512983 -0.0055717602 -0.004606521 -0.05435013 -0.0040107924 -0.006534225 -0.078538135 0.045956645
0.023538753 0.08129673 0.022613712 0.052911755 0.071373306 0.054128077 0.00049844885 0.06132634
-0.08768465 0.02606797 -0.055430382 -0.012630556 0.088865355 -0.07828891 0.063348606 -0.08019179
-0.03957796 -0.08011158 0.08479746 0.071462 -0.083851755 -0.059361644 0.07656322 -0.021687523
0.06807452 0.008483704 -0.0737321 -0.049229193 -0.06394497 0.058433328 -0.029069569 0.032561596
0.04935987 -0.021026704 -0.025316533 -0.080873065 -0.017388064 -0.07227122 -0.027340038 0.0201693
-0.054040473 -0.08031618 -0.06341375 -0.013250365 0.0031867637 -0.0713824 0.058091428 0.09059903
-0.07171176 -0.04228906 -0.086122945 0.0789975 -0.008766355 -0.056747343 -0.06969856 0.0016169819
0.009652445 -0.0668071 0.08398247 0.044089425 0.0031146847 -0.07102633 0.06457632 -0.04577304
0.04345447 0.024455523 -0.023217823 0.054956675 0.05597807 -0.02433194 0.08834631 -0.05837098
0.017879818 -0.08151698 0.0112183895 -0.02908582 0.08662997 0.054648083 0.063782685 -0.08317966
0.07212492 0.032523762 -0.013803969 0.024941029 0.03895577 -0.040479276 0.062156282 -0.07620167
0.0086058425 0.07721317 -0.029150581 -0.048140123 0.04670106 0.04614834 -0.08084679 -0.018223774
0.060369685 0.06595657 0.007951243 0.03264884 -0.04245004 0.06439403 -0.07766933 -0.06609432
-0.05112635 0.03003224 -0.030334268 0.047475573 0.07183716 0.039378036 -0.042246684 0.08356561
-0.01234484 0.043457966 0.080255106 0.06791218 0.025279406 -0.028368691 -0.025435533 -0.06372216
-0.06368291 -0.080101326 0.039770547 0.044908796 0.011703838 -0.061476864 0.0032829228 -0.071934894
0.07424879 -0.034132026 -0.012101789 0.028157525 -0.03884137 -0.033077884 0.06135414 -0.016832443
0.03222066 0.055226494 0.044802025 -0.036890283 -0.03471083 0.07532491 0.08283999 -0.06500995
00000000: 8766 923d acab 643d d0f2 b3ba f873 a63d
00000010: 98ba f6bb 3bd7 93bd 5636 9e3d 26a5 0cbc
00000020: 9fa2 a9bd bffe aebd fb49 59bd cf84 3c3d
00000030: 3635 febc 3dc1 a6bd c127 21bd 2a94 62bd
00000040: 8448 69bd c6de 93bd d3f2 88bd a8ea 38bd
00000050: f8ba 373d 8474 0a3d 50ee 8fbd 9c77 7b3c
00000060: 72ef 573d b918 aabd 3713 5bbc 50a5 903c
00000070: 5287 a8bd 5160 7a3c 9202 94bd c556 bd3c
00000080: 48e0 e83c 9d4c af3d abb1 a13d 5962 1bbd
00000090: c945 51bd 1ddc 2d3d b9ec 76bd 0424 aebb
000000a0: a39a d83c 901f 90ba 208c 82bd 81d1 9dbb
000000b0: 090b 2cbd b053 ddbc a7f5 1a3d 3435 82bd
000000c0: e34c 0cbc 5171 d9bb 8016 f9bb a681 b23d
000000d0: 9a87 2abd 8b0d 07bd cf68 733d 51c7 8cbd
000000e0: f9b6 37ba d510 a3bd 1460 463d f7f2 033d
000000f0: 9e50 f43b 5162 c33c 0049 b23d 0e3f f33c
00000100: 851c 79bd 7c0a 9f3d 0187 08bd 4c2d 5abd
00000110: f757 8fbd 8089 7abc b026 a73d 4873 79bd
00000120: b576 c539 649b 903d a767 c1bc 3a78 45bd
00000130: f658 813b 95f4 843c b0aa 1dbd fb64 bdbc
00000140: 68c6 85bb 1524 2e3c 2134 713d 5f1e 6f3b
00000150: dabc aebd 0b38 61bd 6922 5e3d 05ff 3b3d
00000160: 3d40 7cbd a310 713d c4af 553d 5619 45bd
00000170: 201a 91bd b83c 083d 613c 493c dee5 9b3c
00000180: d5ff b03b c251 fd3c 3d12 9bbd 8570 bd3c
00000190: fe22 a43c adc1 b93b 0683 c33c 1a2d aabd
000001a0: d1cf 613d 5093 b6bb 4df2 96bb 3e9e 5ebd
000001b0: f76c 83bb 0d1d d6bb 9ad8 a0bd 093d 3c3d
000001c0: 58d4 c03c e67e a63d 6440 b93c ffb9 583d
000001d0: 2b2c 923d 67b5 5d3d 56aa 023a 5431 7b3d
000001e0: 0394 b3bd 7f8c d53c f80a 63bd 64f0 4ebc
000001f0: 0aff b53d f055 a0bd eabc 813d 983b a4bd
00000200: 801c 22bd 8a11 a4bd 4aaa ad3d ab5a 923d
00000210: 78ba abbd 3225 73bd 2dcd 9c3d 08aa b1bc
00000220: a76a 8b3d 3cff 0a3c db00 97bd 8da4 49bd
00000230: 95f5 82bd c957 6f3d 4e23 eebc 4f5f 053d
00000240: 932d 4a3d 3240 acbc 9e64 cfbc c7a0 a5bd
00000250: 6a71 8ebc ef02 94bd 37f8 dfbc 163a a53c
00000260: 8b59 5dbd cf7c a4bd 11df 81bd 0f18 59bc
00000270: 06d9 503b f030 92bd 47f1 6d3d fc8b b93d
00000280: 9ddd 92bd 4b37 2dbd 3a61 b0bd 71c9 a13d
00000290: c2a0 0fbc e76f 68bd 1ebe 8ebd e9f0 d33a
000002a0: 4a25 1e3c 29d2 88bd 00ff ab3d 1d97 343d
000002b0: bd1f 4c3b 4176 91bd 9740 843d 837c 3bbd
000002c0: 50fd 313d f356 c83c 4e33 bebc 401a 613d
000002d0: 4349 653d c753 c7bc e9ee b43d 6916 6fbd
000002e0: b278 923c 60f2 a6bd 56cd 373c 6345 eebc
000002f0: 0e6b b13d abd6 5f3d 7fa0 823d 195a aabd
00000300: 3bb6 933d a337 053d 0b2a 62bc 2151 cc3c
00000310: 1690 1f3d 99cd 25bd 9697 7e3d 9f0f 9cbd
00000320: 85ff 0c3c f021 9e3d 33cd eebc 942e 45bd
00000330: 9c49 3f3d 0b06 3d3d 0093 a5bd 064a 95bc
00000340: 3446 773d 3d14 873d ee45 023c caba 053d
00000350: 18e0 2dbd 04e1 833d 1911 9fbd 755c 87bd
00000360: dd69 51bd 2c06 f63c 927f f8bc bf75 423d
00000370: 5c1f 933d dd4a 213d dc0a 2dbd 7224 ab3d
00000380: 0342 4abc fb00 323d ca5c a43d 8b15 8b3d
00000390: c216 cf3c 7565 e8bc 2e5e d0bc c480 82bd
000003a0: 2f6c 82bd 2a0c a4bd 71e6 223d 49f2 373d
000003b0: 74c1 3f3c 2acf 7bbd 4e26 573b 9a52 93bd
000003c0: c00f 983d 06ce 0bbd 9546 46bc 9caa e63c
000003d0: 2118 1fbd ad7c 07bd 7b4e 7b3d 31e4 89bc
000003e0: d0f9 033d 2d35 623d 5482 373d 441a 17bd
000003f0: f12c 0ebd f243 9a3d 03a8 a93d f023 85bd

actor.6.bias f4 [8]
0.084210895 -0.051813297 0.010264515 0.037458804 0.061891302 0.04150219 -0.0544696 -0.04799364
00000000: c376 ac3d 2e3a 54bd 7f2c 283c 676e 193d
00000010: bc81 7d3d 33fe 293d 841b 5fbd fb94 44bd

critic.0.weight f4 [128, 31]
0.14030045 0.15700588 -0.14647713 -0.0112657705 -0.023483187 0.023930084 0.12237996 0.07750427
0.039500497 0.055946786 0.13652691 0.17660762 -0.12995815 0.10166149 0.116789415 0.007195578
0.09727721 -0.13099232 0.033665553 -0.16533609 0.09794238 0.098660335 0.11865279 0.09493621
0.16105364 0.06343443 0.082148254 0.07413645 -0.038629085 -0.10615178 -0.08793095 0.09400051
0.14750464 0.13146177 -0.012164013 0.08238015 0.06713805 0.08738208 0.0057615014 0.06520999
-0.005766989 -0.18246855 0.036967203 0.15957385 -0.1224232 -0.046773564 -0.12964895 0.05799002
-0.18058348 -0.1593673 -0.12790522 -0.094442345 0.10741694 0.05745158 0.114934646 -0.034258038
0.12223487 0.17434753 -0.109407514 0.05284835 -0.07706773 0.08206921 -0.043910593 -0.0071785743
0.017812056 0.16109662 0.13814344 0.07822607 0.17056176 -0.14157635 0.05672161 -0.17712156
-0.085707635 -0.15189129 0.14285722 0.12111403 0.05598583 -0.016776696 0.016588712 0.09850043
0.087550476 0.10855598 -0.10442499 0.15391849 0.1696067 0.060592465 0.16739026 0.055108674
-0.03886259 0.06384877 0.08966071 -0.1758207 -0.035988048 0.102592796 0.034390233 0.05112262
0.0949067 -0.12223017 -0.106501564 0.11624698 -0.027546356 0.10709258 -0.009040237 -0.10740617
-0.053706054 -0.15740825 0.049971826 0.12744592 0.034182794 0.07640304 0.10404658 -0.13370521
0.13190188 0.10910258 -0.05636655 0.15998168 0.17498146 -0.041048013 -0.10497729 -0.12506913
0.0021332589 0.062474214 -0.00843879 -0.05179127 0.033239845 0.088082545 0.15862042 0.009206154
0.101799324 0.12650049 0.12282079 -0.05312058 0.101520345 -0.06193382 0.1433839 0.048818253
-0.008533358 -0.10325141 0.12911609 0.14525038 0.062144585 -0.14113343 -0.03206 0.091248915
0.13918051 -0.1184362 -0.097861 0.11872928 -0.042835996 -0.0079307975 0.17174135 0.1033689
-0.06893644 -0.0034452889 0.013048916 -0.09460521 -0.09824721 -0.106660955 -0.08590423 -0.15089643
-0.062007543 0.11631739 -0.060702354 0.0037768597 0.16035135 0.1405314 0.1598059 0.087231256
0.06882413 -0.04427493 0.09022518 -0.03725755 0.11838241 -0.018441584 0.07153362 0.040233552
-0.076685764 0.014930909 -0.0770428 -0.084453136 -0.07169543 -0.17418686 0.1799221 -0.07348554
-0.13107936 0.0875187 0.005861326 0.0048074485 -0.1411569 -0.040709972 -0.07723753 -0.05120127
0.022765301 0.110660784 0.09464695 0.10261774 0.1511772 0.15822816 -0.1103702 -0.13693626
0.13506272 0.09163159 -0.077713124 -0.00592168 0.17207061 -0.11561071 -0.05886036 0.02060758
-0.1553889 0.06636338 -0.15586561 -0.12153616 -0.1387427 -0.0085458625 -0.099529855 -0.13223639
0.084196284 -0.08259827 -0.16321468 -0.08490644 0.055719316 -0.14254105 0.059727542 0.08930069
0.175002 -0.116555534 -0.0122939125 0.1633989 0.14004888 0.060903803 -0.14802657 -0.041252445
0.07578388 0.12528902 0.09772254 -0.07791413 0.047889955 -0.16856349 -0.02119246 -0.033336956
-0.042524688 0.117007546 -0.025319876 -0.17301877 0.103929155 0.15772395 0.12704287 -0.092141315
-0.14435938 0.032882866 -0.13574138 -0.07271156 0.0007730813 0.12708853 0.16604178 0.17203493
00000000: ecaa 0f3e 26c6 203e 1afe 15be 1194 38bc
00000010: d05f c0bc 0609 c43c 58a2 fa3d 8fba 9e3d
00000020: 46cb 213d 7528 653d b6cd 0b3e a1d8 343e
00000030: c013 05be e633 d03d 4a2f ef3d e2c8 eb3b
00000040: 4639 c73d da22 06be e4e4 093d dd4d 29be
00000050: 0496 c83d 6e0e ca3d 3c00 f33d ea6d c23d
00000060: 3feb 243e e9e9 813d 583d a83d dad4 973d
00000070: 8839 1ebd 1b66 d9bd 2415 b4bd 5783 c03d
00000080: 750b 173e ea9d 063e 924b 47bc edb6 a83d
00000090: ad7f 893d 60f5 b23d faca bc3b d18c 853d
000000a0: 03f9 bcbb 09d9 3abe ec6a 173d 5467 233e
000000b0: 04b9 fabd a395 3fbd b2c2 04be f186 6d3d
000000c0: e0ea 38be 2e31 23be 96f9 02be fd6a c1bd
000000d0: 6afd db3d 5952 6b3d db62 eb3d 2852 0cbd
000000e0: 4756 fa3d 2988 323e 0c11 e0bd 8377 583d
000000f0: b0d5 9dbd e713 a83d 98db 33bd 3f3a ebbb
00000100: 97ea 913c 83f6 243e 7975 0d3e fd34 a03d
00000110: bea7 2e3e 64f9 10be eb54 683d 5b5f 35be
00000120: 7c87 afbd 6489 1bbe 2a49 123e a20a f83d
00000130: 6651 653d 486f 89bc 0de5 873c 98ba c93d
00000140: aa4d b33d 9952 de3d c5dc d5bd cf9c 1d3e
00000150: 61ad 2d3e ce2f 783d 5a68 2b3e a2b9 613d
00000160: 612e 1fbd 25c3 823d 09a0 b73d 570a 34be
00000170: 3468 13bd 2c1c d23d c6dc 0c3d f465 513d
00000180: 725e c23d d053 fabd 7e1d dabd e612 ee3d
00000190: e5a8 e1bc 5b53 db3d 811d 14bc c4f7 dbbd
000001a0: e1fa 5bbd a12f 21be 42af 4c3d 2f81 023e
000001b0: 4203 0c3d 3279 9c3d 6016 d53d 05ea 08be
000001c0: 4911 073e 2c71 df3d 9de0 66bd 3dd2 233e
000001d0: 572e 333e f621 28bd 55fe d6bd 1f12 00be
000001e0: 25ce 0b3b f6e4 7f3d da42 0abc 1523 54bd
000001f0: 8126 083d 9f64 b43d 646d 223e 69d5 163c
00000200: 2a7c d03d 5889 013e 7789 fb3d f794 59bd
00000210: e6e9 cf3d 51ae 7dbd 3bd3 123e a6f5 473d
00000220: 7fcf 0bbc 7a75 d3bd 0237 043e 84bc 143e
00000230: 528b 7e3d 4885 10be 5951 03bd b6e0 ba3d
00000240: 5685 0e3e ae8e f2bd 596b c8bd 5628 f33d
00000250: cc74 2fbd 2df0 01bc f7dc 2f3e 13b3 d33d
00000260: 8c2e 8dbd 5bca 61bb 1fcb 553c 60c0 c1bd
00000270: d535 c9bd 0f71 dabd 8fee afbd 9884 1abe
00000280: 9ffb 7dbd d037 ee3d 08a3 78bd 3185 773b
00000290: 2533 243e 77e7 0f3e 28a4 233e 4da6 b23d
000002a0: aaf3 8c3d a159 35bd fbc7 b83d 5f9b 18bd
000002b0: 7a72 f23d ce12 97bc 3880 923d f0cb 243d
000002c0: 6d0d 9dbd c5a0 743c 9ec8 9dbd c4f5 acbd
000002d0: 0ed5 92bd 0a5e 32be 803d 383e 967f 96bd
000002e0: ab39 06be 013d b33d 5e10 c03b cd87 9d3b
000002f0: 6f8b 10be 80bf 26bd b62e 9ebd 6cb8 51bd
00000300: 4c7e ba3c 1fa2 e23d 43d6 c13d 4029 d23d
00000310: 32ce 1a3e 9006 223e c509 e2bd 0539 0cbe
00000320: e24d 0a3e 58a9 bb3d 0f28 9fbd a70a c2bb
00000330: 4733 303e 4fc5 ecbd 9017 71bd 3ad1 a83c
00000340: 451e 1fbe 86e9 873d 3c9b 1fbe f3e7 f8bd
00000350: 9112 0ebe f203 0cbc 4fd6 cbbd fa68 07be
00000360: 1a6f ac3d 4829 a9bd c021 27be 6de3 adbd
00000370: f039 643d 48f6 11be dea4 743d 48e3 b63d
00000380: b933 333e abb4 eebd 686c 49bc 0b52 273e
00000390: f968 0f3e 4476 793d 4794 17be 53f8 28bd
000003a0: 9434 9b3d c44b 003e c122 c83d 7291 9fbd
000003b0: 4228 443d e89b 2cbe cf9b adbc 558c 08bd
000003c0: 5e2e 2ebd a7a1 ef3d a16b cfbc d52b 31be
000003d0: cfd8 d43d 6382 213e 8717 023e 96b4 bcbd
000003e0: f2d2 13be 2fb0 063d caff 0abe cce9 94bd
000003f0: 9ca8 4a3a 7f23 023e db06 2a3e ed29 303e

critic.0.bias f4 [128]
-0.12155188 -0.042768493 0.17530604 0.11327068 -0.0018043141 -0.10916733 0.11880333 0.030764407
0.07199707 -0.092765376 0.043647096 -0.18292464 -0.08769505 -0.065182425 0.0758419 -0.072896585
-0.16807206 -0.1571018 0.113431394 0.044751287 0.15607613 -0.022812253 -0.1150089 -0.12073924
0.01499918 -0.0624954 0.030987538 -0.116901435 -0.1695812 0.00803984 0.16375268 -0.040969558
0.008546686 0.12642492 0.15499318 -0.16106738 -0.17390607 0.025438221 -0.09253951 -0.11460241
-0.048268165 0.07689329 -0.040246226 -0.09607921 0.14212443 0.06580632 0.07111957 -0.07345239
-0.1727412 0.07643513 -0.030635271 -0.17225459 -0.13664924 -0.10330125 -0.13266757 -0.103231184
0.04712461 -0.087572165 -0.046498347 -0.019707693 0.029089877 -0.035547122 -0.05917597 -0.030024836
-0.039108645 -0.123287335 0.047987446 -0.013796332 -0.132271 0.13267685 -0.08250772 0.13078813
0.018216174 0.100826524 0.08079223 -0.086022146 0.15457977 -0.025600335 0.05345005 0.06997207
0.049568135 -0.04780324 0.0138599025 0.085524224 -0.1339978 0.009774761 0.049412046 0.038899306
0.10858551 0.14733848 -0.08912148 0.08556661 -0.0918989 -0.006706582 -0.11543868 0.14433992
-0.04290998 -0.11342499 0.14243549 0.13591366 0.15780976 -0.0465252 0.039900564 -0.013876998
0.026505858 -0.14082399 0.14812881 -0.085795864 0.09258379 -0.16159722 -0.13448763 0.09992124
0.0051539545 0.112928435 0.03522086 0.10775367 0.0071620354 0.1636542 -0.11489253 0.075037025
0.093142584 0.061340522 0.12113269 -0.07188498 0.12531094 -0.1646448 0.09521834 0.025279183
00000000: 31f0 f8bd 042e 2fbd 6d83 333e 75fa e73d
00000010: bc7e ecba 1f93 dfbd 294f f33d a305 fc3c
00000020: 3373 933d c6fb bdbd 4cc7 323d 9950 3bbe
00000030: 7699 b3bd 5d7e 85bd 0053 9b3d ce4a 95bd
00000040: 151b 2cbe 4bdf 20be b84e e83d 204d 373d
00000050: 6cd2 1f3e c3e0 babc c989 ebbd 2246 f7bd
00000060: 1fbf 753c 2dfb 7fbd 94d9 fd3c 056a efbd
00000070: b2a6 2dbe 88b9 033c c8ae 273e b2cf 27bd
00000080: 6607 0c3c 8975 013e 88b6 1e3e d9ee 24be
00000090: 6f14 32be d163 d03c 5b85 bdbd abb4 eabd
000000a0: d7b4 45bd 3b7a 9d3d 3ad9 24bd 2dc5 c4bd
000000b0: 1189 113e 77c5 863d 23a7 913d 356e 96bd
000000c0: 12e3 30be 058a 9c3d d2f6 fabc 8263 30be
000000d0: c7ed 0bbe 9b8f d3bd 02da 07be df6a d3bd
000000e0: bc05 413d 0959 b3bd 0d75 3ebd 0772 a1bc
000000f0: e54d ee3c dc99 11bd 8062 72bd a5f6 f5bc
00000100: 6330 20bd 127e fcbd 7c8e 443d 030a 62bc
00000110: 0d72 07be 71dc 073e cff9 a8bd 53ed 053e
00000120: 163a 953c 237e ce3d 6676 a53d 612c b0bd
00000130: 294a 1e3e cbb7 d1bc 71ee 5a3d 844d 8f3d
00000140: f507 4b3d 55cd 43bd a514 633c 5327 af3d
00000150: b836 09be 5226 203c 4964 4a3d e154 1f3d
00000160: 1462 de3d e6df 163e 5385 b6bd 8c3d af3d
00000170: 7e35 bcbd e3c2 dbbb 1d6b ecbd d8cd 133e
00000180: 60c2 2fbd 5c4b e8bd 9cda 113e f32c 0b3e
00000190: e298 213e 3591 3ebd c66e 233d 595c 63bc
000001a0: d022 d93c 2a34 10be 14af 173e beb5 afbd
000001b0: 929c bd3d be79 25be 20b7 09be 82a3 cc3d
000001c0: 81e2 a83b 0647 e73d c043 103d f5ad dc3d
000001d0: 82af ea3b f794 273e c64c ebbd 03ad 993d
000001e0: 8ac1 be3d 3340 7b3d 6a14 f83d 6f38 93bd
000001f0: 8351 003e a598 28be d501 c33d 4a16 cf3c
