ISAAC_NOGIT/logs/rsl_rl/traquad_flat/2025-09-16_12-14-57/exported/policy.pt (torch, 163624 bytes, 8 tensors)

weight f4 [128, 31]
-0.12672076 -0.1806291 0.324659 0.303224 -0.22145887 0.14202547 0.009255431 -0.106260926
0.07752516 1.2949344 0.09400996 -0.69784224 -0.115154736 -0.4430887 -0.33124 -0.058165565
0.11289736 0.1544096 0.078081295 -0.0130866105 0.058676794 -0.08041453 -0.08157866 0.07597193
0.30040213 -0.19629481 -0.074147955 -0.13429148 0.16053121 -0.06356213 -0.17250413 0.66152394
-0.41241944 0.33122954 -0.4077355 0.06900151 0.38965896 0.0039025715 0.19628432 0.2541727
1.7323432 0.14992619 0.02818934 0.35842603 0.5563455 -0.7602292 -0.191319 0.098932914
-0.15447922 -0.13982877 0.010191108 0.011146768 0.0041417745 0.007831663 0.007921721 -0.011184805
0.49167344 0.03022224 -0.28479198 -0.25363222 0.16129282 -0.11185848 0.11981172 0.30491182
0.5150418 -0.2728569 -0.22227266 -0.10989276 0.27121705 -0.3903135 -0.108099334 0.98881817
-1.2578131 -0.12738882 -0.37777695 -0.6758176 -0.018930396 -0.11950011 0.012407274 -0.044544086
-0.30337077 0.040716235 0.08851592 0.095168896 -0.02026931 0.34210014 -0.07035909 -0.101046465
-0.061745156 -0.016940907 -0.08066739 -0.13715376 0.3587263 0.38354385 0.16315837 -0.6349142
-0.47720006 -0.13372706 -0.24844846 0.11798404 0.04075238 0.21785109 0.08962754 -0.27921233
-0.18703735 0.1586788 0.3977924 -0.17501248 0.5139649 -0.11847916 0.1082482 0.50631505
0.026485814 0.07458066 -0.059329353 0.034388233 -0.037550278 -0.5918861 -0.16220969 -0.1545515
-0.13563249 -0.109531276 0.22447574 -0.020072678 0.60912305 0.08948305 -0.10708381 -0.97527283
0.14461969 -0.3463736 0.11633031 0.51633143 -0.056017835 1.9180819 -1.061989 0.028084973
0.56107473 -0.060185898 -0.38314503 0.15737616 0.27663574 -0.121400945 -0.032244425 0.044970166
0.003830363 -0.020975802 -0.004873591 0.20021388 -0.47675234 0.85961026 0.185237 -0.1696133
0.060724307 -0.11257905 0.5156085 -0.45493585 -0.23559837 0.020118283 -0.2953209 -0.2397301
-0.09811041 0.015401515 0.10164342 -0.013092227 1.0637285 -0.59198326 -0.3892071 0.43054497
-0.23345564 0.14372455 0.105293 -0.1079109 0.16725467 0.25889003 0.08107272 0.054012664
-0.09738802 0.04360348 0.06542978 -0.20778744 -0.25745678 -0.24062757 -0.34339082 -0.0446417
0.17357 -0.14536174 -0.33174077 0.090391666 -0.16881396 0.08131005 -0.15401942 -0.5421731
-0.23210879 0.18851265 0.14199048 1.0359448 0.66749007 0.2583862 -0.20175892 -0.08214998
0.49741235 0.25933674 0.043180104 -0.20551096 0.5929277 0.032153722 0.024405416 -0.021879397
-0.002803306 -0.18710828 -0.24767953 -0.30358222 -0.059235565 -0.075919725 0.051489603 0.14019978
-0.014643046 0.6992097 -0.36891186 0.2063453 -0.22416855 -0.25283855 0.45446143 0.39877683
0.20118202 0.035011597 1.1923039 0.3579237 0.050131854 0.18323295 -0.33683398 -0.2753044
0.1475197 -0.23820238 0.060746916 0.11558043 0.01939248 0.040923152 0.0067796577 -0.031023566
-0.016468484 -0.34895304 -0.24189985 -0.022688005 -0.08171734 0.11710878 0.0076925685 0.6318083
-0.18641043 0.4549026 1.0193657 -0.32999396 -0.093662366 0.03945363 0.10304388 0.056042515
00000000: 16c3 01be d6f6 38be b439 a63e 2d40 9b3e
00000010: 1dc6 62be 206f 113e 17a4 173c 549f d9bd
00000020: 83c5 9e3d 69c0 a53f 4b88 c03d caa5 32bf
00000030: 3fd6 ebbd 86dc e2be 4a98 a9be 043f 6ebd
00000040: bb36 e73d 8d1d 1e3e 16e9 9f3d 3969 56bc
00000050: 1457 703d 60b0 a4bd b612 a7bd 2c97 9b3d
00000060: 4fce 993e 8201 49be e2da 97bd b583 09be
00000070: 4b62 243e dd2c 82bd eca4 30be a259 293f
00000080: a428 d3be eb96 a93e b5c2 d0be aa50 8d3d
00000090: 6181 c73e 49c2 7f3b c2fe 483e ed22 823e
000000a0: 6cbd dd3f 4086 193e 55ed e63c 9e83 b73e
000000b0: a96c 0e3f 619e 42bf 21e9 43be 579d ca3d
000000c0: cd2f 1ebe 462f 0fbe 9bf8 263c efa0 363c
000000d0: b9b7 873b 6050 003c 1bca 013c 7940 37bc
000000e0: 9fbc fb3e a294 f73c 41d0 91be 15dc 81be
000000f0: f229 253e 0f16 e5bd d95f f53d 671d 9c3e
00000100: c8d9 033f e6b3 8bbe 729b 63be 750f e1bd
00000110: f6dc 8a3e 2cd7 c7be 2f63 ddbd 3023 7d3f
00000120: 0500 a1bf 3772 02be fb6b c1be 6202 2dbf
00000130: eb13 9bbc 79bc f4bd e147 4b3c dc73 36bd
00000140: 6a53 9bbe 11c6 263d d647 b53d e9e7 c23d
00000150: d30b a6bc c027 af3e 6d18 90bd 73f1 cebd
00000160: 7de8 7cbd a8c7 8abc f234 a5bd 0972 0cbe
00000170: f9aa b73e dc5f c43e fd12 273e bd89 22bf
00000180: 9153 f4be bfef 08be 4669 7ebe 9ea1 f13d
00000190: f8eb 263d 5b14 5f3e a58e b73d ebf4 8ebe
000001a0: b886 3fbe b27c 223e 72ab cb3e 7936 33be
000001b0: 3493 033f 34a5 f2bd 3bb1 dd3d dd9d 013f
000001c0: c7f8 d83c bfbd 983d 5603 73bd adda 0c3d
000001d0: 52ce 19bd d985 17bf 4c1a 26be c042 1ebe
000001e0: 3ee3 0abe ef51 e0bd f8dc 653e 756f a4bc
000001f0: 7def 1b3f e442 b73d c24e dbbd 7bab 79bf
00000200: 2f17 143e e157 b1be 963e ee3d 4c2e 043f
00000210: f572 65bd b583 f53f 41ef 87bf 7512 e63c
00000220: 98a2 0f3f 7d85 76bd 962b c4be 3727 213e
00000230: 33a3 8d3e 0fa1 f8bd bb12 04bd a332 383d
00000240: d406 7b3b 72d5 abbc a5b2 9fbb de04 4d3e
00000250: e218 f4be 6b0f 5c3f c5ae 3d3e 1caf 2dbe
00000260: 0dba 783d d88f e6bd ebfe 033f 5aed e8be
00000270: b340 71be 19cf a43c 4d34 97be cf7b 75be
00000280: 1cee c8bd a356 7c3c 6d2a d03d c880 56bc
00000290: 4128 883f 378c 17bf 2746 c7be 6470 dc3e
000002a0: ff0e 6fbe 872c 133e dba3 d73d 6400 ddbd
000002b0: cf44 2b3e 3c8d 843e 7409 a63d 623c 5d3d
000002c0: 5f73 c7bd 9099 323d 0c00 863d 3bc6 54be
000002d0: 60d1 83be 1367 76be ecd0 afbe 37da 36bd
000002e0: 56bc 313e b5d9 14be edd9 a9be 441f b93d
000002f0: 91dd 2cbe e285 a63d 44b7 1dbe dbcb 0abf
00000300: edad 6dbe 7609 413e f465 113e d799 843f
00000310: a1e0 2a3f 324b 843e e499 4ebe 403e a8bd
00000320: d5ac fe3e c9c7 843e 9fdd 303d 7771 52be
00000330: 1cca 173f 9fb3 033d deed c73c 6c3c b3bc
00000340: acb7 37bb 5099 3fbe b49f 7dbe 216f 9bbe
00000350: fea0 72bd cd7b 9bbd c3e6 523d 8890 0f3e
00000360: 63e9 6fbc 68ff 323f 04e2 bcbe 2f4c 533e
00000370: 718c 65be 0e74 81be 2baf e83e 7a2c cc3e
00000380: a902 4e3e 5268 0f3d 6a9d 983f c641 b73e
00000390: 0f57 4d3d 6ba1 3b3e 8175 acbe b3f4 8cbe
000003a0: 670f 173e 53eb 73be c2d1 783d 6fb5 ec3d
000003b0: fadc 9e3c 099f 273d e427 de3b 2225 febc
000003c0: eae8 86bc f9a9 b2be 98b4 77be 32dc b9bc
000003d0: 6c5b a7bd bad6 ef3d f111 fc3b 30be 213f
000003e0: 60e2 3ebe fee8 e83e 937a 823f f8f4 a8be
000003f0: 0ed2 bfbd 219a 213d ab08 d33d d68c 653d

bias f4 [128]
-0.05774356 -0.2086351 -0.005920162 -0.192798 0.015402982 -0.09595547 -0.06728743 -0.12371978
-0.23770401 0.15329833 -0.20557252 -0.093051136 -0.12947133 -0.014333406 -0.36641726 0.04709613
0.15881129 -0.13722646 -0.07110847 -0.12549764 0.25354025 -0.069643505 0.16751806 0.050658107
0.041323625 0.17425531 -0.042971797 0.116125256 -0.043833207 0.043938678 0.03601162 -0.13692367
-0.2853614 0.02729492 -0.050364293 0.05968289 0.08568013 -0.13917135 0.14812315 0.09910884
0.053247765 -0.2405221 -0.15400049 -0.055294845 0.14824015 -0.015238932 -0.023260418 -0.03861154
0.08960163 0.0106894085 -0.0879842 -0.1397925 -0.024883837 0.1346854 0.018022668 -0.05001819
0.049424473 0.10256942 -0.11241589 -0.010115686 -0.031318042 -0.07491312 -0.19573629 0.0016069042
-0.24451667 -0.18679531 -0.15249424 -0.14304492 -0.02181425 0.020392152 -0.15049054 0.033799347
0.11437525 -0.065456375 -0.18919103 -0.052781984 0.116468355 -0.17862794 -0.22471155 0.012763276
-0.11202298 -0.20205812 -0.26073894 0.10200183 -0.100692846 -0.038292043 -0.07863692 -0.0886552
0.11646388 -0.22973996 -0.07433613 -0.046155762 0.07367867 -0.16136046 -0.107173085 -0.04286902
-0.03551711 0.1110151 0.1834229 -0.08707768 0.15365222 0.099770024 0.15066457 -0.21843798
-0.010352652 -0.119498864 -0.17551692 0.07590892 -0.23288895 0.11669554 -0.32323524 0.043349106
0.071509995 0.03423212 0.017979113 0.06341318 -0.037624337 -0.030713284 -0.15348391 -0.0679879
0.22348021 -0.03560293 -0.10392712 0.013344776 0.011785349 0.027615516 -0.012184753 0.044847928
00000000: 8384 6cbd 71a4 55be ebfd c1bb d76c 45be
00000010: ca5c 7c3c 4d84 c4bd fecd 89bd cc60 fdbd
00000020: ae68 73be 3dfa 1c3e 9a81 52be 9891 bebd
00000030: 2294 04be aad6 6abc 0b9b bbbe dfe7 403d
00000040: 6d9f 223e 1885 0cbe 51a1 91bd 7482 00be
00000050: 07d0 813e 41a1 8ebd db89 2b3e e07e 4f3d
00000060: f642 293d fc6f 323e 3203 30bd 14d3 ed3d
00000070: 738a 33bd 0bf9 333d ec80 133d b835 0cbe
00000080: e41a 92be 9999 df3c ca4a 4ebd 0c76 743d
00000090: 1079 af3d ef82 0ebe 98ad 173e 93f9 ca3d
000000a0: 541a 5a3d 6d4b 76be 4eb2 1dbe d97c 62bd
000000b0: 44cc 173e b7ac 79bc a28c bebc 2227 1ebd
000000c0: 0f81 b73d a122 2f3c 0f31 b4bd c425 0fbe
000000d0: 30d9 cbbc f8ea 093e 46a4 933c e0df 4cbd
000000e0: 5171 4a3d eb0f d23d 4d3a e6bd 43bc 25bc
000000f0: 5947 00bd 0d6c 99bd 186f 48be c29e d23a
00000100: 9462 7abe 4547 3fbe 7327 1cbe 5e7a 12be
00000110: ccb3 b2bc 710d a73c 311a 1abe 2f71 0a3d
00000120: 923d ea3d fe0d 86bd 4bbb 41be ec31 58bd
00000130: f686 ee3d 3eea 36be c91a 66be 0f1d 513c
00000140: 4e6c e5bd 53e8 4ebe 937f 85be 56e6 d03d
00000150: 0d38 cebd 1ed8 1cbd 650c a1bd dc90 b5bd
00000160: 9d84 ee3d f440 6bbe 8a3d 98bd d30d 3dbd
00000170: d8e4 963d ad3b 25be 907d dbbd 6d97 2fbd
00000180: 647a 11bd e25b e33d 36d3 3b3e c855 b2bd
00000190: 0257 1d3e 3a54 cc3d d047 1a3e 35ae 5fbe
000001a0: 2b9e 29bc d2bb f4bd b5ba 33be 2376 9b3d
000001b0: 717a 6ebe 12fe ee3d 177f a5be d58e 313d
000001c0: d573 923d fb36 0c3d ef48 933c c5de 813d
000001d0: fa1b 1abd 6d9a fbbc e32a 1dbe 3d3d 8bbd
000001e0: ffd7 643e 61d4 11bd bed7 d4bd 0ca4 5a3c
000001f0: 5617 413c ef39 e23c 8fa2 47bc 76b2 373d

weight f4 [128, 128]
-0.082618676 -0.0311996 0.016805233 -0.064803824 0.026474344 -0.12070497 -0.27958155 0.0485774
-0.008574539 0.04436134 -0.08327923 -0.041020557 0.023830911 0.016350122 0.11865681 -0.10247189
0.090036504 -0.07661548 0.05718597 0.050347984 0.03997988 -0.08302847 0.059366133 0.0042256047
-0.0017271511 0.1646946 0.045036364 -0.018829904 -0.074300274 0.040982712 -0.0020246585 -0.018549703
-0.22569942 -0.004898575 0.105884366 -0.06016999 0.010608243 -0.09515687 -0.105447896 -0.073504016
0.030679055 0.0008420092 0.051153827 0.036588985 0.07462531 0.068381265 -0.036652476 0.044365883
0.050757445 0.0015115814 -0.102806255 -0.040674776 0.026888523 -0.05417876 -0.05735254 0.045977283
0.059382454 -0.025177194 0.04940794 -0.06400731 -0.02100953 0.13167587 0.0074910684 -0.019073755
-0.11507593 0.04759436 -0.03535316 -0.07543995 -0.006169544 -0.060145218 -0.062493827 -0.046513278
-0.015519837 -0.016915847 -0.013923251 -0.015964294 -0.06335024 -0.025075978 -0.104182854 0.029481437
-0.0737464 0.014321802 -0.03302988 0.07747935 0.05796312 0.081306495 -0.13044487 -0.008228772
0.030928766 -0.0914763 -0.06960375 0.057575244 -0.018582942 0.030292954 0.040143095 0.13806412
-0.08973084 -0.0027137818 -0.044462238 -0.04090011 -0.04831867 -0.021779321 0.04500432 0.040507358
-0.17601347 0.04399804 -0.06612569 -0.010219924 -0.016999349 -0.109888025 0.08687188 -0.08860965
0.07638409 0.080502644 -0.12252699 0.04147766 -0.012017905 -0.0449454 -0.026759971 0.04633825
0.059948813 -0.08554514 -0.07900374 0.06084834 -0.09233564 -0.07485471 -0.06740165 -0.07559871
-0.11432982 -0.03753978 0.076907605 0.059939522 0.15463682 0.0009285327 -0.17289326 0.014273679
0.10150849 -0.044416547 0.028183768 -0.05922499 -0.02920211 0.028898297 -0.0014647663 -0.008789716
-0.12313425 -0.031856976 -0.22665176 0.080892935 0.110007346 -0.05499077 -0.0147369 0.004101195
-0.1995557 0.15197575 0.06255929 0.09091298 0.060162682 -0.103256285 -0.121584006 -0.050423693
-0.06307778 -0.05039506 0.109291814 -0.06704398 0.0047533694 -0.06441518 0.014437192 0.012502645
-0.030752206 -0.056215953 0.03180817 0.032337915 0.009729324 -0.06692587 0.085049205 -0.13695936
0.023674484 0.0732021 0.04373983 -0.10928075 -0.078811914 -0.101725034 -0.1647631 -0.033486355
-0.021202002 0.047990065 -0.09227887 -0.108073354 0.010473824 0.08655174 0.059292506 -0.24210209
-0.028059999 -0.020353008 -0.043024473 -0.18755385 -0.061925586 -0.08378685 -0.059539497 -0.07966108
0.02475481 -0.051987246 -0.112414464 -0.06558968 -0.046697084 -0.025125653 -0.0134209925 -0.11941882
-0.14786686 -0.04969864 -0.012953436 0.021167368 -0.023374988 0.13155632 -0.18526465 0.037137877
0.060273714 -0.101285145 0.018625904 0.02823299 -0.009921286 -0.08543605 0.037826624 0.11182802
-0.20371802 -0.08423593 0.03812384 0.03803114 -0.1152887 -0.035948273 -0.13214964 -0.012473051
-0.07696058 0.055904485 -0.13873109 -0.019388665 -0.047002923 0.05258051 -0.11781024 -0.116024874
0.10361749 -0.0013238465 0.08291897 -0.033694994 0.0057358127 0.039338022 -0.0065433728 0.052123107
0.040415738 -0.102167256 0.0007716132 -0.014028056 -0.17909817 0.03761669 -0.0376041 -0.025483076
00000000: fb33 a9bd 4e96 ffbc 21ab 893c deb7 84bd
00000010: b9e0 d83c 2b34 f7bd 5025 8fbe 19f9 463d
00000020: 397c 0cbc 3db4 353d 4d8e aabd 2c05 28bd
00000030: 0b39 c33c b1f0 853c 5702 f33d c8dc d1bd
00000040: 0f65 b83d 94e8 9cbd d63b 6a3d b039 4e3d
00000050: f1c1 233d d50a aabd e729 733d f176 8a3b
00000060: 9361 e2ba b4a5 283e 0d78 383d 2c41 9abc
00000070: be2a 98bd 7ddd 273d 22b0 04bb 8cf5 97bc
00000080: c01d 67be 3a84 a0bb e7d9 d83d cf74 76bd
00000090: 32ce 2d3c 9be1 c2bd 11f5 d7bd 4689 96bd
000000a0: a452 fb3c 48ba 5c3a ad86 513d 55de 153d
000000b0: 28d5 983d 7a0b 8c3d e820 16bd 00b9 353d
000000c0: 0ae7 4f3d 4120 c63a 168c d2bd 989a 26bd
000000d0: 5245 dc3c 8cea 5dbd 7fea 6abd ad52 3c3d
000000e0: 043b 733d 6740 cebc fb5f 4a3d 4416 83bd
000000f0: 2e1c acbc 0ad6 063e a377 f53b 9040 9cbc
00000100: eeac ebbd 4ef2 423d 7ace 10bd 4380 9abd
00000110: e329 cabb d55a 76bd 87f9 7fbd b584 3ebd
00000120: ea46 7ebc 1a93 8abc 591e 64bc 8dc7 82bc
00000130: c5bd 81bd 236c cdbc d25d d5bd 0e83 f13c
00000140: 5a08 97bd fea5 6a3c 574a 07bd 7ead 9e3d
00000150: bd6a 6d3d 0584 a63d 5793 05be f9d1 06bc
00000160: 535e fd3c ed57 bbbd 698c 8ebd 05d4 6b3d
00000170: 413b 98bc ee28 f83c 166d 243d ae60 0d3e
00000180: cdc4 b7bd b4d9 31bb 091e 36bd e086 27bd
00000190: cce9 45bd 8c6a b2bc 7356 383d 0beb 253d
000001a0: e03c 34be 4a37 343d e86c 87bd 7871 27bc
000001b0: 3842 8bbc f90c e1bd e2e9 b13d fa78 b5bd
000001c0: 436f 9c3d 92de a43d 6eef fabd 7be4 293d
000001d0: bfe6 44bc ab18 38bd ba37 dbbc 2dcd 3d3d
000001e0: e38c 753d 4a32 afbd b6cc a1bd 1c3c 793d
000001f0: 781a bdbd 6d4d 99bd e009 8abd 7fd3 9abd
00000200: c125 eabd 50c3 19bd bc81 9d3d 2583 753d
00000210: 1d59 1e3e c668 733a ee0a 31be 26dc 693c
00000220: afe3 cf3d 20ee 35bd a5e1 e63c e795 72bd
00000230: 4339 efbc 1fbc ec3c 67fd bfba be02 10bc
00000240: cf2d fcbd 767c 02bd 6617 68be 32ab a53d
00000250: 884b e13d 003e 61bd 0a73 71bc 5163 863b
00000260: 5458 4cbe 889f 1b3e 161f 803d 9630 ba3d
00000270: 256d 763d 0878 d3bd 0901 f9bd 1389 4ebd
00000280: ec2e 81bd 0d6b 4ebd 63d4 df3d 5b4e 89bd
00000290: 27c2 9b3b 1bec 83bd f989 6c3c e5d7 4c3c
000002a0: 0dec fbbc b342 66bd 4949 023d c374 043d
000002b0: be67 1f3c 6e10 89bd 472e ae3d 133f 0cbe
000002c0: fef0 c13c fcea 953d 8928 333d 96ce dfbd
000002d0: 2468 a1bd 3755 d0bd a8b7 28be fd28 09bd
000002e0: d2af adbc 3b91 443d b4fc bcbd 9055 ddbd
000002f0: 679a 2b3c 0a42 b13d b3dc 723d 9ce9 77be
00000300: 15de e5bc 5abb a6bc 6e3a 30bd 1e0e 40be
00000310: afa5 7dbd 7198 abbd b0df 73bd 5925 a3bd
00000320: 99ca ca3c 94f0 54bd 8e39 e6bd e253 86bd
00000330: 7145 3fbd 50d4 cdbc b9e3 5bbc db91 f4bd
00000340: 696a 17be cd90 4bbd a63a 54bc 3067 ad3c
00000350: e77c bfbc b3b6 063e 04b6 3dbe e31d 183d
00000360: 92e1 763d 966e cfbd 5a95 983c df48 e73c
00000370: e48c 22bc 19f9 aebd 17f0 1a3d 1706 e53d
00000380: 759b 50be e383 acbd be27 1c3d 8ac6 1b3d
00000390: 7b1c ecbd 7f3e 13bd 3c52 07be c55b 4cbc
000003a0: 829d 9dbd 1afc 643d 860f 0ebe fad4 9ebc
000003b0: 2386 40bd a95e 573d 7f46 f1bd 739e edbd
000003c0: 6835 d43d eb84 adba 6cd1 a93d c303 0abd
000003d0: 7cf3 bb3b e820 213d ca69 d6bb 0a7f 553d
000003e0: f98a 253d 113d d1bd 1646 4a3a eed5 65bc
000003f0: 8365 37be f513 1a3d c206 1abd e2c1 d0bc

bias f4 [128]
0.04160312 -0.14153126 -0.16794993 -0.07770025 -0.012831226 -0.100286 -0.008038406 -0.041672423
-0.10515785 0.016993161 -0.09706999 -0.02805401 0.103186555 -0.022230119 -0.09763681 -0.026164472
0.0018772896 -0.032867055 0.034701638 0.083093144 -0.023015985 -0.1710227 -0.12870963 -0.0875435
0.014889415 -0.06122932 -0.18548921 -0.13391405 0.058741562 -0.008040869 -0.024397194 0.043424685
-0.02166939 0.04211963 0.0719784 -0.05927321 -0.44792575 0.0034774898 -0.079511285 -0.22790441
-0.08232319 0.009098146 0.04401752 -0.023703951 0.006340486 -0.13450857 -0.10688106 -0.05252518
-0.19154978 -0.07358334 0.07637549 -0.117038004 -0.054234754 0.118189305 0.10311637 -0.098823056
-0.0035763253 -0.085178986 0.0012280707 -0.086650155 -0.19049451 0.033123318 -0.049422584 -0.061813425
-0.095618136 -0.13992468 0.04741507 -0.2046632 0.0061895307 -0.11444342 -0.11107539 -0.032625027
0.009063451 -0.17671469 0.066621974 -0.04366131 0.03523583 -0.006665278 -0.08716039 -0.016919935
-0.17758894 -0.08949746 -0.018237958 -0.04633979 0.08306877 0.011402873 -0.16896695 -0.024074098
-0.18921438 -0.108636685 0.06999511 0.03466109 -0.06987523 -0.15461709 -0.031449374 0.015938688
-0.018434694 -0.020108592 -0.03464204 0.08555353 0.05296082 -0.0351888 -0.024361193 -0.10165117
0.01634161 -0.07060885 0.007325872 0.03345043 -0.14550212 -0.0014862473 -0.116145946 0.011680273
-0.016614273 0.041510966 -0.08666214 -0.22837996 0.09665148 0.07197907 -0.11495117 -0.120778725
-0.048086148 0.049708508 -0.1308815 -0.0108855255 -0.021642465 0.029671786 -0.16121607 -0.08497509
00000000: 0868 2a3d 92ed 10be 11fb 2bbe 4f21 9fbd
00000010: 103a 52bc bf62 cdbd 85b3 03bc b4b0 2abd
00000020: 005d d7bd 3e35 8b3c a2cc c6bd 86d1 e5bc
00000030: 7953 d33d f01b b6bc cff5 c7bd e056 d6bc
00000040: 630f f63a 9b9f 06bd 4e23 0e3d bd2c aa3d
00000050: 058c bcbc 9320 2fbe 75cc 03be 024a b3bd
00000060: bcf2 733c 98cb 7abd e2f0 3dbe c420 09be
00000070: fe9a 703d d9bd 03bc a0dc c7bc 15de 313d
00000080: 0184 b1bc a285 2c3d 6969 933d 77c8 72bd
00000090: 8656 e5be 99e6 633b d0d6 a2bd c65f 69be
000000a0: 1099 a8bd 6410 153c b74b 343d ca2e c2bc
000000b0: dac3 cf3b 9dbc 09be 75e4 dabd a524 57bd
000000c0: a025 44be ddb2 96bd c16a 9c3d 9fb1 efbd
000000d0: 4325 5ebd 3c0d f23d ad2e d33d be63 cabd
000000e0: c860 6abb 5272 aebd 37f7 a03a a375 b1bd
000000f0: fe10 43be 51ac 073d 566f 4abd 1330 7dbd
00000100: 71d3 c3bd 6a48 0fbe 4e36 423d 3b93 51be
00000110: 8cd1 ca3b 5061 eabd 7e7b e3bd d2a1 05bd
00000120: de7e 143c b2f4 34be 1a71 883d 34d6 32bd
00000130: 7253 103d 6868 dabb 2681 b2bd ad9b 8abc
00000140: e0d9 35be 724a b7bd c567 95bc cbce 3dbd
00000150: f61f aa3d 1ed3 3a3c ac05 2dbe 0b37 c5bc
00000160: 6ac1 41be e97c debd 9959 8f3d c9f8 0d3d
00000170: bf1a 8fbd f153 1ebe 0fd1 00bd da91 823c
00000180: 5b04 97bc c6ba a4bc d0e4 0dbd b036 af3d
00000190: 72ed 583d 2222 10bd 2091 c7bc 7d2e d0bd
000001a0: d7de 853c 5f9b 90bd de0d f03b 5103 093d
000001b0: 82fe 14be 2fce c2ba eddd edbd 9e5e 3f3c
000001c0: a81a 88bc 6707 2a3d ec7b b1bd 70dc 69be
000001d0: 36f1 c53d c369 933d 856b ebbd d65a f7bd
000001e0: fbf5 44bd 269b 4b3d cd05 06be 3459 32bc
000001f0: 8a4b b1bc 3f12 f33c d315 25be 6c07 aebd

weight f4 [128, 128]
-0.032425787 -0.005575961 0.03236444 0.08226362 0.0688209 0.02811016 0.017115062 0.037456088
-0.06691924 -0.09339698 0.077603064 -0.05017544 0.05039809 -0.015326303 -0.060666386 -0.035720512
-0.08929798 -0.024671271 -0.061417356 -0.04650245 -0.0341037 0.06368696 -0.046577297 0.005414136
-0.09881386 0.036250863 -0.022984814 -0.027861318 -0.024115657 0.058661517 0.035337612 -0.0682721
0.009051472 -0.057914086 0.07863912 -0.0009853205 0.0294382 -0.04699649 -0.009637992 0.05866322
0.09815823 -0.0839102 0.06838476 -0.02073503 -0.0053646276 0.03428323 -0.051585976 0.046030916
0.0554644 -0.07632358 -0.03668516 0.053913455 -0.016619943 0.033598997 0.056489278 0.031306453
0.028039768 -0.06410396 0.04438306 -0.07915017 -0.07661181 0.05559717 0.04484449 0.0562061
-0.12770598 0.09935677 0.012390899 -0.039077166 -0.0064358674 0.10475656 0.002472854 -0.006979648
-0.007110237 -0.028139288 0.0656921 0.05931557 0.020437019 0.035716046 -0.038232554 0.070963666
-0.009469284 -0.058395874 0.0117320325 0.03312009 -0.060812533 -0.021901036 0.019154422 0.092370674
0.07866686 -0.017461848 0.045614373 -0.044666212 0.028981972 0.057348147 0.016801815 -0.068328254
-0.02889171 0.025738215 -0.00036417448 0.034010097 -0.11860742 -0.033614226 -0.023915736 0.0009614132
-0.052188344 0.048637677 0.1247224 0.0074344254 -0.054294985 -0.03510021 0.04566654 0.008787237
-0.049685366 0.01602052 -0.036496364 0.032534283 0.05639171 0.11269748 0.009302895 -0.066280514
-0.033933017 -0.109360196 -0.0032011508 -0.027593007 0.011274871 0.016338585 0.04492876 -0.006653179
-0.073164284 0.061800145 0.058328386 -0.061787512 0.086546086 0.014117362 0.04787871 -0.043567903
-0.03782805 0.030344244 -0.031430803 -0.007030348 0.04095951 0.029953346 0.05939802 -0.047520746
0.04366412 0.005630119 0.0026808542 0.01420773 -0.15542533 0.09510275 -0.0123774735 -0.017588807
-0.069198176 -0.009161211 -0.025048938 -0.048885256 0.10195392 -0.00054907025 0.03605468 -0.06350257
0.04422237 -0.013948149 0.05761829 0.0656561 0.08395438 0.11613745 0.013061477 0.030213414
-0.014582636 -0.017666204 -0.027294936 0.0069852145 0.041816715 0.03724355 -0.022189356 0.022602484
0.057701975 -0.071561374 0.110189855 0.054877743 -0.10404237 -0.064417146 -0.024406716 -0.040304746
0.07053466 -0.05937665 -0.0032568413 0.069416426 0.081256144 -0.06327884 -0.012548362 0.091036186
-0.042520016 -0.039004628 -0.007914627 0.065265395 -0.08767795 -0.017601522 -0.049705926 0.034700237
0.030557433 -0.03438845 0.017777791 0.074505344 0.057110537 -0.059478134 -0.09900503 -0.017573833
0.020267153 -0.056333315 -0.011785574 0.018103208 -0.045433212 0.07835736 0.005887032 0.0060583134
0.04109171 -0.030670501 -0.0316817 0.05613748 -0.09283966 0.06876311 0.06521072 -0.07175662
0.05941214 -0.017312681 0.05521646 0.03857561 -0.058429353 0.081790775 0.10564276 -0.0068454095
0.0033526258 0.11295165 0.035042875 0.04500478 -0.016152158 0.043322127 0.0009857657 -0.08776162
-0.028310895 0.011024839 0.05705305 -0.09481387 -0.10895851 -0.02608324 -0.0874866 -0.0057787597
0.0037089023 -0.039255287 0.043866325 0.00027575187 -0.09046034 0.051851653 -0.030951157 0.037236005
00000000: e7d0 04bd 8db6 b6bb 9390 043d d479 a83d
00000010: f9f1 8c3d 4747 e63c e334 8c3c 8e6b 193d
00000020: f40c 89bd ea46 bfbd 5bee 9e3d c384 4dbd
00000030: 3a6e 4e3d 2d1b 7bbc 517d 78bd ac4f 12bd
00000040: dce1 b6bd 681b cabc c490 7bbd 5a79 3ebd
00000050: 52b0 0bbd 4f6e 823d d6c7 3ebd 1169 b13b
00000060: ec5e cabd c97b 143d a64a bcbc 6b3d e4bc
00000070: 338e c5bc 0f47 703d 2cbe 103d 3ed2 8bbd
00000080: a04c 143c 5237 6dbd 8c0d a13d df25 81ba
00000090: 6128 f13c 647f 40bd abe8 1dbc d848 703d
000000a0: 2f07 c93d 1cd9 abbd 4f0d 8c3d 82dc a9bc
000000b0: c2c9 afbb 926c 0c3d d14b 53bd ea8a 3c3d
000000c0: a42e 633d 8a4f 9cbd 2e43 16bd 5bd4 5c3d
000000d0: 8c26 88bc 1a9f 093d 4d61 673d 323b 003d
000000e0: a8b3 e53c f048 83bd 03cb 353d 7c19 a2bd
000000f0: a7e6 9cbd dcb9 633d dbae 373d 5e38 663d
00000100: 5bc5 02be 907b cb3d 3203 4b3c 610f 20bd
00000110: f8e3 d2bb 9b8a d63d 9b0f 223b 88b5 e4bb
00000120: fefc e8bb 5d84 e6bc 9489 863d e2f4 723d
00000130: 896b a73c fd4a 123d bd99 1cbd 6655 913d
00000140: 0e25 1bbc 8330 6fbd b637 403c eea8 073d
00000150: 9016 79bd cd69 b3bc bce9 9c3c d62c bd3d
00000160: 171c a13d 260c 8fbc 23d6 3a3d ebf3 36bd
00000170: 9a6b ed3c e4e5 6a3d f6a3 893c afef 8bbd
00000180: 4fae ecbc f3d8 d23c acee beb9 2c4e 0b3d
00000190: 72e8 f2bd 12af 09bd efea c3bc 5907 7c3a
000001a0: 72c3 55bd 4d38 473d 756e ff3d 7b9c f33b
000001b0: 6b64 5ebd 3dc5 0fbd d60c 3b3d 58f8 0f3c
000001c0: e282 4bbd 773d 833c 367d 15bd ab42 053d
000001d0: fefa 663d f0cd e63d 2b6b 183c 14be 87bd
000001e0: 59fd 0abd 3df8 dfbd 66ca 51bb bb0a e2bc
000001f0: 3dba 383c 7fd8 853c 3807 383d e902 dabb
00000200: 28d7 95bd 2622 7d3d bfe9 6e3d e714 7dbd
00000210: 133f b13d 824c 673c 771c 443d 4274 32bd
00000220: 96f1 1abd 7e94 f83c 96bd 00bd d55e e6bb
00000230: 29c5 273d b860 f53c 574b 733d 1da5 42bd
00000240: 26d9 323d dc7c b83b 45b1 2f3b 8ac7 683c
00000250: d127 1fbe 3bc5 c23d e3ca 4abc 6716 90bc
00000260: c6b7 8dbd e718 16bc 6e33 cdbc e83b 48bd
00000270: 38cd d03d 7bef 0fba 12ae 133d a30d 82bd
00000280: 8422 353d c786 64bc 2801 6c3d b576 863d
00000290: 46f0 ab3d 79d9 ed3d ceff 553c 1f82 f73c
000002a0: 02ec 6ebc b7b8 90bc a199 dfbc 3ae4 e43b
000002b0: 0148 2b3d b18c 183d 74c6 b5bc d828 b93c
000002c0: e858 6c3d c58e 92bd 38ab e13d 7cc7 603d
000002d0: 2b14 d5bd 23ed 83bd 98f0 c7bc 9716 25bd
000002e0: 7a74 903d ee34 73bd bb70 55bb 332a 8e3d
000002f0: 9f69 a63d 5698 81bd a597 4dbc 2e71 ba3d
00000300: 7829 2ebd 51c3 1fbd 5aac 01bc dda9 853d
00000310: 7f90 b3bd 1131 90bc 7198 4bbd d621 0e3d
00000320: 9553 fa3c e7da 0cbd bba2 913c 4296 983d
00000330: bdec 693d 589f 73bd 26c3 cabd 00f7 8fbc
00000340: 4d07 a63c c3bd 66bd 4818 41bc 2e4d 943c
00000350: 2d18 3abd d379 a03d 01e8 c03b d184 c63b
00000360: c84f 283d b440 fbbc acc4 01bd 6af0 653d
00000370: b822 bebd acd3 8c3d 338d 853d 23f5 92bd
00000380: 255a 733d 53d3 8dbc a82a 623d 7501 1e3d
00000390: 9e53 6fbd ec81 a73d 3b5b d83d 754f e0bb
000003a0: bab7 5b3b 3253 e73d 1e89 0f3d ef56 383d
000003b0: 8851 84bc 8b72 313d cf34 813a 5dbc b3bd
000003c0: 40ec e7bc 87a1 343c 75b0 693d c62d c2bd
000003d0: a425 dfbd 85ac d5bc 2d2c b3bd c05b bdbb
000003e0: 0e11 733b 27ca 20bd 2dad 333d ca92 9039
000003f0: 4543 b9bd 6662 543d 488d fdbc c884 183d

bias f4 [128]
-0.020751776 -0.023307014 -0.05702493 0.04603717 -0.053519953 0.084366046 -0.046860304 -0.026734112
-0.019830527 -0.15093826 -0.17334925 -0.021393964 -0.15401274 -0.090527676 0.08232085 -0.069867685
0.038972147 0.05912844 -0.12676622 0.011939594 -0.1321368 0.069323085 -0.009279226 0.043441046
0.04041102 -0.0243415 0.006154432 -0.035339393 -0.109978884 -0.0074557043 -0.067551605 0.02943362
-0.036691915 0.116937846 0.08675551 0.027035484 -0.039066616 0.02815555 -0.04230854 0.005093212
-0.03625509 -0.052884817 -0.14084893 -0.1051997 -0.08183854 -0.11434328 0.0036572916 -0.31714594
-0.023568708 0.08471979 -0.11312776 0.050775018 0.0021415448 -0.06365416 0.0031793676 0.0050186114
-0.07483188 -0.08114275 -0.05789817 -0.030521568 0.005681767 -0.060602676 -0.03457123 -0.05700057
-0.05596086 0.026107023 0.03466202 0.08041577 -0.041074 0.082433105 -0.035492618 -0.12808272
0.008973794 0.027049119 -0.0026392888 -0.055164974 -0.035686243 -0.016785301 0.017154759 -0.007901882
-0.09865999 -0.038824484 0.1106281 -0.04613459 -0.0081881955 -0.07855612 0.01633461 0.06908042
0.09731401 -0.07563315 0.041280434 0.0072797984 -0.23095332 -0.0473629 -0.09024156 -0.027354393
-0.09623771 -0.06042823 -0.03636564 -0.018512243 -0.05877759 -0.04782543 -0.11152869 0.019458538
-0.106559895 0.049944818 -0.10799825 0.08988746 0.013452537 -0.02683114 -0.033359837 -0.05803573
-0.01636602 -0.09577675 0.06169327 0.06384019 -0.047637437 -0.12692492 -0.07057045 0.056803115
0.005805312 0.0049450034 0.068354845 0.045042764 0.084945045 -0.007086458 -0.072766125 0.038851794
00000000: a1ff a9bc 5aee bebc f992 69bd 7991 3c3d
00000010: bd37 5bbd 1bc8 ac3d 97f0 3fbd 7f01 dbbc
00000020: a173 a2bc 8f8f 1abe 7782 31be 6542 afbc
00000030: 84b5 1dbe 9366 b9bd d597 a83d ca16 8fbd
00000040: 42a1 1f3d aa30 723d 01cf 01be 499e 433c
00000050: df4e 07be 43f9 8d3d e507 18bc 3def 313d
00000060: 0786 253d d367 c7bc 1eab c93b 0ac0 10bd
00000070: 9c3c e1bd fb4e f4bb 7f58 8abd c61e f13c
00000080: 434a 16bd 1c7d ef3d dfac b13d 8579 dd3c
00000090: 5104 20bd 78a6 e63c b84b 2dbd f5e4 a63b
000000a0: 3880 14bd c09d 58bd b43a 10be f172 d7bd
000000b0: f79a a7bd cf2c eabd 2caf 6f3b f460 a2be
000000c0: 2a13 c1bc 9281 ad3d 87af e7bd 77f9 4f3d
000000d0: 2959 0c3b 1d5d 82bd f05c 503b 2a73 a43b
000000e0: 7541 99bd 2c2e a6bd a226 6dbd 5e08 fabc
000000f0: 1e2e ba3b 833a 78bd 909a 0dbd 6e79 69bd
00000100: 3737 65bd 65de d53c c3f9 0d3d 06b1 a43d
00000110: 363d 28bd b0d2 a83d b560 11bd 1e28 03be
00000120: d206 133c 1d96 dd3c ebf7 2cbb abf4 61bd
00000130: bd2b 12bd 5481 89bc 2388 8c3c e576 01bc
00000140: 400e cabd 6c06 1fbd fc90 e23d a0f7 3cbd
00000150: c827 06bc 08e2 a0bd 29d0 853c 097a 8d3d
00000160: 914c c73d 8ee5 9abd ac15 293d 608b ee3b
00000170: 077f 6cbe 9aff 41bd 91d0 b8bd 5216 e0bc
00000180: 4718 c5bd 9783 77bd 23f4 14bd fda6 97bc
00000190: c5c0 70bd 99e4 43bd 2769 e4bd 8367 9f3c
000001a0: 133c dabd f092 4c3d 302e ddbd eb16 b83d
000001b0: 0868 5c3c fbcc dbbc 53a4 08bd e0b6 6dbd
000001c0: 0812 86bc 9a26 c4bd 15b2 7c3d a5be 823d
000001d0: 791f 43bd 9bf8 01be 3d87 90bd 62aa 683d
000001e0: 7d3a be3b b209 a23b a0fd 8b3d c37e 383d
000001f0: abf7 ad3d 8535 e8bb 6806 95bd 0f23 1f3d

weight f4 [8, 128]
0.0012943596 0.00043689072 0.007430962 0.012377673 -0.03132473 -0.026319824 0.028872132 -0.0033289997
-0.015010957 -0.07350104 0.0068779765 0.0049173324 -0.034430213 -0.044644993 -0.0021792725 -0.040223084
-0.023736073 -0.022718877 0.025822423 -0.006376882 0.030673936 0.043734167 -0.031595845 0.0055718184
-0.013953333 -0.049733493 -0.015226951 -0.02890122 -0.08160338 0.023214443 -0.082591966 0.013491216
0.0050398153 -0.020265492 -0.0016691382 -0.018639922 -0.06997314 0.03507982 0.016630758 -0.014846661
0.008724057 0.0063388827 -0.064021625 0.0114088515 -0.026755383 -0.011956228 0.04473487 -0.09931245
-0.0028860439 -0.0034818368 0.009045682 -0.0021412612 -9.384537e-05 0.026241936 0.006612999 -0.031056052
0.013587628 -0.010477837 -0.018882062 0.022026012 0.0023639556 -0.048835322 0.06815957 0.017902091
-0.016965576 -0.015844328 0.010869253 -0.0075169327 -0.051968113 0.0036253969 0.065336496 -0.08840918
-0.0014515814 0.019155258 0.000367041 -0.013509518 0.0069012106 -0.007181914 -0.07121704 -0.0029812464
-4.8947e-05 -0.0010854953 -0.010386313 0.015818551 0.026816221 -0.047631267 0.018370416 -0.008565321
-0.00015349871 -0.009901679 0.019517908 -0.0040283976 -0.104195416 -0.01061186 0.0093756495 0.017870111
0.0113792075 0.023256954 -0.022639055 -0.03336928 0.0046736915 0.018261218 0.012859296 -0.057198916
0.023079725 -0.008218198 0.0028704682 -0.0125979055 0.018989155 -0.015943639 -0.06543134 0.024155315
0.025443831 0.062333867 0.031337243 0.012148945 0.010271934 0.014707572 0.00018805164 0.038647298
0.0033626785 0.02803238 -0.006882496 0.0018589707 0.035644736 -0.040375035 0.021460028 -0.005849829
0.04122069 -0.020739172 0.027086956 0.0007331793 -0.037893694 0.007978252 0.0021869645 -0.020781465
0.051880762 -0.014253631 -0.01855004 0.021807421 -0.058490995 0.015730128 -0.011153104 -0.00017618362
-0.012081692 0.025456563 -0.03892606 0.007976847 -0.024528248 -0.049687978 -0.04099361 0.00060257624
-0.0163051 -0.043836027 -0.0026662613 -0.037118692 0.022043403 -0.040576898 0.034331214 -0.0020229674
-0.048667617 0.017420447 0.0046317005 0.053734336 -0.012184255 -0.03574111 -0.03884158 -0.009873183
7.903734e-05 0.0032819111 0.07142663 0.010594622 -0.025094125 -0.07679008 0.017813642 -0.027834324
0.033890627 -0.0020909014 0.013743086 0.012928767 0.032755066 -0.041902512 0.016396273 -0.0050926753
0.004396081 -0.058235973 -0.0033705796 -0.0032811137 0.087354235 0.035081383 0.02092132 -0.03236792
0.031073825 -0.012525851 0.012044921 -0.0073443823 0.026823496 0.008258248 0.027412761 -0.061167505
-0.0068059135 0.00933377 0.0032165835 -0.0023350203 -6.955713e-05 -0.0015755248 -0.08233885 0.0010626899
-0.0034644469 -0.043965846 -0.010574637 0.0048578465 -0.0025229342 -0.00032895422 -0.031230846 0.032349892
0.047146406 -0.004604348 -0.0049234666 0.02717392 0.081228904 0.09506372 0.001321248 0.020121148
-0.0060656974 0.004345551 0.04214286 0.031178104 0.02533762 -0.044466108 0.048248142 0.0401038
0.012647462 -0.007130939 0.0062899226 0.034802478 -0.018833674 0.0092263445 0.014453289 -0.049021687
0.03438957 -0.052614465 0.022341784 0.03378502 0.015018323 -0.00019987296 0.043542996 -0.04755022
-0.019696785 0.0030131445 0.024977932 -0.030762898 0.0024562497 0.04393823 0.031746317 -0.043028627
00000000: 80a7 a93a 7b0e e539 6d7f f33b b9cb 4a3c
00000010: 5c4e 00bd ac9c d7bc 4085 ec3c 592b 5abb
00000020: 84f0 75bc b787 96bd a660 e13b 9321 a13b
00000030: b206 0dbd abdd 36bd 20d2 0ebb f6c0 24bd
00000040: 2772 c2bc f01c babc 8c89 d33c 2af5 d0bb
00000050: e847 fb3c 9922 333d a56a 01bd cd93 b63b
00000060: 859c 64bc 59b5 4bbd 767a 79bc 40c2 ecbc
00000070: ac1f a7bd 372c be3c fa25 a9bd 430a 5d3c
00000080: 0925 a53b d103 a6bc fcc6 daba c0b2 98bc
00000090: 144e 8fbd dbaf 0f3d 3a3d 883c 693f 73bc
000000a0: 59ef 0e3c 67b6 cf3b c51d 83bd 31ec 3a3c
000000b0: 1b2e dbbc 0ee4 43bc e93b 373d 5364 cbbd
000000c0: c823 3dbb 872f 64bb 5734 143c 6754 0cbb
000000d0: d9ce c4b8 54f9 d63c dbb1 d83b 4369 febc
000000e0: a49e 5e3c 3cab 2bbc 8eae 9abc e56f b43c
000000f0: 98ec 1a3b 8c07 48bd 3f97 8b3d 68a7 923c
00000100: 64fb 8abc f7cb 81bc f414 323c 9a50 f6bb
00000110: 84dc 54bd 1198 6d3b 24cf 853d df0f b5bd
00000120: fd42 beba 7deb 9c3c 696f c039 0657 5dbc
00000130: 8d23 e23b 4356 ebbb 3dda 91bd 0461 43bb
00000140: 714c 4db8 2e47 8eba 5b2b 2abc e895 813c
00000150: b1ad db3c 0119 43bd 8e7d 963c 8f55 0cbc
00000160: 7ff4 20b9 a73a 22bc 05e4 9f3c a600 84bb
00000170: 6864 d5bd 5edd 2dbc 539c 193c 5764 923c
00000180: db6f 3a3c 5e85 be3c 8a75 b9bc 3aae 08bd
00000190: c425 993b 8d98 953c ccaf 523c 6949 6abd
000001a0: b111 bd3c 9fa5 06bc 771e 3c3b 7267 4ebc
000001b0: 258f 9b3c 3c9c 82bc de00 86bd 5ee1 c53c
000001c0: 956f d03c cc51 7f3d 7b5b 003d 5e0c 473c
000001d0: 9d4b 283c 07f8 703c ba2f 4539 a14c 1e3d
000001e0: 6260 5c3b 29a4 e53c 9086 e1bb b5a8 f33a
000001f0: 3700 123d 4b60 25bd f1cc af3c ecaf bfbb
00000200: 07d7 283d 32e5 a9bc 77e5 dd3c d432 403a
00000210: 6b36 1bbd 37b7 023c 2d53 0f3b e43d aabc
00000220: ec80 543d 1088 69bc 41f6 97bc 7aa5 b23c
00000230: 4194 6fbd 78dc 803c 82bb 36bc eebd 38b9
00000240: 4af2 45bc 488a d03c ef70 1fbd 52b1 023c
00000250: 77ef c8bc 9f85 4bbd eae8 27bd 35f6 1d3a
00000260: 4692 85bc 688d 33bd 71bc 2ebb c509 18bd
00000270: 5e94 b43c f633 26bd e39e 0c3d c393 04bb
00000280: b257 47bd 53b5 8e3c 85c5 973b 8918 5c3d
00000290: 78a0 47bc 4565 12bd 5918 1fbd 22c3 21bc
000002a0: d9c0 a538 5515 573b 2048 923d 1195 2d3c
000002b0: 3292 cdbc 1e44 9dbd eaed 913c cf04 e4bc
000002c0: e6d0 0a3d 8107 09bb ae2a 613c 2ed3 533c
000002d0: 2d2a 063d f8a1 2bbd 7a51 863c 75e0 a6bb
000002e0: 000d 903b d888 6ebd f1e4 5cbb f407 57bb
000002f0: c7e6 b23d 7fb1 0f3d 3063 ab3c 3994 04bd
00000300: 898e fe3c 3a39 4dbc 0f58 453c 25a9 f0bb
00000310: f3bc db3c 9a4d 073c ba90 e03c c78a 7abd
00000320: 2404 dfbb abec 183c 51cd 523b 2407 19bb
00000330: 33df 91b8 d781 ceba 45a1 a8bd f549 8b3a
00000340: c60b 63bb 8815 34bd 3e41 2dbc 922e 9f3b
00000350: d057 25bb 7d77 acb9 d5d7 ffbc 5281 043d
00000360: 971c 413d 12e0 96bb 0855 a1bb d79b de3c
00000370: 575b a63d c5b0 c23d ba2d ad3a 1bd5 a43c
00000380: c2c2 c6bb 2065 8e3b fe9d 2c3d 3969 ff3c
00000390: d790 cf3c 1822 36bd d89f 453d e243 243d
000003a0: 4d37 4f3c a7aa e9bb b21b ce3b 0b8d 0e3d
000003b0: 1449 9abc 182a 173c 7dcd 6c3c f7ca 48bd
000003c0: 14dc 0c3d 4482 57bd 1e06 b73c 2962 0a3d
000003d0: 6a0f 763c fd94 51b9 245a 323d 05c4 42bd
000003e0: 275b a1bc 2d78 453b 859e cc3c 7902 fcbc
000003f0: 08f9 203b 93f8 333d 6d08 023d c93e 30bd

bias f4 [8]
0.14678557 -0.0671836 0.011545541 0.14096221 0.0687016 0.056250013 -0.051478595 -0.025217306
00000000: f54e 163e 8e97 89bd 8229 3d3c 6658 103e
00000010: 6db3 8c3d 6a66 663d 38db 52bd 8694 cebc
