ISAAC_NOGIT/logs/rsl_rl/traquad_flat/2025-09-16_14-04-31/model_299.pt (torch, 925483 bytes, 48 tensors)

std f4 [8]
00000000: 4cae 9f3e 6cc3 a63e da95 9d3e 14c5 8b3e
00000010: e4fc 383f e3f0 383f 6a0f 343f 20ef 2d3f
0.31187665 0.3257097 0.3077839 0.27298796 0.7226088 0.72242564 0.7033602 0.67943

actor.0.weight f4 [128, 31]
00000000: 6981 42bd d374 373e 42c5 58bf 0da1 033f
00000010: 3404 a9be 1895 babc 66b7 073f b078 1dbf
00000020: b035 fb3c 899a d13e 1225 9b3e 2b80 9dbf
00000030: a5f5 1b3e 933a cc3f 98e4 b6be 9ee9 913e
00000040: 9e59 da3d 1111 283c e6c3 72be 87a9 3a3d
00000050: b5b4 0e3d 2ec6 e3bd 028c a9bd 6b88 173f
00000060: e234 943e 2e94 8fbd 0bba 923e 159c a8bc
00000070: 3e68 e83d 4a13 17be fa98 77bd 991b 1ebe
00000080: add1 7fbe 6585 1e3d 9f52 dfbe 12e3 f7bd
00000090: d0ba 2d3e 23a5 81be 5935 193f 7182 dc3e
000000a0: 1592 87be 7047 7f3e ac41 f6bd cbce 91be
000000b0: 1e5a 47bf 857c e4be 7c17 b8be dcfe 103e
000000c0: a84b 01be d9cd 10be ec99 5c3c 71b0 c4bc
000000d0: 3558 54bd e06f aa3d 8a07 1b3f c1d5 aabe
000000e0: d74f 033f 1e8d 0dbe 2b7f cbbc 6d2e 6bbe
000000f0: 0d3f 933d c5ba 51be 15ae 1abf d1aa 31bf
00000100: 9772 6bbe 9a1e ab3e 13a7 88be 4c33 c43d
00000110: e713 963f 3d92 d4bf 32cc 9d3d d38f 403e
00000120: 8042 42bf 8e4f 3cbe 0bcf c5bf 25e4 f53f
00000130: 9d2b 5bbe e147 193e 5cac a23d 59c9 973e
00000140: 5956 8dbe 8ed8 453c 4984 283d ea6d 863c
00000150: 1420 3fbd 59e1 513e e96a 0ebe ac5d 01bf
00000160: e929 87bd 4a8b cd3d 24f5 cdbd 5074 8fbe
00000170: def1 853e 44ea 5d3f bb38 e3bd 77f8 033e
00000180: 2dcf 883e 175c 9bbb 226b 0ebd 2757 15bf
00000190: 2538 1fbe 673b a33e aac9 94bc 67b2 9f3e
000001a0: be26 6d3f 5cb8 a53f ef90 7ebe 6e44 37bf
000001b0: f40b 473e 3543 1a3e cca4 1e3d 7892 bd3d
000001c0: 2e4d ab3c b029 e43d 8ee0 11be 415e a63c
000001d0: 7e39 fc3c 4e01 8bbe e742 14be e799 813e
000001e0: 838d 7f3d 6150 76bd 19a2 143e c2dd 49be
000001f0: 84f4 833f 848c e9bd d445 a3bf f73c 9fbd
00000200: 4ed7 ef3d cf25 2fbd ce41 98be 4de9 a03f
00000210: 63ec 433d bc31 e13f bb1e c0be c835 bfbe
00000220: fcd2 4b40 86d4 b9bf 0c28 0ac0 24ad a53e
00000230: e8cd 993e 9cd1 babe 81d8 15bd efd6 27bc
00000240: 266c 8039 2360 813c b5e3 e939 9bde 733e
00000250: df92 e9be 19be af3d 17cb be3e 901d 053e
00000260: d956 1b3d d27c bfbd 9635 433e 87c1 20be
00000270: 5384 df3e c0fc 3b3f c11a 00bf d90c 5cbe
00000280: 3fdb c1be 061b 2b3f bbb8 a33f 5cc6 6a3d
00000290: 780d 83be 4171 c8bd ad35 92be ebdb 16be
000002a0: a064 d3be 1795 ac3f b480 42bd 0a98 823e
000002b0: 4dc4 38bd 3f00 3f3e b9cd 613d e571 da3d
000002c0: b6cf 08be a423 e23c 510b b7be 1860 6d3e
000002d0: 532a afbe 4539 4a3e 540c 93be e803 06bd
000002e0: 3cc6 e83d f06b 96bd 3038 37bf ec44 883d
000002f0: 2fdb 8bbe 837d 25bd 8276 893d cca3 68bf
00000300: 338b a63f 3e45 0e40 fc33 9e3d 7500 3c3f
00000310: 4244 313f 0e6f f3bf fea1 9dbe f52c 953f
00000320: 5aa2 4240 1827 023e d466 ad3e 0868 083e
00000330: c341 2b3e 452a 5d3b 8a90 f93c 2bad 42bc
00000340: 4c4f 093c f73f b1bb 1454 0e3f a36e 3a3e
00000350: 426c 75be b4c3 2ebe c04b 0b3d ecf4 9c3d
00000360: 3d92 20be 026c 113e dd12 ce3e 239e 86be
00000370: 0996 16bd ebf6 c2be c520 cebe e35c f03c
00000380: 3b6d 093f e000 093e bd56 173f fcb8 23be
00000390: f602 77bf 95b9 083f f6b2 063f 90e8 723e
000003a0: d163 9b3d 49cb 363e def6 723e f7d0 93bd
000003b0: da1a 38bd c90e 0cbc 77a0 c6bd f98e a1bc
000003c0: 3800 3c3e 8ad2 e53d 071e 763b 35d2 86bd
000003d0: 09a2 e33d e54b 2e3d b9ec 34be 2c2e a13e
000003e0: d41d 813e f680 1f3f 811b ce3e abef 27bf
000003f0: b626 473e 0bfb bb3e 4adb 1dbf 4e81 1a40
-0.047486696 0.17915659 -0.8467599 0.5141762 -0.3301102 -0.022776172 0.5301422 -0.6151228
0.030665249 0.40938213 0.3030172 -1.2304739 0.15230425 1.5955375 -0.35721278 0.28498548
0.10661624 0.010257975 -0.23707542 0.04557183 0.034840304 -0.11121784 -0.082786575 0.5919253
0.28946596 -0.07010685 0.28657565 -0.020582238 0.113480076 -0.14753452 -0.060448624 -0.15440215
-0.24982329 0.038701434 -0.43617722 -0.12103857 0.16965795 -0.25321302 0.5984703 0.4306827
-0.2647864 0.24929595 -0.12024245 -0.28478083 -0.7787188 -0.4462625 -0.35955417 0.14159721
-0.12626517 -0.14141025 0.013464432 -0.024009915 -0.051841933 0.0832212 0.6055838 -0.33366206
0.512937 -0.13823363 -0.024840912 -0.22966929 0.0718976 -0.20481403 -0.6042188 -0.6940127
-0.22992931 0.33421785 -0.26689968 0.095800966 1.1724824 -1.6607128 0.07704963 0.18804865
-0.7588272 -0.18389723 -1.545381 1.9210249 -0.21403356 0.14968826 0.07943031 0.29645804
-0.2760494 0.012075556 0.041141782 0.016409833 -0.04666145 0.2049612 -0.1390797 -0.50533557
-0.065997906 0.10036333 -0.100565225 -0.28018427 0.26161093 0.86685586 -0.11094805 0.1288775
0.26720563 -0.0047412026 -0.03477014 -0.5833611 -0.15548761 0.31881258 -0.018162567 0.31190798
0.9263724 1.2946887 -0.24859975 -0.7158879 0.19438154 0.150647 0.03873138 0.09256452
0.020910826 0.11140764 -0.14245817 0.020308616 0.030789133 -0.27149433 -0.14478646 0.2531273
0.062390815 -0.06013525 0.1451496 -0.197135 1.0308995 -0.11403754 -1.2755685 -0.077753
0.11710988 -0.042760666 -0.29737705 1.2571198 0.047832858 1.7593303 -0.37523445 -0.3734572
3.1847525 -1.4517982 -2.1586943 0.32358658 0.30039907 -0.36488044 -0.036583427 -0.010244115
0.0002449464 0.015792912 0.00044610878 0.23815386 -0.45619866 0.0858118 0.3726432 0.12999558
0.03792462 -0.093499795 0.1906341 -0.15698825 0.43655643 0.7343254 -0.50040823 -0.21489276
-0.37862584 0.6683811 1.279075 0.057318076 -0.25596213 -0.097872265 -0.28556576 -0.1473233
-0.41287708 1.3482999 -0.047486022 0.25506622 -0.045109082 0.18652438 0.055127833 0.10666255
-0.13360485 0.027604885 -0.3575082 0.23181188 -0.34211978 0.19748409 -0.28720343 -0.03271857
0.11365935 -0.07344806 -0.7157011 0.06653771 -0.2731566 -0.0404029 0.06712057 -0.90874934
1.301123 2.2229762 0.07724759 0.734382 0.6924478 -1.9018266 -0.30787653 1.1654345
3.0411592 0.12710226 0.33867514 0.13320935 0.16724305 0.0033747118 0.03046443 -0.011882107
0.008380722 -0.0054092365 0.55597043 0.18206267 -0.23967078 -0.17066842 0.034007788 0.07663903
-0.15680785 0.14201358 0.40248767 -0.26292524 -0.03676418 -0.38079008 -0.40259376 0.029341167
0.536823 0.1337924 0.5911673 -0.15988535 -0.96488893 0.53408176 0.5261682 0.23721528
0.07587398 0.17850985 0.23726985 -0.07217591 -0.044947483 -0.008548447 -0.09698575 -0.019721495
0.18359458 0.11221798 0.0037554519 -0.065830626 0.1111489 0.042552847 -0.17668428 0.3148054
0.2521807 0.62306154 0.4025536 -0.6560008 0.19448361 0.36714968 -0.61662734 2.4141421

actor.0.bias f4 [128]
00000000: 95c8 e9bc eec4 c1be caf1 4dbe 717c 95be
00000010: fcc4 b3bd 28a9 2ebe 589b f8bb 5980 71be
00000020: 8747 7fbe ed57 0f3e 3aa6 8abe 4f79 14be
00000030: 211c 9ebe 8b8e 17be ac8a 7fbe 5228 473d
00000040: ec5c 27bd 6956 adbd 5f89 44be 6f2d 18be
00000050: 9c0b 273e 1604 2cbe d3fb 01bd 1938 6d3b
00000060: 2870 763e ebb0 243d 859c 92be 9a19 033d
00000070: 8daa 09be 68ee 73be 42cb 6ebe bea4 cfbe
00000080: 2dc8 b7bd 0db6 273c 0987 35be 3fdd a73d
00000090: ce7d 0b3e 486c 30be 113a e43d 15bd a63d
000000a0: 0b51 693d 8239 50be b517 96be 71f6 6bbe
000000b0: 1cc5 30bd 4e07 8ebd c72a 493d d40f 373d
000000c0: d90e 95bd fe48 37be 5b28 ae3b 739e 833d
000000d0: 40de 2cbe 96b9 6bbd c349 4bbd c259 d33d
000000e0: a91b debc 0ab1 af3d 995b 38be fa5c b43e
000000f0: 82b3 69bd cac3 2abe 653b 59be d6c7 c9bc
00000100: f8a0 28be 471a ccbe aa1e 6abd 55c2 3bbe
00000110: 620f 343d 93e7 06be a7dc 87be 8221 14be
00000120: 09f5 853d f2be 04be c905 73be fc91 0ebe
00000130: 2757 8c3d 65e1 92be be3d 19be e33a 72bc
00000140: b26d 353d 015d a6be 75fa aebe e4e4 853e
00000150: f8b9 34be 3b2b 65be b2a8 9d3c 9fea 2bbe
00000160: fad9 c1bd 92ce 46be 01fe 75be 7ced b6bd
00000170: 30ff 473e 1d7a 31be 54ee 37bd 4a93 03be
00000180: 6150 55bd 3a0f ae3d dbc6 d43d 9bde c5bd
00000190: d168 833e 6a4d ae3d 730c 153d 7941 e3be
000001a0: e785 ca3d 3f46 34bd 73e8 9bbe d2dc 6f3d
000001b0: a9d3 57be c0bb e23d c64d eabe 5fd7 6f3c
000001c0: 0c3b 06bd 8e67 4ebd 4fc9 2abe 8352 b43b
000001d0: f2de bdbd d970 fabd de83 0dbe 4508 a0be
000001e0: b502 6a3e bdbb b3bd 7373 39bd 0cdd 33be
000001f0: f986 76bd b087 1bbe ed86 93bd 1984 003e
-0.028538028 -0.37845558 -0.20111766 -0.29196504 -0.08777806 -0.17056715 -0.007586878 -0.23584117
-0.2492963 0.13998385 -0.27079946 -0.144994 -0.30880836 -0.1480047 -0.24955243 0.048622437
-0.0408601 -0.08463747 -0.19193028 -0.14861082 0.16313022 -0.16798434 -0.0317343 0.0036196767
0.24066222 0.040207785 -0.2863504 0.032006837 -0.13443966 -0.23821414 -0.23319724 -0.40555376
-0.089737274 0.010236275 -0.17727293 0.08196496 0.1362221 -0.17228806 0.11143888 0.08141533
0.056962054 -0.20334437 -0.29314962 -0.23043229 -0.04315673 -0.06934987 0.04911306 0.04469283
-0.072782226 -0.17898938 0.0053148693 0.06426706 -0.16881657 -0.057550035 -0.04963089 0.10319854
-0.027112799 0.085786894 -0.18003692 0.35227185 -0.057055958 -0.1667625 -0.21214063 -0.024631422
-0.16467655 -0.39863798 -0.05715815 -0.1833585 0.043959983 -0.13174276 -0.26535532 -0.14465907
0.06540877 -0.12963465 -0.23732676 -0.13922876 0.068525605 -0.28687587 -0.14964959 -0.0147845475
0.044294067 -0.3249283 -0.3417546 0.26151192 -0.17649066 -0.22379772 0.01924548 -0.1678872
-0.09465404 -0.19414738 -0.24022676 -0.08932015 0.1953094 -0.17331739 -0.04490502 -0.12849155
-0.05207861 0.08498998 0.10389491 -0.09661599 0.25665906 0.08510859 0.036388826 -0.4438589
0.09888821 -0.044012304 -0.30450782 0.0585602 -0.21076836 0.11070967 -0.4576246 0.014638751
-0.032771155 -0.050391726 -0.16678356 0.005503 -0.09271039 -0.12228555 -0.13819835 -0.3125631
0.22852595 -0.087760426 -0.045276117 -0.17564791 -0.060187314 -0.1518848 -0.072034694 0.12550391

actor.2.weight f4 [128, 128]
00000000: bd8b b8bd a865 0ebe e643 27bd f19d e6bd
00000010: 2044 d03d 339c 32be b141 08be c478 413d
00000020: 9d4a eabc 4182 e83d e762 50bd fdff 893d
00000030: db8f 0d3d 5d23 683d 64c6 f83c 2e58 0cbd
00000040: ad32 b73d da96 d6bd ecfe 8dbc 6e80 e23c
00000050: 965d 783c dbfe 18bd 1b05 083d c938 023d
00000060: 1f65 743d 9c4f c23d df7f 6abc 6c54 953d
00000070: 0d85 8dbd bfd9 6d3b b2c6 adbd 64b3 b93c
00000080: 9a41 8abe ac13 25bd 1161 9c3d 01b3 19be
00000090: b40a f7bc 2878 13be 7052 f9bd 0a37 13be
000000a0: b16d 323d a8eb 4bbd 8c87 6e3d a777 143d
000000b0: 0761 c03c be12 b53c 597b bdbc a067 143c
000000c0: 06f8 24bd 7dff 0cbc 3184 a6bd 7614 4b3c
000000d0: c6bb ba3d ff83 25bd c376 8e3c 118a 023d
000000e0: c226 e23c 9230 8dbb 500d 853d a3a3 b5bc
000000f0: ba4c dc3c a08f bc3d 1ec9 20bc e55e 98bd
00000100: 8736 69bd 2d4b 843d 7107 1ebd 6387 97bd
00000110: 1d82 eebc 5db4 31bd 3989 69bd a35f 1cbe
00000120: 1e76 a2bc c0ec 81bd b1e4 a9bd 26a4 cb3c
00000130: 4aba 1abe eb5f 81bc 1a67 93bd a17e 833d
00000140: d870 fdbd 3931 cb3d 7c81 5bbb 55ef 523d
00000150: 1b6e 9b3d 3b50 133e 9167 083c f869 d93b
00000160: a041 af3d 386b bebd 4313 e9bd f558 ba3c
00000170: 6971 2fbd 7c76 ce3c 00f1 8fbd 58f2 373d
00000180: 72ae 0ebc 5af5 86bd 2ffa 1bbd 4dac 5abd
00000190: bbe9 c3bc e8a2 75bd 3173 06bd dc6b e2bc
000001a0: c848 27be 0f5a a5bb 068c dcbc bf14 933d
000001b0: 422d ddbc 33e7 92bd c4de a53d 5301 0ebe
000001c0: c0b3 9e3d 9e22 403d 1831 383d 2433 013e
000001d0: 49f1 d7bd cd82 e4bd 7928 25bc 4e2f c4bc
000001e0: 30be af3d 0fc8 a9bd 2f1c cbbd d6eb a03d
000001f0: 9f13 b8bd de91 68bd a65b 0bbe f1c3 0fbe
00000200: b782 19be 0e84 3f3d f187 dc3c eac7 3e3d
00000210: 3e28 9d3d c85f aabd 6f1f acbd 9e16 df3c
00000220: 0dd5 cb3d e88b 113c 0d2f 253d 0263 b5b7
00000230: 23a2 9bbd a8a8 fbba bd70 02be 4830 393c
00000240: c65d 09be 6d74 65bd aca0 18be 3283 673d
00000250: 4eed 3f3d 2081 be3c 085f 3cbc 485b 31bb
00000260: e62b 54be 93bd 48bd 2483 6b3d 4fc1 f23d
00000270: 0f49 b13c 7c40 d3bd 16ed 32be ff6d 063d
00000280: 167b d5bd be7b 7ebd 6bdd 313d 97ab 77bc
00000290: 9f65 3c3d 9936 3cbe df96 3d3e 2e9f 1abd
000002a0: 43ba a3bc 3fc6 3bbe 9a62 cbbb 043a bc3d
000002b0: 2080 3cbd dd0a 60bd 40a6 fcba 6a8e c8bc
000002c0: 8588 72bd 7a25 753c 6962 463c 492c f2bd
000002d0: 64ee 72bd d262 dcbd 8637 113b 4a24 eebc
000002e0: 070e 83bd 3199 853d 7b43 d1bc 335c d9bd
000002f0: 7021 463d aea7 d1bc 6188 2c3d c513 4dbe
00000300: 005a d0bd e815 1fbd 3d5f 0d3e c12c e33c
00000310: 6ea9 27bd 75a4 9fbd 3daf 41bd 0dd5 9dbc
00000320: 4d00 59bb eca7 a7bd 9b8b 513d 4878 e9bc
00000330: 04ea 7cbd ddac a5bc de1d 28bb 8dcb 4dbd
00000340: f529 dabd 4e03 d0bd 37c9 a8bc c647 6e3d
00000350: 16db 073d 033a 40bc 793f 82bc b710 b4bd
00000360: 98fe 083a 6cef 0dbe 9405 34bd f7bc 0cbd
00000370: 4e3d 52ba 8da7 8ebd 8305 8b3c 94f3 6bbc
00000380: 7494 fbbd eb3c 4e3a b0c4 04bd b9a8 c13d
00000390: c8fe c73c 3217 a1bd 899c 55be 7910 80bd
000003a0: fd29 99bc b1ca 61bb 1622 aebd 5002 2f3d
000003b0: aafa 33bd ea36 813d 71b0 12be 9c37 ffbd
000003c0: 2041 a53d 1e9c ad3d 8d64 193e 21e8 24be
000003d0: 5a93 85bc 271f a53d e1a8 923d deeb 9d3c
000003e0: 63da 793d ae61 ddbd 8bdc 0c3e 757f 9abd
000003f0: 4ce8 81be 7fb7 ce3d 1723 f6bd 6cb9 0f3c
-0.09011028 -0.13905966 -0.040836237 -0.11260594 0.10169244 -0.17442398 -0.1330631 0.04723431
-0.028600032 0.11352969 -0.05087557 0.06738279 0.03456102 0.05667435 0.030368038 -0.034263782
0.089452125 -0.104779914 -0.01733347 0.02764913 0.015159031 -0.037352424 0.033207994 0.031792436
0.05966675 0.094878405 -0.014312713 0.07291493 -0.06910143 0.0036293117 -0.08485164 0.022668548
-0.27003175 -0.040301964 0.076357014 -0.15009691 -0.03015647 -0.14401305 -0.12173927 -0.14376464
0.04356164 -0.049785286 0.058234736 0.036246922 0.023483766 0.022103664 -0.023130106 0.009057909
-0.040275596 -0.008605835 -0.08130682 0.012395015 0.09117846 -0.040409084 0.017390614 0.03186995
0.027606372 -0.0043087685 0.0649668 -0.022172755 0.026892055 0.09207082 -0.009813575 -0.07439975
-0.056936767 0.06459651 -0.038581315 -0.0739887 -0.029114777 -0.0433849 -0.05701563 -0.15270858
-0.019831713 -0.063439846 -0.082955725 0.024858546 -0.15110126 -0.015792808 -0.071973994 0.06420637
-0.12375039 0.09921498 -0.0033493927 0.051497776 0.0758936 0.14386074 0.008325473 0.006634947
0.08557439 -0.09297794 -0.11380627 0.022747496 -0.042832766 0.025202982 -0.07028389 0.04490885
-0.008708583 -0.06589766 -0.03808039 -0.053386975 -0.023915162 -0.059969813 -0.0328247 -0.027639322
-0.16336358 -0.005046136 -0.026922237 0.071816914 -0.02699912 -0.07173004 0.0809913 -0.13867693
0.07749128 0.046908014 0.044968694 0.12617165 -0.10544068 -0.11157761 -0.01008045 -0.023948338
0.08581197 -0.08290111 -0.09917485 0.07857482 -0.089881174 -0.056779735 -0.1360918 -0.1403959
-0.1499127 0.046756797 0.02692029 0.04657737 0.07673691 -0.0831905 -0.08404433 0.027232464
0.099527456 0.008883454 0.040328074 -2.1622986e-05 -0.075992845 -0.0019200044 -0.12738319 0.011303015
-0.13414678 -0.056019235 -0.14905041 0.056521602 0.04685717 0.023254931 -0.011497267 -0.0027062465
-0.20719871 -0.049008917 0.057498112 0.11853277 0.021641282 -0.10315034 -0.17473254 0.032819744
-0.104238674 -0.06212973 0.04342405 -0.015116594 0.04599535 -0.18380202 0.18514584 -0.03774946
-0.019986277 -0.18337344 -0.0062068226 0.09190753 -0.046020627 -0.05469786 -0.001927562 -0.02448197
-0.059212226 0.014962548 0.012108424 -0.11824853 -0.05930938 -0.10761036 0.0022158339 -0.029070038
-0.0639916 0.065233596 -0.025544873 -0.10613289 0.048371732 -0.025592651 0.04212225 -0.20027073
-0.10173416 -0.03883925 0.13805862 0.027731301 -0.040933065 -0.077950396 -0.04728626 -0.01926663
-0.0033111752 -0.081863254 0.05115853 -0.028499737 -0.061746612 -0.02022403 -0.0025652568 -0.05024295
-0.10652534 -0.1015688 -0.02060376 0.058173917 0.03316792 -0.011732581 -0.015899407 -0.087922506
0.00052259257 -0.13860863 -0.043950632 -0.0343599 -0.00080199994 -0.069655515 0.016970402 -0.014401335
-0.122841746 0.0007867354 -0.03241414 0.094560094 0.024413481 -0.07865752 -0.20860495 -0.06253142
-0.01869678 -0.003445309 -0.08502595 0.042726815 -0.043940224 0.06309302 -0.1432512 -0.124617785
0.08069062 0.084770426 0.14979763 -0.16104175 -0.016305614 0.080625825 0.07161117 0.01927751
0.060999285 -0.108096465 0.13756005 -0.07543842 -0.2537254 0.10093593 -0.120184116 0.008772235

actor.2.bias f4 [128]
00000000: 2748 4cbd f6bc 95bd 2856 cdbd 6704 c43c
00000010: 9fa7 87bd c9a6 b8bd 5ffd f6bc 9854 cfbc
00000020: 0165 e2bd 190b aabd 5c0d 8abd 0e21 a1bd
00000030: e434 e73c 61f0 5bbd ac6d f0bc acdc f1bc
00000040: f1df 8ebd aeef 073e 364c 7a3d a679 43bd
00000050: baf5 27be 37df 17be 8005 08be bd6b 1a3c
00000060: b8a5 06bd f712 a1bd 5277 08be 2744 e2bd
00000070: 164f 153d db1a e5bd 5921 e9bd d24a 8c3d
00000080: 68af 38be ae43 3c3c c388 31be 877d 483c
00000090: afef 17be 638f 9dbc af7e d8bd cc9e d8bd
000000a0: 9049 c7bc c656 10be f661 9cbd 59fe 773d
000000b0: b125 7c3d b62d c5bd 211c 8bbd 6fd1 b6bd
000000c0: 1347 82be 802e d4bd 3f40 2d3d 9e69 14be
000000d0: 6dc1 82bd 4022 623c 56e3 03bc 1f87 75be
000000e0: b35b b5bc c43d efbd 4de4 e8bd 886f 3dbe
000000f0: b4a2 1dbe adb5 bf3d e794 5bbc 3628 0fbe
00000100: 6573 0cbe b26a cabd acd3 813d 31db c13a
00000110: c26c 963b d7ac 0bbe 2a00 cabd cd60 97be
00000120: 5485 55bb 9955 eebc 1d2f 613c 35aa dabd
00000130: 1f9d 433c bad6 e8bd 5ca9 12bd 6d38 13be
00000140: ec47 69be ffe6 25bd 09d4 9bbd d7a1 26bd
00000150: bf9b 893d b329 5e3d 65c2 91bd 5afe 29be
00000160: b81f 05be e044 67be 190a 533d 1c25 a83b
00000170: 1e86 ecbd 084b b4be f2bc 8fbd 3e6b e8bc
00000180: 7e27 bd3b 2961 47bd e6dc d83d 517f 8e3c
00000190: e633 84bd f20d 31be faa1 fbbd b270 43bd
000001a0: 0a9b c5bd f5a4 c5bd 8598 53be 6d90 923d
000001b0: 066c 16be 5add 10bd c812 32bd 09aa c7bd
000001c0: 952a c1bd 94b6 a13c 14b9 ffbc 9a4a e5bd
000001d0: 7e8a 1d3d a437 843d af5f 42be 831d 4fbd
000001e0: ffd3 a4bd 3fb5 a03d 457e 9bbd bb48 3c3d
000001f0: 7013 03be 2867 ef3c baee 1bbe 0142 c9bd
-0.049873497 -0.07311432 -0.100261986 0.02392788 -0.06623768 -0.09016187 -0.030150114 -0.025308892
-0.11054421 -0.08302898 -0.06740829 -0.07867633 0.028223462 -0.05369604 -0.02934917 -0.02952417
-0.06976307 0.13275024 0.061107837 -0.047723435 -0.16402331 -0.14831243 -0.13283348 0.009425101
-0.032872885 -0.078649454 -0.13326767 -0.11048155 0.036452375 -0.11186763 -0.11383314 0.06850208
-0.18035662 0.0114907455 -0.17337327 0.012236959 -0.14837526 -0.019233411 -0.10571038 -0.10577163
-0.02432707 -0.14095601 -0.07635872 0.0605453 0.061559383 -0.09627859 -0.067924745 -0.08926665
-0.2544485 -0.10360432 0.042297598 -0.14493415 -0.06384549 0.013802111 -0.008049807 -0.23977326
-0.022138452 -0.11681703 -0.1137167 -0.18499577 -0.15394098 0.09360824 -0.0134022 -0.13980183
-0.13715895 -0.09883632 0.06339201 0.0014790056 0.0045906017 -0.13640152 -0.098633125 -0.2956604
-0.003258069 -0.02909355 0.013744143 -0.10676996 0.011939316 -0.11369081 -0.035806045 -0.14376993
-0.22781342 -0.0405035 -0.07608802 -0.040681686 0.06719159 0.054238986 -0.07117156 -0.16600934
-0.13000381 -0.22584867 0.0515233 0.005131377 -0.11549018 -0.35213494 -0.0701846 -0.02837145
0.00577253 -0.048676644 0.10589008 0.017394694 -0.06455211 -0.17290476 -0.12286754 -0.047714897
-0.09648712 -0.09650604 -0.2066365 0.07156453 -0.14689645 -0.035367347 -0.043474942 -0.097492285
-0.0943195 0.01974038 -0.031216182 -0.1119587 0.038462155 0.06455925 -0.18981813 -0.050565254
-0.080482475 0.0784707 -0.075924434 0.0459678 -0.12800384 0.029223993 -0.15227786 -0.09827042

actor.4.weight f4 [128, 128]
00000000: a624 81bd 3866 f33c ec65 82bc 1560 3b3d
00000010: e3bb 613d e9d0 21bc aa4d 183d 3b62 323e
00000020: 04b1 babc c643 02be 1f27 55bd 6b55 103d
00000030: a454 203e fa47 ffbc 2b5b 21be cee8 86bd
00000040: 8077 8ebc 4d1c 29be ee20 cfbd e89e 98bd
00000050: 7ae3 59bd b86a 43bc 6260 2bbd b385 a03c
00000060: 7d12 3dbd e2bd aa3d 56f4 c03c 747c c53d
00000070: 53ef 04bd 6474 473d 199d 293d f5ae 24bd
00000080: 95df 03bd 48b5 acbd a627 f73d c462 a0bd
00000090: 3181 0ebd 1923 f0bc b3b6 963d 85e6 083d
000000a0: ab78 d23d 1438 0dbe ead0 043e 0b8e cabd
000000b0: f38c 04be 5847 573d 4cc2 0abe 1e8f a73d
000000c0: 3eae 8f3d df8b 7abe 832e 96bd d252 a03d
000000d0: ed54 d2bd 85f3 32bd 7f4e 573d 05c1 9e3d
000000e0: 9c47 aa3d 0f1f 8fbd 3b01 033c 8c61 f9bc
000000f0: 7e01 ba3c 547c bd3d 3ce6 163d ad9c e43c
00000100: 28fc a3bc 7f8c fc3d a0d1 433d 228e 093d
00000110: 0ac8 223d 7e43 f03d b897 32bd a48f f93c
00000120: fbaa 56bc 1d2b 1dbe 28d5 b23c 6c79 143d
00000130: 4b60 903d 0482 5d3d a0f2 84bd 5608 bb3d
00000140: b9aa 503d d59b 053d 3bf4 88bd 15a7 983d
00000150: 8261 e3bc 4104 61bd 4b77 003d 6f3e 9b3d
00000160: 2962 223e 43c7 a73d 3bbc 6e3c 1f44 1bbe
00000170: 7274 083d 91f8 fe3b 5e0e adbd 5810 94bd
00000180: e01a 60bd 5df5 ad3d cdb4 6bbc ac82 1c3e
00000190: fbf4 04be 0049 c93b 258f 043d 4e14 893d
000001a0: f8eb 57bd 93c1 8b3b d1e7 11bc 19da 0d3d
000001b0: a82f 96bd 838a 27bd 5ff2 053e 550a 993b
000001c0: 26e7 64bd b11c e8bd 1dba 98bd 5e19 ea3c
000001d0: 9b44 f63d 13d7 893d f698 a63b ccbc 89bd
000001e0: 7947 2ebd 1f5d 38be 95c5 3cbc ff0e 9cbd
000001f0: a1af 983b 4c03 fdbd f770 5ebc 9691 83bd
00000200: 5f96 2bbd 6410 e23d 5770 fa3c af92 e8bd
00000210: 6fea 953d d38c 5d3d 7ab4 8f3b 54c4 19bc
00000220: bdea 043b dacc 8f3c 75bc 38bd a4e0 65bc
00000230: b56e c63c 55eb 623d d3a7 e93d c31c a1bd
00000240: 57b2 f4bb 0fb8 c33d c2f8 afbd 6f8a 53bc
00000250: 4d91 d6bd 1436 643c 78c2 8dbd 1ccc f9bc
00000260: 793f 24bd b4ce 503c eb9f 0b3c fa77 e2bd
00000270: c7a4 dc3d 6a29 b9bc e8e4 d93d 6494 f83c
00000280: ea76 3c3d 5399 cd3a 56e9 e03d 1219 053e
00000290: f92a aabb b39f c53d 09e3 7d3c 6585 67bb
000002a0: 9d6a 8bbc 04f7 afbc c12f 413d 99bf a33d
000002b0: eee8 74bd d0d7 dfbc 4fb7 c7bd 61c1 ecbd
000002c0: 781a 353e b332 c2bd c7f7 213e 2376 b93d
000002d0: de57 06be 68c0 d0bd 38c5 973d e98f dfbc
000002e0: a881 d93d d2c4 a4bd 023b b33d 5333 753d
000002f0: 4888 6c3d 082d 01be 1cc6 203e dabe 083e
00000300: 1cae 9e3d 5d8d b4bd 9ddb 223d 0f3a 90bc
00000310: 8723 bbbd a445 0e3d 5a05 89bd 568b 8e3d
00000320: 3df8 553d 1bd3 c7bd ed41 9b3c bb59 c13d
00000330: e66a 193d 731c 483d 6c1b 06be d760 f9bc
00000340: 1b97 953d fcb0 203d 83d6 873d 1530 b9bc
00000350: 2625 6cbd b3ef 9d3d 8e57 a73d d971 53bd
00000360: 3e81 763d 905d 033c 8a13 d33c a635 b83c
00000370: 5642 1cbe cc93 8e3c f9ea a93d d1f0 0dbd
00000380: fd10 3f3d 4280 3a3c e34f bb3c e5bf 683d
00000390: febc 2b39 5a32 4c3d 434a 3f3e c2bc 1f3d
000003a0: e749 e1bc ea78 243e 268f 2a3e b4b1 853b
000003b0: 507d b4bc 9dce 393d 3433 bdbb 2dd6 8abc
000003c0: 3075 6bbd 69de e2bd dec1 973d bc44 ebbd
000003d0: 952d 7f3c a007 d6bd b24e 77bd 16d0 cf3c
000003e0: efe3 0b3e ae7d 8dbd 8e24 e83b 4d1b 3dbd
000003f0: 9e91 8cbd 32e4 663d 117b 68bd 8755 1a3d
-0.06305818 0.029711828 -0.01591774 0.045745928 0.055110823 -0.009876468 0.03718344 0.17420284
-0.022789486 -0.12721166 -0.052039262 0.03523771 0.15657288 -0.03116225 -0.15757434 -0.06587373
-0.017390966 -0.16514702 -0.10113703 -0.07452184 -0.053195454 -0.011927299 -0.041839965 0.019595003
-0.04616021 0.083369985 0.023554008 0.09642878 -0.0324548 0.048694983 0.041409586 -0.040205915
-0.032195646 -0.08433014 0.12068109 -0.07831338 -0.034791175 -0.02931361 0.07359066 0.033422966
0.10276922 -0.13790923 0.1297032 -0.09890374 -0.12944393 0.052558273 -0.13550681 0.08181594
0.07015656 -0.24467419 -0.0733309 0.07828297 -0.102701046 -0.04368927 0.052565094 0.07751659
0.0831444 -0.06988346 0.007995899 -0.030442022 0.02270579 0.09252229 0.036840662 0.02790674
-0.020017698 0.12331485 0.047807336 0.033582814 0.039741553 0.11731623 -0.04360172 0.030464001
-0.013102288 -0.15348478 0.021830156 0.03624861 0.070496164 0.05407907 -0.064915895 0.09132449
0.050944064 0.032619316 -0.06687208 0.07453743 -0.027756456 -0.054935697 0.031363767 0.07580268
0.15857758 0.08192303 0.014571245 -0.15162705 0.033314176 0.0077810963 -0.08450006 -0.0722968
-0.05471313 0.08494065 -0.014386368 0.15284222 -0.12984078 0.0061427355 0.032363076 0.06693326
-0.05271527 0.004265019 -0.008905367 0.034631822 -0.073333085 -0.04090358 0.13080738 0.004670421
-0.055884503 -0.113335975 -0.07457373 0.02857655 0.12024804 0.06730475 0.0050841523 -0.06725463
-0.04254863 -0.18004273 -0.011521717 -0.07620048 0.0046596085 -0.123541445 -0.013576738 -0.06424253
-0.041891452 0.110382825 0.030571146 -0.11356103 0.07320105 0.05408938 0.004385528 -0.009385187
0.0020281516 0.017553736 -0.0451016 -0.014030609 0.024222711 0.05540021 0.11408963 -0.07866814
-0.007467549 0.09556591 -0.08592369 -0.012911423 -0.10476933 0.013928909 -0.069218576 -0.030492835
-0.040099595 0.012744594 0.008522014 -0.1105804 0.10773616 -0.022602756 0.106393635 0.030344196
0.046011843 0.0015685953 0.10982005 0.12997845 -0.005193111 0.09649601 0.015496024 -0.0035327312
-0.01701861 -0.02148009 0.047164682 0.07995529 -0.05979245 -0.027324587 -0.0975176 -0.115603216
0.17685878 -0.09482326 0.15817176 0.09055736 -0.13119456 -0.101929486 0.07410663 -0.027290301
0.10620433 -0.08045353 0.08751489 0.0598634 0.057747155 -0.12614834 0.15700573 0.13354054
0.077480525 -0.088160254 0.03976022 -0.01760581 -0.09137636 0.034734383 -0.06690474 0.0696017
0.05223869 -0.09757062 0.018952334 0.09440943 0.037455462 0.048855256 -0.13096398 -0.030441685
0.07304212 0.039231285 0.06632712 -0.022605935 -0.057652615 0.077117346 0.081709966 -0.051622245
0.06018185 0.0080179125 0.025766153 0.022486519 -0.1525968 0.01740446 0.082967706 -0.03465349
0.04664706 0.011383118 0.022865241 0.05682363 0.00016378236 0.049852706 0.18680672 0.038998373
-0.02750106 0.1606175 0.1665617 0.0040800218 -0.02203241 0.045363057 -0.005773926 -0.01694783
-0.057484806 -0.110775776 0.07410024 -0.114877194 0.015574832 -0.10450673 -0.060377784 0.025367778
0.13661169 -0.06908737 0.007084436 -0.046168614 -0.06863712 0.056369968 -0.05675799 0.03767922

actor.4.bias f4 [128]
00000000: b462 94bd b0d1 9abd 6050 5a3d 162b 32bd
00000010: 6715 30bd 6e54 4b3d ba11 89bd bc89 37bd
00000020: e201 c5bb e52a b6bd 3d23 82bd 8777 86bd
00000030: 1ab4 c7bd f375 86bd 874d 5b3d 5cfd 2dbc
00000040: defe 8b3d c6d4 c33c 8431 d3bd 1ecf 14be
00000050: cdd5 b2bd d6e7 883b 668e e2bc ec70 dc3c
00000060: 5d20 a83c 5d95 8abd de76 56bd ab9b 05bd
00000070: 27e3 9fbd b7e2 933d c7b2 0f3b f602 7cbb
00000080: b7c1 76bd fc1c 4b3c 0b26 84bc b92a 44bd
00000090: c639 fe3c adcb a5bc 7158 a4bd 8155 a9bc
000000a0: 82e5 14be a494 c2bd 2389 45bd a608 d9bd
000000b0: 76aa 9abd d521 aebd 9bc8 103d 0027 eabd
000000c0: 4538 11bd 9a65 223d 4a2a 76bd 0661 8a3d
000000d0: be4a 2a3c 3bea 83bd 8bc7 93bc d947 34bc
000000e0: f8d3 6dbd 589c aebd b608 e8b7 08e0 83bd
000000f0: 2682 98bc 2eba 053c 3735 88bd d4a5 ecbd
00000100: 9d8a 93bc c985 cabc 4ffa cbbc dcb8 673d
00000110: f5d2 bc3d ed8c 123d 189b b2bd c725 c9bc
00000120: ce80 27bc ed1f 873d 00c9 a3bc dfcf c4bd
00000130: 8a0b 18bd 9056 d3bd 3799 a63c b878 c2bd
00000140: 0910 01be e2ec 86bd c157 8c3c b2c1 7a3c
00000150: 8839 02bd 1993 993b e168 c5bc 3a35 5a3d
00000160: 9fe7 48bd a9b2 07be fefb 6f3d 0ae4 293d
00000170: 551a 9ebd 65f5 15be 064f d7bd 7670 60bd
00000180: fc54 61bd df98 aabd 12d9 b6bd 03d5 043d
00000190: 7d6a 8fbd 6971 01be f2b8 7fbe 903c 50bc
000001a0: 4f41 c9bd 4ba3 9abb 4d8a b6bd c17f 183b
000001b0: 978f 903d be2c b8bd 3cb5 d43c a45c 31be
000001c0: 0a06 36bd 190c 17be 94fd 323d a693 783d
000001d0: 95cd f7bd 5bea 09be e56a f6bd f91b 0cbd
000001e0: f9fc 563d 4cbd 4f3d c87b ae3d 19c8 463d
000001f0: 5b17 163d 875f 69bd b3d3 b4bd a01c 833a
-0.072453886 -0.07559526 0.053299308 -0.04349812 -0.04298916 0.049641065 -0.06692834 -0.044809088
-0.0060121873 -0.088949 -0.063543774 -0.06565767 -0.097511485 -0.06565466 0.053540733 -0.010619488
0.068357214 0.02390517 -0.10312179 -0.14532134 -0.087321855 0.0041780276 -0.027655791 0.026909314
0.020523245 -0.0676677 -0.052359454 -0.03261916 -0.07806998 0.07220977 0.0021926628 -0.0038453913
-0.060243335 0.012397047 -0.016131422 -0.047892306 0.031033408 -0.020238722 -0.08024681 -0.020670654
-0.14540675 -0.09501007 -0.048226487 -0.10597353 -0.07552044 -0.08502547 0.035347562 -0.1143322
-0.035454053 0.039647676 -0.060098924 0.06756787 0.0103937965 -0.0644116 -0.018039485 -0.011003458
-0.058063477 -0.08525914 -2.7660612e-05 -0.06439215 -0.018616747 0.0081620645 -0.06650775 -0.11555067
-0.018010432 -0.024721997 -0.02489963 0.05657278 0.09219924 0.03577893 -0.08720988 -0.024554146
-0.0102235805 0.06597886 -0.019993305 -0.09609961 -0.03712038 -0.10319245 0.02033673 -0.094956815
-0.12603773 -0.065881506 0.017131688 0.01530497 -0.031793147 0.004686725 -0.024097862 0.053273417
-0.049049016 -0.13251747 0.058589928 0.04147724 -0.07719866 -0.14644392 -0.105131194 -0.05479475
-0.055012688 -0.08329939 -0.089281216 0.032429706 -0.07002733 -0.12640919 -0.24972895 -0.012709752
-0.0982691 -0.004719173 -0.089130975 0.0023269507 0.070586376 -0.08992909 0.025965326 -0.17320496
-0.044439353 -0.14750709 0.043698862 0.060687684 -0.120997585 -0.13468306 -0.12032107 -0.034206364
0.052487347 0.050717637 0.08519703 0.04853067 0.036643367 -0.056975868 -0.08829441 0.0010003038

actor.6.weight f4 [8, 128]
00000000: bb70 c53c 6a40 593c 2807 4e3c 55b0 823d
00000010: e66c 79bc 2a10 fa38 e6f9 083c 3836 bc3b
00000020: b934 babc 7412 ca3b b216 bc3b 90a5 083d
00000030: 20b7 0a3c 0160 c23c 0bae b4bb 572d 55bd
00000040: 826c c0bb 468a 36bc 0ac6 f4bc 129e 8fbb
00000050: 75e8 d03b cad7 013d a907 073c 9aec 3fbc
00000060: dfe0 753c bf43 b7bd f349 433c b529 31bb
00000070: 53f2 03bd 04c3 11bb 5cae d03b b1b6 9ebc
00000080: 9ac8 0d3c 9484 fd3c 6487 f93c 8d57 fabc
00000090: 24e8 d9bc b84e 2e3d ccac c6bc 0f9a 4dbd
000000a0: dd31 8b3c 9202 293c 0dd7 0ebd 293a a13a
000000b0: a574 0cbd 8c36 84bc fd43 5d3c ffbd 873b
000000c0: 3a16 223b 8ae5 c9bb c3b8 a6ba 369f 57bc
000000d0: 8c0d 8e3c adec d9bc 1d2f 01bc 4891 53bc
000000e0: 0047 c8bc 602d 01bc e710 b7bc 0169 ab3c
000000f0: 03c4 c9bb 29b5 28bc b999 533d 7f6e 49bc
00000100: 3d9e 863b 5e0d beba dbd3 f7bb be2a a4bb
00000110: 1c26 22bc 889b b83c bf13 f2bb 8e18 35bc
00000120: 11a4 cd3b 1dd6 e33a 3918 f93b d8d1 e03a
00000130: 3365 e93c e8f0 443c 27c6 a9bc 3e21 89bc
00000140: b4eb 203c 195f 0a3c f56b d43c 4c61 8c3c
00000150: 03ed eabc 3324 a23a 0702 a236 349a 4c3b
00000160: 2081 263c a364 163c a1d2 b73b 177e 933b
00000170: cecb 9ebd fc62 78bd f9d8 fcbb f0df 8c3b
00000180: 3cfa 0f3b a786 6f3b 7f2b 8dbc 7798 723c
00000190: 006f a3bc 6d02 2b3d 568a 723d cc49 09bd
000001a0: 8927 503a b89b 0d3c 8471 63bc fdd1 04bd
000001b0: 6272 2e3b d597 44bc 00b3 39bd cfaa 8b3c
000001c0: 3807 9f3c 518f 2b3d 1dc2 f13a 6998 9b3b
000001d0: ffe2 383d 3201 703d e819 573a f048 363d
000001e0: ece8 babc e074 863c ce09 a8bc 99b5 50bd
000001f0: 1cb4 eb3b 8a76 38bc 4120 e43c 726f 94bb
00000200: 0db8 093d 8fc4 17bd ed63 c13b 6a17 ec3c
00000210: 3a51 afbc 4a72 13bc 3aaa 8a3c c17e 4d3b
00000220: d3a4 023d f27f 62bb 9f8e 82bc 5e59 88bc
00000230: db49 5cbc 9b7f a83c 9d9b c0bb 1dfc a33c
00000240: 4bba efbb d644 2bbc d083 82bc 0b72 edbc
00000250: 84b0 dabc c035 85bd 9a86 d9bb fbde 25bc
00000260: b61a 24bd 0d96 4d3a 7f34 533b 528e 20bd
00000270: 12c2 1cbd a310 a6bb 9a2a 01bc 8a8e db3d
00000280: a09f 3bbc b2b9 82bc d805 d0bc c8df eeba
00000290: 70a1 96bc 2cb9 3bbd c8a1 cebb abd2 48bd
000002a0: 6820 9fbc 257f 80bc 8e9c 383c 43b3 5d3c
000002b0: 7a0a f7bc 476d 8dbb 4196 123c e74f 34bd
000002c0: 1126 d43b 10fc 5fbc 9313 eb3a 7819 d93c
000002d0: d509 16bb 564a f03c 1f0a 893d 9871 153b
000002e0: 1469 253c 8558 f5bc 12a7 723c c777 2fbd
000002f0: 7bdb 7c3b ce3f b43c a6fb 4c3c 8ccf 0abd
00000300: 7535 043c bf24 f0ba 36fc 143c cc9d d63a
00000310: 90b8 dc3b d398 b83c 2fe7 9cbb 587f 07bb
00000320: 3f65 7bbb 0570 083b e309 16bb b7ee 773b
00000330: d2d6 cd3c bc1b 5f3c 9718 6d3b fc31 d9bb
00000340: 77da 7b3d 2185 09bb 22c0 c9ba 6156 003d
00000350: 1af9 5abd f66e 9a3b 8294 2ebc c147 cbbc
00000360: 8b7e f9bb a376 4bbc 99cb 0db9 8a8a 3f3c
00000370: a6dd b53c 99c0 343d d7a5 b0bc d611 a7bc
00000380: 5bf4 f8ba 0387 1f3c 71df 283d 446d 803d
00000390: a39f a93c c34d 083d 2312 673b e6ea b5bc
000003a0: 8620 04bc eabe a1bc ce24 84bc 8e1a 1cbb
000003b0: 77b3 0c3c 226a 413b 9b6c 873c ecc4 05bc
000003c0: 5c75 273c dcc8 e7bc 9d2e 48bd c7a7 c9ba
000003d0: bbce 03bc d139 f0bc 222a 803a 8cac 41bd
000003e0: 93ac 313d 719a d7bc 3edf b03b b7b7 253c
000003f0: d39d b13c 0193 8d3c bc76 833d 3901 0bbb
0.024101606 0.013259986 0.012574948 0.06381289 -0.015223717 0.0001192394 0.008360362 0.005743768
-0.022730218 0.0061667506 0.00574001 0.033361018 0.008466512 0.023727419 -0.0055139116 -0.052045193
-0.00587231 -0.011141365 -0.029879589 -0.004382857 0.0063753673 0.031699933 0.008241572 -0.011714125
0.015007227 -0.089484684 0.011919486 -0.0027032916 -0.03221352 -0.0022241483 0.0063684415 -0.019374223
0.008653784 0.030947007 0.030460067 -0.030559326 -0.026599951 0.04255554 -0.024252318 -0.05019575
0.01699155 0.010315554 -0.034873057 0.0012300658 -0.03429093 -0.016139291 0.013504979 0.0041425223
0.0024732486 -0.0061613964 -0.0012719858 -0.013160517 0.017340444 -0.026602114 -0.007884768 -0.012913056
-0.024447918 -0.007884353 -0.022346927 0.020924093 -0.0061573996 -0.010297098 0.051660273 -0.012294411
0.004108219 -0.0014499833 -0.007563097 -0.005009978 -0.009896781 0.0225351 -0.007387608 -0.011053218
0.0062756618 0.0017382536 0.0076017645 0.0017152382 0.028490638 0.012020327 -0.02072437 -0.016739484
0.009821821 0.008445525 0.025930384 0.017136239 -0.02867747 0.0012370407 4.8282122e-06 0.0031219842
0.010162622 0.009179267 0.0056098257 0.004501115 -0.077537164 -0.060641274 -0.007716295 0.0042991564
0.002196922 0.0036548765 -0.017232655 0.014806858 -0.01995039 0.04175036 0.05921396 -0.033517644
0.00079404615 0.008643083 -0.013882045 -0.032426823 0.002661847 -0.01199909 -0.045336723 0.017049221
0.019412622 0.041884724 0.0018444691 0.0047483933 0.045138355 0.05859489 0.00082054595 0.044503152
-0.022816144 0.016413152 -0.020512488 -0.050954435 0.0071931016 -0.011258731 0.027847411 -0.004529887
0.03362279 -0.037052687 0.0059018047 0.028819758 -0.021401037 -0.008999417 0.016926873 0.0031356069
0.03189547 -0.0034561125 -0.015937148 -0.016644176 -0.013445343 0.02056866 -0.0058779255 0.020017678
-0.007315909 -0.0104534235 -0.015931994 -0.028985044 -0.026695497 -0.065043926 -0.00663836 -0.0101239635
-0.040064536 0.00078424887 0.0032227335 -0.039198227 -0.038271017 -0.005067901 -0.007883692 0.107205465
-0.011451632 -0.015957687 -0.025393412 -0.0018224651 -0.018387526 -0.04583089 -0.006305907 -0.049029034
-0.019424632 -0.015685627 0.011267794 0.013531509 -0.030156363 -0.0043160054 0.008946956 -0.044021513
0.0064742644 -0.013670936 0.0017934911 0.026501402 -0.0022894044 0.029332321 0.066913836 0.0022803303
0.010095853 -0.029949436 0.0148103405 -0.042838838 0.003858297 0.02200308 0.01251117 -0.03388934
0.008069386 -0.0018321498 0.009093335 0.0016373931 0.0067358688 0.02253381 -0.0047883014 -0.0020675268
-0.0038359908 0.0020818722 -0.0022894077 0.0037831494 0.025126848 0.013617452 0.0036177987 -0.006628273
0.06148764 -0.0020983892 -0.0015392343 0.031332377 -0.053460218 0.0047129346 -0.010655524 -0.024814488
-0.007613962 -0.012418422 -0.00013522654 0.011690745 0.022200417 0.044128988 -0.021563454 -0.020394247
-0.0018993722 0.009736779 0.041228715 0.06270841 0.020706004 0.033277284 0.0035258613 -0.022206735
-0.008064395 -0.019744355 -0.016130831 -0.0023819539 0.00858771 0.0029512723 0.01653128 -0.008164626
0.010220852 -0.02829402 -0.04887258 -0.0015385085 -0.008044894 -0.029324444 0.0009778182 -0.047283694
0.04337747 -0.02631876 0.0053977063 0.010114602 0.021681702 0.017282011 0.06419131 -0.0021210446

actor.6.bias f4 [8]
00000000: 3195 3a3d 6ac6 3ebc 30eb 7dbb 5d37 ef3c
00000010: 3955 693d 16ab 99bd 5eb8 d23d 4a50 5e3b
0.045552436 -0.011643985 -0.003874492 0.029201204 0.05696604 -0.07503335 0.102890715 0.0033922368

critic.0.weight f4 [128, 31]
00000000: 6a6a 7dbd 0b90 163e 15b1 97bd 1c6f eebd
00000010: 1f50 d83c 8cc4 13bd 16a4 a03d e4b8 e83c
00000020: f962 113e e8b9 7a3f d5fe 563e 8e1d 863d
00000030: afd1 9fbd aba3 e53d 8699 a33d 10d0 9f3c
00000040: 25b4 123d 9a62 583b d137 ad3d c73a 99bd
00000050: fb03 853d 3a24 ef3c ad94 933d 76dc 1b3e
00000060: 3d0f 023e 6863 ad3c 014d 2f3e 9caa 063e
00000070: 5127 97bd eede 26be 8f75 0cbe 6132 993c
00000080: 6236 a23d af2f c9be e19a b5bc 4404 edbc
00000090: a1f1 be3b 300e 473e b6c4 613d b9a3 143e
000000a0: bc5e ce3f 54af e2bf 6255 213e 3d88 a03c
000000b0: 2def 1ebe 4dda 253d ac10 e5bc 53b7 21bc
000000c0: 948c 07bd b3cb 913a fd85 f9ba 8700 94bb
000000d0: e0bc af3c ee31 e13b f7e4 4e3d a008 51bc
000000e0: cced 883d 1e6c 3bbd efa7 0d3d d61a 1b3e
000000f0: 8c16 3bbe 4454 40bc ad93 03be d1a5 0abd
00000100: a7cf 1540 4ed1 413f bec0 9f3e 7cda 893e
00000110: a2cf 82bd ab51 8cbe 95a7 4dbe 7c6a b6bf
00000120: 30b7 ca3f 9250 593d cfac 743e 78d4 8e3e
00000130: 8bbb 15bf 4788 bbbc 7090 0a3e a17c 3fbb
00000140: 43bd de3b 2035 d73b 95af f3bb 37d5 5d3c
00000150: 01db 5f3c 525e ce3d 82ac 0cbe 16e0 7fbe
00000160: 735e 18bd 88bd 30bd e3e8 263e 4af1 8cbe
00000170: 303c 22be ad32 cc3d 7de1 e93b 7833 90be
00000180: 65f6 21bd d94d d3bd 8c61 1fbe 51f0 483e
00000190: fd5e 5bbd c0db 583e cbb1 87bf 0053 013f
000001a0: ec5a bbbd 10d6 f0bd 613c 553d eb9d 243e
000001b0: 3567 aabd 619a 92bb c6aa ae3d 37fb b2bd
000001c0: 2252 cc3d cd83 b13d 13d4 4fbd c025 db3d
000001d0: cd30 203d 05bb 453d 8548 51bc a62b f1bd
000001e0: 29a2 d5bc ddc9 843d 1ba0 18bc 3848 debd
000001f0: 8bd9 ae3e 3e06 3abe 7980 b13f b1e4 aebc
00000200: 1e8e ca3d 9e29 153e f6d9 93be fd0e 31bb
00000210: 234a 19be 06d9 59bf 8034 963f 979d babc
00000220: dc62 893e 6803 233f 42d2 e7be 7ed4 003e
00000230: b2ef 953d 39bc f1bc 4397 c63d e375 253d
00000240: 50c6 493d 5fbc 8dbd 587c 1bbc f236 293e
00000250: ae51 1d3e 709b 053b c6c0 46bd b4f8 fe3c
00000260: f92b 89be be78 313e 2f49 373e 08fc afbd
00000270: c8be 213e 4e41 8840 a74a 9fbe f75b 173d
00000280: fdd5 f63d d213 e83d 628b 5dbd 7ec7 a7bc
00000290: 609c 813e daf6 123f c131 59bf a253 c73f
000002a0: 3317 a83f 243b 8cbf 7b7f 593e 5d7a 46be
000002b0: 350f 16be bac7 073e 6c6a 17bc 8538 0b3b
000002c0: 8215 be3b a127 fcbb ab92 4cbf 8ed6 243f
000002d0: 4677 563f ca05 14bf e400 4b3e 1abe 34be
000002e0: dc3a f5bc 2858 f43d 94f2 153d 89c3 163d
000002f0: 010e 61be 96df cbbd ab52 77bd 62b4 7abd
00000300: 0209 9cbd b6df 963d 7e33 8b3e b179 8b3f
00000310: 524c 5dbf 7ca0 483e c424 bfbc b1ac 28be
00000320: ac95 b63d 5c9f 233d 0a59 0f3c c232 99bc
00000330: e2e1 7f3d 8c68 96bd d106 84bd 8581 0c3d
00000340: a184 a6bd f2b6 05bd 848e 2cbe e882 3cbe
00000350: 4eeb 7e3c 0e26 423d 0128 d2bd 92e0 dbbd
00000360: fb16 2d3e af0f c23c e8c7 49be 4298 2dbc
00000370: 9750 753e 1c46 8cbd ead0 143e 2f24 843c
00000380: 9579 dfbc 0004 85be b425 cd3f a207 2e3f
00000390: 595c 563e 8fa8 cd3d 4224 dabc 508c 54be
000003a0: 80b4 093c 9899 09bc 6c13 843d 70b3 0b3d
000003b0: b2aa 2b3c 333f 20bd 8373 bdbc 147e 7fbc
000003c0: c67a 683d 6c57 31bd 72a6 afbd b2f7 9ebc
000003d0: 4b4b 383d b1df 923e 27a6 123e 09f3 29bd
000003e0: 6413 3fbe fd80 60be de31 df3d 355d 0ebd
000003f0: 7d36 0cbd cc1f ac3d 367c 153e f269 c23d
-0.061869062 0.14703386 -0.074068226 -0.11642286 0.026405392 -0.036076114 0.07843797 0.028408475
0.14197911 0.9793992 0.20995648 0.06548606 -0.07803666 0.11212858 0.07988267 0.019508392
0.03581633 0.0033017755 0.08457912 -0.07481914 0.064949 0.029192079 0.07206092 0.15220818
0.12701125 0.021165565 0.17119218 0.1315102 -0.07380546 -0.16295978 -0.1371672 0.01870078
0.07920529 -0.39294192 -0.022168579 -0.028932698 0.0058271443 0.19439006 0.05511924 0.1451558
1.6122661 -1.7709756 0.15755227 0.019596213 -0.15520926 0.04049139 -0.027962051 -0.009870368
-0.03309305 0.0011123329 -0.0019037124 -0.0045166644 0.021452367 0.006872407 0.050511327 -0.012758404
0.06685981 -0.045757405 0.034583982 0.15146956 -0.1827032 -0.0117388405 -0.12849303 -0.03384954
2.340799 0.7571 0.31201738 0.26924503 -0.06387259 -0.27406058 -0.20083459 -1.4251246
1.5837154 0.053055353 0.23894046 0.27896476 -0.5848929 -0.02289213 0.13531661 -0.0029218572
0.006797464 0.0065676123 -0.0074367025 0.013539604 0.013663054 0.10076584 -0.13737682 -0.24987826
-0.03719945 -0.0431495 0.16299777 -0.2752784 -0.15843272 0.09970603 0.007137476 -0.28164268
-0.03954162 -0.10317583 -0.15564555 0.19622923 -0.053557385 0.21177578 -1.0601133 0.5051727
-0.09148201 -0.11759579 0.052059535 0.16075866 -0.083204664 -0.00447397 0.08528666 -0.08739322
0.09976603 0.08667717 -0.05073936 0.107005596 0.03910904 0.04827406 -0.012773638 -0.117759034
-0.0260783 0.06483815 -0.009315516 -0.108536184 0.34150347 -0.18166444 1.3867332 -0.021349283
0.09890388 0.14566657 -0.28877228 -0.002701699 -0.14969687 -0.85096776 1.1734772 -0.022780223
0.26833236 0.6367707 -0.452776 0.1258106 0.07321109 -0.029508697 0.0969682 0.04039563
0.04926139 -0.069206946 -0.009490095 0.16524866 0.1536319 0.0020386837 -0.048523687 0.03112445
-0.2679136 0.17331216 0.17899011 -0.08592993 0.15795434 4.257972 -0.31111643 0.03695294
0.12052534 0.113319054 -0.054088004 -0.020480867 0.25314617 0.57407916 -0.84841543 1.5572398
1.313208 -1.0955548 0.21240036 -0.19382615 -0.14654239 0.13259783 -0.009241682 0.0021243405
0.005800904 -0.007695154 -0.799113 0.64389884 0.83775747 -0.57821333 0.19824558 -0.17650643
-0.029935293 0.11930877 0.036608294 0.03680757 -0.21977998 -0.09954755 -0.060381573 -0.061207183
-0.076189056 0.07366888 0.27187723 1.0896512 -0.8644458 0.1959247 -0.02333296 -0.16472127
0.089152664 0.0399469 0.008749256 -0.018700961 0.062471278 -0.073441595 -0.064466126 0.034303207
-0.08130766 -0.032645173 -0.1685124 -0.18409312 0.015559031 0.047399573 -0.102615364 -0.10736193
0.16903298 0.02368912 -0.19705164 -0.010595383 0.23956524 -0.0684931 0.1453282 0.016130535
-0.027279655 -0.25979614 1.6027131 0.67980397 0.20933665 0.100419156 -0.026628617 -0.2075665
0.008404851 -0.008398436 0.06449017 0.03410667 0.010477709 -0.03912277 -0.02312637 -0.015594024
0.05675771 -0.043296263 -0.08576669 -0.01940522 0.04499368 0.28686288 0.14321195 -0.041491542
-0.1865974 -0.21924205 0.10898183 -0.034756858 -0.03423165 0.08404502 0.14598164 0.09492864

critic.0.bias f4 [128]
00000000: 9f21 6ebe cf7c 0abe e4cb dd3e db14 10bc
00000010: c8e8 823e a107 fcbd f596 6ebd 048d 363e
00000020: d078 55be 1550 1abe a2e0 403c 3601 a5be
00000030: 1f26 02be 4a8a b8bd 66eb 583d 65f0 27be
00000040: 4aa1 22be 5508 71be a160 dc3d 5dae a03d
00000050: 742f 733e 11b4 d1bd 138a bebd 0328 afbe
00000060: 8a21 89bd e819 1fbe 7e4a 70ba 817a 83be
00000070: 7584 1ebe 7184 033d 3d20 a03d 76fe 263e
00000080: 553e bebd 30be 863e 341b 913e 832e 65be
00000090: 81ac bbbe 0579 3ebd 8d2b 02be 9a6e dcbe
000000a0: a27e 00be 85c5 e83e 9d4f 2dbe 31cc 8cbe
000000b0: b9f6 083e c842 b13c 64da a73d eb07 afbe
000000c0: c68e adbe c593 723d 395c c6bb f46b d2bd
000000d0: 3ee3 45be 3d1a 363e 6dac 84be dedd 9cbe
000000e0: 4b36 99bd ac3a b0bd f483 903d 608a c5bd
000000f0: 63ec 3bbb 2610 dcbd 467a a1bd 2d3b 49be
00000100: b92c e1bd 7b27 5cbe 594d ccbd 82f6 87bd
00000110: 21a7 f8bd 742b 133e 8679 8cbe b401 963e
00000120: 3e0f 0abb d03e be3e f68f 0b3e 17d0 383f
00000130: 3be7 033f 155d 56bc 4a1f 38bd eb4e ddbb
00000140: ded7 153e d7e1 54be 7880 ebbd b929 83be
00000150: 63ca 03bf 4e65 a03e cc2c f83d 0b4b 6abe
00000160: 2657 233e 38df 8f3e 2e07 9cbe cf47 343e
00000170: 9ff9 c0be 7f43 a2bc f39e f1bd 9bf2 a43e
00000180: 1128 b43d d622 b6bd 9876 c7bd e8ed 433e
00000190: 3bb5 84be 256e 3cbd 83af a93c 490e a3bd
000001a0: 09ec 623e 8118 9fbe 9be2 c43e 8ce9 8cbd
000001b0: 9825 903d b215 b53d ee45 95be 130d 65bd
000001c0: 233e 0d3d c2f7 d03d 5310 06bc 94b8 573d
000001d0: 421e 72bd 0f7f bd3d eefd 0cbe 9a3b 953d
000001e0: 6075 7c3c ce65 a63d dbb4 f53d 5a60 b5be
000001f0: 12a4 923d 9040 2ebe 0991 1f3d 359d 3ebe
-0.23255013 -0.13524173 0.4331962 -0.008794035 0.25568223 -0.123061426 -0.058249433 0.1782723
-0.20846868 -0.15069611 0.011772307 -0.32227486 -0.12709855 -0.090107515 0.05295887 -0.16400297
-0.1588184 -0.23538335 0.10760618 0.07845757 0.2374857 -0.10239423 -0.09303679 -0.34210214
-0.0669585 -0.15537226 -0.00091663736 -0.256794 -0.15480216 0.032108728 0.07818649 0.16308007
-0.09289233 0.26316977 0.28341067 -0.22381024 -0.36655048 -0.046502132 -0.12711926 -0.43053132
-0.12548307 0.45463195 -0.16924901 -0.27499536 0.13375367 0.02163829 0.081959516 -0.34185728
-0.3389799 0.059222955 -0.0060534743 -0.10274497 -0.19324967 0.17783447 -0.259128 -0.3063802
-0.07481059 -0.08604941 0.07056418 -0.096455336 -0.0028674833 -0.107452676 -0.0788465 -0.1965148
-0.10994858 -0.21499436 -0.099756904 -0.066388145 -0.12141252 0.14372045 -0.27436465 0.29298174
-0.0021066214 0.37157297 0.13629135 0.7219252 0.51524705 -0.013083716 -0.044951715 -0.0067537925
0.14633128 -0.20789276 -0.11499113 -0.2561777 -0.5148069 0.3132729 0.12117919 -0.22880189
0.15951213 0.2809999 -0.30474228 0.17605518 -0.37690446 -0.019807575 -0.11797895 0.32216343
0.087967046 -0.08893363 -0.09739417 0.19133723 -0.25919518 -0.04600348 0.020713573 -0.07961709
0.22160353 -0.31073382 0.38454136 -0.06880483 0.070384204 0.08842029 -0.29154915 -0.05592067
0.034483086 0.10203506 -0.008182603 0.05266626 -0.059110887 0.0925275 -0.13768741 0.07286759
0.015408844 0.081248865 0.11997386 -0.35425073 0.071602 -0.17016816 0.038956676 -0.18614657
