ISAAC_NOGIT/logs/rsl_rl/traquad_flat/2025-09-16_14-04-31/model_150.pt (torch, 925483 bytes, 48 tensors)

std f4 [8]
000000 04 e2 d4 3e a2 3b da 3e 60 8f db 3e f1 7f c7 3e
       0.41578686 0.4262362 0.42882824 0.389648
000010 1a 24 3c 3f 5e 03 41 3f 47 e1 34 3f cf bb 30 3f
       0.73492587 0.7539576 0.70656246 0.69036573

actor.0.weight f4 [128, 31]
000000 29 5f cd bc df 38 fa 3d 21 6a 38 bf 87 e4 e6 3e
       -0.02506979 0.122178786 -0.7203694 0.45096228
000010 98 03 d9 be ac 0f 29 be 65 f9 17 3f a3 88 0a bf
       -0.42385554 -0.16509885 0.5936492 -0.5411474
000020 df 20 0e bd c6 6a e3 3e ae 59 4c 3e ac 8b 7e bf
       -0.034699317 0.444174 0.19956085 -0.9943187
000030 5f 47 b1 bd 48 7c be 3f 65 13 8e be a6 d6 94 3e
       -0.08656191 1.4881678 -0.27749172 0.29070014
000040 c0 56 0d 3e 1e f8 e4 bb 66 04 86 be e5 39 89 3d
       0.13802624 -0.0069875857 -0.2617523 0.06700496
000050 18 1b 85 3d 33 96 cc bd 1d 05 f6 bd d6 60 06 3f
       0.06499308 -0.09989586 -0.12012694 0.5249151
000060 3c 6a ac 3e f2 75 02 be 81 0a 7c 3e 1e 53 49 bc
       0.336748 -0.12740305 0.24613382 -0.012287883
000070 17 f7 17 3e 2e a7 c6 bd 72 66 c1 bd c5 ea 2b be
       0.14840351 -0.09699856 -0.09443368 -0.16788776
000080 02 f0 b5 be d7 16 0c be cb c2 95 be 25 0e ab bd
       -0.35534674 -0.13680588 -0.29250178 -0.08352307
000090 8f 78 a9 3e 4e 61 8b be a0 27 20 3f 9f 57 d4 3e
       0.3309979 -0.27222675 0.6256046 0.414731
0000a0 bb 91 46 be a2 39 a7 3e 3e e4 86 be ac b3 85 be
       -0.1939153 0.32661158 -0.2634601 -0.2611364
0000b0 98 2e 0c bf c2 16 b8 be e9 84 e1 be bb fc 33 3d
       -0.54758596 -0.35954863 -0.44046715 0.043942194
0000c0 0a 03 dd bd c4 a6 2f be d6 a1 0b bd be 7b b4 bc
       -0.10791595 -0.1715346 -0.034089886 -0.022031661
0000d0 5c 2e 67 bd 2c e2 a7 3d 3a 0f f3 3e 90 a4 eb be
       -0.056440696 0.08197436 0.47472554 -0.4602399
0000e0 26 d4 0b 3f be 8f 4e be 08 7c 9f bd 98 20 66 be
       0.5462059 -0.20172021 -0.07787329 -0.22473371
0000f0 0e ac 68 3d d5 0b 52 be a9 e7 24 bf b3 cd 07 bf
       0.05680471 -0.20512326 -0.64415985 -0.5304825
000100 5b 70 2d be 25 ff 65 3e 68 20 91 be bc 8c 65 3d
       -0.16937391 0.22460611 -0.28345037 0.056042418
000110 44 d2 9b 3f 98 10 be bf 8c 0f c8 3d 92 92 0d 3e
       1.2173543 -1.4848814 0.0976859 0.13825443
000120 77 4c 2b bf be 08 ab be 87 68 a7 bf b7 23 ce 3f
       -0.6691355 -0.33405107 -1.3078774 1.6104649
000130 fe 69 c8 be 91 39 2b 3e b5 19 08 3e 53 51 40 3e
       -0.39143366 0.16721179 0.13291056 0.18781023
000140 9c a4 8a be d2 e7 46 3d e6 c0 b5 3d 7e 52 42 3c
       -0.27078712 0.048560925 0.08874683 0.011860488
000150 c3 b7 3c bd ea f8 2f 3e ea 48 6b be e5 5f 27 bf
       -0.046073686 0.17184797 -0.22977033 -0.653807
000160 b3 9c de bd 09 41 11 3e 1c 65 41 bd fc ae 8b be
       -0.10869732 0.14184965 -0.047215566 -0.2728194
000170 e2 e9 87 3e fa 78 44 3f bc b6 25 bd 27 70 68 3e
       0.26545626 0.76747096 -0.040457472 0.22699033
000180 1c 80 83 3e 20 79 1e bd f4 dc 88 bc 5d 15 0c bf
       0.25683677 -0.038689733 -0.016706921 -0.547201
000190 5f 4f 24 be 0b bd 8c 3e 50 e5 91 bc 83 dc aa 3e
       -0.16045903 0.27487978 -0.01780954 0.33371362
0001a0 57 0a 4c 3f da 7c 95 3f c7 e3 a9 be 28 e0 ed be
       0.7970328 1.1678727 -0.33181593 -0.4646008
0001b0 bb 98 5b 3e 69 c0 c6 3d 09 a7 a5 3d 9c a6 f3 3d
       0.21444981 0.09704668 0.080885 0.118970126
0001c0 64 dd 35 3c c2 da e1 3d 90 6b 1b be a4 3b 34 3d
       0.011100147 0.11028053 -0.1517775 0.04400219
0001d0 2e 4b 71 3c e4 12 6e be 5c 65 e7 bd 98 3d e0 3d
       0.014727397 -0.23249394 -0.1129863 0.10949248
0001e0 18 11 2d 3d ae 18 67 bd f4 6d 1b 3e 8a 2d 31 be
       0.04225263 -0.05642002 0.15178663 -0.17302528
0001f0 3d e3 78 3f cd 2c 5f be e7 74 92 bf d8 6a 35 be
       0.9722174 -0.21794434 -1.1441926 -0.17716539
000200 3b a5 aa 3d b0 93 91 bc 64 9a c1 be 84 d1 98 3f
       0.083322965 -0.017770618 -0.37813103 1.1938939
000210 39 fd 98 3d 05 58 c6 3f c4 68 eb be 97 a0 38 be
       0.074701734 1.5495611 -0.45978367 -0.1803001
000220 cf a7 33 40 42 db a2 bf 2b 06 e2 bf 6a 7a 90 3e
       2.8071172 -1.2723162 -1.7658132 0.28218395
000230 6b 7a ba 3e 5e 94 af be 7e 6e 03 be 2f 29 dc bc
       0.36421522 -0.34292883 -0.12835118 -0.026875107
000240 9d 68 2c 3c f4 9f 7a 3b 04 cf ed bb a8 da 1e 3e
       0.010522989 0.0038242312 -0.007257344 0.15513098
000250 71 9b 97 be 3b f6 17 3e 7d 9b 90 3e 6d bd e1 3d
       -0.2961078 0.14840023 0.28243628 0.11022458
000260 78 ea 4f 3d 36 46 d5 bd b2 3f 3e 3e 4b f1 d3 bd
       0.050760716 -0.10413782 0.18578985 -0.10348757
000270 af af 09 3f dd 50 36 3f 99 dd 04 bf 13 07 78 be
       0.53783697 0.7121714 -0.5190063 -0.24221449
000280 44 6d 9e be d0 ba 00 3f 39 aa ab 3f af ef 93 3d
       -0.30942738 0.50285053 1.3411323 0.072234504
000290 43 33 1e be 82 b4 b3 bd d8 e0 b9 be ed 7c 31 bd
       -0.15449242 -0.087746635 -0.36304355 -0.04333203
0002a0 bc 9d 9f be 1a 91 86 3f 04 be 92 bc be 4c 93 3e
       -0.3117503 1.0513031 -0.017912872 0.28769487
0002b0 ea a7 9e bd 7a ed 52 3e 58 af a5 3d ab 1a 0c 3e
       -0.07746871 0.20598403 0.08090085 0.13682048
0002c0 63 56 0c be bd 29 f1 3c 89 36 e9 be 74 b5 1b 3e
       -0.13704829 0.029438848 -0.4554942 0.15205938
0002d0 f3 dc b1 be 15 07 81 3e 42 67 84 be 1b 41 f4 bb
       -0.34738883 0.25200716 -0.2586003 -0.0074540502
0002e0 e9 e0 c4 3d 19 c5 94 bd 74 6b 46 bf 90 ab 86 3e
       0.09613211 -0.07264156 -0.7750771 0.26302767
0002f0 ec 40 82 be ff 1f 9a bd be e0 26 3e d1 36 82 bf
       -0.25440156 -0.07525634 0.1629667 -1.0172979
000300 a1 53 b1 3f 02 63 0a 40 35 ab 97 3d b4 a1 2b 3f
       1.3853647 2.162293 0.07405702 0.67043614
000310 ee 8d 2c 3f 9b 66 e4 bf 83 1c bd be ab 32 98 3f
       0.6740407 -1.7843813 -0.36935815 1.1890463
000320 a8 0b 15 40 c2 cd 4b 3d 90 4e 8b 3e 38 4c c3 3d
       2.3288364 0.049756773 0.27208376 0.09536022
000330 d7 f5 85 3e ad 51 f0 bb 51 4e 9c 3c 01 fc 9e bc
       0.26164123 -0.0073339553 0.019080313 -0.019407274
000340 2c 94 f9 3a 22 5e 04 be 93 8e f9 3e 9b 6d a2 3d
       0.0019041351 -0.12926534 0.48741588 0.07931062
000350 82 eb 1a be 0e 9d 37 be 1b e4 8a 3c 32 b6 90 3d
       -0.15128902 -0.17931005 0.016954472 0.07066001
000360 ef 64 22 be 3c 70 2f 3e a6 fa bb 3e 45 21 b3 be
       -0.15858816 0.17132658 0.36714667 -0.3498632
000370 cb 08 02 3d 1d c9 e1 be cf ae c4 be 28 7f a1 3e
       0.031746667 -0.4409875 -0.38414618 0.31542325
000380 03 f8 16 3f 2f 7b ac 3d fa b4 25 3f 94 82 a9 bd
       0.58972186 0.08421933 0.64729273 -0.08276859
000390 95 5c 5f bf 5c 7d 11 3f 69 53 f8 3e 9a 60 6f 3e
       -0.87250644 0.5683191 0.48501137 0.23376694
0003a0 24 fb ed 3d c4 7c ea 3d fb a4 79 3e 03 19 b0 bd
       0.11620167 0.114495784 0.24379341 -0.085985206
0003b0 ab e1 8d bd d6 e7 68 3c 79 91 ae bd 04 9c aa bd
       -0.069278084 0.01421543 -0.085238405 -0.08330539
0003c0 f3 dc 41 3e 7f 82 a4 3d 0f 82 09 3d f9 7b 25 bd
       0.18931942 0.08032703 0.0335713 -0.040401433
0003d0 ac 10 c7 3d c4 cb 70 3d 1a 08 1d be c2 19 80 3e
       0.09719977 0.058788076 -0.15335122 0.25019652
0003e0 12 8d bc 3e 9d 2d ef 3e e8 60 a9 3e 7b 15 12 bf
       0.36826378 0.46714488 0.33081746 -0.57064027
0003f0 f3 bf 3d 3e 05 18 f3 3e 12 12 62 bf 18 00 14 40
       0.18530254 0.47479263 -0.88308823 2.3125057

actor.0.bias f4 [128]
000000 95 bc 22 3d bc 1b b9 be 91 99 64 be e5 bb 7d be
       0.039730627 -0.36153972 -0.22324206 -0.24778707
000010 ee 38 e9 bd b4 c4 3d be 3d 20 01 bc 1f 16 3e be
       -0.113878116 -0.18532068 -0.007881221 -0.18563126
000020 b6 c9 8b be bc cd c8 3d 5e 04 95 be 86 5f 1f be
       -0.2730233 0.09804866 -0.29104894 -0.15563783
000030 d7 70 ad be 46 c8 f0 bd 08 8b 8e be 2f 18 9d 3d
       -0.33875152 -0.11756949 -0.27840447 0.07670628
000040 0d 05 24 bd ac 34 c4 bd b0 05 4e be 78 d2 ac bd
       -0.04004388 -0.09580359 -0.20119357 -0.08438581
000050 79 32 19 3e 2e 8e 07 be 66 43 42 bd c6 56 09 bd
       0.1496066 -0.13237831 -0.047427557 -0.03353002
000060 85 0c 55 3e 97 32 7c 3c 2f 3c 7b be 1b 23 dd 3c
       0.20805557 0.015392921 -0.24534677 0.026994279
000070 af 94 08 be 08 56 56 be 1e d4 7c be e9 f8 cf be
       -0.13337968 -0.20931256 -0.24690291 -0.4061959
000080 c9 07 cd bd 64 3c e0 bc e7 d0 44 be 3f 47 3a 3d
       -0.100112505 -0.027372546 -0.19220315 0.0454781
000090 b8 8e ef 3d ad 52 3d be 75 ee 22 3e 49 0c 7b 3d
       0.11697143 -0.1848857 0.15911277 0.061291013
0000a0 f2 e3 21 3d 71 77 73 be 1b 65 9a be 12 15 51 be
       0.039524026 -0.23776032 -0.30155262 -0.20418194
0000b0 a5 fb 90 bd e6 55 9d bd 0e 2f 0a 3d cc ba 23 3d
       -0.070792474 -0.076823995 0.03373628 0.039973065
0000c0 aa 4f f1 bd 5c d0 61 be e6 e9 84 3d d1 00 02 3d
       -0.11782773 -0.22052139 0.06489925 0.03173906
0000d0 db 91 3c be d5 e5 bb 3c 69 bb e0 bc d3 3b b7 3d
       -0.18415014 0.02293674 -0.027433114 0.089469574
0000e0 aa 68 3f bd 77 92 f0 3d b0 f8 5c be c6 7e a5 3e
       -0.046730675 0.11746686 -0.21579242 0.32323283
0000f0 58 2f 61 bd 20 44 2c be 12 5f 29 be 76 c0 6c bd
       -0.05497679 -0.16822863 -0.16540173 -0.057800733
000100 a9 80 37 be cf e6 ca be 47 b0 bf bd 87 b0 51 be
       -0.17920174 -0.39629218 -0.09359794 -0.20477496
000110 3e 56 3c 3d 2d ec e5 bd d5 d0 6d be 1f a6 ea bd
       0.045980684 -0.112266876 -0.23224194 -0.11457466
000120 65 79 f7 3c b6 67 21 be f8 3b 86 be 90 f1 45 be
       0.030209253 -0.15762219 -0.26217628 -0.1933043
000130 35 f9 f9 3d 82 95 86 be 91 e6 48 be 1d f5 43 3c
       0.122057356 -0.2628594 -0.19619204 0.011960295
000140 0f b0 17 3d 8d 21 a8 be 26 7f b6 be 22 dc 71 3e
       0.037033137 -0.32838097 -0.35643882 0.2361913
000150 8a f4 08 be a2 df 6f be 3b f6 3d 3d 7c 04 39 be
       -0.13374534 -0.23425153 0.0463774 -0.18068117
000160 e6 04 d4 bd f5 9a 5d be 34 dd 63 be fc 28 f6 bd
       -0.10352497 -0.21641143 -0.22252351 -0.12019536
000170 05 a0 38 3e c0 cd 1d be d2 2b 87 bd e5 fe 05 be
       0.18029793 -0.15410519 -0.06600155 -0.13085516
000180 ef 78 86 bd d6 6c 9b 3d f2 c3 8b 3d 91 26 eb bd
       -0.06566035 0.07589118 0.06824483 -0.11481965
000190 e5 53 4d 3e 6d 80 60 3d 66 57 0b 3d 08 b7 dc be
       0.20051534 0.054809976 0.034018897 -0.43108392
0001a0 f1 c1 ac 3d c0 e5 fa bc 46 2e 9a be a5 bd 1a 3d
       0.08435429 -0.030627131 -0.3011343 0.037778515
0001b0 d6 72 5e be 40 6c a2 3d 8e 3c c2 be 1a c6 57 bc
       -0.21723494 0.07930803 -0.37936825 -0.01316979
0001c0 b6 15 43 bd 58 88 86 bd 02 e3 41 be a6 cb 1a 3c
       -0.047628127 -0.06568974 -0.18934253 0.009447968
0001d0 44 ac fe bd 4b d4 fc bd 25 20 3a be e0 29 82 be
       -0.12435201 -0.12345179 -0.18176325 -0.25422573
0001e0 f7 4e 47 3e 9d 4a f4 bd f2 28 8d bd 54 55 31 be
       0.19463716 -0.11928294 -0.06892575 -0.17317706
0001f0 3f 3c a9 bd 82 4d c5 bd ef bc 98 bd 5a 3d e7 3d
       -0.08263444 -0.09633924 -0.07457911 0.11290999

actor.2.weight f4 [128, 128]
000000 87 8a 8d bd 12 79 0e be 08 61 1b bc 87 50 dd bd
       -0.069111876 -0.13913372 -0.009483583 -0.10806375
000010 53 13 9b 3d b7 d5 29 be 3b ff 08 be ba 7b 74 3d
       0.07572045 -0.16585432 -0.13378613 0.059688307
000020 f9 44 bf bb cc 13 17 3e b2 aa 22 bd 18 6f 5e 3d
       -0.0058370796 0.14753646 -0.03971357 0.054305166
000030 76 c7 ee 3c ae 7b 26 3d f9 ef 03 3d 94 0b 49 bd
       0.029147845 0.040645294 0.032211278 -0.049083307
000040 ff 23 aa 3d bb ee db bd ca 7f 0e 3d 88 8a 1a 3d
       0.08307647 -0.107388936 0.034789838 0.03772977
000050 8e a5 45 38 37 d7 8e bb 55 78 d3 3c 1d 53 59 3d
       4.7122645e-05 -0.0043591517 0.025814215 0.05305778
000060 56 89 04 3d b3 c7 47 3d d2 ba 95 3c 83 f3 66 3c
       0.032357536 0.048774432 0.01827756 0.014096144
000070 f4 c8 ea bd d2 16 86 3c d2 ff 93 bd 77 96 1d 3d
       -0.1146411 0.016368303 -0.07226528 0.038473573
000080 11 71 51 be 36 7d bd bd 40 99 86 3d b9 59 03 be
       -0.20453288 -0.09252398 0.06572199 -0.12827195
000090 2d 81 49 bc 62 4f d7 bd 94 8f bd bd 34 52 f7 bd
       -0.012298864 -0.10513188 -0.09255901 -0.12076226
0000a0 32 84 79 3d 33 83 19 bc 4b 39 a6 3d 4c 68 0f 3d
       0.060917087 -0.009369659 0.081163965 0.035011575
0000b0 1f 02 0e 3d 48 5a e4 3c d9 39 ad bb 35 2a d9 3c
       0.03466999 0.02787508 -0.005286437 0.026509384
0000c0 5c c4 19 bc 01 de 11 bd 25 f9 8b bd 6d c4 be 3c
       -0.009385195 -0.03561211 -0.0683463 0.023287022
0000d0 d2 5a bd 3d 7f cc 80 bd 35 c6 54 3d 16 93 88 bb
       0.09245838 -0.062890045 0.051946837 -0.0041679246
0000e0 c0 e2 54 3d f5 17 15 bc d4 50 91 3d cd 01 56 bb
       0.05197406 -0.00909995 0.07095495 -0.0032654882
0000f0 d2 37 25 3d ab af cc 3d 04 de b8 bb 76 80 05 3b
       0.040336438 0.099944435 -0.0056417007 0.0020370758
000100 73 f6 4a bd 44 27 7a 3d 7c 14 4c bd c2 0b 61 bd
       -0.04955144 0.061072603 -0.049824223 -0.054942854
000110 8e 57 98 3a 2d 44 6c bd 81 36 5c bd e1 99 f9 bd
       0.0011622773 -0.057682205 -0.053762916 -0.12187553
000120 c3 2a a2 bc 2f dd 31 bd 5b 72 ca bd fb cd a2 3c
       -0.019795781 -0.043423828 -0.09885093 0.01987361
000130 b6 f5 fd bd d6 5b 5a 3b 22 90 d7 bd 7f e9 a1 3d
       -0.12400381 0.0033318899 -0.10525538 0.07905864
000140 a5 11 13 be 4f b5 d8 3d 1e 9b 76 bc dc d5 55 3d
       -0.143622 0.10581457 -0.015051631 0.052205905
000150 1f 0f 06 3e 2f 99 e8 3d 0d eb e7 3c 0e e3 61 3d
       0.13091706 0.113573425 0.028310323 0.055148177
000160 54 83 a2 3d c1 b7 7e bd e4 ed a5 bd 6f a1 ed 3c
       0.07935205 -0.06218696 -0.08102015 0.029007642
000170 4d b3 c1 bc 35 16 40 3d 4c a9 1a bd f8 37 65 3d
       -0.023645068 0.04689618 -0.03775911 0.05596158
000180 19 ba 89 bc 89 4a 91 bd 92 85 82 bd 20 97 27 bd
       -0.016812371 -0.070942946 -0.06373133 -0.04091561
000190 54 66 a6 bc 73 83 20 bd a1 db 8a 3c 24 f9 72 3b
       -0.020312466 -0.03918786 0.01695043 0.003707477
0001a0 fc 34 0d be 43 c7 12 3d 5c 68 ca bc 85 77 72 3d
       -0.13789743 0.035834562 -0.024707966 0.059196014
0001b0 99 52 86 bc e0 85 7b bd 17 81 e2 3d 5f d0 fa bd
       -0.016396808 -0.06140697 0.11059778 -0.12246775
0001c0 88 87 b4 3d 7d d2 25 3d 6c b3 91 3c a9 33 74 3d
       0.08814913 0.04048394 0.01778575 0.05961958
0001d0 1b 59 55 bd ed 67 dd bd 9a 3a 95 bc bc f7 4f bc
       -0.05208693 -0.10810838 -0.01821642 -0.012693342
0001e0 f5 34 80 3d 81 0c a6 bd e4 97 f2 bd 70 ec ba 3d
       0.06260101 -0.08107854 -0.11845377 0.09127128
0001f0 c3 b2 bb bd 62 97 6b bd 82 07 bf bd 61 3c 00 be
       -0.091649555 -0.057517417 -0.09327604 -0.12523033
000200 6e 3b 05 be 9f f0 cd bb 12 72 ec 3c 71 11 6f 3d
       -0.13010952 -0.006284788 0.028862987 0.058366243
000210 32 91 c4 3d c3 4a b0 bd 08 0e b1 bd 69 ac 94 3c
       0.09598006 -0.0860801 -0.086452544 0.018148618
000220 88 64 98 3d c1 c3 05 3d b5 e0 c4 3c 58 a2 21 bd
       0.0744105 0.03265739 0.02403293 -0.039461464
000230 5d f4 8d bd af 12 14 3c 5e fe 8f bd a6 72 98 3d
       -0.06931374 0.009037658 -0.070309386 0.074437425
000240 aa 07 9c bd 9f 6b b4 3c 86 59 44 be 3c ea 80 3d
       -0.07618649 0.022023974 -0.19174775 0.06294677
000250 75 b6 3b 3d 92 09 8e 3c 35 a2 94 bb 49 c4 35 3c
       0.0458283 0.017338548 -0.004535938 0.011094161
000260 78 6a 51 be a6 ba 80 bd b2 20 12 3c 8b 27 e9 3d
       -0.20450771 -0.062856 0.008918928 0.11384495
000270 4f d1 fb 3c 1e f1 27 be 97 76 28 be 71 c3 f5 bc
       0.030739455 -0.16400573 -0.16451488 -0.03000042
000280 e4 25 af bd 53 c8 65 bd 04 5c 15 3d c3 bd 9c bd
       -0.08552149 -0.056099247 0.036464706 -0.07653382
000290 05 c3 58 bc ce 54 e3 bd 2e 7c 41 3e 28 47 8d bd
       -0.01323009 -0.111001596 0.18895027 -0.068983376
0002a0 a8 3c 1b bd 80 5b 2c be 52 5b 0a bd d3 3b e3 3d
       -0.037899643 -0.1683178 -0.033778496 0.11095395
0002b0 0a e5 21 bd 0b c9 c1 bd 5e eb 1d 3d 2e 60 74 bc
       -0.03952507 -0.09462174 0.03855454 -0.014915509
0002c0 64 bb 72 bd 0e f1 ff 3c 8c 0e cb 3c 78 c0 cb bd
       -0.05926074 0.031242874 0.02478721 -0.0994882
0002d0 fc 88 fb bc c0 99 0d be 04 3f 8f 3c 9a 77 04 bd
       -0.030704968 -0.13828182 0.017486103 -0.032340623
0002e0 79 00 7b bd 1a 48 38 3d 2d 0c dc bc 31 a6 a9 bd
       -0.061279748 0.044990636 -0.026861275 -0.082836516
0002f0 0e 0d a3 bc e5 92 19 bb a5 74 20 3d 5e 56 4e be
       -0.019903686 -0.0023433503 0.03917374 -0.20150134
000300 25 db 63 bd 15 37 4e bd ec b3 b2 3d 66 cc 9f bc
       -0.055628914 -0.0503455 0.087257236 -0.019506644
000310 b7 24 74 bd f6 02 42 bd 8c 4f 28 bd 81 24 a6 bd
       -0.059605327 -0.047366105 -0.041091487 -0.08112431
000320 cf 7b 32 bc ee db 67 bd 5e 24 0f 3c b3 aa 85 3c
       -0.010893776 -0.056606226 0.008736698 0.016316747
000330 44 ce 22 bd 3b 6d 81 bb 28 a0 cd 3c c7 8b 49 bd
       -0.03974749 -0.003949789 0.025100783 -0.049205568
000340 11 49 c8 bd ed 99 d9 bd 44 bf 34 bd 78 95 08 3d
       -0.09779561 -0.10625062 -0.044127718 0.03334567
000350 2d f5 b8 3b fb d6 ac bc 93 16 43 bc 94 8c 7b bd
       0.0056444616 -0.021098604 -0.011907238 -0.061413363
000360 33 2f 30 3b 55 05 ab bd c3 73 d4 bc d8 1c 2e 3c
       0.0026883602 -0.083506264 -0.025934106 0.010626994
000370 c5 e6 85 3b 72 0f 1d bd 34 7c 61 3c 2e f5 25 3a
       0.0040863478 -0.038344808 0.0137625225 0.0006330785
000380 af 28 08 be 31 4d 89 bd af 35 05 bc bf ec a3 3d
       -0.1329677 -0.06704176 -0.008130475 0.0800414
000390 d9 96 18 3d 7f 12 6a bd 19 b9 90 be d7 7f 98 bd
       0.037253235 -0.057146545 -0.28266218 -0.074462585
0003a0 46 b4 02 bd ee 08 6d 3c 11 5c 8a bd 75 d7 28 3d
       -0.031910203 0.014467461 -0.067558415 0.0412211
0003b0 7d a4 97 bd 6f a5 82 3d 22 2d 19 be 0f eb ec bd
       -0.074044205 0.0637921 -0.14958623 -0.11568271
0003c0 8d ca 80 3d 92 d8 95 3d 63 44 db 3d 0f e5 1c be
       0.062886335 0.07316698 0.10706403 -0.15321754
0003d0 99 15 6c 3b 9d 89 18 3d 72 b4 05 3d 76 2e 4d 3c
       0.0036023615 0.037240613 0.03264279 0.012523284
0003e0 a4 98 29 3d 5b 78 7e bd 71 5a c3 3d 74 8d 6a bd
       0.041405335 -0.0621265 0.09538735 -0.057263806
0003f0 13 8e 62 be d2 3e d1 3d c8 80 90 bc e0 81 3d 3c
       -0.2212451 0.1021706 -0.017639533 0.011566609

actor.2.bias f4 [128]
000000 a3 5b 43 bd 63 fb 8d bd ec 59 bb bd 37 d1 f2 3c
       -0.047694813 -0.06932714 -0.091480106 0.029640777
000010 c0 7c 8d bd e1 33 89 bd b9 e4 8a 3c d8 6a 12 bd
       -0.0690856 -0.06699348 0.016954767 -0.035746425
000020 74 3c 00 be 05 5e b4 bd 62 09 66 bd 78 32 8d bd
       -0.12523061 -0.08806995 -0.056161292 -0.06894392
000030 d9 8d d6 3c 8d 9b e7 bb 1d 1f 12 bc 7e 7d 88 bc
       0.026190685 -0.0070681036 -0.008918551 -0.016661402
000040 92 0c 11 bd 52 b0 de 3d 6e 8e 34 3d 9a 2b 0a bd
       -0.03541238 0.10873474 0.044081144 -0.033732988
000050 81 42 21 be 54 75 1a be 04 54 12 be fc fd 8c 3c
       -0.15748025 -0.1508382 -0.14289862 0.017210953
000060 35 6c 08 bc f7 82 9b bd ed d1 14 be 03 bf f3 bd
       -0.00832658 -0.07593339 -0.14533205 -0.11901667
000070 21 51 da 3c db a4 de bd 2c 29 bd bd 93 bc 96 3d
       0.026650013 -0.108712874 -0.092363685 0.073601864
000080 1f db 06 be 46 f9 4e 3c 82 db fc bd 56 33 ed 3c
       -0.13169526 0.012632674 -0.12346555 0.028955143
000090 75 f2 f4 bd f3 da 62 bc e2 2a f9 bd 1e ba b5 bd
       -0.119603075 -0.013846147 -0.12166382 -0.0887339
0000a0 8d 3a c8 bc 5a 2a f3 bd 2d 00 bb bc 25 77 6b 3d
       -0.024441982 -0.11873312 -0.022827232 0.057486672
0000b0 bc 97 77 3d f3 3a 91 bd 8e 2f ae bc 10 00 b9 bd
       0.06044744 -0.07091322 -0.02126291 -0.09033215
0000c0 35 74 7e be 18 65 c6 bd 8b 85 52 3d fd 02 29 be
       -0.24849017 -0.09687251 0.051396888 -0.16505046
0000d0 89 48 90 bd ac e6 88 3b fa 71 71 3d 7a 8f 09 be
       -0.07045085 0.004177889 0.058946587 -0.13433638
0000e0 63 68 37 bc 5c 26 ba bd fb 8c bc bd 64 f8 0e be
       -0.011194321 -0.09089348 -0.092065774 -0.13961941
0000f0 67 b1 2a be 94 12 0a 3e 1d 5f 7d bc 38 b2 02 be
       -0.16669236 0.1348365 -0.015464571 -0.12763298
000100 7d c0 00 be c5 d8 d7 bd 6a 05 83 3d ed 01 8a 3c
       -0.12573428 -0.105393924 0.06397517 0.016846621
000110 71 a3 68 3a f2 5e 0d be b7 f6 f6 bd b5 66 74 be
       0.00088744523 -0.1380575 -0.12058776 -0.23867305
000120 80 59 b0 bc c0 19 41 bd d4 e9 e4 3c e5 90 a8 bd
       -0.021527052 -0.047143698 0.02794353 -0.082307614
000130 5e ab 54 bc 65 23 a2 bd 76 a5 0f bd 7b 74 db bd
       -0.01298031 -0.07916907 -0.035069905 -0.10715576
000140 ab 10 43 be 1a da c0 bc da c5 48 bd 06 0e 2d bd
       -0.19049327 -0.023541499 -0.04901681 -0.042249702
000150 e5 88 89 3d ac cb 3d 3d 8f b2 08 bd 2f d4 12 be
       0.06715564 0.046336815 -0.03337341 -0.14338754
000160 62 b3 ef bd 07 7c f8 bd 16 bc 41 3d e5 52 00 3c
       -0.117041364 -0.12133031 0.047298513 0.007832264
000170 60 99 c3 bd b4 31 8c be 16 0a 2d bd c4 87 dc bc
       -0.09550738 -0.2738167 -0.042245947 -0.026920207
000180 51 30 8e 3b 70 90 0f bd 26 16 04 3e fd 57 4e 38
       0.004339256 -0.035049856 0.12899074 4.9196173e-05
000190 03 8a 84 bd ea b9 3c be 58 48 b9 bd c0 93 86 bd
       -0.06471636 -0.18430296 -0.090470016 -0.0657115
0001a0 8d 97 9d bd ae 9c d4 bd 23 84 20 be c7 30 b0 3d
       -0.07694922 -0.10381447 -0.15675406 0.086030535
0001b0 4f f6 f1 bd bf 8c 30 bd b9 b4 80 bc b6 94 8c bd
       -0.11814558 -0.043102976 -0.015711175 -0.06864302
0001c0 70 93 86 bd 75 e9 66 3d ea eb 4a bc 41 bb bf bd
       -0.0657109 0.056374986 -0.012385348 -0.09361888
0001d0 f8 5a 7e 3d 3d 2b c2 3d 76 e8 4c be d6 14 5b bd
       0.062098473 0.09480903 -0.20010552 -0.053486668
0001e0 a1 5c a5 bd 6e a3 99 3d 40 14 bd bd 4d 29 0f 3d
       -0.08074308 0.07501875 -0.09232378 0.034951497
0001f0 90 87 22 be bd 74 0c 3d 9e 7f 08 be 93 ff 8b bd
       -0.15872025 0.034291018 -0.13329932 -0.06835856

actor.4.weight f4 [128, 128]
000000 73 69 81 bd e3 82 5d b6 3b 57 06 3d 48 cd 87 3d
       -0.06318941 -3.3007752e-06 0.032798033 0.06630951
000010 69 50 8c 3c 4d 70 4c 3d a5 0c 25 3d fb 86 20 3e
       0.017128186 0.049911786 0.040295262 0.15676491
000020 9e d8 59 bd 9a b6 d3 bd 88 bf 3c bd b8 ef 84 3b
       -0.053185098 -0.10337563 -0.046081096 0.004056897
000030 0e a3 05 3e c4 9b d3 bb a5 2d ed bd 59 0c 11 bd
       0.13050482 -0.0064577777 -0.11580972 -0.035412166
000040 df 32 13 3c 7e 9a 2b be a8 50 8e bd 69 64 7c bd
       0.008984297 -0.16758153 -0.06948978 -0.061619196
000050 ce 3b 0f bc f5 52 64 3b 50 a2 b5 bc 26 67 c6 bc
       -0.008742286 0.0034839485 -0.022172123 -0.024219107
000060 0d 54 ce bd d1 e7 c9 3d c9 2f 49 3d f4 48 c3 3d
       -0.10074625 0.098586686 0.049117837 0.09535399
000070 27 06 ef bc 48 b8 5a 3d cd 19 9a 3d 7f bd 28 bd
       -0.029177738 0.0533984 0.07524452 -0.041196343
000080 63 0d 88 bd d7 b6 8e bd 08 fa c9 3d 2d f7 32 bd
       -0.06643178 -0.06968468 0.09862143 -0.043692756
000090 ee 56 0b bd c3 da cb bc b8 52 20 3d e3 c6 56 3c
       -0.03401845 -0.024884587 0.039141387 0.013108942
0000a0 04 40 ca 3d 25 ea 01 be 3d 8c ee 3d 01 03 95 bd
       0.09875491 -0.12686975 0.11647842 -0.072759636
0000b0 17 e8 24 bd ab 98 01 3d 6f e9 03 be 5c 16 7b 3d
       -0.0402604 0.031639736 -0.12882017 0.06130062
0000c0 2d 43 2c 3d 5f 0e 29 be 4e 5d ae bd b8 26 7e 3d
       0.04205625 -0.16509388 -0.0851389 0.062048644
0000d0 fb 6d c9 bd b4 b6 b7 bc 3e 29 d8 3c c9 2d 83 3d
       -0.0983543 -0.022425987 0.026386853 0.06405217
0000e0 b0 e3 cc 3d 39 87 c8 bd 8f 07 11 3d 95 d4 5c bd
       0.100043654 -0.09791417 0.0354076 -0.05391367
0000f0 73 26 85 3d 1f d9 8f 3d 24 09 c6 3d 95 a2 3e ba
       0.06501474 0.070238344 0.09669712 -0.00072721514
000100 f8 5f 82 bd b2 7a ac 3d 27 13 9f 3d 93 84 26 3c
       -0.06365961 0.0842184 0.07767325 0.010163444
000110 f0 cd 19 bc ad 1b d4 3d 95 4a 1a 3c e8 72 04 3d
       -0.009387478 0.10356841 0.009417196 0.032336146
000120 00 47 be bb 63 30 0b be 66 a9 4a 3d 1c bf d2 3c
       -0.0058068037 -0.13592677 0.049477957 0.025725894
000130 f5 71 b0 3d 57 b1 54 3d d8 90 35 bd c0 2e 8d 3d
       0.086154856 0.051926937 -0.044327587 0.068936825
000140 e1 c5 7c 3c ba 42 18 bd 13 e4 b7 bd ac 21 80 3d
       0.015428037 -0.03717301 -0.089790486 0.062564224
000150 a6 ec 29 bd 69 9e bf bd b3 c7 7f 3d 18 71 ba 3d
       -0.04148545 -0.09356386 0.062446307 0.09103602
000160 5b c5 20 3e f6 55 5e 3d 2c b3 8c 3d 1a 45 a7 bd
       0.15700285 0.054281197 0.06870112 -0.08167477
000170 50 dc ad 3b 9c 1d 0a 3d c6 2c ec bc f1 05 6c bd
       0.0053058043 0.033719644 -0.028829943 -0.057622854
000180 cf 6d a4 bd 45 b6 8e 3d 03 0a 4a bd 3b a5 d1 3d
       -0.08028757 0.06968359 -0.049325954 0.10236593
000190 5e c6 cd bd 00 ac e1 3c ec 0c 94 3c 58 4a ce 3c
       -0.10047601 0.027547836 0.018072568 0.025181934
0001a0 ea 54 79 bd 7a f5 d0 3c b8 5b 4c 3d 4a ae 8c 3c
       -0.060871996 0.025507677 0.049892157 0.017172951
0001b0 5d 3c a0 bd ce c8 b1 bb fe 0a b8 3d a9 3b 87 3c
       -0.078240134 -0.005425549 0.089864716 0.01650794
0001c0 cf d0 da bc 77 34 c6 bd a0 3e 90 bd a0 c0 be 3c
       -0.026710896 -0.096779756 -0.07043195 0.02328521
0001d0 49 c4 d9 3d cd 74 7e 3d 9c ac ce 3c 41 64 28 bd
       0.106331415 0.06212311 0.025228791 -0.041111235
0001e0 93 01 cb 3b 49 bb 28 be bd 23 32 bd e8 d3 05 bd
       0.006195256 -0.16477694 -0.043491114 -0.032672793
0001f0 bd fb 39 bc 16 ef 67 bd de f7 c1 3c e6 eb 12 bd
       -0.011351523 -0.056624494 0.023677763 -0.0358695
000200 bb b3 87 bd cb 30 e9 3d 8f b8 35 3d 1d 51 ac bd
       -0.06626078 0.1138626 0.044365462 -0.08413909
000210 e4 12 7d 3d b1 74 8e 3d cc 19 21 3c e1 40 f0 3c
       0.061785594 0.06955851 0.009832811 0.029327812
000220 38 ad fe bb 41 1b db 3c 2c 4a a9 bd 5f f4 3e 3c
       -0.007772114 0.026746394 -0.082661 0.011654942
000230 34 62 26 3d 99 5e 2a 3d 53 dc 95 3d 5e ce 11 bd
       0.040620998 0.04159412 0.07317414 -0.035597198
000240 86 59 75 bd fa 51 5d 3d 3e 44 1b bd 68 fc 9c 3c
       -0.05989983 0.054033257 -0.037906878 0.019163325
000250 f3 c0 11 be 02 57 bb ba e3 3b 3c bd 7f 5a 7c bc
       -0.1423376 -0.0014292898 -0.04595555 -0.015402435
000260 86 c7 a3 bd 03 46 bf bc 04 19 65 3a f0 b6 80 bd
       -0.079970405 -0.023348814 0.00087393844 -0.062848926
000270 b7 c4 88 3d ad c7 83 bc e8 6a d5 3d 74 3d 53 bb
       0.066781454 -0.016086424 0.104207814 -0.0032232674
000280 b7 60 1e 3d 6e 80 e3 bc 56 85 f2 3d 44 1a 69 3d
       0.038666453 -0.027771201 0.11841838 0.056909814
000290 6e 63 c6 b9 bd 61 ce 3d 48 7f b0 b9 b1 de 62 bd
       -0.00037839584 0.10077236 -0.00033664168 -0.055388156
0002a0 db 45 85 bc 5f 2f 1d bd c0 4f d9 3b 57 a9 0c 3c
       -0.016268661 -0.038375255 0.0066318214 0.008585296
0002b0 7c af 6c bd 00 7b 09 bd ed d3 c7 bd 94 fd 8f bd
       -0.057784542 -0.033564568 -0.097572185 -0.07030788
0002c0 b9 bf 3c 3e 65 13 96 bd c8 ef e4 3d 9f 96 71 3d
       0.18432511 -0.07327918 0.11178547 0.058981534
0002d0 f4 ac 04 be cf dd a5 bd 7b 5c e3 3c a0 76 25 bd
       -0.12956601 -0.08098947 0.027754059 -0.040396333
0002e0 5a 62 56 3d 82 29 e9 bd bf 76 23 3d 08 b5 58 3d
       0.05233989 -0.1138487 0.039908167 0.05290702
0002f0 4e 04 87 3d 0f 49 a1 bd 89 a9 b5 3d 9d bf 14 3e
       0.06592618 -0.07875263 0.08870227 0.1452622
000300 57 4f 1e 3d 45 cf b2 bd 77 c4 82 3c db bb 6b bb
       0.038649883 -0.0873094 0.015962822 -0.0035970125
000310 4a 02 00 be 18 aa d3 3c 6f ce 8c bd cd 06 68 3d
       -0.12500873 0.025837943 -0.068753116 0.05664711
000320 b4 3a 1a 3d 53 59 26 bd 87 57 15 3c 51 d8 7a 3d
       0.03765364 -0.04061253 0.009115106 0.06124145
000330 d0 4a ad 3d 93 83 29 3d 44 49 16 be 71 19 49 bd
       0.08461535 0.041385245 -0.14676386 -0.04909653
000340 2f d5 bd 3c a7 10 26 3c 2b 55 02 3d 93 8a 02 3c
       0.023172943 0.010135806 0.031819504 0.007967609
000350 b7 73 98 bd 39 b6 49 3d f6 9e 49 3d e5 21 11 bd
       -0.07443946 0.049246047 0.049223863 -0.035432715
000360 3c 8d 86 3d a1 d1 06 bc 7e 13 db 3c dc 7b 54 3d
       0.06569907 -0.00822869 0.026742693 0.051875934
000370 4a 54 05 be 10 9d 11 3d a0 9a 78 3d 96 d0 1f bd
       -0.13020435 0.035550177 0.060694337 -0.039017282
000380 bd 89 09 3d dc c6 a3 3c 6b 06 92 bc 42 aa f9 3c
       0.033578623 0.019992284 -0.017825326 0.030476693
000390 ea 28 92 bd 73 bd 7a 3d cb f7 1f 3e 31 eb e2 3c
       -0.0713671 0.06121583 0.1562187 0.027700039
0003a0 49 fc d9 bc 1c 93 03 3e 76 46 be 3d eb cc 2c 3d
       -0.026609557 0.12849087 0.09290783 0.042187613
0003b0 0e e0 a1 bc 64 e8 06 3c 3e 85 9a bc 9f 12 73 bd
       -0.019760158 0.008234117 -0.018862363 -0.05934393
0003c0 ee 8a 91 bd 94 1f e3 bd 5a fd 3b 3d 28 67 b4 bd
       -0.07106577 -0.110900074 0.04589591 -0.08808738
0003d0 a9 61 33 bc 78 d9 f1 bc 07 01 cb bd c2 65 d4 3c
       -0.010948577 -0.029522642 -0.09912305 0.025927428
0003e0 67 14 2c 3d 17 cc 9b bd bd 8f 24 bc d0 90 90 bc
       0.042011645 -0.076072864 -0.0100440355 -0.017647177
0003f0 9b 1f 93 bd fd f9 db 3d 82 e9 a8 bd 9e c9 dc 3c
       -0.07183763 0.10741041 -0.08247663 0.026951607

actor.4.bias f4 [128]
000000 82 c9 5f bd 4d cc 55 bd f2 6c 59 3d 14 02 18 bd
       -0.054635532 -0.05219679 0.053082414 -0.037111357
000010 90 3c 17 bd 76 0b 94 3d 66 d9 8a bd c9 ac 21 bd
       -0.03692299 0.072287485 -0.06779747 -0.03947142
000020 a5 ca 11 3c bc f7 94 bd 3a 3b 73 bd f1 d3 91 bd
       0.008898412 -0.07273814 -0.059382655 -0.07120503
000030 f1 a7 cf bd e8 a8 6b bd 56 4d 6f 3d 03 75 42 ba
       -0.10139454 -0.05753413 0.058423363 -0.0007417949
000040 43 97 84 3d 21 86 f6 3c 62 fc a2 bd b1 e9 bf bd
       0.064741634 0.030093255 -0.079582945 -0.09370745
000050 d5 3a 8e bd 10 25 0b 3c 7e 66 bf bc e6 c8 23 3d
       -0.06944815 0.008492723 -0.023364302 0.039986514
000060 26 27 d5 3c c1 48 3f bd e2 a0 8f bc aa b4 53 bb
       0.026019644 -0.046700243 -0.01753277 -0.003230373
000070 c9 30 6b bd 89 b6 a0 3d 3a 59 d5 3b b5 03 7f 3c
       -0.057419572 0.07847316 0.006510881 0.015564849
000080 7a ee 26 bd d5 14 c1 3c 64 14 99 bb d2 1c a5 bc
       -0.040754773 0.023569504 -0.00467162 -0.020155344
000090 98 38 15 3d f6 43 9f bc 0c 33 83 bd 9a 61 3e bc
       0.036430925 -0.019441586 -0.06406221 -0.01161995
0000a0 e1 de 03 be 7d d0 c4 bd d6 bf 1a bd 47 e6 c9 bd
       -0.1287799 -0.096100785 -0.037780605 -0.09858375
0000b0 93 e8 97 bd 99 e8 7a bd 66 22 f9 3c db b2 01 be
       -0.07417407 -0.06125698 0.03041191 -0.12665884
0000c0 69 cc ed bc 08 00 29 3d 38 e6 90 bd 78 29 8c 3d
       -0.029028134 0.041259795 -0.07075161 0.06843847
0000d0 23 d5 b9 3b 8b 6b 5b bd a3 5f 37 bb 95 d3 f0 ba
       0.00567116 -0.053569358 -0.0027980588 -0.0018373603
0000e0 69 26 33 bd f0 e6 91 bd f3 8c 99 bb b2 f3 65 bd
       -0.043737803 -0.07124126 -0.004685992 -0.05614061
0000f0 21 e2 38 bb 74 d0 b5 3b 08 1e 8c bd 23 1c d5 bd
       -0.0028210955 0.005548531 -0.068416655 -0.10405757
000100 5b ea 34 bc f2 3c bb bc f4 69 a8 bc 90 cd 9f 3d
       -0.011042203 -0.02285621 -0.020558335 0.0780288
000110 fd ec c4 3d ce 38 17 3d 2a 1d 8d bd 95 67 4b bc
       0.096155144 0.036919408 -0.06890328 -0.012414833
000120 63 35 50 bb 65 dc 8b 3d 07 1c b3 bc cb b6 bc bd
       -0.0031770102 0.06829146 -0.02186395 -0.092145525
000130 b3 6d f1 bc 84 62 8f bd 85 e2 06 3d 3d d6 95 bd
       -0.029471254 -0.07001212 0.03293087 -0.07316253
000140 fd 21 f5 bd 12 83 5e bd 72 7f db 3c c6 f0 70 3c
       -0.119693734 -0.054324217 0.02679417 0.014705842
000150 03 1c 92 bc 25 29 0f 3c 0f 4d 93 3a 35 1e 72 3d
       -0.017835623 0.008737837 0.0011238175 0.05911084
000160 b3 fc 86 bc 78 bc f1 bd c5 b0 87 3d 38 6c df 3c
       -0.016477918 -0.11803526 0.06625513 0.027273282
000170 02 02 72 bd 3f cf 0b be fb fb be bd 3b b6 78 bd
       -0.059083946 -0.13653277 -0.09325405 -0.060720664
000180 f7 d9 24 bd f6 7d 97 bd 76 98 86 bd a2 8b 39 3d
       -0.04024693 -0.07397072 -0.06572048 0.04529918
000190 c6 6b 42 bd 3b 5e fc bd 7f 12 7d be f5 29 0f 3b
       -0.047466062 -0.123226605 -0.24714087 0.0021845077
0001a0 1c a4 bf bd 99 0e b0 bb 2f 5a b7 bd 1e e9 1b 3d
       -0.09357473 -0.005372834 -0.08952748 0.038064115
0001b0 96 a9 81 3d 32 e4 9e bd 36 f8 03 3d ca ea 21 be
       0.06331174 -0.077583686 0.032219134 -0.15812221
0001c0 13 51 10 bd ca 41 07 be 3f e0 37 3d 36 22 a1 3d
       -0.03523357 -0.1320869 0.044891592 0.07867853
0001d0 49 ce 00 be fa 49 13 be d2 02 b1 bd e6 ec f4 bc
       -0.12578692 -0.14383689 -0.08643116 -0.029898118
0001e0 2c 12 84 3d 14 95 81 3d a5 da b1 3d d8 ef 1c 3d
       0.064487785 0.063272625 0.08684281 0.03831467
0001f0 29 4f 18 3d e5 35 42 bd 53 17 97 bd 24 6b 27 3b
       0.037184868 -0.04741468 -0.073774956 0.0025546039

actor.6.weight f4 [8, 128]
000000 20 52 be 3c e8 ec 98 3c 4f 2a a7 3c b2 56 57 3d
       0.02323252 0.018667653 0.020405916 0.052572913
000010 61 a1 14 b9 57 2f 52 bb 1f 35 b0 3c a4 58 d2 3b
       -0.00014174498 -0.0032071674 0.021509705 0.006419258
000020 7d 69 57 bc d1 13 36 bc 87 4f 84 3a 90 98 12 3d
       -0.013147709 -0.011113123 0.0010094502 0.035790026
000030 c6 56 17 bb 32 74 96 3c ff 3a 9c bb df 66 d3 bc
       -0.0023092492 0.018365953 -0.004767775 -0.025805889
000040 5f 1b 10 bc cd fd 4e bc 55 47 32 bb 7e b6 59 bc
       -0.008795588 -0.012633753 -0.0027203162 -0.013288138
000050 69 ea 3b bb c1 14 a4 3c 3d 45 b8 bb 77 18 18 3c
       -0.0028673655 0.020029427 -0.005623488 0.009283177
000060 d7 b4 a1 3c dd cf 77 bd 57 15 1c 3b 8f c3 9e bc
       0.019739551 -0.06050097 0.002381643 -0.019380359
000070 52 c5 8c bc 7d dd fb 3b 76 ca ab 3c d1 4f 3e bd
       -0.017183933 0.0076863156 0.020970564 -0.046462838
000080 47 21 42 bb 6f f7 1c 3c 02 84 10 3c cf 63 f4 bc
       -0.0029621886 0.009580477 0.008820536 -0.029832749
000090 d9 28 9d bc b5 28 3a 3d 54 24 bb bc d4 e4 ea bc
       -0.019184517 0.045448978 -0.022844471 -0.028673567
0000a0 1e a4 2a 3c 42 52 46 3c 2c 53 04 bd f5 73 17 3a
       0.010415105 0.012104573 -0.03230588 0.0005777472
0000b0 a5 50 84 bc 3a 9e 50 bc cf b1 c8 3c c4 0e 07 bc
       -0.016151736 -0.012733037 0.024498848 -0.0082432665
0000c0 8f bd 1e 3d 98 d6 6a bb d8 f5 3f 3c f6 93 03 bc
       0.038754996 -0.0035833474 0.011716329 -0.008030882
0000d0 94 0f 25 3d f6 6d ad bc 14 a8 4c 3c 2c 96 57 bc
       0.04029806 -0.021170598 0.012491245 -0.013158362
0000e0 4c a4 b5 bb 21 89 83 3b 19 d9 6d bb 32 6f d8 3c
       -0.0055432674 0.00401415 -0.003629273 0.02642021
0000f0 08 fb ed bc c7 e4 fc 3b 46 c9 0d 3d 6b 7b 0d bd
       -0.029050365 0.007717702 0.034615777 -0.03454153
000100 c7 e5 9e bb 9c 48 c6 3a e4 52 e0 bc 29 0e 88 bb
       -0.004849169 0.001512784 -0.027383275 -0.0041520786
000110 01 d5 44 bc ab d0 06 3c 8b fd 01 bd 52 46 ba bc
       -0.012013675 0.008228461 -0.031735938 -0.02273861
000120 98 dc b7 3b 2c 21 40 bb ff 7b 6a 3c 13 e3 55 bc
       0.0056110136 -0.0029316647 0.01431179 -0.013054627
000130 ed b5 25 3c 47 68 06 3c 9c 44 a3 bc 9c bf 72 3b
       0.010114175 0.008203573 -0.019930176 0.0037040478
000140 3b 7e 87 bb 73 ab d0 3c 86 8b d1 3a 31 8c 85 3c
       -0.004134921 0.025472378 0.0015987016 0.0163022
000150 6f ac 1f bd 87 18 8e 3c 2f 8d 55 3c af 3c 69 3b
       -0.038982805 0.01734568 0.013034149 0.0035589149
000160 0f 3f 74 bc 12 da b4 3c c9 96 9d 3c 2d 95 52 3c
       -0.014907612 0.02207664 0.019236939 0.012852949
000170 53 a1 cb bd 51 be fa bc 47 57 25 3c 3c 41 8a 3c
       -0.099428795 -0.030608328 0.010091609 0.01687681
000180 f9 4e a6 bb 70 a4 9a 3c 3a ac 09 3c 81 74 06 3c
       -0.0050753322 0.018877238 0.008402878 0.008206488
000190 1a f9 9c bc 0d f4 05 3d 9b 6e c4 3c e3 33 26 bd
       -0.01916175 0.032703448 0.023978522 -0.040576827
0001a0 06 fc 4e bc 38 d4 ee 3b c4 38 06 bc 51 f1 16 bd
       -0.012633329 0.007288482 -0.008192245 -0.03685123
0001b0 e7 81 9b 3b 4d 06 35 bc 67 34 37 bd 9b 92 84 3c
       0.00474571 -0.0110488655 -0.04472771 0.016183188
0001c0 b3 f7 02 3d 6c 72 3b 3d a4 8a 8b 3c bc 1d 80 3b
       0.031974506 0.045763418 0.017033882 0.0039097946
0001d0 30 09 3f 3d 71 75 4a 3d 66 f7 86 bc d0 6c 16 3d
       0.04663962 0.049428407 -0.01647539 0.036724865
0001e0 d1 b9 a2 bc 5f c4 be 3c e4 78 9d bc 52 1b 01 bd
       -0.019863995 0.023286996 -0.019222684 -0.031520195
0001f0 e8 6f 23 3b c8 26 e3 bc 0c 42 15 3d 24 a1 bd bc
       0.0024938527 -0.027728453 0.03643994 -0.023148127
000200 26 63 bf 3c 1a a3 99 bc e5 e7 aa 3c c9 d3 dc 3c
       0.023362707 -0.01875453 0.020862529 0.026956456
000210 07 a5 3d bc dc 19 40 bb bf d9 12 3d 2b c0 46 3c
       -0.01157499 -0.0029312288 0.03585219 0.012130777
000220 93 48 9d 3c ca 6f 1e 3c 7d d3 34 bc 5d 9d 3d bc
       0.019199645 0.009670207 -0.011036751 -0.011573163
000230 a1 95 31 b9 d2 a0 29 3c 92 7d 02 3c fc f1 db 3c
       -0.00016935777 0.010353284 0.007964509 0.026848786
000240 14 d8 85 bb d6 c4 58 3b e9 44 61 bc fb 81 b8 bc
       -0.0040845964 0.0033076308 -0.01374934 -0.022522917
000250 a4 20 02 bc a5 39 3d bd 69 db 17 bc 7f d4 39 bc
       -0.007942352 -0.046197552 -0.00926862 -0.011342167
000260 13 9d 08 bd a2 c4 3b bc 44 c9 30 3c fe ce 05 3c
       -0.033352923 -0.011460455 0.010790173 0.008167027
000270 ff d1 11 bd 8a db 8f 3b 12 29 30 3a 5b 46 88 3d
       -0.03560066 0.004390185 0.0006719987 0.06654044
000280 c6 55 d8 bc 59 1a 24 bc ef c1 ec bb 8f 70 21 bc
       -0.026408087 -0.010016047 -0.007225267 -0.009853496
000290 27 80 1d bc 6a 8b 7d bd 8d 64 7c bc c2 2d 02 bd
       -0.009613073 -0.061900534 -0.015404833 -0.03178192
0002a0 f9 d9 bc bc 6d e1 d8 bc 28 14 03 3d 92 60 a6 3c
       -0.023053156 -0.026474679 0.032001644 0.02030972
0002b0 1f e0 6d bc 1d bd 42 bb 52 9f 44 3c 62 b8 b6 bc
       -0.014518767 -0.002971477 0.012000876 -0.022304717
0002c0 db 17 cc 3a bd 29 65 39 fb 3d 04 3c 88 cb b3 3b
       0.0015571074 0.0002185469 0.008071418 0.0054869093
0002d0 9d 64 78 3c 5d cf ef 3c b9 86 94 3d ac 59 a7 bc
       0.015160707 0.029273683 0.07252259 -0.020428501
0002e0 3c ce ce 39 d4 9f ec bc a2 bd ea bb 40 d9 fc bb
       0.00039445038 -0.028884806 -0.0071637193 -0.007716328
0002f0 48 e7 2b 3b 6f 61 10 bc 38 9d c7 3c f0 b5 e9 bc
       0.0026230384 -0.0088122925 0.02436696 -0.028529137
000300 2c d7 4f 3c b7 3a 07 3c 3a 30 91 bb 62 d7 08 3c
       0.012685578 0.008253745 -0.004430798 0.0083521325
000310 16 b1 10 bc fc bf c5 3c f7 ff ca bb 50 3e 32 3c
       -0.008831283 0.024139397 -0.006195064 0.010879114
000320 76 79 1e bc ff f6 0b bc 42 e9 6f 3c 97 3b fb 3b
       -0.009672513 -0.008542775 0.014643015 0.007667016
000330 4e 6d 0a 3c a6 92 0d 3d f9 62 0b ba 25 4d c8 ba
       0.008448912 0.034563683 -0.0005317177 -0.001528178
000340 6e 6c 93 3c af 7e f8 bb 3a ac 47 3a 71 e9 32 3c
       0.01799604 -0.0075834612 0.00076169113 0.010919915
000350 fb 7c 79 bd 8c 70 b4 bb 0f e4 12 bd 84 e4 d3 ba
       -0.060910206 -0.0055065807 -0.035862025 -0.0016166125
000360 65 5e d9 bc a5 0e eb bb fd 93 4e 3c 10 2e dd ba
       -0.026534269 -0.0071733766 0.012608525 -0.001687469
000370 0e b3 07 3d b6 c8 24 3d ba 17 02 bd ed e3 36 bc
       0.033129744 0.040230475 -0.03176091 -0.01116274
000380 9c 7d 7c bb 06 2d 96 3c af 4e 73 3d 85 ff 10 3d
       -0.0038527017 0.018332016 0.05940121 0.035399932
000390 31 39 a6 3b 37 fe d9 ba 66 ed 87 3a 31 3d 09 bd
       0.0050727357 -0.0016631548 0.0010370433 -0.033505622
0003a0 15 23 31 3c 2a ec 90 bc c4 09 12 bc e9 47 15 3b
       0.010811587 -0.017690737 -0.008913461 0.0022778457
0003b0 da 1e f3 3b ea 59 d0 ba 8d 70 66 3c db f7 92 3b
       0.0074194493 -0.0015895937 0.01406492 0.004485113
0003c0 b8 b9 d1 3a 1d df fa bc f3 9f a6 bc ed ca 7f bc
       0.0016000783 -0.030623967 -0.020339942 -0.015612346
0003d0 88 34 0d bc dd d3 14 bc e1 7f 72 3c d8 f8 ea bc
       -0.008618481 -0.009083715 0.0148009965 -0.028683111
0003e0 0b 4a 4e 3d 12 af 9d bb ab c9 98 b8 48 37 0b bc
       0.05036358 -0.00481213 -7.2854884e-05 -0.008497067
0003f0 ef bc 98 3c 49 d4 6f 3c 85 e3 7c 3d 0d cd 22 3c
       0.018644778 0.014638015 0.061740417 0.009936583

actor.6.bias f4 [8]
000000 e3 9b 15 3d fd b4 5c bc fa 7a b1 bb 5b 9e f6 3c
       0.03652562 -0.013470885 -0.0054162713 0.030104807
000010 81 13 5c 3d 6e 02 37 bd 38 70 85 3d 06 44 c9 3b
       0.053729538 -0.04468005 0.06515545 0.006142142

critic.0.weight f4 [128, 31]
000000 3c 2c fb 3c 20 b3 09 3e 01 b5 18 bd 0d ea 03 be
       0.030660741 0.13447237 -0.037281994 -0.12882252
000010 b2 93 a5 3d 7c 86 f3 bc 0e 43 72 3d 98 69 ab 3c
       0.08084811 -0.029727213 0.05914598 0.020924374
000020 ea df 01 3e be a3 87 3f 8d c4 66 3e 40 b0 c6 3d
       0.12683073 1.0596845 0.22535916 0.09701586
000030 80 04 a2 bd 7a 0e 26 3e ef 4d 6e 3d 97 18 be bc
       -0.079110146 0.1621646 0.058179792 -0.023205085
000040 74 c2 73 3d 1e 41 bf bc d5 a2 12 3e f7 79 c7 bd
       0.059511617 -0.02334648 0.14319928 -0.0974006
000050 b4 2b 9c 3d 0b d5 ea 3c fc 92 80 3d fb 6f aa 3d
       0.07625523 0.02866604 0.06278035 0.0832214
000060 bb bd 32 3e e2 0c b1 3d 0c 0b 08 3e 0c 3c f6 3d
       0.17455189 0.08645035 0.13285464 0.12023172
000070 10 c4 8d bd 6f 4d 2c be 6d 42 18 be 6c 03 d1 3c
       -0.069221616 -0.16826414 -0.1486909 0.025514327
000080 fe af 06 3d c3 83 05 bf 06 2c da 3b dc 06 9d bc
       0.032882683 -0.5215418 0.00665808 -0.01916831
000090 b0 59 79 bb b4 7b 21 3e b5 3f 47 bd 8b 1b 0d 3e
       -0.0038047843 0.15769845 -0.04864474 0.13780038
0000a0 93 f1 cc 3f 01 5f e1 bf 9d f5 36 3e 6b 9a b7 bc
       1.6011223 -1.7607118 0.17867132 -0.0224125
0000b0 35 3d 13 be 8c a1 fd 3c d0 9a 8f bc 7f b9 14 bb
       -0.14378817 0.03096082 -0.017529875 -0.0022693572
0000c0 c9 e0 08 bd 7b 68 90 bb 2d 08 a7 bb eb 1a 10 bc
       -0.033417497 -0.0044069863 -0.00509741 -0.00879548
0000d0 7f cc d5 3c f3 56 4b 3c cb 4f 9c 3d f1 cc fa bc
       0.026098488 0.012410867 0.07632407 -0.030615302
0000e0 69 1e 83 3d 65 84 aa bb ba ad 0c 3d c4 e7 15 3e
       0.06402285 -0.005203771 0.034345366 0.14639193
0000f0 61 5c 35 be 74 e3 11 3c b8 5f 77 3d 15 51 23 3d
       -0.17711021 0.008904327 0.06039402 0.039872248
000100 5d 57 23 40 5b 2e ea 3e cb a2 16 3e 1a 38 5c 3e
       2.5522072 0.4573849 0.14710538 0.21505776
000110 03 f7 3d 3d 9a 5a a5 be 82 ab 30 be 01 89 b4 bf
       0.046378147 -0.32295686 -0.17252925 -1.410431
000120 25 fd ca 3f 40 8a 72 be a9 c1 a2 3e ac 68 a7 3e
       1.5858504 -0.2368555 0.31788376 0.32697046
000130 9d 4b e8 be 6a 90 70 bc 68 90 02 3e b1 87 b8 3c
       -0.45370188 -0.0146828685 0.12750399 0.02252564
000140 13 ed 33 3d ce 14 f1 3b 7f 65 01 bc 8a 31 40 3c
       0.043927263 0.0073572164 -0.007897734 0.011730561
000150 1e e7 42 3c 1a eb 9c 3c 18 b2 7e 3d 99 fc aa bd
       0.011895923 0.019155074 0.062181562 -0.083489604
000160 38 49 2d be 03 05 68 bd 46 a8 30 3e 6b 51 94 be
       -0.16922462 -0.056645405 0.17251691 -0.28968367
000170 d2 11 39 be 01 68 52 3d 3f c6 0d bd fb 69 5f be
       -0.18073204 0.051368717 -0.03461289 -0.21817772
000180 19 64 15 3d 9d 71 ab bd 8f 8a 26 be a8 dd 25 3e
       0.036472414 -0.083712794 -0.16263793 0.16197836
000190 ed 7f 12 bd 0f 2f 52 3e 46 9a 8a bf 76 75 fd 3e
       -0.03576653 0.20525764 -1.082833 0.49503678
0001a0 0d fd 20 bd a2 73 1e be b4 2d 11 3d f5 c2 25 3e
       -0.039303828 -0.15473798 0.035443977 0.16187651
0001b0 24 6f 53 bd 4a 0f fb 3c 3f 52 93 3d 09 2f d4 bd
       -0.051619664 0.030646939 0.071934216 -0.10360534
0001c0 fd 0e d6 3d 5c 28 b0 3d 8b 4b 3d bd ba 3a dd 3d
       0.104520775 0.08601448 -0.04621462 0.10802217
0001d0 32 b1 aa 3d 50 6c 5f 3c bb e8 68 bd ef 8d be bd
       0.083345786 0.013636664 -0.056862574 -0.093044154
0001e0 8b 15 a6 bc bc ef 44 3d 8b 56 93 bb 7e f5 d6 bd
       -0.020273944 0.04808019 -0.0044964007 -0.10496043
0001f0 1b 6b 59 3e e0 bc 81 be b3 35 c3 3f 68 90 15 be
       0.21232264 -0.25339413 1.5250763 -0.14605868
000200 4e f4 4a 3e 3e 4b b8 bc 0a ce f5 bd 0d 10 95 bb
       0.19819757 -0.022496816 -0.120021895 -0.0045490325
000210 10 dc 27 be 1e c9 58 bf 56 27 94 3f 0b 1b 57 be
       -0.16392541 -0.8468188 1.1574504 -0.2100641
000220 cb 63 ae 3e 2f 3c e4 3e e4 6a 8a be 19 ba 9f 3d
       0.3406051 0.44577166 -0.27034676 0.07799167
000230 60 87 77 3c 5e c7 8c 3d 5e 1d a2 3d 9a 7a 41 3d
       0.0151079595 0.06873964 0.079157576 0.047236063
000240 4a e6 82 3d 80 31 a2 bd 62 07 c4 bb 92 1d 1d 3e
       0.063915804 -0.079195976 -0.0059823254 0.15343311
000250 77 87 35 3e ea 49 be 3d 24 db 8f 3c 08 19 34 3d
       0.17727457 0.09291442 0.01756055 0.043969184
000260 64 fd 40 be 09 9d 95 3d 11 2e 06 3e 07 29 8d bb
       -0.18846661 0.07305343 0.1310351 -0.0043078694
000270 0a f7 28 3e fa 3c 6f 40 3a 26 30 be 96 cc 98 3b
       0.16500488 3.7380967 -0.17202082 0.0046630604
000280 49 4f 08 3b 3e dd 32 be 82 07 44 be 73 9d 3e 3d
       0.002079921 -0.1746721 -0.19143489 0.046536874
000290 24 a4 a8 3e bb 85 4d 3f 4d ab 90 be 39 05 89 3f
       0.3293773 0.8028218 -0.28255692 1.0704719
0002a0 c3 48 9a 3f 06 ee 29 bf 6d f4 9e 3d 81 4f 20 bc
       1.2053455 -0.6637882 0.07761464 -0.00978458
0002b0 c3 66 a8 3b 07 52 08 3d 6f f9 8c bc 8d bc 45 ba
       0.0051392033 0.033281352 -0.017208783 -0.000754305
0002c0 7b 42 0a 3c 4e a8 33 bc 94 83 8e be 22 a0 54 3e
       0.008438702 -0.01096542 -0.2783476 0.20764211
0002d0 48 08 81 3e eb 83 90 be d5 c0 cb 3d be 2f 0b be
       0.2520163 -0.28225645 0.09948889 -0.13592431
0002e0 1f c7 14 bd 81 a3 55 3d 88 a2 ac 3d ed 84 5c 3d
       -0.03632271 0.052157883 0.08429438 0.053837705
0002f0 d2 cc 42 be bf a8 e5 bd 35 94 a6 bd de 29 92 bc
       -0.19023445 -0.112138264 -0.08133737 -0.01784223
000300 36 93 1c bd 1b b2 09 3e 75 cf 81 3e af 58 90 3f
       -0.03822633 0.13446848 0.2535359 1.1277064
000310 6d e3 6a bf 7e 18 13 3e 4e 68 b4 bc b5 f9 e4 bd
       -0.91753274 0.14364812 -0.022022393 -0.1118044
000320 6a 0f a7 3d c7 aa 22 3d c1 ce 03 bd 0c bc 53 bd
       0.08157237 0.039713647 -0.032179598 -0.051693007
000330 f8 69 f8 3d b4 89 9c bd c1 58 87 bd 5f d4 06 3d
       0.12129587 -0.07643452 -0.06608725 0.032917377
000340 9b 26 b6 bd 46 d4 98 bd fd 02 a2 bd 0d e2 21 be
       -0.08894082 -0.07462363 -0.07910726 -0.15808888
000350 9b 39 2f bd 5c 4c 01 3d 8d 48 d5 bd aa da ed bd
       -0.042779546 0.031566963 -0.104142286 -0.116139725
000360 90 59 1d 3e 1d 80 6d bd 7a c9 05 be 8e 95 8b 3d
       0.15366197 -0.057983506 -0.13065138 0.06815635
000370 db 86 a1 3d dd b3 64 bd 75 35 dc 3d 8e 51 ec 3c
       0.0788705 -0.055835593 0.107523836 0.028847482
000380 ce be 7c 3d 7a 30 75 be 26 34 cc 3f ca e9 2d 3f
       0.061705403 -0.23944274 1.5953414 0.6793486
000390 28 c0 c6 3d a0 08 0e 3e 1d fd 44 bd 4f d9 34 be
       0.0970462 0.13870478 -0.04809295 -0.17661022
0003a0 16 ee 39 3b b4 10 89 3c 09 b9 a3 3d 84 45 9d 3c
       0.002837067 0.016731597 0.07994277 0.019198187
0003b0 f3 0d f3 3b 2e 4d 4e bd df c7 bb bc ee a2 83 bc
       0.0074174344 -0.050366573 -0.022922454 -0.016068902
0003c0 58 8b c4 bd 0e a9 14 3d c5 c4 4a bd b0 24 ce bd
       -0.0959689 0.036294036 -0.04950406 -0.10065591
0003d0 5f ad 33 3d e4 67 8d 3e c3 83 08 3e 9b 0f 70 bd
       0.04386651 0.27618325 0.13331513 -0.058608633
0003e0 23 e1 98 bd b3 bd 2e be 9c dd 71 3c 8c 4d 60 bd
       -0.074648164 -0.17064552 0.014762308 -0.054761454
0003f0 5f f6 77 bd 81 eb 17 3e d9 ac 4e 3e 82 a1 43 3d
       -0.060537692 0.14835931 0.20183124 0.047761448

critic.0.bias f4 [128]
000000 03 97 58 be b5 77 f9 bd 97 36 cf 3e 7f d5 d7 3b
       -0.21151356 -0.121810354 0.40471336 0.00658673
000010 6c 5f 88 3e f7 e7 37 be bc c5 28 bd 5d f8 21 3e
       0.266353 -0.17959581 -0.0412042 0.158174
000020 7a bf 29 be 70 c0 13 be f0 9f c6 3c c8 a6 74 be
       -0.16576949 -0.14428878 0.024246186 -0.23891747
000030 ec 27 16 be a9 6f cc bd 16 5a 01 3d a2 f0 1c be
       -0.14663666 -0.09982235 0.031580053 -0.15326169
000040 26 65 1b be 27 22 6a be 65 6c bb 3d 24 1c 90 3d
       -0.15175304 -0.2286459 0.09151534 0.070366174
000050 e7 ab 69 3e e1 19 7d bd ce 05 8e bd e4 49 97 be
       0.22819482 -0.06179226 -0.06934701 -0.29548562
000060 28 e1 4d bd bf aa 23 be 27 db 8d 3c 19 c9 6b be
       -0.050263554 -0.15983103 0.017316414 -0.23025931
000070 14 07 31 be 42 34 cd 3c b6 cd 9b 3d c5 25 37 3e
       -0.17287856 0.025049333 0.076075956 0.17885502
000080 b2 b3 8b bd ff 74 81 3e 7b ec 87 3e 5b b6 62 be
       -0.068213835 0.25284573 0.26547608 -0.22139876
000090 e6 09 aa be 5f b1 36 bd 2b 64 e8 bd 6d ad bc be
       -0.33210677 -0.044602748 -0.113472305 -0.36851063
0000a0 b3 49 cf bd 4b 0f c4 3e 0c fd 1f be b1 31 82 be
       -0.10121479 0.38292918 -0.15623873 -0.25428537
0000b0 15 7e 11 3e d2 13 1a 3c e5 7d 85 3e 39 99 8f be
       0.14208253 0.00940414 0.26072612 -0.28046587
0000c0 ee 9b a0 be 9c 1c b2 3d 9f ed 93 bc 1a 11 ba bd
       -0.31368965 0.08696863 -0.018057643 -0.09085293
0000d0 f9 ce 49 be 6a 0c 34 3e f6 d6 3a be 95 87 7a be
       -0.1970786 0.1758286 -0.18246064 -0.24465783
0000e0 ca b8 9b bd ce ed 9f bd 95 de b6 3d 8a b6 a6 bd
       -0.07603605 -0.078090295 0.08929173 -0.08140285
0000f0 c3 a9 1a 3c 47 ff c2 bd 62 92 9d bd 7b 61 32 be
       0.009439888 -0.095213465 -0.07693936 -0.17419998
000100 39 93 be bd 67 b6 27 be a6 4b 8a bd 31 b2 92 bd
       -0.09305424 -0.16378175 -0.0675271 -0.071628936
000110 fe 2d 15 be 11 86 e9 3d 7c ed 85 be 8f 9b 75 3e
       -0.14568326 0.11402524 -0.2615775 0.23985122
000120 89 f9 9b bc 93 da ae 3e 55 82 fb 3d 81 31 47 3f
       -0.019039886 0.34151134 0.12280718 0.7780991
000130 30 b2 f0 3e 6c b9 f4 bb 03 33 37 ba a2 05 75 bc
       0.47010946 -0.007468393 -0.00069884973 -0.014954956
000140 5c 42 d7 3d 4d 71 4a be 18 b3 b9 bd 39 60 97 be
       0.10510704 -0.19769783 -0.090673625 -0.295656
000150 1d 71 f7 be de 20 85 3e c3 ec f9 3d f6 64 46 be
       -0.48328486 0.26001638 0.12203362 -0.19374451
000160 99 b6 16 3e a7 90 84 3e 70 61 95 be e3 9f 33 3e
       0.14718093 0.2589161 -0.291759 0.1754146
000170 e6 24 9e be 01 ad 7a bb 6c 45 44 be 9f ab 9a 3e
       -0.30887526 -0.003825009 -0.19167107 0.30209062
000180 76 13 94 3d 4c c5 e1 bd 00 1d 6b bd 2d 49 37 3e
       0.072302744 -0.110239595 -0.057400703 0.17899008
000190 a6 eb 4d be 18 a9 56 bd 42 42 6e 3d a0 9c ba bd
       -0.20109424 -0.052407354 0.058168657 -0.09111905
0001a0 d2 24 52 3e cc b6 99 be 09 d3 93 3e 8e a3 99 bd
       0.20521858 -0.30022275 0.28871945 -0.07501899
0001b0 ff 24 87 3d b5 fa 47 3d cc 43 97 be 1a ee fe bc
       0.06598853 0.048823077 -0.29543912 -0.031119395
0001c0 00 8f 9e 3b d8 e9 b4 3d 5a 1a cf bc 58 ce 29 3d
       0.0048388243 0.08833665 -0.02528112 0.04145655
0001d0 18 51 7e bd 1b d7 d9 3d 3b 6b 0d be 4f 42 67 3d
       -0.062089056 0.10636731 -0.13810436 0.05645972
0001e0 da 76 05 3c 05 93 87 3d 31 e0 d5 3d 8e cf 82 be
       0.008146012 0.066198386 0.10443152 -0.25548977
0001f0 49 00 bc 3d 9a 2a 34 be 5c 33 78 3d 85 66 1b be
       0.09179742 -0.17594376 0.060595855 -0.15175827
