ISAAC_NOGIT/logs/rsl_rl/traquad_flat/2025-09-16_14-04-31/model_100.pt (torch, 925483 bytes, 48 tensors)

std f4 [8]
0.49499816 0.48779497 0.52226007 0.50939775 0.7349257 0.7581978 0.7029906 0.7011242
00000000: 6670 fd3e 43c0 f93e d6b2 053f e467 023f
00000010: 1724 3c3f 4019 423f 31f7 333f e07c 333f

actor.0.weight f4 [128, 31]
-0.12461663 0.046202037 -0.79468775 0.488513 -0.35122603 -0.13497111 0.6016265 -0.54691195
-0.07843191 0.5340523 0.20005415 -0.96859044 -0.14552234 1.3020935 -0.19216011 0.2665321
0.07539456 0.042119402 -0.2278355 0.055113174 0.067170694 -0.101873 -0.14909583 0.53811836
0.21715973 -0.17891692 0.28304082 -0.026508445 0.15819818 -0.09768707 -0.12234694 -0.20221299
-0.3925924 -0.15115342 -0.21589315 0.018099036 0.35404822 -0.239213 0.6765538 0.39870748
-0.22403364 0.2863158 -0.23691612 -0.12714332 -0.3257113 -0.42821285 -0.39209783 0.014319424
-0.15599672 -0.13764443 -0.03429439 0.04648692 -0.040321838 0.10200539 0.35421705 -0.46810913
0.44273293 -0.14030667 -0.08662249 -0.15624776 0.06737829 -0.18390661 -0.6387749 -0.4019707
-0.10097489 0.30283487 -0.24868327 -0.01799722 1.1149129 -1.3454798 0.10293664 0.17010213
-0.66793054 -0.31114966 -0.9184651 1.2886008 -0.4043583 0.10611103 0.07497738 0.2536289
-0.19187988 0.026319863 0.060717057 0.04114765 -0.058993086 0.13704574 -0.07196253 -0.5851208
0.060813613 0.121035345 -0.07967865 -0.2374956 0.25012884 0.57818514 -0.04574659 0.27278274
0.17096473 -0.06045966 -0.032211836 -0.38730645 -0.17330109 0.281925 -0.13801886 0.22768757
0.72732687 1.1078726 -0.41942513 -0.31714824 0.20672484 0.05925091 0.13746293 0.12717241
0.021541812 0.094398774 -0.17215288 0.03397944 0.07205753 -0.21730879 -0.05822858 0.1781221
0.05677241 -0.066388346 0.14141665 -0.17674585 0.8812621 -0.19395058 -0.9524429 -0.27418613
0.04450244 0.028854812 -0.26955488 1.1671225 0.12874986 1.3471366 -0.5125134 -0.27454713
2.3554268 -1.2020245 -1.4685203 0.25119236 0.39465466 -0.29208848 -0.1992724 -0.03396106
0.02379124 0.01707595 0.006508071 0.054694694 -0.07591332 0.23864117 0.18946241 0.10509424
0.07007824 -0.09187001 0.19970374 -0.21901523 0.49430135 0.5584686 -0.4623637 -0.14155991
-0.3196405 0.39068902 1.195978 -0.0023444917 -0.01865169 -0.19112176 -0.27736458 -0.02651011
-0.25328493 0.9224612 -0.11323497 0.1458205 0.051530413 0.28771326 0.10105073 0.15780781
-0.11221283 0.05054753 -0.3304447 0.06029163 -0.28595456 0.04731299 -0.24270868 0.010077608
0.11773021 -0.046967342 -0.68323314 0.26868644 -0.24926764 -0.08679506 0.24590614 -0.91805613
1.3689758 2.1167367 0.052250102 0.50430566 0.73006356 -1.5071362 -0.3029555 0.9324001
1.8537391 0.05169361 0.2576121 0.12287558 0.342089 -0.009780602 0.010221001 -0.05351549
-0.010866758 -0.21472548 0.57878584 0.0009603685 -0.03836083 -0.18050542 0.0040019946 0.039101005
-0.17193937 0.14267524 0.28764135 -0.43690282 -0.08799136 -0.2799488 -0.2195666 0.2629605
0.6618021 -0.0045598033 0.5996314 -0.028137418 -0.6637344 0.5307749 0.25881413 0.17336404
0.024434248 0.0780619 0.28123212 0.09975961 -0.04964478 0.0052298396 -0.08915396 -0.09624946
0.0791408 -0.12032684 -0.12674305 0.09393445 0.12389654 0.049167845 -0.15668228 0.23843785
0.3961138 0.4591338 0.3405565 -0.5458191 0.20615073 0.45021975 -0.8641152 2.2084184
00000000: 0137 ffbd 593e 3d3d a870 4bbf 601e fa3e
00000010: e6d3 b3be de35 0abe 3204 1a3f 6c02 0cbf
00000020: e9a0 a0bd a7b7 083f ffda 4c3e 8bf5 77bf
00000030: cf03 15be 00ab a63f 9fc5 44be e576 883e
00000040: 7768 9a3d 6585 2c3d b64d 69be 5abe 613d
00000050: ca90 893d cba2 d0bd 94ac 18be 20c2 093f
00000060: 1f5f 5e3e ff35 37be baea 903e 3d28 d9bc
00000070: b4fe 213e 2910 c8bd 0891 fabd ec10 4fbe
00000080: df01 c9be f6c7 1abe 1813 5dbe 6e44 943c
00000090: cf45 b53e 41f4 74be a132 2d3f 6323 cc3e
000000a0: 1369 65be fc97 923e 249a 72be dc31 02be
000000b0: a2c3 a6be b73e dbbe 0cc1 c8be 049c 6a3c
000000c0: 9bbd 1fbe a9f2 0cbe 4678 0cbd 1269 3e3d
000000d0: 8328 25bd 34e8 d03d f05b b53e 00ac efbe
000000e0: e4ad e23e 8dac 0fbe 2267 b1bd 6aff 1fbe
000000f0: a1fd 893d 0452 3cbe c086 23bf 1bcf cdbe
00000100: eccb cebd 2c0d 9b3e d4a6 7ebe e86e 93bc
00000110: 77b5 8e3f af38 acbf 72d0 d23d 412f 2e3e
00000120: 7ffd 2abf 024f 9fbe 8720 6bbf dff0 a43f
00000130: 0d08 cfbe bd50 d93d be8d 993d a6db 813e
00000140: 297c 44be c19c d73c 73b2 783d 708a 283d
00000150: bca2 71bd b855 0c3e 1761 93bd 7aca 15bf
00000160: b217 793d 61e1 f73d 8f2e a3bd 0c32 73be
00000170: e310 803e f103 143f c760 3bbd 2eaa 8b3e
00000180: 6111 2f3e 8ca4 77bd 8ff0 03bd 084d c6be
00000190: d775 31be 7958 903e d154 0dbe ee26 693e
000001a0: 1832 3a3f c5ce 8d3f e4be d6be 4161 a2be
000001b0: adaf 533e 15b1 723d 15c3 0c3e 7c39 023e
000001c0: 7478 b03c 2554 c13d d848 30be 062e 0b3d
000001d0: e692 933d 3286 5ebe 1781 6ebd a465 363e
000001e0: 308a 683d 9df6 87bd 87cf 103e ddfc 34be
000001f0: 659a 613f fb9a 46be 4cd3 73bf 2062 8cbe
00000200: 3148 363d ed60 ec3c 1903 8abe 4564 953f
00000210: 01d7 033e f96e ac3f 1434 03bf 7191 8cbe
00000220: 50bf 1640 f0db 99bf 79f8 bbbf 499c 803e
00000230: 2d10 ca3e 9f8c 95be 100e 4cbe c11a 0bbd
00000240: d9e5 c23c dde2 8b3c a841 d53b 8b07 603d
00000250: 7178 9bbd 5a5e 743e 6f02 423e a63b d73d
00000260: 2e85 8f3d 5826 bcbd 237f 4c3e 8745 60be
00000270: 1115 fd3e ccf7 0e3f efba ecbe 15f5 10be
00000280: eba7 a3be 6408 c83e cf15 993f 0ba6 19bb
00000290: 6ecb 98bc 6cb5 43be bb02 8ebe bb2b d9bc
000002a0: 90ae 81be 6b26 6c3f bce7 e7bd f851 153e
000002b0: 8e11 533d 274f 933e aff3 ce3d 5f98 213e
000002c0: d7cf e5bd ed0a 4f3d 0c30 a9be 5bf4 763d
000002d0: a368 92be 44cb 413d a088 78be 8d1c 253c
000002e0: 891c f13d d460 40bd 5ee8 2ebf 4591 893e
000002f0: 0440 7fbe 9cc1 b1bd d2ce 7b3e ba05 6bbf
00000300: 993a af3f 9d78 0740 3404 563d 2d1a 013f
00000310: 72e5 3a3f d7e9 c0bf fc1c 9bbe c6b1 6e3f
00000320: 5347 ed3f aebc 533d bce5 833e 31a6 fb3d
00000330: 4a26 af3e d13e 20bc fc75 273c 0f33 5bbd
00000340: 7d0a 32bc ffe0 5bbe 4f2b 143f 3dc1 7b3a
00000350: 3f20 1dbd 6ad6 38be 2a23 833b 6028 203d
00000360: e010 30be 7519 123e ba45 933e bab1 dfbe
00000370: d034 b4bd 7355 8fbe 11d6 60be c2a2 863e
00000380: dd6b 293f 676a 95bb 7281 193f 7180 e6bc
00000390: 7fea 29bf dde0 073f 4983 843e 5886 313e
000003a0: 552a c83c ebde 9f3d a8fd 8f3e c44e cc3d
000003b0: 5358 4bbd 135f ab3b 5a96 b6bd 701e c5bd
000003c0: 9214 a23d eb6d f6bd eec8 01be b460 c03d
000003d0: 78bd fd3d 3964 493d 5271 20be 0d29 743e
000003e0: 6ecf ca3e 9613 eb3e 6c5d ae3e cdba 0bbf
000003f0: 2d19 533e 3483 e63e a736 5dbf ba56 0d40

actor.0.bias f4 [128]
0.08531386 -0.346059 -0.22736105 -0.25335628 -0.17093039 -0.10727638 0.01777997 -0.09371455
-0.28955436 0.007474715 -0.27219927 -0.20011146 -0.3331315 -0.12738706 -0.3385803 0.068585746
-0.06500812 -0.15092124 -0.23297298 -0.018585823 0.13434865 -0.12027259 -0.0617382 -0.014851076
0.19355668 -0.012404909 -0.23088242 -0.021536132 -0.12547731 -0.18534768 -0.16132742 -0.36962062
-0.095626034 -0.008055107 -0.24294488 0.08783896 0.12796329 -0.16953848 0.07682112 0.08755235
0.027147358 -0.22364451 -0.34738398 -0.16062075 -0.08575974 -0.08895049 -0.011820234 0.033352423
-0.13826615 -0.16061091 0.042904917 -0.081880964 -0.21567197 0.055104077 -0.081719354 0.08871882
-0.06243742 0.05437949 -0.20498967 0.27418903 -0.09848947 -0.20357075 -0.14689857 -0.052529
-0.19098145 -0.41048738 -0.090139955 -0.19073062 0.006859578 -0.11176462 -0.23713252 -0.09313825
0.0085411845 -0.1557324 -0.28223392 -0.17275582 0.14710763 -0.27844897 -0.23118326 0.024076901
0.052525762 -0.33503124 -0.35638642 0.1815301 -0.14064007 -0.25287676 0.014078334 -0.16082324
-0.14865522 -0.1883755 -0.17556524 -0.13834995 0.2087805 -0.17009649 -0.07450894 -0.13295965
-0.080701366 0.06420487 0.02684362 -0.18036969 0.19681239 0.050608046 0.003243762 -0.38406083
0.10487983 -0.024948325 -0.29651958 0.026930984 -0.24253602 0.018106222 -0.32880968 0.03330837
-0.12555473 -0.07315966 -0.16568598 0.024066595 -0.10283255 -0.13237843 -0.26891783 -0.23447788
0.16424784 -0.17943214 -0.04863111 -0.16373062 -0.11090705 -0.09740597 -0.09235213 0.08022768
00000000: 08b9 ae3d a52e b1be 56d1 68be eab7 81be
00000010: 6008 2fbe b8b3 dbbd 4da7 913c 6aed bfbd
00000020: 7840 94be 74ee f43b b45d 8bbe 05ea 4cbe
00000030: 3690 aabe c171 02be 665a adbe af76 8c3d
00000040: fa22 85bd 198b 1abe 7890 6ebe 4c41 98bc
00000050: b192 093e 7a51 f6bd 32e1 7cbd ed51 73bc
00000060: b933 463e f63d 4bbc 716c 6cbe 8b6c b0bc
00000070: 207d 00be c8cb 3dbe 0433 25be ea3e bdbe
00000080: 95d7 c3bd 91f9 03bc 8bc6 78be eae4 b33d
00000090: cf08 033e 7f9b 2dbe 6454 9d3d a54e b33d
000000a0: 2364 de3c 1103 65be 50dc b1be c479 24be
000000b0: cda2 afbd ad2b b6bd a8a9 41bc 8d9c 083d
000000c0: a495 0dbe 3077 24be 11bd 2f3d 35b1 a7bd
000000d0: 1dd9 5cbe d0b4 613d 7a5c a7bd 36b2 b53d
000000e0: 61be 7fbd 07bd 5e3d d0e8 51be 8162 8c3e
000000f0: d9b4 c9bd da74 50be 946c 16be a628 57bd
00000100: a490 43be 672b d2be 4c9b b8bd e34e 43be
00000110: 50c6 e03b d9e4 e4bd ded2 72be 44bf bebd
00000120: 53f0 0b3c 5078 1fbe f780 90be e7e6 30be
00000130: 62a3 163e dd90 8ebe 4ebb 6cbe ec3c c53c
00000140: 4125 573d 3789 abbe 4878 b6be 07e3 393e
00000150: f303 10be 1079 81be d0a8 663c d9ae 24be
00000160: 1339 18be 82e5 40be 60c7 33be 9cab 0dbe
00000170: 8eca 553e c62d 2ebe 2598 98bd 9326 08be
00000180: c246 a5bd d87d 833d 27e7 db3c d5b2 38be
00000190: 3089 493e 624a 4f3d 4c95 543b 9fa3 c4be
000001a0: 3ccb d63d 6e60 ccbc 6ad1 97be 5e9e dc3c
000001b0: 5d5b 78be 8053 943c be59 a8be 5b6e 083d
000001c0: 6b91 00be bbd4 95bd 96a9 29be 4f27 c53c
000001d0: df99 d2bd 368e 07be 99af 89be f81a 70be
000001e0: 9630 283e 0fbd 37be 6a31 47bd 00a9 27be
000001f0: 3c23 e3bd c87c c7bd 1d23 bdbd 694e a43d

actor.2.weight f4 [128, 128]
-0.05989953 -0.11950561 -0.0032047126 -0.09115942 0.08996739 -0.1581409 -0.14750896 0.046114665
-0.0067660296 0.12380432 -0.0275616 0.052507833 0.036228787 0.016055517 0.048041616 -0.033589657
0.077748 -0.09406314 0.020347288 0.049317326 0.0052036303 -0.006818545 0.03279016 0.04629715
0.007950228 0.028396185 0.024511443 0.018386237 -0.1161086 0.01709341 -0.044871844 0.052689377
-0.18852969 -0.09168567 0.0699173 -0.11223735 -0.021579102 -0.09853535 -0.08749688 -0.11369947
0.028661871 0.0036600407 0.09610674 0.05608868 0.043692373 0.037925977 -0.009113713 0.043481927
-0.0028837104 -0.036221504 -0.06751003 0.0060595493 0.07404118 -0.055419434 0.037952993 -0.025049891
0.05875056 0.0032062049 0.08125252 -0.019012349 0.04040405 0.1030342 -0.02615384 0.014293603
-0.0387111 0.06573706 -0.0623391 -0.03678553 0.010494863 -0.08462615 -0.04024841 -0.116427
-0.012232189 -0.048390042 -0.08706244 0.011185245 -0.10722846 0.0027946143 -0.08543465 0.08039815
-0.13353767 0.10695537 -0.014449992 0.06518316 0.09116645 0.11688871 0.03426335 0.037962053
0.08910343 -0.08237107 -0.07555289 0.023318283 -0.023947828 0.033744495 -0.01745244 0.068462744
-0.034442853 -0.06740381 -0.06814442 -0.046198275 -0.010790996 -0.037833598 0.020376556 0.042305563
-0.12605537 0.041137587 -0.030876534 0.056747958 -0.0065293177 -0.043572865 0.10068041 -0.13184135
0.09094194 0.038592156 -0.0017447945 0.06015245 -0.042961217 -0.10230416 -0.023129666 0.007891224
0.083382525 -0.078085184 -0.111751005 0.09047587 -0.1338828 -0.07005595 -0.09187322 -0.0903821
-0.11458602 -0.025815453 0.019274086 0.08050383 0.13297084 -0.06344458 -0.024798037 0.015977575
0.074601 0.040002365 0.022541782 -0.042319853 -0.0710806 0.023914548 -0.07455656 0.12183155
-0.053815875 0.032743473 -0.19911012 0.057392277 0.058926407 -0.007830034 -0.00470178 0.0018291179
-0.15237793 -0.020605884 0.01599214 0.14725983 0.05653014 -0.12237845 -0.13667434 -0.0214821
-0.092551924 -0.04054073 0.04208109 -0.05867042 -0.018856272 -0.092884794 0.1864599 0.007469789
-0.03356397 -0.15421937 -0.014477163 0.121579655 -0.02813981 -0.07602523 0.050831974 0.004290225
-0.056201935 0.045886494 0.029816115 -0.06579993 -0.003214784 -0.11226945 0.0090614455 -0.03999365
-0.057791308 0.035709172 -0.010410242 -0.07997849 -0.029566454 -0.024505662 0.050828412 -0.19312167
-0.042921335 -0.04950238 0.110209644 -0.014782231 -0.057890795 -0.008876167 -0.015520915 -0.06334763
-0.010469904 -0.046972 0.027878933 -0.005141802 -0.0175875 0.026015049 0.061338577 -0.06630752
-0.07855607 -0.092404604 -0.038722765 0.05014683 0.020746013 -0.006261611 0.0152181825 -0.029898683
0.01844759 -0.09739718 -0.014972395 0.004059746 0.0005926447 -0.02155262 2.561211e-05 0.04126268
-0.11088102 -0.06443126 -0.008364431 0.08012011 0.038975663 -0.068233654 -0.28192216 -0.059378073
-0.041007705 0.013333762 -0.054431558 0.07144172 -0.075253375 0.07199246 -0.14560653 -0.13389255
0.065321326 0.10743531 0.14006025 -0.14382002 0.0049970495 0.03627603 0.034980293 0.0060705394
0.05999505 -0.043406807 0.09084495 -0.07579248 -0.20594828 0.110470265 -0.0075904867 -0.0021789325
00000000: 3659 75bd 5bbf f4bd 2806 52bb cab1 babd
00000010: d340 b83d b0ef 21be 970c 17be bbe2 3c3d
00000020: 92b5 ddbb 1f8d fd3d ddc8 e1bc 7412 573d
00000030: a364 143d dc86 833c 49c7 443d 4f95 09bd
00000040: 583a 9f3d 2da4 c0bd 5baf a63c f700 4a3d
00000050: 3783 aa3b 1a6e dfbb fa4e 063d 15a2 3d3d
00000060: ac41 023c 1e9f e83c 39cc c83c bc9e 963c
00000070: 58ca edbd 7b07 8c3c 8acb 37bd d1d0 573d
00000080: ed0d 41be b2c5 bbbd cd30 8f3d b2dc e5bd
00000090: a8c6 b0bc e7cc c9bd 9031 b3bd 45db e8bd
000000a0: 4dcc ea3c 4bdd 6f3b 9cd3 c43d 3ebd 653d
000000b0: c6f6 323d 4558 1b3d af51 15bc 1b1a 323d
000000c0: a2fc 3cbb 005d 14bd b342 8abd 2f8f c63b
000000d0: e7a2 973d 7dff 62bd 9974 1b3d 6e35 cdbc
000000e0: 6da4 703d 311f 523b b967 a63d c9bf 9bbc
000000f0: b87e 253d 9803 d33d 9440 d6bc b72f 6a3c
00000100: 888f 1ebd 27a1 863d 4957 7fbd 6dac 16bd
00000110: a5f2 2b3c 7a50 adbd 84db 24bd 4771 eebd
00000120: 8569 48bc a334 46bd cb4d b2bd 5142 373c
00000130: 989a dbbd d925 373b 5df8 aebd c9a7 a43d
00000140: 19be 08be 6b0b db3d a9bf 6cbc c07e 853d
00000150: 7ab5 ba3d 5963 ef3d ba57 0c3d 197e 1b3d
00000160: dc7b b63d 2ab2 a8bd 79bb 9abd fc05 bf3c
00000170: 3c2e c4bc ab37 0a3d 6bf8 8ebc 3236 8c3d
00000180: f313 0dbd 020b 8abd 4d8f 8bbd 673a 3dbd
00000190: b8cc 30bc 67f7 1abd bcec a63c 9948 2d3d
000001a0: a914 01be e37f 283d c9f0 fcbc 8c70 683d
000001b0: e3f3 d5bb 7679 32bd 8831 ce3d 6b01 07be
000001c0: c53f ba3d cf12 1e3d 97b1 e4ba 6a62 763d
000001d0: 1af8 2fbd d884 d1bd 6d7a bdbc 314a 013c
000001e0: 75c4 aa3d 20eb 9fbd b6dd e4bd 6a4b b93d
000001f0: 9318 09be 7e79 8fbd 0728 bcbd 401a b9bd
00000200: 13ac eabd ee7a d3bc b0e4 9d3c 31df a43d
00000210: 8229 083e 3bef 81bd 4125 cbbc 67e3 823c
00000220: 69c8 983d 85d9 233d 8ba9 b83c 9557 2dbd
00000230: b592 91bd 71e8 c33c 1cb1 98bd d282 f93d
00000240: 096e 5cbd 051e 063d 86e3 4bbe 2a14 6b3d
00000250: d15c 713d 8b49 00bc 6411 9abb 03bf ef3a
00000260: f608 1cbe accd a8bc f301 833c 48cb 163e
00000270: 268c 673d 8ea1 fabd 5cf4 0bbe 3bfb afbc
00000280: dd8b bdbd 090e 26bd 395d 2c3d 6550 70bd
00000290: 7878 9abc 623a bebd 58ef 3e3e 22c5 f43b
000002a0: 607a 09bd afeb 1dbe 9f31 6dbc c1fe f83d
000002b0: 7585 e6bc 1eb3 9bbd 3035 503d 0495 8c3b
000002c0: 0034 66bd 7af3 3b3d ed40 f43c 1dc2 86bd
000002d0: 20af 52bb 87ed e5bd 7576 143c 62d0 23bd
000002e0: 94b6 6cbd c843 123d b88f 2abc c3cb a3bd
000002f0: 5935 f2bc 19c0 c8bc 7431 503d b0c1 45be
00000300: 48ce 2fbd 02c3 4abd 98b5 e13d 2c31 72bc
00000310: e61e 6dbd 586d 11bc 704b 7ebc 67bc 81bd
00000320: f689 2bbc b665 40bd 5c62 e43c 907c a8bb
00000330: a913 90bc 831d d53c 293e 7b3d 3dcc 87bd
00000340: 01e2 a0bd a03e bdbd c39b 1ebd c366 4d3d
00000350: 8bf3 a93c 332e cdbb af55 793c 15ee f4bc
00000360: 661f 973c 2c78 c7bd c74e 75bc 9e07 853b
00000370: b65b 1b3a 1f8f b0bc 96d9 d637 0e03 293d
00000380: 9715 e3bd 89f4 83bd f70a 09bc 0316 a43d
00000390: f2a4 1f3d 16be 8bbd 1a58 90be 6c36 73bd
000003a0: b2f7 27bd da75 5a3c a0f3 5ebd 0950 923d
000003b0: 711e 9abd c870 933d e119 15be 211b 09be
000003c0: 30c7 853d 0b07 dc3d f46b 0f3e 8e45 13be
000003d0: 4abe a33b 2d96 143d 7f47 0f3d 60eb c63b
000003e0: 5fbd 753d 56cb 31bd eb0c ba3d 1639 9bbd
000003f0: 1be4 52be 3c3e e23d 9eb9 f8bb 6ccc 0ebb

actor.2.bias f4 [128]
-0.07136572 -0.085692294 -0.079238564 0.047932256 -0.07846346 -0.032469876 -0.00034418178 -0.059426967
-0.113275126 -0.076241456 -0.010615963 -0.112669244 0.047496207 -0.009868784 0.01097867 -0.027591012
-0.026859703 0.0715924 0.037072748 -0.00859683 -0.12644966 -0.1617669 -0.11798982 0.012537664
-0.02054895 -0.09003207 -0.081149384 -0.07746279 0.051843077 -0.11709837 -0.06718427 0.0955185
-0.09885197 0.031036569 0.005409573 0.02557575 -0.023105603 -0.06954658 -0.13474391 -0.09539546
0.0048039295 -0.14541902 -0.0036695518 0.049944032 0.024935154 -0.070991054 -0.029904159 -0.09309701
-0.2360931 -0.08702299 0.021496734 -0.16383098 -0.09896974 -0.034760732 0.115218155 -0.052157678
-0.0033103863 -0.06763174 -0.09121576 -0.13420638 -0.15906693 0.12605573 -0.0041309427 -0.08892273
-0.13127679 -0.091557875 0.03741716 0.07675918 -0.0015392896 -0.122866474 -0.06384351 -0.12669201
-0.043788858 -0.07006553 0.051593233 -0.02195973 0.004065678 -0.03599431 -0.015252069 -0.07686389
-0.10299907 -0.019903474 -0.01982887 -0.058573496 0.07453604 0.032633882 -0.0741186 -0.06579611
-0.11596027 -0.04130046 0.046340626 0.009268318 -0.08781761 -0.18754853 -0.062600985 -0.015888987
0.01479784 -0.021242775 0.1634798 0.017173486 -0.081723124 -0.15997791 -0.05654801 -0.061278183
-0.08732106 -0.085581675 -0.11218864 0.11986135 -0.14837238 -0.048941184 -0.00075886655 -0.08031468
-0.07657909 0.049195193 0.011983487 -0.08870595 0.104876235 0.0774126 -0.16900547 -0.032398183
-0.10215194 0.06910529 -0.09022739 0.035999827 -0.11630442 0.035318155 -0.08188231 -0.09367873
00000000: 3128 92bd 717f afbd d447 a2bd 9d54 443d
00000010: 73b1 a0bd 22ff 04bd 4c73 b4b9 b169 73bd
00000020: cafc e7bd 7b24 9cbd 93ee 2dbc 22bf e6bd
00000030: 628b 423d aeb0 21bc e1df 333c 8c06 e2bc
00000040: e108 dcbc 099f 923d 98d9 173d b8d9 0cbc
00000050: 057c 01be 39a6 25be a6a4 f1bd c66a 4d3c
00000060: 4656 a8bc bc62 b8bd a631 a6bd d0a4 9ebd
00000070: 6859 543d 45d1 efbd e897 89bd 349f c33d
00000080: e772 cabd 6740 fe3c ca42 b13b 3c84 d13c
00000090: f647 bdbc 706e 8ebd 4ffa 09be b25e c3bd
000000a0: 486a 9d3b b9e8 14be dd7c 70bb 1d92 4c3d
000000b0: cf44 cc3c c263 91bd 91f9 f4bc a5a9 bebd
000000c0: 64c2 71be 1c39 b2bd eb19 b03c 4fc3 27be
000000d0: a6b0 cabd 4561 0ebd 7ff7 eb3d 4aa3 55bd
000000e0: 11f3 58bb 8282 8abd 54cf babd 666d 09be
000000f0: 71e2 22be c114 013e dc5c 87bb 1f1d b6bd
00000100: 6c6d 06be b282 bbbd bc42 193d eb33 9d3d
00000110: fdc1 c9ba 6ba1 fbbd 63c0 82bd 8dbb 01be
00000120: f25b 33bd 847e 8fbd 6d53 533d e4e4 b3bc
00000130: 6139 853b c56e 13bd d0e3 79bc d16a 9dbd
00000140: 2df1 d2bd 9c0c a3bc 2870 a2bc c3ea 6fbd
00000150: 5aa6 983d 1bab 053d 7ecb 97bd 1cc0 86bd
00000160: 947c edbd ac2a 29bd abcf 3d3d 25da 173c
00000170: b8d9 b3bd b90c 40be f234 80bd 9f29 82bc
00000180: a472 723c 5405 aebc 4067 273e 69af 8c3c
00000190: 745e a7bd 40d1 23be e39e 67bd d5fe 7abd
000001a0: 62d5 b2bd 7245 afbd 28c3 e5bd de79 f53d
000001b0: eeee 17be 8d76 48bd acee 46ba 067c a4bd
000001c0: 7fd5 9cbd e680 493d 6356 443c 77ab b5bd
000001d0: 5ac9 d63d 7f8a 9e3d c50f 2dbe f5b3 04bd
000001e0: 0935 d1bd 1387 8d3d 23c9 b8bd 8e74 133d
000001f0: 0331 eebd c5a9 103d eab1 a7bd a2da bfbd

actor.4.weight f4 [128, 128]
-0.05243546 -0.0064201313 0.026886916 0.0479408 0.03628416 0.013385132 0.04064733 0.11577537
-0.02832311 -0.09275987 -0.022667618 -0.0046219304 0.11678166 -0.016156545 -0.102926984 -0.05855451
-0.026248852 -0.16533327 -0.028021032 -0.080781154 -0.03303018 0.049357966 -0.045576468 -0.0027349815
-0.08250961 0.04738427 0.038442403 0.024912143 -0.010161327 0.050370038 0.07560119 -0.047302615
-0.08062379 -0.100569956 0.09870484 -0.02769018 -0.00925292 -0.039457843 0.037931547 0.022062678
0.10680348 -0.10328061 0.09835671 -0.021699406 -0.027163593 0.020886853 -0.12523149 0.038554344
0.037798792 -0.16476206 -0.07071943 0.045280214 -0.08651303 -0.018561749 0.010828805 0.039217953
0.08807687 -0.087306865 0.026637917 -0.06973171 0.025510479 0.07603638 0.07583759 0.008699351
-0.075979955 0.079466976 0.085504875 0.028403012 0.0033848637 0.08039566 -0.0056991586 0.015342668
-0.023215052 -0.14370102 0.05977756 0.051270947 0.08280011 0.0436187 -0.07392059 0.11225973
-0.0062167947 -0.024444915 -0.064334214 0.08067239 -0.05412987 -0.050568778 0.037229463 0.07217868
0.1019771 0.027448166 0.03437981 -0.07955405 0.021875476 0.055275094 -0.029482147 -0.05869706
-0.095653415 0.06526504 -0.028541805 0.07868868 -0.067711055 0.01622869 -0.010524266 0.030656552
-0.056194995 0.0242346 0.07635546 0.009786889 -0.117634565 0.005778722 0.05919899 0.0074638096
-0.046877716 -0.059920564 -0.078594446 0.039584294 0.07699339 0.06688552 0.021145638 -0.028050616
0.032028735 -0.16359158 0.002763493 -0.056044154 -0.011448757 -0.040949777 0.059652217 -0.0299057
-0.042376187 0.105025455 0.05042676 -0.07127431 0.08459479 0.063368455 0.021486532 -0.007654851
-0.016010752 0.031836323 -0.0550207 0.007310942 0.06060182 0.050693884 0.07341581 -0.020258106
-0.05293491 0.042674646 -0.004822713 0.005865765 -0.11307913 0.034646813 -0.039956424 -0.008434014
-0.06704536 -0.010463994 0.03904823 -0.06351723 0.08379132 -0.0030692716 0.105352566 -0.045162797
0.039320555 -0.045993507 0.106475726 0.032260112 0.005050433 0.10987157 -0.0042196363 -0.029787727
-0.02052528 -0.00095588184 0.0019570314 0.018160576 -0.037841864 -0.013447188 -0.10380043 -0.05079161
0.15132196 -0.062373977 0.122557126 0.0503916 -0.10690911 -0.0743537 0.019950535 -0.037250604
0.06783551 -0.085345834 0.05115843 0.06544013 0.06501068 -0.06527693 0.067662455 0.14531337
0.029745633 -0.08322135 0.009330969 0.019698603 -0.1040108 0.014322268 -0.075862296 0.054494556
0.028361078 -0.053556453 0.003634634 0.06144193 0.08456316 0.009791209 -0.10440213 -0.025284432
0.023424573 0.029367132 -0.001295623 -0.0037843839 -0.05130028 0.07408127 0.055075154 -0.0323279
0.06616387 -0.017264668 0.028221657 0.057757497 -0.112752534 0.03404998 0.06082109 -0.052431766
0.032227848 -0.0013379642 0.017473297 0.047742937 -0.067511484 0.06766708 0.14569634 0.043806225
-0.012027267 0.12925981 0.088165775 0.06706052 -0.013443625 0.020599142 0.0072288206 -0.0409366
-0.09192234 -0.0910399 0.05266694 -0.09708294 -0.02335264 -0.011765585 -0.09026936 0.012612459
0.018544713 -0.06832326 0.027413992 -0.035645183 -0.056428522 0.10645175 -0.08023646 0.033148054
00000000: 91c6 56bd f75f d2bb f341 dc3c 935d 443d
00000010: b39e 143d 504d 5b3c d17d 263d a31b ed3d
00000020: de05 e8bc e3f8 bdbd 71b1 b9bc 9073 97bb
00000030: 392b ef3d bb5a 84bc 62cb d2bd dbd6 6fbd
00000040: d507 d7bc 204d 29be 5d8c e5bc 9770 a5bd
00000050: a74a 07bd 942b 4a3d 64ae 3abd 603d 33bb
00000060: ccfa a8bd 0216 423d c875 1d3d 8d14 cc3c
00000070: b27b 26bc d050 4e3d ccd4 9a3d 63c0 41bd
00000080: 161e a5bd 9ff7 cdbd c325 ca3d 84d6 e2bc
00000090: 8f99 17bc 8c9e 21bd 1c5e 1b3d cabc b43c
000000a0: c8bb da3d c984 d3bd 3e6f c93d f4c2 b1bc
000000b0: 2f86 debc e81a ab3c af3c 00be 29eb 1d3d
000000c0: e8d2 1a3d 63b7 28be 59d5 90bd bf77 393d
000000d0: be2d b1bd cf0e 98bc 4d6b 313c 01a3 203d
000000e0: a561 b43d f1cd b2bd c337 da3c 80cf 8ebd
000000f0: 5afb d03c f6b8 9b3d bd50 9b3d b987 0e3c
00000100: 619b 9bbd 95bf a23d 2e1d af3d 6fad e83c
00000110: 97d4 5d3b 7ba6 a43d 02c0 babb d05f 7b3c
00000120: 7e2d bebc 5c26 13be 51d9 743d 7c01 523d
00000130: 1b93 a93d 86a9 323d ae63 97bd 6ee8 e53d
00000140: 41b6 cbbb b440 c8bc a8c1 83bd 9137 a53d
00000150: 48b7 5dbd 3521 4fbd ec7d 183d 6ad2 933d
00000160: 5fd9 d03d fada e03c d8d1 0c3d 3ced a2bd
00000170: 3334 b33c 2368 623d 8b84 f1bc 546c 70bd
00000180: f0e5 c3bd ada9 853d 81d0 e9bc 8827 a13d
00000190: 18ac 8abd 08f2 843c f96d 2cbc 7323 fb3c
000001a0: b92c 66bd a487 c63c 4060 9c3d 3059 203c
000001b0: 64ea f0bd 6f5b bd3b a47a 723d f992 f43b
000001c0: d902 40bd 446f 75bd 20f6 a0bd 2423 223d
000001d0: b6ae 9d3d 47fb 883d 9e39 ad3c 68ca e5bc
000001e0: 9030 033d 8d84 27be b81b 353b 8e8e 65bd
000001f0: 9193 3bbc f4ba 27bd e255 743d ccfc f4bc
00000200: a792 2dbd 9617 d73d 4a8c 4e3d 44f8 91bd
00000210: 0940 ad3d 52c7 813d 8604 b03c 8bd5 fabb
00000220: fb28 83bc ce66 023d 635d 61bd a090 ef3b
00000230: 9d39 783d 64a4 4f3d 075b 963d 54f4 a5bc
00000240: 47d2 58bd 9ccb 2e3d d907 9ebb 9a35 c03b
00000250: 0896 e7bd d1e9 0d3d 59a9 23bd d22e 0abc
00000260: 144f 89bd 2c71 2bbc 09f1 1f3d 5215 82bd
00000270: c99a ab3d d525 49bb 16c3 d73d a0fc 38bd
00000280: 970e 213d b063 3cbd f20f da3d 2e23 043d
00000290: 1a7e a53b 5804 e13d e044 8abb 6405 f4bc
000002a0: a224 a8bc 2594 7aba 8a41 003b 7dc5 943c
000002b0: 1200 1bbd 9851 5cbc 5295 d4bd dd0a 50bd
000002c0: 25f4 1a3e db7b 7fbd 3bff fa3d 6c67 4e3d
000002d0: 2af3 dabd c146 98bd 4e6f a33c 1794 18bd
000002e0: 58ed 8a3d ccc9 aebd 808b 513d 7a05 863d
000002f0: 5224 853d e9af 85bd 9d92 8a3d 07cd 143e
00000300: 1dad f33c f56f aabd ece0 183c f75e a13c
00000310: 9d03 d5bd f2a7 6a3c b15d 9bbd af35 5f3d
00000320: 7e55 e83c 035e 5bbd 0a33 6e3b 88aa 7b3d
00000330: 732f ad3d 4f6b 203c c9d0 d5bd 4c21 cfbc
00000340: e4e4 bf3c 5793 f03c e5d1 a9ba 6d03 78bb
00000350: 3e20 52bd ecb7 973d 7c96 613d 436a 04bd
00000360: ec80 873d a26e 8dbc 1b31 e73c 2093 6c3d
00000370: cdea e6bd fe77 0b3d 891f 793d b1c2 56bd
00000380: 5901 043d a15e afba 2924 8f3c 198e 433d
00000390: 7643 8abd 0a95 8a3d 6c31 153e 286e 333d
000003a0: 040e 45bc af5c 043e 4290 b43d 0757 893d
000003b0: a642 5cbc 88bf a83c bedf ec3b 23ad 27bd
000003c0: c841 bcbd 2173 babd 4ab9 573d 6cd3 c6bd
000003d0: 094e bfbc 71c4 40bc 24df b8bd 7da4 4e3c
000003e0: 15eb 973c 11ed 8bbd 4f93 e03c af00 12bd
000003f0: 9821 67bd 6003 da3d 0353 a4bd 41c6 073d

actor.4.bias f4 [128]
-0.028445264 -0.059167616 0.05738575 -0.032814972 -0.03157449 0.07145278 -0.06233323 -0.035869837
0.026627572 -0.048630252 -0.056979664 -0.08081146 -0.090749875 -0.040465903 0.057097994 -0.0076368265
0.06403744 0.028683811 -0.080506064 -0.04179632 -0.05335712 0.004070044 -0.013761435 0.043179385
0.016206115 -0.034072474 -0.004716144 0.015303036 -0.041151285 0.084232315 0.00096461107 0.021192119
-0.028736398 0.032820527 -0.005574829 -0.023041142 0.053492207 -0.044313103 -0.062472954 -0.0024578017
-0.11734593 -0.09593658 -0.03553309 -0.106417336 -0.06503363 -0.0562236 0.052644648 -0.108474255
-0.015970755 0.041951522 -0.050008126 0.059655406 0.013763793 -0.04803301 0.014443866 -0.0028710668
-0.036208887 -0.07159349 -0.008023711 -0.056852635 0.015719801 -0.004703715 -0.065214165 -0.09872995
-0.0125919655 -0.028014502 -0.011371428 0.07460153 0.09894078 0.03193202 -0.053441938 -0.0067647225
0.0051153954 0.07429021 0.0077837007 -0.09707831 -0.034083877 -0.05954109 0.045937844 -0.06847088
-0.10383344 -0.033464074 0.018785387 0.023954868 -0.016755646 -0.0023104565 0.0071934797 0.0652372
-0.008179047 -0.1002493 0.06268547 0.039807167 -0.042110015 -0.12003259 -0.097121656 -0.044497672
-0.036812644 -0.055470407 -0.025149167 0.0573654 -0.04062828 -0.12317832 -0.22326493 -0.00020232562
-0.08643052 -0.0019633102 -0.06458996 0.053220317 0.064871535 -0.08049273 0.03726243 -0.14288913
-0.03525195 -0.12425895 0.024307018 0.08021655 -0.13692781 -0.13687557 -0.050453965 -0.013183658
0.067238525 0.068500206 0.080625154 0.037356004 0.03073732 -0.042000264 -0.08305747 0.012833353
00000000: 0b06 e9bc be59 72bd 520d 6b3d fe68 06bd
00000010: 4154 01bd d655 923d 2151 7fbd 40ec 12bd
00000020: 1122 da3c 8430 47bd 8263 69bd 7b80 a5bd
00000030: 12db b9bd 93bf 25bd 96df 693d 583e fabb
00000040: 1026 833d 50fa ea3c 5de0 a4bd 9e32 2bbd
00000050: ff8c 5abd 015e 853b a477 61bc dedc 303d
00000060: b0c2 843c 948f 0bbd e289 9abb 96b9 7a3c
00000070: 408e 28bd fe81 ac3d f4dd 7c3a 189b ad3c
00000080: 9868 ebbc d16e 063d 0ead b6bb c7c0 bcbc
00000090: a51a 5b3d a881 35bd a4e3 7fbd 1213 21bb
000000a0: 1053 f0bd 667a c4bd 258b 11bd 55f1 d9bd
000000b0: 5a30 85bd b84a 66bd eaa1 573d c027 debd
000000c0: 1ad5 82bc 5cd5 2b3d 52d5 4cbd 3a59 743d
000000d0: 8881 613c 43be 44bd f7a5 6c3c 8228 3cbb
000000e0: c54f 14bd 9c9f 92bd e275 03bc 4fde 68bd
000000f0: d0c6 803c 9f21 9abb 018f 85bd ee32 cabd
00000100: 884e 4ebc ab7e e5bc 3a4f 3abc b0c8 983d
00000110: 77a1 ca3d 26cb 023d efe5 5abd 9baa ddbb
00000120: 0c9f a73b 7725 983d 6a0e ff3b fed0 c6bd
00000130: 899b 0bbd 5ce1 73bd 5229 3c3d 763a 8cbd
00000140: a0a6 d4bd a011 09bd d0e3 993c 003d c43c
00000150: 2343 89bc 076b 17bb 48b7 eb3b 159b 853d
00000160: 6901 06bc 814f cdbd 3d61 803d d70c 233d
00000170: 8d7b 2cbd a6d3 f5bd b8e7 c6bd 3143 36bd
00000180: dbc8 16bd f034 63bd a005 cebc fbf7 6a3d
00000190: d769 26bd ea44 fcbd 909f 64be 5f27 54b9
000001a0: 7c02 b1bd e1aa 00bb be47 84bd 8cfd 593d
000001b0: 5edb 843d 5fd9 a4bd 7da0 183d 8751 12be
000001c0: 5964 10bd 7a7b febd 831f c73c 9348 a43d
000001d0: ce36 0cbe 1c29 0cbe d1a8 4ebd 4500 58bc
000001e0: 5ab4 893d d649 8c3d cd1e a53d 9c02 193d
000001f0: d5cc fb3c 7808 2cbd 091a aabd fc42 523c

actor.6.weight f4 [8, 128]
0.022610687 0.036937486 0.018651174 0.029748304 -0.0026505243 -0.0061898017 0.032748062 -0.0059929984
-0.026724521 -0.003143768 0.025246121 0.021507949 -0.01825199 0.0074871304 0.0035714048 -0.03208765
-0.0050461013 -0.013226319 -0.009722504 -0.01891107 0.0014354279 0.0115945535 -0.011888122 -0.0035729967
-0.016162848 -0.059412785 -0.0052582454 -0.009838466 -0.01765951 -0.0024140275 0.0035026183 -0.043679938
-0.009777326 0.016066656 -0.006836881 -0.0041988394 -0.041341264 0.040141206 -0.034947567 -0.028311947
0.013823951 0.017411236 -0.038853176 -0.0011467134 -0.022731682 -0.0011767555 0.024861945 -0.012372424
0.015443297 0.015376928 0.015014622 -0.001746368 0.0050963745 -0.026428098 0.024329126 0.01173668
-0.012404099 -0.0021509444 0.0017810921 0.023226708 -0.042937417 0.0007440312 0.048075475 -0.009986392
-0.001818225 0.013136709 -0.017581223 -0.019015124 -0.0029110971 -0.0075152707 -0.00015913422 -0.013774489
0.008249371 -0.01078613 -0.008956801 -0.0005559304 0.0049626282 0.010329778 -0.0016934368 0.0030555837
0.012891082 0.015073678 0.018742822 0.009423261 -0.042289563 0.010707451 -0.0075542424 -0.007658901
-0.02093595 0.013015015 0.013893636 -0.012031758 -0.0842695 0.0003978498 0.0007961407 -0.005062184
0.011660943 0.023135759 -0.01240725 -0.011495855 -0.016559795 -0.011538014 0.018117905 -0.04177636
0.0072273603 -0.0062821256 -0.0065872106 -0.045291882 -0.0010061967 -0.022520335 -0.04376164 0.00029793964
0.023476489 0.038569823 0.014929232 0.0033533901 0.04221735 0.043466583 -0.0034479517 0.026853476
-0.008102162 0.016493673 -0.018558409 -0.017483378 0.009098121 -0.026411708 0.02180339 -0.032349914
0.006017874 -0.022555886 0.03218953 0.03746051 -0.0025984216 0.025974585 0.023698326 -0.0087025
0.005844078 0.012791132 0.002911064 0.005342734 -0.01934769 0.017822295 0.0042281286 0.03701247
-0.017357584 0.010490817 -0.025437284 -0.02554479 0.001236338 -0.03849071 -0.008984827 0.019346656
-0.021587387 -0.004672059 -0.006286646 -0.0011913165 -0.038432613 -0.00029038146 -0.0057764803 0.051083215
-0.030320479 0.0023440826 0.0036378554 -0.0031941647 0.0015403791 -0.038954567 -0.017574342 -0.03614278
-0.029776357 -0.023934556 0.037242938 0.009254597 -0.030578392 -0.017233687 0.017328832 -0.029631644
0.009985732 -0.015661128 -0.0035704228 0.008785187 0.021252424 0.016080203 0.049066156 -0.0052215946
-0.0044484544 -0.029408231 -0.00690479 -0.005916238 0.005474919 -0.008444969 0.02547553 -0.023065882
0.015761403 -0.00072437635 -0.008401574 0.003428852 0.006534704 0.020596849 0.011469745 0.0079481285
0.0029172525 0.014434222 -0.007196045 -0.012227496 0.027804188 0.02395902 0.00639597 0.0072297496
-0.014724241 -0.006362612 -0.011319682 0.010465695 -0.024127968 0.0063947747 -0.018995587 0.0018506252
-0.027256701 -0.015048615 0.0057683773 0.0012237019 0.014773919 -0.010819334 -0.0074754716 -0.016451107
-0.0022598372 -3.3594548e-05 0.05884789 0.044403747 0.013794277 0.012858087 0.005427021 -0.021681163
-0.0064558033 -0.01379404 0.0027525264 0.0049320194 0.016933057 0.00614116 0.015251614 0.0031430228
0.026036918 -0.0047538118 -0.024447937 -0.014585174 -0.023628427 -0.01916044 0.02712178 -0.01695033
0.02856337 0.01976324 0.008613517 -0.008275936 -0.00043951222 0.013346459 0.04924428 -0.0114900805
00000000: 0c3a b93c c34b 173d 59ca 983c b7b2 f33c
00000010: 6bb4 2dbb d2d3 cabb d522 063d ea60 c4bb
00000020: 62ed dabc ad07 4ebb f4d0 ce3c 7031 b03c
00000030: 3385 95bc 9a56 f53b 3b0e 6a3b 576e 03bd
00000040: c459 a5bb 34b3 58bc 234b 1fbc 63eb 9abc
00000050: f824 bc3a 15f7 3d3c 66c6 42bc f028 6abb
00000060: f367 84bc d25a 73bd 5c4d acbb 8431 21bc
00000070: adaa 90bc a934 1ebb 2f8c 653b bce9 32bd
00000080: 1431 20bc 389e 833c ea07 e0bb 6b96 89bb
00000090: 7555 29bd 1b6b 243d 2e25 0fbd 75ee e7bc
000000a0: da7d 623c 02a2 8e3c 8224 1fbd 514d 96ba
000000b0: cb37 babc 5d3d 9aba 47ab cb3c b5b5 4abc
000000c0: e205 7d3c 83ef 7b3c e4ff 753c 63e6 e4ba
000000d0: 7dff a63b bd7f d8bc e04d c73c 344b 403c
000000e0: 903a 4bbc dcf6 0cbb 8973 e93a f045 be3c
000000f0: 25df 2fbd 170b 433a caea 443d f79d 23bc
00000100: 8251 eeba 5a3b 573c 7f06 90bc 9bc5 9bbc
00000110: 1bc8 3ebb a942 f6bb 44dd 26b9 65ae 61bc
00000120: 5f28 073c 4fb8 30bc 8cbf 12bc dcbb 11ba
00000130: 8b9d a23b 3b3e 293c 4ff6 ddba 3040 483b
00000140: 1e35 533c 97f7 763c 8c8a 993c 0564 1a3c
00000150: d237 2dbd 4e6e 2f3c 9489 f7bb 85f7 fabb
00000160: df81 abbc ee3c 553c 22a2 633c da20 45bc
00000170: 7d95 acbd 7f96 d039 19b4 503a ade0 a5bb
00000180: 8a0d 3f3c 3487 bd3c c747 4bbc 1c59 3cbc
00000190: 68a8 87bc f009 3dbc 006c 943c b01d 2bbd
000001a0: 7ed3 ec3b 4ada cdbb 87d9 d7bb fb83 39bd
000001b0: 5ce2 83ba 917c b8bc 683f 33bd c834 9c39
000001c0: c451 c03c 64fb 1d3d bd99 743c 8dc4 5b3b
000001d0: 1aec 2c3d 040a 323d 08f7 61bb d2fb db3c
000001e0: eebe 04bc bd1d 873c ce07 98bc 4d39 8fbc
000001f0: 4910 153c 5e5d d8bc 069d b23c 5881 04bd
00000200: 9631 c53b 1fc7 b8bc 2bd9 033d 3170 193d
00000210: 484a 2abb a7c8 d43c fe22 c23c ee94 0ebc
00000220: ae7f bf3b e591 513c 8dc7 3e3b 1a12 af3b
00000230: 0c7f 9ebc 1000 923c 1d8c 8a3b 639a 173d
00000240: 7e31 8ebc ade1 2b3c da61 d0bc 4f43 d1bc
00000250: 9f0c a23a 6fa8 1dbd 1935 13bc e17c 9e3c
00000260: 08d8 b0bc 1218 99bb 3500 cebb f325 9cba
00000270: 846b 1dbd 573e 98b9 a148 bdbb a23c 513d
00000280: a762 f8bc 2e9f 193b 1669 6e3b 3155 51bb
00000290: 8ce6 c93a d38e 1fbd 11f8 8fbc 740a 14bd
000002a0: 8ced f3bc 6712 c4bc 0d8c 183d 98a0 173c
000002b0: 897f fabc a92d 8dbc 32f5 8d3c 10be f2bc
000002c0: 329b 233c c44b 80bc c1fd 69bb bfef 0f3c
000002d0: 9019 ae3c a1ba 833c 98f9 483d e919 abbb
000002e0: 57c4 91bb 88e9 f0bc 9441 e2bb 00dd c1bb
000002f0: f366 b33b c45c 0abc 0fb2 d03c a9f4 bcbc
00000300: 0f1e 813c 13e4 3dba c1a6 09bc 97b6 603b
00000310: 1221 d63b b9ba a83c 99eb 3b3c de38 023c
00000320: 602f 3f3b 847d 6c3c cdcc ebbb d655 48bc
00000330: 9cc5 e33c b545 c43c 4995 d13b 89e7 ec3b
00000340: f13d 71bc 757d d0bb 3076 39bc 4e78 2b3c
00000350: 04a8 c5bc 428b d13b a29c 9bbc ad90 f23a
00000360: 7249 dfbc 778e 76bc a804 bd3b 9f64 a03a
00000370: 4f0e 723c 9343 31bc cdf4 f4bb 79c4 86bc
00000380: c719 14bb dfe7 0cb8 7c0a 713d b4e0 353d
00000390: 6401 623c baaa 523c 27d5 b13b b29c b1bc
000003a0: 348b d3bb 6600 62bc bb63 343b c79c a13b
000003b0: 32b7 8a3c c93b c93b e8e1 793c 2cfb 4d3b
000003c0: 604b d53c ddc5 9bbb 0a47 c8bc a7f6 6ebc
000003d0: 6790 c1bc 5bf6 9cbc 7f2e de3c 6bdb 8abc
000003e0: bbfd e93c 85e6 a13c b51f 0d3c cb97 07bc
000003f0: 556e e6b9 1bab 5a3c 5fb4 493d e440 3cbc

actor.6.bias f4 [8]
0.03285135 -0.008376821 -0.0057727327 0.021549432 0.040104523 -0.032424286 0.022465417 0.0058128145
00000000: 238f 063d ef3e 09bc 3129 bdbb 6f88 b03c
00000010: a444 243d 54cf 04bd 6509 b83c 6c79 be3b

critic.0.weight f4 [128, 31]
0.06441072 0.11403692 -0.021601973 -0.08222744 0.0578765 -0.020499002 0.09310261 -0.03397763
0.11583862 1.1216075 0.3110397 0.13292557 -0.09051229 0.17630322 0.036254793 -0.036451966
0.05499956 -0.02568708 0.1337721 -0.09288342 0.073768124 0.028538615 0.04919189 0.08078861
0.12841964 0.09991127 0.081485175 0.13043329 -0.07093955 -0.17147753 -0.16371675 0.039782953
0.057692584 -0.30189586 0.048820037 0.001192687 -0.04811476 0.14752775 -0.09181568 0.13159113
1.6005149 -1.756815 0.14883615 0.044162672 -0.09486833 -0.0120457485 -0.018301355 0.01177527
-0.0061456803 -0.0037285527 -0.0063751107 -0.011570775 0.029979503 0.01796955 0.07229387 -0.04563548
0.098338805 0.020535452 0.03301382 0.14381461 -0.17192012 0.019781481 0.121636614 0.020402493
2.5194662 0.323505 0.13722758 0.16105437 0.18478575 -0.3692855 -0.12615359 -1.412611
1.5876364 -0.23606756 0.22320542 0.21368472 -0.30688307 -0.029895995 0.1319268 0.005100844
0.051120672 0.008954844 -0.012840826 0.016587835 0.021484155 -0.09288989 0.1740763 -0.01131614
-0.21379969 -0.04792179 0.17219572 -0.29082793 -0.17827155 0.06791064 0.026078135 -0.16706295
-0.03440458 -0.0854084 -0.15190305 0.17259979 -0.04930718 0.20254998 -1.0997573 0.4883997
-0.032335956 -0.16059607 0.046344414 0.14697579 -0.062222056 0.042758767 0.07643097 -0.12909977
0.09736247 0.08692505 -0.04659193 0.10802872 0.09891904 -0.0015301884 -0.07900229 -0.10205381
-0.030258471 0.042689357 0.0006572323 -0.10275856 0.15677433 -0.13315605 1.519335 -0.14405979
0.17019968 -0.025736418 0.049985223 -0.085916705 -0.1556122 -0.81219083 1.1824604 -0.16940245
0.20094159 0.33909914 -0.12391959 0.11901039 0.029045904 0.029939665 0.1079102 0.048495978
0.05893457 -0.07906809 -0.009095805 0.14757587 0.1248477 0.012846756 0.091464266 0.054338273
-0.16719835 0.055915322 0.108624995 0.031874847 -0.06635322 3.5061727 0.04743257 0.044187073
-0.22442971 -0.22095618 -0.28405467 0.08252394 0.38304198 0.8132984 -0.10002516 0.822173
0.93972933 -0.51031864 0.03467604 0.10671301 0.11646588 0.0044886977 -0.017034478 -0.002874382
0.005086044 -0.020855816 -0.1396236 0.05441205 0.0059178392 -0.2075559 0.07998265 -0.12464705
-0.046395652 0.022971336 0.086062886 0.021048976 -0.1372326 -0.12717018 -0.06316291 -0.03272387
-0.01987381 0.060312144 0.23769853 1.155199 -0.9481903 0.15825695 -0.049856864 -0.0924536
0.075127244 0.042969894 -0.06150408 -0.060831875 0.14290391 -0.07176953 -0.05471583 0.023614146
-0.08863333 -0.081061184 -0.050601475 -0.13155192 -0.09920117 0.03981152 -0.09084957 -0.13047685
0.15335378 -0.091242194 -0.10540063 0.09063943 -0.01013828 -0.033379138 0.090379946 0.09808396
-0.026340587 -0.22751616 1.6015035 0.70329106 0.15766147 0.10931856 -0.08454744 -0.18618932
0.044016838 0.024671597 0.04547785 0.03857986 0.013386915 -0.052238204 -0.023157666 -0.021572731
-0.14671104 0.10975634 -0.028935837 -0.14555512 0.056519922 0.2755106 0.12600894 -0.06931344
-0.063107096 -0.1892336 -0.0036170227 -0.0447257 -0.07204489 0.16948867 0.1129085 0.06487691
00000000: c4e9 833d 308c e93d 9ff6 b0bc dc66 a8bd
00000010: e90f 6d3d 86ed a7bc 95ac be3d 212c 0bbd
00000020: cc3c ed3d d690 8f3f 9840 9f3e a41d 083e
00000030: 825e b9bd d588 343e e87f 143d a84e 15bd
00000040: 3847 613d b66d d2bc 8efb 083e aa39 bebd
00000050: be13 973d d0c9 e93c 6f7d 493d 8074 a53d
00000060: 7080 033e 489e cc3d b3e1 a63d 4e90 053e
00000070: c148 91bd ce97 2fbe 5da5 27be 73f3 223d
00000080: 0f4f 6c3d 1892 9abe 85f7 473d ef53 9c3a
00000090: fc13 45bd 8411 173e dc09 bcbd d3bf 063e
000000a0: acdd cc3f 50df e0bf 8168 183e ebe3 343d
000000b0: 544a c2bd 885b 45bc b9ec 95bc 10ed 403c
000000c0: b461 c9bb bc5a 74bb 4ee6 d0bb 5993 3dbc
000000d0: 9397 f53c e134 933c cf0e 943d 45ec 3abd
000000e0: db65 c93d f739 a83c 8039 073d 2344 133e
000000f0: d40b 30be c60c a23c 9e1c f93d 2123 a73c
00000100: ef3e 2140 73a2 a53e 6385 0c3e 70eb 243e
00000110: 7a38 3d3e fd12 bdbe 682e 01be 70d0 b4bf
00000120: ab37 cb3f b2bb 71be f68f 643e 2bd0 5a3e
00000130: c71f 9dbe 72e8 f4bc d217 073e fb24 a73b
00000140: e963 513d 57b7 123c 5462 52bc 36e3 873c
00000150: 8aff af3c 0e3d bebd 0f41 323e 5567 39bc
00000160: 4eee 5abe a449 44bd 1354 303e 66e7 94be
00000170: d18c 36be bc14 8b3d d0a1 d53c 8d12 2bbe
00000180: d1eb 0cbd 99ea aebd 798c 1bbe 00be 303e
00000190: 53f6 49bd 4369 4f3e d9c4 8cbf 870f fa3e
000001a0: b572 04bd 4c73 24be a4d3 3d3d d280 163e
000001b0: 8edc 7ebd d123 2f3d d787 9c3d bb32 04be
000001c0: fa65 c73d c305 b23d 2ed7 3ebd 293e dd3d
000001d0: 1196 ca3d 9a90 c8ba f4cb a1bd 9701 d1bd
000001e0: 9de0 f7bc 09db 2e3d 1d4a 2c3a 1473 d2bd
000001f0: 7389 203e 0f5a 08be 9279 c23f 6984 13be
00000200: d348 2e3e 2ed5 d2bc 4ebd 4c3d 19f5 afbd
00000210: ce58 1fbe bdeb 4fbf dd5a 973f d677 2dbe
00000220: a2c3 4d3e 679e ad3e 8ec9 fdbd b8bb f33d
00000230: adf1 ed3c 0744 f53c 0600 dd3d b8a3 463d
00000240: 6065 713d 73ee a1bd 9206 15bc 211e 173e
00000250: 27b0 ff3d 337b 523c 9e51 bb3d cf91 5e3d
00000260: 0b36 2bbe 7707 653d c876 de3d 338f 023d
00000270: 32e4 87bd 2265 6040 a848 423d 81fd 343d
00000280: e7d0 65be 5642 62be 9d6f 91be 5002 a93d
00000290: 141e c43e 5334 503f fed9 ccbd ee79 523f
000002a0: 1a92 703f 3ea4 02bf 7708 0e3d 5a8c da3d
000002b0: aa85 ee3d ed15 933b e48b 8bbc 2160 3cbb
000002c0: d4a8 a63b d1d9 aabc 7df9 0ebe 2bdf 5e3d
000002d0: 6fea c13b 8989 54be f2cd a33d f446 ffbd
000002e0: 5e09 3ebd 622e bc3c bd41 b03d e76e ac3c
000002f0: b486 0cbe e638 02be 8e5b 81bd 7709 06bd
00000300: 66ce a2bc de09 773d 3e67 733e 90dd 933f
00000310: 99bc 72bf 1c0e 223e b636 4cbd 5058 bdbd
00000320: 50dc 993d 3301 303d b4eb 7bbd d82a 79bd
00000330: 6755 123e e7fb 92bd b51d 60bd 7472 c13c
00000340: 6485 b5bd 6803 a6bd 7e43 4fbd 8cb5 06be
00000350: fc29 cbbd 6811 233d 570f babd b99b 05be
00000360: c608 1d3e 30dd babd 49dc d7bd 2aa1 b93d
00000370: 071b 26bc 90b8 08bd 1f19 b93d 3ee0 c83d
00000380: 37c8 d7bc fff9 68be 11fe cc3f e20a 343f
00000390: 0272 213e 69e2 df3d 3527 adbd 6aa8 3ebe
000003a0: 004b 343d 171c ca3c fb46 3a3d ea05 1e3d
000003b0: cb54 5b3c baf7 55bd 25b5 bdbc 4cb9 b0bc
000003c0: 6b3b 16be efc7 e03d d90a edbc 670c 15be
000003d0: 6f81 673d ba0f 8d3e 7d08 013e 34f4 8dbd
000003e0: 4b3e 81bd 74c6 41be 920b 6dbb 4c32 37bd
000003f0: 458c 93bd 708e 2d3e 923c e73d 2fde 843d

critic.0.bias f4 [128]
-0.19979973 -0.11428439 0.3595491 0.012579464 0.25855362 -0.21087337 -0.025795406 0.1450531
-0.14058365 -0.14063813 0.027738024 -0.21985008 -0.15532711 -0.10287479 0.028050035 -0.16051903
-0.1649507 -0.21900664 0.09303685 0.06566455 0.22187434 -0.0664263 -0.06270523 -0.27441075
-0.041911967 -0.15752472 0.025514517 -0.22673486 -0.18234272 0.00695191 0.073319644 0.16912809
-0.051173277 0.22964305 0.25643304 -0.21562049 -0.32318693 -0.050964527 -0.102375105 -0.33564866
-0.09213639 0.34669855 -0.14983441 -0.23882705 0.15533948 0.003711523 0.23829406 -0.25921136
-0.29397845 0.08952768 -0.023644688 -0.09279475 -0.18977565 0.1603862 -0.14114977 -0.21424527
-0.07144165 -0.073431924 0.08811585 -0.08010352 0.013070969 -0.10048173 -0.076515265 -0.15958959
-0.08526997 -0.15999094 -0.041752722 -0.07331262 -0.15579756 0.10625173 -0.25861838 0.2315904
0.0040116017 0.3207198 0.10928101 0.5400595 0.44468647 -0.0075163003 0.024204826 -0.012744884
0.09189473 -0.1951038 -0.08115499 -0.25121954 -0.473868 0.22001842 0.11758355 -0.17437844
0.13976656 0.25056756 -0.27226952 0.1809376 -0.27747667 -0.0056666266 -0.16904125 0.29219264
0.06505281 -0.11758678 -0.03624877 0.17242958 -0.15889382 -0.066863984 0.06200394 -0.09351607
0.1937679 -0.28948167 0.25936535 -0.09292301 0.07276692 0.025591955 -0.28890398 -0.014747352
-0.008073948 0.108444 -0.02710351 0.039622735 -0.06763876 0.11482843 -0.13764745 0.058777303
0.0055696517 0.05329154 0.09408605 -0.18918258 0.10331781 -0.18412705 0.06926939 -0.1281671
00000000: 4d98 4cbe ef0d eabd d216 b83e 191a 4e3c
00000010: 2461 843e 30ef 57be e350 d3bc cd88 143e
00000020: 29f5 0fbe 7103 10be da3a e33c 6120 61be
00000030: 120e 1fbe 05b0 d2bd 30c9 e53c 1a5f 24be
00000040: d6e8 28be 4743 60be 1b8a be3d 237b 863d
00000050: 0733 633e 830a 88bd 9a6b 80bd 917f 8cbe
00000060: e2ab 2bbd 294e 21be d203 d13c 2f2d 68be
00000070: 0db8 3abe d9cc e33b 9c28 963d ea2f 2d3e
00000080: 129b 51bd 8c27 6b3e 314b 833e 9ecb 5cbe
00000090: c278 a5be 2ec0 50bd 0aaa d1bd 24da abbe
000000a0: 01b2 bcbd 7982 b13e 316e 19be 148f 74be
000000b0: 5011 1f3e 063d 733b 5c03 743e 5ab7 84be
000000c0: 5884 96be 4a5a b73d 81b2 c1bc 2d0b bebd
000000d0: 8c54 42be 483c 243e 9189 10be 1d63 5bbe
000000e0: 0050 92bd 7a63 96bd 1576 b43d 500d a4bd
000000f0: 9e27 563c 5ec9 cdbd 09b4 9cbd 746b 23be
00000100: 06a2 aebd aad4 23be e704 2bbd ed24 96bd
00000110: 6589 1fbe 829a d93d a169 84be 0926 6d3e
00000120: c173 833b 6335 a43e b9ce df3d 5741 0a3f
00000130: f2ad e33e 4c4b f6bb 3349 c63c ebcf 50bc
00000140: 4e33 bc3d 4ac9 47be 9634 a6bd d99f 80be
00000150: d49e f2be 824c 613e a5cf f03d 4390 32be
00000160: f71e 0f3e 644a 803e e966 8bbe b547 393e
00000170: 6c11 8ebe 1caf b9bb 2619 2dbe 469a 953e
00000180: 683a 853d 56d1 f0bd 9779 14bd 6191 303e
00000190: 10b5 22be fcef 88bd d8f7 7d3d 5a85 bfbd
000001a0: 186b 463e f136 94be 89cb 843e 6b4e bebd
000001b0: d306 953d 38a6 d13c 39eb 93be e19e 71bc
000001c0: 9848 04bc e317 de3d 2e08 debc 734b 223d
000001d0: 3186 8abd 2b2b eb3d 74f3 0cbe 78c0 703d
000001e0: a081 b63b 3b48 5a3d 30b0 c03d 14b9 41be
000001f0: 4a98 d33d cd8b 3cbe 1cdd 8d3d 3c3e 03be
