ISAAC_NOGIT/logs/rsl_rl/traquad_flat/2025-09-16_11-47-01/model_250.pt (torch, 925483 bytes, 48 tensors)

std f4 [8]
0.29262355 0.22429784 0.16177528 0.2718216 0.59656703 0.63816494 0.47487685 0.71070284
00000000: c1d2 953e 55ae 653e 6ba8 253e 332c 8b3e
00000010: 9eb8 183f c75e 233f 0f23 f33e 9ff0 353f

actor.0.weight f4 [128, 31]
-0.46901152 -0.038053688 0.082141474 0.39714164 -0.18159357 0.104377225 0.06602979 0.14538905
0.08620007 0.79775304 -0.062000293 -0.34813318 -0.00935504 0.043902725 -0.07318741 0.08387317
0.16774912 0.13265592 0.15572116 0.09671353 -0.03062574 -0.113542184 -0.147809 -0.009595141
0.5105912 -0.0068472717 0.13644788 0.032741748 0.041302018 -0.09297434 -0.14568849 -0.37140155
-0.18116446 -0.2877054 0.022516958 0.023509508 0.18943621 0.55274796 0.12096978 0.25061655
0.1985259 -0.170503 -0.58786637 0.21729696 0.5073009 -0.3766728 -0.009488488 0.16383132
-0.047125798 -0.122857116 -0.01900091 0.02234877 -0.0053866487 0.12803927 0.12726143 0.10682064
0.114073895 -0.03750591 -0.09684274 -0.2681952 0.079034954 -0.089300394 0.014084024 0.038562898
-0.24133985 0.20114262 0.0868545 -0.18337375 0.12803501 -0.28024936 -0.22837737 -0.09837055
-0.57061154 0.22529903 -0.4718915 -0.47667181 0.14119911 -0.11475793 0.10824283 0.32920915
0.13488606 -0.0084181065 0.07508535 0.08125351 -0.049649876 0.058356073 0.14591615 -0.1980612
0.23191103 0.0998334 -0.15924636 -0.19467601 0.20835297 -0.10689547 -0.5816126 0.6624893
0.16966309 -0.21179037 -0.15635677 -0.050686307 -0.274036 0.09211722 -0.8474579 -0.06672831
-0.23369855 -0.49931854 0.062010117 -0.012580327 0.22675003 0.11843836 9.7194796e-05 0.21600637
0.067957245 0.083872624 -0.16928147 0.1033802 -0.013414759 0.06666351 0.18650514 0.2439785
0.082286924 -0.21724714 0.2521044 -0.053359803 0.414267 -0.20383309 -1.0796044 -0.089538775
0.2579939 -0.096551694 0.1148693 0.031409692 -0.036717378 -0.16328427 -0.25231665 0.13494079
0.36711007 -0.11201705 0.030066483 0.15015826 0.19964546 -0.16384856 -0.020260843 0.03406768
0.02604135 0.031292345 -0.0033751195 0.042231664 0.014997441 0.03695552 -0.0956547 0.1405361
0.102803186 -0.085425735 0.13768604 0.1756786 -0.15014367 0.41739085 -0.12883645 0.0046904734
0.15379484 -0.11732827 0.13829538 -0.43627352 0.13894868 -0.09841266 0.2452739 0.34300405
-0.05272259 0.23357151 -0.11383005 -0.14814818 0.015012463 0.1731916 0.1332403 0.09356924
-0.12067632 0.020693418 0.10861652 -0.22287367 0.013175178 0.034970924 -0.22242391 -0.020412115
0.19284272 -0.060861982 -0.56602955 -0.03111019 -0.9500623 0.11025197 0.25913325 -0.10533468
0.45880142 -0.31535575 0.22569884 0.054347854 0.24827944 -0.002279789 0.045306895 0.43373016
-0.23803899 -0.06176365 -0.102092154 -0.027805418 0.020830672 -0.0029111712 -0.009404413 -0.0067986674
0.011065381 -0.11488329 -0.16429581 -0.13530314 0.06859716 -0.17910555 0.0038927456 0.07537593
-0.25460708 0.48520073 -0.4341747 0.12967749 -0.14880979 -0.08701911 -0.30479574 -0.31607506
0.35092854 -0.067515016 0.58110505 0.072576284 0.16022909 0.3296859 -0.36551163 0.09004563
0.05866601 -0.08753957 0.18099792 0.20410115 -0.02891278 0.003674382 -0.05548647 -0.07229533
0.40618703 -0.34633625 0.14270222 0.2118906 0.17252672 0.08049848 -0.08277981 0.26490718
0.6005235 -0.13746718 0.9355424 -0.15886436 0.048080776 -0.02538477 -0.50558496 -0.038482893
00000000: 4722 f0be 2fde 1bbd ca39 a83d 2656 cb3e
00000010: aaf3 39be bac3 d53d a03a 873d dee0 143e
00000020: aa89 b03d 8b39 4c3f 05f4 7dbd 833e b2be
00000030: e245 19bc 58d3 333d 48e3 95bd b2c5 ab3d
00000040: 6dc6 2b3e f4d6 073e 5e75 1f3e be11 c63d
00000050: d5e2 fabc ce88 e8bd 3e5b 17be f034 1dbc
00000060: 1bb6 023f 145f e0bb feb8 0b3e 361c 063d
00000070: 4e2c 293d 5569 bebd 5d2f 15be 5828 bebe
00000080: 2d83 39be 1f4e 93be 7c75 b83c 0397 c03c
00000090: 91fb 413e e480 0d3f 01bf f73d d050 803e
000000a0: 604a 4b3e 5798 2ebe 697e 16bf 1883 5e3e
000000b0: 79de 013f 42db c0be 9a75 1bbc 66c3 273e
000000c0: fb06 41bd 839c fbbd cca7 9bbc c514 b73c
000000d0: 7c82 b0bb ba1c 033e d250 023e c8c4 da3d
000000e0: 939f e93d cc9f 19bd 7d55 c6bd e250 89be
000000f0: 14dd a13d 20e3 b6bd aec0 663c 21f4 1d3d
00000100: cb21 77be 55f8 4d3e c6e0 b13d 54c6 3bbe
00000110: 9c1b 033e d87c 8fbe c2db 69be 8076 c9bd
00000120: 9913 12bf cab4 663e c39b f1be 540e f4be
00000130: 8096 103e 3506 ebbd 6bae dd3d 1a8e a83e
00000140: 921f 0a3e 19ec 09bc 59c6 993d 3e68 a63d
00000150: ab5d 4bbd c706 6f3d 0b6b 153e 8ed0 4abe
00000160: 167a 6d3e 7475 cc3d 7a11 23be 2659 47be
00000170: 7b5a 553e 03ec dabd 90e4 14bf e698 293f
00000180: 29bc 2d3e 93df 58be fd1b 20be 729c 4fbd
00000190: 724e 8cbe f4a7 bc3d 00f3 58bf daa8 88bd
000001a0: ac4e 6fbe aea6 ffbe 52fe 7d3d b71d 4ebc
000001b0: 2931 683e d08f f23d 0fd5 cb38 c630 5d3e
000001c0: 2b2d 8b3d 69c5 ab3d 1f58 2dbe 00b9 d33d
000001d0: 94c9 5bbc e186 883d 34fb 3e3e 80d5 793e
000001e0: 0c86 a83d 0976 5ebe d413 813e cf8f 5abd
000001f0: ce1a d43e 9fb9 50be 7a30 8abf 1b60 b7bd
00000200: c717 843e e5bc c5bd 9840 eb3d 73a7 003d
00000210: f664 16bd fe33 27be a62f 81be eb2d 0a3e
00000220: daf5 bb3e 3269 e5bd fc4d f63c 16c3 193e
00000230: dc6f 4c3e ebc7 27be 11fa a5bc 8d8a 0b3d
00000240: ab54 d53c 672c 003d 1c31 5dbb 1cfb 2c3d
00000250: d4b7 753c ac5e 173d 9de6 c3bd b2e8 0f3e
00000260: 7a8a d23d b0f3 aebd 92fd 0c3e 17e5 333e
00000270: 43bf 19be 41b4 d53e b4ed 03be 8bb2 993b
00000280: 657c 1d3e ce49 f0bd 4e9d 0d3e 3e5f dfbe
00000290: 9048 0e3e 948c c9bd 1529 7b3e 3a9e af3e
000002a0: a4f3 57bd 5f2d 6f3e bb1f e9bd 28b4 17be
000002b0: d5f6 753c 2459 313e 2570 083e 3ba1 bf3d
000002c0: 2525 f7bd 3e85 a93c 5772 de3d ff38 64be
000002d0: b4dc 573c ac3d 0f3d 18c3 63be 4f37 a7bc
000002e0: 9078 453e 6a4a 79bd 50e7 10bf ccda febc
000002f0: 4837 73bf c9cb e13d 1dad 843e b5b9 d7bd
00000300: 05e8 ea3e 4f76 a1be 991d 673e db9b 5e3d
00000310: f73c 7e3e 8368 15bb b993 393d e111 de3e
00000320: 7ec0 73be e2fb 7cbd b115 d1bd 30c8 e3bc
00000330: 16a5 aa3c 59c9 3ebb f814 1abc 5bc7 debb
00000340: 924b 353c ee47 ebbd 293d 28be e88c 0abe
00000350: ab7c 8c3d 7267 37be 6f1d 7f3b b25e 9a3d
00000360: dc5b 82be 3b6c f83e 254c debe 2dca 043e
00000370: 9861 18be 1337 b2bd 300e 9cbe 97d4 a1be
00000380: e8ac b33e 5045 8abd 4dc3 143f e0a2 943d
00000390: 1813 243e 97cc a83e 5724 bbbe d869 b83d
000003a0: c54b 703d f247 b3bd 8557 393e e4ff 503e
000003b0: 7fda ecbc e7cd 703b c845 63bd 930f 94bd
000003c0: bff7 cf3e fc52 b1be 8820 123e d9f9 583e
000003d0: d8aa 303e 63dc a43d 7688 a9bd eaa1 873e
000003e0: e8bb 193f 32c4 0cbe b57f 6f3f 57ad 22be
000003f0: 59f0 443d b9f3 cfbc 046e 01bf 3da0 1dbd

actor.0.bias f4 [128]
-0.066982314 -0.20679273 0.103383034 -0.069879115 -0.013737204 0.329036 -0.1567919 -0.021930644
-0.09224602 0.42307493 -0.24345502 0.053561427 -0.19831993 0.36773342 -0.20468114 0.16512592
0.25346234 0.2216199 -0.11467375 -0.05699729 0.34298664 0.027164705 -0.041975804 0.11699568
0.28868037 -0.015722813 0.11808213 0.030004306 -0.09512307 0.09341851 -0.21488026 -0.11952168
-0.21958329 0.11892964 0.0050954605 0.16345909 0.20892417 -0.16605678 0.34341985 0.37085852
0.22589311 -0.14483172 -0.11143579 -0.08313512 0.13159803 0.2963639 0.2034537 0.21400313
0.22189364 -0.21832243 0.12249154 -0.20357811 0.081274755 0.11468702 0.063402995 0.14403266
0.22436778 -0.03949372 -0.18037857 0.20907778 0.07112623 -0.23332721 -0.21058866 0.16151056
-0.111473255 -0.045475736 0.15827827 0.01256808 0.045972586 0.11714016 -0.08691427 -0.018832643
0.2203115 0.00041855083 -0.11715036 -0.05238178 0.15711653 -0.16957712 -0.14582317 0.23840223
0.018655194 -0.19413161 -0.07933476 0.20199527 -0.08863677 -0.2509645 0.11914331 -0.14089942
0.024506973 -0.21047285 0.049647678 -0.119859636 0.24096923 -0.0323107 0.1383733 -0.084142834
0.069741756 0.069311105 0.19999273 0.0020812724 0.2759392 0.22373518 -0.023037525 -0.019996038
0.06619793 0.21882045 -0.14387384 0.23256364 -0.23614046 0.096910916 -0.39702517 0.15714926
-0.075951554 0.029281603 -0.13880385 -0.0019792027 -0.22571357 0.1698372 -0.03140471 -0.21387772
0.31638378 0.21070105 0.052039176 -0.05896453 -0.056181543 0.14891188 0.013436387 0.0061201025
00000000: 062e 89bd 79c1 53be 7cba d33d c81c 8fbd
00000010: 0212 61bc 6877 a83e 0e8e 20be e5a7 b3bc
00000020: 7beb bcbd 479d d83e 464c 79be 3a63 5b3d
00000030: 6114 4bbe 8e47 bc3e ef97 51be c516 293e
00000040: d1c5 813e 54f0 623e 12da eabd fe75 69bd
00000050: f29b af3e 8488 de3c d2ee 2bbd 6e9b ef3d
00000060: eacd 933e 21cd 80bc 0bd5 f13d 97cb f53c
00000070: e2cf c2bd 3452 bf3d 9209 5cbe c8c7 f4bd
00000080: 71da 60be 6291 f33d d2f7 a63b d261 273e
00000090: 38f0 553e ca0a 2abe bad4 af3e 2be1 bd3e
000000a0: 8650 673e c44e 14be 7338 e4bd bf42 aabd
000000b0: a2c1 063e 02bd 973e 2b56 503e a323 5b3e
000000c0: 1638 633e ea8f 5fbe d8dc fa3d c876 50be
000000d0: 6173 a63d 07e1 ea3d 6ed9 813d 4c7d 133e
000000e0: abc0 653e 2bc4 21bd 29b5 38be 7c18 563e
000000f0: a1aa 913d 54ed 6ebe 8ea4 57be 0663 253e
00000100: 174c e4bd c444 3abd b313 223e 59ea 4d3c
00000110: c04d 3c3d 2ee7 ef3d 1c00 b2bd ea46 9abc
00000120: 5699 613e f170 db39 87ec efbd 478e 56bd
00000130: 28e3 203e a0a5 2dbe ab52 15be b71f 743e
00000140: c7d2 983c 70ca 46be 437a a2bd d9d7 4e3e
00000150: 3287 b5bd 6b7e 80be 6801 f43d f047 10be
00000160: d9c2 c83c 3286 57be 5d5b 4b3d f878 f5bd
00000170: a3c0 763e 3958 04bd bbb1 0d3e 1453 acbd
00000180: c4d4 8e3d fbf2 8d3d e5ca 4c3e f565 083b
00000190: e747 8d3e d61a 653e 31b9 bcbc bbce a3bc
000001a0: c892 873d 7812 603e aa53 13be 2a25 6e3e
000001b0: cece 71be 3b79 c63d e246 cbbe bceb 203e
000001c0: 7d8c 9bbd f9df ef3c 9922 0ebe 83b5 01bb
000001d0: 7521 67be cee9 2d3e 3aa2 00bd c302 5bbe
000001e0: 0efd a13e 04c2 573e 0827 553d ca84 71bd
000001f0: 9e1e 66bd 5b7c 183e 4b24 5c3c 248b c83b

actor.2.weight f4 [128, 128]
-0.08763129 -0.056871217 0.0077535193 -0.012235032 0.07827569 -0.103058234 -0.08231577 0.031300128
0.025234131 0.034539122 -0.04321913 -0.0039407695 0.030146558 -0.010072895 0.09226862 -0.07325012
0.011874432 -0.06819786 0.01189255 0.06318191 0.027982576 -0.028213887 0.050416123 -0.019752745
-0.012384748 -0.13502133 0.029943233 -0.015078241 -0.05221982 0.056431394 0.003917919 0.0038092872
-0.04129587 0.012903576 0.09200421 -0.098502204 0.009111175 -0.06676116 -0.081657276 -0.088459805
0.07361864 -0.016911684 0.06510472 0.049947523 0.052997246 0.06269671 0.0035166056 0.041823737
0.02169469 0.0022380548 -0.111649506 -0.03350471 0.041498914 -0.04902191 -0.015778484 0.040049855
0.068685465 -0.020440435 0.027014416 -0.02111123 -0.0718432 0.08912612 0.054335825 0.012509314
-0.053992383 0.066498406 -0.01325979 -0.05833209 -0.019735146 -0.084971175 -0.08038747 -0.045492265
-0.049224127 0.0105724735 0.009508893 -0.023920497 -0.06784957 -0.03360734 -0.09539839 0.015864525
-0.06865625 0.043813277 0.01780358 0.08206427 0.06274649 0.077920504 -0.019824043 -0.010597627
0.031647142 -0.021029016 -0.094505735 0.043120883 0.005581587 0.034673713 -0.011637319 0.059350785
-0.0331256 -0.010224432 -0.07460635 -0.020688945 -0.06748611 -0.0433061 0.05952268 0.0068268743
-0.09051038 0.053260747 -0.021583747 -0.0075375848 -0.008337565 -0.08121138 0.06605564 -0.09662541
0.08536649 0.08745724 -0.061826617 0.023495821 -0.013861898 -0.086777836 -0.02780337 0.04128234
-0.001647209 -0.06676553 -0.0592629 0.051214244 -0.08699034 -0.055637196 -0.09528925 -0.07921895
-0.09602005 -0.18860745 0.07816169 0.023295488 0.087327376 0.07338809 -0.06654652 0.016708655
0.09630108 0.06264591 0.028118264 -0.052931886 -0.07592853 -0.010951249 -0.11757268 0.0593461
-0.13755237 -0.01872439 -0.09619939 0.05427024 0.09848322 0.0050500603 0.10600009 -0.0014057856
-0.04276636 -0.07187319 0.06857594 0.020913925 0.06112525 -0.072864965 -0.062032893 -0.036779046
0.051233962 -0.036448367 0.08975664 -0.026428938 0.010282436 -0.10003859 0.0035298814 0.0956487
0.062142152 -0.11729458 -0.0008633081 0.03693841 0.043372996 -0.07153008 0.07645806 -0.08004926
0.011955287 0.073726244 -0.006201839 -0.10400248 -0.025131376 -0.070951045 -0.021896286 -0.002326741
-0.03018659 -0.010886886 -0.08567404 -0.075719096 -0.0327352 0.0428538 0.09077979 -0.16800746
-0.01587528 -0.014696953 0.08010056 0.048834126 -0.08536821 -0.023913078 -0.06428869 0.00035497348
0.018068466 -0.013410246 -0.10093173 0.006257761 -0.008051514 -0.025766186 -0.021229733 -0.09594334
-0.02194188 -0.024081202 0.013527029 0.027720444 0.019355403 0.048500195 -0.0031059615 0.01375774
0.010698048 0.017669093 0.002923788 0.032142494 0.018919438 -0.05853929 0.069018416 0.066794045
-0.099224694 -0.056241777 0.031801738 0.08334624 -0.08306438 -0.052789826 -0.121621795 -0.039194204
0.00806034 0.0262096 -0.02875426 0.022943048 -0.045475766 0.06955189 -0.082601465 -0.097540274
0.08717973 -0.06337346 0.09266462 -0.09825922 0.051477626 0.048960354 0.036531154 0.023009013
0.03908932 -0.061863504 0.03732472 -0.06940367 -0.124578536 0.06067682 -0.08559416 -0.074812464
00000000: 0978 b3bd cbf1 68bd 3c11 fe3b 7275 48bc
00000010: 014f a03d 3210 d3bd 2c95 a8bd 9034 003d
00000020: cfb7 ce3c e578 0d3d 8b06 31bd 9221 81bb
00000030: eaf5 f63c c908 25bc 55f7 bc3d 2904 96bd
00000040: fa8c 423c 52ab 8bbd f8d8 423c 8465 813d
00000050: b73b e53c cf20 e7bc 2381 4e3d 82d0 a1bc
00000060: 66e9 4abc 0843 0abe 834b f53c ba0a 77bc
00000070: 73e4 55bd 9b24 673d e361 803b 3ca5 793b
00000080: dc25 29bd 8569 533c b46c bc3d 86bb c9bd
00000090: 0a47 153c 13ba 88bd ee3b a7bd 6a2a b5bd
000000a0: 5fc5 963d 5f8a 8abc a055 853d c695 4c3d
000000b0: a413 593d 2267 803d da76 663b 5e4f 2b3d
000000c0: 10b9 b13c 54ac 123b 7fa8 e4bd 3c3c 09bd
000000d0: c4fa 293d 33cb 48bd e141 81bc 510b 243d
000000e0: f7aa 8c3d b372 a7bc 564d dd3c 75f1 acbc
000000f0: 8722 93bd c187 b63d 3e8f 5e3d def3 4c3c
00000100: 1e27 5dbd 5130 883d 973f 59bc a1ed 6ebd
00000110: 9aab a1bc 5e05 aebd 30a2 a4bd 1956 3abd
00000120: 3d9f 49bd 2b38 2d3c 30cb 1b3c ebf4 c3bc
00000130: b7f4 8abd daa7 09bd 3b60 c3bd 52f6 813c
00000140: a69b 8cbd 8d75 333d d0d8 913c 5011 a83d
00000150: 3b81 803d c994 9f3d 0866 a2bc aba1 2dbc
00000160: 6fa0 013d 0b45 acbc 398c c1bd 869f 303d
00000170: bfe5 b63b 0606 0e3d 74aa 3ebc cf19 733d
00000180: b6ae 07bd 6084 27bc 37cb 98bd dd7b a9bc
00000190: 2836 8abd bd61 31bd 0ece 733d f9b3 df3b
000001a0: 825d b9bd f127 5a3d 66d0 b0bc d8fd f6bb
000001b0: 489a 08bc 2752 a6bd 2e48 873d 8be3 c5bd
000001c0: a0d4 ae3d c81c b33d e83d 7dbd 4f7a c03c
000001d0: 041d 63bc 94b8 b1bd e5c3 e3bc ac17 293d
000001e0: 2ae7 d7ba 5ebc 88bd a8bd 72bd 07c6 513d
000001f0: fe27 b2bd d4e3 63bd 0327 c3bd 8b3d a2bd
00000200: 29a6 c4bd 5022 41be 3c13 a03d 2ed6 be3c
00000210: b2d8 b23d 7f4c 963d 8b49 88bd 97e0 883c
00000220: 8039 c53d 804c 803d 4658 e63c 1bcf 58bd
00000230: 6b80 9bbd de6c 33bc f2c9 f0bd e514 733d
00000240: 87da 0cbe e463 99bc 3004 c5bd 794a 5e3d
00000250: 92b1 c93d fa7a a53b 9316 d93d 5642 b8ba
00000260: c72b 2fbd 4032 93bd 8b71 8c3d ae53 ab3c
00000270: 785e 7a3d 3a3a 95bd 3416 7ebd a0a5 16bd
00000280: b4da 513d e24a 15bd 54d2 b73d 8081 d8bc
00000290: aa77 283c 08e1 ccbd 9555 673b 77e3 c33d
000002a0: c588 7e3d 2438 f0bd a04f 62ba bb4c 173d
000002b0: e2a7 313d 5d7e 92bd 0b96 9c3d def0 a3bd
000002c0: 1ce0 433c c9fd 963d cc38 cbbb 41ff d4bd
000002d0: 51e0 cdbc c84e 91bd d75f b3bc 3d7c 18bb
000002e0: de49 f7bc e95e 32bc df75 afbd 9d12 9bbd
000002f0: 5815 06bd 7787 2f3d c1ea b93d 260a 2cbe
00000300: e00c 82bc 7dcb 70bc c30b a43d 4b06 483d
00000310: 87d5 aebd 5ce5 c3bc caa9 83bd bc1b ba39
00000320: 5204 943c a6b6 5bbc 4bb5 cebd e70d cd3b
00000330: 7fea 03bc 9c13 d3bc fae9 adbc f17d c4bd
00000340: 75bf b3bc f145 c5bc 79a0 5d3c fc15 e33c
00000350: 398f 9e3c 24a8 463d 638d 4bbb 2568 613c
00000360: de46 2f3c c6be 903c 069d 3f3b d9a7 033d
00000370: f0fc 9a3c e5c6 6fbd 8759 8d3d 51cb 883d
00000380: 5136 cbbd c75d 66bd 8a42 023d 6fb1 aa3d
00000390: a81d aabd 253a 58bd d914 f9bd 1a8a 20bd
000003a0: 840f 043c 84b5 d63c 0e8e ebbc 0ff3 bb3c
000003b0: cc44 3abd 3971 8e3d f52a a9bd 32c3 c7bd
000003c0: 498b b23d f2c9 81bd f3c6 bd3d 213c c9bd
000003d0: 34da 523d a78a 483d b1a1 153d 667d bc3c
000003e0: 1f1c 203d 9664 7dbd cee1 183d 8323 8ebd
000003f0: 0823 ffbd 4288 783d fe4b afbd 4737 99bd

actor.2.bias f4 [128]
-0.010896232 -0.077807024 0.030790653 -0.018976469 -0.07126321 0.043440208 -0.029947864 -0.065770306
-0.21201423 -0.071911596 -0.09173551 -0.08876358 0.08124102 0.00826894 -0.23575224 -0.018245224
-0.08400708 0.008964022 0.011010844 0.1136059 -0.12688608 -0.17370717 -0.07748823 0.05055046
0.010529368 -0.14138019 -0.16096467 -0.07942471 0.012581079 -0.07898761 -0.031015681 0.1186521
-0.206473 -0.07469391 -0.41404092 -0.031060584 -0.12800825 -0.117107265 -0.13949355 0.07886593
0.113162816 -0.08970096 0.02983239 0.07648641 0.1097375 -0.14930983 -0.0469366 -0.07083142
-0.39504242 -0.058539454 0.1407999 -0.0965168 -0.13006544 0.011802534 -0.14486064 -0.26691818
0.07594336 0.016695699 -0.033895873 -0.14078076 -0.13531046 0.07379216 0.09780369 0.08056909
-0.06788727 -0.113292135 -0.06947194 -0.12224682 0.013015777 -0.11657063 -0.039774828 -0.25522703
-0.007056506 -0.15891169 0.12354719 0.04385355 -0.058395058 -0.20148766 -0.06839553 -0.08482748
0.013636094 -0.002153084 -0.040048923 0.0068811164 0.0053475024 -0.033577114 -0.13062532 -0.13431053
0.067620754 -0.16815034 0.055211026 0.08065455 -0.07887899 -0.20678027 -0.024345325 0.0131728975
-0.021978354 -0.26595205 0.08990048 0.03582212 -0.007822654 -0.16943717 -0.078885406 -0.11180124
-0.013571746 -0.09620348 -0.068648 0.16050245 -0.09442351 -0.08849015 -0.050312147 0.04531388
-0.11199737 0.027502846 0.11858469 -0.090082675 -0.094698645 0.031326372 -0.106343724 -0.12647982
-0.046844304 0.07626385 0.08154613 0.0006447338 -0.07619765 -0.031038009 -0.14764878 0.038301386
00000000: 1c86 32bc 4a59 9fbd ae3c fc3c 8a74 9bbc
00000010: 72f2 91bd 5cee 313d 3955 f5bc 95b2 86bd
00000020: 421a 59be 6346 93bd d4df bbbd aec9 b5bd
00000030: b161 a63d 737a 073c 0969 71be 0277 95bc
00000040: e70b acbd d5dd 123c d466 343c 36aa e83d
00000050: 6dee 01be 4be0 31be 26b2 9ebd 000e 4f3d
00000060: 5f83 2c3c f8c5 10be ecd3 24be 6ca9 a2bd
00000070: df20 4e3c 42c4 a1bd 9914 febc dfff f23d
00000080: a86d 53be 1ff9 98bd 2cfd d3be c472 febc
00000090: 9814 03be efd5 efbd 66d7 0ebe 7684 a13d
000000a0: e8c1 e73d 23b5 b7bd 0e63 f43c e8a4 9c3d
000000b0: 0ebe e03d ade4 18be 9840 40bd 1010 91bd
000000c0: 0043 cabe 11c7 6fbd d92d 103e 9aaa c5bd
000000d0: e02f 05be 6a5f 413c 5956 14be 80a9 88be
000000e0: 3188 9b3d 6bc5 883c 66d6 0abd d528 10be
000000f0: d38e 0abe 5820 973d 4d4d c83d 6801 a53d
00000100: 7b08 8bbd b505 e8bd 4e47 8ebd 8a5c fabd
00000110: 2040 553c 95bc eebd eeea 22bd 1ead 82be
00000120: 433a e7bb bfb9 22be 4f06 fd3d c89f 333d
00000130: a82f 6fbd c852 4ebe f512 8cbd 08ba adbd
00000140: ec69 5f3c c11a 0dbb 570a 24bd fd7a e13b
00000150: 1a3a af3b 2888 09bd a5c2 05be b388 09be
00000160: c07c 8a3d 9a2f 2cbe f524 623d 362e a53d
00000170: 4f8b a1bd 35be 53be d96f c7bc 23d3 573c
00000180: f30b b4bc de2a 88be be1d b83d 37ba 123d
00000190: 972a 00bc f080 2dbe ac8e a1bd 0cf8 e4bd
000001a0: 075c 5ebc 5506 c5bd 5397 8cbd c15a 243e
000001b0: 1d61 c1bd 533a b5bd 1c14 4ebd 0c9b 393d
000001c0: e15e e5bd a64d e13c 88dc f23d 447d b8bd
000001d0: 5df1 c1bd 1550 003d bdca d9bd ed83 01be
000001e0: d0df 3fbd 3930 9c3d a801 a73d 5a03 293a
000001f0: 830d 9cbd 6c43 febc 3e31 17be eae1 1c3d

actor.4.weight f4 [128, 128]
-0.041102983 0.0071913637 0.019138105 0.04940785 0.057394225 -0.021527357 -0.025090417 0.024758235
-0.07794883 -0.082670346 0.06463719 -0.073186025 0.12057273 -0.021942945 -0.08028568 -0.033151463
-0.026349181 -0.057692777 -0.06691939 -0.061345346 -0.046997342 0.05795586 -0.069425225 -0.03421854
-0.07325692 -0.0015587612 -0.050577797 -0.06617687 -0.06285422 0.04383146 -0.018063104 -0.07815049
-0.014266466 -0.093374774 0.07156818 -0.014871599 0.0033612489 -0.067465246 0.022877162 0.05077298
0.064720556 -0.090216525 0.06103086 -0.015366692 -0.00379882 0.046648454 -0.012767057 0.0113415215
-0.0024251523 -0.09296188 -0.02040386 0.04289062 -0.024120616 -0.0048545087 -0.0050775837 0.021283995
0.067681104 -0.10650783 0.079490066 -0.04448642 -0.059481483 0.08841815 0.008715429 0.014520136
-0.09295886 0.029132497 0.048514813 -0.08404475 -0.00018476714 0.06482245 -0.060458694 0.00018850778
-0.015221088 -0.049145628 0.067703746 0.044932667 0.055031843 0.032566868 -0.033679105 0.030893998
-0.04611773 -0.0749916 -0.0407563 0.018188385 -0.02961898 0.00245431 0.03116178 0.06921608
0.114258096 -0.003535441 0.03754538 -0.090658225 0.05212357 0.08972633 -0.004818483 -0.09187267
-0.077393755 0.0804192 -0.040534813 -0.016230166 -0.0757083 -0.019009253 0.0009855019 -0.04970182
-0.03522416 -0.00037855425 0.055377487 0.061146975 -0.039171383 0.015147338 0.004922535 0.0012701619
-0.051853083 -0.02004184 -0.08944933 0.049087152 0.041061416 0.040570553 0.0018637867 -0.061582558
-0.05195533 -0.1290171 -0.013487421 0.014147646 0.012875759 0.08077661 0.012560189 -0.048557628
-0.06840456 0.09879451 0.06369418 -0.030646088 0.07789659 0.016159197 0.03812976 -0.03690685
-0.028407335 0.04909155 0.014023782 -0.039876066 0.04006656 0.054089215 0.093843296 -0.01769368
0.03290443 0.052126713 0.042415507 -0.023728063 -0.04920912 0.06274396 -0.028425384 -0.046969373
-0.065339625 0.0035633233 -0.029850014 -0.015690414 0.11136899 -0.012131695 0.045403115 -0.06555363
0.0875827 0.01655828 0.123205066 0.05043486 0.09235486 0.11321526 -0.00075667084 0.034524024
-0.0175858 -0.052546084 -0.038755294 0.04127664 0.010946043 0.019776735 0.0008295755 -0.0026935202
0.110985994 -0.039402533 0.06102456 0.061222423 -0.06478688 -0.0939715 0.06428887 0.014536436
0.084765635 -0.053443752 0.021058818 0.09375138 0.042908028 -0.079779275 0.028460851 0.09233361
-0.008161796 -0.039678127 -0.030483231 0.059675347 -0.091880634 -0.0028628316 -0.06471647 0.10356554
0.0070028147 -0.03144988 -0.004267425 0.078139044 0.0643312 -0.047065437 -0.08323041 -0.019997621
0.045383293 -0.03224181 0.023887977 0.014147201 -0.029702194 0.08243459 0.018372359 -0.02366205
0.07322778 0.008177624 -0.0044841096 0.0819389 -0.027671447 0.06156255 0.08045405 -0.09583025
0.059741367 0.07186433 -0.04766602 0.035103485 -0.04172576 0.07316219 0.08871514 -0.048634674
0.010674177 0.08872221 0.09048785 0.0594895 0.013579262 0.03777909 -0.0003090224 -0.07898393
-0.064886995 0.004932367 -0.013279061 -0.082494035 -0.046809103 -0.016089655 -0.083194956 -0.04069612
0.018013595 -0.049384028 0.018584203 0.0034753054 -0.041995905 0.053786222 -0.008905953 0.0048313593
00000000: 9a5b 28bd 88a5 eb3b 84c7 9c3c e35f 4a3d
00000010: 3516 6b3d 245a b0bc 6b8a cdbc c8d1 ca3c
00000020: a3a3 9fbd 124f a9bd 8160 843d 8ee2 95bd
00000030: d6ee f63d b1c1 b3bc d26c a4bd d4c9 07bd
00000040: 3dda d7bc 434f 6cbd 080d 89bd 4245 7bbd
00000050: 4980 40bd 2063 6d3d d02e 8ebd bd28 0cbd
00000060: b907 96bd 594f ccba aa2a 4fbd bd87 87bd
00000070: b7b9 80bd 9e88 333d 13f9 93bc 5d0d a0bd
00000080: e5bd 69bc 463b bfbd 5792 923d 02a8 73bc
00000090: 6648 5c3b 382b 8abd e368 bb3c 54f7 4f3d
000000a0: 368c 843d 71c3 b8bd 7ffb 793d 94c4 7bbc
000000b0: a0f5 78bb 7312 3f3d eb2c 51bc cad1 393c
000000c0: 4eef 1ebb cc62 bebd ff25 a7bc 13ae 2f3d
000000d0: 9998 c5bc 9212 9fbb dc61 a6bb c65b ae3c
000000e0: 649c 8a3d c720 dabd b0cb a23d 6437 36bd
000000f0: dba2 73bd 9314 b53d 29cb 0e3c dde5 6d3c
00000100: 3761 bebd 46a7 ee3c 78b7 463d a71f acbd
00000110: 0dbe 41b9 a2c1 843d 89a3 77bd 2caa 4539
00000120: df61 79bc ed4c 49bd 43a8 8a3d 510b 383d
00000130: 1269 613d d664 053d 1af3 09bd 6915 fd3c
00000140: f2e5 3cbd 3295 99bd 14f0 26bd cfff 943c
00000150: 81a3 f2bc 7dd8 203b fd46 ff3c 29c1 8d3d
00000160: 2600 ea3d dbb2 67bb 2fc9 193d 05ab b9bd
00000170: 867f 553d 70c2 b73d 5de4 9dbb bd27 bcbd
00000180: 9e80 9ebd d2b2 a43d d507 26bd 20f5 84bc
00000190: f40c 9bbd 4bb9 9bbc f52b 813a 2394 4bbd
000001a0: 3547 10bd b178 c6b9 81d3 623d 4075 7a3d
000001b0: 2c72 20bd 8a2c 783c 374d a13b 907b a63a
000001c0: e663 54bd c92e a4bc 3631 b7bd 9c0f 493d
000001d0: 0430 283d 4f2d 263d 4e4a f43a fe3d 7cbd
000001e0: 1dcf 54bd 0f1d 04be 58fa 5cbc 87cb 673c
000001f0: d9f4 523c 356e a53d 40c9 4d3c 5de4 46bd
00000200: b117 8cbd c754 ca3d 1872 823d 810d fbbc
00000210: 3f88 9f3d 4b60 843c f42d 1c3d a32b 17bd
00000220: 80b6 e8bc 3914 493d 01c4 653c 1655 23bd
00000230: d51c 243d a78c 5d3d ea30 c03d 56f2 90bc
00000240: ccc6 063d d282 553d e2bb 2d3d 5b61 c2bc
00000250: 818f 49bd e87f 803d 5adc e8bc f562 40bd
00000260: c8d0 85bd a586 693b 0488 f4bc 2f89 80bc
00000270: 6d15 e43d 04c4 46bc 9ef8 393d fb40 86bd
00000280: 8f5e b33d 3ba5 873c f052 fc3d c994 4e3d
00000290: 8b24 bd3d 67dd e73d 525b 46ba 1069 0d3d
000002a0: 1810 90bc 903a 57bd dfbd 1ebd b211 293d
000002b0: 0857 333c d202 a23c df77 593a c585 30bb
000002c0: a04c e33d 8d64 21bd e4f4 793d 5dc4 7a3d
000002d0: fcae 84bd 2174 c0bd e2a9 833d 3b2a 6e3c
000002e0: 9b99 ad3d d6e7 5abd 8b83 ac3c b900 c03d
000002f0: 54c0 2f3d 5163 a3bd bb26 e93c 6719 bd3d
00000300: 0eb9 05bc 8885 22bd f8b7 f9bc 236e 743d
00000310: ea2b bcbd 589e 3bbb 128a 84bd 2b1a d43d
00000320: de77 e53b 97d1 00bd c1d5 8bbb 5d07 a03d
00000330: 14c0 833d b0c7 40bd b574 aabd 0dd2 a3bc
00000340: d5e3 393d fd0f 04bd b8b0 c33c a9c9 673c
00000350: 0452 f3bc 77d3 a83d a181 963c ead6 c1bc
00000360: 72f8 953d 71fb 053c 70ef 92bb 95cf a73d
00000370: 3baf e2bc 0329 7c3d 18c5 a43d a642 c4bd
00000380: 5db3 743d 9b2d 933d 723d 43bd acc8 0f3d
00000390: a1e8 2abd 0fd6 953d 49b0 b53d 2735 47bd
000003a0: bee2 2e3c fdb3 b53d b251 b93d 43ab 733d
000003b0: 8e7b 5e3c 3fbe 1a3d 4904 a2b9 54c2 a1bd
000003c0: 79e3 84bd b19f a13b 6b90 59bc a2f2 a8bd
000003d0: e7ba 3fbd 74ce 83bc 1e62 aabd fab0 26bd
000003e0: 3f91 933c e846 4abd e63d 983c f3c1 633b
000003f0: e603 2cbd f14e 5c3d 46ea 11bc 6150 9e3b

actor.4.bias f4 [128]
0.019605452 -0.06959372 0.053990714 -0.11045318 0.009350342 0.106362365 -0.059286915 0.007136432
0.05413764 -0.046873823 -0.08036846 -0.02787169 -0.058505602 -0.012212977 0.028107999 0.012836416
0.063991345 0.019683626 -0.02402437 -0.058321442 -0.068506606 0.035773393 -0.01732484 0.051458813
-0.038823698 0.013836616 0.0072524957 0.0028996232 -0.06440383 0.08325299 -0.027275838 0.044506043
-0.023965305 0.04232943 -0.045764435 -0.00023499083 0.10869254 0.0030837886 -0.030886102 -0.02438354
-0.11123058 -0.089540295 -0.06457526 -0.0705173 -0.04164573 -0.070764236 0.018234378 -0.0032632488
0.03331795 0.093291186 -0.035862233 0.021314882 0.041387748 -0.032409586 0.016524756 0.04814271
-0.08441722 -0.047653828 0.017833946 -0.050158903 0.091035515 0.034017242 -0.049253263 -0.11085057
-0.0135961035 -0.034036875 -0.004423658 0.11117485 0.12772405 0.05444592 -0.108871914 -0.013175428
-0.042682137 0.09187125 0.017814865 -0.027863864 -0.050138883 -0.19121082 0.10774909 -0.052971195
-0.108823046 -0.05181527 0.020183844 0.011681763 0.016840419 0.014316157 -0.04056944 -0.024169939
0.06503789 -0.12350102 0.071929686 0.088296294 0.02904148 -0.16233248 -0.060432166 0.019654196
-0.083148584 -0.14356837 -0.00020866773 0.08563604 -0.040389933 -0.13780276 -0.14014037 0.036101345
-0.118404545 0.012906825 -0.044581905 0.040615603 0.06978322 -0.08667068 0.06423636 -0.15424334
-0.09076992 -0.13545288 0.07993437 -0.0011367631 -0.13215312 -0.14050524 -0.11454971 -0.011541097
0.08854939 0.025035875 0.12360515 0.04630575 0.028432025 0.011105302 -0.13558993 -0.00786356
00000000: 9d9b a03c 2787 8ebd 5e25 5d3d 4735 e2bd
00000010: 2d32 193c 83d4 d93d d6d6 72bd bbd8 e93b
00000020: 6ebf 5d3d c4fe 3fbd 3898 a4bd 2c53 e4bc
00000030: 92a3 6fbd f018 48bc bf42 e63c d54f 523c
00000040: e50d 833d 8e3f a13c c1ce c4bc 77e2 6ebd
00000050: 314d 8cbd 1f87 123d d3ec 8dbc 7ac6 523d
00000060: 9905 1fbd f9b2 623c 58a6 ed3b 9b07 3e3b
00000070: 28e6 83bd 8b80 aa3d 9471 dfbc f84b 363d
00000080: e352 c4bc a061 2d3d 7d73 3bbd df67 76b9
00000090: 329a de3d 6319 4a3b da04 fdbc fdbf c7bc
000000a0: dccc e3bd e760 b7bd 0940 84bd 606b 90bd
000000b0: b794 2abd d7ec 90bd 4360 953c 3bdc 55bb
000000c0: 6778 083d 730f bf3d 47e4 12bd 8c9c ae3c
000000d0: 3386 293d eabf 04bd ed5e 873c 4a31 453d
000000e0: efe2 acbd a930 43bd 7f18 923c 6c73 4dbd
000000f0: d470 ba3d aa55 0b3d cabd 49bd a005 e3bd
00000100: 31c2 5ebc 406a 0bbd 55f4 90bb a4af e33d
00000110: 18ca 023e af02 5f3d 3df8 debd c0dd 57bc
00000120: 77d3 2ebd fe26 bc3d 7bf0 913c c242 e4bc
00000130: 6e5e 4dbd c5cc 43be 8eab dc3d 53f8 58bd
00000140: 9ede debd 403c 54bd 9758 a53c de64 3f3c
00000150: ebf4 893c 518e 6a3c 242c 26bd 0900 c6bc
00000160: 9632 853d 1aee fcbd df4f 933d b0d4 b43d
00000170: 66e8 ed3c 7c3a 26be b887 77bd d601 a13c
00000180: ce49 aabd 9603 13be d1cd 5ab9 f361 af3d
00000190: ea6f 25bd 2b1c 0dbe f580 0fbe 01df 133d
000001a0: 157e f2bd 2677 533c 849b 36bd 8c5c 263d
000001b0: 81ea 8e3d 6680 b1bd 5a8e 833d f7f1 1dbe
000001c0: 94e5 b9bd 29b4 0abe a2b4 a33d 71ff 94ba
000001d0: 2653 07be 9be0 0fbe 0a99 eabd df16 3dbc
000001e0: 6259 b53d 0918 cd3c b224 fd3d 19ab 3d3d
000001f0: 47ea e83c 03f3 353c 16d8 0abe 29d6 00bc

actor.6.weight f4 [8, 128]
0.064052075 0.06350773 -0.028130537 0.10750172 -0.0050471867 -0.090820946 0.06647908 -0.008118503
-0.07518112 -0.12223327 -0.06190201 0.03422411 -0.019210037 -0.058533143 -0.060790163 -0.05102944
-0.009400781 -0.05243014 -0.08436838 -0.0008438595 -0.00083451654 0.011716447 -0.06407562 0.002716031
0.0706248 -0.050914034 0.0020752633 0.007955527 -0.04906003 -0.010536134 -0.020573018 0.004183536
0.048803154 0.06773133 0.08166061 -0.0039675934 -0.069077834 0.0071385424 -0.06882337 0.023566382
0.038076617 0.00092309713 -0.05607483 -0.00998331 -0.038508054 -0.030646792 0.040647544 -0.045195553
0.012863938 -0.015863746 -0.023845812 0.077619866 -0.0288312 -0.050516523 0.032986417 -0.020644415
0.0067598764 -0.06265629 0.04676027 0.031439986 -0.0026828796 0.029728107 0.08737462 -0.001610154
-0.12294739 0.04335595 -0.028125813 -0.025142258 -0.03213577 -0.03284931 0.102467455 -0.048778675
0.015166639 0.03575731 -0.009309638 -0.041223742 0.011587616 0.04972128 -0.050446786 -0.00017912964
-0.007862206 0.0036981173 0.06738825 -0.024671044 -0.08647857 -0.069790155 0.06271043 0.065568924
-0.055707503 0.062095378 0.06663723 -0.039663665 -0.047918946 0.065690264 0.021384548 -0.020605067
-0.007975597 0.063067235 -0.046492465 0.014366305 -0.009672692 0.045624588 0.05181111 -0.063053526
0.06453828 0.010839754 -0.0105373645 -0.05825858 0.0053409035 0.026434308 -0.053404488 0.06398497
0.05688906 0.07463075 0.014579272 0.061917603 0.05453123 0.07688041 0.023118397 0.0503166
-0.09843992 0.029353967 -0.013439918 -0.014913198 0.08137628 -0.06687274 0.088438064 -0.0108995335
-0.043058705 -0.060168397 0.09591771 0.061425008 -0.07471558 -0.059490826 0.052704804 -0.023189468
0.020494109 0.009134282 -0.026506022 -0.041108247 -0.022149377 0.07373376 -0.017412458 0.021535182
0.0016243627 -0.017889569 -0.037021987 -0.085043736 -0.022629771 -0.062223196 -0.020987371 0.020020023
-0.045168854 -0.06080808 -0.057461165 -0.03977309 -0.0070829503 -0.06423798 0.04826409 0.09831789
-0.08108257 -0.021424005 -0.0728063 0.0905025 -0.025137903 -0.057110712 -0.039359722 -0.0336666
0.009453318 -0.039014865 0.070663355 0.038214788 -0.005280728 -0.03975486 0.029267378 -0.022897601
0.013998097 -0.017159654 -0.034345053 0.05448933 0.025578575 -0.05730543 0.06907224 -0.03129341
0.006642458 -0.086461626 0.0036772944 -0.015121104 0.091420844 -0.009763589 0.050486036 -0.044328813
0.0073475516 0.018565802 -0.00097428454 0.0013439945 0.0044047483 0.0046618674 0.058718253 -0.0638991
0.0065502957 0.0048076957 -0.012594748 -0.02778769 0.035800934 0.04341019 -0.04528017 0.03401773
0.03899899 0.034855675 -0.015645245 -0.020533204 -0.055420827 0.065880984 -0.06393776 -0.058247518
-0.05271163 0.038609155 -0.028202588 0.023176778 0.03742709 0.027665643 -0.07891422 0.07341601
-0.021529669 0.036397 0.056083944 0.020093365 0.0019690194 -0.03567476 0.0063442793 -0.018295037
-0.04512006 -0.08367286 -0.004447978 0.026673408 -0.015896782 -0.06127373 0.019998081 -0.043184914
0.03451378 -0.021141008 -0.003592223 0.024425196 0.0019217607 -0.028282758 0.033567477 -0.005391734
0.064125285 0.033385213 0.01976806 -0.017933976 -0.032188304 0.08572879 0.07408773 -0.01983618
00000000: bc2d 833d 5710 823d 0372 e6bc dd29 dc3d
00000010: df62 a5bb 5500 babd 2f26 883d 7803 05bc
00000020: 8ff8 99bd 7055 fabd f68c 7dbd 952e 0c3d
00000030: 5e5e 9dbc 73c0 6fbd 1bff 78bd 3f04 51bd
00000040: bc05 1abc fdc0 56bd 54c9 acbd 7436 5dba
00000050: 75c3 5aba 57f6 3f3c 143a 83bd 70ff 313b
00000060: bca3 903d 3c8b 50bd 2401 083b e657 023c
00000070: 2cf3 48bd c09f 2cbc bf88 a8bc 0b16 893b
00000080: d1e5 473d b9b6 8a3d ae3d a73d 9602 82bb
00000090: ae78 8dbd 6fea e93b 44f3 8cbd 490e c13c
000000a0: 3af6 1b3d 00fc 713a b9ae 65bd 0991 23bc
000000b0: 9fba 1dbd fb0e fbbc 0a7e 263d f91e 39bd
000000c0: 44c3 523c b0f4 81bc 4b58 c3bc 2af7 9e3d
000000d0: 692f ecbc 6aea 4ebd c41c 073d 7a1e a9bc
000000e0: f481 dd3b f151 80bd b287 3f3d 37c7 003d
000000f0: 40d3 2fbb 5c88 f33c 77f1 b23d ce0b d3ba
00000100: d7cb fbbd 0296 313d 1b68 e6bc 23f7 cdbc
00000110: cca0 03bd 008d 06bd 75da d13d 26cc 47bd
00000120: 7f7d 783c 4276 123d 7487 18bc 3ada 28bd
00000130: fcd9 3d3c 8aa8 4b3d 4aa1 4ebd bfd4 3bb9
00000140: 7bd0 00bc 1d5c 723b da02 8a3d ee1a cabc
00000150: ad1b b1bd 24ee 8ebd 536e 803d 0049 863d
00000160: 8d2d 64bd b957 7e3d 1a79 883d 5e76 22bd
00000170: a846 44bd 9e88 863d a62e af3c f5cb a8bc
00000180: 14ac 02bc 6529 813d e26e 3ebd a760 6b3c
00000190: 367a 1ebc d9e0 3a3d e337 543d 3522 81bd
000001a0: a52c 843d 3999 313c e9a4 2cbc 8ca0 6ebd
000001b0: bf02 af3b c38c d83c aabe 5abd 8d0a 833d
000001c0: 8104 693d 02d8 983d e6dd 6e3c 509d 7d3d
000001d0: 245c 5f3d 7a73 9d3d cb62 bd3c c718 4e3d
000001e0: de9a c9bd bb77 f03c 1a33 5cbc 7c56 74bc
000001f0: 9ba8 a63d 93f4 88bd 041f b53d f593 32bc
00000200: 535e 30bd 2373 76bd 8170 c43d ca98 7b3d
00000210: 7b04 99bd a7ac 73bd fee0 573d d7f7 bdbc
00000220: 43e3 a73c f5a7 153c 2823 d9bc 1f61 28bd
00000230: 9c72 b5bc ba01 973d 92a4 8ebc 8d6a b03c
00000240: 91e8 d43a 258d 92bc 5ea4 17bd 692b aebd
00000250: 1262 b9bc c0dd 7ebd b5ed abbc 0801 a43c
00000260: fa02 39bd e511 79bd 665c 6bbd 1ce9 22bd
00000270: 1818 e8bb 348f 83bd 91b0 453d e45a c93d
00000280: 9e0e a6bd 6581 afbc 781b 95bd 6059 b93d
00000290: 01ee cdbc ecec 69bd a937 21bd fde5 09bd
000002a0: 17e2 1a3c 0dce 1fbd f3b7 903d 1c87 1c3d
000002b0: f509 adbb fed5 22bd 24c2 ef3c c093 bbbc
000002c0: 4658 653c 6792 8cbc 66ad 0cbd 3430 5f3d
000002d0: 298a d13c 19b9 6abd bf75 8d3d 852d 00bd
000002e0: faa8 d93b cb12 b1bd c3fe 703b 82be 77bc
000002f0: da3a bb3d 76f7 1fbc 72ca 4e3d 2192 35bd
00000300: bbc3 f03b 4f17 983c 2167 7fba f928 b03a
00000310: b555 903b 94c2 983b 8d82 703d 88dd 82bd
00000320: dda3 d63b e089 9d3b 345a 4ebc 02a3 e3bc
00000330: 00a4 123d e2ce 313d b377 39bd 2d56 0b3d
00000340: 68bd 1f3d d3c4 0e3d 752a 80bc 4035 a8bc
00000350: f300 63bd 9cec 863d cdf1 82bd f394 6ebd
00000360: 26e8 57bd a224 1e3d 1d09 e7bc 3add bd3c
00000370: 264d 193d 0fa3 e23c c79d a1bd 225b 963d
00000380: fd5e b0bc 0515 153d 47b8 653d d79a a43c
00000390: aa0a 013b b21f 12bd ace3 cf3b 79df 95bc
000003a0: d0cf 38bd ad5c abbd 58c0 91bb 3182 da3c
000003b0: f839 82bc 2afa 7abd 04d3 a33c aae2 30bd
000003c0: 525e 0d3d e82f adbc 806b 6bbb 5917 c83c
000003d0: 97e3 fb3a 3eb1 e7bc 0d7e 093d 25ad b0bb
000003e0: 1e54 833d efbe 083d a0f0 a13c 46ea 92bc
000003f0: e2d7 03bd 9392 af3d 4fbb 973d 7c7f a2bc

actor.6.bias f4 [8]
0.02200524 -0.03709756 0.035514466 0.0057143895 0.054728616 0.027968897 0.013406682 -0.042781673
00000000: 5544 b43c 9cf3 17bd 9e77 113d c63f bb3b
00000010: 1d2b 603d 071f e53c b3a7 5b3c d63b 2fbd

critic.0.weight f4 [128, 31]
-0.101224795 -0.0069030165 -0.16189277 0.10004319 0.035019636 -0.060041852 -0.1630885 -0.10725158
0.051336683 0.620076 0.41449314 0.51358384 -0.36462095 -0.24592608 0.11212236 0.026695173
0.055851538 -0.09478228 0.042707127 -0.10752204 0.0942396 0.08775248 0.1279267 0.08848587
0.07773818 0.048672553 -0.02995324 0.13357303 0.08104099 -0.10457807 -0.025539845 0.083795875
-0.05702551 0.47732875 0.25138152 0.15673779 0.05024969 -0.15209375 0.030133989 -0.10517499
0.2537268 -1.3710843 0.2069384 0.048295766 -0.23149133 -0.038677204 -0.03847927 -0.027673665
-0.13147503 -0.05488258 -0.014920296 -0.034762472 0.06400952 0.053595413 0.063354604 -0.08841112
0.19007798 0.06918864 0.0024386998 0.0971317 -0.10404749 0.085766524 -0.20804043 0.22168368
0.5705196 -0.24529067 0.08106179 0.1683655 0.5753737 0.119281724 -0.14812137 -0.82899696
-0.12361747 -0.68816656 0.43830907 0.63264364 -0.027893528 -0.023373213 0.102442555 0.0046057883
0.035430115 0.08264315 -0.05679498 0.107419655 0.13310413 -0.06043393 0.16131383 0.0742926
-0.017083958 0.004412968 0.13882038 -0.23371464 -0.12129791 -0.018943679 0.110597566 -0.13157715
0.087803744 -0.05223143 -0.39953277 -0.120367035 -0.013532524 0.06976423 -0.6103393 0.3546853
0.21946783 -0.1774368 -0.064588584 0.1432214 -0.014407512 0.033113666 0.16107857 -0.13270159
0.11603407 0.0831277 -0.035003114 0.1373583 0.1300069 -0.034766845 -0.098233685 -0.12860473
-0.015572305 0.068147495 0.021052474 -0.045639932 0.13037892 -0.2149036 -0.17114305 0.4671939
-0.0079123005 0.30317602 0.14957093 0.29259095 -0.07154041 -0.02177324 -0.49080592 -0.14810961
0.31984037 0.032991577 0.30226862 0.18459512 -0.09199986 0.048854314 0.09766245 0.014230451
0.061840247 -0.06449835 -0.07475966 0.051627573 0.087787166 0.013930239 0.1631705 -0.019244626
-0.3275641 0.092549935 0.10156649 0.19416746 -0.5763428 0.64117146 0.38243648 -0.0434198
0.9462727 0.46522486 0.522105 -0.014832862 0.3795209 0.97700447 -0.56083786 -0.12090441
0.13429807 -0.529459 0.23606904 0.17218223 0.23614936 0.1897727 -0.0004379501 0.00081194553
0.005127744 -0.0028665306 -0.23984379 0.034238964 -0.075935565 0.09118809 0.097474754 -0.18662801
-0.028475214 0.02888647 -0.11901679 -0.10439453 -0.13108414 0.0045782244 -0.045035955 -0.13261342
-0.17217845 -0.019160662 0.09989945 1.2625035 -0.5363455 0.42858383 -0.27113238 -0.38421765
0.1613986 0.04109329 -0.07383894 -0.07349703 0.052947145 -0.08648117 -0.052020445 0.023948206
-0.09938277 0.023130259 -0.14096491 -0.058768556 -0.093960896 0.009252378 -0.09229207 -0.12656476
0.08721523 -0.24842213 -0.19823092 -0.028847903 0.09043427 0.08073524 -0.036098473 -0.17834374
-0.3236238 -0.4471193 0.66128105 -0.30446032 0.51501566 -0.06402422 -0.34837064 -0.074240215
0.012351536 0.04682844 0.05106626 -0.024411187 0.04270002 -0.113091126 0.008026911 -0.02513355
0.00090320746 0.0086931875 0.00887098 -0.16087148 0.1454627 0.1817297 0.12505686 -0.12724316
0.43433094 0.52642035 -0.36387107 -0.40926865 -0.033308458 0.13352698 0.17205429 0.7180609
00000000: f24e cfbd b332 e2bb 38c7 25be 72e3 cc3d
00000010: c070 0f3d 72ee 75bd ac00 27be b7a6 dbbd
00000020: 6a46 523d 4dbd 1e3f 7238 d43e 3b7a 033f
00000030: 99af babe 0cd4 7bbe 68a0 e53d d6af da3c
00000040: 95c4 643d 361d c2bd abed 2e3d 8434 dcbd
00000050: b100 c13d 92b7 b33d 38ff 023e 1438 b53d
00000060: 3235 9f3d df5c 473d 7f60 f5bc 5ec7 083e
00000070: d2f8 a53d 072d d6bd f038 d1bc 2c9d ab3d
00000080: 9593 69bd 6f64 f43e 14b5 803e df7f 203e
00000090: 9ed2 4d3d 77be 1bbe 8edb f63c fc65 d7bd
000000a0: 7be8 813e b17f afbf a9e7 533e c8d1 453d
000000b0: 100c 6dbe fd6b 1ebd 709c 1dbd e2b3 e2bc
000000c0: 64a1 06be 8ecc 60bd 4274 74bc 1863 0ebd
000000d0: 6c17 833d dd86 5b3d 0fc0 813d e410 b5bd
000000e0: cda3 423e c6b2 8d3d 98d2 1f3b fcec c63d
000000f0: da16 d5bd 5ca6 af3d 8d08 55be 0c01 633e
00000100: 930d 123f 7a2d 7bbe b903 a63d 0168 2c3e
00000110: b14b 133f fa49 f43d 21ad 17be 2539 54bf
00000120: 282b fdbd af2b 30bf 0c6a e03e eff4 213f
00000130: f880 e4bc 2e79 bfbc 67cd d13d 27ec 963b
00000140: 2b1f 113d d040 a93d daa1 68bd d6fe db3d
00000150: 734c 083e 9289 77bd 742f 253e b826 983d
00000160: a8f3 8bbc a99a 903b ee26 0e3e e452 6fbe
00000170: 0a6b f8bd c62f 9bbc fa80 e23d 29bc 06be
00000180: 73d2 b33d a0f0 55bd 8f8f ccbe fe82 f6bd
00000190: 85b7 5dbc 8ce0 8e3d 323f 1cbf 5099 b53e
000001a0: 2dbc 603e feb1 35be 0547 84bd a1a8 123e
000001b0: 7c0d 6cbc 32a2 073d c8f1 243e ede2 07be
000001c0: 45a3 ed3d db3e aa3d 6d5f 0fbd a7a7 0c3e
000001d0: 8720 053e ae67 0ebd be2e c9bd f5b0 03be
000001e0: fb22 7fbc ea90 8b3d 3d76 ac3c f0f0 3abd
000001f0: 0d82 053e b00f 5cbe 2040 2fbe 0a34 ef3e
00000200: 98a2 01bc e339 9b3e 1f29 193e 7bce 953e
00000210: c783 92bd cb5d b2bc ea4a fbbe 0caa 17be
00000220: 1ec2 a33e 2d22 073d f4c2 9a3e 8106 3d3e
00000230: 6c6a bcbd 761b 483d 4003 c83d d626 693c
00000240: 334c 7d3d b617 84bd 981b 99bd 6f77 533d
00000250: c2c9 b33d a83b 643c 2b16 273e e8a6 9dbc
00000260: 7bb6 a7be d28a bd3d 1802 d03d d6d3 463e
00000270: 348b 13bf d023 243f b7ce c33e f6d8 31bd
00000280: ed3e 723f f431 ee3e aca8 053f 8805 73bc
00000290: 9050 c23e f71c 7a3f 1293 0fbf bb9c f7bd
000002a0: 6f85 093e a08a 07bf 15bc 713e 8a50 303e
000002b0: 23d1 713e c653 423e ab9c e5b9 bed8 543a
000002c0: a206 a83b 67dc 3bbb 9c99 75be 283e 0c3d
000002d0: 1b84 9bbd d2c0 ba3d d8a0 c73d 6a1b 3fbe
000002e0: da44 e9bc 51a3 ec3c 13bf f3bd cdcc d5bd
000002f0: ec3a 06be ee04 963b 9f77 38bd d0cb 07be
00000300: 8c4f 30be d2f6 9cbc 1598 cc3d b799 a13f
00000310: f04d 09bf 576f db3e ddd1 8abe 2db8 c4be
00000320: ad45 253e 7051 283d df38 97bd 9c85 96bd
00000330: 1bdf 583d 0a1d b1bd 6413 55bd 072f c43c
00000340: 3289 cbbd ab7b bd3c 1b59 10be 4cb7 70bd
00000350: 926e c0bd 4997 173c a003 bdbd 319a 01be
00000360: e69d b23d 5f62 7ebe 0cfd 4abe 7052 ecbc
00000370: 9a35 b93d 8458 a53d fedb 13bd be9f 36be
00000380: 05b2 a5be d2ec e4be b749 293f 39e2 9bbe
00000390: 11d8 033f 211f 83bd a35d b2be 410b 98bd
000003a0: 195e 4a3c 2ecf 3f3d db2a 513d f8f9 c7bc
000003b0: 37e6 2e3d 529c e7bd 4e83 033c e0e4 cdbc
000003c0: 3ac5 6c3a df6d 0e3c 9657 113c 7ebb 24be
000003d0: 2df4 143e 5a17 3a3e e80e 003e 084c 02be
000003e0: a060 de3e 7cc3 063f 4f4d babe a98b d1be
000003f0: 736e 08bd 4cbb 083e 002f 303e d7d2 373f

critic.0.bias f4 [128]
-0.13590811 0.12720086 0.38330108 0.15025587 0.16879998 -0.090747625 0.11135631 0.3577282
0.11885953 -0.0755709 -0.11128481 -0.15026139 -0.056922294 0.08431908 0.39564803 -0.08936765
-0.16051535 0.012920331 0.123701744 0.067673914 0.45875257 -0.18800618 -0.17029116 -0.024636995
0.19749399 -0.047695912 0.21084478 -0.17690864 -0.03377914 0.043524157 0.085836604 0.09773836
0.04618533 0.32617667 0.27586368 -0.22231957 -0.22431703 0.1839633 0.07474276 -0.21899548
-0.07824919 0.35099927 -0.0808425 -0.084285595 0.28149962 0.3418148 0.12596488 -0.13613619
-0.124306604 0.3475153 0.12676257 -0.27025637 0.28320634 0.10545513 -0.10089329 -0.07643026
0.047805306 -0.19146582 -0.08188581 -0.06758829 0.07998845 0.13851523 -0.007295671 -0.007757594
-0.058470458 0.08519694 0.068924 0.08346159 -0.0911947 0.28290647 -0.08310808 0.31128085
0.21846162 0.3398838 0.24386194 -0.1751169 0.47253427 0.18927248 0.09127876 0.0764439
0.115735605 0.09334706 0.13963102 0.519281 -0.2374585 0.03006044 -0.042668495 0.022579469
0.45428598 0.5725205 -0.25604135 0.36257052 0.028560355 0.026691888 0.06126754 0.555656
0.14068796 -0.069543175 0.030333374 0.2976622 0.29304263 0.031167611 -0.009077215 0.09448368
0.24913976 -0.19934084 0.41594753 -0.05408747 0.20571232 0.09740054 -0.102931306 0.13111354
0.05193003 0.25666523 0.1280548 0.07554296 0.09783285 0.23593982 0.106938526 0.04110925
0.15448599 0.15786242 0.20003869 -0.10471022 0.226614 -0.17538458 0.065199934 -0.059402753
00000000: 7f2b 0bbe f140 023e 0a40 c43e addc 193e
00000010: e7d9 2c3e e4d9 b9bd c70e e43d 2728 b73e
00000020: a06c f33d ebc4 9abd 4ae9 e3bd 1fde 19be
00000030: 5a27 69bd 7baf ac3d 6192 ca3e 6306 b7bd
00000040: 235e 24be ccaf 533c 5757 fd3d 9f98 8a3d
00000050: 9ee1 ea3e b184 40be ce60 2ebe 86d3 c9bc
00000060: dd3b 4a3e ca5c 43bd b2e7 573e 8a27 35be
00000070: ff5b 0abd 6346 323d 1acb af3d 0d2b c83d
00000080: d42c 3d3d a100 a73e 013e 8d3e bea7 63be
00000090: 5db3 65be e060 3c3e bb12 993d 5a40 60be
000000a0: 1c41 a0bd 2db6 b33e c190 a5bd ed9d acbd
000000b0: b820 903e 5902 af3e f0fc 003e 4967 0bbe
000000c0: 7694 febd 87ed b13e 0cce 013e 0b5f 8abe
000000d0: 6c00 913e dcf8 d73d 24a1 cebd 7887 9cbd
000000e0: 7fcf 433d 9e0f 44be bfb3 a7bd bb6b 8abd
000000f0: fcd0 a33d f0d6 0d3e 8610 efbb 6a33 febb
00000100: b87e 6fbd bc7b ae3d 0728 8d3d e9ed aa3d
00000110: 49c4 babd 1ed9 903e 9234 aabd 3460 9f3e
00000120: 67b4 5f3e 4005 ae3e f2b6 793e d851 33be
00000130: 03f0 f13e a5d0 413e 5cf0 ba3d 9f8e 9c3d
00000140: ca06 ed3d be2c bf3d 6ffb 0e3e 9aef 043f
00000150: 5228 73be 5041 f63c 29c5 2ebd 94f8 b83c
00000160: 2c98 e83e b490 123f da17 83be d8a2 b93e
00000170: 68f7 e93c f2a8 da3c acf3 7a3d 793f 0e3f
00000180: 8110 103e a76c 8ebd b27d f83c 2e67 983e
00000190: af09 963e 3853 ff3c 99b8 14bc a980 c13d
000001a0: 7e1e 7f3e 0120 4cbe 13f7 d43e d38a 5dbd
000001b0: 40a6 523e ef79 c73d a6cd d2bd a142 063e
000001c0: 95b4 543d a069 833e cc20 033e 44b6 9a3d
000001d0: 975c c83d 359a 713e 9602 db3d 2c62 283d
000001e0: 9331 1e3e b0a6 213e f1d6 4c3e 5072 d6bd
000001f0: 800d 683e 0498 33be 8b87 853d 4d50 73bd
