ISAAC_NOGIT/logs/rsl_rl/traquad_flat/2025-09-16_11-47-01/model_100.pt (torch, 925483 bytes, 48 tensors)

std f4 [8]
0	0x3f0c034a	0.5469252
1	0x3f050d42	0.51973355
2	0x3ed4c8cc	0.41559446
3	0x3f07a271	0.5298224
4	0x3f1b7f53	0.60741156
5	0x3f1e3fd7	0.6181616
6	0x3f167e66	0.5878662
7	0x3f1c023e	0.6094092

actor.0.weight f4 [128, 31]
0	0xbef1a313	-0.47194728
1	0x3c98339f	0.018579302
2	0x3d970ac4	0.073751
3	0x3e98d72a	0.29851657
4	0xbdef8952	-0.11696114
5	0x3dfb60ac	0.12274298
6	0x3d1403ac	0.036136314
7	0x3e424eb0	0.1897533
8	0x3cf225af	0.029558985
9	0x3f229b69	0.6351839
10	0xbc6a130c	-0.014286768
11	0xbea24ec9	-0.31700733
12	0xbc7cc86c	-0.015428644
13	0x3c23a580	0.009988189
14	0xbd6f42b9	-0.05841324
15	0x3da93f85	0.082640685
16	0x3e131b76	0.14365944
17	0x3df5b1d6	0.1199681
18	0x3e40cd97	0.18828426
19	0x3dda13e2	0.106483236
20	0x3d03e663	0.032202136
21	0xbdf9abf2	-0.12190999
22	0xbe1f3c7c	-0.15550417
23	0x3cf9fed5	0.030517021
24	0x3efb8500	0.49124908
25	0xbc81c3d6	-0.015840452
26	0x3e21926d	0.15778513
27	0x3d3bcc02	0.045848854
28	0x3dd6f9e4	0.104968816
29	0xbdaadb1c	-0.08342573
30	0xbe2636fc	-0.16231912
31	0xbeb5a969	-0.35480812
32	0xbe240944	-0.1601916
33	0xbe8f8336	-0.28029794
34	0x3aed6d12	0.001811417
35	0xbc5b35a9	-0.013379493
36	0x3e1f8f9c	0.15582126
37	0x3ee10b2b	0.43953833
38	0x3e0c7a23	0.13718466
39	0x3e7f4537	0.24928747
40	0x3d2b0e66	0.04176178
41	0xbe214102	-0.15747455
42	0xbf0b3761	-0.54381377
43	0x3e2a3984	0.16623503
44	0x3ee10b79	0.43954065
45	0xbea6db78	-0.32589316
46	0xbc8aadb7	-0.016928537
47	0x3e22e909	0.15909208
48	0xbcf3655a	-0.029711414
49	0xbde9ff66	-0.114256665
50	0xbd0fee17	-0.03513917
51	0x3c9fff70	0.019530982
52	0xbbd16135	-0.006389762
53	0x3e0df6d3	0.13863687
54	0x3dfda6e1	0.12385345
55	0x3daa63a2	0.08319785
56	0x3df35007	0.118804984
57	0xbcc4d9b3	-0.024029588
58	0xbde0fc36	-0.109856054
59	0xbe84868f	-0.2588391
60	0x3da2269c	0.079175204
61	0xbdac4a70	-0.08412635
62	0x3d18eee0	0.037337184
63	0x3d9039e7	0.07042294
64	0xbe6a7080	-0.22894478
65	0x3dd27038	0.1027531
66	0x3dcb44ae	0.09925209
67	0xbe2e6a7d	-0.1703281
68	0x3d975bae	0.073905334
69	0xbe856f76	-0.260616
70	0xbe497c6d	-0.19676371
71	0x3ce763c3	0.028245812
72	0xbf0ce763	-0.5504057
73	0x3e55a80b	0.20864885
74	0xbebfa092	-0.37427193
75	0xbecb3dd1	-0.396956
76	0x3d930352	0.07178368
77	0xbde0ba0f	-0.10972988
78	0x3dc8966e	0.09794317
79	0x3e9a05ec	0.30082643
80	0x3e40cb5d	0.18827577
81	0xbbd96a08	-0.0066349544
82	0x3dd789e4	0.105243474
83	0x3d88c3d0	0.06677973
84	0xbd9d1850	-0.07670653
85	0x3d508978	0.05091235
86	0x3e2d3d0e	0.16917822
87	0xbe4e3adb	-0.20139639
88	0x3e5e20e7	0.21692239
89	0x3dcff8d5	0.10154883
90	0xbdfc4c35	-0.12319223
91	0xbe59beb1	-0.21264149
92	0x3e426980	0.18985558
93	0x3d8bb250	0.0682112
94	0xbf1c098d	-0.60952073
95	0x3f1f9bb4	0.6234696
96	0x3e7983a4	0.24366623
97	0xbe82f3d0	-0.2557664
98	0xbe389bce	-0.18028185
99	0xbd95a027	-0.07305937
100	0xbea16696	-0.3152358
101	0x3d72182f	0.059105095
102	0xbf1b1e01	-0.6059266
103	0xbe19145f	-0.14949177
104	0xbe6df1a6	-0.23236713
105	0xbebf2616	-0.37333745
106	0x3dbc6244	0.0919843
107	0xbcb80558	-0.022463486
108	0x3e76de4f	0.24108241
109	0x3e147042	0.14495948
110	0xbb7069f3	-0.0036684244
111	0x3e3d2a72	0.18473223
112	0x3d8ae851	0.06782592
113	0x3dc8303a	0.097748235
114	0xbe28f63e	-0.16500184
115	0x3dcb366f	0.09922492
116	0xbd181975	-0.037133653
117	0x3d66b1a0	0.05632174
118	0x3e2b649b	0.16737597
119	0x3e3d3526	0.18477306
120	0x3da91ca6	0.082574174
121	0xbe448c0b	-0.19194047
122	0x3e5352a9	0.20637001
123	0xbd794fb2	-0.06086702
124	0x3eacdb63	0.3376113
125	0xbe4801e3	-0.1953197
126	0xbf7c7a5e	-0.9862422
127	0xbd8063a8	-0.06269008
128	0x3e7fc6be	0.24978158
129	0xbdc9284c	-0.09822139
130	0xbd0bfeed	-0.034178663
131	0x3e302de9	0.17205013
132	0xbc9d55ab	-0.019205889
133	0xbe044d89	-0.12920202
134	0xbe96fa2b	-0.29487738
135	0x3e11b4b3	0.14229088
136	0x3ea62ad4	0.3245455
137	0xbe166acf	-0.14689182
138	0x3c867d90	0.016417295
139	0x3e2c5d5c	0.16832489
140	0x3e4ff358	0.20307672
141	0xbe30b016	-0.17254671
142	0xbd2adc8b	-0.041714232
143	0x3d283900	0.041069984
144	0x3cf3a9d6	0.02974407
145	0x3cfd3854	0.030910648
146	0xbc5c7fed	-0.013458234
147	0x3d4e1957	0.050317135
148	0x3cbe365b	0.023219278
149	0x3d04700a	0.03233341
150	0xbdadbac4	-0.08482888
151	0x3e159e37	0.14611135
152	0x3db9ddcc	0.090755075
153	0xbda4b9db	-0.080432616
154	0x3e07c251	0.1325772
155	0x3daa1c1f	0.08306145
156	0xbe24bad5	-0.16086896
157	0x3ed46e1c	0.41490257
158	0xbdd33b8d	-0.10314093
159	0x3cb42ee1	0.02199501
160	0x3e462c4e	0.19352838
161	0xbd1caf65	-0.038253207
162	0xbd9d7b87	-0.076895766
163	0xbeca21cb	-0.39478907
164	0x3d0817f1	0.033225957
165	0xbd0e5b5d	-0.0347551
166	0x3e45721a	0.19281808
167	0x3eb1f930	0.34760427
168	0x3cca6022	0.024704043
169	0x3e45266b	0.19252937
170	0xbdca2a37	-0.09871333
171	0xbe0b957d	-0.13631244
172	0x3d0d270a	0.03446106
173	0x3e17a152	0.14807633
174	0x3df9f1fc	0.12204358
175	0x3df22933	0.118242644
176	0xbe11d089	-0.14239706
177	0x3c939907	0.018017305
178	0x3dd2e85b	0.102982245
179	0xbe370e09	-0.17876448
180	0x3d73b101	0.059494976
181	0x3cffda8d	0.031232143
182	0xbe700354	-0.2343877
183	0x3c98f67c	0.01867222
184	0x3e09e767	0.13467179
185	0xbd8c1a50	-0.06840956
186	0xbef3cce3	-0.47617254
187	0x3dacb4a5	0.08432893
188	0xbf631abc	-0.8871267
189	0x3d5e5c95	0.05428751
190	0x3e7f79b7	0.24948774
191	0xbdeec882	-0.116593376
192	0x3e9f087c	0.3106116
193	0xbd249d6e	-0.0401892
194	0x3e7615cb	0.24031751
195	0x3d3ee664	0.046606436
196	0x3e41caa5	0.18924959
197	0x3c88f0a7	0.016716314
198	0x3cc34982	0.023838762
199	0x3ec1c8b8	0.3784845
200	0xbe63b9a5	-0.22238787
201	0xbd9a0207	-0.07519918
202	0xbd991d65	-0.0747631
203	0xbc9a4463	-0.018831437
204	0x3b9acb15	0.0047239163
205	0xbbd8040e	-0.00659228
206	0xbc3686ce	-0.011140538
207	0xbc1035dc	-0.008801904
208	0x3c876f16	0.016532462
209	0xbdef8108	-0.11694533
210	0xbe190f64	-0.14947277
211	0xbdeae06e	-0.11468588
212	0x3d8c76de	0.068586096
213	0xbe3a5623	-0.18196921
214	0xbb285bcb	-0.0025689478
215	0x3dac9058	0.08425969
216	0xbe81f062	-0.2537871
217	0x3eb90ddf	0.36143395
218	0xbf0359d9	-0.5130897
219	0x3e485061	0.19561912
220	0xbdad0270	-0.084477305
221	0xbddc3bec	-0.10753617
222	0xbe925c73	-0.28586158
223	0xbe52bcc5	-0.20579822
224	0x3e372bee	0.17887852
225	0xbd4ef903	-0.050530445
226	0x3ec32257	0.38112137
227	0x3e2b06c8	0.16701806
228	0x3dfae97f	0.12251567
229	0x3e9c476d	0.30523244
230	0xbe9f47b9	-0.31109408
231	0x3d94b11b	0.07260343
232	0x3da6be0c	0.08141717
233	0xbdc0fc54	-0.09423128
234	0x3e381c82	0.17979625
235	0x3e30d476	0.17268547
236	0xbc79a431	-0.0152369
237	0xbc2478ba	-0.010038549
238	0xbd954825	-0.07289151
239	0xbd91748f	-0.0710231
240	0x3ec961a2	0.393323
241	0xbea1b096	-0.31580037
242	0x3e2b0cf4	0.1670416
243	0x3e3a7782	0.18209651
244	0x3e3a4ca7	0.18193303
245	0x3d750453	0.059818577
246	0xbdec1f7e	-0.11529444
247	0x3e88757d	0.26652136
248	0x3f1a2c5b	0.6022393
249	0xbe5bfc3b	-0.21482937
250	0x3f57d563	0.8430998
251	0xbdf4c61a	-0.119518474
252	0x3c199c49	0.00937564
253	0xbd4033dc	-0.046924457
254	0xbed2b61f	-0.41154572
255	0xbe81264c	-0.2522453

actor.0.bias f4 [128]
0	0xbc39cd52	-0.011340456
1	0xbe52e604	-0.20595556
2	0x3d93473f	0.071913235
3	0xbd14b9d6	-0.03631004
4	0xbcfb3737	-0.030665977
5	0x3e937239	0.28798082
6	0xbe2ed7ff	-0.17074583
7	0xbd1e30f2	-0.038620897
8	0xbdb6cda2	-0.0892594
9	0x3ec4a0ef	0.38404033
10	0xbe50cf1d	-0.20391507
11	0x3d9a41b0	0.0753206
12	0xbe52704d	-0.20550652
13	0x3eb4d5c1	0.3531933
14	0xbe4250d9	-0.18976153
15	0x3e18bfc9	0.1491691
16	0x3e850d04	0.25986493
17	0x3e5427e6	0.20718345
18	0xbe0303d6	-0.12794432
19	0xbd56e4dc	-0.05246435
20	0x3eb43048	0.35193086
21	0x3d882d1b	0.06649228
22	0xbd842c7a	-0.06453796
23	0x3de303d8	0.110847175
24	0x3e9ed7fc	0.31024158
25	0xbb5c0ced	-0.003357704
26	0x3e034afc	0.12821573
27	0x3c9537ff	0.018215178
28	0xbde50bbf	-0.11183881
29	0x3de66b79	0.112509675
30	0xbe497088	-0.19671834
31	0xbdf99f8e	-0.12188636
32	0xbe61ee29	-0.22063507
33	0x3e0660c4	0.1312285
34	0x3c63f77d	0.013913986
35	0x3e4ccdc2	0.20000365
36	0x3e4fae5e	0.2028136
37	0xbe370d95	-0.17876275
38	0x3eb20763	0.3477126
39	0x3ecae72e	0.396295
40	0x3e3f640b	0.18690507
41	0xbdf296b3	-0.1184515
42	0xbddcb3bc	-0.10776469
43	0xbdd4eb45	-0.103964366
44	0x3e003279	0.12519254
45	0x3e87db3e	0.26534456
46	0x3e5f8a7c	0.21830171
47	0x3e517b18	0.20457113
48	0x3e343c66	0.17601165
49	0xbe5ac005	-0.21362312
50	0x3de728f4	0.11287108
51	0xbe532fc4	-0.2062369
52	0x3dd81405	0.105506934
53	0x3dd46653	0.10371079
54	0x3d8bf9bd	0.06834743
55	0x3e226fdf	0.15862988
56	0x3e65d6a5	0.22445162
57	0xbc487283	-0.012234333
58	0xbe418027	-0.18896542
59	0x3e772446	0.24134931
60	0x3dbe6939	0.092974134
61	0xbe72e67b	-0.23720734
62	0xbe4291b4	-0.19000894
63	0x3e1b4696	0.15163645
64	0xbdde14dd	-0.10843823
65	0xbd3a1ea6	-0.045439385
66	0x3e23af8f	0.15984939
67	0x3d288740	0.04114461
68	0x3d80e8e0	0.062944174
69	0x3e0d3a97	0.13791882
70	0xbd82ca3c	-0.063862294
71	0xbc280213	-0.010254401
72	0x3e430f2b	0.19048755
73	0xba50648f	-0.0007949555
74	0xbd8335b7	-0.0640673
75	0xbd1b0fe2	-0.037856944
76	0x3e352a85	0.17692001
77	0xbe18ae00	-0.14910126
78	0xbe2ae224	-0.16687828
79	0x3e8357a7	0.2565281
80	0x3cf5b8a0	0.029995263
81	0xbe352c77	-0.17692743
82	0xbdc67c7e	-0.09691714
83	0x3e37d901	0.17953874
84	0xbdb39110	-0.08767903
85	0xbe864735	-0.26226202
86	0x3e099abe	0.13437936
87	0xbe1d947f	-0.15388678
88	0x3cb1cbfa	0.021703709
89	0xbe5dd26b	-0.216623
90	0x3db2bfc5	0.087279834
91	0xbe00f540	-0.12593555
92	0x3e84017f	0.2578239
93	0xbc4e7fe0	-0.01260373
94	0x3e0d2e19	0.13787116
95	0xbdb8e78b	-0.09028538
96	0x3dbef953	0.093248986
97	0x3d856910	0.0651418
98	0x3e5831e5	0.21112783
99	0x3b948e7a	0.004533586
100	0x3e9408cf	0.2891297
101	0x3e741d0b	0.23839204
102	0xbcf56391	-0.029954704
103	0xbab41cf6	-0.0013741541
104	0x3d87c299	0.066289134
105	0x3e496df4	0.1967085
106	0xbe1aa50b	-0.15102021
107	0x3e776e26	0.24163112
108	0xbe75d4b4	-0.24006921
109	0x3db15462	0.08658673
110	0xbeaf9644	-0.3429433
111	0x3e36e601	0.17861177
112	0xbdb9030c	-0.09033784
113	0x3b853c9c	0.004066063
114	0xbe168b46	-0.14701566
115	0xbcaaf70a	-0.02086975
116	0xbe71b3f1	-0.23603798
117	0x3e3ae587	0.1825162
118	0xbcee1430	-0.02906236
119	0xbe6b56d2	-0.22982338
120	0x3eabd2cb	0.3355926
121	0x3e5b8ac5	0.21439655
122	0x3da75396	0.081702396
123	0xbd50670f	-0.050879534
124	0xbd86f0d7	-0.06588905
125	0x3dca3b33	0.098745726
126	0x3c7e6665	0.015527342
127	0x3d5d283e	0.053993456

actor.2.weight f4 [128, 128]
0	0xbdb82ee1	-0.089933164
1	0xbd9099d6	-0.07060592
2	0x3c519488	0.01279176
3	0xbc593674	-0.013257612
4	0x3da3e14c	0.08001956
5	0xbdc85447	-0.097817
6	0xbd90a2e2	-0.070623174
7	0x3d10a82a	0.035316624
8	0x3d0e93c8	0.034808904
9	0x3d36a9b1	0.044595424
10	0xbd1a735f	-0.037707683
11	0xbbd22d26	-0.0064140735
12	0x3d0a54c3	0.03377224
13	0xbb41ad76	-0.0029552854
14	0x3dc572f1	0.09641064
15	0xbd985991	-0.074389584
16	0x3d0f24d5	0.034947235
17	0xbda231a0	-0.079196215
18	0x3c8a0f77	0.016853077
19	0x3d8ae634	0.06782189
20	0x3ce5c142	0.028046254
21	0xbceba015	-0.028762856
22	0x3d345bb9	0.044032786
23	0xbbd66c04	-0.006543638
24	0xbbeeca9e	-0.0072873374
25	0xbdf1e38a	-0.11810978
26	0x3d0d279a	0.034461595
27	0x3a8c2c55	0.0010694364
28	0xbd4e3581	-0.050343994
29	0x3d79670d	0.060889293
30	0x3c367f88	0.011138804
31	0x3c694af7	0.014239064
32	0xbd45c7c7	-0.048286226
33	0x3c3fda25	0.011709725
34	0x3db8f1e2	0.090305105
35	0xbdb71746	-0.08939986
36	0x3bc6695d	0.0060550408
37	0xbd82fd64	-0.06395987
38	0xbda744c0	-0.0816741
39	0xbdc6b77c	-0.097029656
40	0x3d9b1d07	0.07573896
41	0xbc5acaf0	-0.013354048
42	0x3d8c696a	0.06856044
43	0x3d79fc08	0.06103137
44	0x3d647af7	0.05578133
45	0x3da2b783	0.07945158
46	0x3c095cc0	0.00838393
47	0x3d2a064d	0.041509915
48	0x3d0596c8	0.0326145
49	0x3ae8128c	0.0017705723
50	0xbdc00b7c	-0.093771905
51	0xbcb06f7c	-0.021537535
52	0x3d487789	0.048942123
53	0xbd0c55e5	-0.034261603
54	0xbbe68c30	-0.0070357546
55	0x3d1afb6b	0.037837427
56	0x3d974b14	0.07387367
57	0xbc260d65	-0.010135029
58	0x3d112699	0.0354372
59	0xbc9c5fe7	-0.019088699
60	0xbda1b8fe	-0.078966126
61	0x3dc49392	0.09598459
62	0x3d3e5577	0.046468224
63	0xbb056e72	-0.002036002
64	0xbd6b27ec	-0.05741112
65	0x3d8425fa	0.06452556
66	0xbd289394	-0.041156366
67	0xbdacbccf	-0.0843445
68	0xbc86a6b8	-0.01643692
69	0xbda64675	-0.08118907
70	0xbda4e9c3	-0.08052399
71	0xbd2d8786	-0.042365573
72	0xbd4a1cf7	-0.04934403
73	0x3be3622c	0.0069391932
74	0x3c019a74	0.00791036
75	0xbcd7c758	-0.026340172
76	0xbd85f2fd	-0.06540487
77	0xbd0d9d9e	-0.034574144
78	0xbdb835a0	-0.08994603
79	0x3b7b8e73	0.0038384467
80	0xbd8a0a1f	-0.06740212
81	0x3d350170	0.044190824
82	0x3c9ec14c	0.01937928
83	0x3dbc7fc0	0.09204054
84	0x3d92346f	0.07138907
85	0x3d9cc36e	0.07654463
86	0xbc96f696	-0.018428128
87	0x3a3388a4	0.0006848669
88	0x3cd21590	0.025645047
89	0xbcb193b1	-0.02167687
90	0xbdc0d94c	-0.09416446
91	0x3d3974bd	0.045277346
92	0x3bdb75e8	0.006697405
93	0x3d0c69d9	0.03428063
94	0xbbd77faa	-0.006576498
95	0x3d869f34	0.06573334
96	0xbd36f072	-0.0446629
97	0xbc04e7c0	-0.008111894
98	0xbd89442b	-0.06702455
99	0xbc2af128	-0.010433473
100	0xbd6721f0	-0.05642885
101	0xbd165d7b	-0.036710244
102	0x3d887e78	0.06664747
103	0x3bb12583	0.005406083
104	0xbdbca666	-0.092114255
105	0x3d66d0f9	0.056351636
106	0xbd1621a0	-0.03665316
107	0xbbc99746	-0.0061520664
108	0xbc69e38a	-0.014275441
109	0xbdab329b	-0.083592616
110	0x3d986959	0.074419685
111	0xbdc48762	-0.09596135
112	0x3da807b1	0.08204592
113	0x3db13067	0.0865181
114	0xbd5f9931	-0.054589454
115	0x3ce19b66	0.02753992
116	0x3c0629f7	0.008188716
117	0xbdab560e	-0.08366023
118	0xbcd858f1	-0.026409598
119	0x3d426571	0.047460023
120	0x3b5b7236	0.0033484823
121	0xbd6c035c	-0.05762039
122	0xbd4c3579	-0.049855683
123	0x3d7151a2	0.05891574
124	0xbdb3a760	-0.087721586
125	0xbd78d166	-0.060746573
126	0xbdc5842f	-0.09644353
127	0xbd9ef46b	-0.07761463
128	0xbda047a5	-0.07826165
129	0xbe2d01d5	-0.1689523
130	0x3da60a21	0.08107401
131	0x3d8c22da	0.06842585
132	0x3db1f4ca	0.08689268
133	0x3d428d05	0.047497768
134	0xbd6c86c7	-0.05774572
135	0x3d22f759	0.03978667
136	0x3daedc04	0.085380584
137	0x3d40ca73	0.04706807
138	0x3d245754	0.040122345
139	0xbd77c806	-0.06049349
140	0xbd6cf821	-0.05785382
141	0x3b2458b2	0.002507728
142	0xbdd37430	-0.103248954
143	0x3d8f4c36	0.06996958
144	0xbdd12b0a	-0.10213287
145	0xbca353e3	-0.019937461
146	0xbdba5365	-0.090979375
147	0x3d823fc9	0.06359822
148	0x3dbd13d6	0.09232299
149	0x3cd560ee	0.026047196
150	0x3def92d0	0.11697924
151	0x3c276f3f	0.010219394
152	0xbd29c2e4	-0.041445628
153	0xbda28f84	-0.0793753
154	0x3d8eefd6	0.06979339
155	0x3b9925c4	0.0046736915
156	0x3d76ee04	0.060285583
157	0xbd8656e8	-0.06559545
158	0xbd5566e0	-0.052100062
159	0xbc395c35	-0.011313488
160	0x3d47acc7	0.048748758
161	0xbd1ea48e	-0.03873115
162	0x3db83c63	0.08995893
163	0xbd12199f	-0.035668965
164	0xbbdb6dbd	-0.0066964314
165	0xbdb9c212	-0.09070219
166	0x3bdb52d9	0.006693226
167	0x3d9b6d18	0.07589167
168	0x3d8ec438	0.069710195
169	0xbdb0ad1f	-0.0862677
170	0x3b9d700e	0.0048046177
171	0x3d9c8d8d	0.07644186
172	0x3d2bef62	0.04197634
173	0xbd54c57a	-0.05194614
174	0x3d9c6efb	0.07638355
175	0xbdaf6a0a	-0.08565147
176	0x3c37c209	0.011215695
177	0x3dbd6e53	0.09249558
178	0xbc398739	-0.0113237435
179	0xbdbbe145	-0.09173826
180	0x3b615e13	0.0034388348
181	0xbd9dde76	-0.07708447
182	0xbcdfd920	-0.027325213
183	0x3a48d2ca	0.00076608045
184	0xbcf2b315	-0.029626409
185	0x3b3fd43a	0.0029270784
186	0xbd53d069	-0.051712427
187	0xbd92006d	-0.071289875
188	0xbd0d0309	-0.034426723
189	0x3d5b672d	0.053565193
190	0x3e0bce09	0.13652815
191	0xbe1bfe81	-0.15233804
192	0xbc2a2b7e	-0.010386346
193	0xbc88d1a9	-0.016701536
194	0x3da4faad	0.08055625
195	0x3d3682af	0.044558223
196	0xbdaddd59	-0.08489484
197	0xbc94c761	-0.018161478
198	0xbd72859d	-0.059209455
199	0x3b5f5729	0.003407905
200	0x3c7a89cd	0.015291643
201	0xbbbfcd1e	-0.0058533093
202	0xbd8f4272	-0.06995095
203	0x3c8ed505	0.01743556
204	0x3d06e0dc	0.032929286
205	0xbc3fe2bd	-0.011711773
206	0x3ae7076b	0.0017626112
207	0xbdcdd223	-0.10049846
208	0xbcb3e754	-0.021960892
209	0xbd37d446	-0.044880174
210	0x3b14c6c0	0.0022701472
211	0x3d49a867	0.049232867
212	0x3d63ad74	0.05558534
213	0x3d4a8ac0	0.04944873
214	0xbbc718e6	-0.006075966
215	0x3d1a0d63	0.037610423
216	0x3cbfd5d2	0.023417387
217	0x3cc9c7bb	0.024631372
218	0x3bc35212	0.0059607113
219	0x3d17cc19	0.037059877
220	0x3c7d1616	0.01544716
221	0xbd5a66d9	-0.05332074
222	0x3d599b0b	0.053126376
223	0x3daebdd4	0.085323006
224	0xbdca6f64	-0.09884527
225	0xbd47eadf	-0.048807975
226	0x3d08c07d	0.033386696
227	0x3db51ebe	0.08843754
228	0xbda01191	-0.078158505
229	0xbd5fb365	-0.054614443
230	0xbdc54fc7	-0.09634357
231	0xbd64e48d	-0.055882026
232	0x3c2a466a	0.010392765
233	0x3d12b209	0.03581432
234	0xbce119c4	-0.027478106
235	0x3ce50a04	0.027958877
236	0xbd3dc17f	-0.04632711
237	0x3d926c58	0.07149571
238	0xbd773504	-0.060353294
239	0xbdc23f79	-0.09484763
240	0x3dba88fa	0.091081575
241	0xbcdcbdb5	-0.026945928
242	0x3d91146e	0.07083975
243	0xbdb1b4a4	-0.086770326
244	0x3d55d73d	0.05220722
245	0x3d4af811	0.04955298
246	0x3d36459a	0.04449997
247	0x3d02e3b4	0.031955436
248	0x3d247085	0.04014637
249	0xbd995fdf	-0.07488989
250	0x3c81ec2a	0.015859682
251	0xbd5a5520	-0.053303838
252	0xbde1c103	-0.11023142
253	0x3da8fbd5	0.08251158
254	0xbd49d339	-0.049273703
255	0xbd69516b	-0.05696241

actor.2.bias f4 [128]
0	0xbca3ac69	-0.019979673
1	0xbdc38528	-0.09546882
2	0x3cc70306	0.024293434
3	0xbc82c673	-0.015963769
4	0xbd9c78e2	-0.07640244
5	0x3d605454	0.05476792
6	0xbd2e33e8	-0.04252997
7	0xbda6022e	-0.081058845
8	0xbe4fe2cb	-0.20301358
9	0xbd9d7160	-0.0768764
10	0xbdc21981	-0.09477521
11	0xbdb18ab9	-0.08669037
12	0x3dae8c83	0.08522894
13	0x3ae492fa	0.0017438822
14	0xbe765213	-0.24054746
15	0xbcdb0333	-0.026734924
16	0xbda609ca	-0.08107336
17	0x3ca9bd8e	0.02072027
18	0xba9e519c	-0.0012078765
19	0x3d797b4f	0.060908612
20	0xbdf781df	-0.12085318
21	0xbe33bc06	-0.17552194
22	0xbd9e0df6	-0.077175066
23	0x3d6f03f2	0.058353372
24	0xbcade8ba	-0.021229137
25	0xbe193410	-0.14961267
26	0xbe3a1c61	-0.18174888
27	0xbd538a06	-0.0516453
28	0x3b9c0995	0.0047618845
29	0xbdbff62a	-0.09373124
30	0xbca72abe	-0.020406123
31	0x3dee3b3f	0.11632394
32	0xbe403792	-0.18771198
33	0xbda46167	-0.080263905
34	0xbed3bce8	-0.41355062
35	0xbcda693a	-0.026661504
36	0xbde4a5f4	-0.111644655
37	0xbe0befda	-0.13665715
38	0xbdf2b8c4	-0.118516475
39	0x3d8b7009	0.068084784
40	0x3df14f40	0.11782694
41	0xbd9bcc8d	-0.07607374
42	0x3d1ff175	0.03904863
43	0x3dada2f7	0.08478349
44	0x3dfb6732	0.12275542
45	0xbe08b238	-0.13349235
46	0xbd818a01	-0.0632515
47	0xbd84c6a1	-0.06483198
48	0xbecf4c9c	-0.40488136
49	0xbd3469ee	-0.044046335
50	0x3e0ff5a0	0.14058542
51	0xbdafef77	-0.08590596
52	0xbe074ca4	-0.1321283
53	0xb8cd4d10	-9.789516e-05
54	0xbdf36fca	-0.118865564
55	0xbe8563c5	-0.2605268
56	0x3d8e2ba5	0.06941918
57	0x3ce4721b	0.027886441
58	0xbd6a26b3	-0.057165813
59	0xbe0ee0a6	-0.13952884
60	0xbe186cb4	-0.14885217
61	0x3da7a29f	0.081853144
62	0x3de05e8a	0.10955532
63	0x3dbea397	0.09308546
64	0xbd8b4443	-0.06800129
65	0xbdf67f05	-0.12035946
66	0xbd9f92ed	-0.07791696
67	0xbdc472bf	-0.095921986
68	0x3c15a332	0.009133147
69	0xbde6b9f1	-0.11265934
70	0x3bfea7ef	0.007771484
71	0xbe71b0c7	-0.23602591
72	0xbc4740f7	-0.012161485
73	0xbe1dc387	-0.15406619
74	0x3e0e614c	0.13904303
75	0x3c86a124	0.01643426
76	0xbd8be52b	-0.0683082
77	0xbe691ab7	-0.22764097
78	0xbd8eb1c5	-0.069675006
79	0xbdcc211b	-0.09967252
80	0x3c08ff98	0.00836172
81	0xbbeff9b7	-0.0073234695
82	0xbd3367e8	-0.043800265
83	0xba27442f	-0.00063807046
84	0xbc0e0874	-0.008669008
85	0xbd0108e0	-0.031502604
86	0xbe0ade4b	-0.1356136
87	0xbe05616d	-0.13025446
88	0x3d1101f9	0.035402272
89	0xbe3ce83c	-0.18447965
90	0x3d6b8b1e	0.05750572
91	0x3dba03a2	0.09082724
92	0xbda97892	-0.0827495
93	0xbe5e52b3	-0.21711235
94	0xbca0aaf4	-0.019612767
95	0xb9120651	-0.00013925998
96	0xbce6fd6b	-0.028197011
97	0xbe8a4b0f	-0.2701039
98	0x3dd4baa3	0.10387161
99	0x3cab793c	0.020931832
100	0xbc7aa2d7	-0.015297613
101	0xbe1116e4	-0.14168888
102	0xbda87801	-0.08226014
103	0xbde4f410	-0.11179364
104	0xbc88167e	-0.016612288
105	0xbde8d2e2	-0.11368348
106	0xbd96c337	-0.07361453
107	0x3e24f35e	0.16108462
108	0xbda6fc83	-0.081536315
109	0xbd96113d	-0.07327507
110	0xbd6b3d30	-0.0574314
111	0x3cfafa40	0.030636907
112	0xbde54515	-0.11194817
113	0x3c6cb60b	0.014447699
114	0x3dfc6e8b	0.12325772
115	0xbdb2ad44	-0.08724454
116	0xbddfb579	-0.10923285
117	0x3d31c922	0.043404706
118	0xbdcb3db3	-0.099238776
119	0xbe062b79	-0.13102521
120	0xbd686959	-0.056741092
121	0x3d99bed2	0.07507099
122	0x3d92a103	0.07159617
123	0x3c7fee32	0.015620755
124	0xbdae5206	-0.085117385
125	0xbd172da3	-0.036908757
126	0xbe0c37d7	-0.13693176
127	0x3d121cf2	0.035672136

actor.4.weight f4 [128, 128]
0	0xbd23f91a	-0.040032484
1	0x3be8022c	0.007080337
2	0x3c288abb	0.010286982
3	0x3d1d51e9	0.038408194
4	0x3d9d628c	0.07684812
5	0xbc891327	-0.016732765
6	0xbd0a9e9a	-0.03384266
7	0x3d09fdcd	0.03368931
8	0xbd9e5f5b	-0.07733031
9	0xbdb03493	-0.08603778
10	0x3d40e992	0.04709775
11	0xbd82e650	-0.06391585
12	0x3e0c8622	0.13723043
13	0xbcd220d5	-0.025650421
14	0xbda58155	-0.08081309
15	0xbd0f143a	-0.0349314
16	0xbd1ac7cf	-0.03778821
17	0xbd97a189	-0.07403857
18	0xbd5cbd1e	-0.053891294
19	0xbd9b4642	-0.0758176
20	0xbd45f0b1	-0.048325244
21	0x3d538683	0.051641952
22	0xbd8ba2f6	-0.06818192
23	0xbd29df2e	-0.041472606
24	0xbd878164	-0.06616476
25	0x3b2cc27d	0.0026361041
26	0xbd2c090b	-0.04200081
27	0xbd5caaef	-0.053873952
28	0xbd7e6791	-0.062110487
29	0x3d6c5ee6	0.05770769
30	0xbc6af559	-0.014340722
31	0xbd3608d6	-0.04444202
32	0xbc5833af	-0.013195916
33	0xbdaf2024	-0.08551052
34	0x3d8df2ed	0.069311
35	0xbc26b140	-0.010174096
36	0x39e0135b	0.0004273903
37	0xbd800612	-0.06251158
38	0x3cdaf142	0.026726369
39	0x3d4648a4	0.04840912
40	0x3d8f9d1e	0.070123896
41	0xbda9c728	-0.08289939
42	0x3d80f515	0.06296746
43	0xbcc93c5a	-0.02456491
44	0xbb5b81d9	-0.0033494143
45	0x3d6154e2	0.05501259
46	0xbc77a98b	-0.015116106
47	0x3b295308	0.0025836844
48	0xbbf905d6	-0.0075995727
49	0xbdbdc95c	-0.09266922
50	0x3c110513	0.008851307
51	0x3d5360e7	0.051606085
52	0xbd176295	-0.03695925
53	0xbbf4c467	-0.007469702
54	0x3976d3ab	0.0002353924
55	0x3c8de610	0.017321616
56	0x3d8f75ff	0.07004928
57	0xbdeaff70	-0.11474502
58	0x3d9600e2	0.07324387
59	0xbd1c5f9a	-0.03817711
60	0xbd41a612	-0.047277518
61	0x3db0cc93	0.086327694
62	0x3c75b8e6	0.0149976965
63	0x3c49a88d	0.012308252
64	0xbdd7afc0	-0.105315685
65	0x3d22a22f	0.03970545
66	0x3d3ff57d	0.046864975
67	0xbdbd5838	-0.09245342
68	0xba41aab7	-0.0007387804
69	0x3d80f379	0.06296439
70	0xbd5d37e5	-0.054008383
71	0xbb345a02	-0.002751947
72	0xbc02e0fa	-0.007988209
73	0xbd1a7bac	-0.0377156
74	0x3daa324d	0.08310375
75	0x3d6c0df6	0.0576305
76	0x3d65c969	0.056100283
77	0x3cd59e5e	0.026076492
78	0xbcbb67cd	-0.022876645
79	0x3d403768	0.04692784
80	0xbcd9bca7	-0.026579214
81	0xbd932802	-0.07185365
82	0xbc9ba2c4	-0.018998511
83	0x3d32e510	0.043675482
84	0xbd1a1c67	-0.037624743
85	0xbc4badb8	-0.0124315545
86	0x3cfeec34	0.03111849
87	0x3d9348d5	0.07191626
88	0x3dd3edfe	0.10348128
89	0xbbe46e05	-0.006971123
90	0x3cb2d8b2	0.021831844
91	0xbd9b1c9e	-0.07573818
92	0x3d35c98f	0.044381674
93	0x3d9eb1c6	0.07748751
94	0xbbed14c4	-0.0072351415
95	0xbdad8275	-0.08472148
96	0xbda058c2	-0.07829429
97	0x3d9efc16	0.07762925
98	0xbd28b386	-0.041186832
99	0x3c66d90a	0.014089832
100	0xbd958f46	-0.07302718
101	0xbc384ef8	-0.011249296
102	0xbb9a2ef8	-0.004705306
103	0xbd7a04b1	-0.06103963
104	0xbd2100b1	-0.0393073
105	0x3c84a998	0.01619415
106	0x3d95ac6c	0.073082775
107	0x3d522ff7	0.051315274
108	0xbd49f71e	-0.049307935
109	0x3c6954fa	0.014241451
110	0x3b0f69c5	0.0021883112
111	0x3b65da53	0.0035072758
112	0xbd2919a5	-0.041284222
113	0xbc1c90db	-0.009556021
114	0xbdae2cfd	-0.085046746
115	0x3d22efd6	0.039779507
116	0x3d1d5cf9	0.038418744
117	0x3d061044	0.032730356
118	0x3cbd5198	0.023110196
119	0xbd560aa9	-0.05225626
120	0xbd334a25	-0.04377188
121	0xbddfc1b4	-0.10925618
122	0xba61df96	-0.0008616386
123	0x3cb2e7ba	0.021839011
124	0x3c9ad0f8	0.018898472
125	0x3da8ac23	0.082359575
126	0x3c743b68	0.014906742
127	0xbd14dd99	-0.036344144
128	0xbd8ed321	-0.069738634
129	0x3da9244f	0.082588784
130	0x3d6204c4	0.055180326
131	0xbd2d3085	-0.0422826
132	0x3d96abf3	0.073570155
133	0x3ca70ccd	0.020391846
134	0x3d099812	0.03359229
135	0xbd47f729	-0.048819695
136	0xbd2b0f02	-0.04176236
137	0x3d33336a	0.043750204
138	0x3c6a1d60	0.01428923
139	0xbd484708	-0.048895866
140	0x3d34deab	0.044157665
141	0x3d574d69	0.05256406
142	0x3db810b6	0.08987562
143	0xbcaedf17	-0.021346612
144	0x3c71154a	0.014714548
145	0x3d726bf2	0.059184976
146	0x3d0036ae	0.031302147
147	0xbce7d53e	-0.028299924
148	0xbd5c8f68	-0.0538477
149	0x3d73976f	0.05947059
150	0xbd0b4ae9	-0.034006987
151	0xbd4f37ca	-0.050590314
152	0xbd88fde1	-0.066890486
153	0x3c0a3494	0.008435387
154	0xbcf58b38	-0.029973611
155	0xbcb7dcb6	-0.02244411
156	0x3dd35cc7	0.1032043
157	0xbcae326d	-0.02126428
158	0x3d5c506e	0.05378764
159	0xbd6ddc9d	-0.05807172
160	0x3dab7428	0.083717644
161	0x3bf09c72	0.0073428685
162	0x3dead4d0	0.11466372
163	0x3d85ea04	0.065387756
164	0x3db0573d	0.086103894
165	0x3dccb722	0.09995867
166	0xbb10474c	-0.0022015152
167	0x3d25aab0	0.040445983
168	0xbcda96c4	-0.026683219
169	0xbd7bf90f	-0.061516818
170	0xbd4f50f7	-0.050614323
171	0x3cf4a951	0.029865893
172	0xbb83c88f	-0.004021711
173	0x3cdae05c	0.026718311
174	0xbbd98be0	-0.006638989
175	0xbbe98374	-0.007126266
176	0x3dce4cb4	0.10073224
177	0xbd15f8c0	-0.03661418
178	0x3d962b5b	0.07332488
179	0x3d250ac8	0.040293485
180	0xbd79b551	-0.060963932
181	0xbdca5589	-0.09879596
182	0x3d861a05	0.065479316
183	0xba7d83a5	-0.00096708006
184	0x3dad7a2b	0.08470567
185	0xbd8adff3	-0.06780996
186	0x3cf22ca5	0.029562304
187	0x3daa5a11	0.0831796
188	0x3d34c692	0.044134684
189	0xbd981d2b	-0.07427438
190	0x3d1fd5e2	0.039022334
191	0x3dc91e62	0.09820248
192	0xbc80cc4f	-0.015722422
193	0xbd550550	-0.05200702
194	0xbcde82cd	-0.02716198
195	0x3d4f047e	0.050541393
196	0xbdbcf9c7	-0.09227329
197	0xbc16a3ff	-0.009194373
198	0xbdcb176c	-0.09916577
199	0x3dbf052e	0.0932716
200	0x3c88eb20	0.016713679
201	0xbd0058b3	-0.03133459
202	0xbc37522c	-0.011189025
203	0x3d93ab57	0.07210415
204	0x3d681b30	0.056666553
205	0xbd5c04e0	-0.053715587
206	0xbda870fe	-0.082246765
207	0xbca75480	-0.020426035
208	0x3cf665c2	0.030077819
209	0xbcf6f3e3	-0.030145591
210	0x3d0c0c4d	0.03419142
211	0x3ce9bf83	0.028533703
212	0xbcb30858	-0.021854565
213	0x3da50927	0.08058386
214	0x3cf85fd1	0.030319126
215	0xbcc77cd6	-0.024351519
216	0x3d8e5aed	0.069509365
217	0xbbe310b6	-0.0069294823
218	0xbc8448f7	-0.016148074
219	0x3d8942aa	0.06702168
220	0xbd397538	-0.045277804
221	0x3d3fbfe4	0.04681386
222	0x3da38b3d	0.07985542
223	0xbdc41aae	-0.09575401
224	0x3d5fcfd6	0.054641567
225	0x3d7ba436	0.0614359
226	0xbd630cc4	-0.055432096
227	0x3d1ea0c4	0.038727537
228	0xbd526871	-0.051369134
229	0x3d83f303	0.06442835
230	0x3dbd0ca2	0.09230925
231	0xbd5b367f	-0.05351877
232	0x3ba33f5f	0.0049819197
233	0x3dbf0ff9	0.093292184
234	0x3d962296	0.073308155
235	0x3d59479b	0.053046804
236	0x3c2a656a	0.010400156
237	0x3d03bb86	0.03216126
238	0xbb7ddf4e	-0.0038737836
239	0xbdaad3b9	-0.08341164
240	0xbd7a8f23	-0.061171662
241	0x3b80602a	0.0039177136
242	0x3ca85f8a	0.02055337
243	0xbd8853e7	-0.06656628
244	0xbd619963	-0.05507792
245	0xbcd42588	-0.025896803
246	0xbda2ecb6	-0.07955305
247	0xbd0164fd	-0.03159045
248	0x39567391	0.00020451682
249	0xbd504075	-0.05084272
250	0x3ca36145	0.019943843
251	0xbc216bda	-0.009852374
252	0xbd42839e	-0.0474888
253	0x3d5715fa	0.052511193
254	0xbbf340f8	-0.0074235164
255	0x3b139143	0.0022517003

actor.4.bias f4 [128]
0	0x3cb9c4be	0.022676822
1	0xbd74dafc	-0.059779152
2	0x3d847d83	0.06469252
3	0xbddfd1d3	-0.10928693
4	0x3c5fe0d3	0.013664442
5	0x3de0fd17	0.10985773
6	0xbd58c621	-0.052923325
7	0x3c0587ed	0.008150083
8	0x3d6b2db1	0.05741662
9	0xbd1bcd68	-0.038037688
10	0xbd885916	-0.06657617
11	0xbd03687f	-0.032082077
12	0xbd55466d	-0.052069116
13	0xbc7b417c	-0.015335437
14	0x3d07c1e5	0.033143897
15	0x3c622c92	0.013804572
16	0x3d846634	0.06464806
17	0x3c9adb21	0.018903317
18	0xbc7df851	-0.015501098
19	0xbd82db58	-0.06389493
20	0xbd8438d3	-0.06456151
21	0x3d35cec9	0.04438666
22	0xbc5d151f	-0.013493805
23	0x3d1b37b7	0.03789493
24	0xbd302b06	-0.04300978
25	0x3c730500	0.014832735
26	0x3c19803d	0.009368953
27	0x3bb5e611	0.0055511077
28	0xbd70025f	-0.05859601
29	0x3dad3abe	0.0845847
30	0xbcc0cc8d	-0.023535037
31	0x3d5365eb	0.05161087
32	0xbc043377	-0.008068911
33	0x3d15f937	0.036614623
34	0xbd389c5e	-0.045071
35	0xb9389a8f	-0.00017605185
36	0x3df6e315	0.12055031
37	0xbb81e660	-0.0039642304
38	0xbd04b5fd	-0.03240012
39	0xbca07325	-0.019586155
40	0xbdde97c7	-0.10868793
41	0xbdc07852	-0.09397949
42	0xbd47628b	-0.048677962
43	0xbd8e9393	-0.06961741
44	0xbd0d6b67	-0.034526255
45	0xbd878c90	-0.06618607
46	0x3ce9677e	0.028491732
47	0x39b0c4c9	0.00033715952
48	0x3d2e1b51	0.04250652
49	0x3dbc32d8	0.09189385
50	0xbcdac095	-0.026703158
51	0x3cc14f2b	0.02359732
52	0x3d2d98b4	0.042381957
53	0xbd1a64f0	-0.037693918
54	0x3cd2bc41	0.025724532
55	0x3d55e51e	0.052220456
56	0xbdb1e37b	-0.086859666
57	0xbd34b070	-0.044113576
58	0x3ccf268f	0.02528694
59	0xbd4e0e6f	-0.050306734
60	0x3dbef9b5	0.093249716
61	0x3d1f19b4	0.03884287
62	0xbd189d6f	-0.037259515
63	0xbde263b0	-0.1105417
64	0xbc0f452a	-0.008744517
65	0xbce2c70c	-0.027682804
66	0xbc08f187	-0.008358366
67	0x3deaf445	0.11472372
68	0x3e0d4630	0.13796306
69	0x3d6b4586	0.05743935
70	0xbddfcdba	-0.10927911
71	0xbc8122e0	-0.0157637
72	0xbd43289a	-0.047646143
73	0x3dcae518	0.099069774
74	0x3c376026	0.011192357
75	0xbce4c61c	-0.027926497
76	0xbd6e9487	-0.058247115
77	0xbe43a94c	-0.1910755
78	0x3ddc711c	0.107637614
79	0xbd4a5616	-0.049398504
80	0xbde7fc77	-0.11327451
81	0xbd2dd2f6	-0.042437516
82	0x3ca7b751	0.020473154
83	0x3ca2ab79	0.019857155
84	0x3c23d199	0.009998702
85	0x3cc30894	0.023807801
86	0xbd29030a	-0.041262664
87	0xbc9cbc64	-0.0191328
88	0x3d7a5627	0.061117318
89	0xbdf9dc09	-0.122001715
90	0x3d7d804b	0.061889928
91	0x3dbeebcb	0.09322318
92	0x3d04df7c	0.032439694
93	0xbe2bafd8	-0.16766298
94	0xbd77f00e	-0.06053167
95	0x3cf0640f	0.029344587
96	0xbd996970	-0.07490814
97	0xbe124401	-0.14283754
98	0x3b9f92cb	0.004869794
99	0x3dc3bb7f	0.095572464
100	0xbd126b0a	-0.03574661
101	0xbe149133	-0.14508514
102	0xbe0e3f7f	-0.1389141
103	0x3d09b457	0.03361925
104	0xbdedaf7f	-0.11605739
105	0x3c40e842	0.011774125
106	0xbcf86551	-0.030321749
107	0x3d26ecf6	0.040753327
108	0x3d8a09c6	0.067401454
109	0xbdb665fb	-0.0890617
110	0x3d8c736d	0.06857953
111	0xbe1bc189	-0.15210547
112	0xbdb482ef	-0.08814036
113	0xbe0289fc	-0.1274795
114	0x3d943a59	0.072376914
115	0x3b4621df	0.003023259
116	0xbe069269	-0.13141789
117	0xbe136b49	-0.14396395
118	0xbde3ad4b	-0.111170374
119	0xbc0d29ba	-0.008615905
120	0x3dbfc273	0.0936326
121	0x3d02da56	0.031946503
122	0x3e03a628	0.12856352
123	0x3d334e5c	0.0437759
124	0x3cd75943	0.02628768
125	0x3c56ecf8	0.013118021
126	0xbe05ac71	-0.13054062
127	0xbc473434	-0.012158442

actor.6.weight f4 [8, 128]
0	0x3d849223	0.06473186
1	0x3d840261	0.06445766
2	0xbc8524b0	-0.016252846
3	0x3ddf6926	0.10908727
4	0x3c20b093	0.009807724
5	0xbd98e718	-0.07465953
6	0x3d8a58a7	0.0675519
7	0xbc565372	-0.013081418
8	0xbd979e0c	-0.07403192
9	0xbdf47efd	-0.119382836
10	0xbd14b980	-0.03630972
11	0x3d2616f2	0.040549226
12	0xbc5b7e30	-0.013396785
13	0xbd205449	-0.03914288
14	0xbd693f2f	-0.056945022
15	0xbd48d3f7	-0.04903027
16	0xbcc35fdc	-0.02384942
17	0xbd50e82a	-0.05100266
18	0xbd9aa5a1	-0.075511225
19	0xbb8a2f92	-0.0042170966
20	0x3cc0fd41	0.02355826
21	0x3c3c2d49	0.011485406
22	0xbd60ccd6	-0.054882847
23	0x3c39768f	0.0113197705
24	0x3d90119a	0.07034607
25	0xbd989cb9	-0.074517675
26	0x3bc483b5	0.005997146
27	0x3c91ab28	0.017781809
28	0xbd3073de	-0.04307925
29	0xbc53713f	-0.012905418
30	0xbc94b385	-0.018152008
31	0x3c3b55cb	0.011434029
32	0x3d55e37f	0.05221891
33	0x3d9c5c5b	0.07634803
34	0x3daf5327	0.08560782
35	0xbbf617b9	-0.007510152
36	0xbd6cc324	-0.057803288
37	0x3c2b772a	0.010465423
38	0xbd3f7736	-0.046744548
39	0x3ca5a407	0.020219816
40	0x3d1f2471	0.038853113
41	0xbc13d909	-0.009023913
42	0xbd383acd	-0.04497795
43	0xbc010cdb	-0.0078766
44	0xbcb5e935	-0.022205928
45	0xbc42ea04	-0.011896614
46	0x3d36209f	0.044464704
47	0xbd3565b3	-0.04428644
48	0x3c416a1e	0.011805085
49	0xbc855729	-0.016276913
50	0xbb428672	-0.0029682186
51	0x3da93694	0.08262363
52	0xbcc29b87	-0.023755802
53	0xbd074afe	-0.033030502
54	0x3d2f5f7c	0.04281567
55	0xbcfa3da1	-0.030546965
56	0x3c02a285	0.007973318
57	0xbd8411db	-0.06448718
58	0x3d3cc247	0.046083715
59	0x3d1ba8c0	0.03800273
60	0x3b20a9b2	0.0024515209
61	0x3cbc3f81	0.0229795
62	0x3dac3a71	0.08409584
63	0xbb5e34bc	-0.0033905944
64	0xbdb60d9a	-0.08889313
65	0x3d7353e8	0.05940619
66	0xbd146543	-0.036229383
67	0xbd00b5f7	-0.031423535
68	0xbcf92623	-0.030413693
69	0xbd0df113	-0.034653734
70	0x3dd69a87	0.104786925
71	0xbd5283f3	-0.051395368
72	0x3c51e491	0.012810842
73	0x3d443d30	0.047909915
74	0xbc763701	-0.015027762
75	0xbd2a1a9d	-0.041529287
76	0x3ba9c7d9	0.0051812944
77	0x3d473a4e	0.048639588
78	0xbd12dec8	-0.035856992
79	0xbbba1ce9	-0.005679716
80	0xba34588b	-0.0006879649
81	0xbba88bd3	-0.0051436215
82	0x3d63cb0c	0.055613562
83	0xb9826fa2	-0.00024878705
84	0xbd90f230	-0.070774436
85	0xbd7e6f6b	-0.062117975
86	0x3d852088	0.065003455
87	0x3d846209	0.06464011
88	0xbd720369	-0.059085283
89	0x3d82e7d7	0.06391876
90	0x3d8ced1b	0.06881162
91	0xbd1ff2f1	-0.039050046
92	0xbd56acda	-0.052410938
93	0x3d87995f	0.0662105
94	0x3d234344	0.03985907
95	0xbc4ae23e	-0.012383042
96	0x3c87099e	0.016484078
97	0x3d7e825b	0.062136035
98	0xbd2e51f1	-0.042558614
99	0x3c6ff26f	0.014645203
100	0x3ba02dc7	0.0048882696
101	0x3d2cbc50	0.042171776
102	0x3d5d6ee9	0.05406085
103	0xbd95372f	-0.07285916
104	0x3d81cba3	0.06337669
105	0x3b0361e2	0.0020047356
106	0xbb782aaa	-0.0037867227
107	0xbd779146	-0.060441278
108	0x3b8ed3d0	0.004358746
109	0x3d0e1392	0.034686632
110	0xbd5f89a6	-0.05457463
111	0x3d5b5393	0.0535465
112	0x3d78107c	0.060562596
113	0x3d9ec73e	0.07752846
114	0x3b814ed0	0.0039461628
115	0x3d7d5840	0.06185174
116	0x3d70cfdb	0.058791976
117	0x3d9ffe1d	0.0781214
118	0x3cb23334	0.021752931
119	0x3d584357	0.052798595
120	0xbdc5e27d	-0.0966234
121	0x3cdc2239	0.026871787
122	0xbcd8b71d	-0.026454503
123	0xbc9d386e	-0.019191947
124	0x3da2d6a0	0.07951093
125	0xbd8bfb90	-0.06835091
126	0x3dc9ad45	0.09847502
127	0xbc5b39cb	-0.013380478
128	0xbd1711a1	-0.036882047
129	0xbd8cf580	-0.06882763
130	0x3db8dc5c	0.09026405
131	0x3d7bbfdf	0.06146228
132	0xbd9767c3	-0.07392838
133	0xbd545a3d	-0.05184387
134	0x3d816f52	0.06320061
135	0xbc2d2997	-0.010568998
136	0x3d5e6f46	0.054305337
137	0x3c25ec6a	0.010127166
138	0xbd22fc1e	-0.03979122
139	0xbd2332e5	-0.03984346
140	0xbd2ca898	-0.04215297
141	0x3d61beaa	0.055113472
142	0xbc1d365b	-0.009595479
143	0x3c9281c0	0.017884135
144	0x3cc644e3	0.02420277
145	0xbcdfb3f7	-0.027307494
146	0xbcd3d35d	-0.025857622
147	0xbda7c850	-0.081925035
148	0xbcdd9461	-0.027048292
149	0xbd852950	-0.0650202
150	0xbc891802	-0.01673508
151	0x3ca1b8c0	0.019741416
152	0xbd367842	-0.04454828
153	0xbd86d1b4	-0.065829664
154	0xbd54d2bd	-0.05195879
155	0xbd2d212f	-0.042267974
156	0xba6595ef	-0.00087579986
157	0xbd6bceb6	-0.05757018
158	0x3d48e2e8	0.04904452
159	0x3da85485	0.08219246
160	0xbda6025b	-0.08105918
161	0xbcba4570	-0.022738189
162	0xbd97a7e0	-0.074050665
163	0x3d9de45d	0.077095725
164	0xbc834dcb	-0.016028306
165	0xbd666d6b	-0.056256693
166	0xbd8219c7	-0.06352573
167	0xbc3fa42c	-0.0116968565
168	0x3c1e6f26	0.009670055
169	0xbd250e4b	-0.040296834
170	0x3da07daf	0.07836472
171	0x3d211c8c	0.039333865
172	0xbcd679ef	-0.02618119
173	0xbd1f3a27	-0.038873818
174	0x3d2f2aad	0.04276531
175	0xbcbdf913	-0.023190057
176	0x3c76ff3f	0.015075504
177	0xbb49225a	-0.003069064
178	0xbcc6f565	-0.024286935
179	0x3d623e57	0.055235233
180	0x3d1c019c	0.038087472
181	0xbd182e08	-0.037153274
182	0x3d923f57	0.07140987
183	0xbd124186	-0.03570702
184	0x3bd74b93	0.0065702884
185	0xbda90443	-0.08252766
186	0x3c56017f	0.01306188
187	0xbcd4fdd9	-0.02599995
188	0x3dbdbd03	0.09264567
189	0x3b17edd9	0.002318254
190	0x3d552978	0.0520415
191	0xbd49a23a	-0.049226977
192	0x3cacfa3a	0.021115411
193	0x3cb9729d	0.02263766
194	0xbbd0b668	-0.006369401
195	0x3c0a3884	0.008436326
196	0xbc3ea8e5	-0.011636947
197	0xbba67675	-0.005080039
198	0x3d823f10	0.063596845
199	0xbd78bccc	-0.060726926
200	0x3ca75fd8	0.020431444
201	0x3c22ffdb	0.009948696
202	0xbc886027	-0.016647412
203	0xbd141fed	-0.03616326
204	0x3d468beb	0.04847328
205	0x3d2f285f	0.04276311
206	0xbd2e75d0	-0.042592824
207	0x3ca80abf	0.020512937
208	0x3d2265d9	0.03964791
209	0x3d856d12	0.06514944
210	0xbc4d25e2	-0.012521239
211	0xbc2d13b7	-0.010563782
212	0xbd390412	-0.045169897
213	0x3d87a0ca	0.06622465
214	0xbd84487a	-0.06459136
215	0xbd775c9f	-0.060391065
216	0xbd47ca39	-0.04877684
217	0x3d1676ac	0.036734268
218	0xbcefcca1	-0.02927238
219	0x3cea8fc2	0.028633002
220	0x3d240908	0.040047675
221	0x3ccb2121	0.02479607
222	0xbda53caf	-0.08068215
223	0x3d8f5d6e	0.07000242
224	0xbd46a0ac	-0.048493072
225	0x3d1418ab	0.036156338
226	0x3d7a1696	0.061056696
227	0x3cee0645	0.029055724
228	0x3c80d96c	0.015728675
229	0xbc93b341	-0.01802981
230	0xbb38bb76	-0.0028187907
231	0xbd178137	-0.036988463
232	0xbd6d6ede	-0.05796706
233	0xbd9dfcd7	-0.07714241
234	0x3c13f46d	0.009030444
235	0x3d04f4ef	0.03246015
236	0xbc4544b7	-0.012040309
237	0xbd6c062d	-0.057623077
238	0x3c71a803	0.01474953
239	0xbd69d421	-0.057087068
240	0x3d514433	0.05109043
241	0xbcaef168	-0.021355346
242	0xbc19110e	-0.009342445
243	0x3cd4488f	0.025913505
244	0xbbbd2ee8	-0.005773414
245	0xbcf42c7f	-0.029806374
246	0x3d17d1ce	0.03706532
247	0xbb51d819	-0.0032019673
248	0x3d8ace51	0.06777633
249	0x3d1eaa5d	0.03873669
250	0x3d207c4f	0.03918105
251	0xbca54638	-0.020175084
252	0xbd0009c9	-0.03125933
253	0x3db7a01b	0.089660846
254	0x3d8d88d8	0.069108665
255	0xbce8df36	-0.028426748

actor.6.bias f4 [8]
0	0x3cb31d99	0.0218647
1	0xbd0ee2fb	-0.034884434
2	0x3d1b06cb	0.037848275
3	0x3af02f89	0.0018324713
4	0x3d24cf83	0.04023696
5	0x3cb743b7	0.022371156
6	0x3c3d0c63	0.011538598
7	0xbd3737d6	-0.044730984

critic.0.weight f4 [128, 31]
0	0xbdbfbb44	-0.0936189
1	0xbd638bd1	-0.05555326
2	0xbe204665	-0.15651853
3	0x3e25731e	0.16157195
4	0x3d2dc1d6	0.042421184
5	0x3d1e6179	0.038667176
6	0xbe4fdaa7	-0.20298253
7	0xbd672f38	-0.056441516
8	0x3d4a1e1a	0.049345113
9	0x3f07b702	0.5301362
10	0xbb240ac8	-0.002503084
11	0x3f08be89	0.53415734
12	0xbeb94b86	-0.36190432
13	0xbe87cb61	-0.26522353
14	0x3df0a378	0.11749929
15	0x3d114b37	0.03547212
16	0x3d53e284	0.051729694
17	0xbded7731	-0.115949996
18	0xbaf0206f	-0.0018320213
19	0xbe02fb72	-0.12791231
20	0x3dcb6391	0.099311
21	0x3d9917d9	0.07475252
22	0x3e083c8b	0.13304345
23	0x3dd877f3	0.105697535
24	0x3d6506cb	0.05591468
25	0x3d10c7c9	0.03534678
26	0x3c75abeb	0.014994602
27	0x3de777ca	0.11302145
28	0x3da5723c	0.08078429
29	0xbdf63896	-0.12022512
30	0xbca5abff	-0.020223616
31	0xbe93ad1a	-0.28843004
32	0xbce62bab	-0.028096994
33	0x3ef7102a	0.4825452
34	0x3e5d3b1a	0.21604577
35	0x3d9f760c	0.077861875
36	0xbda2014a	-0.07910402
37	0xbdfff1c2	-0.124972835
38	0xbd9e09e9	-0.07716734
39	0xbd59e4e4	-0.053196803
40	0x3d8f4fb3	0.06997623
41	0xbf0de366	-0.5542511
42	0x3ea98eb9	0.331167
43	0xbd2ce697	-0.042212095
44	0xbe972d46	-0.29526728
45	0x3de91f3d	0.11382911
46	0xba825979	-0.0009944878
47	0x3cbdd34f	0.023172049
48	0xbe64cb46	-0.22343168
49	0xbd8f7182	-0.07004072
50	0xbdb975bc	-0.09055659
51	0xbd0a9098	-0.0338293
52	0x3d7317a5	0.05934872
53	0x3d4d65b9	0.05014584
54	0x3df22ae0	0.11824584
55	0xbdeef10e	-0.11667071
56	0x3dfc1f1c	0.12310621
57	0x3e399976	0.18124947
58	0xbd9854a8	-0.07438022
59	0x3de66010	0.11248791
60	0xbde0f0fe	-0.109834656
61	0x3db68902	0.08912851
62	0x3d883b7c	0.06651971
63	0x3e557e7e	0.20849034
64	0x3f11fd00	0.5702667
65	0xbe5299ab	-0.20566432
66	0x3dbc65e5	0.09199122
67	0x3e60a6b9	0.219386
68	0x3f20b34d	0.6277359
69	0x3d42b09c	0.04753171
70	0xbe17914e	-0.14801523
71	0xbf34c07c	-0.7060621
72	0xbdefe5b7	-0.117137365
73	0xbf35382d	-0.7078884
74	0x3ed34e42	0.41270643
75	0x3f2858a7	0.6576027
76	0xbce8371f	-0.028346596
77	0xbd231d2e	-0.03982275
78	0x3db05856	0.08610599
79	0x3c55c39c	0.013047125
80	0x3ca9caff	0.020726679
81	0x3d9fc219	0.07800693
82	0xbd8200cc	-0.06347808
83	0x3de0f92c	0.10985026
84	0x3e102c73	0.14079456
85	0xbd91353d	-0.070902325
86	0x3e1d2cb2	0.15349081
87	0x3d9d3d9f	0.07677769
88	0xbd6629eb	-0.05619232
89	0x3b07f17f	0.0020743308
90	0x3e07b09b	0.13250963
91	0xbe6b031e	-0.22950408
92	0xbde938c6	-0.11387782
93	0x3e0363b1	0.12830998
94	0x3cbe7d0e	0.02325299
95	0xbd2a52fa	-0.04158304
96	0x3e276db4	0.16350442
97	0xbdb85cb1	-0.090020545
98	0xbe7a0a5e	-0.24418017
99	0xbc3281df	-0.0108952215
100	0xbd764fd3	-0.06013472
101	0x3d747921	0.05968583
102	0xbec677f2	-0.38763386
103	0xbe8e254d	-0.27762833
104	0x3e4b4cf2	0.19853571
105	0xbe692a79	-0.22770108
106	0xbd558415	-0.052127916
107	0x3e31d0a7	0.17364751
108	0x3c07b279	0.008282297
109	0x3d655fbd	0.055999506
110	0x3e0defd2	0.13861015
111	0xbde30909	-0.11085708
112	0x3df875f7	0.12131875
113	0x3da64c36	0.08120005
114	0xbd533547	-0.05156448
115	0x3e0bccbc	0.13652319
116	0x3e19aabc	0.15006536
117	0xbd1e28a6	-0.038612984
118	0xbdb4c784	-0.08827117
119	0xbe039a87	-0.12851916
120	0xbbde8758	-0.0067910366
121	0x3d56e025	0.052459855
122	0xbad3f6c0	-0.001617156
123	0xbd4b32f1	-0.04960913
124	0x3e3de80f	0.18545555
125	0xbdd0069b	-0.1015751
126	0xbe8a1fac	-0.2697729
127	0x3e8bbe2e	0.27293533
128	0xbd0887fb	-0.033332806
129	0x3ea67cd6	0.32517117
130	0x3e450b3b	0.19242565
131	0x3ebb1591	0.3653989
132	0xbc97c05e	-0.018524345
133	0xbe834635	-0.256395
134	0x3e149c7c	0.14512819
135	0xbe144a03	-0.14481358
136	0x3eac9c82	0.33713156
137	0x3dac591b	0.08415433
138	0x3e9fc55e	0.31205267
139	0x3e1a39ed	0.1506116
140	0xbdf0ff4f	-0.11767446
141	0xbcc632ca	-0.02419414
142	0x3ceb6cd6	0.02873842
143	0x3d5391b0	0.05165261
144	0x3da59c26	0.080864236
145	0xbdaf6da1	-0.08565832
146	0xbd85e173	-0.06537142
147	0x3dd49056	0.103790924
148	0x3d396feb	0.04527275
149	0x3bff549a	0.0077920677
150	0x3e6de8f2	0.23233393
151	0x3ca533fe	0.020166393
152	0xbe8e9a40	-0.27852058
153	0x3dc936a8	0.09824878
154	0x3e173fef	0.14770482
155	0x3bf991e2	0.0076162675
156	0xbf4accb0	-0.7921858
157	0x3f13d08c	0.5774009
158	0x3ef29ec7	0.47386762
159	0x3a452757	0.00075208157
160	0x3f6fc048	0.9365277
161	0x3efa11ee	0.48841804
162	0x3eacbf2d	0.33739606
163	0x3d632bdb	0.055461746
164	0x3eca6d25	0.39536396
165	0x3eec4af5	0.46150938
166	0xbf021ac9	-0.5082212
167	0xbcddf399	-0.027093695
168	0x3e8718f3	0.26386222
169	0xbf113768	-0.5672517
170	0x3e896613	0.2683569
171	0x3e32f6c6	0.17476949
172	0x3e890edc	0.2676915
173	0x3e4f64f6	0.20253357
174	0x3b23dd84	0.002500386
175	0x3c019363	0.007908675
176	0xbb4c2433	-0.0031149506
177	0xbb9b8651	-0.0047462364
178	0xbe41f07b	-0.18939392
179	0xbc8f7297	-0.017510695
180	0xbdd0168e	-0.10160552
181	0x3d44b5d9	0.048024986
182	0x3dc56eda	0.09640284
183	0xbe525426	-0.20539913
184	0xbcea0516	-0.028566878
185	0x3c9fb156	0.01949374
186	0xbe399508	-0.18123257
187	0xbdcbb627	-0.09946852
188	0xbdf0f121	-0.11764742
189	0x3c8a9f88	0.016921774
190	0xbd47b094	-0.048752382
191	0xbe5b4c27	-0.21415769
192	0xbe3151f4	-0.17316419
193	0x3d577a8d	0.052607108
194	0x3dc32258	0.09528035
195	0x3f9398f6	1.1531055
196	0xbe7a1bdc	-0.2442469
197	0x3ee6263a	0.4495104
198	0xbe8c62fa	-0.27419263
199	0xbecae3ce	-0.39626926
200	0x3e35a6dc	0.17739433
201	0x3d83246c	0.06403431
202	0xbdb54f24	-0.088529855
203	0xbdb697be	-0.08915661
204	0x3dc34d23	0.09536197
205	0xbdc801fa	-0.09766002
206	0xbd411926	-0.047143124
207	0x3c7dc539	0.015488916
208	0xbde4f0b1	-0.11178721
209	0x3d2169ba	0.03940747
210	0xbe1997b5	-0.14999278
211	0xbd881d3a	-0.066461995
212	0xbd6f4ac8	-0.058420926
213	0xbb450cae	-0.0030067372
214	0xbdaffceb	-0.08593162
215	0xbe09bbf1	-0.134506
216	0x3d92d6bf	0.07169866
217	0xbf003394	-0.500787
218	0xbe469b19	-0.19395103
219	0xbd04945a	-0.03236804
220	0x3dc37af9	0.095449395
221	0x3d6c81de	0.05774104
222	0xbddbdfb3	-0.107360266
223	0xbe516d0e	-0.20451757
224	0xbea92965	-0.33039394
225	0xbed71f71	-0.42016175
226	0x3f055d05	0.5209506
227	0x3db2d7dc	0.08732578
228	0x3f0d2821	0.55139357
229	0xbd9de101	-0.07708932
230	0xbec6f715	-0.38860384
231	0xbd3e93c8	-0.046527654
232	0x3b76e843	0.003767506
233	0x3da2e050	0.079529405
234	0x3d4d7a31	0.05016536
235	0xbd6f6ca4	-0.058453217
236	0x3d33ee27	0.04392829
237	0xbe06b1a6	-0.13153705
238	0xbb84f36c	-0.0040573385
239	0xbc972bc4	-0.018453486
240	0x3c206030	0.009788558
241	0x3b837975	0.0040122815
242	0xbc5bf1f3	-0.013424384
243	0xbdfcd38c	-0.12345037
244	0x3e138e29	0.14409699
245	0x3e2a3d19	0.1662487
246	0x3de4ad63	0.111658834
247	0xbe00cf3b	-0.12579052
248	0x3ea1b6c4	0.31584752
249	0x3efc0212	0.4922033
250	0xbec1c3c7	-0.3784468
251	0xbeca5b8a	-0.39522964
252	0xbc340a4a	-0.010988781
253	0x3e269bb2	0.1627033
254	0x3e38a34d	0.18031044
255	0x3f1880a0	0.59571266

critic.0.bias f4 [128]
0	0xbe07d0da	-0.13263264
1	0x3d9b5ce1	0.075860746
2	0x3ec390b9	0.38196352
3	0x3e23e31e	0.16004607
4	0x3df1379a	0.11778183
5	0xbe232ecc	-0.1593582
6	0x3df18263	0.117924474
7	0x3ea9a2ba	0.33131963
8	0x3d837507	0.064188056
9	0xbd9e0347	-0.07715469
10	0xbddbb97c	-0.10728738
11	0xbe1cd59c	-0.1531586
12	0xbcbcf2f4	-0.023065068
13	0x3db725b2	0.08942737
14	0x3ebb4c0c	0.36581457
15	0xbd8f656f	-0.07001769
16	0xbdeb4933	-0.11488571
17	0xbc304e26	-0.01076082
18	0x3e133914	0.14377242
19	0x3da20aec	0.079122394
20	0x3edc97c9	0.43084553
21	0xbe1d5706	-0.15365228
22	0xbe428015	-0.18994172
23	0xbd514cff	-0.05109882
24	0x3e3ca27a	0.18421355
25	0xbd10c6fe	-0.035346024
26	0x3e1564f9	0.145893
27	0xbe290f20	-0.16509676
28	0xbcee6e54	-0.029105343
29	0x3d2ee73d	0.042700995
30	0x3da026cb	0.07819899
31	0x3d98bd17	0.07457941
32	0x3d51cba3	0.051219594
33	0x3e9e6ae9	0.3094094
34	0x3e7e4cde	0.2483401
35	0xbe5d1aee	-0.21592304
36	0xbe2849d9	-0.1643442
37	0x3e27aa7c	0.16373628
38	0x3d28a5cc	0.04117374
39	0xbe3dcdf8	-0.18535602
40	0xbd78eb5e	-0.06077134
41	0x3eadcb33	0.3394409
42	0xbd2dd670	-0.04244083
43	0xbda6fb4a	-0.08153398
44	0x3e8915d6	0.26774472
45	0x3ea7278b	0.32647356
46	0x3da82125	0.08209447
47	0xbe140033	-0.14453201
48	0xbdd94956	-0.10609691
49	0x3ea140be	0.31494707
50	0x3dc10746	0.094252154
51	0xbe7da21d	-0.24768873
52	0x3e2d3670	0.16915298
53	0x3daca8d7	0.08430641
54	0xbe043686	-0.12911424
55	0xbd7f61c5	-0.0623491
56	0x3d8c2ffe	0.06845091
57	0xbe490afe	-0.196331
58	0xbd9d7d5e	-0.076899275
59	0xbd4b0dcf	-0.049573716
60	0x3de361ba	0.11102624
61	0x3e11532c	0.14191884
62	0xbd08d1f9	-0.03340337
63	0xbd082c62	-0.03324545
64	0xbd5696da	-0.052389957
65	0x3c6c5ae0	0.014425963
66	0x3defd370	0.117102504
67	0x3d5b1969	0.05349103
68	0xbdb3d8b8	-0.0878157
69	0x3e854fce	0.2603745
70	0xbd77b23d	-0.060472716
71	0x3e73103f	0.23736666
72	0x3e78ec85	0.24308975
73	0x3eacd89c	0.3375901
74	0x3e724647	0.23659621
75	0xbe4ec12b	-0.20190875
76	0x3ee21d75	0.441631
77	0x3e24ee6d	0.16106577
78	0x3db838cb	0.089952074
79	0x3db19a85	0.086720504
80	0x3de104a1	0.10987211
81	0x3dbb99ce	0.09160195
82	0x3e1e0516	0.15431628
83	0x3edadc31	0.42746118
84	0xbe5a48d1	-0.2131684
85	0x3d281e3a	0.04104445
86	0xbd598f65	-0.053115267
87	0x3c8464da	0.016161371
88	0x3ed71122	0.4200526
89	0x3f0068b0	0.5015974
90	0xbe889416	-0.2667548
91	0x3eab5395	0.33462206
92	0x3cab094f	0.020878462
93	0x3d129195	0.03578337
94	0x3d6d4067	0.057922747
95	0x3f00dd70	0.50337887
96	0x3dbf4a2c	0.09340319
97	0xbd854670	-0.065075755
98	0x3d909b68	0.070608914
99	0x3ea14a11	0.3150182
100	0x3e963506	0.2933733
101	0xbb75df7d	-0.0037517243
102	0x3d166f3e	0.036727183
103	0x3d87c7f3	0.06629934
104	0x3e6fa9ff	0.23404692
105	0xbe5297a2	-0.20565656
106	0x3ec826c0	0.39092064
107	0xbd8641bb	-0.06555506
108	0x3e2037d9	0.15646304
109	0x3df47df2	0.11938085
110	0xbdc28698	-0.09498328
111	0x3dcef954	0.10106149
112	0x3d386617	0.045019235
113	0x3e56fdd4	0.20995265
114	0x3dd94824	0.10609463
115	0x3e0c144f	0.13679622
116	0x3d835080	0.064118385
117	0x3e728003	0.23681645
118	0x3db50e23	0.08840587
119	0x3dca0c82	0.09865667
120	0x3e241e52	0.16027191
121	0x3e045485	0.12922867
122	0x3e473a8c	0.19455928
123	0xbdd29227	-0.102817826
124	0x3e3ddbc0	0.18540859
125	0xbe268e90	-0.16265321
126	0x3d79f1bd	0.061021555
127	0xbd95edaf	-0.07320725
